lab4-student/code/model/bestModelParms-11-13-13-59.pth (torch, 498345 bytes, 20 tensors)

user_id_embedding.weight f4 [900, 32]
00000000: b82c 9f3e d63d 51ba 0d75 0cbd 672f 9abc
00000010: d638 623c fef8 3c3c b687 26be a273 d53b
00000020: 086f b63b 76f8 263d a261 3c3c 45a9 2cbc
00000030: dcdf 95bc 2afa 433c c870 96bd b7aa 62bd
00000040: a86f d1be c7bb b9bc 0623 cc3c a323 1ebd
00000050: 9a1a d63c fa5c 813d 96b4 a9bc ad06 27be
00000060: f92f 8cbc 71ae f5bc 5afe e2bc 1b90 5f3c
00000070: e19c 81bc 9a5f 88bc d2ff a43c daed f5bb
00000080: 4b0e 5f3c b97d 7f3d 4d5d 17bb 37d7 dc3b
00000090: 45fa 2cbc f861 82bd dec5 553b 90d4 c7bb
000000a0: bfd1 ef3b c7d5 a33c 67eb b83c 3329 50bb
000000b0: 9690 c4bc 8ed3 62bc 1558 52bc 63ee cfbb
000000c0: 98e8 96bc 24d8 88bc 986d daba e2fb babb
000000d0: 7507 b9bc 9cb2 9a3c 2c2a c33b c8f8 bc3e
000000e0: bc8c 2bbf 1466 323e 480e 9dbd ef5b 363c
000000f0: 8e86 90bc 4337 c63e 862f 463b e730 83ba
00000100: 0f27 843c b1d3 8dbc c9d5 87bc a3f8 063d
00000110: e073 64bc efb4 553d 55b2 e4bc 9d6c e23c
00000120: ac44 243e b5b9 fd3a f31d 61bc c505 8dbc
00000130: 8ee5 8bbe 174e bb3b bd45 2bbd d260 7dbb
00000140: d31e a6b9 8ef5 90bc 8706 52be 26c3 203d
00000150: a325 383c 452d f63b 1ae9 53bd 03d2 aebc
00000160: cc39 a0bc 2226 9e3d b4c2 923c f5d3 f2bc
00000170: b904 f9bc 94f9 b1b7 6a87 013d 3ebe 8ebd
00000180: 6beb 1f3e 3ca6 833d b107 fe3c ca5e 783c
00000190: 2c6c 153e 7aed c7bc 74be 803c 2cd0 d3bc
000001a0: 315f 05be 7557 41bd 9ba7 853c d414 e43c
000001b0: 212b 2a3d 5e67 8bbb df55 ae3c ff4a edbc
000001c0: fb5c 18bc 6a49 323d c8ac 4fbc 7ccf 523b
000001d0: 57cd c0bc cfa3 b7bc 06e1 b4bb 26e3 d7b8
000001e0: 2336 d03b 5419 d93b 2a9c 79bc 9d52 3e3e
000001f0: 81d1 3c3d 3701 28bd d44b 65bc c4f5 4f3d
00000200: 2bee 4a3d 69bb a73c 11b6 b0bc 270b 53bd
00000210: d1af 963c c22f 7f3e cf68 133e 567a 563d
00000220: 988c 983d cdab 0ebd 13a7 f8bb e8e3 afbd
00000230: 84cb 07bd 709f 85b9 eb61 5039 9d27 aebc
00000240: 7730 5bbc 4a04 5fbd f06e 8f3d 14dc 54bd
00000250: 020e 563d ecde b83d e629 8bbc a166 2b3d
00000260: be7c e0bc 7df2 a33b 0863 43bd 7fc5 b03d
00000270: 94c0 30bd a420 6d3c d818 0f3e 7ab5 aabc
00000280: 7cd9 383d 5418 943d 9de6 b0be 0a7e 1abe
00000290: 0cc9 31bd fd64 113d 25b6 c13e a7b5 223d
000002a0: e1e4 9b3c 9030 e5bc b46a 82bd 0007 14bd
000002b0: fa7a bdbe 97ae dd3e a86b 83bd cb3e d3bc
000002c0: ad94 0ebd e6b2 05bd 15cc 843e 3488 503b
000002d0: bb7b 9c3c 35b1 5f3d 5e13 59bd 10f6 3b3d
000002e0: b03f 20be 2466 11bd 163f b0be 4744 94bc
000002f0: 35fe 7fbd 166c a3bc 7659 643d 2ebe 80bc
00000300: 36d4 08bc 8b9f febd 2922 293b 149b 273c
00000310: 303f 203d 5515 8cbe 5d58 70be dded 80ba
00000320: 8d7b a23c d7b9 f2bb 233f e63d b28b d33c
00000330: 7f9b 903b b631 113d 9b5e 1abf d3b4 a73b
00000340: 58c1 8b3c 5f72 a1bf 61ae 83bc 61f7 3cbd
00000350: f540 1cbc eda0 46bd 29f3 0abc 1817 a73b
00000360: 88f5 b4bc f437 463c 2a80 e3bc 73ac 69bd
00000370: 9d27 8abe 91a7 093d 09f3 4e3f 7fb6 0cbd
00000380: 6133 893b 59ad 993c 2467 b7bc 461c 723c
00000390: 25f6 2f3f 5036 17bd 51c4 a83b d54e 7ebb
000003a0: d59b 453c edd4 b83c 0133 c4be 18c4 edbc
000003b0: 91c1 c03b e8c6 faba b428 6ebc 7f9a f03d
000003c0: fb35 563c b01d 4dbc 665b c3bd 99f3 c53c
000003d0: faf0 ae3d dd7b 0cbd 65d8 1c3d 36d1 123c
000003e0: 960f 173c e09e d73b 50a3 643b e4a5 8e3b
000003f0: 6657 073c cb56 713c 5602 663c afe3 92be
0.31088805 -0.00079819316 -0.034291316 -0.018821431 0.013807496 0.011533974 -0.16262707 0.0065140286
0.005567435 0.040764295 0.011497887 -0.010538404 -0.018295221 0.011961499 -0.0734573 -0.055338588
-0.409055 -0.022672547 0.024919044 -0.038608205 0.026135731 0.06316562 -0.020715993 -0.1631114
-0.017112719 -0.029990407 -0.027709175 0.013645197 -0.015821876 -0.016647149 0.020141516 -0.0075051608
0.013614248 0.062375758 -0.0023096383 0.006739523 -0.010557716 -0.06366342 0.0032619159 -0.0060983375
0.007318705 0.019999398 0.022573186 -0.0031762838 -0.023994725 -0.013844384 -0.012838383 -0.0063455566
-0.018421456 -0.016704626 -0.0016664742 -0.0057062963 -0.022586564 0.018883996 0.005955955 0.36908555
-0.6701162 0.17421752 -0.076687396 0.011130317 -0.017642286 0.38714036 0.0030240729 -0.0010009081
0.016131906 -0.017312856 -0.016581433 0.032951962 -0.013943642 0.052174505 -0.027917067 0.027639681
0.16041821 0.0019357713 -0.013740051 -0.017214665 -0.27323574 0.005716096 -0.041814554 -0.0038662446
-0.00031684953 -0.017695215 -0.20510302 0.039248608 0.011239442 0.007512721 -0.051735975 -0.021340376
-0.01955881 0.07722117 0.017915107 -0.029642085 -0.03039776 -2.1216263e-05 0.03162328 -0.069698796
0.15617149 0.06428191 0.031009527 0.015159318 0.14592046 -0.02440523 0.015715815 -0.0258561
-0.13024594 -0.047202546 0.016315272 0.027841963 0.041545037 -0.0042542657 0.02128118 -0.028966425
-0.009299512 0.043527044 -0.012675472 0.0032167127 -0.023535414 -0.022416977 -0.005519989 -0.000102943086
0.00635411 0.006625334 -0.015234986 0.18586202 0.046098236 -0.041016784 -0.01399513 0.05077149
0.04954354 0.020475106 -0.021571191 -0.051524308 0.018394383 0.24920562 0.1439545 0.052362762
0.07448691 -0.03483181 -0.007588276 -0.085883915 -0.033153072 -0.00025486527 0.00019872903 -0.021259123
-0.013378254 -0.05444745 0.070035815 -0.051967695 0.052259453 0.09026894 -0.016987752 0.04184592
-0.027403232 0.005003272 -0.047701865 0.086314194 -0.043152407 0.014473114 0.13974321 -0.020838488
0.045129284 0.07231203 -0.34550944 -0.15087143 -0.043404624 0.0354967 0.37834278 0.03972402
0.019030036 -0.027977258 -0.06368008 -0.03613949 -0.37007886 0.43297264 -0.06417018 -0.025786778
-0.034809757 -0.032641314 0.25936952 0.0031819465 0.019101968 0.054612357 -0.052996986 0.04588896
-0.15649295 -0.0354978 -0.3442313 -0.018098963 -0.06249829 -0.019949 0.05574938 -0.015715685
-0.008351376 -0.12432774 0.0025807715 0.010229845 0.03912276 -0.27360025 -0.23471208 -0.0009836514
0.019834304 -0.0074074077 0.11242511 0.025823448 0.004413068 0.0354478 -0.60300606 0.0051179915
0.017059967 -1.2613028 -0.016074361 -0.046134356 -0.009536971 -0.048493315 -0.008480825 0.0050991885
-0.022089735 0.012098301 -0.027771074 -0.057049226 -0.26983348 0.03360707 0.8083959 -0.03435373
0.004187033 0.018759416 -0.022388048 0.014777249 0.6873496 -0.03691703 0.005150356 -0.0038804312
0.012061079 0.022562468 -0.38320163 -0.029024169 0.00588245 -0.0019132765 -0.014536072 0.11748218
0.013074393 -0.012519285 -0.09538917 0.024164008 0.085420564 -0.034297813 0.038292307 0.008961013
0.009220025 0.0065802187 0.003488738 0.004353272 0.0082605835 0.014730166 0.014038643 -0.28689334

user_age_embedding.weight f4 [5, 4]
00000000: fa3f 003f 00fb 2d3e 9e0e a1bf 6001 253f
00000010: 461a 0f3f 77f5 c4bf 79b6 07bf c3d1 fc3e
00000020: e23a af3e ee1b cdbe b422 fe3d 5013 1abf
00000030: ae68 943f 44c4 d43e 5a59 563f fd57 c63e
00000040: e14e 80bd 5e95 9a3e 6e4d 703f 2455 90bf
0.5009762 0.1699028 -1.2582586 0.64455223 0.55899465 -1.538741 -0.53012806 0.49378785
0.34224612 -0.4006037 0.12408963 -0.6018572 1.1594446 0.4155599 0.8373009 0.38739005
-0.06265045 0.30192083 0.9386815 -1.1275983

user_gender_embedding.weight f4 [2, 2]
00000000: 52de 0d3e 87af 923e f291 96bf 5e41 b63e
0.1385434 0.28649542 -1.1763289 0.35596746

user_occupation_embedding.weight f4 [21, 8]
00000000: e11a f8bb f271 783e 2ad5 58be 6b04 d33d
00000010: 2d16 563e 43a7 af3d 0c9f 2c3f eb57 d93e
00000020: 8e47 f7bc bf63 3cbf 371d ff3e 4a53 18be
00000030: 741f 30bf 746a 913e aacf 47be 6baf b3be
00000040: ce0a db3e 2b58 87be c64b 263f 84b3 ef3d
00000050: f0fd cb3e 9615 abbe 323a 14be d691 aa3e
00000060: 3eb5 873f 1ec3 d0bc dc0f 3fbf f437 423f
00000070: 7bf6 a63c 59e4 64bd 0969 23be 45bf b7be
00000080: 670d 073e 0f13 ecbe fcf7 e7be fa2c f33d
00000090: 9d46 673e ea06 dfbe dde4 713e 0723 16bf
000000a0: 46fd 86bf bf47 abbe 7440 e83c 1a42 c5bd
000000b0: f501 7fbe 177c 5abf cce6 013f a3d7 9fbe
000000c0: 2d04 553d 427e 72bf fac7 233d f022 59bd
000000d0: 4781 04be 877c fd3d 0b2c e1bb 19da 243e
000000e0: f2dd 083d 14e2 c43e 698f d2be 27ed c93e
000000f0: 3e32 29be 400a c63d fa56 d53e 40e1 113f
00000100: d370 7dbd 9d04 ed3c f4b7 4f3e cff2 ec3d
00000110: c918 06bd cd50 6ebe 918b f23d fcc1 703c
00000120: bd67 1f3e f818 bf3d d38a 613d f031 1abe
00000130: 62fd a13b 6314 c5bc bf7a 7c3e 9f64 003e
00000140: 0410 523d f161 99be c81e 723e dac7 95be
00000150: daa3 d33e a2f4 2cbe ca12 04bf 032a c8be
00000160: 0a33 34be b812 26bb 30fb e03e cec6 433d
00000170: 3f73 2d3f 7826 ac3d 50d1 96be fe6f 813e
00000180: 887c e53e 6206 ac3e efc2 473c a40b f9bd
00000190: cee2 85bd fb98 12bd e2fd 683d 615c f4bd
000001a0: 8a19 96bc e099 07be 23ce 4c3e cced dc3c
000001b0: 9642 4c3e dd5b ec3e fb87 c5bd 0db5 da3e
000001c0: d861 fc3c a10a 463f 985f fb3e be4f b3bd
000001d0: d360 49be 9c5e a5be 233c 8f3d bece 14be
000001e0: 654c b13d fa3a 643e ecb8 e0bd 9167 90bd
000001f0: ddd0 a63c 1139 253f 7bdb eb3d c746 1dbd
00000200: deef 89bd 2654 7bbd 9e1b 0cbe 3bd9 ccbc
00000210: 0bae 46be f848 553c bd34 edbc 0c50 d0bd
00000220: ba7d 8f3e 29be bc3d 8c15 1cbf d6a6 d5bd
00000230: 8f26 ba3e fee2 35be 555b b13e b753 e2bd
00000240: 0917 b23c 79fb e23a 730d 993e e670 723d
00000250: 349a 3e3d 444c 9abe e3d9 ecbc 8584 2bbd
00000260: e9ab 423e 8841 fc3c 03e8 90bf b432 a3bd
00000270: 8079 0ebd e3cd dbbd e6ec f13d 8283 1abd
00000280: 2c4e 81bb 4fdb 19be 80e3 04bd 1d55 813a
00000290: 2394 93bd 2922 5cbc 1afe c33c 44f7 eb3d
-0.0075715636 0.24262217 -0.21175066 0.10303577 0.20906897 0.085768245 0.67430186 0.4244989
-0.030185487 -0.735897 0.49826977 -0.14875522 -0.68797994 0.2840153 -0.19512811 -0.3509477
0.4278168 -0.26434454 0.6495937 0.11704162 0.39842176 -0.33414906 -0.14475325 0.3331439
1.0602186 -0.025483664 -0.74633574 0.7586663 0.020381203 -0.05588183 -0.15958036 -0.35888115
0.13188706 -0.4610829 -0.45306385 0.11873813 0.2258553 -0.43559963 0.2362246 -0.586472
-1.0546043 -0.33453175 0.028351046 -0.096317485 -0.2490309 -0.85345596 0.50742793 -0.31219205
0.052005935 -0.94723904 0.039985634 -0.053011835 -0.1293994 0.12377267 -0.0068717054 0.16098823
0.03341479 0.38453734 -0.41125038 0.39438745 -0.16523072 0.09669924 0.4166792 0.5698433
-0.061875176 0.028932864 0.20285016 0.115697496 -0.03273848 -0.2327301 0.118430264 0.014694687
0.15566917 0.09330934 0.055064034 -0.15058112 0.0049435357 -0.024057573 0.24656199 0.12538384
0.051284805 -0.29957536 0.23644555 -0.29254037 0.41335946 -0.16890195 -0.5159117 -0.39094552
-0.17597595 -0.0025340747 0.4394164 0.047797017 0.67753977 0.08405775 -0.29456568 0.25280756
0.44821572 0.3359862 0.012192472 -0.121604234 -0.065374 -0.035790425 0.056882747 -0.119316824
-0.018322725 -0.13242292 0.2000051 0.02696886 0.19947276 0.46163836 -0.09645077 0.42716256
0.030808374 0.7735997 0.4909637 -0.08755444 -0.19665842 -0.32298744 0.06993892 -0.14531991
0.08657149 0.22288123 -0.10972771 -0.07051004 0.020363266 0.645402 0.11516472 -0.038397577
-0.06735204 -0.061359547 -0.1368241 -0.025005927 -0.1940233 0.013017885 -0.028955812 -0.10171518
0.2802561 0.09215958 -0.6097038 -0.10432212 0.36357543 -0.17762372 0.34639993 -0.110511236
0.0217395 0.0017317376 0.29893073 0.0591897 0.04653378 -0.3013631 -0.02891249 -0.041874427
0.19010891 0.030792966 -1.1320804 -0.07968655 -0.03478384 -0.10732629 0.11812763 -0.037723072
-0.0039460864 -0.15025066 -0.032443523 0.0009867285 -0.07205989 -0.013435879 0.023924876 0.115217716

user_location_embedding.weight f4 [760, 18]
00000000: 7123 023d 5c34 1abd 043c 923c 869f 05bc
00000010: a6af 833d 4354 8d3d a61b 0abd ac07 133d
00000020: 8204 543b 7168 303c 79d1 10bd 7961 a53b
00000030: 5625 d8bc 3a76 29bc a60f 013d 3829 2fba
00000040: a5ec 553e 08f3 47bc 877f cd3a ece4 053c
00000050: eb88 e5bb 5cd0 613c a627 173b d97f 5d3c
00000060: 26b6 973b a90a c0b9 d2df 05bc 271c d8bc
00000070: 7ab3 0e3d aa84 b23c 8f72 42bc b2f2 59bc
00000080: a184 973b a728 3fbc 6a0e df3b 5a4a acbc
00000090: ed4d 8fbc ec2d 323b 50a3 13bc e18d 8a3c
000000a0: 42ad 6abd 93c8 66bc b50e 31bc a2b9 28bb
000000b0: 3b46 1bbb 9243 6f3e 7468 b439 6644 3d3e
000000c0: 1a39 49bc 07b3 eabc 474b f43b 8d9f cf3f
000000d0: 50d8 12bb e14a 82bc 1494 583c 7c58 f8bc
000000e0: 7c15 85ba a733 293b fb11 9cbe 4de4 3ebe
000000f0: 196d aa3e 1b89 d9bc 7ada 413d b5cd a83d
00000100: 28a1 6ebb 94ad a03e be06 9bbd 4350 df3c
00000110: 4d4f d8bc 6f52 aebc ed8b c13c 0da7 f33c
00000120: a5b1 4cbc 6e01 e9bd 9656 0b3c 87e5 94bb
00000130: be59 ad3b 4d23 943d f5de 413b b918 78be
00000140: 020d 52bb daff 843d 63da 76be 4426 db3d
00000150: e262 dcbd 9cb0 f8be de14 073c 6187 21bd
00000160: 5532 403d 71ab 95bd a2a9 863c 4c7c 533d
00000170: 1f2f 773c 4da4 c23d c194 403d 5f7b 533d
00000180: 5f55 05bc 13a6 79bd 3ea4 d13d f282 2c3d
00000190: 921e b73c 964c 003e 595a 17bc c9cc 0a3d
000001a0: c990 8dbb 2be5 c4bc 04c8 903c f375 0b3d
000001b0: 2f74 0bbe b8b7 98bd 5503 8ebe 4cc7 b8bc
000001c0: 2d3f 4a3f 816a 69bd 4e33 96bc bb19 243e
000001d0: 52fc 52bd 7737 6e3c 2413 c1bd 6c60 0a3d
000001e0: b471 05bc 3047 10bc acfc f33c cb58 bc3c
000001f0: b564 92bc 4928 1cbc a62a 553f e2a7 14bd
00000200: 22ad 88bf 3dad 053c 3026 823c faa2 fa3c
00000210: ddd0 91bb 1db4 28bc 48e6 3d3f 3392 cc3c
00000220: d6bc 49bc 7ed7 a43c 22bb 88be eaca 0f3d
00000230: 9fe7 283c 39cf 27bc ffbb 443a 9e58 b5be
00000240: 3249 d43c 9a6f 1ebd 9066 97bc d7de 8bbd
00000250: 9876 b3bc 22e8 0e3e 51f5 77bc 140a 70bb
00000260: d4e3 1a3d 7733 00bc 0ace a43c 7d95 873d
00000270: e077 f93a 8248 283c 347b c83c fe99 e3bb
00000280: 8b12 9e3c 796d 173d 59d9 91bc a227 d23a
00000290: 8fe2 69bc c0ac 4dbd d8f9 ca3c 6c86 37bc
000002a0: 6135 a7bd da66 1b3c ed33 323c 3bd0 013f
000002b0: 91e5 21bb 154c 973c 0dcb 973c 6763 d83b
000002c0: 5bd8 063c 005f 003b bfa9 bcbd a4e1 56bc
000002d0: 2d49 c2bc fd99 753d 1e74 b8bd 1cdd a63c
000002e0: 5f2a 423e 21c5 0939 4d53 473c cb07 073f
000002f0: bc17 33be 488a 273e be21 9d3d f253 c5bb
00000300: 990b 1d3d cb16 3abc 9555 e9bb d8cd 423d
00000310: ccbf 743c e0d2 27bf 3822 123c a962 0bbe
00000320: 6cc3 b03b 546f c93c 6882 f5bc 8d65 d23b
00000330: 3d6f 3bbb 58fa 86bc 6236 1c3d afd8 6e3a
00000340: b0fd 943c a66e 40bd 600e 0b3e 4489 363c
00000350: a12d fb3d a239 7c3e 176c 87bc c679 803e
00000360: 33ad 05bd 8120 aebe 2259 64bd 5624 683c
00000370: 0920 4b3f 5d71 9a3f c7c6 3fbd b903 573d
00000380: a442 d8bb ed03 96bc 943c 76bc 1687 f4bc
00000390: b112 56bc 512b da3c 2790 aabd 80d1 babd
000003a0: 1aaf 77bb d0c4 a9bd e8bb 95bc 42fd 01bd
000003b0: f9d8 1bba 5462 f63a 099f a53b ea2d 04bb
000003c0: 93e6 deb9 0ce5 59bc 1791 883c e81a af3f
000003d0: 29f2 53be 418a acbe d82e 71b8 3149 8bbc
000003e0: 5b79 9bba 18a5 debb fd7f 423d e8ca 1ebb
000003f0: e0a4 0fbe 419d ed3e c32d f7bb ae48 f73c
0.03177208 -0.03764759 0.017850883 -0.008155709 0.06429987 0.06900837 -0.033717774 0.03589599
0.003235132 0.010767088 -0.03535602 0.00504702 -0.02638499 -0.010343129 0.031509064 -0.0006681862
0.20891054 -0.012203939 0.0015678265 0.008172255 -0.0070048473 0.013782587 0.0023064404 0.013519251
0.004629868 -0.00036629036 -0.008171039 -0.026380612 0.03483913 0.021791775 -0.011868133 -0.013302492
0.004623965 -0.011667407 0.006807138 -0.021031547 -0.017493213 0.0027188016 -0.009011105 0.016913356
-0.057294138 -0.014085907 -0.010806729 -0.0025745411 -0.0023692984 0.2336562 0.000344101 0.18483123
-0.0122816805 -0.02864982 0.007455263 1.6220566 -0.0022406764 -0.015904846 0.013218898 -0.03031563
-0.0010153498 0.002581814 -0.30482468 -0.18641777 0.3328636 -0.026554635 0.047327496 0.082423605
-0.0036411975 0.3138243 -0.07569645 0.027259951 -0.026405001 -0.021279542 0.023626292 0.029742742
-0.012493526 -0.11377226 0.00850453 -0.0045439634 0.005290239 0.072332956 0.0029582356 -0.24228181
-0.003205121 0.06494112 -0.24106745 0.10700658 -0.10761048 -0.48572242 0.008244721 -0.039435748
0.046923 -0.073080905 0.01643831 0.05163221 0.015086918 0.09503994 0.047016863 0.051631328
-0.00813803 -0.060949396 0.10236405 0.042117067 0.022353444 0.12529215 -0.009237849 0.033886705
-0.0043202383 -0.024035057 0.0176735 0.034048032 -0.1361854 -0.074569166 -0.27736917 -0.02255597
0.7900265 -0.056986336 -0.01833501 0.1602544 -0.051510163 0.014539591 -0.09427479 0.03378336
-0.008144785 -0.008806035 0.02978357 0.022991559 -0.017870286 -0.009531089 0.832682 -0.036292918
-1.0677836 0.008158979 0.01588735 0.030595291 -0.0044499473 -0.010296849 0.74179506 0.024972057
-0.012313088 0.020122286 -0.2670527 0.035105623 0.010309129 -0.010242277 0.000750482 -0.35419172
0.025913808 -0.03868065 -0.018481523 -0.06829613 -0.021907136 0.13955739 -0.015134172 -0.00366271
0.03781493 -0.00782477 0.020117778 0.066203095 0.0019032918 0.010271193 0.02447281 -0.0069458475
0.019295951 0.036969636 -0.017803835 0.001603354 -0.014275207 -0.050213575 0.024777338 -0.011201482
-0.08164478 0.009484971 0.010876638 0.5070836 -0.0024703483 0.018468896 0.01852944 0.0066036466
0.008230294 0.0019587874 -0.09212064 -0.01311532 -0.023716534 0.059961308 -0.090065226 0.020369105
0.18961476 0.00013138774 0.012165857 0.52746266 -0.17489523 0.16361344 0.076724514 -0.00602197
0.03834114 -0.011357973 -0.007120798 0.04755959 0.014938306 -0.65556145 0.008919291 -0.13611855
0.00539439 0.024589218 -0.02996941 0.006420797 -0.0028600239 -0.016476795 0.0381378 0.0009111268
0.018187374 -0.046980523 0.13579702 0.011141125 0.122645624 0.2463136 -0.016531033 0.25092906
-0.03263588 -0.34009174 -0.055749066 0.014168819 0.79345757 1.2065846 -0.04682043 0.052493785
-0.006599741 -0.018312419 -0.015029091 -0.02984957 -0.01306598 0.026631983 -0.08328276 -0.0912199
-0.0037793578 -0.08289492 -0.018278077 -0.031735666 -0.0005945112 0.0018797615 0.005054359 -0.0020168968
-0.0004251493 -0.013299238 0.016670747 1.3680086 -0.20697846 -0.3369923 -5.7502504e-05 -0.017002674
-0.0011861728 -0.006794583 0.04748534 -0.0024229828 -0.14027739 0.46409038 -0.007543297 0.030186024

item_id_embedding.weight f4 [1600, 32]
00000000: 5033 8a3c 758a beba 204c d3bb e0bd a9b6
00000010: 309c 733d 8300 0bbf fc23 9f3c 2e1a 4f3c
00000020: 47bd 6f3c e08b 2ebc f02f eabc ef3c ac3c
00000030: 6335 013c d160 743c e53b d9bc e534 1abb
00000040: 864d 40bb 9e2c 193d 6134 8abd 9aa7 043e
00000050: 00fd 18bd 6961 6d3e 5ea7 36bd 8bed 943d
00000060: 27e1 c73c 6e1a a03c 8e96 3c3a 5f94 283b
00000070: d9e3 55bd d6ca 243a 82e6 1a3d b1a7 ac3c
00000080: 898d b4bc 2fab 9abd 2487 c3bc 87a2 98bb
00000090: 75bb 413c 67c1 bf3c e9a8 56bc eaf7 89bc
000000a0: 94c1 ddba 3dd1 5b3a 8785 34be 8b0f ee3c
000000b0: 96cd 543c 6cb3 0bba b81f 1d3c 8d38 fb3c
000000c0: 6fdf 35bc 8e76 ffbb 9baa fbbb 32bb e2bc
000000d0: 9609 2b3b aeeb 21bd f659 e6bd 331b fd3c
000000e0: 517d 88ba 69f8 a2bc ee1c ce3d 41c0 1d3c
000000f0: 10c1 37bc 8294 ecbc 15ed 1abb 5d45 893c
00000100: b002 603c c4b5 4b3c 38d7 dfbb a577 1abc
00000110: d819 82b9 76b0 b0bc 6e20 06bc 1ddc c6bb
00000120: d3c0 dc3d 3386 3abd 401a dd39 735e bcbc
00000130: fde1 003c 5ae0 f7bb d959 59bc c1c8 72bc
00000140: 02be ccbb e3a6 c7ba e1cf f6bc 6988 54bc
00000150: 9d5d 18bc cfed 12bd 3e0f e93d 13f1 243c
00000160: 8502 673a 3fed 7b3e f240 16bc d7c6 b73c
00000170: f140 9c3c e8d2 a63e e349 c33e 9caf 91bc
00000180: e3cc 053f 0f02 61bb 0e64 adbe fead 96bb
00000190: a2be 8339 2856 8cbb 4d6a d939 0ca0 473c
000001a0: d3c5 b13d 2de9 cb3b 7e8c 24bc d303 013e
000001b0: 0d09 9cbd 3aad b0ba 8550 0d3b a761 283b
000001c0: 2e8c c43b a08c 8238 eda7 ab3b 9e6f 973e
000001d0: de4e 67bc 2c85 a43b 42f7 fb3a 4d57 b73c
000001e0: 1dd0 da3d 38b9 c5bb deec 363b 650e 433e
000001f0: c1f0 50bc f7f4 95bb 5b81 16bd 8e99 113c
00000200: b20a e9bc 1f6d 8fbd f200 0cbc 9fd9 2b3c
00000210: 15cb 0f3b ad14 a63e b9d7 9eba 57c6 a6bc
00000220: e23c 57bc 1fff 68be 309f b5bd aef7 f93c
00000230: 5ace 473c 8839 973c 9e4d 2cbb 71ff 5dba
00000240: acec 3f3f fdf8 393c 9fd5 e33b dec6 b1bc
00000250: 50fc ebb8 d268 a1be 1353 d13c 6ead 1fbd
00000260: 865b 09bd 31d7 a93a 88d8 11bc c341 bdbc
00000270: c517 e73c 80cd 84bc 34cc 953c 74ad 8e3c
00000280: 906e 5c3b c4e9 823c 8763 2abc a5f6 45bd
00000290: 8430 c83d ff33 b53b 3175 0d3c ba54 ddbb
000002a0: b21f dbb8 ee49 b23a b86d 25bc 5fc7 5c3c
000002b0: 0eba 96b8 8ffc 1f3f 682f 363b 7ba9 2c3d
000002c0: 6427 d3ba 9c05 bebb 998a 233e d263 303c
000002d0: f0c3 803e 87d7 173c 3d9d 48bd abef 853b
000002e0: 83cb 49bc 129e 43bb 7ee1 8fbc 0218 a6bd
000002f0: 1684 5abc d2d2 943c 19d8 563b 47e0 1c3c
00000300: 3c22 51bc 95e9 31ba 2ea8 51be 2614 923c
00000310: 6e9e 15bc 50c6 933b 78b8 0fbb 6223 9f3b
00000320: f3f4 df3e 5f91 fcbb 95fe 2dbc 14cd 9dbc
00000330: f994 b63b 7ee5 673c f136 a6bf 638d 90bc
00000340: 7e1d 773c 7181 52bb 0b44 903e 7b1d d83e
00000350: d6ef 02bd b4dd 5bbe bce7 31be e271 d83c
00000360: 8ce8 553d ccfd 05be b7aa e73e f02e a2bd
00000370: ead8 b0bc b660 81bc afff 973c ae66 c23c
00000380: 0d79 5cbd 6f70 b63e 4178 a53c a254 5fbe
00000390: 998e 8ebc e896 493a 947a 733c 41d9 803c
000003a0: 6807 e93c 3add 99bc 6923 36bc 0fbd 43bb
000003b0: 11a7 823d ed5e 16bc 6fc6 123d 7c55 923c
000003c0: a4c3 05bd c2cc 623e 3203 65bd 5876 e4bc
000003d0: 66d7 02bf 6074 71bb 8423 bebc 724c 093f
000003e0: a05c 84bb 68b7 dabb 47d7 72bc d587 b43c
000003f0: 31cb 04bd 5416 22bd a71d 46bc 4bec 873c
0.01687017 -0.0014537113 -0.006448284 -5.058697e-06 0.059475124 -0.54297656 0.019426338 0.012640519
0.01463253 -0.010653466 -0.028587312 0.02102515 0.007886264 0.014915661 -0.026517818 -0.0023530063
-0.0029343083 0.037396066 -0.06748272 0.1295456 -0.037350655 0.2318169 -0.044593208 0.0727187
0.024399353 0.019543853 0.0007194065 0.0025723202 -0.052219246 0.00062863284 0.037817486 0.021076055
-0.022040145 -0.07552182 -0.023868151 -0.0046580466 0.011824478 0.023407651 -0.013101795 -0.016841847
-0.0016918653 0.0008385366 -0.17629062 0.029060146 0.012988469 -0.0005329165 0.009590082 0.030666614
-0.011100634 -0.0077961152 -0.00768025 -0.027677152 0.0026098243 -0.039531402 -0.112476274 0.030896759
-0.0010413324 -0.019893842 0.10064112 0.009628356 -0.011215463 -0.028879408 -0.0023639847 0.016756708
0.013672516 0.012433473 -0.006831076 -0.00942794 -0.00024814787 -0.021568518 -0.008186443 -0.00606872
0.10778966 -0.04553814 0.00042171963 -0.022994256 0.00786638 -0.0075645866 -0.01326605 -0.014818371
-0.0062482366 -0.0015232231 -0.030128421 -0.012971976 -0.009299663 -0.035871323 0.1137986 0.010067242
0.0008812326 0.24602221 -0.009170758 0.022433681 0.019073935 0.32582784 0.3814231 -0.017783932
0.5226576 -0.0034333502 -0.33865398 -0.004598378 0.000251283 -0.0042827316 0.00041468666 0.012184154
0.0868031 0.006222865 -0.010043262 0.12599115 -0.07618914 -0.001347936 0.0021562886 0.002569297
0.005998156 6.2250765e-05 0.005238524 0.29577345 -0.0141179245 0.005020758 0.0019223469 0.022380495
0.10684226 -0.0060340427 0.002791218 0.1904846 -0.012752713 -0.004576321 -0.036744457 0.008886708
-0.028447483 -0.07003235 -0.008545147 0.010488897 0.0021941115 0.3243765 -0.0012118734 -0.020358248
-0.013137074 -0.22753571 -0.08868253 0.03051361 0.012195194 0.01846005 -0.002629138 -0.00084685447
0.7497051 0.011350867 0.006952956 -0.021701273 -0.0001125267 -0.31525284 0.025552308 -0.038983755
-0.03353455 0.0012957809 -0.008901723 -0.023102647 0.028209576 -0.016211271 0.018285848 0.017416693
0.0033635236 0.015980609 -0.010399706 -0.04833092 0.097748786 0.00552988 0.008633898 -0.006754485
-0.000104486375 0.0013602355 -0.01009696 0.013475268 -7.187213e-05 0.6249475 0.0027799252 0.042153817
-0.0016109762 -0.0057990085 0.1597084 0.0107659865 0.25149488 0.009267694 -0.04897808 0.0040874085
-0.012316587 -0.0029848856 -0.017563578 -0.08110048 -0.013337156 0.018166933 0.0032782613 0.009574956
-0.01276451 -0.00067868206 -0.20474312 0.017831873 -0.009132011 0.0045097247 -0.002193002 0.004856513
0.4374157 -0.0077077593 -0.010619779 -0.019262828 0.005571958 0.014153836 -1.2985517 -0.017645543
0.015082715 -0.003212061 0.28176913 0.42209992 -0.031967007 -0.21471292 -0.17373556 0.026421491
0.052223727 -0.13085097 0.45247433 -0.07919109 -0.021587808 -0.015793186 0.018554537 0.023730602
-0.05382638 0.35632655 0.020198943 -0.21809629 -0.01740198 0.0007690028 0.014860768 0.015728595
0.028445914 -0.018782247 -0.011116841 -0.0029867326 0.06379522 -0.0091779055 0.035833772 0.017863028
-0.03265728 0.22148421 -0.05591125 -0.027888462 -0.5110992 -0.0036843047 -0.023210295 0.5363227
-0.004039362 -0.0066746958 -0.014821834 0.022037426 -0.03242034 -0.039572075 -0.012092031 0.016592165

item_type_embedding.weight f4 [5, 8]
00000000: 481c bb3f e8cc 68bf fd97 ef3f afae c23d
00000010: c645 01be 0672 333f 622c 92bd 73a9 0f3d
00000020: 2914 873f 0495 56bf d8a2 ae3f 533f 38be
00000030: 0032 6ebf 440a 9abf 2790 653f 9b0f 7a3f
00000040: 9bc6 a13e f013 09bf b87d 0d3e 3cd3 9bbf
00000050: fdba e0be 4a4d bdbd a35f ed3d a37b 5dbf
00000060: 8b17 fb3e 839a 2abc 2f7a 2a3f 7418 4a3e
00000070: dd09 c63f c61a 573e 8f01 0d3e 7ffc 99be
00000080: 3f08 20bf 1fae 4c3e 4510 9abe b34e 66bd
00000090: 4d64 203d 74bc b2ba b116 1b3e da3a 98be
1.4618006 -0.9093766 1.8718258 0.095059745 -0.12624273 0.7009586 -0.071373716 0.03507371
1.0553027 -0.8382113 1.3643446 -0.17992906 -0.93045044 -1.2034383 0.89673084 0.9768006
0.31596836 -0.5354605 0.13817489 -1.2173839 -0.4389266 -0.09243257 0.11590507 -0.8651678
0.490414 -0.010412815 0.6659269 0.1973589 1.547176 0.21006307 0.13770126 -0.30075452
-0.6251258 0.19988297 -0.30090538 -0.056227397 0.039158154 -0.0013636486 0.15145375 -0.297324

item_temperature_embedding.weight f4 [7, 8]
00000000: ec72 7f3c 59ca e53c 4ad5 4dbb cb7c 28bf
00000010: 3aa3 af38 24be a4be c21c 3b3d 087a 73be
00000020: 42c2 4a3e 5274 023f 588e 67be 53a4 493e
00000030: 551f 97be 5e30 6b3e 55fd d3be 8842 d8be
00000040: d194 29bf 0f9d 533f ef74 4c3f 7e67 07bf
00000050: 00b2 65bd 7ecb 59bc 7e62 2bbf 069d 3ebe
00000060: 418d 31bf 7def 0f3e 923e 9ebe 706b a6be
00000070: e237 e4be 3de5 583d 75c4 87be 7606 483f
00000080: 0c46 27bf 4500 b5be a0cc aa3e ccec e8be
00000090: dd91 433d 8fc0 863f 2782 0f3f b036 4f3e
000000a0: 6602 0c3f c3b0 93be 6079 9ebe d01c 5bbe
000000b0: 3063 853e af59 1fbf 101a 9b3f 2f50 7a3f
000000c0: 967e 04bf 57e1 b33c 1772 92bf 9950 88bc
000000d0: 6949 66be 1a89 a23e 5394 4e3e 3063 b0bd
0.015591364 0.028050588 -0.0031407648 -0.6581542 8.3750536e-05 -0.32176316 0.045681722 -0.2377702
0.19800666 0.5095874 -0.22612894 0.19691591 -0.29516092 0.2296767 -0.41404215 -0.4223826
-0.662427 0.8266153 0.79865927 -0.5289229 -0.056077957 -0.013293145 -0.6694716 -0.18614587
-0.6935616 0.14056201 -0.30907112 -0.32503843 -0.44573885 0.052952994 -0.26517072 0.7813486
-0.6534126 -0.35351768 0.3335924 -0.45493162 0.047746528 1.0527514 0.5605797 0.20235705
0.5469116 -0.28845796 -0.30951977 -0.2139771 0.26052237 -0.6224622 1.2117329 0.977786
-0.51755655 0.021958036 -1.1441067 -0.016639994 -0.22488941 0.31745225 0.20173769 -0.086126685

item_humidity_embedding.weight f4 [6, 8]
00000000: 2d27 5bbe 1e19 143e 4d5f b63d b26a abbd
00000010: deeb d1be 1db8 0cbe d6a5 33bf 9e9b 07bd
00000020: 52c9 20bf 1675 8dbd a163 e53e da35 9fbf
00000030: 664f fe3e 2ab3 7f3e b936 593e 3d1d c5bd
00000040: fcad 9ebe 6d1d 0f3e a8ba ac3f edcd df3e
00000050: 850f eb3e 54ea 9dbe 660e 993f c692 ebbe
00000060: b59f 0d3f 6c9c 2e3f 6904 b5bf 8f2d 1bbe
00000070: fcfa d5be c46a b9be fb72 c63e 93b5 3bbe
00000080: da08 d6bf e8a1 2c3f 69f4 243d 53de 59bf
00000090: 5d1b 843f e906 9dbf 8c17 82bc ba01 c8be
000000a0: 93b5 b2bd aaab 173f 9cfc 86be 5068 adbe
000000b0: c694 9cbe 23bc 633e c5aa 513f 3804 b83e
-0.21401663 0.14462706 0.08904896 -0.0836996 -0.41000265 -0.13742109 -0.7017492 -0.033107392
-0.6280719 -0.06907098 0.44802573 -1.2438309 0.4966995 0.2497069 0.21212281 -0.096247174
-0.30992115 0.13976069 1.3494463 0.43711796 0.45910278 -0.3084284 1.1957519 -0.46010417
0.5532182 0.6820743 -1.4141971 -0.15154098 -0.41793048 -0.36214268 0.38759598 -0.18330984
-1.6721451 0.6743455 0.04027215 -0.85104865 1.0320851 -1.2267734 -0.015880369 -0.39063817
-0.08726039 0.59246314 -0.263646 -0.33868647 -0.30582255 0.22239737 0.819012 0.3594072

item_windSpeed_embedding.weight f4 [5, 8]
00000000: 67d7 5f3f 8445 cf3e d8b4 76bf 8408 693e
00000010: 520f 873f 82a5 1dbe 1ef5 32bf cabe 3b3f
00000020: 19e6 233f 74c1 803d 3b92 0ebf 5abf 7ebf
00000030: 08bf a93d 635b 773e 3805 a7bd 6cc7 82be
00000040: c130 713d a9fa d9be 9f40 423f 5da9 d13e
00000050: cc80 36be 9b07 a2bf cb8d bbbe 2560 b53f
00000060: bbef dabe 76e1 9cbe 1b7e d53e e501 2fbd
00000070: e4b6 c33e 942d 4e3f 3388 f6bd d908 2ebe
00000080: ce81 f3bd bc0f 823f 7339 43bb eb17 5bbe
00000090: e3e5 c13e d1ba 433f 7d8a 0a3f a64c 85be
0.8743805 0.40482724 -0.96369696 0.22757155 1.055155 -0.15395167 -0.6990527 0.73337996
0.64022976 0.06286898 -0.5569188 -0.9951073 0.082883894 0.24155955 -0.08155292 -0.25542772
0.058884386 -0.4257405 0.75879854 0.40949526 -0.1782257 -1.2658571 -0.36631617 1.4169966
-0.42761025 -0.30640763 0.41697773 -0.042726416 0.38225472 0.80538297 -0.12037697 -0.16995563
-0.11889993 1.0161052 -0.002978888 -0.21395843 0.37870702 0.76456934 0.54117566 -0.2603504

GCN_Layers.0.W1.weight f4 [64, 64]
00000000: a590 08be 0edc b83c 0d34 68bd 97e1 2abe
00000010: a5c7 82bc 7670 b83d 6ae9 213d 6141 c4bc
00000020: 82ac 08bd 87b3 453e 4c39 a93d e054 763d
00000030: 43f9 ee3c c173 ac3c 53db 06be ea67 c8bd
00000040: 79ae f9bd 6ae0 1ebc e200 90bd dfdf b43d
00000050: 9cc3 13bc 159d 863c 16f0 d2bd 8783 063e
00000060: 5d0a b0bd 1cf7 18bd 1ffd 8abc 741f 26be
00000070: ce5e 1bbe 20f8 2bbd 9fca a8bd 24ae 73bd
00000080: 43cd 8abd df88 f8bd f68b 4fbd c3bb 20bc
00000090: 433c 64bd 2855 223d 9bfa a5bd 3662 9f3d
000000a0: eeed 19bd 1181 df3d eb4d d5bd 5dbc c6bb
000000b0: 0b9c b93d 44af fd3d f629 3bbd f441 e3bb
000000c0: 513c babd 485b 92bd 6ac0 d93d 003d 993c
000000d0: 3666 e7bd a2a9 863c 5e66 40bd 1829 ba3d
000000e0: a813 ec3d 2185 2f3d 58a7 2fbd ad07 083d
000000f0: 9460 edbc 1fa4 dfbc 9a7b 0e3d ee21 5e3c
00000100: a742 fb3d 9790 2ebb 2530 763d 8f9e bbbd
00000110: b281 c33c b39a 5fbd c9ff 533e 3c8a 2e3d
00000120: 03f2 ce3d a83a 4a3e f07a 883d fc6b 56bd
00000130: e0fc 89bb 4239 473c 55d9 9ebd 0ce7 2bbd
00000140: 48ea 16be 4825 aebd 89ff 273e d996 a6be
00000150: 8ec9 3fbb e79d 4d3d be0b 273d 14d4 81bc
00000160: f729 b93c fcea c53d a3e8 1ebe ed9b 39bb
00000170: 6dfb d63d 6e72 163e b7e0 d4b8 6c80 d0bd
00000180: bc3c 4d3d 2e54 a33d 23d7 a53c 6c9a 9fbc
00000190: a05e b2bc 5970 9c3b 2eda 9ebd 412e 3abc
000001a0: 30c7 cb3d de44 d63c f489 253d 3347 44bd
000001b0: dfb8 82bc 5253 9c3d 86e3 f13c 6b0a e03c
000001c0: 10a3 ee3b bfe9 673d 1e15 e0bc 9f6c d3bd
000001d0: afb0 a2bc e5e3 1dbd 77b1 3ebd d64e f73d
000001e0: 1025 8d3d 2717 d3bd 6a4c 943d 0748 f9bc
000001f0: 6794 ce3d 53fd 9fbd 97d3 aa3d 19ad 70bd
00000200: cc6d 573c 8827 2d3e 304d 20bd 62bd 2ebc
00000210: dc0d 9bbd 1191 45bd 95ab 32bd 1faa a7bd
00000220: b98b e43c 4071 dcbc a5a8 a83d 63d0 703d
00000230: 62e5 2a3e 0e86 8e3d b5ca 70bd 758e 9a3c
00000240: 93d0 a73d 8444 d33c d7ac b23c 1b21 4ebc
00000250: d61f 3c3d 4033 f6bc 8b2b 583b ea43 24bd
00000260: d599 81bd bc29 a33d 948a e13c a850 12bd
00000270: a840 133e 14ab d83c bee0 213d 80e6 6a3d
00000280: d23d d23d 9d34 123c 66e6 d4bd d38f 8c3d
00000290: eda0 d1bc b3ad 06bd 5e44 3bbd 8760 eebd
000002a0: d844 4b3d 7c3a 1ebd 5a5f b23c 71fc e63d
000002b0: 9d72 81bd f19f 05be d351 eb3d cb5b 40bd
000002c0: d843 48bc c2e6 9b3d 00a3 0bbd ec40 1dbc
000002d0: 52d1 5abd 61d5 97bd 6024 b93d 257c f53c
000002e0: d74e 2fbd edea 633c c8d8 943b 779e 8b3d
000002f0: 1d71 b13d df39 95bd d434 d43d 0d91 443d
00000300: 6cef cf3b b5e8 b0bb 10da 723d bfde 503c
00000310: abfd 3b3d 3d0f 11be 67c7 cdbc e902 41bd
00000320: 22f5 5cbd 9715 07bd 562e d3bd 5b8f b13b
00000330: dec5 f33d d75e 6bbd ddd6 cdbd 2f08 883d
00000340: 3cd3 b3bd 5f28 173d 9f3f a2bb 455a 813c
00000350: bc3b bebd abc2 a23c 4bde 1f3e 920c edbc
00000360: 73c4 af3d 1acc ca3d 101b f13d 4bad 683d
00000370: ce51 30bc e77e a5bd ebc2 1fbe 8fe9 583d
00000380: 020e b83d 3c8f 903d 15b0 9cbc 5225 0abd
00000390: 9972 843c 5896 323d bedd be3d 6d27 8cbd
000003a0: 372c 413b fddf a2bd ec86 8bbc 2345 febd
000003b0: ec12 82bc 98ae 1e3d 3d29 52bd 2e2a e6bd
000003c0: 14d6 c3bc 5e0f fabc bde2 4e3c 9dd1 b2bd
000003d0: 2e43 c7bd b174 babc 063e d63c d7c7 333c
000003e0: a73d e3bd f7b7 9a3c 171d 15bd 93f5 34bd
000003f0: 4f9c d53d d71e e03c c00d 083e bd09 b63b
-0.13336428 0.022565868 -0.056690264 -0.16687618 -0.015964339 0.09005825 0.03952924 -0.023956956
-0.03336764 0.19306765 0.08262882 0.060139537 0.029171592 0.02105129 -0.13169603 -0.09785445
-0.12191481 -0.009697059 -0.070314184 0.088317625 -0.009018805 0.016432324 -0.10299699 0.13136111
-0.08595727 -0.037345037 -0.0169664 -0.16222936 -0.15172884 -0.041984677 -0.08241772 -0.059492245
-0.06777432 -0.12135481 -0.050670587 -0.009810391 -0.055721533 0.039631993 -0.0810444 0.07782404
-0.037580423 0.10913289 -0.10415252 -0.006064935 0.09062966 0.12386945 -0.045694314 -0.0069353525
-0.09093536 -0.07146317 0.10632403 0.018705845 -0.11298792 0.01643831 -0.046972625 0.09089869
0.11527187 0.04285157 -0.0428842 0.033210445 -0.028976716 -0.027299939 0.034785844 0.013557894
0.12268572 -0.0026636475 0.060104508 -0.09161102 0.023865554 -0.054590892 0.20703043 0.0426123
0.10104754 0.19748938 0.066640735 -0.052349076 -0.0042110533 0.012159647 -0.077562965 -0.04196839
-0.14737809 -0.085032046 0.16406073 -0.32536963 -0.0029264423 0.050199416 0.040782683 -0.015848197
0.022603018 0.0966396 -0.15518431 -0.0028321699 0.104971744 0.14692089 -0.00010150804 -0.101807445
0.05010675 0.079750404 0.020244187 -0.019482814 -0.021773636 0.004774135 -0.07756458 -0.011363567
0.099501014 0.026155885 0.040414765 -0.047919463 -0.015957294 0.076330796 0.029527437 0.027348718
0.007282622 0.056619402 -0.02735382 -0.10323452 -0.01985964 -0.038547415 -0.046555962 0.12075584
0.06891835 -0.1030715 0.07241137 -0.030429853 0.10086899 -0.0781199 0.08341139 -0.05875883
0.013148736 0.16909611 -0.03913611 -0.01066527 -0.07571003 -0.04823405 -0.043620665 -0.08186745
0.027898656 -0.02690947 0.082352914 0.058792483 0.16689065 0.06959163 -0.058787066 0.018866757
0.08194079 0.025789507 0.021810932 -0.012581135 0.0459288 -0.030053735 0.0032984938 -0.04010383
-0.06328169 0.079669446 0.0275319 -0.03572145 0.14380133 0.026448764 0.03952097 0.05734873
0.102656975 0.008923677 -0.103955075 0.0686337 -0.02558943 -0.032880496 -0.045719497 -0.11639505
0.0496262 -0.038629994 0.021773983 0.11278618 -0.06320689 -0.13049294 0.11490216 -0.04696254
-0.012223206 0.07612373 -0.034090996 -0.009597998 -0.05342228 -0.07413746 0.09040141 0.029966423
-0.042799797 0.013910991 0.004542444 0.06817334 0.08664153 -0.07286429 0.10361639 0.047989894
0.00634568 -0.0053988346 0.05928999 0.012748419 0.045896214 -0.14165969 -0.025119497 -0.047121916
-0.053944714 -0.032979574 -0.10311572 0.0054187006 0.119029745 -0.057463493 -0.100507475 0.06642186
-0.08780524 0.036903735 -0.004951432 0.015790114 -0.09288737 0.019868216 0.15612142 -0.028936658
0.085823916 0.099022105 0.1177274 0.05680589 -0.010761691 -0.08080845 -0.15601699 0.052957114
0.08987047 0.0705857 -0.019126931 -0.033726998 0.016167926 0.04360041 0.09319638 -0.06843457
0.0029475817 -0.079528786 -0.01703211 -0.124155305 -0.015878163 0.038740724 -0.05130886 -0.11238514
-0.023905791 -0.030524906 0.012627301 -0.08731387 -0.097296104 -0.02276072 0.026152622 0.0109729385
-0.110957436 0.01888655 -0.036404695 -0.04417951 0.10430204 0.027358456 0.13286495 0.00555536

GCN_Layers.0.W1.bias f4 [64]
00000000: 7b2b ea3c 7b1d 2d3c 9147 a23c 5507 40bc
00000010: 3064 243d 051f 3bbd a5b7 1d3c f861 d43d
00000020: edbf e93d e2a2 b7bd a59b a5bd 8d6d 853d
00000030: a79c b2bd 1bb7 a73d aa24 f63d cef1 02bd
00000040: a80c 023d 6b4e 933d d28a f13d 4194 843d
00000050: 4535 0abc 11a3 13bd 07e7 e1bb 5511 07bc
00000060: 407e 0fbc 8909 b33d eb75 1cbc ed89 abbd
00000070: 23d6 6e3d 422e c03d dd7e 94bc d23f 013e
00000080: 4e49 6b3c baee c3bc 417c 1e3d 64f6 1dbc
00000090: 77aa 7abc e9bd 24bd 640c e2bd b2bd 8d3d
000000a0: 2654 ecbb 968d 7d3d 962e d6bd ca47 92bc
000000b0: 520b 413d b08d cdbd 6ec6 c4bc be4d d1bc
000000c0: 9b5b e43d 202a cc3d c24b 8cbd 1b06 823d
000000d0: 20e2 3b3d 80e6 593d 6023 b73c e5bf 3b3d
000000e0: 53f4 6fbd 821b 3abd 29e3 9abd 2fe4 87bd
000000f0: afc9 073d edeb dbbc 4387 473c 9099 e5bc
0.028585186 0.010566111 0.019809516 -0.011720498 0.04013461 -0.04568388 0.009626304 0.103702486
0.1141356 -0.08966614 -0.080863275 0.06515036 -0.08721285 0.081892215 0.12018712 -0.031968884
0.03175035 0.071926914 0.11794056 0.0647359 -0.008435552 -0.036044184 -0.0068939957 -0.008243878
-0.008758128 0.08742053 -0.009549598 -0.08375917 0.058309685 0.09383823 -0.0181269 0.12622002
0.014360739 -0.023917545 0.038692717 -0.009641264 -0.015299431 -0.040220175 -0.110375196 0.06920947
-0.0072121797 0.061902605 -0.10458104 -0.017856497 0.047129937 -0.1003679 -0.0240204 -0.025549766
0.11150285 0.09968972 -0.06850387 0.06348821 0.045869946 0.053198338 0.022355735 0.0458373
-0.058582615 -0.04543639 -0.075628586 -0.066353194 0.033151325 -0.026845897 0.012178245 -0.028027326

GCN_Layers.0.W2.weight f4 [64, 64]
00000000: 4908 253b 6351 12bc 763b 0f3c d2cf 19ba
00000010: c2ef fc3b c844 363c ddda 64bb 8fd3 3c3b
00000020: 1429 e4bb 7ea8 053c c5c5 bebb 0416 493b
00000030: fd9c 8ebb dbd5 92bb b52e e23a 27e4 833c
00000040: f134 ca3a f39e 0cbc 501d dcba 8952 633c
00000050: 5a6a 813a 3063 4a3b 9838 013b b1d6 fb3b
00000060: 667e da3b 4b50 e9ba 966a 173c 1a29 023c
00000070: 51c7 69b9 e95e 8b3b b089 9f3b 5045 efbb
00000080: 4f5e 093e 096e 3abd 4b5d cd3d d3ec 53bd
00000090: 4a17 853c 0fce a03d 5889 5b3d eb34 af3d
000000a0: 957c 5dbc 60ef ce3c 72e4 11bd 4bff 553c
000000b0: 6843 4ebd bdb5 b53b 9cc8 143d a600 e8bc
000000c0: 2d61 c3bc 33de dfbd 6edf a23c 3b48 e6bc
000000d0: e4d8 16bd 95c7 4cbd f845 bc3d 8eaa b9bc
000000e0: c849 9d3c 40b5 8ebc 961b 163c af07 4abd
000000f0: b4f6 003e 6f4a 663c e74c 9abc 8089 673d
00000100: 755d f8ba adea 17bb abdf 003c d1d6 b63a
00000110: 0fce a53a dc79 c73b f86c 05bb 4fa8 f53b
00000120: 65f4 d5bb a18c 493c 79ff 3cbc 0c88 6eb8
00000130: bd8a 013c c16f 983b 852e 8c3b e6a3 773b
00000140: 02b5 37bb 4a2e 8bbb 1477 793b d168 55bb
00000150: c98f 56bb 5fc4 24bb afb2 a3bb 3490 c73b
00000160: 13d8 a73a a1cf 963b d4a3 ff3a 4e0f 883b
00000170: 9989 803b 4518 13bb 879b c53a c0eb dbbb
00000180: 73d5 1b3d e80c c2bd 77d4 1ebe f41c 373d
00000190: fa1e 1dbc 25e9 b33b 6d28 3f3d 8b7c 32bd
000001a0: 2460 88bc c453 cf3c d028 303d b9fc 733c
000001b0: 068a 6e3d d089 abbc 2199 703c e028 f2bc
000001c0: 7f32 adbd 793d 0a3e 51d1 44bd 38e3 a0bd
000001d0: 61dc 82bb 5866 b8ba 0127 7b3d c2fd 9ebd
000001e0: ea87 b23b 0b6e 293c b07a f33c c7bd 133d
000001f0: fef6 d23d c897 09bd ad73 1fbd eccd 02bd
00000200: faf6 ca39 3a68 d4bb 3c36 b53b 270a 1fba
00000210: e282 f13b c189 513a f792 2ebb 9051 2d3b
00000220: 4d8c 633a dea2 a3bb 46e9 c23b 51cd 353a
00000230: bfd8 27bb a461 093b 3f0c 8d3a 5c8c db39
00000240: bb74 deba 4f86 b2ba f96f 55bb c113 0838
00000250: d2f9 1a3b 316c 843b 51e4 dbba 84b8 68bb
00000260: 0c65 4c3a d06a 03bc e0ff e63a e375 b1ba
00000270: a60a dd3a 5f4c 533b 4068 cc3b eac5 57bb
00000280: 9e54 8e3d 5239 27bd 6944 82bd a0fd cdbc
00000290: 2d3e 6abd 118d 773d c37b 553c 9c10 45bd
000002a0: c7ed 113c 3df2 553b a5c2 0b3c 81a8 a439
000002b0: d01b efb9 e114 b13a afa7 1cbb f8b5 823c
000002c0: 200a bb3c 5eea 66bd 5cf2 f4ba 8d5f 4bbb
000002d0: 96b0 84bc 5336 583b 6a66 c73d 4f11 b8b9
000002e0: 325e 64bd 1665 eabb 3acf 85bc dac9 46bc
000002f0: 3a47 7c3b 63dd e43c b822 ffbc 1410 36bd
00000300: 4102 803b a70f 19bc c9bd 07ba 6dce 933b
00000310: ed36 84bb f70a ee3b d9c2 e8bb c2d8 b43a
00000320: d978 2fbc e4e0 09bc 9a3a 0ebb 270b 943b
00000330: bf32 01bc c6f3 f8bb 46dc a6bb ea57 0a3c
00000340: af12 dabb 6c9a d5bb dec0 42bb e44e f1bb
00000350: ce76 b33b 214d 9f3b c6da 2eba 7178 2dbb
00000360: f6be fe3b 0e84 11ba d716 483b 22fe af3b
00000370: 658d 7cbb 881a 4c3b b1af 913b d85d c3bb
00000380: 2fc3 23bd 747c 92bd d8c8 d23c 6ed9 39bb
00000390: 2b7e c8bc 572a 5fbd 2a86 2fbd e128 5dbd
000003a0: f039 25bd 8003 8b3c 5c66 653c 22d2 8a3d
000003b0: fb10 43bd 48d1 1ebd bbcc 6f3a 989a 78bd
000003c0: 7d31 2ebd 4a71 c6bc 0f01 d6bc 3a2b 5ebd
000003d0: 3790 1c3d ec08 cbbc 92ff 16bd d540 2ebc
000003e0: e805 4bbd 3145 43bc ded0 98bc e9bf 59bb
000003f0: 10d3 e73c 2c9f d33c 8109 aebd ac12 bb3c
0.002518194 -0.008930537 0.008742204 -0.00058674545 0.007719011 0.011124797 -0.0034920492 0.0028812622
-0.0069629047 0.008157847 -0.005821916 0.0030683288 -0.0043522106 -0.00448106 0.0017256351 0.016100002
0.0015427155 -0.008582818 -0.0016793404 0.013874658 0.0009873614 0.0030881874 0.001971757 0.0076855053
0.0066679 -0.0017800418 0.009241721 0.00794437 -0.00022294863 0.0042532575 0.0048687086 -0.007301964
0.13414882 -0.045515094 0.1002756 -0.051739525 0.016246457 0.078518026 0.053597778 0.08555015
-0.013518472 0.025260627 -0.035618253 0.013061355 -0.050357252 0.0055453465 0.03632413 -0.028320622
-0.023850048 -0.10931053 0.01988193 -0.028110614 -0.036827937 -0.049995024 0.09193033 -0.022664335
0.01920022 -0.017420411 0.00916185 -0.049323734 0.1259411 0.014055832 -0.018835498 0.056527615
-0.0018948751 -0.002318065 0.007865827 0.0013949518 0.0012649911 0.006087525 -0.002035914 0.0074968706
-0.0065293782 0.012301595 -0.011535519 -5.6870325e-05 0.007906613 0.004651994 0.0042780065 0.00377869
-0.0028031473 -0.0042474614 0.003806536 -0.0032563696 -0.0032739511 -0.002514146 -0.004995666 0.0060901884
0.0012805484 0.004602388 0.0019503781 0.004152215 0.003922653 -0.0022444886 0.0015076258 -0.006711453
0.038045358 -0.09475118 -0.15510736 0.044705346 -0.009589905 0.0054904395 0.046669412 -0.043575805
-0.016647406 0.025308497 0.04300767 0.014891797 0.0582371 -0.020939738 0.014684946 -0.029560506
-0.08456897 0.13500012 -0.048051182 -0.078558385 -0.0039935564 -0.0014068587 0.061316494 -0.07763244
0.005448331 0.010341178 0.029721588 0.036069658 0.10301016 -0.033592016 -0.038928676 -0.031934664
0.00038712454 -0.0064821513 0.005530147 -0.00060668815 0.007370339 0.0007993244 -0.002663789 0.002644632
0.0008680269 -0.0049937805 0.0059482185 0.00069351966 -0.0025611368 0.002096274 0.0010761096 0.0004187551
-0.0016972044 -0.0013620349 -0.0032567962 3.2443324e-05 0.002364744 0.0040412177 -0.0016776418 -0.003551037
0.00077970396 -0.008021072 0.0017623864 -0.0013539161 0.0016864135 0.0032241566 0.0062380135 -0.0032924362
0.06949733 -0.04082615 -0.063607045 -0.025145352 -0.0571882 0.060437266 0.013029995 -0.048111543
0.008906788 0.0032645606 0.008530294 0.00031406063 -0.00045606354 0.0013510251 -0.0023903658 0.01595591
0.022831976 -0.056375854 -0.0018687951 -0.0031032295 -0.016197484 0.0032991364 0.09736331 -0.0003510811
-0.055753894 -0.0071531637 -0.016334165 -0.012133086 0.0038494603 0.027937597 -0.031144485 -0.044448927
0.0039065187 -0.009342111 -0.00051781215 0.004510692 -0.004034868 0.0072644907 -0.007103306 0.0013797509
-0.010709965 -0.0084154345 -0.002170241 0.004517931 -0.007885634 -0.0075974194 -0.0050921766 0.008443812
-0.0066550593 -0.0065186527 -0.0029717009 -0.007364141 0.005476809 0.0048614894 -0.0006670173 -0.0026469494
0.007774229 -0.0005550989 0.0030531192 0.005370871 -0.0038536426 0.0031143744 0.004445993 -0.005962115
-0.039981063 -0.07152644 0.025730535 -0.0028358358 -0.024474224 -0.054483738 -0.04285256 -0.053994063
-0.040338457 0.016969442 0.014001455 0.06778361 -0.047623616 -0.038773805 0.00091476337 -0.060694307
-0.042527664 -0.024223942 -0.026123552 -0.054240443 0.03822347 -0.024784528 -0.036864825 -0.010635574
-0.04956618 -0.011918352 -0.018654283 -0.003322596 0.028298885 0.025832735 -0.084979065 0.022836052

GCN_Layers.0.W2.bias f4 [64]
00000000: cfd4 9abd 710e c2bc c74a b0bd 7e8d c03d
00000010: 9255 a9bb 8c65 9a3c 8d5a e2bd 2550 f0bc
00000020: 001a 5638 4057 683b a066 9bbd 94ee 69bd
00000030: 495c c03d d3fd 133d 19c6 76bb 41de ea3b
00000040: 219c 9abc 997a cabd bd51 24bd 483a afbb
00000050: 1159 013e 3c33 8cbd 00a7 e53d abb7 c13d
00000060: c7a1 0c3e e58e 00bd 08d3 a83d 5600 9cbd
00000070: 552a 6f3c d5af 7c3d 7297 1c3d 869b 743d
00000080: 46ca c4bd c36b 5cbb f0e2 e83b aa66 c23d
00000090: 0f45 40bd ac60 643d 4b18 d73d 5058 153d
000000a0: 24a8 babd 0892 203c 313e 91bd 84a5 b33d
000000b0: c709 4f3d baee 3a3c befb 6c3b ca69 503b
000000c0: 9508 6bbd 3011 7bbd 524f b43d 84c1 c93c
000000d0: 7e35 073d b422 28bd e5f0 8f3d a390 7f3d
000000e0: 2292 22bd 9e63 0c3e 49b2 9e3d 8ade c2bc
000000f0: 2707 01be 7861 a83d f546 ebbb edc5 debc
-0.07560121 -0.023688527 -0.08608013 0.094019875 -0.0051676715 0.01884725 -0.110524274 -0.02933509
5.104579e-05 0.0035452396 -0.075879335 -0.05711229 0.09392602 0.036130738 -0.0037654696 0.007167608
-0.018873276 -0.09886665 -0.040117014 -0.005347524 0.12631632 -0.0684571 0.11213493 0.0945886
0.13733588 -0.031386275 0.08243376 -0.076172516 0.014597495 0.061691124 0.038230367 0.05971863
-0.09608893 -0.0033633567 0.007107131 0.09492238 -0.04694086 0.055756256 0.105026804 0.036461174
-0.091141015 0.009800442 -0.0709194 0.08771804 0.050546434 0.011409456 0.0036160792 0.0031801336
-0.05738123 -0.06129569 0.08804192 0.024628408 0.03301 -0.04104872 0.07028369 0.062393796
-0.039690144 0.13709876 0.07748849 -0.023787756 -0.12600385 0.08221716 -0.0071800896 -0.027193988
