lab4-student/code/model/bestModelParms-12-30-13-57.pth (torch, 498345 bytes, 20 tensors)

user_id_embedding.weight f4 [900, 32]
0	0x3fcb6f41	1.5893327
1	0xbe9f0479	-0.310581
2	0xbf512a7d	-0.81705457
3	0xbbd6744e	-0.0065446263
4	0xbe7e4cd7	-0.24834
5	0x3e318942	0.17337516
6	0xbfac154e	-1.3444002
7	0xbf35ac8a	-0.709664
8	0xbe982dbf	-0.29722401
9	0x3e8f0d22	0.27939707
10	0x3edc9a41	0.43086436
11	0x3e34c287	0.17652331
12	0x3e28616e	0.16443416
13	0x3f1ad49d	0.6048067
14	0xbf79aaa6	-0.97526014
15	0xbf66e1a0	-0.90188026
16	0xbfdcf347	-1.7261742
17	0x3ec89c7a	0.39181882
18	0x3c94cd98	0.018164441
19	0xbf42bb3a	-0.76066935
20	0xbe394890	-0.18094087
21	0x3e0b24b0	0.13588214
22	0xbf0d850a	-0.55281126
23	0xbfa5359b	-1.2906984
24	0xbdb2681c	-0.087112635
25	0xbf228a54	-0.6349232
26	0xbf57d809	-0.8431402
27	0xbddd9c22	-0.108207956
28	0x3e36bdc6	0.1784583
29	0xbe702e0b	-0.23455064
30	0x3e9b8a59	0.30378988
31	0x3ce25623	0.027628964
32	0x3c248a8b	0.010042797
33	0x3f82e03c	1.0224681
34	0xbe32157a	-0.17391005
35	0x3f526900	0.8219147
36	0x3e77e8c7	0.24209891
37	0xbf7d7936	-0.9901308
38	0xbdff8b52	-0.12477745
39	0xbefa0b5c	-0.48836792
40	0x3bb63d9f	0.005561545
41	0xbdf2f89b	-0.11863824
42	0x3f58e9ec	0.84731936
43	0x3b1e2e8e	0.0024136635
44	0xbd1f9d55	-0.038968403
45	0xbee756f2	-0.45183522
46	0x3e16a663	0.14711909
47	0x3f1de56e	0.61678207
48	0xbf4f5dbe	-0.81002414
49	0xbbb2d89e	-0.0054579517
50	0xbf31179d	-0.69176656
51	0x3e244ee4	0.1604572
52	0xbf608642	-0.8770486
53	0x3ebdecc8	0.37094712
54	0x3eaeb648	0.34123445
55	0x3fd70b72	1.6800368
56	0xc008688a	-2.1313806
57	0x3fab9765	1.3405577
58	0xbf8a028d	-1.0782028
59	0xbd0bef0d	-0.034163523
60	0x3cf6f2eb	0.03014513
61	0x3fdc63eb	1.7217993
62	0x3f49e0bf	0.7885856
63	0xbb6bd57f	-0.0035985408
64	0xbc96ade5	-0.018393466
65	0xbf228577	-0.634849
66	0xbf03912c	-0.5139339
67	0x3c2c703b	0.010524805
68	0xbd08ee0c	-0.033430144
69	0x3f65e6a4	0.89805055
70	0xbc8611ae	-0.016365852
71	0xbe2d2e2c	-0.16912144
72	0x3fa241e3	1.2676357
73	0xbebc424a	-0.36769325
74	0xbe6e7f2e	-0.23290703
75	0x3cb31d92	0.021864686
76	0xbfc2f4f5	-1.5231005
77	0xbea8c93b	-0.32966027
78	0xbc2d984a	-0.010595391
79	0xbf24f2ca	-0.64432967
80	0x3f30aafd	0.6901091
81	0xbeb4d3ed	-0.35317937
82	0xbfb5a06f	-1.4189585
83	0x3f354bb0	0.70818615
84	0x3c130bc6	0.008974975
85	0xbf075544	-0.5286448
86	0xbf689738	-0.9085574
87	0x3eee6988	0.4656489
88	0xbaa0204f	-0.001221666
89	0x3f878f57	1.0590619
90	0xbedde3c8	-0.43337846
91	0xbea43823	-0.3207408
92	0xbcf078a5	-0.029354403
93	0xba3c2e54	-0.0007178534
94	0x3e7b094f	0.2451527
95	0xbf897075	-1.0737444
96	0x3fa704f6	1.3048389
97	0x3f45da0b	0.7728583
98	0x3eca4670	0.39506865
99	0x3b88bf65	0.0041732066
100	0x3f9ebb97	1.2400998
101	0xbf02c0bc	-0.5107534
102	0x3f042b5c	0.5162866
103	0xbe8717c4	-0.2638532
104	0xbf941aff	-1.1570739
105	0xbf4fac3a	-0.8112217
106	0x3f72c0d5	0.9482549
107	0x3f4417cd	0.7659882
108	0x3f67d392	0.90557206
109	0x3e87b721	0.26506904
110	0xbebc87d3	-0.36822376
111	0x3ecb58d5	0.3971621
112	0xbe2dbb84	-0.16966063
113	0x3c02364c	0.007947516
114	0xbb5a9fe8	-0.0033359472
115	0x3f62c06e	0.88574874
116	0x3b152766	0.002275908
117	0xbe6a260b	-0.22866075
118	0x3e3a7b7e	0.18211171
119	0xbf023820	-0.5086689
120	0xbf183e6f	-0.59470266
121	0xbaa8752b	-0.0012852302
122	0x39f5921e	0.00046838907
123	0x3fab4048	1.3378992
124	0xba2f8b91	-0.0006696517
125	0xbbb296d0	-0.005450107
126	0x3eb75b94	0.35812056
127	0xbdf68430	-0.120369315
128	0xbdab4176	-0.08362095
129	0x3d9a75a1	0.07541967
130	0xbf10d0dc	-0.56568694
131	0xbf333638	-0.70004606
132	0x3ca1bf9e	0.01974469
133	0x3fb162be	1.3858259
134	0x3fa3a559	1.2784835
135	0x3eeafb8a	0.45895034
136	0x3b27965a	0.0025571794
137	0xbf7ea9e2	-0.9947797
138	0xbe56c0c4	-0.20971972
139	0xbf4f6f2e	-0.8102902
140	0xb988ae68	-0.00026069884
141	0x3f58fd4d	0.84761506
142	0x3f4cb438	0.7996249
143	0x3f009685	0.50229675
144	0x3ca5493e	0.020176526
145	0x3ef89138	0.48548293
146	0xbe762f13	-0.24041395
147	0xbe76f3e8	-0.2411648
148	0xbe5e1379	-0.21687116
149	0xbd14bf81	-0.036315445
150	0x3dad652f	0.08466565
151	0x3c45437d	0.012040016
152	0xbee4844d	-0.44632187
153	0x3f3f5228	0.74734735
154	0xbf4ed1eb	-0.8078906
155	0x3f7e74ed	0.99397165
156	0xbe34a1f1	-0.176399
157	0x3f18e137	0.5971865
158	0x3f9cf6e4	1.2262845
159	0x3f1b6e6a	0.60715353
160	0xbe5d67b4	-0.21621591
161	0x3ea70d31	0.32627252
162	0xbfd28ce8	-1.6449251
163	0xbfa47115	-1.284701
164	0xbf5fb54e	-0.87386024
165	0x3e82925e	0.25502294
166	0x3fd8de3a	1.6942818
167	0x3f3bd2dd	0.73368627
168	0xbe95490d	-0.29157296
169	0xbf8b6c0d	-1.089235
170	0xbf728666	-0.94736326
171	0xbdaad670	-0.08341682
172	0xbfd56723	-1.66721
173	0x3fe5bf33	1.7948974
174	0xbf66a868	-0.9010072
175	0xbd7dde94	-0.061979845
176	0x3d1d018c	0.038331553
177	0xbda64253	-0.08118119
178	0x3fbc83c2	1.4727709
179	0xbf198333	-0.5996582
180	0xbc3cf880	-0.011533856
181	0x3f2943cf	0.6611909
182	0xbd73464a	-0.059393205
183	0xbc40707c	-0.011745568
184	0xbfa3818d	-1.2773911
185	0x3dbb11ae	0.091342315
186	0xbfd1ab76	-1.6380451
187	0xbcf641d6	-0.03006069
188	0x3deeb21b	0.11655065
189	0x3c802dab	0.015646776
190	0x3f767c0b	0.96283025
191	0x3f0b1bd4	0.5433934
192	0x3f152050	0.5825243
193	0xbf85cad8	-1.0452528
194	0x3e33bb6b	0.17551963
195	0x3f532061	0.8247128
196	0x3f4eb0cf	0.8073854
197	0xbfb69f75	-1.4267412
198	0xbfba03b6	-1.4532382
199	0x3f3414d6	0.70344293
200	0xbf08e280	-0.5347061
201	0xbe0dfc97	-0.13865887
202	0x3f67a4fd	0.9048613
203	0x3c0d858c	0.008637797
204	0x3f2f3062	0.684332
205	0x3f57b862	0.8426572
206	0xc0022dc6	-2.0340438
207	0xbe3f416d	-0.18677302
208	0x3e0e87cc	0.1391899
209	0xc036954e	-2.8528628
210	0xbf13389c	-0.57508254
211	0xbf78acd6	-0.97138727
212	0xbe443888	-0.1916219
213	0xba634057	-0.000866895
214	0xbf576e8a	-0.84153044
215	0x3d3b6896	0.045754038
216	0xbc207004	-0.009792332
217	0x3f302434	0.6880524
218	0xbd5d5191	-0.054032866
219	0xbf81d6e7	-1.0143708
220	0xbfbeca5d	-1.4905506
221	0x3d9cddd0	0.07659495
222	0x4011fe4d	2.2811463
223	0xbc86ba0a	-0.016446132
224	0x3f31531b	0.69267434
225	0xbc5d4978	-0.013506286
226	0x3b20cc22	0.0024535735
227	0x3ed4f093	0.41589794
228	0x4009f6cd	2.1556885
229	0xbf055db6	-0.52096117
230	0x3ec81b19	0.39083174
231	0xbd865ddc	-0.06560871
232	0x3cc04bc3	0.023473626
233	0x3f77b379	0.9675823
234	0xbfdb920f	-1.7153949
235	0xbeebffd9	-0.46093634
236	0xbc4e9e15	-0.012610932
237	0x3f08be11	0.5341502
238	0xbe1f348a	-0.15547386
239	0x3f9ca5ac	1.2238059
240	0xbf0c7b27	-0.54875416
241	0xbf2f7584	-0.6853869
242	0xbf9370f2	-1.1518843
243	0xbe2be471	-0.16786362
244	0x3f92c304	1.1465764
245	0xbf18ebe6	-0.5973495
246	0x3f6a5679	0.91538197
247	0xbd8ed9fc	-0.06975171
248	0xbe16f178	-0.1474055
249	0x3ba2e60e	0.0049712723
250	0x39aad7a4	0.00032585592
251	0xbc8f95f7	-0.017527563
252	0x3ea8014d	0.32813492
253	0xbcf52aa2	-0.029927555
254	0x3f0c979e	0.5491885
255	0xbfc3e1b1	-1.530325

user_age_embedding.weight f4 [5, 4]
0	0x3f418afe	0.7560271
1	0x3f07c1ce	0.530301
2	0xbfe70bb1	-1.8050443
3	0x3f97f5ee	1.1871927
4	0x3f298b29	0.66227967
5	0xbfedb844	-1.8571858
6	0xbf1eca4e	-0.6202744
7	0x3ef58438	0.47952437
8	0x3eb5c598	0.35502315
9	0xbef2ab43	-0.47396287
10	0x3e1686c5	0.14699848
11	0xbf228226	-0.6347984
12	0x3fb9c3ef	1.4512919
13	0x3f2516d1	0.6448794
14	0x3f83991e	1.0281103
15	0x3ef98448	0.48733735
16	0x3bd3292e	0.006444118
17	0x3ef5f073	0.4803501
18	0x3fa0d3d5	1.2564646
19	0xbfe88419	-1.8165313

user_gender_embedding.weight f4 [2, 2]
0	0x3d079e71	0.033110086
1	0x3ed04946	0.40680903
2	0xbfd1969c	-1.6374087
3	0x3ed06193	0.40699443

user_occupation_embedding.weight f4 [21, 8]
0	0x3e52551d	0.2054028
1	0x3f8c68fc	1.0969539
2	0xbf5d53a4	-0.8645575
3	0x3e60d411	0.21955897
4	0x3f3807fa	0.7188717
5	0x3ed4d7d1	0.41570905
6	0x3ff49be2	1.9110072
7	0x3f8aeee4	1.0854154
8	0xbc8b9915	-0.017040769
9	0xbfcb8f55	-1.5903116
10	0x3f5d9896	0.8656095
11	0xbf006147	-0.50148433
12	0xbfa99143	-1.3247455
13	0x3f167852	0.58777344
14	0xbeeae2db	-0.45876202
15	0xbf09943a	-0.537418
16	0x3f83ffae	1.0312402
17	0xbf57e697	-0.8433623
18	0x3f9ec32b	1.240331
19	0x3e902e33	0.28160247
20	0x3f6d535c	0.9270532
21	0xbf756eb7	-0.9587206
22	0xbee459a3	-0.44599637
23	0x3f2e6239	0.68118626
24	0x4013c536	2.3089118
25	0x3e0460fb	0.1292762
26	0xbfe8a74d	-1.8176056
27	0x4003518c	2.0518522
28	0x3e38fac6	0.18064412
29	0xbdc3e6d8	-0.09565514
30	0xbf51cf2e	-0.81956756
31	0xbf615f3d	-0.8803595
32	0x3f2b2eb7	0.66868156
33	0xbf9e15f3	-1.2350448
34	0xbf5381d9	-0.82620007
35	0x3ed8c633	0.42338714
36	0x3f15bc96	0.58490884
37	0xbf9bcd28	-1.2171984
38	0x3f15e511	0.5855265
39	0xbfa04786	-1.2521827
40	0xbfb8522b	-1.4400076
41	0xbef77d31	-0.483377
42	0x3d945a38	0.0724377
43	0xbddcdcc1	-0.10784293
44	0xbea1f372	-0.31631047
45	0xbfb8b7eb	-1.4431127
46	0x3f36c63b	0.71396226
47	0xbec70846	-0.388735
48	0x3eb9ae9d	0.36266032
49	0xc01600cc	-2.3437986
50	0x3f089282	0.53348553
51	0x3ed9fcaa	0.4257558
52	0xbf22ffab	-0.6367137
53	0x3f4181f2	0.75588906
54	0x3d99e6ca	0.07514723
55	0x3f30626f	0.689002
56	0x3e4ee90c	0.20206088
57	0x3f2e7374	0.6814492
58	0xbf407d2d	-0.75191003
59	0x3f8d92dc	1.1060443
60	0xbea25891	-0.31708196
61	0x3e501048	0.20318711
62	0x3f3e32e1	0.74296385
63	0x3f37847f	0.7168655
64	0xbd997cb2	-0.07494487
65	0xbf695f62	-0.9116117
66	0x3f087aa1	0.53312117
67	0x3e073cef	0.13206838
68	0xbeb75fb4	-0.35815203
69	0xbf94a3c4	-1.1612477
70	0x3f7408f0	0.9532614
71	0xbeba3d0f	-0.3637471
72	0x3f7521ec	0.95754886
73	0xbebb7b8b	-0.36617693
74	0x3e3cd140	0.18439198
75	0xbf3ddc25	-0.7416404
76	0xbee370f8	-0.44422126
77	0xbeae2351	-0.3401132
78	0x3f97d599	1.186206
79	0x3f269364	0.6506865
80	0xbcc72efc	-0.024314396
81	0xbf4220cf	-0.7583131
82	0x3ebe3c14	0.3715521
83	0xbf021813	-0.50817984
84	0x3f45cc03	0.7726442
85	0xbf31abcc	-0.69402766
86	0xbf806e4b	-1.0033659
87	0xbf601762	-0.8753568
88	0xbf0c5223	-0.5481283
89	0xbdebdfb2	-0.11517276
90	0x3f478ca9	0.77949005
91	0xbd66b26e	-0.056322508
92	0x3faefb64	1.3670468
93	0xbdee5dd1	-0.11638988
94	0xbf42663b	-0.7593724
95	0x3efead55	0.49741617
96	0x3fe46c7b	1.7845606
97	0x3fc833cf	1.5640811
98	0x3f78c4e7	0.9717545
99	0xbf80b96e	-1.0056589
100	0xbf3663f0	-0.7124624
101	0xbd8e658e	-0.06952964
102	0x3ca92db0	0.020651668
103	0xbf4a85e3	-0.79110545
104	0x3ea94799	0.33062437
105	0xbf87cf90	-1.0610218
106	0x3f2e16f9	0.68003803
107	0xbd9e0319	-0.077154346
108	0x3f08d369	0.53447586
109	0x3f96ba73	1.177565
110	0x3e2370e6	0.15961036
111	0x3f29aa7d	0.6627577
112	0x3e8963a5	0.26833835
113	0x3f9e8313	1.2383751
114	0x3f295629	0.66147095
115	0xbe2b12d2	-0.16706398
116	0xbee034d4	-0.43790305
117	0xbf855fd9	-1.0419875
118	0x3dfa291a	0.12214871
119	0xbea2bbfa	-0.3178404
120	0x3f5b51f8	0.8567195
121	0x3f80adca	1.0053036
122	0xbe090557	-0.13380943
123	0xbecd76da	-0.4012974
124	0xbe322fc0	-0.17401028
125	0x3ff1498b	1.8850569
126	0x3f3bde58	0.73386145
127	0xbe49d6c5	-0.19710834
128	0x3e1fa109	0.15588774
129	0xbdf0288a	-0.11726482
130	0xbf3fe6dd	-0.74961644
131	0xbecdecd2	-0.40219742
132	0xbf15bb32	-0.5848876
133	0xbd686a96	-0.056742273
134	0x3c8ae524	0.016954966
135	0x3f01ed98	0.50753164
136	0x3f8794c1	1.0592271
137	0x3eb8caaf	0.36092135
138	0xbfde5333	-1.736914
139	0xbf2399ce	-0.6390656
140	0x3fb20e83	1.3910679
141	0xbf39b686	-0.72544134
142	0x3fba28fb	1.4543756
143	0x3e11c633	0.14235763
144	0x3d2b68b6	0.041847907
145	0xbe341e5f	-0.1758971
146	0x3fa30708	1.2736521
147	0xbd85303d	-0.06503341
148	0x3dd8a282	0.10577871
149	0xbfa8207b	-1.3134912
150	0xbeb2d20a	-0.34925872
151	0xbeda25f4	-0.4260708
152	0x3f9191dd	1.1372639
153	0x3f5c9cdd	0.86176854
154	0xc0271e75	-2.611234
155	0xbf62636c	-0.88432956
156	0xbedeb744	-0.43499196
157	0xbf493971	-0.78603274
158	0x3f53af29	0.8268915
159	0x3eafd18f	0.34339568
160	0xbe229664	-0.15877682
161	0xbfa0f5cf	-1.2575015
162	0x3ee92619	0.4553688
163	0xbf349242	-0.7053567
164	0xbf17e23e	-0.59329593
165	0xbf18e1c2	-0.5971948
166	0xbe6f51be	-0.23371026
167	0x3f3930b5	0.72339946

user_location_embedding.weight f4 [760, 18]
0	0x3e64b8ea	0.22336164
1	0xbe48ed5f	-0.196218
2	0xbec18579	-0.37797144
3	0xbf4370d9	-0.76344067
4	0x3f644d9c	0.8918092
5	0x3f5a8839	0.8536411
6	0x3ee8f429	0.4549878
7	0x3f774816	0.9659437
8	0xbf3c2867	-0.7349915
9	0x3b914db4	0.0044343118
10	0xbef88570	-0.48539305
11	0x3f0b265c	0.54355407
12	0xbee698ca	-0.45038444
13	0xbf539fdf	-0.8266582
14	0x3e9136cc	0.2836212
15	0xbcc22f55	-0.02370421
16	0x3fb09739	1.379615
17	0xbe738a81	-0.23783304
18	0xbcb658d5	-0.022259155
19	0xbeb12a10	-0.34602404
20	0xbcb2b52d	-0.021814907
21	0x3ea65677	0.32487842
22	0xbbdf8868	-0.006821681
23	0x3d0bda7c	0.03414391
24	0x3d066e27	0.032819893
25	0x3ec22549	0.3791907
26	0x3d65610e	0.05600076
27	0xbf77fb26	-0.968676
28	0x3f76665b	0.9624993
29	0x3f4549bb	0.7706563
30	0x3f2c49fc	0.6730039
31	0xbf620dd3	-0.88302344
32	0x3f11520c	0.5676582
33	0x3c009f35	0.007850458
34	0x3c256ed4	0.010097224
35	0x3e15f427	0.14643918
36	0xbd2b3fbf	-0.04180884
37	0x3f3a2f9c	0.72728896
38	0xbf17b7c2	-0.5926477
39	0xbf15773c	-0.5838506
40	0xbf75d332	-0.96025383
41	0xbef92e6e	-0.48668236
42	0xbc81c06e	-0.015838828
43	0x3f2838ba	0.6571156
44	0xbd8e262e	-0.06940876
45	0x3fba9df8	1.4579458
46	0xbca90f1b	-0.020637086
47	0x3faebafb	1.3650812
48	0x3f397c5a	0.7245537
49	0xbca5d2a0	-0.020242035
50	0x3d1e6ee6	0.03867998
51	0x40504bdb	3.2546299
52	0xbebac1ca	-0.36475974
53	0x3ecdc794	0.4019133
54	0xbf20893b	-0.627094
55	0x3e90e4d1	0.28299573
56	0xbb023471	-0.0019867683
57	0xbe2a0eae	-0.16607162
58	0xbfca9d3f	-1.5829238
59	0xbfb2daf9	-1.3973075
60	0x3fce08cd	1.6096436
61	0x3f13d0ff	0.5774078
62	0xbf0fcba3	-0.561701
63	0x3f9191e8	1.1372652
64	0x3f1f9dd7	0.6235022
65	0x3fcc1509	1.594392
66	0xbf88d5cb	-1.0690244
67	0x3f1ed6bb	0.620464
68	0xbf4f05e2	-0.8086835
69	0x3d0e8b00	0.03480053
70	0x3deb56fd	0.11491201
71	0xbb6d45ad	-0.003620486
72	0xbe98c8e5	-0.2984077
73	0xbe45917e	-0.19293782
74	0xbedcb00f	-0.43103072
75	0xbc8f8161	-0.017517747
76	0xbf58a0be	-0.84620273
77	0x3f260ad9	0.648603
78	0xbf19cf2e	-0.60081756
79	0xbfbfc67f	-1.4982451
80	0xbded5e57	-0.115902595
81	0x3d7e4922	0.062081464
82	0xbfad0e01	-1.3519899
83	0x3fa01007	1.2504891
84	0xbf851e96	-1.0399959
85	0xbff10cb5	-1.8832003
86	0xbf4e119f	-0.8049564
87	0x3f013cfd	0.50483686
88	0x3d826976	0.06367771
89	0x3eb973a6	0.36221045
90	0x3daaa220	0.08331704
91	0x3f3f24f5	0.74665767
92	0xbeb70d6c	-0.35752428
93	0xbf0eb665	-0.5574706
94	0x3d1448f6	0.036202393
95	0xbef37f69	-0.47558144
96	0xbcdf961d	-0.02729326
97	0xbf22fd51	-0.6366778
98	0x3f898b3b	1.0745615
99	0x3e1715b8	0.14754379
100	0xbc7006e8	-0.014650084
101	0x3f9f8c4c	1.246469
102	0xbbafa193	-0.0053598373
103	0x3ed2d38c	0.41177022
104	0xbeaa52a2	-0.3326617
105	0xbdb225fe	-0.08698653
106	0x3ee8cce3	0.45468816
107	0x3f3960c4	0.7241328
108	0xbf97187f	-1.1804351
109	0xbf68f5f2	-0.9100028
110	0xbfa01cdc	-1.2508807
111	0x3c95036b	0.018190106
112	0x400fc466	2.2463622
113	0xbf13a2d7	-0.5767035
114	0x3a148171	0.000566504
115	0x3f403ad3	0.7508976
116	0xbee1fdee	-0.44139045
117	0x3e04ee0f	0.12981437
118	0xbf90a09d	-1.1299015
119	0xbd4b48cb	-0.049629968
120	0xbede6333	-0.43435058
121	0xbf051cd2	-0.519971
122	0x3e8ef2ce	0.2791962
123	0xbe0bc80e	-0.13650534
124	0xbd6cbf0f	-0.057799395
125	0xbdc4d734	-0.09611359
126	0x40152cf5	2.330869
127	0x3e9bf309	0.3045886
128	0xc02827d4	-2.627431
129	0xbcd03244	-0.025414594
130	0xb94f6b66	-0.00019781067
131	0xbed6c0f7	-0.41944095
132	0x3d2e9344	0.042620912
133	0x3d29c9d8	0.04145226
134	0x400d9d2d	2.2127182
135	0x3aad01a5	0.0013199343
136	0x3ace25df	0.0015727839
137	0xbe9e32ce	-0.30898136
138	0xbfbe7ea4	-1.4882398
139	0x3d8c48ad	0.06849799
140	0x3f12ef14	0.57396054
141	0x3bff5433	0.0077920198
142	0xbe834cd5	-0.25644556
143	0xbfd5c9a6	-1.6702163
144	0xbdfade01	-0.12249375
145	0xbf3d1806	-0.7386478
146	0xbecd23c9	-0.40066364
147	0xbf868f82	-1.0512545
148	0xbf0fae85	-0.5612567
149	0x3f9ffc20	1.2498817
150	0xbefa23df	-0.48855492
151	0xbe3a7d9a	-0.18211976
152	0x3c0b49d6	0.008501491
153	0x3e54eba3	0.20793013
154	0x3f4ca08d	0.7993248
155	0x3f7ef8ef	0.9959859
156	0xbedf139a	-0.43569642
157	0xbe4c3deb	-0.19945495
158	0x3c5a42fa	0.0133216325
159	0xbecd3049	-0.400759
160	0x39d93f28	0.0004143652
161	0x3d00f0df	0.031479713
162	0xbee04cd5	-0.43808618
163	0x3d423447	0.047413137
164	0xbd11c0c7	-0.035584237
165	0xbd778036	-0.060425006
166	0x3f65a941	0.89711386
167	0x3eccc245	0.39991966
168	0xbf8e3bb4	-1.111197
169	0x3b1e8233	0.0024186492
170	0x3f5b098c	0.8556144
171	0x3ff22b55	1.8919474
172	0x3c62d739	0.013845258
173	0x3e277172	0.1635187
174	0x3e07110e	0.131901
175	0xbec6ce50	-0.3882928
176	0x3bee6248	0.0072748996
177	0x3c3e949f	0.011632114
178	0xbf8bf582	-1.0934298
179	0x3d0e2a4d	0.03470831
180	0x3aa92f63	0.0012907799
181	0x3f778df2	0.96700966
182	0xbf893ede	-1.072231
183	0x3f5f0215	0.8711255
184	0x3fae590c	1.3620925
185	0x3f25f82e	0.6483182
186	0xbe4a0361	-0.19727851
187	0x3ff76d6f	1.9330271
188	0xbf9f4e01	-1.244568
189	0x3fa521c6	1.2900932
190	0x3f83d867	1.0300416
191	0xbd2a5742	-0.04158712
192	0xbe533c00	-0.20628357
193	0x3d54f490	0.051991045
194	0xbf2e94b8	-0.68195677
195	0x3f6b7f6b	0.919913
196	0xbd45279f	-0.04813349
197	0xc005cf29	-2.090769
198	0xbe1c829a	-0.15284196
199	0xbfa2ece2	-1.2728541
200	0x3f186042	0.5952188
201	0x3f165a8f	0.5873193
202	0xbef38730	-0.47564077
203	0x3ee64a84	0.44978726
204	0xbe96c2c6	-0.29445475
205	0x3eb4e9c5	0.35334602
206	0x3f3fcf40	0.74925613
207	0xbeebee5a	-0.46080285
208	0xbe27698f	-0.16348861
209	0xbf801ab3	-1.0008148
210	0x3f8fefba	1.1245034
211	0xbec7e88e	-0.39044613
212	0x3f9a2bc3	1.2044605
213	0x3fbe8c3a	1.4886544
214	0xbf4ed821	-0.80798537
215	0x3fbe0fd8	1.4848585
216	0xbec0e1c8	-0.37672257
217	0xbfbe09cc	-1.484674
218	0xbf4dd1bd	-0.8039816
219	0x3f074859	0.5284477
220	0x4010b749	2.2611868
221	0x402d89a5	2.7115262
222	0xbf77bf1a	-0.9677597
223	0x3f320072	0.6953193
224	0xbf0b8fbe	-0.5451621
225	0xbdca8fd2	-0.09890713
226	0x3c830481	0.015993359
227	0xbec6130b	-0.38686404
228	0xbf167d00	-0.58784485
229	0xbd8b2138	-0.06793445
230	0xbf0bdd9b	-0.5463502
231	0xbf88f3f9	-1.0699455
232	0xbcb82757	-0.022479696
233	0xbf3a98d0	-0.72889423
234	0x3dd185ec	0.10230622
235	0xbf65a54a	-0.89705336
236	0x3ee12b2a	0.43978244
237	0x3e36c3d6	0.17848143
238	0xbdf89f8c	-0.12139806
239	0xbd8fe25c	-0.070255965
240	0x3e4354df	0.19075345
241	0x3ee17aea	0.44039088
242	0x3f533a39	0.82510716
243	0x403caa52	2.9478955
244	0xbfb1add1	-1.388117
245	0xbfd026b0	-1.6261806
246	0xbeec0b12	-0.46102196
247	0xbc519b99	-0.012793445
248	0xbebffbc9	-0.37496784
249	0xbf1b12ba	-0.6057545
250	0x3f743b42	0.9540292
251	0xbea20c9c	-0.31650245
252	0xbf8d6574	-1.1046586
253	0x3fe7b76f	1.8102854
254	0xbe39081b	-0.18069498
255	0xbeb706e2	-0.3574744

item_id_embedding.weight f4 [1600, 32]
0	0x3ecf521b	0.4049233
1	0xbdb1f375	-0.08689014
2	0x3e599674	0.212488
3	0xbec5e489	-0.3865092
4	0x3f809855	1.0046488
5	0xbff84085	-1.939469
6	0x3f57cd0c	0.8429725
7	0x3d126e5c	0.03574978
8	0x3d7a769e	0.06114828
9	0x3f492173	0.78566664
10	0x3d51aab2	0.05118818
11	0x3eae8e0c	0.34092748
12	0x3edd999b	0.43281254
13	0xbb813161	-0.003942654
14	0xbf33e3c3	-0.7026941
15	0x3e0be784	0.13662535
16	0x3e219508	0.15779507
17	0x3f6abeae	0.91697204
18	0xbf635682	-0.88803875
19	0x3f997ef2	1.1991866
20	0xbe46d28d	-0.19416256
21	0x3fb7aeda	1.4350235
22	0xbf389e36	-0.7211641
23	0x3f8a8180	1.082077
24	0xbdb9e0e5	-0.09076098
25	0x3ebe74ae	0.37198395
26	0xbdb980cd	-0.0905777
27	0x3ebe07e8	0.37115407
28	0xbf0a7a82	-0.5409318
29	0xbe8198b3	-0.25311813
30	0x3f0a1974	0.5394509
31	0x3eb129a6	0.34602088
32	0xbc2ada27	-0.010427988
33	0xbf86e3e7	-1.05383
34	0xbe139314	-0.14411575
35	0x3f1706c5	0.58994704
36	0x3e941b53	0.28927097
37	0xbd3c5ddf	-0.04598796
38	0xbef737a2	-0.48284632
39	0x3f239679	0.6390148
40	0xbdeca8c3	-0.11555626
41	0x3f181bb0	0.5941725
42	0xbfae4517	-1.3614835
43	0x3b2291b6	0.0024806089
44	0x3c2c2471	0.010506735
45	0x3cccafcd	0.024986172
46	0xbeb373c7	-0.3504927
47	0xbe4f0ffc	-0.20220941
48	0xbd6b62c6	-0.057467245
49	0xbc65d396	-0.014027497
50	0xbf2ded63	-0.6794035
51	0xbebd73aa	-0.37002307
52	0x3f4ac546	0.79207265
53	0xbacdaf96	-0.0015692587
54	0xbf9be65d	-1.2179676
55	0x3f634371	0.8877478
56	0xbc95d8fb	-0.01829194
57	0x3f35d2df	0.7102489
58	0x3f9675fe	1.1754758
59	0x3c0f45bc	0.008744653
60	0x3f10b98e	0.56533134
61	0x3f01b525	0.5066703
62	0x3b7cbc8a	0.0038564526
63	0x3b9976e1	0.004683361
64	0xbe786959	-0.24258937
65	0xbed0c8a4	-0.40778077
66	0xbe2ff88e	-0.1718466
67	0x3e8384d3	0.25687274
68	0x3f13274d	0.57481843
69	0x3d4b9542	0.04970289
70	0x3a8ab175	0.0010581451
71	0xbebcc6d8	-0.36870456
72	0x3f8d3e3f	1.1034621
73	0xbf749839	-0.95544773
74	0xbe8a2216	-0.2697913
75	0x3ebca58d	0.36845055
76	0xbed6eea6	-0.4197895
77	0xbced0fdb	-0.028938225
78	0xbc80e90b	-0.015736124
79	0xbba1cdc2	-0.0049378583
80	0xbd72f531	-0.059315864
81	0xbea105b8	-0.31449676
82	0xbf516f6f	-0.8181066
83	0xbf169eaf	-0.5883588
84	0x3f1820ae	0.59424865
85	0xbf63ce4b	-0.88986653
86	0x3f9afdb1	1.210867
87	0xbb3def5c	-0.002898178
88	0xbe73ccdf	-0.23808621
89	0x3fbc5af1	1.4715253
90	0x3e5a175a	0.2129797
91	0xbc8e28f2	-0.017353509
92	0xbecd73cb	-0.40127406
93	0x3fcfffd0	1.6249943
94	0x3fd75627	1.6823167
95	0xbbe0e222	-0.0068628946
96	0x3ff6cdee	1.9281595
97	0xbe116a24	-0.14200646
98	0xbfd0cb3e	-1.6312025
99	0xbe443cdf	-0.19163845
100	0x3ea3d2c5	0.31996742
101	0x3ed050c5	0.40686622
102	0xbe836fb3	-0.25671157
103	0x3e4144c9	0.18873896
104	0x3f8e94c2	1.1139147
105	0xbf06f53d	-0.52717954
106	0xbf170307	-0.58988994
107	0x3f9cc9ab	1.2249044
108	0xbf8b2803	-1.0871586
109	0x3c0d0343	0.008606735
110	0xbc93aeac	-0.018027626
111	0xbe452f0d	-0.1925623
112	0x3f3d7bed	0.7401722
113	0x3d281e0b	0.041044276
114	0xbe68a565	-0.22719343
115	0x3fc874a6	1.5660598
116	0xbe8db4d8	-0.27677035
117	0xbe6367f7	-0.22207628
118	0xbf1d1c6f	-0.6137151
119	0x3f4928ba	0.7857777
120	0x3f956f83	1.1674656
121	0x3da9fdc8	0.08300358
122	0x3f1aeca8	0.6051736
123	0x3fabeafc	1.3431087
124	0xbb005305	-0.0019580733
125	0xbe310869	-0.17288364
126	0xbf48de88	-0.78464556
127	0x3f2e3b92	0.6805965
128	0xba8871f6	-0.001040994
129	0xbf7de4f9	-0.9917751
130	0xbe83249c	-0.25613868
131	0xbe49070e	-0.19631597
132	0xbf4d7185	-0.8025134
133	0x3fcb6764	1.5890927
134	0x3d9abf2a	0.07555993
135	0x3e76fbda	0.24119511
136	0xbca4d39d	-0.020120436
137	0xbfb8590c	-1.4402175
138	0xbf8df462	-1.1090205
139	0xbcaa800b	-0.020813009
140	0x3d8db39e	0.06919025
141	0xbed453ae	-0.41470093
142	0xbe861f76	-0.26195878
143	0x3e74f2d9	0.23920764
144	0x400eb02d	2.229503
145	0x3b95c507	0.0045706066
146	0x3e835652	0.25651795
147	0x3ea49c5a	0.32150537
148	0x3acf8c26	0.0015834614
149	0xbfca9809	-1.5827647
150	0x3f5cecf2	0.8629905
151	0x3d9fdb3b	0.07805487
152	0xb4a10e00	-2.9998773e-07
153	0xbe85d174	-0.26136363
154	0xbd9a5cb5	-0.07537214
155	0x3ea85389	0.32876232
156	0x3f3831a7	0.71950763
157	0xbef134f2	-0.47110707
158	0x3adf5dee	0.0017041543
159	0x3e14beed	0.14525957
160	0x3f2d6583	0.6773302
161	0x3cfa0b20	0.030522883
162	0x3d357e90	0.044310153
163	0xbf6a0fa8	-0.9143014
164	0x3f94e07b	1.1631006
165	0xbbe39003	-0.006944658
166	0xbb7fbff1	-0.0039024318
167	0xbc5bd42a	-0.013417283
168	0x3b9102d3	0.0044253855
169	0x3db1be66	0.08678894
170	0x3ab8e479	0.0014106176
171	0xbaa8bf30	-0.0012874361
172	0xbe8e86f5	-0.2783734
173	0x4003f0ff	2.0615842
174	0xbe87eab3	-0.2654625
175	0x3f77054f	0.96492475
176	0x3f06de68	0.52683115
177	0x3de3cdd0	0.1112324
178	0x3fa9f46c	1.3277717
179	0x3f393ea2	0.72361195
180	0x3fbef4c9	1.4918453
181	0x3f4c0fa3	0.7971136
182	0xbf81c118	-1.0137053
183	0xbe645f29	-0.22301926
184	0xbea6cf7a	-0.32580167
185	0xbf14482f	-0.57922643
186	0xbf30830a	-0.6894995
187	0xbf8d2234	-1.1026063
188	0x3ed67028	0.41882443
189	0x3d52e24b	0.05148534
190	0xbe210275	-0.15723594
191	0xbf05e06f	-0.52295583
192	0xbf19cd32	-0.6007873
193	0x3cbc3e4a	0.02297892
194	0xbfb05874	-1.3776994
195	0xbc093641	-0.008374752
196	0x3e08b54f	0.13350414
197	0x3ebc45a1	0.36771873
198	0x3f2a2393	0.6646053
199	0xbd953b6f	-0.07286727
200	0x3fe387a2	1.7775767
201	0x3d2681f6	0.040651284
202	0xbeb159cb	-0.3463882
203	0x3e24057f	0.16017722
204	0x3f24819a	0.64260256
205	0xbd614aaf	-0.055002864
206	0xc0383c05	-2.8786633
207	0xbf0c8e47	-0.549046
208	0x3e49c64c	0.1970455
209	0x3d26067e	0.040533535
210	0x3fc1e8b8	1.5149145
211	0x3fe18fe8	1.7622042
212	0xbe4b74e1	-0.19868805
213	0xbfb1f9a7	-1.3904313
214	0xbfa70d0c	-1.3050857
215	0xbdd40f13	-0.10354438
216	0x3f556db2	0.83370507
217	0xbfa217b2	-1.2663481
218	0x3fe3204a	1.7744229
219	0xbf5dcc42	-0.866398
220	0x3bc0703d	0.005872755
221	0xbf3b260a	-0.7310492
222	0x3ea7de1d	0.32786646
223	0x3d0f5cfd	0.03500079
224	0xbf65a6f3	-0.8970787
225	0x3fd84266	1.6895263
226	0xbea2db1a	-0.31807786
227	0xbfb7b2bd	-1.4351422
228	0xbed56560	-0.41678905
229	0x3bada433	0.005299115
230	0x3cdda056	0.027053993
231	0xbeb6352f	-0.3558745
232	0x3b8969bc	0.0041935127
233	0xbd9f0603	-0.077648185
234	0xbf3f165d	-0.746435
235	0x3efeb939	0.4975069
236	0x3e7e3903	0.24826436
237	0xbf432065	-0.76221305
238	0xbd853551	-0.0650431
239	0x3e9ecdb6	0.3101632
240	0x3e5cfa30	0.21579814
241	0x3fb8b53c	1.4430308
242	0x3bb8b412	0.0056367004
243	0xbf1408bb	-0.5782582
244	0xbff271f4	-1.8941026
245	0xbbbd8955	-0.0057841935
246	0xbe3747c2	-0.17898467
247	0x3ff966e2	1.9484522
248	0xbd0017de	-0.03127276
249	0xbed66aee	-0.41878456
250	0x3f2d9704	0.67808557
251	0xbe7731ef	-0.24140142
252	0xbf441c1c	-0.7660539
253	0xbf06ccc7	-0.52656215
254	0x3c74f199	0.0149501795
255	0x3f3406bc	0.70322776

item_type_embedding.weight f4 [5, 8]
0	0x3fd3133a	1.6490242
1	0xbf943399	-1.1578246
2	0x4020536c	2.5050917
3	0x3ded679c	0.115920275
4	0xbe1794a8	-0.14802802
5	0x3f5c8d6f	0.8615331
6	0xbe269fa6	-0.16271839
7	0x3c71caa2	0.014757784
8	0x3f9c0354	1.2188516
9	0xbf83df27	-1.0302476
10	0x3fe6a43b	1.8018869
11	0xbe669c99	-0.22520675
12	0xbf9e6e8e	-1.2377489
13	0xbfc40190	-1.5312977
14	0x3fb2dbcc	1.3973327
15	0x3f9731d3	1.181208
16	0x3edf6907	0.43634817
17	0xbf7b59b5	-0.9818376
18	0x3e13a71b	0.14419214
19	0xbfd799cd	-1.6843811
20	0xbf720224	-0.94534516
21	0xbe0d34e7	-0.13789712
22	0x3e6796c0	0.226161
23	0xbfe4b4dc	-1.7867694
24	0x3f867ea5	1.0507399
25	0xbe87e673	-0.26543006
26	0x3fc76b5e	1.5579641
27	0x3f132fdb	0.57494897
28	0x403f5272	2.989407
29	0x3f2aca8b	0.66715306
30	0x3ed26093	0.41089305
31	0xbf88a59a	-1.0675538
32	0xbfcc3914	-1.5954919
33	0x3f47da5d	0.7806757
34	0xbf8d3e89	-1.1034709
35	0xbd115966	-0.035485648
36	0x3ea6cd24	0.32578385
37	0x3db50b07	0.08839994
38	0x3f6bcdf7	0.9211115
39	0xbfc9ac06	-1.5755622

item_temperature_embedding.weight f4 [7, 8]
0	0xbeaa5764	-0.332698
1	0xbeed00cd	-0.46289673
2	0xbe636c4c	-0.2220928
3	0xc003bff9	-2.058592
4	0xbd9ed6c4	-0.07755807
5	0xbfc7a1e4	-1.559628
6	0x3f4f1289	0.8088766
7	0xbfb2fc83	-1.398331
8	0x3eb85f00	0.3600998
9	0x3f92fe01	1.1483766
10	0xbeee0522	-0.4648829
11	0x3eb5f8c3	0.35541353
12	0xbf2328de	-0.63734233
13	0x3ece2716	0.40264195
14	0xbf6c7ec7	-0.92380947
15	0xbf8ad448	-1.0846033
16	0xbf4e0a0c	-0.8048408
17	0x3fc7906d	1.559095
18	0x3f9ead8e	1.2396715
19	0xbf4ac16f	-0.79201406
20	0xbd5b7bd8	-0.053584903
21	0xbcef74a0	-0.029230416
22	0xbf95c4c9	-1.1700679
23	0xbec10456	-0.3769862
24	0xbf654f31	-0.8957396
25	0x3e4ece34	0.20195848
26	0xbedac15e	-0.42725652
27	0xbee52789	-0.44756725
28	0xbf42eb27	-0.76140064
29	0x3d26614a	0.040620126
30	0xbeea4e17	-0.45762703
31	0x3faf8d1a	1.3714936
32	0xbf4343b1	-0.76275164
33	0xbf0c6694	-0.5484402
34	0x3f087aaa	0.5331217
35	0xbf18e047	-0.5971722
36	0x3d97d94e	0.074144945
37	0x3fa322ef	1.2745036
38	0x3f58b6ae	0.8465375
39	0x3edfbeab	0.43700156
40	0x3f2ae215	0.66751224
41	0xbf213bb5	-0.6298173
42	0xbef8ab0e	-0.48568004
43	0xbe7eac4c	-0.24870414
44	0x3eb881c4	0.36036503
45	0xbf4e2566	-0.80525815
46	0x3fce7d02	1.6131899
47	0x3fceb788	1.6149759
48	0xbf890c4e	-1.070688
49	0x3e280245	0.16407116
50	0xc015edbd	-2.3426354
51	0x3ca7ede4	0.020499177
52	0xbee63466	-0.44961852
53	0x3f05209f	0.520029
54	0x3f0fd376	0.5618204
55	0xbf125fd5	-0.5717748

item_humidity_embedding.weight f4 [6, 8]
0	0xbf287cf4	-0.65815663
1	0x3efb987a	0.49139768
2	0x3e3b76bf	0.18307017
3	0xbe1b34ea	-0.15156904
4	0xbf936eec	-1.1518226
5	0xbebacb88	-0.36483407
6	0xbfbf5a92	-1.4949515
7	0x3ea68b64	0.32528222
8	0xbf72f55c	-0.9490564
9	0xbe7db725	-0.24776895
10	0x3f18cf8d	0.596917
11	0xbfd0dd41	-1.6317521
12	0x3f65aa6c	0.8971317
13	0x3ebb4b1c	0.3658074
14	0x3e83908a	0.25696212
15	0xbe55eb36	-0.20890507
16	0xbf320a9e	-0.6954745
17	0x3e7ba6c7	0.2457534
18	0x4005f375	2.0929844
19	0x3f354951	0.70814997
20	0x3f46c616	0.77646005
21	0xbf064015	-0.5244153
22	0x3fff9c48	1.9969568
23	0xbf584c04	-0.8449099
24	0x3f888a52	1.0667212
25	0x3f7da809	0.99084526
26	0xc00951de	-2.1456218
27	0xbe2b7b8d	-0.1674635
28	0xbf207da7	-0.6269173
29	0xbf2b2881	-0.6685868
30	0x3f36de6d	0.71433145
31	0xbed34f3e	-0.41271394
32	0xc00d907f	-2.2119443
33	0x3f6bdf37	0.92137474
34	0x3de7162f	0.11283528
35	0xbf874573	-1.0568069
36	0x3fd4b205	1.6616827
37	0xbfec6f87	-1.8471535
38	0xbe020c3f	-0.12699984
39	0xbf2fc2aa	-0.6865641
40	0xbdc71e54	-0.097225815
41	0x3f4d5c81	0.80219275
42	0xbeb6cc1d	-0.357026
43	0xbed6424c	-0.41847456
44	0xbea0ee6e	-0.31431907
45	0x3ec38ba8	0.38192487
46	0x3f95d2c3	1.1704944
47	0x3f21c632	0.6319305

item_windSpeed_embedding.weight f4 [5, 8]
0	0x3fd01b68	1.6258364
1	0x3f39e2e7	0.7261185
2	0xbfa3933c	-1.2779307
3	0x3f017abe	0.50577915
4	0x3fca0318	1.5782194
5	0xbe4f4b1e	-0.20243499
6	0xbf80bf52	-1.0058386
7	0x3f78369e	0.9695834
8	0x3fa818c4	1.3132558
9	0x3d4ce344	0.050021425
10	0xbf4208a0	-0.7579441
11	0xbfcdac3b	-1.6068186
12	0x3e04cf81	0.12969781
13	0x3f01edd1	0.50753504
14	0xbd95a23a	-0.07306333
15	0xbea70ec4	-0.32628453
16	0x3dc361de	0.09540151
17	0xbf16d744	-0.5892222
18	0x3f8f5617	1.1198148
19	0x3f39dfcb	0.72607106
20	0xbeb76fd0	-0.35827494
21	0xc004b6d4	-2.073659
22	0xbf0481b3	-0.51760405
23	0x3fec5b67	1.8465394
24	0xbf983e65	-1.1894041
25	0xbf3f5850	-0.7474413
26	0x3f7381c7	0.951199
27	0x3c0ef152	0.008724527
28	0x3f813f27	1.0097398
29	0x3fd517f0	1.664793
30	0xbe8741cc	-0.26417387
31	0xbef7e09f	-0.4841356
32	0xbedc1819	-0.42987135
33	0x400afe63	2.1717765
34	0x3da53dda	0.08068438
35	0xbf389159	-0.7209678
36	0x3f49b090	0.7878504
37	0x3fd3e879	1.655532
38	0x3f9f1445	1.2428061
39	0xbf3b23d8	-0.7310157

GCN_Layers.0.W1.weight f4 [64, 64]
0	0xbdcf03ca	-0.101081446
1	0xbd405b8c	-0.046962306
2	0xbdbc764a	-0.09202249
3	0xbdf8337a	-0.121191934
4	0x3ded74bc	0.11594531
5	0x3d2a5f30	0.041594684
6	0x3d126720	0.03574288
7	0xbcf6d4d8	-0.030130789
8	0xbd168274	-0.036745504
9	0x3dfd63f4	0.1237258
10	0xbc051290	-0.008122101
11	0x3dc874a2	0.09787871
12	0xbc3c36e0	-0.011487693
13	0x3d9b7b46	0.07591872
14	0xbdd264ea	-0.10273154
15	0xbce7c908	-0.028294101
16	0xbd80f322	-0.06296374
17	0xbce257b8	-0.027629718
18	0xbbfe3f80	-0.0077590346
19	0x3cf87d50	0.030333191
20	0xbcb65178	-0.022255644
21	0x3c8873f8	0.01665686
22	0xbd9efb2a	-0.077627495
23	0x3dc91c12	0.09819807
24	0x3ddef758	0.10887021
25	0xbd9672e6	-0.07346134
26	0xbd4bc2a0	-0.049746156
27	0xbdb11bf6	-0.08647911
28	0xbde28cc4	-0.11062005
29	0xbd4e5f90	-0.050384104
30	0xbdee9126	-0.116487786
31	0xbd6ee0d8	-0.058319896
32	0xbda70c0a	-0.08156593
33	0xbdf3f3da	-0.11911745
34	0xbd6c28bc	-0.057656035
35	0x3d9a9488	0.07547861
36	0xbd96c220	-0.07361245
37	0xbd2e4404	-0.042545334
38	0xbdc0a5a0	-0.094065905
39	0x3da45ba4	0.080252916
40	0xbd4dd664	-0.050253287
41	0x3d820c48	0.06349999
42	0xbdce9e62	-0.10088803
43	0xbbd34640	-0.0064475834
44	0x3deef174	0.11667147
45	0x3d94e984	0.07271102
46	0xbc8f2ca8	-0.017477348
47	0xbc5758d0	-0.013143733
48	0xbdd73f5c	-0.10510132
49	0xbd74802c	-0.059692547
50	0x3cf9e5f0	0.03050515
51	0x3c89fba0	0.016843617
52	0xbded0252	-0.11572708
53	0x3c934d88	0.017981306
54	0xbd0b35a0	-0.033986688
55	0x3dd9288e	0.10603438
56	0x3de54648	0.11195046
57	0xbbf2a020	-0.0074043423
58	0xbd084b78	-0.033275098
59	0x3c60acc0	0.013713062
60	0xbdb7800c	-0.0895997
61	0xbda9a4d2	-0.0828339
62	0x3cf3a428	0.029741362
63	0x3cad8978	0.021183714
64	0x3d6bc150	0.057557404
65	0xbdbf050a	-0.09327133
66	0x3d8698e2	0.06572129
67	0xbdd0ee24	-0.10201672
68	0xbd84e710	-0.06489384
69	0x3cd6eb00	0.026235104
70	0x3db8dfa6	0.090270326
71	0x3af5f400	0.0018764734
72	0x3d8ce278	0.06879133
73	0x3d86c358	0.065802276
74	0x3ce46690	0.027880937
75	0xbd0c5c60	-0.034267783
76	0xbdd54204	-0.10412982
77	0xbca49d48	-0.020094529
78	0xbce8ab10	-0.028401881
79	0xbd8db034	-0.06918374
80	0xbd6bc16c	-0.05755751
81	0xbd0a7be0	-0.033809543
82	0x3d158048	0.03649929
83	0xbd71e460	-0.059055686
84	0xbd4c4a88	-0.049875766
85	0x3d7e8c40	0.06214547
86	0x3d9ad6de	0.07560514
87	0xbdb1d1a6	-0.086825654
88	0x3d602438	0.05472204
89	0x3d8eff3a	0.06982274
90	0xbdd35590	-0.10319054
91	0x3d2e0b6c	0.04249136
92	0x3de4afb0	0.11166322
93	0x3d906f7e	0.070525154
94	0xbc3edbf0	-0.011649117
95	0xbdff091e	-0.12452911
96	0x3d7e409c	0.062073335
97	0x3db8ce0c	0.09023675
98	0x3d3a19d0	0.045434773
99	0x39a75400	0.00031915307
100	0xbd2ca73c	-0.042151675
101	0xbdbaf514	-0.09128776
102	0xbdc50724	-0.096205026
103	0xbbb508c0	-0.0055247247
104	0x3d0afdbc	0.033933386
105	0x3dc0ac50	0.09407866
106	0x3dc899be	0.09794949
107	0xbd8ad872	-0.06779565
108	0xbca90448	-0.020631924
109	0x3df79c6c	0.12090382
110	0xbccd0b10	-0.02502969
111	0x3d11aba0	0.035564065
112	0xbd26a7c0	-0.040687323
113	0x3d82b956	0.06383006
114	0xbd7d6228	-0.061861187
115	0xbdf605a4	-0.120127946
116	0xb9ff6400	-0.00048711896
117	0xbdb239b8	-0.08702415
118	0xbd7d2dec	-0.061811373
119	0x3da20d8e	0.079127416
120	0x3db8bab6	0.09019987
121	0xbd3e3bc0	-0.0464437
122	0x3dc876f8	0.097883165
123	0x3abccd80	0.0014404505
124	0x3db3349a	0.08750267
125	0xbdfe2ef6	-0.12411301
126	0x3da761d2	0.081729546
127	0xbd1a04b8	-0.037602156
128	0x3c8377c0	0.016048312
129	0x3dc0150a	0.09379013
130	0x3ba92d60	0.00516288
131	0xbc243420	-0.010022193
132	0xbdcb41e2	-0.099246755
133	0xbd1ee9a0	-0.03879702
134	0xbdec5f4a	-0.115416124
135	0xbde2d4ea	-0.110757664
136	0x3db7a080	0.0896616
137	0xbd795500	-0.060872078
138	0x3d6ef568	0.058339506
139	0x3d423e90	0.047422945
140	0x3dbe2ba4	0.092856675
141	0x3db7117c	0.08938882
142	0xbcc8cba8	-0.024511173
143	0xbd1911f0	-0.037370622
144	0x3c366ea0	0.0111347735
145	0xbdbe0c9c	-0.09279749
146	0xbd37fe64	-0.04492034
147	0x3b708d00	0.0036705136
148	0xbd140f7c	-0.03614758
149	0x3cee1ae0	0.02906555
150	0x3cb2f5f0	0.021845788
151	0xbd4ba560	-0.04971826
152	0x3d60b36c	0.05485861
153	0x3d05e2d0	0.03268701
154	0x3d4cafb8	0.049972266
155	0xbde6e7ca	-0.11274679
156	0x3dc801a6	0.097659394
157	0x3d82d930	0.063890815
158	0xbcb68780	-0.022281408
159	0x3dfdb886	0.12388711
160	0x3dd8f2e8	0.10593206
161	0x3c85d810	0.016338378
162	0xbdbbeec0	-0.09176397
163	0x3d8b933e	0.068151936
164	0xbd458214	-0.048219755
165	0xbdbf14f2	-0.09330167
166	0xbca37b90	-0.01995638
167	0xbdc1f06a	-0.094696835
168	0xbd1b8e90	-0.037977755
169	0x3d060eb0	0.03272885
170	0x3c9df2d8	0.019280836
171	0x3ded9650	0.116009355
172	0xbc528730	-0.012849614
173	0xbde8d4aa	-0.113686875
174	0x3df21084	0.11819556
175	0xbd5635f4	-0.052297547
176	0xb9de2400	-0.00042369962
177	0x3db4bc38	0.088249624
178	0xbdcb35c2	-0.09922363
179	0xbd2961c8	-0.041353017
180	0xbc5099b0	-0.012731954
181	0xbd910b52	-0.07082237
182	0x3dc8bc3e	0.09801529
183	0x3d7414a8	0.05959001
184	0xbd58055c	-0.052739486
185	0xbc942460	-0.018083751
186	0xbc9637e0	-0.01833719
187	0x3d2151fc	0.039384827
188	0x3db426c0	0.087964535
189	0xbdd9e3e0	-0.10639167
190	0x3dc91100	0.098176956
191	0x3db2b5e6	0.087261006
192	0x3ce23640	0.027613759
193	0xbcb33c78	-0.02187942
194	0xbc696c80	-0.01424706
195	0xbd23243c	-0.039829478
196	0x3dae18e2	0.0850084
197	0xbdbdec98	-0.09273642
198	0x3c8ac7d0	0.016940981
199	0xbd826944	-0.06367734
200	0xbd17b604	-0.037038818
201	0xbd337274	-0.043810323
202	0xbdf8081c	-0.12110922
203	0xbd814e02	-0.06313707
204	0x3dea9a2e	0.11455189
205	0xbdfb5024	-0.12271145
206	0xbd59fb70	-0.053218305
207	0x3dec53b2	0.11539401
208	0xbd89082e	-0.06691013
209	0x3d00d674	0.03145452
210	0x3dd2ad9e	0.10287021
211	0x3d30ab0c	0.043131873
212	0xbd913460	-0.07090068
213	0x3d54c45c	0.051945075
214	0x3d7b4fb8	0.061355323
215	0xbd314d0c	-0.04328637
216	0xba2ef400	-0.0006673932
217	0x3dd3be96	0.10339086
218	0x3c8a14c8	0.016855612
219	0x3da5101c	0.08059713
220	0xbbd2a5c0	-0.0064284503
221	0xbd5d8ec4	-0.05409123
222	0xbdf7aa66	-0.12093048
223	0x3dba8290	0.09106934
224	0x3da9652c	0.0827125
225	0x3d8a2c98	0.06746787
226	0xbcbee1b8	-0.02330099
227	0xbcfdbd88	-0.030974165
228	0x3bc42260	0.005985543
229	0x3d9f9d34	0.07793656
230	0x3dfaeb66	0.1225193
231	0xbd1871b0	-0.037217796
232	0x3d49d8c0	0.049278975
233	0xbd9827be	-0.07429455
234	0xbd8d7566	-0.069071576
235	0xbdb891b8	-0.09012169
236	0xbdf23b48	-0.11827713
237	0x3d1390cc	0.03602676
238	0x3c2edaf0	0.010672316
239	0xbdf3e246	-0.119083926
240	0xbd13fed0	-0.03613168
241	0xbc4f6800	-0.012659073
242	0x3cf399a0	0.02973634
243	0xbdce9356	-0.10086696
244	0xbde3bf2e	-0.11120449
245	0xbcac7870	-0.021053523
246	0x3d610a64	0.05494155
247	0x3befd9a0	0.007319644
248	0xbdff975a	-0.1248004
249	0xbc8c1c08	-0.01710321
250	0xbd076e74	-0.03306432
251	0xbdc3a156	-0.09552257
252	0x3db370f2	0.08761777
253	0x39a98800	0.0003233552
254	0x3dad89e2	0.08473565
255	0xbc3e96b0	-0.011632606

GCN_Layers.0.W1.bias f4 [64]
0	0x3cf28680	0.02960515
1	0xba886600	-0.0010406375
2	0x3c0d2be0	0.008616418
3	0xbd0dfb98	-0.034663767
4	0x3cd31b10	0.02576974
5	0xbd5c9518	-0.053853124
6	0x3c4e7e70	0.012603387
7	0x3de4da7c	0.11174485
8	0x3dc10504	0.09424785
9	0xbddceeda	-0.10787745
10	0xbdfcb4ce	-0.12339173
11	0x3cdef7f0	0.027217835
12	0xbdd14a02	-0.10219194
13	0x3d8e0214	0.0693399
14	0x3df73e70	0.12072456
15	0xbd1ada7c	-0.03780602
16	0x3b889040	0.0041675866
17	0x3dcdb6b8	0.100446165
18	0x3dfb7d5e	0.12279771
19	0x3d72cc08	0.05927661
20	0xbd592fb0	-0.053023994
21	0xbda7b7f4	-0.08189383
22	0xbcf24288	-0.02957274
23	0xbd2047c4	-0.03913094
24	0xbd479ff8	-0.048736542
25	0x3da03b3a	0.078237966
26	0xbc591f10	-0.013252035
27	0xbdc6c1fa	-0.09704967
28	0x3cc265f0	0.023730248
29	0x3d711d48	0.058865815
30	0xbd5f7640	-0.05455613
31	0x3dba6b28	0.0910247
32	0x3d30b780	0.04314375
33	0xbcacd4a0	-0.021097481
34	0x3c2e4150	0.010635689
35	0xbde495f0	-0.11161411
36	0xbd5470fc	-0.051865563
37	0xbd72c414	-0.059269026
38	0xbdf783a0	-0.12085652
39	0x3c9235f0	0.017847985
40	0xbc8b6418	-0.017015502
41	0x3d6ee4c0	0.05832362
42	0xbdcae74a	-0.09907396
43	0xbc3fff20	-0.011718541
44	0x3d2f5138	0.042802066
45	0xbdd02e14	-0.10165039
46	0xbd2217b8	-0.0395734
47	0xbd3f5f20	-0.046721578
48	0x3def211e	0.116762385
49	0x3db71c5e	0.089409575
50	0xbd8ad408	-0.06778723
51	0x3cec1e48	0.028823033
52	0x3c532870	0.012888059
53	0x3d46b69c	0.048513994
54	0x3b9a6c80	0.0047126412
55	0x3d2a6368	0.041598707
56	0xbdd292c0	-0.102818966
57	0xbdb5b7e8	-0.08872968
58	0xbdda86a2	-0.106702104
59	0xbde29654	-0.11063829
60	0x3da9db16	0.082937405
61	0xbd0d03d0	-0.034427464
62	0x3c9e4c28	0.019323424
63	0xbd90cfbe	-0.07070874

GCN_Layers.0.W2.weight f4 [64, 64]
0	0xbd7bf678	-0.061514348
1	0x3de431ac	0.11142287
2	0x3df4c7da	0.11952181
3	0x3cd8dfb8	0.026473865
4	0x3dd0abfc	0.101890534
5	0xbd84009c	-0.06445429
6	0x3da9220c	0.08258447
7	0xbde772d2	-0.11301197
8	0x3ba9e380	0.005184591
9	0xbda889e0	-0.082294226
10	0x3dc84fca	0.097808436
11	0xbda5f31a	-0.081030086
12	0x3d7aa68c	0.061193988
13	0x3dee6e62	0.116421476
14	0xbddcc592	-0.10779871
15	0xbd1abcd8	-0.03777775
16	0x3d06c1b0	0.03289956
17	0xbdae83a0	-0.08521199
18	0xbdbf8db0	-0.093531966
19	0x3dede5f4	0.11616126
20	0x3de475de	0.11155294
21	0x3da750b6	0.08169691
22	0x3d1664d0	0.036717236
23	0xbdef3a94	-0.11681095
24	0xbdcc5216	-0.09976594
25	0x3d371a70	0.044702947
26	0xbdf80a0a	-0.1211129
27	0x3da04994	0.07826534
28	0x3d8f4066	0.06994705
29	0xbd1ebc74	-0.03875394
30	0x3df92914	0.12166038
31	0xbd74372c	-0.05962293
32	0x3dedb064	0.116059095
33	0xbd86a6b6	-0.06574766
34	0x3dfd4084	0.12365821
35	0x3c9c9618	0.019114539
36	0x3c868548	0.016420975
37	0x3df94b54	0.12172571
38	0x3a12e700	0.00056038797
39	0x3d86c0b6	0.065797254
40	0xbb9757e0	-0.00461863
41	0xbb387980	-0.0028148592
42	0xbd67ee5c	-0.0566238
43	0xbc9b82a8	-0.0189832
44	0xbd804b8a	-0.06264408
45	0x3b8dbde0	0.0043256134
46	0xbc8a88a0	-0.016910851
47	0x3d2a74c8	0.041615278
48	0xbc19cba0	-0.009386927
49	0xbd93f216	-0.072239086
50	0x3db2e2a6	0.08734636
51	0xbcab7338	-0.020928964
52	0xbd87c8d0	-0.06630099
53	0xbd7d443c	-0.06183265
54	0x3d988254	0.07446733
55	0x3dcaef46	0.09908919
56	0x3ce6a9f8	0.02815722
57	0xbdba1674	-0.09086314
58	0x3d8492a2	0.064732805
59	0xbd48ae1c	-0.04899417
60	0x3df8ba9e	0.121449694
61	0x3d569654	0.052389458
62	0x3dfa3fda	0.1221921
63	0x3d7fe7d0	0.062476933
64	0xbd0e2130	-0.03469962
65	0x3d6f2468	0.05838433
66	0x3df0a9a0	0.117511034
67	0x3d04428c	0.032290027
68	0xbcdc5110	-0.026894122
69	0xbca55870	-0.020183772
70	0xbd82c2e4	-0.06384829
71	0xbd8f55a2	-0.06998755
72	0xbdc35e82	-0.0953951
73	0xbc38b700	-0.011274099
74	0x3c8c2778	0.017108664
75	0x3d34e640	0.044164896
76	0x3db27ffc	0.08715817
77	0x3c486ee0	0.012233466
78	0x3d68c104	0.0568247
79	0x3dc4213e	0.09576653
80	0xbd94c85a	-0.072647765
81	0x3d94f8de	0.0727403
82	0xbcb01728	-0.021495417
83	0x3cf8fbd8	0.030393526
84	0x3d3320f0	0.043732584
85	0xbd8db48c	-0.06919202
86	0x3d25a73c	0.04044269
87	0xbd5d9f28	-0.05410686
88	0x3c3e7ac0	0.011625946
89	0xbd540e4c	-0.051771447
90	0xbd3a2af8	-0.045451134
91	0xbd3d9b6c	-0.0462908
92	0x3dcfe152	0.10150398
93	0xbc03ecb0	-0.008052036
94	0xbc0c6790	-0.008569613
95	0x3d7f4484	0.0623212
96	0x3d211170	0.03932327
97	0xbde90682	-0.113781944
98	0xbdf9d26c	-0.12198338
99	0xbc40be40	-0.011764109
100	0xbb5a80c0	-0.00333409
101	0x3d104198	0.035218805
102	0x3c0947d0	0.008378938
103	0x3d183a00	0.037164688
104	0x3d95ab56	0.0730807
105	0x3dc91fee	0.09820543
106	0x3dc41cde	0.095758185
107	0x3d878c9e	0.066186175
108	0x3de9feda	0.11425562
109	0xbdf5806c	-0.11987385
110	0xbbd0a840	-0.006367713
111	0x3ddb6556	0.10712688
112	0xbd14b898	-0.036308855
113	0xbcea4da8	-0.028601483
114	0xbd8dd460	-0.06925273
115	0xbcb5ad18	-0.022177264
116	0x3d16ce60	0.03681791
117	0x3da18428	0.07886535
118	0x3c52c810	0.012865081
119	0x3bbef400	0.005827427
120	0xbd551fbc	-0.052032217
121	0x3dda9918	0.106737316
122	0xbd842bae	-0.06453644
123	0x3b8bec20	0.0042700917
124	0xbcdbfed0	-0.026854903
125	0xbdb6bb30	-0.08922422
126	0xbcccbb20	-0.024991572
127	0x3ce1d260	0.027566135
128	0x3d7f6340	0.06235051
129	0x3def1ad6	0.116750404
130	0x3d5b4250	0.053530037
131	0xbdaac980	-0.08339214
132	0x3ba1d6a0	0.0049389154
133	0xbd289098	-0.04115352
134	0xbd944cf0	-0.07241237
135	0x3b014fc0	0.0019731373
136	0x3dcc328e	0.0997058
137	0x3c1cf870	0.0095807165
138	0xbdf98316	-0.12183206
139	0xbddc1150	-0.107454896
140	0xbd1cc4ac	-0.0382735
141	0x3d1eb594	0.038747385
142	0x3de54168	0.11194116
143	0xbc33a550	-0.010964707
144	0x3deeac42	0.11653949
145	0x3c767090	0.015041485
146	0x3d957ef2	0.072996035
147	0x3db7f576	0.08982365
148	0x3cfc52a8	0.030801132
149	0xbdf2b31a	-0.11850567
150	0xbd14c7fc	-0.036323532
151	0x3dcdb608	0.10044485
152	0xbd3dae38	-0.046308726
153	0xbd16ade0	-0.036786914
154	0x3db97598	0.09055632
155	0x3d561d50	0.05227405
156	0x3d7a2b40	0.061076403
157	0xbd2f1478	-0.04274413
158	0xbd8cc6ea	-0.06873877
159	0x3a622500	0.0008626729
160	0x3db3c952	0.08778633
161	0xbd4a8ba4	-0.049449578
162	0xbd179040	-0.037002802
163	0xbdc5a22c	-0.096500725
164	0xbb1810c0	-0.0023203343
165	0x3d97f822	0.074203745
166	0x3da5a066	0.08087234
167	0xbdd904f4	-0.10596648
168	0x3cdf61a0	0.02726823
169	0x3d10f504	0.035389915
170	0xbc91a848	-0.017780438
171	0x3cef6cf0	0.02922675
172	0xbdb49b64	-0.08818701
173	0xbc1731d0	-0.009228185
174	0x3d33236c	0.043734953
175	0x3d16ea20	0.036844373
176	0xbdac6646	-0.084179446
177	0xbd391af4	-0.04519172
178	0x3d80186c	0.06254658
179	0x3d3b97b0	0.045798957
180	0x3d31b5ec	0.043386385
181	0xbc968538	-0.01837407
182	0x3df133a0	0.11777425
183	0x3cfa2220	0.03053385
184	0x3d55bafc	0.052180275
185	0xbd17ffd4	-0.03710921
186	0x3df61f30	0.12017667
187	0x3d74a470	0.059727132
188	0xbdc3696a	-0.095415905
189	0x3dbe7594	0.0929977
190	0x3de28f8e	0.11062537
191	0xbd4493e4	-0.047992602
192	0xbd21445c	-0.039371833
193	0xbc468a00	-0.012117863
194	0x3ddc169e	0.107465014
195	0x3dd19576	0.102335855
196	0xbcc2df48	-0.02378811
197	0x3db79c62	0.089653745
198	0x3def7a46	0.11693244
199	0xbcd40928	-0.025883272
200	0x3cae8370	0.021302909
201	0xbd9c3f10	-0.07629216
202	0xbddc1344	-0.10745862
203	0x3d9ee006	0.07757573
204	0xbc138310	-0.009003416
205	0x3daaea2c	0.08345446
206	0x3df5533a	0.11978765
207	0x3dfba8c4	0.12288049
208	0x3d1b6174	0.037934735
209	0xbd478150	-0.048707306
210	0x396f6800	0.00022831559
211	0xbdefec94	-0.117150456
212	0x3df97238	0.121799886
213	0x3d13a2fc	0.036044106
214	0xbd8d53bc	-0.06900737
215	0xbdd13c3c	-0.10216567
216	0x3df8f510	0.12156117
217	0xbd04cb10	-0.032420218
218	0xbac77780	-0.0015218109
219	0xbd90c81a	-0.07069416
220	0xbdeb93c0	-0.115027905
221	0x3c86f2f0	0.016473264
222	0x3d5a9c10	0.05337149
223	0xbdc96be2	-0.0983503
224	0xbd406ce8	-0.04697886
225	0xbdaa2f4e	-0.08309804
226	0x3cd79a50	0.0263187
227	0xbd1ce0e4	-0.03830041
228	0xbbd657c0	-0.0065412223
229	0xbd62c1d4	-0.05536063
230	0x3d51c9d8	0.051217884
231	0xbd895dae	-0.06707321
232	0xbd8e33b0	-0.06943452
233	0x3d9fc56e	0.078013286
234	0x3da5e2d6	0.08099906
235	0x3d55fa68	0.05224076
236	0xbc0f77c0	-0.008756578
237	0x3d040694	0.032232836
238	0x3df897ae	0.121383056
239	0xbdbc7a58	-0.09203023
240	0xbcd94658	-0.0265228
241	0x3ced31e0	0.028954446
242	0xbda70ad0	-0.08156359
243	0xbde4cbd6	-0.11171691
244	0x3d249c18	0.040187925
245	0xbbed77c0	-0.0072469413
246	0xbd8dac70	-0.069176555
247	0x3d1142bc	0.035464033
248	0xbdd418ce	-0.103562936
249	0xbdab5862	-0.08366467
250	0xbda6569e	-0.0812199
251	0x3d7f16ac	0.06227748
252	0xbca61960	-0.020275772
253	0x3df276a0	0.11839032
254	0xbdf34894	-0.118790776
255	0xbdf7ee6c	-0.12106022

GCN_Layers.0.W2.bias f4 [64]
0	0xbda25afa	-0.07927509
1	0xbd1c7a30	-0.038202465
2	0xbddbfdda	-0.10741778
3	0x3d9b4a80	0.07582569
4	0xbcd9d590	-0.026591092
5	0x3c6acb70	0.01433073
6	0xbde96ecc	-0.11398086
7	0xbcdf9f98	-0.02729778
8	0xbce0bfc8	-0.027435198
9	0xbb67d240	-0.0035373122
10	0xbdf10a32	-0.11769523
11	0xbdd79de8	-0.10528165
12	0x3daf9f9e	0.085753664
13	0x3ca92ca8	0.020651177
14	0xbc2a1f20	-0.010383397
15	0x3b3f7bc0	0.0029218048
16	0xbd60213c	-0.054719195
17	0xbdb1b53c	-0.08677146
18	0xbd3cb3b8	-0.04606983
19	0xbcb96538	-0.022631273
20	0x3de289e0	0.11061454
21	0xbdfc657e	-0.123240456
22	0x3dc93c92	0.09826006
23	0x3d9a5322	0.075353876
24	0x3de6a05a	0.112610534
25	0xbd5a38c8	-0.053276807
26	0x3dade536	0.08490984
27	0xbdb65b60	-0.08904147
28	0xbcd148d8	-0.02554743
29	0x3cb55298	0.02213411
30	0x3bd9b9a0	0.0066444427
31	0x3c757340	0.014981091
32	0xbd9d5032	-0.07681312
33	0x39587400	0.00020642579
34	0xbce1ad20	-0.027548373
35	0x3c1fa790	0.00974454
36	0xbdb0a39e	-0.086249575
37	0x3d4e5bc4	0.050380483
38	0x3dfc21f8	0.123111665
39	0xbc94cda8	-0.01816447
40	0xbdd8fd5a	-0.10595198
41	0x3b8eb820	0.0043554455
42	0xbd7cd390	-0.0617252
43	0x3dc7daf6	0.0975856
44	0x3d3ddc8c	0.046352908
45	0x3c854b58	0.016271278
46	0xbc0cecb0	-0.008601353
47	0xbc643e40	-0.013930857
48	0xbda05ed6	-0.078305885
49	0xbdbe66d4	-0.09296957
50	0x3dd3b050	0.10336363
51	0xbc9c9898	-0.019115731
52	0xbad45900	-0.001620084
53	0xbd863efc	-0.06554982
54	0x3d6bee10	0.05760008
55	0x3d725c64	0.05917014
56	0xbda3a126	-0.07989721
57	0x3ded3b6c	0.115835994
58	0x3d64bc44	0.055843607
59	0xbd7092c0	-0.0587337
60	0xbde64cb8	-0.11245102
61	0x3da7f684	0.08201316
62	0xbb000500	-0.001953423
63	0xbd8ef6d4	-0.069806725
