lab4-student/code/model/bestModelParms-12-30-17-20.pth (torch, 498345 bytes, 20 tensors)

user_id_embedding.weight f4 [900, 32]
00000000: 3ff4 e63f ab58 fcbe 47d3 83bf ca5b ce3c
00000010: 37c5 d6be b2e4 a73e 5f2e c7bf a970 69bf
00000020: 19fe f2be 69d3 e33e dc94 1c3f 97b0 a73e
00000030: f653 a63e 5c64 4d3f a80f 97bf 9241 8ebf
00000040: a58e f8bf 2212 143f 2ba4 b63d 6131 76bf
00000050: 5800 aabe 80c6 9a3e 0d41 41bf f800 c0bf
00000060: 3255 4abe 38ba 55bf 2d8d 86bf 4893 67be
00000070: e2d1 ad3e 2143 d5be 1a61 f73e e4e4 133e
00000080: 71d7 da3d 42a4 9d3f eabf afbe 06ad 833f
00000090: c2a3 d83e 7875 99bf 6dab 94be 80b7 2fbf
000000a0: 5964 113d b0b3 90be d314 873f a237 0f3b
000000b0: edb5 25be f11c 25bf 612d a13e 96cf 513f
000000c0: 7a05 82bf 81fe 123d d6a5 65bf affb a93e
000000d0: d7f6 8abf 1e42 0f3f 265b 073f e6b8 f23f
000000e0: d83b 16c0 80e8 c63f b0ee a4bf 26e0 13be
000000f0: 945c 143e cf00 f83f e277 7e3f bd16 b7bb
00000100: ae31 f2bd bd15 57bf cf7f 36bf b54f c93d
00000110: 18b6 06be e893 8d3f 21af ddbd cfc9 adbe
00000120: 6e93 bd3f a53e 0fbf 580d d5be 34b2 ef3d
00000130: c85c debf c9bf 05bf d7ac 9dbd cec9 58bf
00000140: 9746 653f d92b 0bbf aee9 d0bf a27c 683f
00000150: bafe c03d 8677 3bbf 5739 8fbf dce8 2a3f
00000160: 78d0 50bd fd68 a23f 55c4 1fbf ced2 01bf
00000170: 458d 0bbe fe30 fbba 1503 dc3e 9359 a4bf
00000180: 2450 c23f 88aa 7a3f 7720 173f 15c4 0fbd
00000190: cf11 ba3f af4a 35bf cb4d 373f e930 e1be
000001a0: 5bfe aebf 2e78 82bf 3908 943f bfe4 783f
000001b0: 89b3 8e3f 5ed7 e43e 480f 0fbf 9a1f 173f
000001c0: 8a8b aebe eb1b 5f3c ab78 1eba b2c9 8b3f
000001d0: 34e5 e13d a2b5 d2be c97c b53e eda9 34bf
000001e0: d59a 4bbf 96ed 42bd dc5d 953d 186a c63f
000001f0: 338e 243d 8f6e a7bd 4436 0d3f bc9e 8fbe
00000200: 0a45 74be 7da2 693e 8d28 44bf fd02 68bf
00000210: 8ec4 643d e6bd cc3f d4e1 be3f 5111 283f
00000220: f3c3 54bd 633d 9abf 7304 c2be 6b97 82bf
00000230: f437 b4bc d139 873f e762 803f 9865 333f
00000240: 9da2 7fbd f0f6 2d3f 34d5 d6be c899 d0be
00000250: 7cba c8be 8ece 07be ea21 6c3e 4386 493d
00000260: 8b8b 24bf a9e2 733f 283d 81bf b61d 9a3f
00000270: 686f adbe fe4a 4c3f 283f b83f 83b3 4e3f
00000280: 87b4 c5be 9875 ff3e 7804 eebf f86a bfbf
00000290: e87d 8abf 5ef5 da3e 0c7d f43f 426a 703f
000002a0: 8831 f3be 65ff a5bf 11f5 93bf d1f9 64be
000002b0: 4dd6 f0bf 47ac 0040 5fd5 8dbf 523d 45be
000002c0: 040f 543e 744c 4dbe fdca d73f 84d6 4bbf
000002d0: 97f7 16be 79c3 5c3f 44f3 54be c2de fd3c
000002e0: dadc bebf 9569 843e 372b edbf c00c f4bd
000002f0: b298 8a3e d965 11bc 56d0 953f 7654 3e3f
00000300: 9fa0 483f 5a55 a1bf f90c a23e baa9 843f
00000310: 2ca0 803f d24b d1bf c619 d5bf ca25 693f
00000320: bee8 3abf 0aca 87be 6360 8d3f 42ac 2b3d
00000330: f560 5f3f 7bd3 853f 6d3d 0fc0 b896 acbe
00000340: 0ec7 833e 508b 44c0 0c36 45bf ba1c 96bf
00000350: 7a1c 9abe 9282 c13c baeb 85bf cac3 153e
00000360: 4184 67bd ff12 613f 7707 0bbe 44bd 9abf
00000370: e67a d9bf 4d4d 353e 7bda 1f40 ff6d 55bb
00000380: 552b 663f 6be3 b0bd 4415 973d e908 1c3f
00000390: 43e1 1740 2cf4 37bf 32b9 143f e2ec 4dbe
000003a0: b04c 183e a17b 963f 6422 f7bf 11dc 28bf
000003b0: 8617 d0bd ec78 3b3f 356a a6be b1e1 b73f
000003c0: 5963 40bf e6df 62bf cd78 aebf eb6b acbe
000003d0: 4a0a ae3f b8fb 4cbf dbd7 8f3f 3f14 61be
000003e0: 2b91 a1be 4896 9f3d 2192 a0bd 9a07 f1bd
000003f0: c092 043f 2bcc 14be 2abc 3f3f 3356 dfbf
1.8043288 -0.49286398 -1.0298852 0.025190253 -0.41947338 0.32791668 -1.5561026 -0.9118753
-0.47459486 0.4449723 0.6116464 0.32751915 0.32485932 0.8023126 -1.1801653 -1.111376
-1.9418532 0.5784017 0.08918031 -0.96169096 -0.33203387 0.30229568 -0.75489885 -1.5000296
-0.19759062 -0.8348727 -1.0511833 -0.22614777 0.3394919 -0.41652778 0.4831627 0.14442784
0.106856234 1.2315753 -0.34326106 1.0287178 0.42312437 -1.1988974 -0.29037037 -0.68639374
0.03549609 -0.2826209 1.055323 0.0021853228 -0.1618268 -0.64497286 0.31479934 0.81957376
-1.0157921 0.035887245 -0.8970617 0.33199832 -1.085658 0.5596026 0.52873456 1.8962677
-2.3474026 1.5539703 -1.2885342 -0.14440975 0.14488441 1.9375247 0.99401677 -0.0055874274
-0.11825882 -0.84017545 -0.7128877 0.09829656 -0.13155401 1.1060762 -0.10824419 -0.3394303
1.4810617 -0.5595496 -0.41611743 0.117039114 -1.7372065 -0.52245766 -0.07698982 -0.8468293
0.89560837 -0.5436378 -1.6321313 0.90815175 0.09423585 -0.73229253 -1.1189374 0.66761565
-0.05098006 1.268829 -0.62408954 -0.5071229 -0.13628109 -0.0019164381 0.429711 -1.2839836
1.5180707 0.9791646 0.5903391 -0.035099108 1.4536685 -0.70817083 0.7160308 -0.43982628
-1.3671373 -1.0192926 1.1565009 0.9722404 1.114854 0.44695562 -0.5588269 0.59032595
-0.34090835 0.013617496 -0.00060452026 1.0920928 0.11030045 -0.411542 0.35446766 -0.70571786
-0.7953313 -0.04758986 0.07293293 1.5501127 0.040174674 -0.08175384 0.5516093 -0.28050792
-0.23854461 0.2281589 -0.76624376 -0.9062956 0.05585151 1.5995452 1.4912667 0.6565142
-0.051944684 -1.2049984 -0.3789402 -1.0202459 -0.021999337 1.0564519 1.0030183 0.70076895
-0.06241094 0.6795492 -0.41959536 -0.40742326 -0.39204776 -0.13262388 0.23059812 0.049200308
-0.64275426 0.9526773 -1.0096788 1.2040317 -0.3387406 0.7980193 1.4394274 0.80742663
-0.38614294 0.49894404 -1.8595114 -1.4954519 -1.0819674 0.42765325 1.9100661 0.93912137
-0.47498727 -1.2968565 -1.1559163 -0.22360922 -1.88154 2.010515 -1.1080741 -0.19261673
0.20708853 -0.20048696 1.6858822 -0.796242 -0.14742886 0.8623577 -0.20795923 0.030990008
-1.4911149 0.25861803 -1.8528813 -0.11916494 0.27069622 -0.00887438 1.1704204 0.7434763
0.7837009 -1.2604172 0.31650522 1.0364296 1.004888 -1.6351264 -1.664849 0.91073287
-0.73011386 -0.2652133 1.104504 0.041912325 0.8725732 1.0455164 -2.2381241 -0.3370874
0.25737804 -3.071003 -0.77035594 -1.1727517 -0.3009985 0.023621831 -1.0462563 0.14625469
-0.05652261 0.8791961 -0.13577066 -1.2089009 -1.6990631 0.17705269 2.49771 -0.0032566783
0.8990987 -0.086371265 0.07377103 0.60951096 2.373124 -0.7185695 0.58095086 -0.20109895
0.14873004 1.1756479 -1.930737 -0.65960795 -0.10160737 0.7323139 -0.32502905 1.436575
-0.7515159 -0.8862289 -1.3630615 -0.33676085 1.359689 -0.8007159 1.1237749 -0.2198038
-0.31556067 0.07792336 -0.07840372 -0.11769028 0.5178642 -0.14531009 0.7489649 -1.7448181

user_age_embedding.weight f4 [5, 4]
00000000: b85d 213f bdaf 153f 4953 e9bf b0cb ab3f
00000010: f2f2 273f 1014 eebf 18ec 1bbf c13e 003f
00000020: b709 bc3e f398 fbbe 7060 193e 70c9 1ebf
00000030: 7377 bd3f 95eb 223f 09ed 823f dbca ea3e
00000040: 117d d3bd 50c5 013f 8cec a53f 18bb d1bf
0.6303363 0.5847128 -1.8228542 1.3421535 0.6560508 -1.8599873 -0.60907125 0.50095755
0.36726162 -0.49140128 0.14978194 -0.6202612 1.4802078 0.6364072 1.0228587 0.4585789
-0.10326589 0.506917 1.2962813 -1.6385221

user_gender_embedding.weight f4 [2, 2]
00000000: c85f 653d 77e9 9d3e 9e8f d5bf 6a54 d73e
0.055999547 0.30842182 -1.6684453 0.4205659

user_occupation_embedding.weight f4 [21, 8]
00000000: bc10 4f3e ce8b 9b3f a568 83bf 8270 553e
00000010: ae5e 5e3f 96f1 fe3e 1d2a 0440 86b5 983f
00000020: 60c2 5bbd fa76 cdbf c900 6b3f 89a0 14bf
00000030: 6fde b8bf 2390 233f 47b3 00bf 88d7 0abf
00000040: 50b1 8b3f 5297 6bbf 430b b33f 7617 c83e
00000050: 53df 843f 8141 86bf 9ec1 fabe a335 423f
00000060: 88da 1d40 a7cc 043e 774f ffbf 70b5 0f40
00000070: ad4e 543e 5b52 f2bd 1caa 6cbf 8279 6cbf
00000080: cd5b 323f f620 a4bf fc18 67bf 22b0 f23e
00000090: 6fab 2a3f 698a a1bf 2e7e 1d3f c6ba a5bf
000000a0: 8aba bbbf cae7 e1be ca4f 8a3d 7112 3ebe
000000b0: 1a9d 9ebe 4e18 b6bf fd82 363f bb1e c7be
000000c0: b52d e43e 0a61 23c0 8995 393f b53d 0e3f
000000d0: 271b 53bf 0837 6c3f b2ab b73d 9c0c 533f
000000e0: 01e4 3d3e 2f71 413f 079f 5cbf 6d73 8f3f
000000f0: 8edc b6be 094b 823e 3974 463f e869 433f
00000100: b447 e8bd 47be 85bf 4463 303f c2fa ed3d
00000110: ff1b fdbe 04fd a6bf b36e 8a3f ee4a d4be
00000120: cd78 8b3f 9776 e3be 9593 7f3e 7356 5ebf
00000130: 9d3f 1cbf 22b2 d6be d9ff ab3f ae41 463f
00000140: 0952 f6bc c226 44bf a45e cc3e 15ed 19bf
00000150: 136f 603f c34f 2dbf 9997 87bf d4bd 6abf
00000160: 44e2 1ebf 5e4f 75bd 02b2 503f f358 17be
00000170: ff05 c43f 8b1d 67bd 1bfe 55bf 64f6 073f
00000180: 2fd7 ff3f 2a96 e23f 1726 973f b0b0 9bbf
00000190: 82e1 68bf 4276 b7bd f94a e7ba 1c2f 79bf
000001a0: f2e7 aa3e 86a0 91bf 9941 4f3f 8cde 60be
000001b0: 5a67 2f3f 4e58 ac3f d5ae 3c3e ce10 353f
000001c0: 632b 903e 3975 a93f 2e5d 443f 1489 62be
000001d0: 6be1 03bf 54ac 8bbf ce6c 063e 9eb8 9cbe
000001e0: e114 713f 0a68 943f 325c 74be b977 0cbf
000001f0: 8516 46be 1a21 0440 4755 533f c266 6bbe
00000200: 12ab 573e 30d4 2abd f51a 6ebf a2dd 12bf
00000210: 2e11 45bf 0418 4c3c 3748 87bc 84b4 243f
00000220: b85c 973f 8631 b43e 4e23 f7bf 9d2b 2bbf
00000230: 3946 c73f 2047 5bbf 90bf cf3f 5c70 303e
00000240: 7f16 643d 5318 45be d117 bd3f fef6 dabd
00000250: 431e 173e d312 bebf 7891 e5be 47a7 03bf
00000260: ddb1 a83f 9a6c 843f e898 34c0 1b56 89bf
00000270: a828 1ebf dc2d 76bf 5595 803f 7cb3 f33e
00000280: f887 85be 5775 bbbf 5f59 253f a4ed 66bf
00000290: 9546 48bf 552d 44bf e252 b8be 1413 633f
0.20221227 1.215204 -1.026631 0.208437 0.8686322 0.4979369 2.0650704 1.1930397
-0.053652167 -1.6051934 0.91798073 -0.5805746 -1.4442881 0.6389181 -0.50273556 -0.54235125
1.0913486 -0.9202777 1.3987812 0.390804 1.0380653 -1.048874 -0.48975843 0.75863093
2.466463 0.12968694 -1.9946126 2.245449 0.20733137 -0.11832114 -0.92447066 -0.92372906
0.69671327 -1.2822559 -0.902725 0.47400004 0.66667837 -1.2620364 0.6152066 -1.2947624
-1.4666302 -0.44122154 0.067535 -0.18561722 -0.30979234 -1.4226167 0.7129362 -0.38890633
0.44566122 -2.5527978 0.724938 0.5556291 -0.82463306 0.9227147 0.08968295 0.82441115
0.18544008 0.7556333 -0.86180156 1.12071 -0.35715145 0.25447872 0.7752109 0.76333475
-0.11341801 -1.0448693 0.6890147 0.11620094 -0.49435422 -1.3045964 1.0815033 -0.41463417
1.089624 -0.44426414 0.24958642 -0.8685066 -0.61034566 -0.4193278 1.3437454 0.7744397
-0.030068414 -0.7662164 0.39915955 -0.60127383 0.87669486 -0.6769983 -1.0593139 -0.91695905
-0.62064004 -0.059890144 0.8152162 -0.14780025 1.531433 -0.05642466 -0.8359086 0.5311034
1.9987544 1.7702076 1.1808499 -1.2163296 -0.909691 -0.08958103 -0.0017646245 -0.9733751
0.33380085 -1.1377113 0.8095947 -0.21959895 0.68517077 1.3464448 0.18426068 0.70728767
0.281581 1.3238899 0.7670468 -0.22122604 -0.51515836 -1.0911965 0.13127443 -0.30609602
0.94172484 1.159425 -0.23863295 -0.5487018 -0.19344528 2.0645204 0.82552 -0.22988418
0.21061352 -0.041706264 -0.93009883 -0.57369435 -0.7697934 0.012456898 -0.016513927 0.64337945
1.182517 0.35194033 -1.9307649 -0.66863424 1.5568305 -0.85655403 1.6230335 0.17230362
0.055685516 -0.1924756 1.4772893 -0.10691641 0.14757638 -1.4849495 -0.44837546 -0.5142712
1.317928 1.0345643 -2.8218327 -1.0729402 -0.61780787 -0.96163726 1.0045573 0.47597873
-0.26080298 -1.4645184 0.64589494 -0.9020636 -0.782327 -0.7663167 -0.36000735 0.88700986

user_location_embedding.weight f4 [760, 18]
00000000: 396e c33e cc03 b7be 1a25 0fbf 1c4a 79bf
00000010: 4837 8c3f fc57 873f 9e6d 253f fdc0 963f
00000020: d667 6cbf 871c 6b3b 45d5 2dbf 4daf 393f
00000030: e2a0 20bf c013 83bf 0c2a e53e 6321 55bd
00000040: 03ca cb3f b48b cbbe 452f 58bb d03e 05bf
00000050: bc3d cebd b117 023f 6b30 9dbd a312 eb3d
00000060: de3d 153e df76 103f c78e 2f3e c6c3 95bf
00000070: 4eba 953f 81bc 793f 0bf0 603f 1f24 8bbf
00000080: 804e 453f a64c 87bd 5e7f a63c 5b18 9d3e
00000090: 7ef6 43be d5bb 6e3f f34f 4abf 95d0 49bf
000000a0: 5893 95bf d078 2fbf 82df eebd 34f5 5c3f
000000b0: 5ec6 52be b7f2 d53f 2e40 10be 60e1 c93f
000000c0: f41d 6e3f 8660 3bbd 521e 083e 9550 5e40
000000d0: 2881 0dbf f7c1 183f 5db7 54bf 860f f03e
000000e0: b3aa aa3d 6961 afbe f636 e6bf 9e57 cebf
000000f0: d08c e93f b27f 473f 3286 43bf a4cf ac3f
00000100: 4dd9 523f 388c e73f 6db2 a3bf 9c73 533f
00000110: 53ff 81bf 918a 2c3e 100c 8e3e ef4f debd
00000120: 17ee f5be 7116 b7be 62cd 1ebf e0e7 4a3d
00000130: ac80 86bf 044f 583f 7168 4dbf 97dd dabf
00000140: 28e7 61be f9af 503e 2826 c8bf c08a ba3f
00000150: 409a 9fbf a643 06c0 4e3e 81bf 2ccc 313f
00000160: 34d4 443e 6f50 0d3f a5c0 3d3e 2134 733f
00000170: edab 0ebf 62c2 42bf 9133 c23c 78eb 2abf
00000180: 29ae 073c 9dec 56bf b124 a43f 5a3d 923e
00000190: 551d e3bd e6fd ba3f f171 90bd 4ebd 193f
000001a0: 9f8c 04bf b0f1 5ebe d0d0 253f 3684 6f3f
000001b0: dc68 b1bf 9316 8dbf cfd8 bbbf 0bb7 8cbc
000001c0: 0137 1d40 6235 3ebf ae3b cfbc 484a 713f
000001d0: c01c 1abf 53ca 913e 06d3 aabf 8e43 09be
000001e0: 20c8 1dbf 9400 31bf 5d7c de3e 1908 69be
000001f0: d1e0 bebd 3ab3 38be 1912 2340 0b9e fb3e
00000200: 1730 36c0 4a03 0dbe c985 a8bc 0231 1ebf
00000210: 255c 343e 4e17 293e 8880 1b40 a232 9c3c
00000220: 8b32 8f3d a43f febe c3ec d9bf bb8b 4d3e
00000230: 89e3 463f dcc7 553d 0904 e1be f23d f1bf
00000240: 21d0 93be a91d 71bf aa47 18bf c9cf a1bf
00000250: 5480 43bf aef7 ba3f 8fc4 2fbf d9dd b6be
00000260: 49dd 253d 0ff4 c73e 988f 803f cb64 9a3f
00000270: 6f85 20bf 3b1c b9be 8988 0f3d 3324 16bf
00000280: 5f5f a33d 8b50 0f3e 4f73 22bf 7c9d 303e
00000290: 1a67 efbc 4d11 3ebe 6360 8d3f 4814 153f
000002a0: c1ba a8bf 8630 7a3d b93b 883f 0ecd 0640
000002b0: 1324 523d e62b a33e b50f 923e 0059 13bf
000002c0: f3fc 2bbd bdc1 c33c def1 a6bf 3588 ca3d
000002d0: c035 8f3d c69f 963f 512b a4bf 712f 8a3f
000002e0: 674d c93f da0e 593f 645c babe fc78 0940
000002f0: 02ea b9bf ca62 c03f 6637 9e3f 355d 0dbe
00000300: 4baf c4be 32ee 0e3e ede5 61bf bdfa 8f3f
00000310: 762e 36be 0a9a 13c0 82ff a5be 9e1f bebf
00000320: b2fe 4b3f f183 493f e935 2cbf 729f 243f
00000330: 216c f5be 7b30 0b3f 2c1d 743f 993d 27bf
00000340: 350a abbe f21d 9bbf e91b ab3f e92f 14bf
00000350: 7c44 b53f b6f0 d93f ced7 81bf b064 d93f
00000360: e34e 0dbf a371 ddbf 6266 81bf b900 3e3f
00000370: fc4d 1e40 f4af 3b40 af6e 97bf 65bb 673f
00000380: b4f7 38bf 2673 2dbe 2b9c d13d 7806 0dbf
00000390: a32c 47bf 64c3 2abe fce4 3dbf 1e61 a1bf
000003a0: 29e2 81bd 2b47 6bbf 46b3 5a3e 997d 8cbf
000003b0: 1dfb 1e3f 6d4f ab3e 0865 8fbe 5293 37be
000003c0: c31f bb3e 4c86 223f 19b6 833f 6b9d 4a40
000003d0: 8509 cdbf cf8a ebbf f623 27bf 0e7b 0a3d
000003e0: 8706 10bf 02b9 4cbf 96b2 943f 059c 00bf
000003f0: 685c a8bf cdac 0140 f896 a3be 3e86 0bbf
0.3817003 -0.35745084 -0.5591599 -0.97378707 1.095437 1.0573726 0.6462039 1.1777645
-0.9234594 0.0035875158 -0.6790355 0.7253311 -0.6274549 -1.0240402 0.44758642 -0.052033793
1.5921024 -0.39755023 -0.003298716 -0.5204897 -0.10070369 0.508174 -0.076752506 0.11478164
0.14574382 0.5643138 0.17144309 -1.170037 1.1697481 0.9755326 0.87866277 -1.0870398
0.77072906 -0.066064164 0.020324405 0.30682644 -0.19136998 0.9325536 -0.7902824 -0.78833896
-1.1685591 -0.6854372 -0.116637245 0.8631165 -0.20583484 1.6714696 -0.14086983 1.5771904
0.93014455 -0.04574635 0.13292816 3.4736683 -0.552752 0.59670967 -0.8309229 0.46886843
0.083333395 -0.34254006 -1.7985523 -1.6120489 1.8246098 0.7792922 -0.7637664 1.3500867
0.82362825 1.8089666 -1.2788826 0.8259828 -1.0156044 0.16849734 0.27743578 -0.1085509
-0.4803321 -0.3575931 -0.6203214 0.04953754 -1.0508018 0.8449557 -0.8023749 -1.7098874
-0.22060835 0.20379628 -1.5636644 1.4573593 -1.2468948 -2.097879 -1.0097139 0.69452167
0.19221574 0.55200857 0.1853052 0.9500142 -0.5573109 -0.76077855 0.02370623 -0.66765547
0.008281269 -0.83954793 1.2823697 0.28562433 -0.11089579 1.4608734 -0.070529826 0.6005448
-0.5177707 -0.21771884 0.6477175 0.9356111 -1.3860126 -1.1022514 -1.467554 -0.017177125
2.4564822 -0.74300206 -0.025297012 0.9425397 -0.6020012 0.28474674 -1.3345649 -0.13404676
-0.6163349 -0.6914151 0.43454257 -0.22756995 -0.09320224 -0.1803712 2.5479796 0.49144015
-2.8466852 -0.13770786 -0.020571606 -0.6179353 0.17613275 0.16512796 2.42972 0.019067112
0.06992062 -0.4965793 -1.7025379 0.20072834 0.7769094 0.052192554 -0.4394839 -1.8847029
-0.28869727 -0.9418588 -0.5948435 -1.2641536 -0.7636769 1.4606836 -0.686593 -0.3571613
0.040494237 0.3905339 1.0043821 1.206201 -0.62703604 -0.3615435 0.03504232 -0.58648986
0.07977175 0.13995568 -0.63457197 0.17247576 -0.029223967 -0.18561287 1.104504 0.5823407
-1.3181993 0.06108143 1.0643226 2.1062655 0.051303934 0.3186943 0.2852761 -0.5755768
-0.041989278 0.023896093 -1.3042562 0.09889261 0.06992674 1.1767509 -1.2825719 1.0795728
1.5726746 0.84788287 -0.36398613 2.1480093 -1.4524539 1.5030148 1.2360656 -0.13805087
-0.38414988 0.13958052 -0.88241464 1.1248394 -0.17791161 -2.3062768 -0.324215 -1.4853399
0.7968551 0.7871695 -0.6726976 0.64305794 -0.47934058 0.5437085 0.9535701 -0.65328366
-0.33406225 -1.2118514 1.3367893 -0.57885605 1.4161525 1.7026584 -1.0143983 1.6983852
-0.55198497 -1.7300304 -1.010937 0.7421985 2.4735098 2.9326143 -1.1830653 0.90520316
-0.72252965 -0.16938457 0.10234865 -0.55087996 -0.77802485 -0.16676098 -0.7417753 -1.2607763
-0.06341965 -0.9190547 0.2135745 -1.0975829 0.6210192 0.33459035 -0.28006768 -0.17927292
0.3654767 0.6348617 1.0289947 3.165858 -1.601853 -1.8401736 -0.6528925 0.03380876
-0.5625996 -0.799698 1.1617 -0.50238067 -1.31532 2.026172 -0.31951118 -0.5450171

item_id_embedding.weight f4 [1600, 32]
00000000: 188a 173f e314 54be 870f bc3e 35bd 10bf
00000010: ce54 9a3f b124 0ac0 13e0 853f 4bc6 6f3d
00000020: 575c 263e 3e10 7f3f ae18 2f3e 0a75 073f
00000030: d26a 1d3f a164 37bd a795 68bf 9a5d 923e
00000040: f02e a43e 2fd0 8f3f cb4d 8bbf 3501 b53f
00000050: fe60 b7be 2f55 d33f 307b 6cbf 632b a53f
00000060: 647f 6ebe c224 0c3f 692a 50be d288 0b3f
00000070: 03ee 3bbf 7ac5 e0be d8ec 3a3f d561 0b3f
00000080: b128 a5bc 25e5 a1bf 5629 95be 198c 493f
00000090: 5ca4 f33e c5f0 33be d66e 2ebf 6737 583f
000000a0: 3180 8bbe 69d1 4b3f c85d c9bf ce66 d13c
000000b0: b09d 48bc 24fa 0f3e 420e 0abf 74b1 c0be
000000c0: 316e 4abe df4d a0bd b036 62bf 81a5 0fbf
000000d0: 20be 7f3f af32 9ebd 66f4 b6bf e341 8c3f
000000e0: 9b85 b9bd 83c9 693f 294a b13f 3f9e 633d
000000f0: 6760 443f bdda 353f 102c a9bc 5dd6 a7bd
00000100: eb2c d8be 0a82 19bf 5b00 adbe 158c e33e
00000110: 93b4 463f 7409 383e fdb6 81bd 7ea3 0fbf
00000120: 0c2d a83f 54ea 94bf cab7 e5be 2c28 103f
00000130: bea9 1cbf 74bb 0abe 6ded 67bd 318a 713c
00000140: 747a 49be 8920 01bf 5cce 82bf a7c0 49bf
00000150: a080 4c3f 8988 8cbf 9c19 b63f 9906 00bc
00000160: 0e8d d4be 1db9 d73f 734f c53e b75d e4bd
00000170: 0a18 18bf 7d73 eb3f 51c3 f23f 4541 84bd
00000180: 6424 0940 f4cc 96be c122 ecbf 37fd bbbe
00000190: 0956 ff3e b230 1a3f 8872 e3be 86fb b53e
000001a0: 792c a93f 3610 3abf 2c60 4abf f721 b83f
000001b0: dbea a5bf 69aa a8bd 60bb 7cbd 5183 b5be
000001c0: 6bd2 713f d8b5 143e bc6f ccbe b1b6 e33f
000001d0: 95dc eebe f97f c9be 7e5d 50bf f260 7e3f
000001e0: 1676 b03f b318 513e 50be 4e3f ef37 c73f
000001f0: da23 7bbc f45f abbe b87f 7dbf cf3a 623f
00000200: 0568 9d3d 548a 99bf be26 e2be 60eb bdbe
00000210: 9b24 81bf 7c0c e73f 01b1 623e a35c d53e
00000220: b2d6 b1bd c6c0 d3bf 9602 a9bf 4fdc edbd
00000230: 5fdd 493e 43a7 1cbf f06d e1be a225 d83e
00000240: 0998 1c40 d50c 473c 1d2b e23e b769 023f
00000250: ea29 cbbd d2f3 e5bf a9ff 883f 5df7 6c3e
00000260: 249c 633c 7571 e5be 3d62 58be e56d 043f
00000270: 7f7e 6c3f e753 2bbf 2ade 4dbd d57d a13e
00000280: 1148 613f cfad 0c3e 292f 393e f3d7 8fbf
00000290: 5bfe af3f 5557 d9bd 58aa 2f3d 553d 25bc
000002a0: d0af 11bd a77d 7b3e 96b1 74bd a00a 6a3b
000002b0: 4efc ebbe 08d5 1140 febf e6be 6f61 963f
000002c0: 3908 3a3f a286 8c3e e32b c53f 4a72 6d3f
000002d0: b654 da3f c178 803f a8bb 9cbf c6c5 ccbe
000002e0: 9677 04bf 57c5 47bf 0d72 64bf af1d a8bf
000002f0: 0768 1d3f c716 403e 0adb a5be 5153 39bf
00000300: 6b71 4bbf 167a 803d 6ce7 cbbf 2a13 1e3c
00000310: 5e32 893e f47d 0d3f 0b2b 5d3f eb53 35be
00000320: 259b fe3f 2c8b 083e 3a9f 0abf 7a75 9e3e
00000330: 0691 553f ac04 18be eae1 45c0 102b 3ebf
00000340: b512 b43e 0d72 fe3d 3c65 dc3f 8a5e fd3f
00000350: 226c b8be c295 cbbf 1c65 c2bf 3eef 73be
00000360: ccdc 843f e25a bdbf b8fd fd3f a40e 88bf
00000370: a4f9 45bc 2007 70bf f5a1 033f 9e5c 1a3e
00000380: 8542 8dbf aea4 f33f ece9 00bf 1634 d3bf
00000390: 676d 1bbf b85f 49bd 4ae0 0a3e ae21 0bbf
000003a0: c0f9 28bd 614a 55be 67ea 73bf 43f5 303f
000003b0: 7b12 d73e 6d3d 78bf 1f06 2dbe 5306 ff3e
000003c0: b480 c73e ac4a d43f c719 7ebc 00aa 46bf
000003d0: 1e0d 07c0 8358 9fbd 9b64 b1be 839b 0a40
000003e0: e0bc 1cbe 4f8a 1dbf 341c 613f f457 d3be
000003f0: 244b 78bf 747a 39bf f690 8c3d 584e 673f
0.5919509 -0.20711093 0.36730596 -0.56538707 1.205713 -2.1584895 1.0459007 0.058538716
0.16246162 0.9963416 0.17099258 0.5291296 0.6149112 -0.0447737 -0.9085335 0.28587037
0.3206706 1.1235408 -1.0883116 1.4140993 -0.35816187 1.6510371 -0.9237547 1.2903866
-0.23290783 0.5474359 -0.20328678 0.54505646 -0.7341005 -0.43900663 0.73017645 0.54446155
-0.020161005 -1.2648054 -0.291331 0.787294 0.47586334 -0.17572315 -0.6813787 0.8445954
-0.2724624 0.7961641 -1.5731745 0.025561716 -0.012244627 0.14060265 -0.53928006 -0.37635386
-0.19768597 -0.07827353 -0.88364697 -0.56111914 0.9989948 -0.07724511 -1.4293334 1.0957607
-0.09058686 0.9132311 1.3850757 0.055570837 0.767096 0.71036893 -0.020650893 -0.081951834
-0.4222177 -0.5996405 -0.33789334 0.44442812 0.77619284 0.17972356 -0.0633373 -0.56108844
1.3138747 -1.1634011 -0.44866782 0.563113 -0.61196506 -0.1354807 -0.05662291 0.01474242
-0.19675618 -0.5044027 -1.0219226 -0.7880959 0.79883766 -1.0979167 1.4226565 -0.007814073
-0.41513866 1.6853367 0.38537177 -0.11150687 -0.5941168 1.8394619 1.8965856 -0.06457762
2.142846 -0.29453242 -1.8448106 -0.36716625 0.49870327 0.60230553 -0.44423318 0.3554346
1.3216697 -0.72680986 -0.79052997 1.4385365 -1.2962297 -0.08235628 -0.061702132 -0.3545175
0.944617 0.14522493 -0.39928997 1.7790128 -0.46652666 -0.39355448 -0.8139266 0.99366677
1.3786037 0.20419578 0.80759144 1.5563945 -0.015328372 -0.33471644 -0.9902301 0.88370985
0.07685856 -1.1995339 -0.44170183 -0.3709364 -1.0089296 1.8050685 0.22137834 0.4167224
-0.08683528 -1.6543205 -1.3203914 -0.11614286 0.19713353 -0.6119272 -0.44029188 0.42216212
2.4467795 0.0121490555 0.44173518 0.5094256 -0.09920104 -1.7965033 1.0703021 0.23141237
0.013892207 -0.44813123 -0.21131225 0.51730186 0.9238052 -0.669249 -0.0502607 0.31541315
0.8800059 0.13738178 0.18084396 -1.1237777 1.3749498 -0.106123604 0.04288706 -0.0100854235
-0.03556806 0.24559651 -0.05973967 0.00357119 -0.4609093 2.2786274 -0.45068353 1.1748484
0.72668797 0.27446467 1.5404018 0.92752516 1.7057102 1.0036851 -1.2244768 -0.3999464
-0.51744974 -0.7803549 -0.8923653 -1.3134059 0.6148686 0.18758689 -0.32393676 -0.72392756
-0.7946994 0.06273286 -1.5929999 0.009648124 0.2679624 0.55270314 0.86393803 -0.17707793
1.9891096 0.1333434 -0.5414921 0.30949003 0.83424413 -0.14845532 -3.0919137 -0.7428446
0.35170522 0.12424097 1.7218394 1.9794476 -0.3602 -1.5905077 -1.5187106 -0.23821732
1.0379882 -1.479336 1.9843054 -1.0629468 -0.012083445 -0.9376087 0.51419 0.15074393
-1.1035925 1.9034631 -0.50356936 -1.650027 -0.6071381 -0.04916355 0.13562122 -0.54348266
-0.041253805 -0.20829155 -0.95279545 0.6912424 0.42006287 -0.9696873 -0.16896866 0.49809512
0.3896538 1.6585288 -0.0155090755 -0.7760315 -2.1101756 -0.07780554 -0.34647068 2.1657417
-0.15306425 -0.6153917 0.8793366 -0.4127804 -0.96989655 -0.72452474 0.068635866 0.9035392

item_type_embedding.weight f4 [5, 8]
00000000: 82f0 d23f 843a 95bf 3fe2 2140 b8f8 043e
00000010: d509 17be 9943 673f a1ec 30be f05f e53c
00000020: 942c 973f 59d4 83bf b987 e83f a9d3 34be
00000030: 31be 9ebf f794 cbbf 2ee3 b13f a015 9a3f
00000040: 0471 ea3e 9b17 81bf 017f 273e 77e8 ddbf
00000050: 169e 78bf c157 e3bd 48a4 923e 1170 ebbf
00000060: 6b2d 873f d694 8bbe 11d8 d63f 23cc 213f
00000070: f0ef 4840 b2d3 413f 0b70 fe3e 3942 90bf
00000080: 43f1 e0bf bc52 623f 37bc 9cbf 4c49 2d3d
00000090: e6f6 ee3e 38a3 c1bd 69c0 3d3f b501 b9bf
1.6479647 -1.1658483 2.529434 0.12985504 -0.14749844 0.9033752 -0.17277767 0.027999848
1.1810479 -1.0299178 1.8166419 -0.17658867 -1.2401792 -1.5904835 1.3897455 1.203785
0.4578935 -1.0085329 0.16357042 -1.7336568 -0.9711622 -0.11100722 0.28640962 -1.8393575
1.0560735 -0.2726199 1.6784688 0.6320211 3.1396446 0.75713646 0.49694857 -1.127021
-1.7573627 0.8840749 -1.2244939 0.04230623 0.46672744 -0.0945496 0.7412172 -1.4453646

item_temperature_embedding.weight f4 [7, 8]
00000000: 1a31 f9be 5849 17bf d74f acbe c9a8 10c0
00000010: 1d90 c7bd a006 e2bf 73d4 7d3f dc28 cbbf
00000020: db70 c93e 884b 8f3f 6ffd fabe e8e5 ca3e
00000030: 6490 2dbf 71c4 cd3e 6577 7fbf 3f14 91bf
00000040: 2797 54bf cbc3 c73f fe60 a53f 42d6 4abf
00000050: 5903 8cbd 5f11 1ebd 6bc8 98bf 7344 cbbe
00000060: a4dc 68bf 4735 413e 2be1 debe b4ac f0be
00000070: 0ca5 45bf a35a 113d 7105 ddbe f597 b13f
00000080: ff06 4cbf 16ce 15bf 114c 0b3f 9499 1fbf
00000090: b94c a13d deaa a53f 36e9 5f3f 9225 d93e
000000a0: 5075 2d3f 2fd7 24bf cfc4 01bf d1e8 89be
000000b0: 5af7 be3e dcd1 4fbf 3248 d33f 9ef2 ce3f
000000c0: 2a2e 97bf d26e 383e e9e0 20c0 c8db 73bb
000000d0: 015e 01bf a632 0b3f 063e 1e3f f182 1bbf
-0.48670274 -0.5909629 -0.33654663 -2.2603018 -0.09744284 -1.7658272 0.99152297 -1.5871844
0.39343914 1.1194925 -0.4902148 0.3962853 -0.6779845 0.40188935 -0.99791557 -1.1334304
-0.8304314 1.5606626 1.2920225 -0.7923318 -0.06836576 -0.038590785 -1.1936163 -0.3970066
-0.9096167 0.1886798 -0.43531165 -0.47006762 -0.77204967 0.03548683 -0.43168214 1.3874499
-0.79698175 -0.5851759 0.54412943 -0.62343717 0.07875962 1.294277 0.87465227 0.42411476
0.6775713 -0.64390844 -0.5069093 -0.26935437 0.3729809 -0.81179595 1.6506407 1.6167791
-1.1810963 0.18011025 -2.5137274 -0.0037209857 -0.50534064 0.5437416 0.6181339 -0.60746676

item_humidity_embedding.weight f4 [6, 8]
00000000: ca3b 3bbf 01e2 093f 08ce 373e 84eb cabd
00000010: d103 a1bf a6dc a1be dc5e d1bf dd16 8f3e
00000020: 0dce 7cbf e504 91be 4897 1a3f 2b0e d9bf
00000030: a72f 6b3f 9978 d23e b9b8 7d3e 0c4b 7fbe
00000040: b9b0 40bf 8664 8b3e 02a8 0840 ee55 423f
00000050: 4116 513f 2f7e 0abf bbe6 0540 01c9 6dbf
00000060: 6818 8f3f 5600 873f da08 0ac0 73f9 32be
00000070: 4e3c 27bf dec7 29bf 44c6 373f cbf4 e9be
00000080: 9f0d 12c0 9ac5 763f 2398 033e c8ce 8dbf
00000090: 4ea7 da3f 5d62 f3bf e4ac e4bd 0388 34bf
000000a0: 6bbc ddbd de66 543f 9285 b0be dc7c ebbe
000000b0: ebe0 c1be 4dd7 c93e 8ee0 9a3f 9216 273f
-0.73138106 0.5386048 0.17949688 -0.09908202 -1.257929 -0.31613654 -1.6357074 0.2794713
-0.9875191 -0.28324047 0.60387087 -1.6957449 0.91869587 0.41107634 0.24777497 -0.24930972
-0.7526966 0.2722513 2.1352544 0.7591237 0.8167458 -0.5409879 2.0922077 -0.9288483
1.1179323 1.0546978 -2.1567903 -0.1747797 -0.6532639 -0.663206 0.71786904 -0.45694575
-2.2820814 0.96395266 0.12851004 -1.107873 1.7082307 -1.9014393 -0.11165789 -0.7052004
-0.108269535 0.8296946 -0.34476906 -0.45993698 -0.3786691 0.39422074 1.2099779 0.65268815

item_windSpeed_embedding.weight f4 [5, 8]
00000000: 0f81 d43f 9543 443f be1f a6bf f656 023f
00000010: 6e13 cf3f fabb 65be bf1c 81bf 3e81 843f
00000020: fee6 aa3f 99af 4f3d 3593 45bf 0cc2 d1bf
00000030: 2caf fc3d ed82 023f e281 acbd 5dfb b4be
00000040: 2ac6 d13d d762 1ebf 3ff7 8f3f 7493 3d3f
00000050: c3ce c7be df9d 09c0 c38a 09bf 6ba2 f43f
00000060: 73e7 9dbf 58e4 4fbf 41b2 7b3f 6683 973b
00000070: 2093 863f 9873 e33f aaa1 8fbe 8794 1cbf
00000080: e79e e6be 5ca9 1440 1a2f 893d 19b1 3cbf
00000090: 1a54 523f a002 e23f 4663 a23f f0d4 58bf
1.6601886 0.7666562 -1.2978437 0.5091394 1.6177804 -0.22434989 -1.0086898 1.0351942
1.3351743 0.050704572 -0.77177745 -1.6387343 0.12338099 0.50981027 -0.08423211 -0.35348025
0.10242875 -0.6186957 1.1247329 0.7405312 -0.39024934 -2.1502607 -0.5372736 1.9112066
-1.2336258 -0.812078 0.9831887 0.004623818 1.0513649 1.7769651 -0.28053027 -0.61164135
-0.45043108 2.3228369 0.06698437 -0.7370773 0.8215958 1.7657051 1.2686546 -0.84699917

GCN_Layers.0.W1.weight f4 [64, 64]
00000000: 14c9 d4bd 4769 bbbc 7ec4 aebd df3f 0bbe
00000010: a2b1 e93d 1ced 513d 3af1 9a3c 8f6c 23bd
00000020: 3965 0ebc 5009 0e3e 27ab 103d 7f37 d13d
00000030: b0c0 943c 5647 8a3d 91b0 dbbd 8009 dfbc
00000040: a1a6 a2bd 8366 51bc 8c69 25bd 8259 e73c
00000050: b17b 5fbd a7b3 613c 2947 aebd 787b be3d
00000060: 54b3 bb3d c315 4ebd 07c4 56bd f64b 9bbd
00000070: 1f3b eebd 2001 a6bd 5ba3 f0bd b1e3 84bd
00000080: 08d0 a0bd 998b f9bd 318d 65bd b3a7 753d
00000090: aa17 99bd e7ac e9bc d724 b9bd 6366 e63d
000000a0: 6485 4bbd 8e78 803d acb8 c1bd c3bc 3bbc
000000b0: c425 fb3d b965 be3d 2ad4 b1bc 5137 53bc
000000c0: 5378 d8bd e05b 80bd efb3 8b3d fdf2 b83c
000000d0: 7589 febd 481d 513c a3c3 04bd f249 b93d
000000e0: 1b7e ec3d 65e3 06bb c4cb 33bd 3d76 4e3c
000000f0: 0bfb a2bd 375f 97bd 1af2 ea3c d0f9 a53c
00000100: 70f4 4b3d 8d0e ccbd 8ded 823d 40b2 01be
00000110: 2f1a 77bd fd1d c93c 361d c93d c6f8 d9ba
00000120: e40d a93d 71cb 8f3d 2b8c 413d 231d 0fbd
00000130: e0b5 e4bd ec4e 93bc 1e9c 9dbc 2b93 80bd
00000140: 684b 8bbd 5d14 40bd 655f ab3c 0cb9 bdbd
00000150: 24e1 30bd 8cd0 6a3d 1e12 9c3d bc0d abbd
00000160: 3456 3b3d 8eca 933d 92b4 ddbd 40e2 093d
00000170: 2325 013e 2572 913d 0a94 babc 9943 00be
00000180: b0bb 6b3d 8613 c13d 710c 1c3d f202 87bb
00000190: 9416 17bd 55af 69bd cc04 dabd 7b7b 82bc
000001a0: adfa 2b3d 8016 9e3d 9610 833d 446b 86bd
000001b0: 7584 90bb 279f f13d ee4b 3fbc d9af f43c
000001c0: d212 febc e043 723d a488 89bd c676 e5bd
000001d0: 91d6 52bc ed51 a5bd 304a 7fbd fdbd ad3d
000001e0: e1d3 b73d bb05 f5bc f15d 8d3d 5a5d 2cbb
000001f0: d98c ba3d 3a38 e6bd 87e6 b53d c942 3dbd
00000200: 1132 693c 7f1f ff3d d5ce 17bc 7f7e 83bc
00000210: df14 d8bd 83aa e9bc fd06 06be 7715 01be
00000220: 8012 c23d bd4b 73bd 5c03 003d 85d2 213d
00000230: 5c2e c33d 359a b73d efad c6bc 6e37 cfbc
00000240: 58da 833c 1b95 cdbd 8758 aebc 980c 18bc
00000250: 5925 3dbd ea5c 983c 1350 8c3b 7eb8 51bd
00000260: d46f 333d c63b 503d 720c 273d 2312 0ebe
00000270: 929f d43d 0843 8a3d e00f 0dbd 16ee ea3d
00000280: 26eb d43d 0d97 9d3c 8d25 c9bd dfc2 533d
00000290: e0b5 46bd dacf 7cbd 7a34 0bbd 3cfc f4bd
000002a0: adc2 febc 1104 cb3c a699 da3c d6d4 ed3d
000002b0: 9802 10ba 90d8 f8bd 9ad3 ef3d e7dd 6abd
000002c0: 2758 443b 611c b03d fe09 a9bd 8dec 0abd
000002d0: bf81 9abc 92f8 8cbd b0c8 b43d bfde 873d
000002e0: 7f79 7cbd dd90 a5ba 85df 86bc c0e2 1d3d
000002f0: 47db b73d 77cc b6bd 5735 ed3d 3265 9d3d
00000300: 91d8 1c3d ac0d 51bc 9b97 8eba 46b8 cebc
00000310: d96e a33d 04c7 debd e947 303c d2ef 79bd
00000320: b06f 4cbd a1b9 56bd 6903 e9bd 3c6a 05bd
00000330: f780 f93d 4916 eabd 9f38 83bd 822f bb3d
00000340: e685 6cbd fc7a 0b3d a37e af3d e2e8 2e3d
00000350: ebd7 8cbd a2c6 783d 1c1a ab3d bb9d 61bd
00000360: 7dc8 57bc 050f ef3d 32a7 503d c2ce c03d
00000370: 1d65 31bc 2f39 4bbd ba6c f2bd ea8c 863d
00000380: f45b ae3d 7217 873d 6631 c0bc b066 45bd
00000390: faf5 bb3b 1cfc c73d 4b5e fb3d 622f 46bd
000003a0: 6e8b 183d c0f8 8ebd 0d07 4fbd 682b c9bd
000003b0: 8c8a c5bd 871b 3e3d 2b34 223c 7d76 fcbd
000003c0: f2d0 0bbd 9957 3bbc 6961 f33c 4b52 c6bd
000003d0: 4aca f9bd 455d 39bc 3a43 783d bf22 4e3c
000003e0: b80d f7bd f8fa 46bc 4b5a 30bd 86ab babd
000003f0: 42a2 c63d 2f13 b93c 87b3 a33d f2ce 69bc
-0.10389915 -0.022877349 -0.08533572 -0.13598584 0.11410834 0.051251516 0.018913854 -0.03989845
-0.008691126 0.1387074 0.035319474 0.10215663 0.018158287 0.067518875 -0.10727037 -0.02722621
-0.07941938 -0.012780788 -0.04038386 0.028240923 -0.05456132 0.013775743 -0.085096665 0.093008935
0.091650635 -0.050313722 -0.05243304 -0.07582848 -0.1163237 -0.08105683 -0.117499076 -0.06488741
-0.07852179 -0.12184829 -0.056042854 0.059974384 -0.07475217 -0.02852483 -0.0904023 0.112499975
-0.049687758 0.06272994 -0.094590515 -0.0114585785 0.122630626 0.09296746 -0.021707613 -0.012891606
-0.10569825 -0.06267524 0.06821429 0.022576803 -0.124285616 0.012763329 -0.032413136 0.09047307
0.1154749 -0.0020582315 -0.043895498 0.012601432 -0.07958039 -0.07391208 0.028679896 0.020260721
0.04979366 -0.09963713 0.063929655 -0.12665653 -0.060327705 0.024550432 0.09820025 -0.0016629926
0.082546026 0.07021225 0.047252815 -0.034939896 -0.111675024 -0.017981969 -0.019239482 -0.0627807
-0.06801492 -0.04689442 0.020919511 -0.092638105 -0.04318346 0.057327792 0.07620643 -0.08352229
0.045736507 0.072163686 -0.10825457 0.033663034 0.12611823 0.071018495 -0.022775669 -0.12525786
0.05755204 0.09427552 0.038097803 -0.004120224 -0.036886767 -0.057051975 -0.10645446 -0.01592802
0.04198711 0.07719135 0.06399648 -0.06563428 -0.0044103214 0.11797934 -0.011675818 0.029869007
-0.031014834 0.059146762 -0.06715515 -0.11204295 -0.012868539 -0.08072267 -0.06232661 0.08483503
0.089759596 -0.029909959 0.069026835 -0.002630076 0.09108896 -0.11241193 0.0888186 -0.04620627
0.014233128 0.12457179 -0.009265621 -0.016051529 -0.10550856 -0.02852369 -0.13088603 -0.12605844
0.09476185 -0.0593984 0.031253204 0.039507408 0.09530327 0.089649595 -0.02425286 -0.025294986
0.016095325 -0.10038205 -0.021282448 -0.009280346 -0.046178196 0.018598992 0.0042820065 -0.051201336
0.04380782 0.050838254 0.040783353 -0.13874106 0.10381998 0.067510664 -0.034438968 0.114711925
0.103964135 0.019237066 -0.09821615 0.051699515 -0.048513293 -0.06172166 -0.033985592 -0.119621724
-0.031098688 0.024782212 0.026684593 0.11612861 -0.00054935506 -0.12150681 0.11710282 -0.05734053
0.002995977 0.08599163 -0.08253859 -0.033917 -0.018860696 -0.068833485 0.088273406 0.06634282
-0.061639305 -0.0012631674 -0.016464004 0.038546324 0.08977371 -0.08925717 0.115824394 0.07685317
0.03829247 -0.012759607 -0.0010878922 -0.025234353 0.07980127 -0.10877803 0.010759332 -0.061019726
-0.0499112 -0.052423123 -0.113776036 -0.032572016 0.12182801 -0.11430032 -0.06407284 0.09139921
-0.057744883 0.034052834 0.08569076 0.042702563 -0.068771206 0.060736306 0.08354589 -0.055082064
-0.013170359 0.116727866 0.0509407 0.09414436 -0.01082733 -0.04961508 -0.11837144 0.06569846
0.085136324 0.06596269 -0.023461055 -0.048193634 0.00573611 0.09764883 0.12273844 -0.04838503
0.037242346 -0.06981039 -0.050543834 -0.09822732 -0.09645566 0.04641297 0.009900133 -0.12327287
-0.034134813 -0.011434459 0.029709535 -0.09683665 -0.12196787 -0.011313741 0.060610987 0.012581526
-0.120631635 -0.012144797 -0.04305486 -0.09114747 0.09698917 0.022592155 0.079932265 -0.014270531

GCN_Layers.0.W1.bias f4 [64]
00000000: 7282 133d 1bd0 ee38 3ad1 8a3c d8b6 bbbc
00000010: 82ef c03c bd7d 42bd fed0 5b3c d91d f13d
00000020: 9c26 d53d 5d26 e2bd 6d63 09be 27c7 fc3c
00000030: bd77 c7bd 2f0a 953d 3fb7 ff3d 7fb8 e2bc
00000040: d829 a93c d00d cf3d 127b fb3d bad4 8d3d
00000050: 07c9 36bd b710 9abd 6f33 a5bc 834f e0bc
00000060: a66a 32bd b712 a33d ee5e 56bc 439a d6bd
00000070: 584b 103d 0d9f 8e3d 1a6c 4ebd 1eb2 d63d
00000080: dcd5 e93c 2811 9fbc 9d02 383b 4a5e b8bd
00000090: 7f25 4dbd 3dfb 61bd 18b6 0bbe 3335 353d
000000a0: 5d32 37bc d755 803d 4f33 d5bd 2f81 30bc
000000b0: c0f4 323d bc8a ddbd 2dc1 18bd 73a1 3dbd
000000c0: deed e93d 948e c43d 4986 84bd a1fa 0f3d
000000d0: dc92 a43c 0ca2 483d b396 473c 94e5 363d
000000e0: ec6c c6bd 257a a2bd 2460 bcbd b94f eebd
000000f0: ee27 803d efd2 ddbc 6283 8d3c ff29 91bd
0.036013074 0.00011387487 0.01694547 -0.022914335 0.023551706 -0.047483195 0.013416527 0.11773271
0.10407755 -0.110424735 -0.13416834 0.030856682 -0.09739635 0.07277333 0.12486123 -0.027675865
0.020649835 0.101100564 0.12279333 0.0692534 -0.04462531 -0.07522719 -0.020166127 -0.027381664
-0.04355874 0.07962554 -0.013084156 -0.10478642 0.035228103 0.0696393 -0.050396062 0.10483192
0.028544359 -0.01941736 0.002807773 -0.09002359 -0.050084587 -0.05517124 -0.13643682 0.044240188
-0.011181441 0.06266373 -0.10410177 -0.010772987 0.043690443 -0.10817477 -0.0372936 -0.046296548
0.11422323 0.09597507 -0.06470925 0.035151128 0.02008956 0.048982665 0.012181926 0.044652537
-0.09688744 -0.079334535 -0.09198025 -0.116363 0.06257616 -0.02707812 0.017274562 -0.07088088

GCN_Layers.0.W2.weight f4 [64, 64]
00000000: a144 86bd 3af6 c63d 0cc0 e13d 1fe8 91bc
00000010: 2b50 bd3d bb60 30bd c314 3e3d c36e c0bd
00000020: 2c86 113d 948e a6bd d823 5f3d 0631 68bd
00000030: 2a10 f03c 4200 a53d 23ef abbd 4a0b d2bc
00000040: 6db8 11bc a402 a3bd 0578 d7bd 93ff d93d
00000050: 91c4 ea3d 9a4e 953d a70b ff3c 70fe 09be
00000060: 138f cfbd 81a9 ba3c 43ad edbd 1791 5d3d
00000070: 33ca 903d 6e53 28bd 2628 db3d 8afb 8fbd
00000080: dc3a f13d d7c9 7fbd 5785 ee3d 5e6e fc3c
00000090: 6138 893c 606c e23d eabf 833a 8bde 883d
000000a0: 1a9e 4fbc f9e6 5cbb 447f 9fbd 77e8 41bc
000000b0: 743e 7cbd dacf e93a 6c0a d2bc 9bbb 113d
000000c0: f057 50bc 5604 c2bd 0d2f f03d b219 96bc
000000d0: 34e7 94bd 333f 00bd 2c58 693d e420 e63d
000000e0: 5a4b 4a3d 1c11 c2bd 3c85 fd3c 23fd 51bd
000000f0: c876 103e 36ce 263d d418 003e 0a29 863d
00000100: cd7b f5bc 89c7 743d 3638 0b3e c8a7 07bb
00000110: 440e 24bb fd93 1bbc 8183 8cbd 7765 97bd
00000120: 87eb e8bd 3d80 64bd bed9 e039 dd69 4e3d
00000130: fa50 7e3d 6f3e cf3c 461f eb3c ac0d af3d
00000140: 54b6 97bd 773b 1c3d b39b 36bd c7ce 6b3d
00000150: bf55 623d 0562 84bd 62f3 a43c aa15 7cbd
00000160: 3741 0d3d 9a7c c3bd c310 c4bc aead 83bd
00000170: efc5 cc3d 5827 e7bc 4c77 13bc 39e9 993d
00000180: a2ec 083d 1a19 f9bd 36e2 02be 9a20 973c
00000190: 341c 3bbc 7583 113d 94ed b2bc b796 7b3d
000001a0: 3ea5 553d 4b55 a33d cca2 a13d 38a5 6b3d
000001b0: 2794 dd3d bfde e5bd 7d25 9e3b d45e 963d
000001c0: 73db 11bd 3ad9 2bbd 2500 7abd 5d32 29bd
000001d0: 752d 4b3d ab2f a63d 468a 1c3d b445 d9bb
000001e0: a2f1 d8bc d2ac fe3d 8ef0 48bd a70b 333c
000001f0: a2ef 07bb 9995 b9bd 9758 f7bc 79ba ab3c
00000200: ac15 9e3d ba9b ff3d 7ee7 673d c2af ecbd
00000210: 4e75 903c 3d8f 93bc 8b0c 9abd 9203 bd3a
00000220: 259d b43d 64e9 5dbc af18 ddbd d0eb 9abd
00000230: f1a3 1cbd df6d 2a3b 2665 a73d cc07 35bc
00000240: 252d ae3d b5e2 7bbc f175 153d 0385 ae3d
00000250: 1697 483d 5077 c6bd e3a0 29bd 61e4 a33d
00000260: df6d 56bc c7cc 88bd 0a23 ba3d 8e32 563d
00000270: 3db0 363d 1c74 58bd 9f0a 49bd 41c0 2abd
00000280: 26c7 a93d 09db 6fbd a6c7 00bd 6bee 9ebd
00000290: a726 f3bb 9c0a 8b3d 14c4 0f3d 906d acbd
000002a0: 82ee 053c 02ae 4f3c 2bf4 51bd 0b43 9c3c
000002b0: 9758 cbbd 83b6 aabc a3ef 113d b8e5 fd3b
000002c0: 3678 7cbd 2cfe 2cbd f589 863d 608b 123d
000002d0: 4d15 6a3d 1234 a0bc 0101 a33d c375 303c
000002e0: 52e3 273d 8b04 0abd f907 fd3d 9f0a 153d
000002f0: dcab a1bd d6a6 9b3d e602 a83d f51d 66bd
00000300: 73e1 b5bc 2f68 72bc f165 b73d f67d 7c3d
00000310: 2436 7dbd 59d3 f23d c471 af3d 7f61 10bd
00000320: 4695 79bc 3b20 b4bd d3dd 03be e48d a13d
00000330: 8273 38bd f891 8c3d fa1f b93d ee6b f43d
00000340: bffe c43b 2f71 71bd 5e29 1ebd 2497 ccbd
00000350: 2d2f d93d 81b2 193d 1a75 90bc dda7 02be
00000360: dbcc b73d a984 56bd d8e7 5d3c a29e 5bbd
00000370: 9000 e6bd 65f5 cf3b 29b1 f03c 7d18 12be
00000380: b95f 47bd d73c b0bd 2e14 913c 86e6 a6bb
00000390: 0ab0 8abc 073c 76bd e782 9c3c c116 14bd
000003a0: 417b aabd 9c67 3d3d d784 383d bb15 5b3d
000003b0: 31d3 11bd a1fd 60bb fca9 f93d 72dd c7bd
000003c0: dc23 9abc d39e d83c d5e6 bebd 690b e9bd
000003d0: ab44 313d 2992 8abc fe8c 77bd 0556 173d
000003e0: cf49 acbd 0ede 64bd b812 86bd ca2c 6f3d
000003f0: 1c10 a0bb 20b4 c73d c746 efbd c414 00be
-0.06556059 0.09714933 0.11022958 -0.01781088 0.092438065 -0.043061 0.04640652 -0.09396126
0.035528347 -0.08132663 0.054477543 -0.056687377 0.029304583 0.0805669 -0.08395221 -0.025640149
-0.008894068 -0.07959488 -0.10520939 0.1064445 0.11463273 0.07290383 0.031133486 -0.13475966
-0.10134711 0.022785904 -0.11605313 0.054093447 0.070698164 -0.04109519 0.10701017 -0.07030399
0.11778805 -0.06244835 0.11646526 0.030814346 0.016750516 0.11055827 0.0010051702 0.06683072
-0.012671972 -0.0033707006 -0.07787946 -0.011835209 -0.061582997 0.0017838434 -0.025639735 0.035579305
-0.012716278 -0.09473483 0.11727724 -0.0183228 -0.07270661 -0.03131027 0.056968853 0.11236742
0.049388267 -0.094759196 0.03094732 -0.0512668 0.14107811 0.040724 0.12509471 0.06550796
-0.02996626 0.059760604 0.13595662 -0.002069937 -0.0025032917 -0.009495732 -0.0686102 -0.073924
-0.11373048 -0.05578636 0.0004288684 0.050393928 0.062088944 0.025298325 0.028701436 0.085475296
-0.07407823 0.038142648 -0.04458208 0.057570245 0.055257555 -0.06464008 0.020135585 -0.061544098
0.03448602 -0.0954525 -0.023933774 -0.06429611 0.0999869 -0.028217003 -0.009000611 0.07515187
0.033428796 -0.12162991 -0.12781605 0.018448163 -0.011420298 0.035525758 -0.021841802 0.06142303
0.05215954 0.07975253 0.07892379 0.05753061 0.108192734 -0.11224126 0.0048262463 0.07342306
-0.035609674 -0.04195521 -0.061035294 -0.041307796 0.049603898 0.08114561 0.038217805 -0.0066306237
-0.026482407 0.124353066 -0.049057536 0.010928071 -0.0020742198 -0.090617366 -0.03019361 0.02096294
0.07718977 0.12480874 0.056617253 -0.11556961 0.01763406 -0.018012637 -0.07521924 0.001442062
0.088190354 -0.013544414 -0.10795724 -0.07564509 -0.038242284 0.002600543 0.081735894 -0.011049222
0.085047044 -0.015373875 0.03648943 0.08521464 0.04897221 -0.09690726 -0.0414132 0.08002544
-0.013087719 -0.06679683 0.090887144 0.052294306 0.044601668 -0.052845106 -0.049082395 -0.041687254
0.08289938 -0.058558498 -0.0314404 -0.07760318 -0.007420379 0.06789133 0.035099104 -0.08419335
0.0081745405 0.012675764 -0.051258247 0.019074937 -0.099290065 -0.020838981 0.035628926 0.007748332
-0.06163808 -0.042234585 0.06569282 0.03577745 0.05714922 -0.019556079 0.07959176 0.010770264
0.040988274 -0.03369574 0.12355036 0.036387082 -0.07894108 0.07600181 0.08203678 -0.056180913
-0.02220223 -0.014795347 0.08954991 0.061643563 -0.06181921 0.118567176 0.08566621 -0.03524923
-0.0152333435 -0.0879521 -0.12877588 0.078883916 -0.04503203 0.06863779 0.09039302 0.119346485
0.0060118134 -0.05894583 -0.03861367 -0.09989765 0.10604701 0.03752375 -0.017633963 -0.12759347
0.0897462 -0.05237261 0.013544045 -0.05361808 -0.11230576 0.006346392 0.029381352 -0.14267154
-0.048675273 -0.08605354 0.017709818 -0.0050933985 -0.016929645 -0.06011584 0.019105388 -0.036154512
-0.0832429 0.046241388 0.04504856 0.05348752 -0.0356018 -0.0034330862 0.12190625 -0.09759034
-0.018815927 0.02644292 -0.093213715 -0.113791294 0.043278378 -0.016915398 -0.060437195 0.03694727
-0.08412515 -0.05587583 -0.06546539 0.058392324 -0.004884733 0.09751153 -0.116834216 -0.12507921

GCN_Layers.0.W2.bias f4 [64]
00000000: 79dd 94bd 9592 17bd f67d cabd 4022 b33d
00000010: 69a5 e9bc daba a83c ef78 e7bd 3297 adbc
00000020: 1198 8dbc 0a78 cbbb 61ba 03be dd3e cfbd
00000030: b48f b83d 86a8 c63c 5355 c8bb ed0f 553c
00000040: e72b 1bbd 914b afbd fc92 3bbd d2d9 4dbc
00000050: 8e0c f33d 9383 eebd cf17 dc3d 75b8 b13d
00000060: 4ac4 f03d fd3e 53bd 58d0 ad3d 383c c6bd
00000070: f515 64bc ff3f 073d 19a6 293c d558 ee3c
00000080: 220e b9bd 3e51 f53a 89e8 0ebd d3ef f73c
00000090: 3ab9 acbd 3d4a 5c3d e7ee d83d 5086 083c
000000a0: 6775 ccbd 1b97 0f3c d4cd 88bd 367f c93d
000000b0: 5b75 413d bb75 193c 6558 d0bb 0689 5ebc
000000c0: 06c5 a3bd d403 aebd cc97 d93d 6434 4dbc
000000d0: 527d b73b 1c60 83bd dbe6 843d cbd1 7e3d
000000e0: 38a4 97bd cf0e ff3d 5a80 8f3d 4da8 84bd
000000f0: ad3c 07be 1274 b63d 7a96 81bb f652 8fbd
-0.07268805 -0.037005026 -0.098873064 0.08746767 -0.028521257 0.02059691 -0.11302363 -0.02119026
-0.017284425 -0.006209378 -0.12864067 -0.10119412 0.09011784 0.02425028 -0.006113687 0.013004285
-0.037883665 -0.08559335 -0.045794472 -0.012564139 0.11867629 -0.116461895 0.10746729 0.086777605
0.11756189 -0.051573742 0.08487004 -0.096794546 -0.013921251 0.033020016 0.010354542 0.029095093
-0.09035899 0.0018716229 -0.03488973 0.030265724 -0.08433767 0.053781737 0.10592442 0.008332804
-0.0998333 0.008764054 -0.066798836 0.09838717 0.04723106 0.009366448 -0.0063581937 -0.013582474
-0.079965636 -0.08496824 0.10624656 -0.012524698 0.005599656 -0.06414816 0.06489345 0.062211793
-0.07404369 0.124539964 0.07006903 -0.06477413 -0.1320674 0.089088574 -0.003954706 -0.069982454

GCN_Layers.1.W1.weight f4 [64, 64]
00000000: 79b5 e23d 4bc6 ebbd dca7 ef3c 9ff0 eb3c
00000010: 6a86 0ebd 7036 bd3d 99e1 c5bc 5171 ee3d
00000020: 0b4f b8bd cd92 21bd d3f1 af3d 31c3 b5bb
00000030: 2b93 8e3d b7ce cdbd 5fe7 e23d b7d1 4bbd
00000040: 2265 733c 0daa ddbd 527f 59bd 6718 96bb
00000050: a150 553a baae 9ebd aa87 10bd 5a48 9bbd
00000060: 0713 cabd 8175 f13d 6c3d 91bc 61de c9bd
00000070: 201d 92bd 9cad 0e3d 2b81 83bd 5de8 fd3d
00000080: 8a4d 573d 211e 85bd 49f7 14bc c222 a1bd
00000090: 8ece 70bb 0669 973d 4f3d 7c3d 6d9a c4bc
000000a0: 029c 473d 82e3 aebd 799d c73d c92d 3e3d
000000b0: 9aad 573d 3c07 44bd 165e 713b e4cc e2bd
000000c0: fd09 e83d a8a8 b93d 88d8 aebc fc80 c73b
000000d0: a1cd e43d b673 973c 6396 06bc dd6b e0bc
000000e0: 6b32 f53d 397a 7abd fa7d 92bd d491 d9bc
000000f0: 10c1 733c f308 c33c 8dbf 643d e72b 8ebd
00000100: 783c 413d 5eaa d7bc cb70 493d 0693 ecbc
00000110: f892 d5bd 0048 3cbc aa7c 95bc 7e68 e9bd
00000120: 63bc b1bc 4566 3ebb 7df5 1ebc e93a 233b
00000130: 7382 48bd 4759 df3c c80a 903d 0c9f de3c
00000140: 4e46 c53d 6636 993b 3755 ebbd 024b ab3d
00000150: 672b 06bd 02d3 73bd d5cb a83d a1c1 893d
00000160: 6978 a73d bcd5 2e3d ac0f c4bd a779 c13d
00000170: 654b cf3d 2a5c c7bc 14cb e5bd e5d0 55bd
00000180: dda2 913c fef2 993d 3db9 f63b c897 773d
00000190: febe 8dbd ea5e 6f3c 072e f63d 36b2 483d
000001a0: 943b 68bc 7801 e6ba 5703 c0bd b056 b23d
000001b0: e409 353d 1a0f 18bd a967 c7bc 6594 73bd
000001c0: ba2c 6f3c 3d84 fbbd 54f2 08bd f532 073c
000001d0: e0d7 37bd 2abf 643d 8892 493d 2641 173d
000001e0: 1fa5 cc3d c578 0e3d 4368 65bd 2928 73bd
000001f0: bfc5 c03b ce4b 543d 7bfe ce3d 1c7a 37bb
00000200: 3b93 a33d 1564 3b3d c2fa edbc abe5 3dbc
00000210: 4f98 56bd 27fc da3d 98b4 823d 07ec 173d
00000220: 724a e43d c8b5 29bc 4c91 303d 6912 b93d
00000230: d7eb df3d 7ed2 383d 5216 75bd 7ddb de3b
00000240: 1d39 37bd ba6c 9a3d 5995 ad3d 458a bb3c
00000250: c49a 23bd bd63 94bd 2297 0ebc 6751 eebd
00000260: 7655 ea3d 6945 02bd 5cfd 6539 04ed 0e3d
00000270: 5866 963d 6d32 e6bc 1c5a df3d 6d0f 69bd
00000280: 1745 45bc 4730 bf3d 13e8 27bb bf9d 18bd
00000290: 7cee b53d d0ab dabd 4c61 d3bd 134e 833d
000002a0: a78f 8ebb 4e81 533c ee51 18bd dfcc a53d
000002b0: d6ae 2a3d 891f a3bd 6740 463c 995f f83c
000002c0: 8e84 c3bd 155d b0bd 58d7 b6bd dab1 93bd
000002d0: 58df bf3d 4916 d63d 646d e0bd e44a 4f3b
000002e0: 3000 5ebc 37fa 903d 05a5 26bc aa5a ee3d
000002f0: 20ab f23d 33e5 593d 1b95 eb3d 875a 69bd
00000300: dfe9 4c3d 0596 c8bd f0d9 713d 783b 7abd
00000310: 8767 683d 60fa 8bbc 3c8f 8f3d 93b0 b2bd
00000320: 0897 66bd 85ff 463d 77d5 d83d 3b90 94bd
00000330: 0103 393d 859e 79bd 8ea6 ecbd b290 d73c
00000340: 14e6 b43d 7e29 04be cf92 f9bd 28e6 5b3d
00000350: dd96 a33d 2a3a c1bd 945c 9fbd ffa0 bdbc
00000360: ac59 96bc 9a44 873d 337b e83d 17a8 1b3c
00000370: 022f cfbd 6bf4 6d3d e7da 33bd 2116 11bd
00000380: 3a5e b13c 08c1 81bd 6f5c d93c 9a19 3bbd
00000390: c195 953d 1c65 003d 1534 a53d 050b d93d
000003a0: 5a81 8abd eb71 f6bc 091c efbc 677a aabd
000003b0: 12b1 d33d 3055 9b3d 9953 c3bd e1c2 863d
000003c0: 76f0 503d 63cf c3bd 9882 0abd f381 dfbd
000003d0: 41d6 05bd a6fe a43d 9471 4c3c 214f 6cbd
000003e0: 9ef8 453d 9b9c 993d 6c6c c23d ff4d 8abd
000003f0: b219 9e3d ebc9 42bc a0b5 8fbb 94ab 57bb
0.110697694 -0.11512431 0.029254846 0.02880126 -0.034796156 0.09238899 -0.024155425 0.11642707
-0.08999451 -0.03944664 0.08591046 -0.0055469503 0.06961664 -0.10049193 0.11079287 -0.049760547
0.014855655 -0.1082345 -0.053099938 -0.0045805457 0.000813732 -0.0774817 -0.03528563 -0.07582159
-0.098669104 0.1178999 -0.017729484 -0.098568685 -0.071344614 0.034833536 -0.06421121 0.123978354
0.05256418 -0.06499887 -0.0090921605 -0.07867958 -0.003674421 0.073930785 0.061581906 -0.023999417
0.048732765 -0.085394874 0.097468324 0.046430383 0.052655794 -0.04785846 0.0036829761 -0.11074236
0.1133003 0.09065372 -0.021343485 0.006088374 0.11172033 0.018487792 -0.008214566 -0.027395183
0.11972507 -0.061151717 -0.07152934 -0.026558794 0.014877573 0.023807978 0.05584674 -0.069419675
0.047176808 -0.026326355 0.049179833 -0.0288787 -0.10428423 -0.0114917755 -0.018247921 -0.113968834
-0.021696275 -0.0029052657 -0.009702084 0.002490694 -0.04895253 0.02726425 0.07033306 0.027175449
0.0963255 0.0046756743 -0.11490863 0.08363916 -0.032756235 -0.059527405 0.08242003 0.06726385
0.08177263 0.0426843 -0.09573302 0.094470315 0.10121802 -0.02433594 -0.11220375 -0.05220117
0.017777855 0.0751705 0.0075294063 0.060447484 -0.069211945 0.014610032 0.12020498 0.04899808
-0.014174361 -0.0017548045 -0.09375637 0.087079406 0.044198886 -0.037123777 -0.024341421 -0.059467692
0.014598066 -0.12281082 -0.033434227 0.008251895 -0.04488361 0.05584637 0.04921201 0.036927365
0.09992432 0.034783144 -0.056007635 -0.05936447 0.005882948 0.051830105 0.10107132 -0.0027996367
0.07987066 0.045749743 -0.029050235 -0.011590402 -0.052391347 0.106926255 0.06382102 0.037090328
0.11147012 -0.010358281 0.043107316 0.090367146 0.10933655 0.045122616 -0.05983574 0.0068010674
-0.0447322 0.07540269 0.084757514 0.02289308 -0.039942518 -0.07245586 -0.008703025 -0.1163662
0.11442082 -0.031804476 0.00021933526 0.034894004 0.07343739 -0.028100217 0.10905859 -0.056899477
-0.012040398 0.0933538 -0.0025620505 -0.037259813 0.08883378 -0.10677302 -0.10321292 0.06411376
-0.004350621 0.012909247 -0.03718751 0.08095717 0.041670643 -0.07964999 0.012100316 0.030319022
-0.09546767 -0.08611504 -0.08927792 -0.07211657 0.09368771 0.10453469 -0.109583646 0.0031630332
-0.013549849 0.07078975 -0.01017118 0.116383865 0.11849046 0.053197097 0.11503049 -0.0569711
0.050027724 -0.09794239 0.059045732 -0.06109187 0.056739356 -0.017087162 0.07009742 -0.08725085
-0.05629638 0.048583526 0.1058759 -0.07254072 0.04516888 -0.06094219 -0.11555205 0.026314113
0.088329464 -0.12906453 -0.12186205 0.05368629 0.07987759 -0.09434922 -0.0778133 -0.023148058
-0.018353306 0.066048816 0.113516234 0.009500525 -0.10116388 0.058094423 -0.043909933 -0.035421494
0.021651376 -0.06335646 0.026533334 -0.045678712 0.07303954 0.031346425 0.080665745 0.10597805
-0.06762953 -0.030083617 -0.029188173 -0.08324128 0.10336508 0.075846076 -0.09537429 0.06580139
0.05101057 -0.0956104 -0.03381595 -0.10913458 -0.03267503 0.08056383 0.012478251 -0.05769265
0.048332803 0.07500573 0.09493336 -0.06753158 0.07719745 -0.011888961 -0.004385665 -0.0032908665
