lab4-student/code/model/bestModelParms-11-14-11-58.pth (torch, 600017 bytes, 28 tensors)

user_id_embedding.weight f4 [900, 32]
000000 49 65 e1 3e 03 76 cc 3c 48 00 dd bc 67 26 79 3b
       0.44022587 0.024958616 -0.026977673 0.0038017274
000010 65 ff 7e 3c c4 79 37 3b e2 12 8a be 07 ae 84 bc
       0.0155638205 0.0027996162 -0.2696753 -0.016196264
000020 f7 4c cb bc 46 2c 2f 3d 88 81 84 3b 35 15 f9 3c
       -0.024816973 0.04276683 0.0040437616 0.03040562
000030 74 79 de bc bd 88 06 3c c0 b7 e4 bd 2b b8 e3 bd
       -0.027157523 0.008211312 -0.1116786 -0.111191116
000040 59 72 07 bf 4c 34 c6 b9 2f f5 d3 38 2e 8e 68 bd
       -0.52908856 -0.00037804467 0.00010106933 -0.056776218
000050 32 16 76 ba 55 82 d1 bc ce 4e 26 bd d7 fc 77 be
       -0.00093874626 -0.025574842 -0.040602498 -0.24217544
000060 7f 81 92 3c 83 d2 a6 bc c6 ab ae bd ed 2f 89 bb
       0.017884014 -0.020364052 -0.08528857 -0.0041866214
000070 ab 14 ff ba 6f d1 d5 3b 05 eb eb bc 93 27 08 3c
       -0.0019461116 0.0065252106 -0.02879859 0.0083102165
000080 86 e5 37 bc b4 cc e1 3d b0 79 89 39 bc 07 28 3d
       -0.011224156 0.11025372 0.0002622134 0.041023
000090 d2 41 57 3c 13 ef ca bd 81 bc c0 bb 4c 2b 45 bb
       0.013138251 -0.09908881 -0.0058818464 -0.0030085621
0000a0 60 0a 66 bb 0a dd 80 3b 9f cb 7e 3d 04 b6 0f 3c
       -0.0035101399 0.0039326 0.062205907 0.008771423
0000b0 7c b0 81 3a 47 be 35 bc ca c0 f1 3b 2f f7 53 3c
       0.0009894515 -0.011092729 0.0073777186 0.012937351
0000c0 c5 84 39 bd dc bf d8 bb 70 bf 8e bc f3 46 5c bc
       -0.045292635 -0.0066146683 -0.017425269 -0.01344465
0000d0 10 09 78 bd 41 3e 9d 3b 5a 54 bb 3b 12 96 fd 3e
       -0.060555518 0.004798681 0.0057168426 0.49528557
0000e0 2f 6a 59 bf 19 6c 8c 3e 18 2e 17 be 76 50 6f 3b
       -0.8492765 0.27426222 -0.14763677 0.0036516464
0000f0 83 af 82 3c 94 f1 06 3f 5c 61 03 3d 11 44 00 ba
       0.015952831 0.5271237 0.03207527 -0.0004892955
000100 a0 f4 00 3c 5c a6 45 bd d5 68 18 bd 0a b0 8a 3c
       0.007870823 -0.048254356 -0.03720935 0.016929645
000110 15 88 73 3b 46 c1 8d 3d 21 26 2f bd f7 2f d8 3c
       0.0037159969 0.069216296 -0.042760972 0.026390059
000120 5e 4a 7d 3e 4e 0a 5a bb 7e 52 83 3b 6e 9e b6 bc
       0.247354 -0.0033270302 0.0040076366 -0.022292342
000130 9f 17 cb be 1d fc b1 bc 46 81 31 bd 00 5d 19 bc
       -0.3966646 -0.021726662 -0.043336175 -0.009360552
000140 66 d8 85 bb f2 0a f2 3b 54 13 a0 be e3 30 90 3c
       -0.0040846346 0.0073865587 -0.31264746 0.017601436
000150 85 d3 aa bc 83 5b aa bc 58 bb af bd bd 06 c4 bb
       -0.020852813 -0.02079559 -0.08580655 -0.0059822486
000160 d9 4e 55 bc 14 c4 fb 3d f4 77 15 3c 49 d4 9a 3c
       -0.013019287 0.12293258 0.009122837 0.018900054
000170 d3 3f 2a bd dc 87 b7 bc 88 cd 08 3c e5 05 08 be
       -0.041564774 -0.02240365 0.008349784 -0.13283499
000180 57 5a 7a 3e 30 97 18 3d aa bb c3 3c a3 ee 81 3c
       0.24448524 0.03725356 0.023893196 0.015860861
000190 d6 2c 5c 3e 9c 23 55 bc 11 3c 37 3d aa ee fa 3b
       0.21501479 -0.013008978 0.04473502 0.0076578455
0001a0 0d 55 45 be 30 16 7c bd 94 3e be 3d b6 b0 25 3d
       -0.19270726 -0.061544597 0.092892796 0.040451728
0001b0 f0 79 ae 3d 1a a7 f4 bc 10 d8 b0 3a f5 cf 1e bd
       0.085193515 -0.029864836 0.0013492126 -0.038772542
0001c0 7d f2 9a 3c 09 ef 51 3d 54 d4 f4 bc 82 cf 77 3d
       0.018914456 0.051253352 -0.029886402 0.06050063
0001d0 a5 12 da bc a6 94 7c bc 9c 3a 3a bc c3 18 09 3c
       -0.026620219 -0.0154163 -0.011366513 0.00836772
0001e0 25 6a 0a 3d 83 cd f3 bb ae ce dd bc a3 4b 89 3e
       0.033792634 -0.0074402704 -0.027076092 0.2681552
0001f0 d5 d1 2d 3d ba 36 48 bc 07 ba a3 bb d7 81 56 3d
       0.04243644 -0.012220079 -0.0049965414 0.05236992
000200 b6 ba ec 3c 82 f7 91 3c e9 85 42 bd 25 ff b2 bd
       0.028897624 0.017818216 -0.047490988 -0.08740071
000210 2d 5f 05 3c b6 62 97 3e 6b 8b 77 3e b8 b7 f2 ba
       0.008140367 0.29567498 0.24174277 -0.0018517887
000220 5c dd 92 3c 08 19 d9 bd 79 94 e8 bc 70 9a a0 bd
       0.017927818 -0.106004775 -0.02839111 -0.078419566
000230 9c 01 2b bd 47 e3 dd 3c a3 2e 42 3d 82 f3 0b 3d
       -0.04174958 0.027085913 0.047407757 0.034167774
000240 d6 08 fb 3c f9 66 1e bd e9 aa 5f 3d b1 82 0b bd
       0.030643862 -0.03867242 0.054606352 -0.034060184
000250 a8 59 81 3d a2 16 81 3d d7 2e 19 bd 38 c0 88 3d
       0.06315929 0.06303145 -0.037398186 0.06677288
000260 89 75 19 bd eb c7 fd 3c af 1d 6c bd 35 f9 19 3e
       -0.037465606 0.030979117 -0.057645496 0.15036471
000270 2d 53 29 bd d1 d0 9b bc 15 0f 5e 3e c3 35 f1 39
       -0.04133909 -0.01902047 0.21685441 0.00046007158
000280 07 5f 81 3c 4a 74 01 3d 72 9b f5 be da 9d 80 be
       0.015792383 0.031605043 -0.47970158 -0.2512043
000290 c6 b5 5e bd a9 3b 00 3d b8 fb 05 3f 49 16 1a 3d
       -0.05437257 0.031306896 0.5233722 0.03761891
0002a0 a8 0f 9b b7 e7 df e6 bd 49 fb bf bd bf 5b 57 bd
       -1.848473e-05 -0.11273175 -0.09374101 -0.05257773
0002b0 5d e0 ff be 1a 5d 16 3f 3f b8 aa bd 4d ef c8 ba
       -0.49975863 0.5873581 -0.083359234 -0.0015330106
0002c0 fb 05 6c bc 7f fa b5 bb 94 2d c0 3e 94 fe a2 bc
       -0.014405723 -0.005553543 0.37534773 -0.019896783
0002d0 32 a9 f4 3c 39 40 b4 3c cd f5 81 bb 63 55 87 3b
       0.029865835 0.02200328 -0.0039660693 0.004130052
0002e0 ef d6 75 be cf 1f 1a 3b 65 65 f7 be a6 87 df bc
       -0.24007772 0.0023517495 -0.48319545 -0.027286362
0002f0 de 98 ad bc ba 6a 03 3b c6 d4 a8 3d 42 5e 94 bc
       -0.021191057 0.0020052628 0.08243708 -0.018111352
000300 fc 88 e2 3b 3c 0a 1a be 3f 0c 06 3d 32 b3 3f 3d
       0.0069133025 -0.15042967 0.032726523 0.046801753
000310 c9 d1 b3 3d f3 10 bd be 4c a2 af be 01 38 11 3d
       0.08780248 -0.36926994 -0.3430351 0.0354538
000320 6b 4a 05 bc 23 a4 92 bc 9b fa c4 3d 62 69 dd 3c
       -0.008135418 -0.017900532 0.09618112 0.02702779
000330 dd 08 f1 3c ff d6 90 3d 49 09 43 bf 53 43 0b bb
       0.029423172 0.07072257 -0.76186043 -0.0021249845
000340 40 ca f3 3a 48 2f bd bf 55 49 26 bd 34 88 c9 bd
       0.0018599704 -1.4780054 -0.04059728 -0.09840432
000350 da f4 13 bc ec 00 a0 bb c3 7e 89 bd 1c 31 7f 3c
       -0.009030545 -0.0048829224 -0.06713631 0.015575673
000360 d7 47 71 bc 28 b9 0f 3d 42 be 4b bc 02 ae c9 bd
       -0.014726601 0.035088688 -0.012435498 -0.098476425
000370 eb 2f c0 be 4f d8 1b 3b e1 c8 7b 3f 26 09 e7 3a
       -0.37536559 0.0023780053 0.9835339 0.0017626628
000380 11 61 17 3d a5 4b a9 3c 72 c8 e0 bb 68 08 b6 bc
       0.036957804 0.020665953 -0.0068598324 -0.022220805
000390 1c 20 5d 3f dd ff 7d bc a9 b6 38 bc 19 70 bc 3b
       0.8637712 -0.015502897 -0.011274018 0.005750668
0003a0 6d a6 23 3c 46 f8 e2 3d b0 4d 07 bf 08 9f 82 bb
       0.0099884095 0.11082511 -0.52852917 -0.003986243
0003b0 9c 3f 8e bb f3 2c 26 3c ce 0f fa bc 38 a3 6b 3e
       -0.004341079 0.010142553 -0.030525114 0.23011482
0003c0 f9 2c de 3c d7 bb f6 bc f5 5a 3c be 79 51 d4 3c
       0.027121054 -0.030118866 -0.18394072 0.025917755
0003d0 24 27 17 3e 7c 32 71 bd c9 b6 47 3d fe 41 af bb
       0.14761025 -0.058886036 0.048758302 -0.005348443
0003e0 f7 83 19 3c 63 4c 5b bd 92 96 c5 3c e5 af a3 3c
       0.009369842 -0.053539645 0.02411965 0.019981334
0003f0 fb b4 58 3c 47 f6 be bc 2f 70 c4 ba 61 f8 ca be
       0.013226743 -0.023310794 -0.0014987047 -0.39642623

user_age_embedding.weight f4 [5, 4]
000000 be 77 e2 3e aa a4 2d 3e dd 5e 97 bf d6 e3 23 3f
       0.4423198 0.16957346 -1.1825825 0.64019525
000010 4c be 19 3f 46 68 b9 bf 7b e4 0b bf df 14 eb 3e
       0.60055995 -1.4484947 -0.5464551 0.4591436
000020 ea 99 95 3e b8 c2 bb be 31 81 d3 3d 6b 35 0a bf
       0.2921899 -0.36671996 0.10327376 -0.5398776
000030 67 64 9f 3f f8 21 c9 3e 01 0b 5f 3f 52 90 b2 3e
       1.2452515 0.3928373 0.87126166 0.34875733
000040 f6 40 e0 bd 81 51 7e 3e 45 15 81 3f 19 35 90 bf
       -0.1094989 0.24835779 1.0084616 -1.1266204

user_gender_embedding.weight f4 [2, 2]
000000 9c a2 f7 3d bd 4b ab 3e 92 27 9e bf 08 94 9c 3e
       0.12091562 0.3345622 -1.2355826 0.3058169

user_occupation_embedding.weight f4 [21, 8]
000000 10 3e 18 bd 89 22 93 3e d3 ee 86 be 4e 24 e2 3d
       -0.037168562 0.28737286 -0.26354083 0.11042081
000010 3d 7e 9d 3e 76 74 71 3d e4 87 3d 3f fb 50 f7 3e
       0.30760375 0.058948956 0.7403548 0.4830397
000020 47 26 b8 3a 75 c6 55 bf 06 f3 0d 3f 11 2b 4a be
       0.0014049493 -0.83505946 0.5544895 -0.19742991
000030 eb 83 6e bf 28 14 87 3e 08 16 66 be 26 e5 be be
       -0.9317004 0.26382565 -0.22469342 -0.372842
000040 4b 6e fa 3e 75 3c ad be e2 1d 34 3f a2 0e 0d 3e
       0.48912272 -0.33835188 0.703581 0.13775113
000050 63 94 09 3f 65 72 97 be 29 cf 18 be 38 7a a5 3e
       0.53742045 -0.29579464 -0.14922775 0.32319808
000060 35 68 98 3f 12 fe 28 3d f1 cf 58 bf b0 37 7a 3f
       1.1906801 0.041257925 -0.84692293 0.9774122
000070 6b 76 d5 3c e0 96 41 bd 1f b6 78 be 1e d5 b2 be
       0.026057443 -0.047263026 -0.24288224 -0.3492822
000080 e7 df 8c 3e 49 0e 11 bf 2c a7 e1 be b8 ff da 3d
       0.27514574 -0.5666242 -0.44072855 0.10693306
000090 cf 3a b6 3e 8d fe bb be 86 e7 83 3e f7 6c 3e bf
       0.35591742 -0.36717644 0.25762576 -0.7438502
0000a0 8f 42 84 bf da 26 a3 be f3 e2 b5 3c c5 97 c5 bd
       -1.0332812 -0.3186558 0.022202944 -0.09648088
0000b0 91 a3 8f be 01 c0 23 bf ca b2 0a 3f d5 c8 ad be
       -0.2805448 -0.6396485 0.5417906 -0.33942285
0000c0 30 12 26 3d 71 df 8d bf 6a ee a6 3c 32 a2 f9 3a
       0.04054469 -1.1083814 0.020377357 0.001904553
0000d0 ea b2 dd bd 6d 9e b3 3d 56 fa 2e 3d bb 18 1d 3e
       -0.10825141 0.08770452 0.042719208 0.15341465
0000e0 c3 67 60 3d 22 0e ac 3e 4f 6d e5 be 50 4b db 3e
       0.054786455 0.33604532 -0.44809958 0.42830896
0000f0 a7 b7 3e be 2a 9d 1e 3e e6 23 c1 3e 6e 4a 13 3f
       -0.18624745 0.15489641 0.377227 0.57535446
000100 3b 87 92 3c 7e 0b f7 bd f1 07 49 3e 89 b9 11 3d
       0.017886749 -0.12062739 0.19631936 0.03557733
000110 71 53 19 bd 43 60 82 be 56 4a 25 3e 86 67 50 bd
       -0.03743309 -0.25464067 0.16141638 -0.050879978
000120 0e 2a 3e 3e 3a cc 4c 3d 3a 79 33 3d a9 27 19 be
       0.1857073 0.049999453 0.043816783 -0.14956535
000130 65 46 84 bd f8 d0 fc bc 67 d0 76 3e 80 5d 30 3e
       -0.06458739 -0.030861363 0.24102937 0.17223167
000140 ad 60 55 bd ba b1 a8 be c9 f1 6b 3e 77 9e 95 be
       -0.05209415 -0.32948095 0.23041452 -0.29222462
000150 c2 5b 08 3f 92 4c 1a be 90 08 21 bf 53 d9 03 bf
       0.5326501 -0.15068272 -0.6290369 -0.51503485
000160 ef b0 5f be 00 65 11 bb e8 79 db 3e ef 01 17 3d
       -0.21844839 -0.0022185445 0.42866445 0.03686708
000170 81 4b 54 3f ee af 96 3d 43 2e a0 be fa fe 9d 3e
       0.8292771 0.07357775 -0.31285295 0.30858594
000180 7b db 15 3f 6a 60 e0 3e 26 33 b0 3d 36 79 1d be
       0.58538026 0.43823558 0.08603506 -0.1537827
000190 e4 63 a3 bd f8 40 de bc 00 5c 40 37 d1 e2 1f be
       -0.07978037 -0.027130589 1.1465512e-05 -0.15613867
0001a0 19 b7 90 bd 39 0b 76 be 10 08 88 3e de 97 2d 3d
       -0.07066173 -0.24027719 0.2656865 0.04238116
0001b0 fc 10 40 3e f5 ab e5 3e 72 70 ba bd 89 98 c7 3e
       0.18756479 0.44857755 -0.091034785 0.38983563
0001c0 04 ae 7e 3d 58 2b 43 3f 0e 29 dd 3e 91 2c ce bd
       0.062177673 0.7623801 0.43195385 -0.10067094
0001d0 51 ed 98 be 6d 19 b5 be b6 87 49 3d 37 1b 30 be
       -0.29868558 -0.3537096 0.04920169 -0.17197882
0001e0 34 2a 21 3e 56 c7 7d 3e 38 45 8e bd 7e f7 ed bc
       0.15738755 0.24783072 -0.06946796 -0.029048678
0001f0 30 8e 16 bd 78 3f 3c 3f 77 97 27 3e 28 dc 2f bd
       -0.036756694 0.73534346 0.16366373 -0.042934567
000200 ea b9 a5 bd 57 85 a4 bc da d9 27 be 75 98 14 bd
       -0.08092101 -0.020083113 -0.16391698 -0.036278207
000210 7f ce cb bd ed 18 1e 3d ee 14 f3 bd 17 fb 8c 3c
       -0.099514954 0.03859799 -0.118692264 0.017209573
000220 69 14 b0 3e 61 af cc 3c ee f4 37 bf e4 3d 27 be
       0.34390572 0.02498597 -0.7185811 -0.16332203
000230 c9 6e dd 3e 6f c2 ea bd e4 15 c8 3e 58 3f 16 bd
       0.43248585 -0.114628665 0.390792 -0.036681503
000240 73 04 a3 3c 86 39 25 3d 67 df ae 3e c1 0f d1 3c
       0.019899582 0.04033806 0.34154817 0.025520207
000250 53 f7 56 3d 80 08 a6 be 63 35 50 3c 6c aa 93 bd
       0.05248196 -0.3242836 0.012708041 -0.0721024
000260 e0 72 8d 3e dc 29 00 3e 1c 9e a9 bf 12 4a 29 be
       0.27626705 0.12515968 -1.3251376 -0.16532162
000270 10 f2 01 be 6a 20 14 be 3e 6a e0 3d 38 31 a4 bc
       -0.12689996 -0.1446549 0.10957764 -0.020043
000280 10 05 d3 bb 37 a9 98 be b5 6d 3b bb 0d e1 2c bc
       -0.0064398125 -0.298166 -0.0028599326 -0.010551703
000290 26 e6 96 bd 4b 09 43 3d e4 0a a4 3c 16 98 e9 3d
       -0.07368116 0.047616284 0.020024724 0.11405961

user_location_embedding.weight f4 [760, 18]
000000 84 23 58 3d 1d df 76 ba 26 fe 7d bb 29 61 a6 bc
       0.052768245 -0.0009417402 -0.003875622 -0.020310001
000010 84 e2 c8 3d c9 b7 04 3e c1 58 0c bd b8 dd e2 3d
       0.098088294 0.12960733 -0.03426433 0.11077446
000020 da fc ad bc ad be 63 3b 86 4c f4 bc 6b cb 28 3d
       -0.021238733 0.0034751103 -0.029821645 0.04120962
000030 60 f9 02 bd 49 59 81 bd 00 09 1a bb 89 86 52 3c
       -0.031976104 -0.06315858 -0.00235039 0.0128494585
000040 bd 59 9d 3e 9e cf 0f 3c e0 09 60 bc 4b 78 93 bc
       0.30732527 0.008777527 -0.013674229 -0.018001696
000050 f2 b7 d3 bb a1 4c 80 bc 95 1e 89 bc 0e 4d 96 bb
       -0.006461137 -0.01566154 -0.016738215 -0.0045868224
000060 05 bd 57 3c ea 18 15 3b 63 16 80 bc 77 a2 d0 bd
       0.013167624 0.0022750446 -0.015635675 -0.10187238
000070 f5 3b c0 3d 70 9f 47 3d b1 06 84 3b 1e 82 55 bd
       0.09386436 0.048736036 0.004029118 -0.052126043
000080 4e 7a c3 3b de 4c 6a ba 02 7b a2 bb b8 05 b8 bc
       0.0059655076 -0.00089378457 -0.0049585113 -0.022463664
000090 aa a6 52 3a f7 c9 8f 3c 97 26 96 bc c4 9e fb ba
       0.0008035699 0.017552359 -0.018328948 -0.0019197096
0000a0 ef 35 ae bd bb 20 b4 ba c8 66 17 ba 45 11 3d 3b
       -0.08506381 -0.0013742665 -0.00057755085 0.0028849405
0000b0 9e bd 02 3b 96 4d af 3e 38 20 1b 3c 3f 13 96 3e
       0.0019949446 0.3423888 0.009468131 0.2931156
0000c0 76 01 d8 3b fe f0 8d bb 5f 37 8c 3c 8e 8c eb 3f
       0.006591971 -0.004331707 0.017116247 1.8402269
0000d0 f9 cc 89 bc 0f 20 c6 bc 82 84 29 bb 3b d1 ff bb
       -0.016821371 -0.024185209 -0.0025866334 -0.0078069246
0000e0 57 a2 08 bb 7d 4d 53 3c db 84 e0 be 5e f3 9a be
       -0.0020848715 0.012896893 -0.4385136 -0.302638
0000f0 bd 48 e7 3e e7 28 27 3c e2 8e 87 3c c8 2e 19 3e
       0.45172682 0.010202623 0.016547624 0.14959252
000100 0a da 79 3c cd 77 e6 3e e7 ff f4 bd 81 36 9d 3b
       0.0152497385 0.45013276 -0.11962872 0.004797757
000110 24 77 88 bd 7f ed 09 3d 2c fe 90 bb 9f 3b 37 3d
       -0.06663349 0.03367376 -0.004424831 0.044734593
000120 2d b9 c7 bc 99 89 bc bd a4 18 d8 ba 6a d3 ba bc
       -0.02438029 -0.09205932 -0.0016486836 -0.022805888
000130 49 3b c9 bc 04 95 d3 3d 1b 4f 23 bd 46 6d bb be
       -0.024564402 0.10331157 -0.039870363 -0.36606807
000140 70 4d 14 bc 72 21 28 bd 7a 70 af be f6 04 3f 3e
       -0.009051666 -0.04104752 -0.342655 0.18654236
000150 8e 14 34 be b5 03 26 bf e4 c8 61 bd 44 ac ed 3b
       -0.17585966 -0.64849406 -0.055123225 0.0072532017
000160 89 09 1c 3d eb cb 2a 3d b7 c2 ce 3b ae b3 c9 3d
       0.03809503 0.041698378 0.006309833 0.09848724
000170 84 00 04 3d 8b e2 dc 3c 4e d9 16 3d a6 02 30 bc
       0.032227054 0.026963493 0.03682833 -0.010742819
000180 5f 5d 4c 3b bc a9 45 bd 16 ce 0e 3e 59 57 91 3c
       0.0031183583 -0.048257574 0.13945803 0.017741846
000190 72 fc 86 3c 48 63 5e 3e e6 49 e0 3c 5a 82 c6 bb
       0.016477797 0.2171756 0.027378988 -0.0060580196
0001a0 82 65 4a 3c 6f af c9 bc e4 92 ac bb dc 7d 09 3d
       0.012353303 -0.024619786 -0.005266534 0.033567294
0001b0 88 b5 45 be 7e 6a cf bd 65 ea 8d be 61 6b b4 bc
       -0.1930753 -0.10127734 -0.2771789 -0.022023859
0001c0 ef a9 73 3f 1a 8f 1c bd bc de 08 bb a1 cc d0 3d
       0.95181173 -0.03822241 -0.0020884713 0.1019528
0001d0 13 65 09 bd ed af 04 3d f0 69 40 be 5f 46 22 bc
       -0.033543658 0.03239434 -0.18790412 -0.009904473
0001e0 75 6f de bb 69 24 f7 bb ae 55 ce 3a 7a 3a 23 3c
       -0.006788189 -0.007542182 0.0015742087 0.009962672
0001f0 95 3c 13 3d 74 85 1b bc b4 36 82 3f ec 8a 0e bd
       0.035946447 -0.009492267 1.0172944 -0.034800455
000200 8f 65 a3 bf c2 5b 32 3c 69 ec 4a 3b b7 6e 9c 3b
       -1.2765368 0.010886135 0.0030963665 0.0047739404
000210 02 6f ca bc 91 e9 5d bc be 2d 6c 3f f4 a2 7c 3c
       -0.024711136 -0.013544456 0.922573 0.01541971
000220 91 19 8b bc 46 de d9 3c e1 e8 ca be 09 76 ae 3c
       -0.016979964 0.026595246 -0.39630798 0.021296518
000230 64 2d 89 3b 2c ce 3b bc ca a0 cb 3c 80 2a f9 be
       0.004186319 -0.011462729 0.024856944 -0.48665237
000240 38 c1 95 3b 6c 62 10 bd 6f ec d0 bb c6 6f 06 be
       0.0045701526 -0.035250112 -0.0063758413 -0.13128576
000250 03 b5 47 bc cc fc 60 3e bc dd 03 3b 6f 18 b1 bb
       -0.012189153 0.21971434 0.0020121178 -0.005404524
000260 52 e7 c7 3b 93 cf 19 bc db 1d 39 3d c5 76 cb 3d
       0.0061005736 -0.009387868 0.045194488 0.09934763
000270 18 de 60 39 d5 fc fe 3b f4 c2 bb 3a 0a 6a 04 3c
       0.00021445041 0.007781605 0.0014325068 0.008081922
000280 a7 76 00 3b d2 a0 ff 3c 22 05 08 bc f7 cd 7a 3b
       0.0019601972 0.031204615 -0.008302005 0.0038269737
000290 05 65 9e bc 05 8a a5 bb e8 1c 9b 3d ec e7 a5 3b
       -0.01933528 -0.0050518536 0.07573873 0.0050630476
0002a0 f6 dd 24 be 04 12 ce 3b 84 f2 87 3d 32 e4 29 3f
       -0.16100296 0.0062887687 0.06638053 0.66363823
0002b0 76 a7 e1 bb db ce 81 3b 57 ac 0a 3c 75 68 af 3b
       -0.006886418 0.0039614267 0.008463941 0.0053530284
0002c0 89 c3 ed 3b 6e 95 35 b9 40 2c 09 be 54 25 8e 3a
       0.0072559756 -0.00017317172 -0.13395786 0.0010844865
0002d0 67 9f 96 3a fb 8f ce 3d a1 86 0f be 1b c1 a0 3d
       0.0011491597 0.10086056 -0.140162 0.07849332
0002e0 97 e7 94 3e a2 80 b4 3c dc 74 47 3c ce 1b 31 3f
       0.2908294 0.022033993 0.012173858 0.6918305
0002f0 03 80 5f be 3c 17 7d 3e fd b4 02 3e a6 3b 1b bb
       -0.21826176 0.24715894 0.12764354 -0.0023686676
000300 80 5f 76 3c 7d 08 0f bc ff f0 72 bc e3 56 9d 3d
       0.015037417 -0.008730051 -0.014827966 0.07682588
000310 2b d9 53 3c e8 95 53 bf 43 6c 15 bc 9f ff 5f be
       0.012930195 -0.82650614 -0.00912005 -0.21874855
000320 ff 0d 7f 3c 8d ef c7 3c 9c 67 58 bc 84 92 93 3c
       0.015567302 0.024406219 -0.013208296 0.0180142
000330 60 ba 80 3b 80 01 84 bc 5f 40 c3 3c 8a 41 c0 3b
       0.0039284676 -0.016113997 0.023834405 0.005867188
000340 ab 25 cf 3c 19 74 cf bd d8 d3 31 3e 70 6b 66 3c
       0.025286516 -0.10129566 0.17365968 0.014063701
000350 87 f0 46 3e 94 8e bf 3e c6 ff 92 bd 7e 0c bc 3e
       0.19427691 0.37413466 -0.07177691 0.3672828
000360 6d d1 37 bd 15 2e 00 bf 78 f5 d0 bd 4e 39 03 3d
       -0.04487746 -0.50070316 -0.102030694 0.032037072
000370 bb 54 73 3f bf 01 b6 3f 93 1f 32 be 0f dc 7c 3d
       0.95051163 1.4219283 -0.17394857 0.0617333
000380 a9 9a 2d bd d7 cd 2d bd f2 37 61 bd eb da a4 bc
       -0.042383824 -0.042432632 -0.054984994 -0.02012392
000390 77 3b c8 bc 29 60 14 3d 1d 38 ac bd ec c6 0d be
       -0.024442418 0.036224518 -0.0840914 -0.13845414
0003a0 fe 72 9f 3b 92 63 b4 bd a5 08 9f 3b 92 b8 a3 bd
       0.004866003 -0.08808054 0.0048533254 -0.07994188
0003b0 34 28 39 bc 9a 01 87 bb 8c 06 da 3c ce 41 25 3c
       -0.011301089 -0.004120064 0.02661445 0.01008649
0003c0 68 a4 53 ba 47 a2 26 3d 33 59 5e 3d c6 e3 c8 3f
       -0.00080735097 0.040682103 0.054284286 1.5694511
0003d0 69 71 a3 be 77 36 f1 be 26 7c cb bc 03 67 7a bc
       -0.31922463 -0.47111866 -0.024839472 -0.015283349
0003e0 de b7 34 bc af 9c 88 bc 73 01 e6 3d 46 42 0b 3c
       -0.0110301655 -0.016676275 0.11230745 0.008499688
0003f0 7e d1 2b be 0b ba 19 3f de 69 92 3c 7d 33 62 bc
       -0.16779134 0.60049504 0.017872747 -0.013806221

item_id_embedding.weight f4 [1600, 32]
000000 62 cf ba bb d5 51 0e bc d0 6f 09 3d 5b 11 ce 3b
       -0.0057009915 -0.008686502 0.0335539 0.00628869
000010 46 77 17 3e fc 3d 36 bf 1c ed 81 3d 33 78 ad 3c
       0.14791593 -0.7118833 0.06344053 0.02117548
000020 60 1b 1b 3c b5 bb 9f 3c 9e f0 03 bc 21 b6 14 3d
       0.009466976 0.019498685 -0.008052973 0.036306504
000030 20 ae db bc 68 9a 4f bb bd 97 e2 bc 87 d3 12 bc
       -0.026816428 -0.0031677727 -0.027660245 -0.008961565
000040 9e 75 0d 3c 4e 04 a0 3d a9 82 87 bd dd 1d 50 3e
       0.008633999 0.07813321 -0.06616718 0.20323892
000050 38 d4 9d bc dc 32 a4 3e 63 37 eb bc 2d 13 10 3e
       -0.019266233 0.32070053 -0.028712934 0.14069815
000060 54 2e 2a 3c 4e b4 fe 3b 07 fa a8 bc 1e c3 ad 3a
       0.010387022 0.007772959 -0.020627035 0.0013257002
000070 25 a9 20 3b e4 21 73 3c ad c3 d9 3b 82 00 11 3d
       0.002451488 0.014839623 0.006645641 0.035400875
000080 0b f0 06 bc a7 70 03 be 6a 18 1e bb f4 9d d7 3c
       -0.008235942 -0.12835942 -0.0024123439 0.026320435
000090 a7 4d 8c 3c 20 d8 ae 3b e9 38 26 bc 96 df 5c 3c
       0.017126871 0.0053358227 -0.010145404 0.013481041
0000a0 0a 25 f9 bb 49 e1 21 bb ba 4f 92 be c0 e3 06 3d
       -0.0076032924 -0.002470093 -0.28576452 0.032932043
0000b0 fa b8 15 3b f1 a9 7c bc 54 2a c8 3b a6 e2 a9 39
       0.002284585 -0.015421377 0.0061085615 0.00032403058
0000c0 a0 df 7f 3b 58 1a 83 3c 86 64 b9 3a b2 b9 f1 bb
       0.0039043203 0.016003773 0.0014144338 -0.007376873
0000d0 08 b5 16 3d 5d 20 59 ba 80 18 45 be 60 f6 6a 3d
       0.03679374 -0.00082827156 -0.19247627 0.057363868
0000e0 07 08 76 bc 44 d6 f0 3c 3c 62 2a 3e 39 de 0e bb
       -0.015016562 0.029399045 0.16639036 -0.0021799935
0000f0 13 53 a7 3c e5 d0 04 3c 69 75 0c 3c 03 a7 3f bb
       0.020425355 0.008106445 0.008572915 -0.0029243834
000100 db 5e 8e bb 76 8a 11 bc 78 b9 96 bb f0 89 54 bb
       -0.0043448037 -0.008883109 -0.0045997463 -0.003243085
000110 31 b2 cc 3b 1b d8 7b bb dd 17 99 bb e3 1c c2 bb
       0.006246828 -0.003842837 -0.004672034 -0.0059238537
000120 13 03 17 3e 00 99 c3 bd 8d 45 aa 3b 8f 64 3f 3c
       0.14747266 -0.09550667 0.0051962794 0.01168169
000130 54 f9 81 bb 99 af 18 3c 03 02 d7 bb 70 e2 13 bb
       -0.00396649 0.0093192095 -0.006561519 -0.0022565387
000140 88 1a 3b bb fd 9e 6a bc d2 ec 70 bd 2f 99 9b ba
       -0.002854975 -0.014320132 -0.0588196 -0.0011871214
000150 f1 7f 00 3c eb eb 8f bd 47 00 4b 3e 67 5f c2 bb
       0.007843004 -0.0702742 0.19824325 -0.005931783
000160 9d 26 92 bb d0 70 b4 3e 53 19 2f 3c 3c bd 2a bb
       -0.0044601695 0.3524232 0.01068719 -0.0026052734
000170 5d 58 90 3b 41 5a eb 3e 51 64 02 3f a3 90 91 bb
       0.004405065 0.45967296 0.5093432 -0.004442291
000180 fd ee 2d 3f 72 86 14 bc 1c 5f ed be 0c 11 16 bc
       0.6794279 -0.009065257 -0.46361625 -0.009159338
000190 02 c9 a6 bb dd 02 b2 3a 7d 11 5d 3a 21 23 de 3b
       -0.00508988 0.0013581176 0.0008433087 0.00677909
0001a0 e2 29 17 3e 2a 66 e0 39 26 eb 62 bc e4 97 52 3e
       0.14762071 0.00042800728 -0.013850009 0.20565754
0001b0 7d b2 0c be 02 e7 be 3a 4d e4 be 3b ae be ef 3b
       -0.13739963 0.0014564695 0.0058255554 0.007316432
0001c0 2a 94 db 3c a4 60 d5 ba d3 bc 9e bb bd ea d5 3e
       0.026804049 -0.0016279412 -0.004844287 0.41780654
0001d0 2d 99 ae bb 66 ec 26 3c 2a c1 50 bc a7 5c 4a 3d
       -0.0053283186 0.010188198 -0.012741366 0.049404766
0001e0 cc 5d 34 3e 54 91 62 3b 4a c8 37 3c f6 88 8c 3e
       0.17613906 0.0034571486 0.011217186 0.27448243
0001f0 ba 2f 87 bc 7d 2f 2f 3c 56 93 53 bd 44 2f 9a 3c
       -0.01650225 0.010692474 -0.051654182 0.018821366
000200 37 95 f4 bb 9a ea e6 bd 27 1f 6c bc b9 fa 99 3c
       -0.007464077 -0.112752154 -0.014411724 0.018796312
000210 a6 ca da bc aa 1f de 3e 3c 02 3d bc b3 42 c9 3b
       -0.026707958 0.43383533 -0.011536177 0.0061419844
000220 97 30 08 3c 41 34 aa be 31 6f 1f be cd 79 90 3c
       0.008312366 -0.33242992 -0.1556976 0.017636204
000230 de a7 60 3c 22 74 09 3c f2 70 4c bb a7 e6 9d 3b
       0.013711898 0.008389505 -0.003119525 0.0048187557
000240 25 2b 6e 3f 44 c0 83 3b 89 4f 01 bc e2 39 c4 3a
       0.93034583 0.0040207226 -0.007892498 0.0014970864
000250 49 d9 50 bc 28 ce db be 89 3d 48 3d a9 fc d7 bc
       -0.012747117 -0.42930722 0.04888681 -0.026365595
000260 ad e5 c3 bb ce ae 87 3b 01 19 b1 bb 0d 9e 96 3c
       -0.005978307 0.0041407114 -0.005404592 0.018385911
000270 4b 91 02 3d 25 e6 bb bc 0b c8 13 bb eb 0a ca 39
       0.031876843 -0.02293689 -0.0022549655 0.00038536577
000280 54 87 a8 3c ec db a1 3c 99 46 8a 3b 54 0c 9f bd
       0.020572342 0.019758187 0.0042198417 -0.07766023
000290 26 80 34 3e 2d d6 56 3b 5a 21 47 3b bd 83 57 3b
       0.1762701 0.0032781467 0.003038487 0.0032884919
0002a0 c0 12 75 ba 28 96 2d 3c df e7 2a bc 83 5a 12 3c
       -0.0009348802 0.010594882 -0.010431259 0.0089327125
0002b0 ad 2e 00 bc 99 cb 49 3f 48 ad fd 3b 8c 03 bc 3d
       -0.007823628 0.7882629 0.007741604 0.09180364
0002c0 61 fa e3 3b c4 13 df ba 36 8e 85 3e 72 4d 00 3d
       0.0069573377 -0.001701944 0.2608506 0.031323858
0002d0 ac 50 bb 3e 9c 95 18 3d 53 7b dc bd 52 4c b0 3b
       0.36584985 0.037252054 -0.1076571 0.005380192
0002e0 be 85 2e bb 57 4a 08 bc 06 8f b1 bc 11 96 14 be
       -0.002663001 -0.008318505 -0.021674644 -0.14510371
0002f0 62 47 b9 3b 63 a7 39 bb 59 ab 38 bc fb 61 b2 ba
       0.0056542614 -0.002832853 -0.011271321 -0.0013609523
000300 4f b7 76 bc c8 f5 70 3c 1c 6c 97 be b1 96 f3 bb
       -0.015058353 0.014707036 -0.29574668 -0.0074337353
000310 2e 4a f4 bc 09 9e 53 38 e2 29 b1 3c cd b9 83 bc
       -0.029820528 5.0453502e-05 0.021626417 -0.016079808
000320 c2 59 0f 3f 50 e7 cb 3b 9a 30 30 3b 1d 9d 5a bb
       0.55996335 0.006222643 0.0026884438 -0.0033357807
000330 bc 02 a1 3c 89 73 2e 3c 50 2d bf bf 0d 95 f3 bc
       0.019654624 0.010647663 -1.4935703 -0.029734159
000340 93 fb 09 3d be b4 72 bc 4d 8a c4 3e e3 c5 0e 3f
       0.033687185 -0.0148136 0.38386765 0.557707
000350 d2 a4 1c bc 01 93 9a be 9b 29 89 be bc 9b d5 3c
       -0.009560781 -0.3019028 -0.26789555 0.026075236
000360 0e 09 60 3d fc 8d 66 be 52 3b 12 3f 77 f2 9c bd
       0.054696135 -0.225151 0.57121766 -0.07663434
000370 ce 5d 9c ba e5 22 71 bd 4f 6a de 3b 22 dd 35 3c
       -0.0011929811 -0.05887117 0.0067875753 0.011100085
000380 09 77 8d bd d4 9e fc 3e ab 64 82 3c 69 3c a7 be
       -0.0690747 0.49339926 0.015917143 -0.32663277
000390 65 ba 0a bc 00 83 26 3c 9a 4f 13 39 87 0b 83 bc
       -0.0084672915 0.010163069 0.00014048666 -0.015996708
0003a0 5b 4b e9 ba ed 0b 18 3c 87 a6 db bc 36 11 1a 3c
       -0.0017798947 0.009280187 -0.026812805 0.0094035175
0003b0 27 13 d2 3c a6 55 3f bd 19 50 08 3d d6 8c 2c 3c
       0.025643898 -0.04671254 0.033279512 0.010531625
0003c0 64 fe e1 bc 4f 1b b2 3e 7e 66 10 bd 5d 26 a0 bc
       -0.027587123 0.3478646 -0.035253994 -0.019549543
0003d0 fb 5e 2a bf ee 11 f3 3b 1f ab 57 ba ff b7 32 3f
       -0.6655118 0.007417909 -0.0008227098 0.69812006
0003e0 38 4b f0 3c f3 38 b3 bc 33 a5 1f 3c 02 37 d2 3c
       0.029332742 -0.021877741 0.009743976 0.025660995
0003f0 2a da 30 bd d9 30 b6 bc 7c f9 4e bc 67 19 e4 3c
       -0.043176807 -0.02224009 -0.012632724 0.027844144

item_type_embedding.weight f4 [5, 8]
000000 fb df c0 3f 1a df 6a bf 55 c0 f7 3f 08 79 c5 3d
       1.5068353 -0.91746676 1.935557 0.096422255
000010 94 0c e1 bd f1 50 37 3f 03 36 95 bd 82 20 c8 3c
       -0.10988727 0.7160788 -0.072856925 0.024429563
000020 7b 02 8b 3f 5f da 53 bf d9 7f b1 3f 43 fb 1c be
       1.0860132 -0.8275508 1.3867141 -0.15330224
000030 75 a8 76 bf c9 58 a1 bf d9 92 86 3f 11 a8 74 3f
       -0.96350795 -1.260522 1.0513564 0.9556895
000040 14 46 b3 3e eb c4 02 bf d2 68 b6 3d f0 95 9e bf
       0.35014403 -0.5108172 0.08906712 -1.2389507
000050 24 f0 08 bf 19 c9 e2 bd b4 eb 1a 3e 66 b5 82 bf
       -0.53491426 -0.110735126 0.15128976 -1.0211608
000060 ce ec 18 3f 01 63 17 bd 8e ac 3a 3f 42 8c 65 3e
       0.59736335 -0.03695965 0.7291955 0.22416785
000070 31 b1 d5 3f b2 64 46 3e f6 19 c2 3d 74 43 c2 be
       1.66947 0.1937435 0.09477608 -0.37942088
000080 08 b4 43 bf 54 4d 61 3e 06 2e 75 be 71 cc bf bd
       -0.7644658 0.22002155 -0.23943338 -0.09365166
000090 00 93 c1 3d 2c 61 51 bd 64 73 57 3d 7a 5e ac be
       0.09451866 -0.05111806 0.05260028 -0.3366583

item_temperature_embedding.weight f4 [7, 8]
000000 f6 ee 8a bc 9c ef 16 3a 19 f8 17 3b ef b7 4e bf
       -0.016959649 0.00057577505 0.002318865 -0.8074941
000010 c9 d5 d2 3c 5b 30 ef be a4 05 2e 3d e2 88 9d be
       0.025736706 -0.4671658 0.042485848 -0.30768496
000020 77 31 5b 3e 13 78 16 3f 45 3c 9c be 61 25 03 3e
       0.21405588 0.5877697 -0.30514732 0.12807228
000030 34 0c bc be 70 b5 93 3e 30 25 f1 be c5 69 c0 be
       -0.3672806 0.28849363 -0.47098684 -0.37580696
000040 58 cd 29 bf c6 0b 85 3f 6e 50 7b 3f 77 53 a6 be
       -0.66328955 1.0394218 0.981696 -0.32485554
000050 5d 59 51 3c f4 53 9a bc 90 8c 3e bf f7 eb 1d be
       0.0127776535 -0.01883886 -0.7443323 -0.15422045
000060 bd 1e 2b bf a9 00 1f 3e a1 08 a6 be 54 77 5e be
       -0.6684378 0.15527596 -0.32428458 -0.21725208
000070 82 01 09 bf 26 25 43 ba 2e 73 b1 be 10 f3 50 3f
       -0.53517926 -0.0007444195 -0.34658188 0.81620884
000080 00 ef 1c bf d8 0b cc be 0d 91 d3 3e 58 5a af be
       -0.61302185 -0.39852786 0.41321602 -0.34248614
000090 c2 db d7 3b cf d9 89 3f 51 32 22 3f 90 b0 3b 3e
       0.0065874765 1.0769595 0.63358027 0.18329072
0000a0 be 29 0d 3f e5 12 d6 be 2a 43 cc be ee b0 a4 bd
       0.5514182 -0.4181129 -0.39894992 -0.08041559
0000b0 55 97 83 3e 7d 64 28 bf a0 a1 aa 3f 81 d4 8d 3f
       0.25701395 -0.6577833 1.3330574 1.1080476
0000c0 92 3b f7 be ac 3a ac 3d 12 8b ac bf 63 cb 6c bc
       -0.48287636 0.08409628 -1.3479941 -0.014452788
0000d0 52 f3 ed bd 6f 79 ba 3e d4 cf 80 3e bc e8 12 be
       -0.11618675 0.3642077 0.2515856 -0.14346594

item_humidity_embedding.weight f4 [6, 8]
000000 c6 0e 6d be d5 d3 4f 3e 80 b8 f3 3d 47 5a 75 bd
       -0.23150167 0.20295651 0.11900425 -0.05990055
000010 cf fa 13 bf 7a 53 36 be 10 9a 42 bf 5d 22 64 3d
       -0.5780458 -0.17805281 -0.7601633 0.055696834
000020 54 9f 1a bf a5 2a bd bd 6e 7a 02 3f af 9e 9a bf
       -0.60399365 -0.092366494 0.5096806 -1.2079676
000030 23 44 16 3f 3b dc 95 3e f0 fd 65 3e 0b 5b 0a be
       0.5869772 0.29269585 0.2246015 -0.13511293
000040 aa 9e 9e be ab 29 08 3e 7d de c1 3f 7c 9b dd 3e
       -0.30980426 0.13297145 1.5146023 0.43282688
000050 49 17 06 3f 8d d1 bb be cf fe 94 3f 82 18 bb be
       0.5237928 -0.36683312 1.1640261 -0.36542135
000060 f2 cb 11 3f b2 e5 3d 3f 05 7c df bf 5c f7 13 be
       0.5695182 0.7417861 -1.7459723 -0.14449829
000070 b5 fc dd be 39 dd cd be eb 42 c1 3e c8 ff 46 be
       -0.43356863 -0.40207842 0.37746367 -0.1943351
000080 2e cd ca bf 18 39 3e 3f 23 e4 9f 3d c9 b8 53 bf
       -1.5843866 0.7430587 0.078071855 -0.82703835
000090 ab 53 95 3f 29 0d b0 bf 15 3f 8d bc b6 c2 d2 be
       1.1666158 -1.3754016 -0.017241994 -0.41164178
0000a0 bc ec 95 bd a6 cd 16 3f 62 26 a9 be 1d e7 a5 be
       -0.07320544 0.58907545 -0.33037096 -0.32402888
0000b0 87 74 8b be 34 32 57 3e 8b 7f 39 3f 8f db da 3e
       -0.2723734 0.21015245 0.7246024 0.42745635

item_windSpeed_embedding.weight f4 [5, 8]
000000 e4 dc 8e 3f bd 09 d8 3e 5b 81 80 bf 2e 96 b2 3e
       1.116116 0.4219493 -1.0039476 0.34880203
000010 5c da 72 3f f5 36 29 be e4 fb 24 bf dc 65 4f 3f
       0.9486444 -0.1652487 -0.64446855 0.810148
000020 38 ca 56 3f 97 76 4e 3d 06 bd 1d bf b4 97 71 bf
       0.8390231 0.050406065 -0.6161655 -0.94372106
000030 d4 49 d8 3d 4a 32 90 3e bc b1 be bd 73 90 78 be
       0.105609566 0.28163368 -0.09311244 -0.24273853
000040 16 8a c9 3d 38 06 c3 be cb 67 5a 3f ce 40 e0 3e
       0.09840791 -0.38090682 0.85314626 0.43799442
000050 4b 3b 56 be 9b 2f aa bf 7b da bd be 49 b2 c5 3f
       -0.20921056 -1.3295778 -0.3708075 1.5445033
000060 aa a0 e0 be b6 c5 a2 be 56 0f 11 3f 00 5a 98 bd
       -0.43872577 -0.31791466 0.56664026 -0.07439041
000070 bc 77 bc 3e 3b 15 64 3f 70 26 f2 bd 18 f9 68 be
       0.368101 0.89094895 -0.118237376 -0.22751272
000080 40 bc 82 bd f1 71 94 3f 01 11 98 3d fa a8 68 be
       -0.06383562 1.1597272 0.07425118 -0.2272071
000090 7c ee 9d 3e e4 c5 64 3f e3 fd 0e 3f c6 f8 b9 be
       0.30846012 0.8936446 0.5585615 -0.36322612

GCN_Layers.0.W1.weight f4 [64, 64]
000000 29 74 dd bd c0 96 dc bc e1 df a8 bc cf fc 9e bd
       -0.108131714 -0.026927352 -0.020614566 -0.07763063
000010 ec b3 44 3e cf 2e a3 3c 9e 6a 96 3c 4c ce 73 bc
       0.1920926 0.019919781 0.018361386 -0.014880728
000020 ef 1c 91 bd 60 59 04 3e 29 67 5b 3d 98 4b 38 3d
       -0.07085597 0.12924719 0.053565178 0.044993967
000030 af 29 99 3d 00 6b c2 b7 64 dc 0b be 2a b6 c7 bd
       0.07478654 -2.3176428e-05 -0.13658291 -0.09751542
000040 23 d0 d8 bd eb f5 40 3d 06 34 a5 bd ff da f4 3d
       -0.10586574 0.047109526 -0.08066563 0.11955833
000050 90 ef e7 3a 24 51 67 3d 46 f6 ef bd de 7e 06 3e
       0.0017695297 0.056473866 -0.11716895 0.13134333
000060 d4 51 94 3d 36 75 55 3d 55 02 ba 3c 02 ca 0f be
       0.0724217 0.052113734 0.02270619 -0.14041904
000070 7a 19 d6 bd b7 32 e6 bc 9a 65 65 bd 43 68 62 3c
       -0.10454078 -0.028100355 -0.056005098 0.013818803
000080 b0 5f 90 bd 99 70 e2 bd ad ae 5c bd 17 df fa bc
       -0.07049501 -0.110566325 -0.05387752 -0.030623956
000090 34 3a 88 bd 2a 8a 57 3d c3 27 b1 bd 44 54 bb 3d
       -0.06651726 0.052621998 -0.08650162 0.09146932
0000a0 73 07 fb bc 7e d4 aa 3d 86 f7 8e bd 48 2d 7b bc
       -0.0306432 0.08341311 -0.06980805 -0.01533062
0000b0 fe cd 97 3d cc ab 2b 3c 1e cd 94 bd 9b 40 85 bc
       0.07412337 0.010477971 -0.072656855 -0.016266158
0000c0 f4 77 b1 bd 31 bd a7 bd d6 a7 c6 3d c0 26 07 3c
       -0.08665457 -0.08190382 0.09699981 0.008248985
0000d0 40 e1 01 be ca 9e c0 3c e1 de a4 bc 51 05 b4 3d
       -0.12683582 0.023513217 -0.020125808 0.087900765
0000e0 d1 36 e0 3d 6b 32 ab 3d 74 c6 dc bc 9e 84 22 3d
       0.109479554 0.08359226 -0.026950099 0.039677255
0000f0 9d 4a cb bd 38 92 0e bd 26 33 7b 3d 36 17 cc 3c
       -0.09926341 -0.034807414 0.061328076 0.024913412
000100 10 4e 75 3d ef ac 53 bd b2 9d 8c 3d 19 f6 7c bd
       0.0598889 -0.051678594 0.068660155 -0.061758135
000110 d2 10 90 bc b1 99 25 bd 0d 72 26 3e ee ee ad 3d
       -0.017586146 -0.040429775 0.16254444 0.08492838
000120 15 7c a9 3d c6 fe 3e 3e 59 99 b0 bc cd ce 02 bc
       0.0827562 0.18651876 -0.021557497 -0.007983875
000130 47 b6 e8 bd aa 56 da 3c b5 39 8b bc dc 46 7d bd
       -0.11362892 0.026652653 -0.01699529 -0.061835155
000140 2e b9 94 bd 46 ff ef bd 85 1b 7c 3e 51 03 56 be
       -0.07261883 -0.117186114 0.24619873 -0.20899703
000150 13 7c 9f bd 2a 1f d8 3b a7 9f 71 3d ac d4 00 bd
       -0.07787337 0.006595512 0.058990147 -0.03145282
000160 31 39 d7 3c 14 fb bd 3d 46 37 22 be 64 4c 01 3d
       0.026272388 0.09276405 -0.15841398 0.031566992
000170 ea ce 75 3e 71 48 0e 3d 7c 5a df bb 56 5e 6a bb
       0.24004713 0.034737054 -0.0068162065 -0.0035761795
000180 2c c9 4b 3d 9e ef a7 3d 7f 64 fd 3c 6d 7a 13 3b
       0.0497524 0.082 0.03093171 0.0022503391
000190 d4 c5 d7 bc 0a d3 80 bd e6 8f a2 bd de 27 4b bc
       -0.026339449 -0.062902525 -0.07937603 -0.012399642
0001a0 90 49 9f 3d 37 31 4a 3d 6a fb 73 3d be 8c 5d bd
       0.07777703 0.04936334 0.05956594 -0.0540893
0001b0 f1 70 32 bd 78 21 07 3e 2c c8 ad bb f7 94 19 3d
       -0.04356474 0.13196361 -0.0053034034 0.03749558
0001c0 46 cd a2 bb 90 f0 50 3d 26 da 59 3c e9 bd e6 bd
       -0.004968318 0.05101067 0.01329664 -0.11266691
0001d0 44 88 8e bc e5 e8 9c bd ff 93 84 bd ee dc 0c 3e
       -0.01739896 -0.076616086 -0.064735405 0.13756153
0001e0 4e 67 a6 3d ef 06 68 bd 6a 37 db 3d 86 46 91 bd
       0.081251726 -0.056647237 0.10703929 -0.070935294
0001f0 1d 84 d0 3d e7 ce af bd 1c 2a cd 3d ef 03 8d bd
       0.101814486 -0.08584385 0.10017797 -0.06885516
000200 c9 c2 3e 3d 58 bc c8 3d 90 5b 27 3c 77 ba 1f bd
       0.04657248 0.09801549 0.010214701 -0.038996186
000210 0a 86 e5 bd 60 7a f7 bc fc 14 a5 bd e6 d0 61 bd
       -0.112072065 -0.03020972 -0.08060643 -0.05513086
000220 3d c8 75 3d 89 4f cd 3c a6 8b 23 3d ab 73 0f 3d
       0.060005415 0.02506234 0.0399281 0.03502242
000230 89 6a 00 3e 91 0f a3 3d 2b 04 c1 bd b2 1c 8a 3d
       0.1254064 0.079619534 -0.09424623 0.067437544
000240 d1 54 21 bd c5 77 39 bd 96 5a e3 bc 1c 16 92 bc
       -0.039387528 -0.045280237 -0.027753156 -0.017832808
000250 ce ba 19 3c 3d 42 6d bd dc ea af 3a 90 34 9c bc
       0.009382917 -0.057924498 0.0013421434 -0.019068033
000260 30 58 aa 3b 64 0c f1 3d 3a 0b d7 3d 73 19 6c bd
       0.005198501 0.117699414 0.10500188 -0.057641458
000270 a7 4f dd 3d 4f 92 fe 3c 03 29 5c 3d e5 39 e6 3d
       0.10806208 0.031075625 0.05375005 0.11241511
000280 ee bd c0 3d 90 86 68 3c dd 7b bd bd 22 bd ec 3c
       0.09411226 0.014192238 -0.09252141 0.02889878
000290 42 0f 58 bd 88 9a 24 bd 67 e9 30 bd 45 58 07 be
       -0.052748926 -0.040186435 -0.04319134 -0.13217266
0002a0 99 6e 5c 3d 03 95 70 3c 69 69 78 3c 3e 68 d9 3d
       0.05381641 0.014683965 0.0151618505 0.10615586
0002b0 d0 28 74 bd 99 33 19 be 1f 4f 8e 3d 66 5a 48 bd
       -0.059609234 -0.14961089 0.06948685 -0.048914336
0002c0 3c b3 99 bc ab 7d a6 3d d2 fa ef bc bf e4 33 bc
       -0.018762223 0.08129438 -0.029294405 -0.01097983
0002d0 90 8f 7b bc 57 be ab bd 5a e8 c8 3d ff c0 9b 3d
       -0.015354052 -0.08385914 0.098099425 0.076051705
0002e0 77 6a 59 bd 32 bf 8e 3c 58 0b 2b bd e2 9e b6 3d
       -0.05308005 0.017425153 -0.041758865 0.08917023
0002f0 89 e1 bd 3d 32 71 d3 bd 14 00 8b 3d 06 76 7f 3d
       0.09271533 -0.10324325 0.06787124 0.062368415
000300 ce 81 a3 bd 52 3d 43 bc b6 0b af bc 99 42 fa bd
       -0.07983743 -0.011916475 -0.021367889 -0.12219734
000310 8f 0a ef bc 48 d5 d9 bd b4 0b fc 3c 6b 65 ef 3d
       -0.02917984 -0.10636383 0.0307673 0.11689266
000320 21 e3 d0 bd b3 44 aa 3c 82 ac 8f bd b0 9d c6 bc
       -0.101995714 0.020784711 -0.07015325 -0.024245113
000330 b2 af 88 3d fa 99 e5 bd b0 f0 ca bd 35 85 ce 3d
       0.06674136 -0.11211009 -0.09909189 0.10084001
000340 60 44 0e be 7f da 6c 3c 87 00 3b 3c 18 d4 16 3c
       -0.1389327 0.01445639 0.0114137 0.0092058405
000350 ca 4b c4 bd 02 8d 6f 3d 91 2b 9d 3d 58 30 21 3d
       -0.09584768 0.058484085 0.07674325 0.039352745
000360 20 b5 6c 3b 83 13 a6 3d 4a d9 11 bb d5 0a 05 3e
       0.00361187 0.0810919 -0.0022254759 0.12992413
000370 27 2a 27 be b1 b8 e6 bd d4 d9 98 bd bf 48 56 3d
       -0.16324674 -0.11265696 -0.074634224 0.05231547
000380 f5 44 b6 3d 71 69 b9 3d 06 e3 d5 bc 71 13 13 3d
       0.08899871 0.090533145 -0.02610923 0.035907213
000390 1d 7d ae 3c a5 60 e6 3d f3 a3 ec 3d 48 0d a7 bc
       0.021299893 0.11248902 0.11554708 -0.020392075
0003a0 ab 99 7d 39 10 f8 00 be 85 2b fe 3c 86 00 dc bd
       0.00024185206 -0.12594628 0.031026611 -0.10742287
0003b0 37 24 b6 bd a5 97 92 3d b5 b2 09 bd ab 12 d9 bd
       -0.08893626 0.0715783 -0.033617694 -0.10599264
0003c0 54 c7 3b bd dc c7 7b bd 51 16 b3 3d 7e 83 8a bd
       -0.04584439 -0.061469898 0.08744491 -0.067633614
0003d0 55 2d 73 bd 1e fb 9a bc 98 e8 c7 3b 58 e4 a1 3d
       -0.059369404 -0.01891857 0.0061007254 0.07904881
0003e0 11 a6 e2 bd 6f d1 1d 3c 9c 43 08 be c1 3e 1c bd
       -0.11066831 0.009632452 -0.13307041 -0.038145784
0003f0 48 09 e0 3d 50 aa f5 3b 1e bd f5 3d 1c aa 9b bb
       0.1093927 0.0074971095 0.11998962 -0.004750503

GCN_Layers.0.W1.bias f4 [64]
000000 23 73 36 3d f9 19 19 3b 83 15 34 3c f8 fb a3 bc
       0.044543397 0.0023361428 0.010991457 -0.020017609
000010 ef c2 e5 3c 78 82 5a bd a4 09 ff 3b 7b 63 be 3d
       0.028047053 -0.05334708 0.0077831317 0.09296318
000020 11 86 78 3d 0f c2 ea bd 2b 4a bb bd 98 04 4f 3d
       0.06067473 -0.11462795 -0.09145006 0.05054149
000030 22 3b c6 bd ca 5c 8f 3d 86 42 fc 3d 3e 6d 21 bd
       -0.096792474 0.0700012 0.12317376 -0.039410822
000040 ab 78 0c 3d 6d 12 d0 3d a2 50 f1 3d 95 69 83 3d
       0.034294765 0.101597644 0.117829576 0.064166225
000050 a6 54 5f bd 3c 40 62 bd 4f 31 27 bc ac fc f1 bc
       -0.054524086 -0.05523704 -0.010204627 -0.029539429
000060 bb 9f ac 3b a1 9c 86 3d 2a cf 1f bd ea 1b 19 bd
       0.005268065 0.06572843 -0.039015926 -0.037380137
000070 f1 15 05 3d ee 9d 74 3d ef e9 16 bd 53 57 e1 3d
       0.032491628 0.059720926 -0.03684419 0.11002984
000080 0e eb 19 3d cc a3 01 bd 24 12 0e 3d 9f 0c c0 bc
       0.03757768 -0.03165035 0.03468527 -0.023443518
000090 cf 33 2d bd a1 8a 5e bd 1d 4b eb bd 42 fc ed 3c
       -0.042285737 -0.054331426 -0.11488936 0.02905095
0000a0 ed 80 9f bc 91 c1 5b 3d 33 af f7 bd e8 fd 78 bc
       -0.019470656 0.053651396 -0.120939635 -0.015197255
0000b0 7d 19 5b 3d 6d a0 93 bd c4 45 0a bd ec 31 cd bc
       0.053491104 -0.07208333 -0.03375794 -0.025048219
0000c0 53 8c 00 3e 51 19 89 3d 0f 7a 9e bd 27 35 3f 3d
       0.1255353 0.06694282 -0.077381246 0.04668155
0000d0 77 80 0e 3c 8a 51 48 3d 04 03 95 39 bb e3 1c 3d
       0.008697621 0.048905887 0.0002842174 0.03830312
0000e0 3f 78 87 bd 50 41 85 bd 14 b6 b9 bd 0b 1a 84 bd
       -0.06614732 -0.06506598 -0.09067932 -0.0645028
0000f0 40 25 a7 3d 60 8f 63 bd 0b d4 16 3c 3e 48 13 bd
       0.08161402 -0.055556655 0.009205828 -0.035957567

GCN_Layers.0.W2.weight f4 [64, 64]
000000 45 6f dc 3b 71 eb 27 3b 80 71 4f 3a cc 07 1c bc
       0.0067271315 0.0025622512 0.0007913336 -0.009523343
000010 73 04 85 3c 78 df 33 3c bc 99 82 bc cb f7 76 bb
       0.016237473 0.010978572 -0.015942447 -0.0037684317
000020 f8 b9 a2 bb 1e 09 c2 bb 85 10 6e 3b 93 86 e4 3b
       -0.004966017 -0.005921497 0.0036325764 0.0069740503
000030 26 fc e6 ba ca ac 1b bc 1b 63 a8 3b 02 e7 05 3c
       -0.0017622754 -0.009501645 0.0051387674 0.008172752
000040 c2 dc d8 bb 8d 3d da bc 54 51 a0 bb 2d 58 1b 3c
       -0.0066181133 -0.026640678 -0.0048925076 0.009481472
000050 2a 23 b7 3b 07 3e 05 3b 25 50 17 3b db 11 9a bb
       0.0055889087 0.002033116 0.0023088541 -0.0047018356
000060 02 24 35 3b ad 10 66 bc a8 dd 8f 3b 76 00 08 3b
       0.002763987 -0.014042062 0.004390437 0.0020752228
000070 47 ba 92 3b 5d c1 92 3b e6 23 bb 3b f0 74 af bb
       0.0044777724 0.004478617 0.0057110665 -0.005354516
000080 66 dd e7 3d 26 32 63 bd 22 73 ba 3d de c1 ab bc
       0.11321525 -0.055467747 0.09103991 -0.020966467
000090 10 35 cc 3a 6b 15 c4 3d 37 10 3c 3d 3a b8 ab 3d
       0.0015579779 0.09574398 0.0459139 0.08384748
0000a0 f5 5a c2 bb 2a 6f 80 bb 04 62 67 bd 53 74 18 3c
       -0.005931253 -0.003919502 -0.05648996 0.009305078
0000b0 72 16 19 3d 97 81 04 3d c9 ea ce bb be b3 58 3d
       0.03737492 0.03235015 -0.0063146097 0.05290579
0000c0 d9 8a 4b 3c 7a 06 fe bc 51 14 8a 3d 4e 76 17 3c
       0.012423241 -0.031008948 0.06742156 0.009244515
0000d0 85 d6 0a bd 35 b7 8e 3c b3 fa 11 3e 75 73 8b 3c
       -0.033895988 0.017421344 0.1425579 0.017022828
0000e0 15 4c b7 3c e5 3e a4 bc 3d 5b 9f bc 97 0d 70 bc
       0.022375146 -0.020049522 -0.019452685 -0.014651678
0000f0 81 cf 51 bc b5 79 6e bd bb 94 f3 bc 96 36 af 3d
       -0.01280582 -0.058221538 -0.029734006 0.08555333
000100 c8 62 c7 bb 92 05 81 bb ff 9e c5 3b 1b 67 b7 3b
       -0.0060847737 -0.0039374316 0.0060309167 0.005597008
000110 8b b4 44 ba 5a 17 3d 3c ad 06 59 bc 92 76 dd 3b
       -0.00075037096 0.011541212 -0.013246221 0.0067585194
000120 d0 5e e3 bb 0b da 66 3c 58 34 ae bc b5 75 41 bb
       -0.0069387928 0.014090071 -0.021265194 -0.0029519622
000130 6c 59 f7 3b 9c 94 89 bb 82 10 32 bb 83 a4 a5 ba
       0.0075485017 -0.004198624 -0.0027170484 -0.0012637529
000140 4d a1 0c bc 9a ab bf bb e7 3b 9a 3b cf e1 02 bc
       -0.008583379 -0.005849314 0.004706848 -0.007988407
000150 af a3 ef bb c3 64 d6 3b d2 d4 09 bb e6 7e 8a 3a
       -0.007313214 0.0065427735 -0.0021031392 0.0010566383
000160 e2 85 f9 b9 ac 4e 6c 3c a7 c1 6d 3b 84 f1 8a 3b
       -0.0004759273 0.014423054 0.0036278756 0.0042402167
000170 6a 4c ad 3b 3a 61 0f 3b 46 0e cc bb d6 97 7d 3b
       0.0052886503 0.002187802 -0.0062272875 0.0038695238
000180 07 ba 44 3c f8 7b a7 bd f8 42 49 be 09 1b fd bb
       0.012007243 -0.08177942 -0.19654453 -0.00772417
000190 d6 d9 1d bd 51 3e f9 3c 31 2b 40 3c 9c c7 b8 3c
       -0.038537823 0.030425223 0.011729048 0.022556119
0001a0 28 f1 bb bd e5 6f 47 3d b2 e1 0d 3c fc 89 2e 3d
       -0.09176856 0.048690695 0.008659767 0.04261206
0001b0 c2 10 cd 3d 49 35 f9 bc 09 2b 08 3d 5f e3 23 bd
       0.10012962 -0.030420916 0.033244167 -0.04001176
0001c0 43 42 e7 bd d8 ed 2a bb 49 ca 32 bd 3a b0 59 3d
       -0.11291935 -0.0026081707 -0.043649945 0.05314658
0001d0 bc 45 43 3d e6 98 a9 3d 5d db d2 3c 7a 5f 05 bd
       0.047673926 0.08281116 0.025739366 -0.032561757
0001e0 cf 1f 3e 3d d0 1c 07 bb 96 c6 df 3b de 81 95 3d
       0.046417054 -0.0020616539 0.006829093 0.07300161
0001f0 ac 34 de 3d 47 36 d4 bd 80 b1 29 bd 08 25 61 bd
       0.1084989 -0.10361915 -0.041429043 -0.054966956
000200 26 66 2f bb ca 63 0d 3b 28 a2 3b 3b 0b 62 77 3b
       -0.0026763766 0.0021574371 0.0028630588 0.0037747647
000210 d8 85 55 ba eb 06 22 3c 4f 6c 0b bb 9b a9 1d 3c
       -0.00081452494 0.009889345 -0.0021274274 0.009622957
000220 e4 e4 88 3b dc 77 b5 3a 5c 47 0f 3b d8 2f b4 3a
       0.0041776765 0.0013844925 0.0021862602 0.0013747169
000230 78 3a 92 36 26 a5 d3 bb c5 86 34 3b 72 48 fa b7
       4.3579457e-06 -0.006458896 0.002754615 -2.9836057e-05
000240 7c 73 c1 3a af 59 be bb b7 1a b1 bb e4 db 90 ba
       0.0014759148 -0.005809031 -0.005404796 -0.0011051861
000250 bc 9d 87 3b 61 3b cb 3b ca b5 6b bb f0 a4 86 bb
       0.0041386764 0.006202147 -0.003596651 -0.0041090176
000260 ad 24 95 39 99 7f 05 bb 60 23 2f 3b 3e ab be ba
       0.0002844682 -0.0020370244 0.0026723966 -0.0014546884
000270 e4 88 90 3a 1e 2e 56 bb 31 28 4b ba 5d d4 82 bb
       0.0011027125 -0.0032681297 -0.00077498244 -0.003992601
000280 3d 33 7d 3d c1 c9 76 bd f6 3b 8b bc 65 79 f2 3c
       0.061816443 -0.060251 -0.016996365 0.029598901
000290 ad 03 fc 3b 67 7e 82 3d 49 a6 46 3b 53 a1 95 bd
       0.007690868 0.063717656 0.0030311516 -0.07306161
0002a0 9d e3 55 bc 25 dd f4 3c b4 3b 93 bc 6a a4 85 b8
       -0.0130547555 0.029890606 -0.017972805 -6.372559e-05
0002b0 ce 3e 7b 3c 2f 2c 16 3d 83 3d 83 3b 0b b8 37 3d
       0.015334798 0.03666323 0.0040051355 0.04485325
0002c0 d0 43 91 3c b5 d0 c5 3c 82 8a b0 3a fa df db 3c
       0.01773253 0.02414737 0.0013469013 0.026840199
0002d0 15 b0 02 3d 77 44 3f 3c 85 8b a3 3d b0 91 9a bc
       0.031906206 0.011674038 0.079855956 -0.018868297
0002e0 85 7e cb 3c 1a 8b 1d bc 24 26 a1 ba ad 75 5b 3c
       0.024840603 -0.009615684 -0.0012294692 0.013394755
0002f0 79 24 6c 3c 6f b0 f0 3c 59 f6 ce 3c ca 87 92 bd
       0.014412993 0.029381005 0.025263952 -0.07154806
000300 25 5e b5 ba 98 d9 99 3b 01 5b 51 3c 2b f0 6f bb
       -0.0013837261 0.0046951286 0.012778045 -0.0036611657
000310 45 63 5b 3b 84 fa 0e 3c 42 c9 7e bc e3 b0 00 bc
       0.0033475917 0.00872672 -0.015550913 -0.007854673
000320 63 e7 10 bc b6 54 00 bc 2b 7b ea 3b 4a 02 f7 3b
       -0.008844229 -0.007832697 0.007155796 0.0075381147
000330 10 9e 77 bb 9e 29 d9 bc 2c 8c 42 bc 93 f3 42 3b
       -0.0037783422 -0.026509102 -0.01187424 0.0029747232
000340 22 e5 0a 3a 92 6a 79 bc df 37 bc bb 97 23 1b 39
       0.00052984257 -0.015223162 -0.005743965 0.0001479521
000350 76 83 f8 3b 06 66 3f bb a2 ca 11 bc d2 77 3a bc
       0.0075840307 -0.0029205098 -0.008898409 -0.011381106
000360 fd 97 a5 3b aa 44 1b bc 69 7f dd ba 4a af 2d 3a
       0.005053519 -0.00947682 -0.0016898933 0.00066255464
000370 d5 93 45 3b ba b6 83 3b 42 28 7e 3b 41 ec 8c bc
       0.003014793 0.0040195854 0.003878132 -0.017202498
000380 14 51 47 bd d2 78 c9 bd af e3 60 3c 45 d2 37 bc
       -0.048661307 -0.09837498 0.013726159 -0.011219566
000390 40 13 3b bc 4c 89 7f bb 7c 27 44 3d 06 45 3b 3c
       -0.011418164 -0.0038991747 0.047889218 0.011430031
0003a0 b0 17 8e bd 50 34 5f bc 96 96 b5 bc a4 2f 60 3d
       -0.06938112 -0.013623312 -0.022166532 0.054732934
0003b0 f1 01 92 3c 7c b9 68 bd 86 98 d5 bb 51 6f 44 bd
       0.017823191 -0.056817517 -0.0065184264 -0.047957722
0003c0 04 ca 93 ba ea cb fd bc 32 13 b4 bc 02 57 a0 bd
       -0.0011275415 -0.030981023 -0.02198181 -0.078290954
0003d0 b4 5c b7 3d 5d 65 b6 3b d8 16 04 3c 90 72 c1 bc
       0.089532286 0.0055662827 0.008062087 -0.023614198
0003e0 12 b6 b4 bd d2 55 40 bc 85 8d f9 3a 52 17 fa bb
       -0.0882379 -0.011739211 0.0019039368 -0.0076321745
0003f0 b1 9b ca 3c cc 46 81 3c bc f4 85 bd 3e 39 6f bd
       0.024732443 0.015780829 -0.0654082 -0.0584042

GCN_Layers.0.W2.bias f4 [64]
000000 d3 ca 6f bd db 60 05 bd 2b b5 c1 bd 8e d6 a5 3d
       -0.058543038 -0.03256307 -0.09458383 0.08097564
000010 67 81 b3 bc a8 3d 41 3c ec a0 e8 bd 51 20 0d bd
       -0.02191229 0.011794485 -0.113588184 -0.034454647
000020 c9 d6 44 bd 72 a8 85 bc ab 95 b1 bd f1 2f 96 bd
       -0.048056398 -0.016315673 -0.08671125 -0.07333363
000030 05 21 ac 3d d9 b3 c3 3c 91 52 37 bb de 77 d9 39
       0.084047355 0.023889469 -0.0027972797 0.00041478773
000040 f2 b3 77 bc d2 f0 9d bd 3c 2a 31 bd 19 80 58 bc
       -0.015118586 -0.077119485 -0.04325317 -0.013214135
000050 c7 12 ce 3d 5c 0c be bd a4 97 d6 3d 2b 9e 97 3d
       0.10062175 -0.09279701 0.10478142 0.07403215
000060 de c7 0f 3e bb 89 70 bd 4a e3 45 3d d6 f5 f7 bc
       0.14041087 -0.0587251 0.048312463 -0.03026859
000070 54 ed 49 bc 4d 44 cb 3c bd c1 82 3c 01 62 2c 3d
       -0.01232465 0.024812842 0.015961522 0.04208565
000080 2b ae 92 bd 30 ce 30 bc 3a f8 13 3b 58 81 9d 3d
       -0.07162126 -0.010791346 0.0022578374 0.07690686
000090 bd 94 98 bd d9 53 51 3d e7 3c d3 3d 4c 51 8e bb
       -0.074502446 0.051105354 0.103143506 -0.0043431874
0000a0 49 09 d8 bd c0 61 dd 3a 6c e3 ae bd 23 b6 bb 3d
       -0.10548646 0.0016890094 -0.08539471 0.09165599
0000b0 c0 2e 69 3d e9 01 1a 3d 56 83 a8 bb f7 83 79 3b
       0.05692935 0.037599478 -0.0051426096 0.0038073042
0000c0 d4 41 45 bd 05 f2 a8 bd 8b 6a a1 3d 8a d0 26 3b
       -0.04815848 -0.082492866 0.078816496 0.0025453889
0000d0 61 47 9d bb 80 38 75 bd 4a 99 53 3d b9 7c 61 3d
       -0.004799769 -0.059868336 0.05165986 0.055050585
0000e0 20 b4 3e bd 59 b8 f6 3d 8a ed 80 3d 8d 54 8a bc
       -0.0465585 0.1204688 0.06295307 -0.01688602
0000f0 18 30 d2 bd 7b dd 41 3d 2b 3d 23 bc e7 d5 0f bd
       -0.102630794 0.04733036 -0.009963314 -0.035116103
