lab4-student/code/model/bestModelParms-11-14-19-11.pth (torch, 498345 bytes, 20 tensors)

user_id_embedding.weight f4 [900, 32]
0	0x3fd575f8	1.6676626
1	0xbebe06a2	-0.37114435
2	0xbf655768	-0.89586496
3	0x3c3a317c	0.011364337
4	0xbe98eff0	-0.29870558
5	0x3e572e59	0.21013774
6	0xbfb5c4c3	-1.4200672
7	0xbf4708a1	-0.7774754
8	0xbeb3545f	-0.35025308
9	0x3ea44728	0.32085538
10	0x3ef8e527	0.4861233
11	0x3e5b4249	0.21412005
12	0x3e54b92e	0.20773765
13	0x3f29f386	0.6638721
14	0xbf85dbca	-1.0457699
15	0xbf79c2f4	-0.975631
16	0xbfe6ebe5	-1.8040739
17	0x3ee79226	0.4522869
18	0x3d9e073d	0.07716224
19	0xbf54a9e7	-0.8307175
20	0xbe593354	-0.21210986
21	0x3e43ab82	0.19108394
22	0xbf1f8de1	-0.62325865
23	0xbfae7f37	-1.3632573
24	0xbdd81f59	-0.10552854
25	0xbf353aa6	-0.70792615
26	0xbf69b9b9	-0.91299015
27	0xbdec37e3	-0.11534097
28	0x3e684129	0.22681107
29	0xbe990601	-0.29887393
30	0x3eb97751	0.36223844
31	0x3dbfeb64	0.09371069
32	0x3cefb52d	0.029261196
33	0x3f8c48df	1.0959738
34	0xbe6587d0	-0.2241509
35	0x3f64d35d	0.89385015
36	0x3e99704b	0.29968485
37	0xbf880922	-1.0627787
38	0xbe355b36	-0.17710575
39	0xbf0e6298	-0.5561919
40	0x3bec7fad	0.0072173686
41	0xbe2d16b3	-0.1690319
42	0x3f6b9477	0.92023414
43	0xbbcd5a4d	-0.006266868
44	0xbd879629	-0.06620438
45	0xbf040322	-0.5156728
46	0x3e4baef9	0.19890966
47	0x3f302d4e	0.6881913
48	0xbf61aaa1	-0.88150984
49	0x3b228614	0.0024799155
50	0xbf4374c0	-0.7635002
51	0x3e5cba27	0.21555386
52	0xbf7379d9	-0.951078
53	0x3edddd71	0.4333301
54	0x3ecd3f08	0.40087152
55	0x3fe10ce4	1.7582059
56	0xc00d5ac5	-2.2086651
57	0x3fb55f7b	1.4169763
58	0xbf93749f	-1.1519965
59	0xbd5cd934	-0.05391808
60	0x3d574e7c	0.052565083
61	0x3fe6533f	1.7994155
62	0x3f5bc9ed	0.8585499
63	0xba198b34	-0.00058572297
64	0xbd1b72e6	-0.037951373
65	0xbf3538c5	-0.7078975
66	0xbf14cf6b	-0.58128995
67	0x3c98efd2	0.018669043
68	0xbd60bb53	-0.054866146
69	0x3f78cac7	0.97184414
70	0xbd01d42c	-0.031696483
71	0xbe62aa76	-0.22135338
72	0x3fabfabb	1.3435892
73	0xbedd8908	-0.4326861
74	0xbe9674da	-0.29386026
75	0x3d0af5c0	0.03392577
76	0xbfcccca2	-1.5999949
77	0xbeca5b57	-0.39522812
78	0xbc8262b2	-0.015916202
79	0xbf36f919	-0.7147384
80	0x3f430a8c	0.7618797
81	0xbed48257	-0.4150569
82	0xbfbf62a8	-1.4951982
83	0x3f46af84	0.77611566
84	0x3cd62a35	0.026143173
85	0xbf19e140	-0.6010933
86	0xbf7bd640	-0.98373795
87	0x3f09be41	0.5380593
88	0xbba22530	-0.0049482808
89	0x3f912b64	1.1341367
90	0xbefd73d4	-0.49502432
91	0xbec35621	-0.3815165
92	0xbd4e8329	-0.050418053
93	0x3b46e3fe	0.0030348296
94	0x3e9d5038	0.30725265
95	0xbf932673	-1.1496109
96	0x3fb0c41d	1.3809849
97	0x3f58520d	0.845002
98	0x3eec9830	0.4620986
99	0xbc600d49	-0.013675042
100	0x3fa8b967	1.318158
101	0xbf141f13	-0.57859915
102	0x3f15b927	0.58485645
103	0xbea1ae80	-0.31578445
104	0xbf9da0f6	-1.2314746
105	0xbf6270b8	-0.88453245
106	0x3f82c5a8	1.021657
107	0x3f575637	0.8411593
108	0x3f7a85b4	0.97860265
109	0x3ea3d472	0.3199802
110	0xbedcac41	-0.4310017
111	0x3eecfc19	0.46286085
112	0xbe6abe4c	-0.22924155
113	0x3b2d3025	0.0026426401
114	0xbca9ec93	-0.02074269
115	0x3f74fc46	0.9569744
116	0x3cd4124e	0.025887635
117	0xbe93f82f	-0.28900287
118	0x3e6b24e6	0.22963294
119	0xbf131334	-0.57451177
120	0xbf29b60e	-0.6629342
121	0xbc8dd0ef	-0.017311541
122	0x3b599532	0.00332005
123	0x3fb4d9ac	1.4128928
124	0x3b77f22c	0.0037833555
125	0xbce66a68	-0.02812691
126	0x3ed8303b	0.42224297
127	0xbe317c72	-0.17332628
128	0xbe02d1dc	-0.12775367
129	0x3df6d3b8	0.12052101
130	0xbf2230b9	-0.63355595
131	0xbf46442d	-0.7744778
132	0x3cb8ea1f	0.022572575
133	0x3fbb05ee	1.4611185
134	0x3fadc5e3	1.3576015
135	0x3f09113b	0.53541917
136	0xbc29dfaa	-0.010368267
137	0xbf896e95	-1.0736872
138	0xbe8b736f	-0.27236506
139	0xbf635abc	-0.88810325
140	0xbd00962c	-0.031393215
141	0x3f6c5135	0.9231141
142	0x3f5ece9a	0.87034
143	0x3f125965	0.57167655
144	0xbcda35b6	-0.02663694
145	0x3f0e8cac	0.556834
146	0xbe9f565e	-0.3112058
147	0xbe94f492	-0.29092842
148	0xbe8c43a8	-0.27395368
149	0xbd6d8deb	-0.05799667
150	0x3e0be0aa	0.13659921
151	0x3bddde78	0.006770905
152	0xbf0633a7	-0.52422565
153	0x3f517fa4	0.8183539
154	0xbf60cd9e	-0.87813747
155	0x3f88c465	1.0684935
156	0xbe65fc3f	-0.22459505
157	0x3f2a287a	0.6646801
158	0x3fa6e25a	1.3037827
159	0x3f2d1101	0.6760407
160	0xbe8666ff	-0.26250455
161	0x3ebf13c3	0.37319764
162	0xbfdc2e4d	-1.720163
163	0xbfae333a	-1.3609383
164	0xbf7250d2	-0.9465457
165	0x3e9cf7d8	0.3065784
166	0x3fe2d7b2	1.7722075
167	0x3f4ed241	0.8078957
168	0xbeb25c59	-0.3483608
169	0xbf94a290	-1.161211
170	0xbf827dc0	-1.0194626
171	0xbe0698c8	-0.13144219
172	0xbfdf7623	-1.7457927
173	0x3fefd3bc	1.8736491
174	0xbf7a2be4	-0.9772322
175	0xbdbb4b1d	-0.09145186
176	0x3dc8b9a5	0.09801034
177	0xbdc8c65d	-0.0980346
178	0x3fc63928	1.5486193
179	0xbf2a2711	-0.6646586
180	0xbd7dadd5	-0.061933357
181	0x3f3bc573	0.7334816
182	0xbddb16c2	-0.106977
183	0x3c793819	0.015211129
184	0xbfad6d17	-1.3548917
185	0x3e0fc356	0.14039358
186	0xbfdbaffd	-1.7163082
187	0xbd2b5c8f	-0.041836318
188	0x3e2f5fcd	0.17126389
189	0xbcccfabb	-0.025021901
190	0x3f84fd0a	1.0389721
191	0x3f1be561	0.6089688
192	0x3f271f1b	0.6528184
193	0xbf90315e	-1.1265066
194	0x3e4e1ce7	0.20128213
195	0x3f6746e6	0.9034256
196	0x3f5fe8e5	0.87464744
197	0xbfbfc691	-1.4982473
198	0xbfc36365	-1.5264708
199	0x3f472401	0.7778931
200	0xbf1a7908	-0.6034093
201	0xbe2a83e5	-0.16651876
202	0x3f78d483	0.9719927
203	0x3cd91924	0.026501246
204	0x3f3cafd0	0.7370577
205	0x3f68ca32	0.90933526
206	0xc00641d3	-2.0977676
207	0xbe6a3527	-0.22871839
208	0x3e195c4b	0.14976613
209	0xc03b91e7	-2.9307802
210	0xbf23ebb2	-0.6403152
211	0xbf85149d	-1.0396916
212	0xbe49b083	-0.1969624
213	0x3c3c998b	0.011511217
214	0xbf697f6e	-0.9121007
215	0x3d80e114	0.0629293
216	0xbca16cac	-0.01970514
217	0x3f3fc628	0.7491174
218	0xbd3c3b41	-0.045954946
219	0xbf893c95	-1.0721613
220	0xbfc7ef1c	-1.5619845
221	0x3db697f1	0.08915699
222	0x40170906	2.3599257
223	0xbb404e0f	-0.0029343402
224	0x3f43f3eb	0.76544064
225	0xbc9ea737	-0.019366844
226	0x3c8adcd7	0.016951008
227	0x3ef73c91	0.48288396
228	0x400efae7	2.2340639
229	0xbf1600d2	-0.58595
230	0x3ee857ef	0.45379588
231	0xbdc70d27	-0.097193055
232	0x3d664df8	0.0562267
233	0x3f84f1af	1.0386256
234	0xbfe548de	-1.7912862
235	0xbf07ae5f	-0.53000444
236	0xbd156ab3	-0.03647871
237	0x3f1a079e	0.6016787
238	0xbe54ed77	-0.2079371
239	0x3fa65f47	1.2997826
240	0xbf1dfe7f	-0.61716455
241	0xbf41284c	-0.75452113
242	0xbf9d2890	-1.2278004
243	0xbe6549d8	-0.2239145
244	0x3f9c4ef4	1.2211595
245	0xbf2b0618	-0.66806173
246	0x3f7ce54d	0.98787385
247	0xbde4632e	-0.111517295
248	0xbe4d2200	-0.20032501
249	0x3c65c283	0.014023426
250	0xbc90a1ed	-0.017655337
251	0xbd443275	-0.047899682
252	0x3ec7cf37	0.3902528
253	0xbd5b6289	-0.053560767
254	0x3f1e66b5	0.6187547
255	0xbfcdc0b1	-1.607443

user_age_embedding.weight f4 [5, 4]
0	0x3f1d03c6	0.6133388
1	0x3f089296	0.5334867
2	0xbfe1709b	-1.761249
3	0x3f9df415	1.2340113
4	0x3f239f25	0.6391471
5	0xbfe4ac48	-1.7865076
6	0xbf1af3c8	-0.6052823
7	0x3ef82864	0.48468316
8	0x3eb72aec	0.35774934
9	0xbee7cd80	-0.45273972
10	0x3e15bdc9	0.14623179
11	0xbf1cb4c5	-0.6121333
12	0x3fb5d9b7	1.4207066
13	0x3f1d6059	0.6147514
14	0x3f7ecfbd	0.99535733
15	0x3ed6f162	0.41981035
16	0xbdb68e0e	-0.089138135
17	0x3efb824e	0.49122852
18	0x3f9fe475	1.2491595
19	0xbfc84cc3	-1.5648426

user_gender_embedding.weight f4 [2, 2]
0	0x3d3bb918	0.045830816
1	0x3e9c9580	0.3058281
2	0xbfcd6c33	-1.6048645
3	0x3ed46de4	0.4149009

user_occupation_embedding.weight f4 [21, 8]
0	0x3e4f8bcd	0.20268174
1	0x3f8db878	1.107192
2	0xbf655740	-0.8958626
3	0x3e1febf0	0.15617347
4	0x3f43b010	0.76440525
5	0x3ed2cab6	0.4117028
6	0x3ff635d5	1.9235178
7	0x3f87fe25	1.0624434
8	0xbd3df8a6	-0.046379708
9	0xbfbe3b55	-1.4861857
10	0x3f56cdf0	0.83907986
11	0xbf01b51d	-0.5066698
12	0xbfaae87f	-1.3352202
13	0x3f137973	0.5760719
14	0xbecb0cf7	-0.3965833
15	0xbf011468	-0.5042176
16	0x3f7db573	0.99104995
17	0xbf54f07f	-0.8317947
18	0x3fa35cf9	1.2762748
19	0x3ebdf31b	0.37099537
20	0x3f6b0654	0.9180653
21	0xbf758fd2	-0.9592258
22	0xbeca123f	-0.39467046
23	0x3f289f3a	0.6586796
24	0x4015c29e	2.3400035
25	0x3ded0894	0.11573902
26	0xbff06a5a	-1.8782456
27	0x40074c3a	2.1140275
28	0x3e250243	0.16114144
29	0xbddf74ff	-0.10910987
30	0xbf510826	-0.8165306
31	0xbf4fa3e7	-0.8110947
32	0x3f19ea6d	0.6012333
33	0xbf9565d9	-1.1671706
34	0xbf50ad1b	-0.8151414
35	0x3ed029b0	0.40656805
36	0x3f0ef8df	0.558485
37	0xbf93992d	-1.153112
38	0x3f0861a5	0.53273994
39	0xbf98348b	-1.1891035
40	0xbfb53a0c	-1.415834
41	0xbedc8f73	-0.43078193
42	0x3d4ab291	0.0494867
43	0xbe308717	-0.17239033
44	0xbe942152	-0.2893167
45	0xbfa94563	-1.32243
46	0x3f2e1abc	0.68009543
47	0xbec7ad6a	-0.38999492
48	0x3eaf88a6	0.34283942
49	0xc01a9068	-2.4150639
50	0x3f19d092	0.6008388
51	0x3edf1f76	0.4357869
52	0xbf3549c4	-0.7081568
53	0x3f4c3e1a	0.7978226
54	0x3d72f6fe	0.05931758
55	0x3f336a2c	0.7008388
56	0x3e1d6872	0.15371874
57	0x3f3294ed	0.6975849
58	0xbf455d2c	-0.77095294
59	0x3f808bf3	1.0042709
60	0xbe9945fc	-0.29936206
61	0x3e62cda6	0.22148761
62	0x3f3bdbcc	0.7338226
63	0x3f36eb15	0.71452457
64	0xbde1c42a	-0.110237435
65	0xbf67f62a	-0.9060999
66	0x3f11f324	0.5701163
67	0x3dab8da6	0.08376627
68	0xbebc7f01	-0.36815646
69	0xbf973a09	-1.1814586
70	0x3f72def2	0.9487144
71	0xbea2d422	-0.3180247
72	0x3f74d141	0.95631796
73	0xbeb6044e	-0.3555016
74	0x3e3743df	0.17896985
75	0xbf431bbd	-0.762142
76	0xbf00a33a	-0.50249064
77	0xbea632a2	-0.32460505
78	0x3f9c78ec	1.2224402
79	0x3f277b0b	0.65422124
80	0xbd05897a	-0.03260181
81	0xbf2b8b6c	-0.67009616
82	0x3ebaf7b1	0.365171
83	0xbf0abb2d	-0.5419186
84	0x3f4aa3ee	0.79156387
85	0xbf1377cd	-0.57604676
86	0xbf748b82	-0.9552537
87	0xbf566e1c	-0.83761764
88	0xbf0ef7c9	-0.5584684
89	0xbd7eebef	-0.062236723
90	0x3f38d0dc	0.72193694
91	0xbdd9d60e	-0.10636531
92	0x3fb4fd44	1.413979
93	0xbc8e89d9	-0.017399715
94	0xbf386ced	-0.7204121
95	0x3eee5a12	0.46553093
96	0x3fee0e6c	1.8598151
97	0x3fd10760	1.6330376
98	0x3f85c0fe	1.0449522
99	0xbf8a83fb	-1.0821527
100	0xbf48617c	-0.7827375
101	0xbd11fbb4	-0.035640433
102	0x3d1b6fff	0.037948605
103	0xbf58e6f2	-0.84727395
104	0x3e794608	0.24343121
105	0xbf7b3108	-0.9812169
106	0x3f314b13	0.6925518
107	0xbe248edd	-0.16070123
108	0x3f171679	0.59018666
109	0x3f9d0b4a	1.226907
110	0x3e04614d	0.12927742
111	0x3f1beef0	0.60911465
112	0x3e7cbce5	0.24681433
113	0x3fa0c866	1.2561157
114	0x3f300f66	0.68773496
115	0xbe392ee0	-0.18084288
116	0xbee2b290	-0.44276857
117	0xbf7b00c7	-0.9804806
118	0x3de54e0a	0.111965254
119	0xbe84a0d4	-0.25903952
120	0x3f4aacb2	0.7916976
121	0x3f86f069	1.0542117
122	0xbe3905ee	-0.18068668
123	0xbee579e6	-0.44819564
124	0xbe224d6c	-0.15849847
125	0x3ff7f790	1.9372425
126	0x3f325e1e	0.6967486
127	0xbe35f309	-0.17768492
128	0x3e148b8b	0.14506356
129	0x393ced3e	0.00018017457
130	0xbf4c855e	-0.79891
131	0xbef04d96	-0.46934193
132	0xbf234cec	-0.6378925
133	0x3ca23259	0.019799398
134	0xbd48386d	-0.048881937
135	0x3f04a10f	0.51808256
136	0x3f8a4c87	1.0804604
137	0x3e8ece17	0.2789161
138	0xbfe8f031	-1.8198301
139	0xbf18c9b3	-0.5968277
140	0x3fb543cd	1.4161316
141	0xbf434487	-0.7627644
142	0x3fbeb51b	1.4899019
143	0x3e01be44	0.12670237
144	0x3cd76cc5	0.026296983
145	0xbe07dbee	-0.1326749
146	0x3fabb0fa	1.3413384
147	0xbd832265	-0.064030446
148	0x3dc5a0cd	0.09649811
149	0xbfadff8a	-1.3593609
150	0xbeb29ae0	-0.34883785
151	0xbecdca25	-0.40193287
152	0x3f977c04	1.1834722
153	0x3f6899f1	0.90859896
154	0xc02bb45a	-2.6828828
155	0xbf72819a	-0.94729006
156	0xbefcfc39	-0.4941118
157	0xbf550fb0	-0.8322706
158	0x3f60c48e	0.8779992
159	0x3eb5ccb4	0.3550774
160	0xbe2dde95	-0.1697944
161	0xbfa9753e	-1.3238904
162	0x3f052def	0.52023214
163	0xbf44c03c	-0.76855826
164	0xbf275245	-0.6535991
165	0xbf2431b3	-0.64138335
166	0xbe834d05	-0.256447
167	0x3f419835	0.75622874

user_location_embedding.weight f4 [760, 18]
0	0x3e828b7b	0.2549704
1	0xbe90989d	-0.28241435
2	0xbedcec9f	-0.43149278
3	0xbf57da08	-0.84317064
4	0x3f759e6d	0.95944864
5	0x3f6d265d	0.9263666
6	0x3f038fa0	0.5139103
7	0x3f854631	1.0412046
8	0xbf4a2912	-0.7896892
9	0xbadcff9c	-0.0016860845
10	0xbf0e78ca	-0.5565306
11	0x3f1869a8	0.5953622
12	0xbeffeee3	-0.49986944
13	0xbf630fce	-0.8869599
14	0x3ea5a48f	0.3235211
15	0xbbccd9a0	-0.006251529
16	0x3fba58e6	1.455838
17	0xbe939e0d	-0.2883152
18	0xbb94ea6f	-0.004544548
19	0xbeca0679	-0.39458063
20	0xbcea7d77	-0.02862428
21	0x3ec29486	0.3800394
22	0xbc3c2292	-0.011482852
23	0x3d37e826	0.04489913
24	0x3d521a29	0.05129448
25	0x3edf9ea4	0.4367572
26	0x3d98f3ac	0.07468352
27	0xbf848030	-1.035162
28	0x3f84661e	1.0343664
29	0x3f57ae7e	0.8425063
30	0x3f3f0d6c	0.74629855
31	0xbf73c983	-0.9522936
32	0x3f241012	0.6408702
33	0xbc563a09	-0.01307536
34	0x3c20b139	0.009807878
35	0x3e44a749	0.19204439
36	0xbdc1bedc	-0.09460232
37	0x3f4ce527	0.8003716
38	0xbf28dbb9	-0.6596027
39	0xbf27ee94	-0.65598416
40	0xbf84520f	-1.0337542
41	0xbf0e5fa3	-0.5561468
42	0xbd086c67	-0.033306506
43	0x3f3afef9	0.7304531
44	0xbdcc782d	-0.09983859
45	0x3fc45ff4	1.5341783
46	0xbd4585cd	-0.048223305
47	0x3fb84ffe	1.4399412
48	0x3f4c4ca2	0.7980443
49	0xbbf9e5d9	-0.007626277
50	0x3d4558a8	0.048180252
51	0x40555ea7	3.3339021
52	0xbed9f949	-0.42573002
53	0x3ef2535b	0.4732922
54	0xbf328b01	-0.69743353
55	0x3eb0bd7f	0.34519574
56	0x3c203dc4	0.009780351
57	0xbe6d6678	-0.2318362
58	0xbfd4889e	-1.6604192
59	0xbfbc9f8f	-1.4736193
60	0x3fd808e1	1.687771
61	0x3f25ac6a	0.6471621
62	0xbf21a9d8	-0.63149786
63	0x3f9b4056	1.2129009
64	0x3f3090e2	0.68971074
65	0x3fd5f1ac	1.6714377
66	0xbf925440	-1.1431961
67	0x3f314b66	0.69255674
68	0xbf6166a2	-0.8804723
69	0x3d92cb7d	0.071677186
70	0x3e2cd836	0.16879353
71	0xbd06567f	-0.032797333
72	0xbeb8e9c6	-0.36115855
73	0xbe81dd65	-0.25364223
74	0xbefee5bf	-0.49784657
75	0x3bd60807	0.0065317187
76	0xbf6af5f4	-0.91781545
77	0x3f383525	0.7195609
78	0xbf2c284b	-0.6724898
79	0xbfc9705d	-1.5737416
80	0xbe019d17	-0.12657581
81	0x3ddb13fd	0.10697172
82	0xbfb70df3	-1.4301132
83	0x3fa917a8	1.3210344
84	0xbf8ed404	-1.1158452
85	0xbffb2643	-1.9621052
86	0xbf6077d1	-0.87682825
87	0x3f11791f	0.5682544
88	0x3ded343e	0.1158223
89	0x3ee0b40f	0.43887374
90	0x3dbcd350	0.09219992
91	0x3f50c18e	0.8154534
92	0xbee00d95	-0.43760362
93	0xbf1f633d	-0.622608
94	0x3cf12f20	0.029441416
95	0xbf094e51	-0.53635126
96	0xbc351dcf	-0.01105447
97	0xbf352cdc	-0.70771575
98	0x3f934ba7	1.1507462
99	0x3e39bdf7	0.18138872
100	0xbd30c524	-0.043156758
101	0x3fa99ee8	1.3251619
102	0xbcaa9dc7	-0.020827187
103	0x3ef1df2d	0.47240582
104	0xbec9a94b	-0.39386973
105	0xbe039b5d	-0.12852235
106	0x3f050be7	0.51971287
107	0x3f4dfcf2	0.8046409
108	0xbfa07a13	-1.2537254
109	0xbf773322	-0.965624
110	0xbfaaa56d	-1.3331734
111	0xbb856198	-0.004070472
112	0x40146d8a	2.3191857
113	0xbf1ac6ac	-0.604594
114	0xbb2e7b5d	-0.0026623823
115	0x3f51587c	0.8177564
116	0xbf003761	-0.500845
117	0x3e215e95	0.15758736
118	0xbf99c900	-1.2014465
119	0xbd8c72ad	-0.0685781
120	0xbef78e9e	-0.48350996
121	0xbf0e0892	-0.5548183
122	0x3e9c5bf4	0.30538905
123	0xbe037f08	-0.12841427
124	0xbd2436fc	-0.0400915
125	0xbdc1b151	-0.094576485
126	0x401a1916	2.4077811
127	0x3eb9e8bc	0.36310375
128	0xc02d3614	-2.7064257
129	0xbd53a1d8	-0.051668018
130	0xbb5b0b3d	-0.0033423447
131	0xbef85fbf	-0.48510548
132	0x3da564d4	0.08075872
133	0x3d93fe17	0.07226198
134	0x40129301	2.2902224
135	0xba8cb723	-0.0010735731
136	0x3cc1580a	0.02360155
137	0xbebd68a9	-0.36993912
138	0xbfc846b1	-1.5646573
139	0x3dd2e7e7	0.10298138
140	0x3f24cb2b	0.6437251
141	0x3bdc0167	0.0067140344
142	0xbea1aa9d	-0.3157548
143	0xbfdfab8d	-1.7474228
144	0xbe322e05	-0.17400368
145	0xbf4f22e9	-0.80912644
146	0xbeee79a1	-0.4657717
147	0xbf90718a	-1.1284649
148	0xbf21ce34	-0.63205266
149	0x3fa9a058	1.3252058
150	0xbf0e5c5a	-0.5560967
151	0xbe75b109	-0.23993315
152	0x3c0e0ecf	0.008670523
153	0x3e89a95a	0.26887017
154	0x3f5ec54e	0.87019813
155	0x3f890322	1.0704081
156	0xbefe4cee	-0.49668068
157	0xbe76a881	-0.24087717
158	0x3c970db2	0.018439148
159	0xbeebbe75	-0.46043745
160	0x3d1dc32d	0.038516212
161	0x3d854e78	0.06509107
162	0xbf01a6aa	-0.50644934
163	0x3d8df84c	0.069321245
164	0xbc62de81	-0.013846994
165	0xbdd6ef90	-0.10494912
166	0x3f78717b	0.9704816
167	0x3eebd8e0	0.460639
168	0xbf976b10	-1.1829548
169	0x3cacd598	0.021097943
170	0x3f6df79e	0.9295596
171	0x3ffbe359	1.9678756
172	0xbb82085f	-0.003968283
173	0x3e51fd46	0.20506772
174	0x3e2d8479	0.16945066
175	0xbee5ccb9	-0.44882753
176	0x3bbabdf4	0.0056989137
177	0x3cb6c5c2	0.022311095
178	0xbf95b3ed	-1.1695534
179	0x3cbcb52c	0.023035608
180	0x3cca1007	0.024665846
181	0x3f86203a	1.0478585
182	0xbf92d884	-1.1472325
183	0x3f722682	0.9459001
184	0x3fb7d31e	1.4361303
185	0x3f36f38d	0.7146538
186	0xbe82066c	-0.25395525
187	0x4000b134	2.0108156
188	0xbfa8a1a8	-1.3174334
189	0x3faf1352	1.3677771
190	0x3f8d5843	1.104256
191	0xbd5abb30	-0.053401172
192	0xbe8546ee	-0.26030678
193	0x3d4e1c21	0.050319795
194	0xbf40ac91	-0.75263315
195	0x3f7d9dfd	0.99069196
196	0xbdaccea7	-0.08437853
197	0xc00ac120	-2.1680374
198	0xbe53aa50	-0.20670438
199	0xbfac8baf	-1.3480128
200	0x3f2a9fd1	0.6665011
201	0x3f27d4b7	0.6555895
202	0xbf0ae852	-0.5426074
203	0x3f037b86	0.51360357
204	0xbeb51ab1	-0.35371926
205	0x3ed5cecf	0.41759345
206	0x3f522e09	0.82101494
207	0xbf05d0ce	-0.52271736
208	0xbe5a75b7	-0.21333967
209	0xbf89dc6e	-1.0770395
210	0x3f99a963	1.2004818
211	0xbee60485	-0.44925323
212	0x3fa3ad55	1.2787272
213	0x3fc835f9	1.5641471
214	0xbf615096	-0.8801359
215	0x3fc7b049	1.5600673
216	0xbedd7a30	-0.43257284
217	0xbfcb7dd0	-1.589777
218	0xbf65b5fd	-0.8973082
219	0x3f1e6e11	0.618867
220	0x4015a176	2.3379798
221	0x40331f3d	2.7987816
222	0xbf8601ca	-1.0469296
223	0x3f45ca48	0.7726178
224	0xbf1c157f	-0.609703
225	0xbdf04f44	-0.11733869
226	0x3dba6c8b	0.09102734
227	0xbedc30a8	-0.43005872
228	0xbf2576d9	-0.6463447
229	0xbddf4110	-0.109010816
230	0xbf230bc8	-0.6368985
231	0xbf9122b7	-1.1338719
232	0xbd385f68	-0.04501286
233	0xbf4941de	-0.7861613
234	0x3def80f8	0.11694521
235	0xbf76650d	-0.9624794
236	0x3eff2c04	0.4983827
237	0x3e5a97b3	0.21346931
238	0xbe2f0e8f	-0.17095397
239	0xbdc414be	-0.09574269
240	0x3e82f512	0.255776
241	0x3f0290c8	0.5100217
242	0x3f65314a	0.89528334
243	0x4041b762	3.0268178
244	0xbfbb5bb8	-1.4637365
245	0xbfd9d25d	-1.7017323
246	0xbf055fd8	-0.5209937
247	0x3bd655f4	0.006541008
248	0xbedfd44b	-0.43716654
249	0xbf2b6283	-0.6694719
250	0x3f8331d9	1.0249587
251	0xbec29945	-0.3800756
252	0xbf9715ba	-1.1803505
253	0x3ff243ee	1.892698
254	0xbe593ec5	-0.21215351
255	0xbed55939	-0.41669634

item_id_embedding.weight f4 [1600, 32]
0	0x3ef26e2b	0.47349676
1	0xbde5c80e	-0.11219798
2	0x3e853f14	0.26024687
3	0xbee356fc	-0.444023
4	0x3f89d2e6	1.0767486
5	0xc001520e	-2.0206332
6	0x3f6ac640	0.91708755
7	0x3d2ad01b	0.04170237
8	0x3da7ea5a	0.08198996
9	0x3f5c5be1	0.86077696
10	0x3dad6746	0.084669635
11	0x3ecf92b1	0.40541604
12	0x3ef9e05b	0.48803982
13	0xbca345c4	-0.019930728
14	0xbf47e431	-0.7808257
15	0x3e3a11a7	0.18170796
16	0x3e5e6148	0.21716797
17	0x3f7e1c73	0.9926216
18	0xbf7523f8	-0.9575801
19	0x3fa3b22c	1.2788749
20	0xbe7d7c3f	-0.24754427
21	0x3fc2361a	1.517276
22	0xbf4a66ce	-0.7906312
23	0x3f9443f1	1.1583234
24	0xbe0fe822	-0.14053395
25	0x3ed83057	0.4222438
26	0xbde4e1aa	-0.111758545
27	0x3ed9999b	0.42500004
28	0xbf1c9ed9	-0.6117988
29	0xbea3fe5f	-0.32030007
30	0x3f19559a	0.5989624
31	0x3ed2e54a	0.4119056
32	0xbb0eae67	-0.0021771432
33	0xbf907108	-1.1284494
34	0xbe39fb37	-0.18162237
35	0x3f27a305	0.65483123
36	0x3eb4fbad	0.35348263
37	0xbda16e69	-0.07882387
38	0xbf0d6348	-0.55229616
39	0x3f3687d7	0.71301025
40	0xbe26b50e	-0.16280004
41	0x3f2a0b0e	0.6642312
42	0xbfb808a1	-1.4377633
43	0x3c00a8c3	0.007852736
44	0x3b16802a	0.0022964575
45	0x3d67c4b8	0.05658409
46	0xbed2b96a	-0.41157085
47	0xbe83a87b	-0.25714478
48	0xbdcd6111	-0.100282796
49	0xbc9a7010	-0.018852264
50	0xbf402009	-0.7504888
51	0xbedecb33	-0.43514404
52	0x3f5d9325	0.8655265
53	0xbcc1b534	-0.023645975
54	0xbfa588fa	-1.2932427
55	0x3f765a6f	0.9623174
56	0xbcebba2a	-0.028775293
57	0x3f480486	0.781319
58	0x3f9fe7ea	1.249265
59	0x3bf5af7e	0.007497727
60	0x3f229bfc	0.63519263
61	0x3f14a3fa	0.5806271
62	0xbae7c2d1	-0.0017681961
63	0xbcc85bca	-0.024457831
64	0xbe9aba3b	-0.30220208
65	0xbef1670a	-0.47148925
66	0xbe5eb807	-0.21749888
67	0x3ea304ae	0.31839508
68	0x3f254412	0.6455699
69	0x3da54af1	0.080709346
70	0xbb1fd29c	-0.0024387008
71	0xbede91ad	-0.43470517
72	0x3f96be17	1.1776761
73	0xbf839dfb	-1.0282587
74	0xbea67c54	-0.3251673
75	0x3ede9972	0.43476444
76	0xbef75453	-0.48306522
77	0xbd66a18d	-0.05630641
78	0xbcefba2d	-0.02926358
79	0x3b2df7bc	0.0026545366
80	0xbdce5659	-0.10075063
81	0xbec05775	-0.37566724
82	0xbf631a39	-0.8871189
83	0xbf27e84c	-0.6558883
84	0x3f2ad171	0.6672583
85	0xbf769699	-0.96323544
86	0x3fa4941a	1.2857697
87	0xbc0544a6	-0.008134043
88	0xbe966991	-0.29377416
89	0x3fc61891	1.5476247
90	0x3e88bdaa	0.26707202
91	0xbcf1b65a	-0.029505897
92	0xbeeec4cb	-0.46634516
93	0x3fd9ba4f	1.7009982
94	0x3fe12665	1.7589842
95	0xbcb4ea53	-0.02208439
96	0x4000478c	2.0043669
97	0xbe3aaa62	-0.18229058
98	0xbfda7500	-1.7066956
99	0xbe79d5bd	-0.24397941
100	0x3ebf555d	0.37369815
101	0x3ef22510	0.472939
102	0xbea34f23	-0.31896314
103	0x3e7449e9	0.2385632
104	0x3f97bd70	1.1854687
105	0xbf193e61	-0.5986081
106	0xbf280188	-0.65627337
107	0x3fa676d5	1.3005015
108	0xbf9476d1	-1.159876
109	0xbc7d553c	-0.015462216
110	0xbc514140	-0.0127719045
111	0xbe742279	-0.23841275
112	0x3f4f807f	0.81055444
113	0x3d57d284	0.052690998
114	0xbe8fe47a	-0.28104
115	0x3fd2041b	1.6407503
116	0xbeaf4bea	-0.34237605
117	0xbe899f1a	-0.26879197
118	0xbf2ebb0b	-0.68254155
119	0x3f5ca8ff	0.8619537
120	0x3f9eb14d	1.2397858
121	0x3ddd4327	0.10803824
122	0x3f2cf204	0.67556787
123	0x3fb5a280	1.4190216
124	0x39f5de72	0.00046895776
125	0xbe5f570b	-0.21810548
126	0xbf5be8e5	-0.85902244
127	0x3f4052c6	0.751263
128	0x3c68cf13	0.014209527
129	0xbf884427	-1.0645798
130	0xbea1ad28	-0.3157742
131	0xbe7f3cb7	-0.24925505
132	0xbf5fa2bf	-0.87357706
133	0x3fd568e9	1.6672641
134	0x3dee8923	0.116472505
135	0x3e96c054	0.2944361
136	0xbcef3e66	-0.029204559
137	0xbfc237e6	-1.5173309
138	0xbf97a526	-1.1847274
139	0xbd0f4a2e	-0.034982853
140	0x3dca01b0	0.09863603
141	0xbef72a9a	-0.4827469
142	0xbea31384	-0.31850827
143	0x3e984571	0.2974048
144	0x4013b993	2.3082016
145	0x3ad94daa	0.0016578932
146	0x3ea25bee	0.31710762
147	0x3ec3ff14	0.38280547
148	0xbcf52ad9	-0.029927658
149	0xbfd43fac	-1.6581931
150	0x3f6fce12	0.93673813
151	0x3e01bf30	0.12670588
152	0x3b6215a1	0.0034497755
153	0xbea5ca14	-0.32380736
154	0xbddcef7a	-0.10787864
155	0x3ec94ed6	0.3931796
156	0x3f4a3b24	0.7899649
157	0xbf09a724	-0.5377066
158	0xbc8a21d5	-0.016861835
159	0x3e51392d	0.20431967
160	0x3f3f3588	0.7469106
161	0x3d4448de	0.047921054
162	0x3da35048	0.07974297
163	0xbf7d04ca	-0.9883543
164	0x3f9e76df	1.2380027
165	0xbcfd3574	-0.030909277
166	0x3a78024e	0.00094607926
167	0x3a97e5aa	0.0011588831
168	0xbabfa705	-0.0014621919
169	0x3e094a75	0.1340731
170	0xbc4b4f36	-0.012409022
171	0xba1f0586	-0.00060661917
172	0xbeabe2d6	-0.335715
173	0x4008f19a	2.1397462
174	0xbea6c181	-0.32569507
175	0x3f8512d4	1.0396371
176	0x3f182d99	0.59444577
177	0x3e241acf	0.16025852
178	0x3fb398b3	1.4030975
179	0x3f4b4346	0.79399526
180	0x3fc8b530	1.5680294
181	0x3f5e74b5	0.8689683
182	0xbf8b53b9	-1.0884925
183	0xbe8fd991	-0.28095677
184	0xbec7c463	-0.3901702
185	0xbf25eb9d	-0.6481264
186	0xbf425797	-0.759149
187	0xbf96aaee	-1.1770914
188	0x3ef853c3	0.48501405
189	0x3dac6cbc	0.08419177
190	0xbe5132ea	-0.20429578
191	0xbf1741f7	-0.5908503
192	0xbf2a2501	-0.66462713
193	0x3c8a0960	0.016850173
194	0xbfba87d8	-1.4572706
195	0x3c0aa4b9	0.0084621245
196	0x3e31ea6e	0.17374584
197	0x3ed8d3e9	0.42349175
198	0x3f3bc36d	0.7334507
199	0xbdcd1167	-0.10013085
200	0x3fed0117	1.8515958
201	0x3d6c5d68	0.057706267
202	0xbed3895b	-0.4131573
203	0x3e54acd3	0.20769052
204	0x3f332b16	0.6998762
205	0xbd968d5d	-0.07351182
206	0xc03d0aad	-2.9537766
207	0xbf1c49b4	-0.6104996
208	0x3e7468b3	0.23868065
209	0x3d3dd62a	0.04634682
210	0x3fcb4f0d	1.5883499
211	0x3febcbdb	1.8421587
212	0xbe71d8bb	-0.23617832
213	0xbfba5ef9	-1.4560233
214	0xbfb0df79	-1.3818198
215	0xbe108847	-0.14114486
216	0x3f679e91	0.9047633
217	0xbfac18ec	-1.3445106
218	0x3fec9d87	1.8485574
219	0xbf6eb54b	-0.9324538
220	0x3ad4088b	0.0016176862
221	0xbf4eff66	-0.8085846
222	0x3ec66900	0.38751984
223	0x3da1da81	0.079030044
224	0xbf781c34	-0.96918035
225	0x3fe1ffa1	1.7656137
226	0xbec16c4e	-0.37777942
227	0xbfc19e62	-1.512646
228	0xbef5b19f	-0.47987077
229	0xbc52d40c	-0.012867939
230	0x3d7dc78a	0.061957873
231	0xbed6f121	-0.41980842
232	0xbc09116e	-0.008365972
233	0xbde2bb15	-0.11070839
234	0xbf5134e8	-0.81721354
235	0x3f0f9aad	0.5609539
236	0x3e984c1b	0.29745564
237	0xbf5640bb	-0.8369252
238	0xbda79bbb	-0.08184
239	0x3ec01a38	0.37520003
240	0x3e8cedec	0.2752527
241	0x3fc2c058	1.5214949
242	0xbc179af5	-0.009253253
243	0xbf255b3e	-0.6459235
244	0xbffc7399	-1.9722778
245	0xbcb521a2	-0.022110764
246	0xbe6d596d	-0.23178644
247	0x4001c6b7	2.0277536
248	0xbd85eca3	-0.065392755
249	0xbefa029f	-0.48830125
250	0x3f3fb71e	0.7488879
251	0xbe959ec6	-0.29222697
252	0xbf558a93	-0.8341457
253	0xbf183995	-0.59462863
254	0x3cbe3187	0.023216976
255	0x3f459b81	0.77190405

item_type_embedding.weight f4 [5, 8]
0	0x3fcf8e9b	1.6215395
1	0xbf8fcb98	-1.1234007
2	0x401e70eb	2.475642
3	0x3dd163ff	0.10224151
4	0xbe1d5883	-0.15365796
5	0x3f5a089f	0.85169405
6	0xbe0e1bbc	-0.13877767
7	0x3d2314f3	0.0398149
8	0x3f947cec	1.1600623
9	0xbf807f36	-1.0038822
10	0x3fe4c3c5	1.7872244
11	0xbe3a77ff	-0.18209837
12	0xbf9b756c	-1.2145209
13	0xbfc55798	-1.5417356
14	0x3facac26	1.3490036
15	0x3f93b757	1.1540326
16	0x3edf4884	0.43610013
17	0xbf6e2515	-0.9302533
18	0x3e395a79	0.18100919
19	0xbfd440c9	-1.6582271
20	0xbf639594	-0.88900113
21	0xbddf3871	-0.10899437
22	0x3e8ff605	0.28117386
23	0xbfde5b93	-1.7371696
24	0x3f74f71b	0.95689553
25	0xbe6f0b53	-0.23344164
26	0x3fc5f2c1	1.5464708
27	0x3f0e4553	0.5557453
28	0x4040337f	3.003143
29	0x3f278ee5	0.65452415
30	0x3ee4e132	0.4470306
31	0xbf7e6a56	-0.99381006
32	0xbfd2c8b6	-1.6467502
33	0x3f4bd3ac	0.7961986
34	0xbf8d578d	-1.1042343
35	0x3d5599eb	0.05214874
36	0x3ebf3380	0.3734398
37	0xbda03572	-0.07822694
38	0x3f1dee01	0.6169129
39	0xbfa5338d	-1.2906357

item_temperature_embedding.weight f4 [7, 8]
0	0xbebd4560	-0.3696699
1	0xbef42800	-0.47686768
2	0xbe6c3a94	-0.23069221
3	0xc0080530	-2.1253166
4	0xbd1db924	-0.038506642
5	0xbfd0cd56	-1.6312664
6	0x3f5d3289	0.86405236
7	0xbfba5959	-1.4558517
8	0x3ea87aa2	0.3290606
9	0x3f8481b4	1.0352082
10	0xbedc14cf	-0.42984626
11	0x3eba1a5f	0.36348245
12	0xbf222126	-0.6333183
13	0x3eb71e48	0.3576529
14	0xbf68a3ce	-0.90874946
15	0xbf819b66	-1.0125549
16	0xbf52b599	-0.82308346
17	0x3fbd0d59	1.4769698
18	0x3f985b86	1.1902931
19	0xbf3e88fc	-0.7442777
20	0xbdab1ed4	-0.083554894
21	0xbd000cbe	-0.031262152
22	0xbf906dac	-1.1283469
23	0xbeb5e354	-0.35525
24	0xbf635a1f	-0.8880939
25	0x3e454e0b	0.19268052
26	0xbecf4a58	-0.40486407
27	0xbee5e692	-0.44902474
28	0xbf3b7c3d	-0.7323645
29	0x3d0f3848	0.034965783
30	0xbed0eb42	-0.40804487
31	0x3fa95312	1.3228476
32	0xbf48d39f	-0.7844791
33	0xbf079e8e	-0.5297631
34	0x3ef73eae	0.48290008
35	0xbf1a4765	-0.6026519
36	0x3d981950	0.07426703
37	0x3f9fbfff	1.2480468
38	0x3f4fc2c8	0.8115659
39	0x3ecfc15d	0.40577212
40	0x3f233d18	0.63765097
41	0xbf1a5e1d	-0.60299855
42	0xbef9ce5f	-0.4879026
43	0xbe8b8b21	-0.27254584
44	0x3ea944c2	0.3306027
45	0xbf46d333	-0.77666014
46	0x3fc9968f	1.5749072
47	0x3fc83dcb	1.5643858
48	0xbf8bae2c	-1.0912528
49	0x3e11c480	0.14235115
50	0xc017ddf1	-2.3729212
51	0xbc369dc8	-0.011146016
52	0xbee61252	-0.44935852
53	0x3efdbe1b	0.495591
54	0x3f0a4409	0.54010063
55	0xbf0636c7	-0.52427334

item_humidity_embedding.weight f4 [6, 8]
0	0xbf28b237	-0.65896934
1	0x3ef8a387	0.4856226
2	0x3e0ad5a2	0.13558057
3	0xbdda9005	-0.10672001
4	0xbf926917	-1.1438321
5	0xbe9665df	-0.29374596
6	0xbfc270be	-1.5190656
7	0x3e8a5ec5	0.27025428
8	0xbf711714	-0.9417584
9	0xbe7ec3c8	-0.24879372
10	0x3f0ab7e1	0.54186827
11	0xbfcfdf78	-1.6240072
12	0x3f5faf58	0.8737693
13	0x3ebd9d6f	0.37034175
14	0x3e8be7a9	0.2732518
15	0xbe6eeccc	-0.23332518
16	0xbf2fb6ae	-0.6863812
17	0x3e84ac4a	0.25912696
18	0x40027ec8	2.038988
19	0x3f321502	0.69563305
20	0x3f434b92	0.76287186
21	0xbf0376d2	-0.5135318
22	0x3ffe735e	1.9878957
23	0xbf59363e	-0.8484839
24	0x3f838467	1.0274781
25	0x3f810d06	1.00821
26	0xc004be7e	-2.0741267
27	0xbe2fa32d	-0.1715209
28	0xbf1a8518	-0.60359335
29	0xbf223f62	-0.63377964
30	0x3f2e8c75	0.6818307
31	0xbed8576f	-0.42254207
32	0xc00d6787	-2.2094438
33	0x3f6ef140	0.9333687
34	0x3dcff5ce	0.101543054
35	0xbf880219	-1.062564
36	0x3fd2675a	1.643779
37	0xbfea89e7	-1.8323334
38	0xbdb5929a	-0.08865853
39	0xbf2c39aa	-0.6727549
40	0xbdd7d39a	-0.10538407
41	0x3f50c535	0.81550914
42	0xbea7a1ab	-0.3274053
43	0xbedc44a2	-0.43021113
44	0xbebebefd	-0.37255087
45	0x3eba05cf	0.36332557
46	0x3f96ea8a	1.1790326
47	0x3f1720d0	0.5903444

item_windSpeed_embedding.weight f4 [5, 8]
0	0x3fc94c4e	1.5726411
1	0x3f3bc803	0.7335207
2	0xbfa0dbcf	-1.256708
3	0x3ef1ce0a	0.47227508
4	0x3fc8d63f	1.5690383
5	0xbe6fa216	-0.23401675
6	0xbf78724b	-0.970494
7	0x3f80185b	1.0007433
8	0x3fa2ec34	1.2728333
9	0x3d7b50ce	0.06135636
10	0xbf3b6e61	-0.732153
11	0xbfc94d72	-1.572676
12	0x3e058b60	0.13041449
13	0x3ef70657	0.48247024
14	0xbd96096c	-0.07326016
15	0xbea91bf1	-0.3302913
16	0x3debf286	0.11520867
17	0xbf16172d	-0.58629113
18	0x3f877ce3	1.0584987
19	0x3f343f6c	0.70409274
20	0xbeb98977	-0.3623769
21	0xc003de17	-2.0604303
22	0xbf0730b3	-0.52808684
23	0x3fef189f	1.8679389
24	0xbf925b70	-1.1434155
25	0xbf3aa0d1	-0.72901636
26	0x3f6435fe	0.89144886
27	0xba663d6d	-0.0008782957
28	0x3f739c35	0.9516023
29	0x3fd6482b	1.6740774
30	0xbe6fb776	-0.23409829
31	0xbf0978ee	-0.5370015
32	0xbece5311	-0.4029775
33	0x400cde9e	2.2010875
34	0x3cb1b350	0.021691948
35	0xbf2af619	-0.66781765
36	0x3f4161bb	0.7553975
37	0x3fd742ae	1.6817224
38	0x3f96bdc0	1.1776657
39	0xbf43df75	-0.76512843

GCN_Layers.0.W1.weight f4 [64, 64]
0	0xbdd2599c	-0.10270998
1	0xbc63034e	-0.013855768
2	0xbd3a0cc7	-0.04542234
3	0xbe06957c	-0.13142961
4	0x3dc6ff58	0.09716672
5	0x3d91fe89	0.07128627
6	0x3cb9291f	0.022602616
7	0xbd04dffb	-0.032440167
8	0xbbe5a22e	-0.0070078587
9	0x3e1f7be9	0.15574612
10	0x3d3db9b3	0.046319675
11	0x3dbfa59d	0.0935776
12	0x3c9f8b6d	0.019475663
13	0x3d153859	0.03643069
14	0xbde058e1	-0.10954452
15	0xbd143da2	-0.03619159
16	0xbdce8996	-0.10084836
17	0xbc864675	-0.016391018
18	0xbcd90232	-0.026490305
19	0x3d510ace	0.051035695
20	0xbd4f1178	-0.05055377
21	0x3c40b6d6	0.0117623415
22	0xbdb8e716	-0.09028451
23	0x3dae3554	0.08506265
24	0x3d8fe7ad	0.070266105
25	0xbc604839	-0.013689094
26	0xbd0a9ff1	-0.03384394
27	0xbdb0a69c	-0.08625528
28	0xbdfbacc2	-0.1228881
29	0xbd8c1ad1	-0.06841052
30	0xbdf55f17	-0.119810276
31	0xbd3cf47e	-0.046131603
32	0xbd902357	-0.070379905
33	0xbdfaa30f	-0.12238132
34	0xbd4e489d	-0.05036222
35	0x3d3b3efd	0.045714367
36	0xbd9644cd	-0.073373415
37	0xbc940d84	-0.018072851
38	0xbd9dc0a5	-0.0770276
39	0x3dbd343c	0.092384785
40	0xbd4ea8a7	-0.05045381
41	0x3db29292	0.08719362
42	0xbdb522ff	-0.088445656
43	0xbc7e381c	-0.015516307
44	0x3ddce78d	0.10786352
45	0x3df6a8fd	0.12043951
46	0xbcf954ee	-0.030436005
47	0xbb25ee44	-0.002531902
48	0xbdd523e1	-0.10407234
49	0xbd8d4c70	-0.06899345
50	0x3d9c2451	0.07624114
51	0x3ce85b86	0.028363954
52	0xbdf926d7	-0.12165611
53	0x3bbfc866	0.005852747
54	0xbcaaa823	-0.020832127
55	0x3dc12cc3	0.09432366
56	0x3dd7be36	0.10534327
57	0x3c86842f	0.016420452
58	0xbd02b7b0	-0.03191346
59	0x3cc51a6d	0.024060452
60	0xbd4e4e64	-0.050367728
61	0xbd542c41	-0.051800016
62	0x3d34f9a5	0.044183392
63	0x3c87e2f2	0.016587708
64	0x3d3aabcc	0.045573995
65	0xbdbe4d1d	-0.09292052
66	0x3d9750a8	0.07388431
67	0xbdcede59	-0.10101003
68	0xbd35241d	-0.044223893
69	0xba4ffc32	-0.00079340034
70	0x3dd1e009	0.102478094
71	0x3b6c9b95	0.0036103476
72	0x3d982aa6	0.074300095
73	0x3da35e55	0.07976977
74	0x3d1bc3ce	0.03802853
75	0xbcdd3dee	-0.02700707
76	0xbda7401a	-0.08166523
77	0xbc9c59bf	-0.019085763
78	0xbcdb3ee2	-0.026763383
79	0xbd288731	-0.041144554
80	0xbda38ae2	-0.07985474
81	0xbd0dba31	-0.034601394
82	0x3d1950dc	0.03743063
83	0xbdefd40b	-0.11710366
84	0xbd19e10d	-0.03756814
85	0x3d5675d9	0.052358482
86	0x3d8c6822	0.06855799
87	0xbd8b272d	-0.067945816
88	0x3d5ade3c	0.053434595
89	0x3d8d73c5	0.06906847
90	0xbde1b64f	-0.11021101
91	0x3d2ea4ec	0.04263775
92	0x3ddadccb	0.10686644
93	0x3d65435d	0.055972446
94	0xbcab44f5	-0.020906905
95	0xbe0bec29	-0.13664307
96	0x3d700342	0.058596857
97	0x3db0caee	0.08632456
98	0x3d201b87	0.039088752
99	0xbcd1b2c5	-0.02559794
100	0xbd2242dd	-0.039614547
101	0xbd30ef0f	-0.043196734
102	0xbdcf7de9	-0.10131437
103	0xbcc81825	-0.024425576
104	0x3d1fb8fe	0.03899478
105	0x3db51d96	0.08843534
106	0x3d8f46db	0.069959365
107	0xbd8e7ffe	-0.06958006
108	0xbd145f2c	-0.036223575
109	0x3df74e35	0.12075464
110	0xbcb61275	-0.022225598
111	0x3cd922ce	0.026505854
112	0xbd017c34	-0.03161259
113	0x3d8d5bd6	0.06902282
114	0xbdaa93aa	-0.08328946
115	0xbde0f8e9	-0.10984976
116	0xbcc7a69f	-0.024371443
117	0xbdb1ecba	-0.0868773
118	0xbd3c1279	-0.045916054
119	0x3d99cfb6	0.07510321
120	0x3dcfcabe	0.10146092
121	0xbd84198d	-0.06450186
122	0x3d7aaa7a	0.061197735
123	0xbcca38ae	-0.02468523
124	0x3dd3aae1	0.10335327
125	0xbde5c60d	-0.11219416
126	0x3d91b958	0.0711543
127	0xbd55e587	-0.052220847
128	0x3cc8d689	0.02451636
129	0x3e0454ac	0.12922925
130	0xbc81f781	-0.01586509
131	0xbcb8ab6f	-0.022542683
132	0xbde483e5	-0.111579694
133	0xbd28d36b	-0.04121725
134	0xbde583b0	-0.11206758
135	0xbdf93f3f	-0.12170266
136	0x3db08871	0.08619774
137	0xbd783a25	-0.060602326
138	0x3d5387f1	0.051643316
139	0x3cb0baae	0.02157339
140	0x3e08a6b0	0.13344836
141	0x3dd83656	0.10557239
142	0xbd04b885	-0.032402534
143	0xbc192bb6	-0.0093488
144	0x3bb96e9f	0.005658939
145	0xbdb18837	-0.08668559
146	0xbaccadd0	-0.0015615765
147	0xbbc863fe	-0.0061154356
148	0xbd05a978	-0.03263232
149	0x3cc7a445	0.024370322
150	0xbaf8289a	-0.0018932999
151	0xbd4165d0	-0.047216237
152	0x3cdf13be	0.027231093
153	0x3d675a54	0.056482628
154	0x3d094c94	0.033520296
155	0xbe05d106	-0.13068017
156	0x3d98a0a5	0.074525155
157	0x3d9335f4	0.07188025
158	0xbc62e560	-0.013848633
159	0x3dcecdc6	0.10097842
160	0x3de43d04	0.1114445
161	0x3c189ac8	0.0093142465
162	0xbdcb0b08	-0.099142134
163	0x3d5166f7	0.051123586
164	0xbd67da3f	-0.05660462
165	0xbd8a63d1	-0.0675732
166	0xbd0bedb8	-0.034162253
167	0xbdfba3cb	-0.122871004
168	0xbcd0521f	-0.025429783
169	0x3cf12a27	0.029439045
170	0x3cc15819	0.023601579
171	0x3dddd9fd	0.108325936
172	0x39b807e8	0.00035101105
173	0xbe09bec0	-0.13451672
174	0x3de00db5	0.109401144
175	0xbd354f4d	-0.04426508
176	0xbc12608d	-0.008934152
177	0x3da1a62a	0.078930214
178	0xbda3e850	-0.080032945
179	0xbcbef4c1	-0.023310067
180	0xbce0d36c	-0.027444564
181	0xbd9903ad	-0.07471404
182	0x3da4d870	0.08049095
183	0x3d6bbe98	0.05755481
184	0xbd6b4f86	-0.057448886
185	0x3c4e7f1d	0.012603548
186	0xbc06f0f2	-0.008236157
187	0x3d587f38	0.0528557
188	0x3dbdd39d	0.09268878
189	0xbd9de5f8	-0.07709879
190	0x3e0b9572	0.13631228
191	0x3d89fa72	0.06737222
192	0x3cbed2fe	0.023293968
193	0xbbbbef08	-0.005735282
194	0xbb0ceb81	-0.0021502676
195	0xbc1b43c2	-0.009476604
196	0x3da1d413	0.07901778
197	0xbdf1e8d9	-0.1181199
198	0x3cce1057	0.025154276
199	0xbd1873e4	-0.037219897
200	0xbd80d429	-0.06290466
201	0xbd03ca36	-0.032175265
202	0xbdb71d14	-0.08941093
203	0xbc2254b7	-0.009907893
204	0x3dd1b2bf	0.10239171
205	0xbdbb795a	-0.09154005
206	0xbd955c62	-0.07293011
207	0x3d9b7ada	0.075917915
208	0xbdaf4741	-0.085585125
209	0x3d087daa	0.033322968
210	0x3db65831	0.0890354
211	0x3cb08260	0.021546543
212	0xbd98c89a	-0.07460137
213	0x3d838833	0.06422462
214	0x3db34eca	0.08755262
215	0xbc6f28d7	-0.014597139
216	0x3c110a05	0.0088524865
217	0x3ddb9025	0.10720853
218	0x3d967606	0.0734673
219	0x3dd1a121	0.10235811
220	0xbc67938f	-0.014134302
221	0xbd1900df	-0.037354346
222	0xbde10f91	-0.10989297
223	0x3d5b4c44	0.05353953
224	0x3dbfe1ac	0.09369215
225	0x3d87e786	0.066359565
226	0xbc431244	-0.01190621
227	0xbd7291d1	-0.059221093
228	0x3bccb420	0.0062470585
229	0x3dd7bf7d	0.1053457
230	0x3dec05bb	0.115245305
231	0xbd43f3d2	-0.047839947
232	0x3d043e9e	0.03228628
233	0xbd8cec6f	-0.06881034
234	0xbca7deb3	-0.020491933
235	0xbde1835d	-0.11011384
236	0xbd9d34cb	-0.07676085
237	0x3d90a80d	0.07063303
238	0xbb9df6cc	-0.0048206802
239	0xbdfd300a	-0.12362678
240	0xbcf8305e	-0.0302965
241	0xbc5c849e	-0.013459353
242	0x3cbe5348	0.023233071
243	0xbdc8f3b4	-0.09812108
244	0xbdf00dd2	-0.11721386
245	0xbbaa3ec1	-0.005195469
246	0x3d838f89	0.064238615
247	0x3d34db1a	0.044154264
248	0xbdd43278	-0.10361189
249	0xbbf59154	-0.007494131
250	0xbd7b1ab4	-0.061304763
251	0xbd9aa931	-0.07551802
252	0x3df63658	0.12022084
253	0x3c91e052	0.01780716
254	0x3da6b1c0	0.08139372
255	0xbbf6348a	-0.0075135874

GCN_Layers.0.W1.bias f4 [64]
0	0x3d3f6e63	0.046736132
1	0x3bc2b779	0.005942282
2	0x3d092816	0.033485495
3	0xbc18b9ce	-0.009321643
4	0x3d2d2b71	0.042277757
5	0xbd447d85	-0.047971267
6	0x3c9faf81	0.019492866
7	0x3e00fdf6	0.12596878
8	0x3dd0e277	0.10199445
9	0xbdcf8ba5	-0.10134057
10	0xbdfe7f1f	-0.1242659
11	0x3d420f94	0.047378138
12	0xbdb1192d	-0.0864738
13	0x3dafa6e1	0.085767515
14	0x3e05b31c	0.13056606
15	0xbcbe2be8	-0.023214296
16	0x3cd61094	0.026130952
17	0x3ddb0cc4	0.10695794
18	0x3e015a2b	0.12632053
19	0x3d9b95a8	0.07596904
20	0xbd233d12	-0.039853163
21	0xbd7289b6	-0.059213363
22	0xbb91e872	-0.0044527585
23	0xbca63dbd	-0.020293111
24	0xbd06e459	-0.032932613
25	0x3db0e28b	0.0863696
26	0xbbe80f9c	-0.007081939
27	0xbdc63ce1	-0.096795805
28	0x3d4355aa	0.047689117
29	0x3da88e38	0.08230251
30	0xbd26afbd	-0.04069494
31	0x3dffbb4b	0.12486895
32	0x3cd3f9c9	0.025875943
33	0xbc8e27ef	-0.017353026
34	0x3b032670	0.0020011924
35	0xbd71a4aa	-0.058994927
36	0xbd08a3f4	-0.033359483
37	0xbd2702ef	-0.040774282
38	0xbde0fcbc	-0.10985705
39	0x3d5ffb20	0.05468285
40	0xbb918cc3	-0.004441829
41	0x3d904da9	0.070460625
42	0xbdcec5c6	-0.10096316
43	0xbb616e26	-0.003439793
44	0x3d8a4cb7	0.067529134
45	0xbdcd223c	-0.10016295
46	0xbd1994c1	-0.03749538
47	0xbd199c21	-0.03750241
48	0x3e0a9304	0.13532645
49	0x3dd2f606	0.103008315
50	0xbd715f18	-0.05892858
51	0x3d3f2440	0.04666543
52	0x3d0810fd	0.033219326
53	0x3d99d030	0.07510412
54	0x3cc25c3b	0.02372562
55	0x3d5e08cb	0.054207604
56	0xbdad1548	-0.08451325
57	0xbd309b32	-0.043116756
58	0xbd9588f3	-0.073015116
59	0xbddf3e44	-0.10900548
60	0x3db293a7	0.08719569
61	0xbc9f8a3e	-0.019475099
62	0x3c97d787	0.018535389
63	0xbd4fe378	-0.05075404

GCN_Layers.0.W2.weight f4 [64, 64]
0	0xbd4978cd	-0.04918747
1	0x3da6e20e	0.08148585
2	0x3d6fe48e	0.058567576
3	0xbccb726f	-0.02483484
4	0x3db9ae88	0.09066492
5	0xbcd9fc46	-0.026609551
6	0x3d1c972a	0.0382301
7	0xbd4d3192	-0.050096102
8	0x3d59ec65	0.05320396
9	0xbdbb2bab	-0.091391884
10	0x3d5d807a	0.054077603
11	0xbd214848	-0.039375573
12	0x3b9bc954	0.004754225
13	0x3d63cd6c	0.055615827
14	0xbd6dacf7	-0.05802628
15	0xbcedaadb	-0.029012134
16	0xbd43c7b5	-0.047797877
17	0xbd9a4479	-0.075325914
18	0xbd846aaf	-0.06465661
19	0x3dbbc892	0.09169115
20	0x3d94136d	0.07230268
21	0x3d9dfa5b	0.07713767
22	0x3cdf5af4	0.02726505
23	0xbe07259c	-0.1319794
24	0xbde63695	-0.112408794
25	0x3b7b75ec	0.0038369847
26	0xbdef3449	-0.116798945
27	0x3d12dafc	0.03585337
28	0x3d8a5774	0.067549616
29	0xbc106398	-0.0088128075
30	0x3d8ad6ea	0.06779273
31	0xbd0f6206	-0.03500559
32	0x3e02bfd3	0.12768488
33	0xbd8e2da8	-0.06942302
34	0x3e071a24	0.13193566
35	0x3c888968	0.016667083
36	0x3cb3aba1	0.021932425
37	0x3dd2792c	0.10277018
38	0x3d208f69	0.039199267
39	0x3da9a5d4	0.08283582
40	0xbbfc1351	-0.0076927324
41	0x3cb0eb78	0.021596655
42	0xbd6dc4c2	-0.05804897
43	0x3ac5f07a	0.0015101575
44	0xbd7e857a	-0.062139012
45	0xbb4c2339	-0.0031148924
46	0xbc58ac3f	-0.01322466
47	0x3cbe3bea	0.023221929
48	0xbaffd312	-0.001951786
49	0xbdde7e32	-0.108639136
50	0x3dd51b84	0.10405639
51	0xbd1f6baf	-0.038921054
52	0xbdafbb5c	-0.08580658
53	0xbd3bc171	-0.045838777
54	0x3ddcfb90	0.10790169
55	0x3d9d5664	0.07682493
56	0x3d2032cc	0.039110944
57	0xbde3cdba	-0.111232236
58	0x3bc33619	0.0059573767
59	0xbd8f0436	-0.06983225
60	0x3e27ceef	0.16387533
61	0x3c41642c	0.011803668
62	0x3dc1a263	0.09454801
63	0x3d959877	0.07304471
64	0xbd3d062c	-0.046148464
65	0x3d8db8ce	0.06920014
66	0x3def3d6e	0.11681639
67	0xbc0d90cc	-0.008640479
68	0xbb7c367f	-0.003848463
69	0xbce9de57	-0.028548403
70	0xbd86e277	-0.065861635
71	0xbd4d3daa	-0.050107636
72	0xbdc146ba	-0.09437318
73	0xbd8be971	-0.06831635
74	0x3c720290	0.014771119
75	0x3c491339	0.012272649
76	0x3d3a5c23	0.045498025
77	0x3d026a6a	0.031839766
78	0x3a9ea15c	0.0012102532
79	0x3d97851f	0.07398438
80	0xbd95ca9b	-0.073140346
81	0x3c675dd1	0.014121489
82	0xbd596b20	-0.053080678
83	0x3cefef7f	0.029289005
84	0x3dae41dd	0.08508656
85	0xbd342972	-0.043984838
86	0x3c8c6479	0.017137753
87	0xbda84f98	-0.08218306
88	0x3c4f1c45	0.012641017
89	0xbdae797d	-0.08519266
90	0xbcb83e01	-0.022490503
91	0xbd4b7328	-0.04967037
92	0x3dd2fd5f	0.10302233
93	0xbc536a4c	-0.012903761
94	0xbc822e35	-0.015891174
95	0x3d9a7de1	0.07543541
96	0x3d13e891	0.036110464
97	0xbde002c0	-0.109380245
98	0xbdf48ab5	-0.11940519
99	0x3cf27655	0.02959744
100	0x3bcd2e28	0.006261606
101	0x3cd08351	0.025453242
102	0x3c222e0d	0.009898675
103	0x3d3452d6	0.04402431
104	0x3d5381a4	0.051637307
105	0x3dd7b3f1	0.10532368
106	0x3dbf4c60	0.09340739
107	0x3d58ab3d	0.05289768
108	0x3db88582	0.090098396
109	0xbdeba06f	-0.1150521
110	0x3c04bfa8	0.008102335
111	0x3d9092d5	0.07059256
112	0xbca73ef7	-0.020415766
113	0xbd0bc61e	-0.034124486
114	0xbd9c7db3	-0.07641163
115	0xbcc937ca	-0.024562735
116	0x3d2a21a0	0.041535974
117	0x3d92a629	0.07160599
118	0x3d6e59f5	0.05819126
119	0xbc9f8b4f	-0.019475607
120	0xbd07c69f	-0.033148404
121	0x3de62507	0.11237531
122	0xbd1fbaee	-0.03899663
123	0x3c2eff82	0.010681035
124	0x3c9237fe	0.017848965
125	0xbdad075e	-0.08448671
126	0xbc92a8f6	-0.017902832
127	0x3cd39f35	0.025832752
128	0x3d9e7910	0.077379346
129	0x3dbc9500	0.09208107
130	0x3d33b188	0.04387048
131	0xbdcb4225	-0.099247254
132	0xbc163f04	-0.0091702975
133	0xbca29721	-0.019847455
134	0xbd714e20	-0.058912396
135	0xbb1fc81c	-0.002438075
136	0x3d8fdc04	0.070243865
137	0xbcdf22c4	-0.027238257
138	0xbda6d1db	-0.081454955
139	0xbd807aa7	-0.06273394
140	0xbccc4ae5	-0.024938056
141	0x3bd9ce7a	0.0066469284
142	0x3d6dc2fe	0.058047287
143	0xbcae821e	-0.02130228
144	0x3d43556b	0.047688883
145	0xbd06293f	-0.03275418
146	0x3c6e3f79	0.0145415
147	0x3d8c02e6	0.0683649
148	0x3d0d51ab	0.034501713
149	0xbd91293a	-0.070879415
150	0xbcc9724e	-0.024590638
151	0x3d907072	0.07052697
152	0xbd09ccfe	-0.03364276
153	0xbd97efb9	-0.0741877
154	0x3d68a8c2	0.056801565
155	0x3c1ef12d	0.0097010555
156	0x3d22f034	0.039779857
157	0xbcc0a424	-0.023515768
158	0xbd699fec	-0.05703728
159	0xbd3f25a2	-0.04666675
160	0x3db36b15	0.08760659
161	0xbd3c90d5	-0.04603656
162	0xbd0b473f	-0.034003492
163	0xbd85fbc8	-0.06542164
164	0x3ac8f819	0.0015332728
165	0x3d6069d8	0.05478844
166	0x3d608ebb	0.05482362
167	0xbdaf7e9f	-0.08569073
168	0x3cac4c8e	0.021032598
169	0x3d08feb5	0.033446033
170	0xbccef55f	-0.025263486
171	0x3c0eec6c	0.00872336
172	0xbdbc8c31	-0.09206427
173	0xbd297111	-0.041367594
174	0x3c9f0d59	0.019415544
175	0x3cb0fae5	0.02160401
176	0xbd66d937	-0.056359496
177	0xbd31468e	-0.043280177
178	0x3d44550e	0.047932677
179	0x3d25b0d6	0.040451847
180	0x3d20796f	0.039178308
181	0xbc1eb4e9	-0.009686687
182	0x3dafb8d5	0.08580176
183	0x3cc68fc5	0.024238477
184	0x3d1a52f8	0.03767678
185	0xbccecc42	-0.025243882
186	0x3d96a95f	0.07356524
187	0x3cbc3b5c	0.022977524
188	0xbda0c8a2	-0.07850768
189	0x3d9c2bc2	0.07625534
190	0x3d94b915	0.07261864
191	0xbd823e4b	-0.06359538
192	0xbc8e3129	-0.017357426
193	0xbaa7e10d	-0.0012808159
194	0x3db54ae2	0.088521734
195	0x3d4ef05e	0.0505222
196	0xbda81a5e	-0.08208154
197	0x3df84f84	0.121245414
198	0x3d79c9bd	0.06098341
199	0xbba9d697	-0.005183052
200	0xbd0f515b	-0.034989696
201	0xbdf38802	-0.11891176
202	0xbda8bc70	-0.082390666
203	0x3d570172	0.052491613
204	0xbd222507	-0.039586093
205	0x3d180bc6	0.037120603
206	0x3d834d52	0.06411232
207	0x3dd56f14	0.10421577
208	0x3bbc6f00	0.005750537
209	0xbd91cbe1	-0.07118965
210	0xbcd47513	-0.025934732
211	0xbe02ff79	-0.12792768
212	0x3db36b47	0.08760696
213	0x3d5db4dd	0.054127563
214	0xbcb2948c	-0.021799348
215	0xbdd7547e	-0.105141625
216	0x3d5471ea	0.05186645
217	0xbd5d974c	-0.054099366
218	0x3c99bd37	0.018766982
219	0xbda9a2f8	-0.08283037
220	0xbe03249f	-0.12806939
221	0x3ccc773a	0.024959195
222	0x3c59561c	0.013265159
223	0xbdf3287c	-0.11872956
224	0xbd32d529	-0.043660317
225	0xbdbdc4cc	-0.09266052
226	0x3d16fded	0.036863256
227	0xbbc12970	-0.0058948323
228	0xbca10dcf	-0.019659905
229	0xbd4c933b	-0.049945097
230	0x3ceba2b2	0.028764103
231	0xbd144915	-0.03620251
232	0xbda1dc53	-0.07903352
233	0x3d6b7a10	0.057489455
234	0x3d3147ff	0.04328155
235	0x3d7a7558	0.061147064
236	0xbd41c13d	-0.047303427
237	0xbc84860f	-0.016177205
238	0x3da74b29	0.081686325
239	0xbdf12397	-0.11774366
240	0xbc9127d3	-0.017719185
241	0x3c4e7669	0.012601473
242	0xbe041333	-0.12897949
243	0xbdcd5de1	-0.100276716
244	0x3d961e01	0.073299415
245	0xbcf2bf9d	-0.029632384
246	0xbd5755df	-0.052572127
247	0x39eebdd3	0.00045536328
248	0xbd8576b4	-0.065167814
249	0xbd6a8f6e	-0.05726569
250	0xbd99ab8d	-0.07503424
251	0x3d152cb7	0.036419597
252	0x3d0ef4c1	0.034901384
253	0x3de97a03	0.11400225
254	0xbde83f33	-0.11340179
255	0xbdedd64f	-0.11613142

GCN_Layers.0.W2.bias f4 [64]
0	0xbd797f52	-0.060912438
1	0xbcfce21a	-0.030869532
2	0xbda4c81b	-0.080459796
3	0x3dcda268	0.10040742
4	0xbc0b10ec	-0.008487921
5	0x3c9d2a54	0.019185223
6	0xbdd7d9e1	-0.10539604
7	0xbc4725f1	-0.012155042
8	0xbc999bf0	-0.018751115
9	0x3ae9a2eb	0.0017825043
10	0xbdf34cd3	-0.118798874
11	0xbda657ba	-0.08122201
12	0x3dcb931a	0.09940167
13	0x3d1d679c	0.038428888
14	0x3aa7505b	0.0012765037
15	0x3c8b7dc7	0.017027749
16	0xbcfeba56	-0.031094711
17	0xbd9ea990	-0.07747185
18	0xbd220f69	-0.039565478
19	0xbb9600e1	-0.0045777415
20	0x3df6878f	0.120375745
21	0xbdcafefb	-0.09911915
22	0x3df916a1	0.12162519
23	0x3dbd2bbb	0.092368565
24	0x3e006035	0.125367
25	0xbd2d2c11	-0.042278353
26	0x3db753c2	0.089515224
27	0xbdb61e92	-0.088925496
28	0xb789ee34	-1.6442595e-05
29	0x3d3c6f8a	0.04600481
30	0x3c9e234b	0.019303938
31	0x3d501554	0.05080159
32	0xbdbae531	-0.09125746
33	0x3b768917	0.0037618333
34	0xbd0eaf11	-0.034834925
35	0x3d6ad3cd	0.057330895
36	0xbd8977bd	-0.067122914
37	0x3d863ca6	0.065545365
38	0x3e03cea5	0.12871797
39	0x3c9e0396	0.01928882
40	0xbdbc2393	-0.09186473
41	0x3c8a699e	0.016896065
42	0xbd839c96	-0.06426351
43	0x3dd69d66	0.1047924
44	0x3d917ded	0.071040966
45	0x3c85ed5c	0.016348533
46	0xbbe6940e	-0.0070366925
47	0xbbb7aaa0	-0.005605057
48	0xbd5e88e6	-0.054329775
49	0xbd962859	-0.073319145
50	0x3de0bcf3	0.10973539
51	0x39efa2f2	0.00045707036
52	0x3c9af9a3	0.018917864
53	0xbd0ccb40	-0.03437352
54	0x3d9a8d75	0.07546512
55	0x3d929cbc	0.07158801
56	0xbd7f4adf	-0.062327262
57	0x3e1ec9c3	0.15506653
58	0x3db2e9f0	0.08736026
59	0xbd72aa56	-0.059244476
60	0xbdd5e36d	-0.10443769
61	0x3dc23ea1	0.09484602
62	0xbb15e3be	-0.002287134
63	0xbd4c4beb	-0.04987709
