lab4-student/code/model/bestModelParms-11-14-10-45.pth (torch, 549085 bytes, 24 tensors)

user_id_embedding.weight f4 [900, 32]
000000 0b 6c c3 3e a0 b7 d8 3b da db ca bc 44 da f8 bb
       0.38168368 0.0066136867 -0.024763037 -0.0075943787
000010 11 42 64 3a fa 7c 91 bb fb 9c 5b be 29 89 c5 bc
       0.00087073544 -0.004439947 -0.21446602 -0.024113255
000020 50 8d 10 bc b9 c7 6a 3c 07 1b 90 3c 34 da 62 3c
       -0.008822754 0.014329844 0.017591013 0.013845969
000030 da e9 94 bb 54 a3 25 3c fe f5 ab bd 30 9f ad bd
       -0.004544479 0.010109741 -0.08396529 -0.08477628
000040 55 a7 ed be 70 2f 34 bc 0a f8 f0 3b 69 9f 09 bd
       -0.46416727 -0.010997638 0.0073537873 -0.03359929
000050 dc d9 9e 3c 4d 4e 25 3c 17 ac e2 bb 72 d5 49 be
       0.019390993 0.010089469 -0.0069174874 -0.19710329
000060 82 c2 82 3b 81 22 e5 bb 0b 1f 36 bd fe a2 97 3a
       0.0039904723 -0.0069926386 -0.0444632 0.0011568961
000070 44 b0 41 bc 8b 73 f2 3a 7c 10 3d bc f9 46 36 bc
       -0.01182181 0.0018497569 -0.011539575 -0.01112532
000080 9a 0c 0d 3b 94 89 a9 3d 4c 34 25 bb 75 c3 95 3c
       0.0021522404 0.08278194 -0.0025208173 0.018281678
000090 72 f2 e7 ba ba 8e 90 bd 22 3e 86 bb d2 12 28 3a
       -0.0017696156 -0.07058473 -0.0040967623 0.0006411496
0000a0 a1 a0 08 3c 53 b1 fb 3b 2f 90 1c 3d 41 c8 19 bb
       0.008339078 0.007681051 0.03822344 -0.0023465308
0000b0 89 e2 e6 bb 5c 96 6f bc fb c7 1b 3b e5 88 90 3b
       -0.007046048 -0.014623251 0.002377032 0.0044108503
0000c0 f0 cc f3 bc 6e 02 2a bc d7 21 37 bb 8f 5c b4 bb
       -0.029760808 -0.010376556 -0.0027943754 -0.005504198
0000d0 92 12 10 bd fc 8f b8 ba 96 e2 12 3b 87 9b db 3e
       -0.03517396 -0.0014080997 0.0022412888 0.42892095
0000e0 76 d2 41 bf 93 77 61 3e d1 b2 db bd 52 e8 3a 3c
       -0.7571176 0.2201827 -0.10727466 0.011407929
0000f0 30 20 24 ba 0d 69 e9 3e a2 74 9b 3c 16 49 24 ba
       -0.00062609 0.4558796 0.018976513 -0.0006266994
000100 7d 58 07 3d 47 1a 49 bd 98 8d 8d 3a fc 6f b9 bb
       0.033043373 -0.049097326 0.0010799645 -0.0056591015
000110 96 e9 8b 3b 91 9a 5e 3d 29 8b 53 bd f3 15 a0 3c
       0.004269789 0.054346625 -0.051646385 0.019541716
000120 3f 75 32 3e 96 54 81 3c ea c5 ca 3c a0 50 87 bc
       0.17427538 0.015787404 0.024752576 -0.016517937
000130 a2 36 a9 be 57 1f cd bb 91 c9 3a bc 78 a6 22 3c
       -0.33049494 -0.0062598395 -0.011400596 0.009927385
000140 df 9b 0b bc 49 ec 82 bb 22 3f 8a be 0b 6d 6c 3c
       -0.008521049 -0.0039954525 -0.27001292 0.014430295
000150 74 8f 8e bc af 44 38 3c c9 99 cb bd 96 96 e0 3c
       -0.017402388 0.011246844 -0.099414416 0.027415555
000160 be 65 ed bc 85 16 c7 3d ce aa 8c bc 63 00 c5 bb
       -0.028979179 0.09721092 -0.01717129 -0.006012009
000170 40 18 11 bd f1 cb 44 bc 80 e8 53 bc 01 a7 de bd
       -0.035423517 -0.012011514 -0.01293385 -0.10871697
000180 5c 59 45 3e 74 63 38 3d 5c c0 2d 3d 42 a4 eb 3b
       0.19272369 0.04501672 0.042419776 0.007191212
000190 21 1c 2d 3e 9f 60 c7 bc 12 71 ca 3c e3 64 3d bd
       0.16905262 -0.024338065 0.02471212 -0.04623879
0001a0 85 f1 26 be 37 03 c9 bc 03 45 a3 3d 07 5d f9 3c
       -0.1630307 -0.024537666 0.07972147 0.030439867
0001b0 c5 8e 81 3d c8 05 9f bc df ba f2 3b c9 c1 04 bd
       0.06326059 -0.019411936 0.0074075307 -0.03241137
0001c0 1a 6e a1 b8 08 0d 15 3d d9 1f aa 3a d8 ae 05 3d
       -7.697586e-05 0.03638938 0.0012979462 0.032637447
0001d0 45 c3 bf bc 61 bf d7 bc 50 96 51 bc f3 d8 bd 3b
       -0.023408541 -0.026336374 -0.012792185 0.0057936846
0001e0 e7 8c bb 3b 92 66 88 bb 01 16 ec 3b 4a cf 56 3e
       0.005723584 -0.004162618 0.0072047715 0.20977512
0001f0 19 e9 51 3d dc 03 01 39 c3 b4 3d bc df c6 53 3c
       0.05124769 0.00012303836 -0.0115787415 0.0129258325
000200 41 62 67 3c 58 89 b9 bb 85 cb 9e bd 42 2f 8b bd
       0.014122547 -0.0056621246 -0.07753662 -0.06796123
000210 73 a1 2e 3b da 73 84 3e 8b 74 4a 3e c1 7e 26 3d
       0.0026646524 0.25869638 0.1977102 0.040648226
000220 f6 56 72 3d 6a 53 86 bd d3 cd f7 bc 35 1d 54 bd
       0.059164964 -0.06558879 -0.030249512 -0.051785666
000230 69 aa 9a 3c b9 17 8c 3c 63 d4 ab 3c eb b9 74 bb
       0.018880086 0.017101156 0.020975297 -0.003734226
000240 54 2a eb 3c fb 24 3b bd 78 85 48 3d b5 08 42 bd
       0.028706707 -0.045689564 0.04895541 -0.047371585
000250 62 5e 3d 3d 21 ae af 3d 88 13 51 bd 2a ec 89 3c
       0.04623259 0.08578134 -0.051044017 0.016836245
000260 af ba 35 bd 96 4f af 3c 40 c7 80 bd 9d 4e ee 3d
       -0.04436749 0.021400254 -0.06288004 0.11636088
000270 ad 86 e2 bc ba 37 44 bc 02 fd 45 3e 4f 7d 1e 3d
       -0.027652109 -0.011976177 0.19334796 0.038693722
000280 45 80 1c 3b fd 1b 34 3d 3b a9 d6 be 72 1e 55 be
       0.0023880166 0.043972004 -0.41925988 -0.20812395
000290 55 f9 15 bd 11 23 04 3d 34 9d e8 3e cb b4 4d 3d
       -0.036614735 0.032260004 0.45432436 0.050221246
0002a0 e4 2a 5b 3c df 52 a5 bd ca 75 94 bd b9 be 3a bd
       0.013376925 -0.08072447 -0.07249029 -0.045592044
0002b0 89 44 da be 5c 4e 03 3f 8f 0f b5 bd 96 5e b8 bc
       -0.42630413 0.5129144 -0.08840858 -0.02250604
0002c0 b2 2a ab bc 5f 9d 89 bc 3b b8 a4 3e c9 cd 98 3c
       -0.020894382 -0.016798673 0.32171807 0.018652814
0002d0 c0 00 e1 3c 70 13 b9 3c 25 35 17 bd 62 eb b0 bc
       0.027466178 0.022592276 -0.036915917 -0.021596614
0002e0 71 66 3e be 4b ee ca ba 06 a0 cf be 7e 94 86 bc
       -0.18593766 -0.0015482394 -0.40551776 -0.016428228
0002f0 85 5e 2f bd db d6 39 bc 9a ca 76 3d c7 44 82 bc
       -0.04281475 -0.011342729 0.06025181 -0.015901936
000300 1e 76 59 ba 73 0f ec bd 52 cf df 3c 7e 0c af 3c
       -0.0008295494 -0.11526384 0.027320538 0.021368261
000310 73 5c 9a 3c a3 87 b3 be c8 43 90 be 56 b1 87 3b
       0.018842911 -0.3506442 -0.28176713 0.004141013
000320 80 15 8d bb d0 76 09 bb 41 1e ba 3d 69 80 1f 3c
       -0.0043055415 -0.0020975359 0.09087802 0.009735205
000330 4e 85 12 3c 5c f8 15 3d a7 3a 2c bf 7a c9 19 bc
       0.008942915 0.036613807 -0.67276996 -0.009386415
000340 1d a7 d5 bc 6f 75 af bf bc da bb bc e4 56 9d bd
       -0.026080662 -1.3707713 -0.02293145 -0.07682589
000350 c7 2f 9a bc 6b d9 5f bc b8 84 3a bd f6 61 ed 3c
       -0.01882161 -0.013662676 -0.045536727 0.028977375
000360 96 49 6d 3a ae 0d 05 3d d9 ca 93 bb a5 68 9e bd
       0.00090517977 0.03248375 -0.0045102653 -0.07734803
000370 06 02 a3 be 36 96 f9 3b ed 31 62 3f 26 e4 91 bc
       -0.3183748 0.0076167835 0.8835743 -0.017808985
000380 62 f3 03 3d 25 98 cf 3b 8e a5 b3 39 95 aa 57 bc
       0.03221453 0.0063352757 0.00034264888 -0.0131632285
000390 97 a5 49 3f 20 5b 1d bb 08 8f 1b b9 c6 1a f4 bc
       0.78768295 -0.0024010614 -0.00014835235 -0.029797923
0003a0 8a 0b a5 3c 30 62 9f 3d e2 42 e7 be 3f 1a 5c bc
       0.020147104 0.077824 -0.45168215 -0.013433992
0003b0 83 70 49 3c a6 af 47 bc e3 6a 00 bc 9a 07 2c 3e
       0.012294891 -0.012187874 -0.007837984 0.16799775
0003c0 a9 98 78 3b 42 3e b7 bc c3 4a 1d be fd 83 8e 3c
       0.003793279 -0.022368554 -0.1536055 0.017396921
0003d0 11 c2 e1 3d b3 fc cb bc 1b 50 12 3d e2 a9 67 3a
       0.11023343 -0.02490077 0.035720926 0.0008837265
0003e0 d2 df 3d 3c dd 7e 0e bd c0 28 e0 3c f0 2a 4d 3a
       0.011589007 -0.034788955 0.027363181 0.00078265276
0003f0 c5 e2 f4 bc b7 84 46 3b 12 81 36 bc 7e 4e b2 be
       -0.029893288 0.0030291507 -0.011139171 -0.3482551

user_age_embedding.weight f4 [5, 4]
000000 2c 65 fe 3e 7b 5e 4e 3e 3e 4d a0 bf be 2e 32 3f
       0.49686563 0.20153229 -1.2523572 0.6960257
000010 89 3c 14 3f c3 df ca bf 51 38 0c bf 42 28 f1 3e
       0.5790487 -1.5849537 -0.5477343 0.47101027
000020 a3 2c aa 3e 01 72 c9 be 99 4b c2 3d 3b 76 1d bf
       0.3323718 -0.3934479 0.09487075 -0.6150853
000030 e7 45 9c 3f a7 21 cd 3e 55 1a 66 3f 6e db d2 3e
       1.2208833 0.40064737 0.8988393 0.41183037
000040 9f e7 d8 bd 08 8d 82 3e 84 d5 83 3f dd fa 97 bf
       -0.10591053 0.25498223 1.0299535 -1.1873432

user_gender_embedding.weight f4 [2, 2]
000000 ef df 27 3e d1 f0 a3 3e 77 06 9b bf 04 80 a3 3e
       0.16394018 0.32019666 -1.2111348 0.31933606

user_occupation_embedding.weight f4 [21, 8]
000000 af 0d b0 bc 85 cb 54 3e 10 0f 84 be e7 8e d2 3d
       -0.0214909 0.20780762 -0.25792742 0.10281163
000010 15 01 98 3e 61 41 1d 3e 8c 67 29 3f 8f e2 02 3f
       0.29688326 0.15356971 0.66173625 0.5112695
000020 9d 4a b7 bc 5f b3 37 bf ac d8 0b 3f 8f a8 6b be
       -0.022374446 -0.71758074 0.5462749 -0.23013519
000030 17 a2 6d bf df fe 7e 3e 3d 22 3b be dc 7f cc be
       -0.92825454 0.24901913 -0.1827478 -0.399413
000040 88 21 c1 3e 00 01 93 be b8 17 33 3f b8 bb 7e 3e
       0.37720895 -0.287117 0.69958067 0.24876297
000050 a9 89 08 3f 42 c3 a3 be 9c 65 ff bd 86 bf bc 3e
       0.5333505 -0.31984907 -0.12470552 0.3686487
000060 dd 0a 8c 3f e3 68 b3 3c e6 fe 4d bf 29 d8 62 3f
       1.0940815 0.0219006 -0.8046707 0.88611084
000070 f5 9b 19 3d 2c a2 8c bd 89 db 5f be 65 56 d3 be
       0.037502248 -0.06866869 -0.2186109 -0.4127685
000080 07 5d 6c 3e f8 0e e0 be 57 f3 d0 be 30 be 01 3e
       0.23082362 -0.4376142 -0.40810654 0.12670207
000090 72 0b a1 3e c7 90 e5 be e8 86 6f 3e ad 9a 4d bf
       0.31454045 -0.4483702 0.23391306 -0.8031414
0000a0 99 64 85 bf 47 e5 7f be 14 df 9f 3c 68 ad cc bd
       -1.0421325 -0.24989806 0.019515552 -0.09994012
0000b0 04 22 85 be 04 cf 3f bf bc e3 f5 3e b9 32 be be
       -0.26002514 -0.74925256 0.4802531 -0.37148073
0000c0 8e ae 43 3d 92 dd 83 bf ef c0 f8 3c 88 e2 00 3c
       0.04777389 -1.0301993 0.030365435 0.007866509
0000d0 35 8c 0d be 31 51 72 3d 9f 80 2d bd 13 34 ac 3d
       -0.13823016 0.05915946 -0.04235899 0.0840837
0000e0 37 f4 7a 3c c3 e9 92 3e 45 db cd be fd fe cf 3e
       0.015317014 0.2869397 -0.40206352 0.40624228
0000f0 5f ed 42 be 7f 31 2d 3e ea 3f 98 3e b6 a0 11 3f
       -0.19035862 0.16913413 0.29736263 0.5688585
000100 78 8b 1b bd 4c 70 8f bd 32 e1 6c 3e 20 54 28 3d
       -0.037974805 -0.07003841 0.2313278 0.041095853
000110 8d ac b3 bd e3 2f 92 be e8 42 1d 3e ea c6 21 bd
       -0.08773146 -0.2855216 0.15357554 -0.03949634
000120 82 ca 20 3e d5 6c 41 3d b0 d9 d2 3d a3 d4 23 be
       0.1570225 0.04722293 0.10295427 -0.15999083
000130 80 95 d5 bc b1 ba 7e bd 2d 15 64 3e 21 ce 3c 3e
       -0.026072264 -0.06218976 0.22273703 0.18438007
000140 94 a2 e6 bb 24 d5 81 be 53 59 55 3e 30 d8 8f be
       -0.007038424 -0.25357926 0.20834856 -0.28094625
000150 cd d5 fc 3e d4 cd 41 be b8 53 06 bf f0 6c 0c bf
       0.49381867 -0.18926173 -0.52471495 -0.54853725
000160 c8 79 1f be d3 4b d5 3c 52 b6 d9 3e 56 c9 89 bb
       -0.155738 0.026037132 0.42521912 -0.0042049093
000170 0d 02 5c 3f cd f1 e2 3d 07 48 8e be 5f 32 b2 3e
       0.8594063 0.11081276 -0.27789328 0.34804055
000180 8c fc 01 3f 00 49 c0 3e d3 59 47 3d 08 14 f4 bd
       0.5077598 0.37555695 0.048669647 -0.11917883
000190 e3 8c 98 bd a1 c6 b4 bb e4 a1 1c 3d 5a 9a 12 be
       -0.07448747 -0.0055168425 0.03824033 -0.14316693
0001a0 2d e1 08 bc 60 91 3a be 88 4b 63 3e 93 b6 35 3d
       -0.008354467 -0.18219519 0.22196782 0.04436357
0001b0 4f b9 3d 3e 4a 98 d2 3e b7 b7 b9 bd a2 ea d7 3e
       0.18527721 0.41131812 -0.09068244 0.42171198
0001c0 a4 f8 13 3e 7d 88 29 3f 02 39 ba 3e 38 e0 fc bd
       0.14450318 0.6622389 0.36371619 -0.12347454
0001d0 73 ac 91 be 80 70 ab be 6d 6e 34 3d c0 6c 4a be
       -0.2845188 -0.33484268 0.044050623 -0.19768047
0001e0 6f 9a 04 3e 6c 91 80 3e 05 f9 43 bd 80 f9 46 bc
       0.12949537 0.25110948 -0.047844905 -0.012144446
0001f0 4c c3 ea bc 1c ff 28 3f 26 d6 99 3d 87 6a 59 bd
       -0.028657578 0.66014266 0.07511549 -0.053080108
000200 94 07 f6 bc a7 76 86 bd 74 97 35 be 17 f8 80 bd
       -0.03003291 -0.065656 -0.17733556 -0.062973194
000210 f7 4f ff bd 79 d3 4d 3d a4 ae 05 be 0e d0 b5 3c
       -0.12466424 0.050250504 -0.13054901 0.022193935
000220 4a c7 a2 3e 2a f5 f5 3c 1b 1f 46 bf 68 ee 39 be
       0.3179267 0.03002413 -0.77391213 -0.18157351
000230 4c 4d d4 3e 77 b3 f7 bd c7 af cc 3e 67 e3 b1 bc
       0.41465223 -0.12094777 0.39977857 -0.02171488
000240 f0 c3 b4 bc f2 b2 0f 3d 53 50 ad 3e 77 d1 7d 3d
       -0.022066087 0.035082765 0.33850345 0.06196734
000250 c2 ba f1 3c 6a 9b 96 be 6a 7f 79 3c 24 18 92 bd
       0.029507998 -0.29415447 0.015228132 -0.07133511
000260 2d 50 68 3e 48 19 eb 3d 29 ee 9e bf ad a1 09 be
       0.22686835 0.114794314 -1.2416431 -0.1344058
000270 a2 a3 e6 bd db 4c 27 be 7f 05 dd 3d b9 8b 9f bc
       -0.11261679 -0.16337912 0.10792064 -0.019475805
000280 df 94 02 bd f9 99 73 be 34 5d 8b bc c6 7b 5b 3c
       -0.031880256 -0.23789205 -0.017012216 0.013396209
000290 1a fd 27 bd f4 93 16 bc 0f f3 97 3c da 08 ba 3d
       -0.04101286 -0.009190548 0.018548517 0.090837196

user_location_embedding.weight f4 [760, 18]
000000 39 ad 26 3d 3e 15 9b 3b 88 51 8a bc b7 a5 a9 ba
       0.04069254 0.004732757 -0.01688458 -0.0012943064
000010 16 f9 d0 3d 84 b7 c6 3d 80 a3 57 bd ef 06 c6 3d
       0.10203759 0.097029716 -0.05264616 0.09669291
000020 f2 9e 92 bc 3c 50 30 3c eb b8 36 ba 7c dc f1 3c
       -0.017898057 0.010761317 -0.0006970304 0.02952408
000030 15 2c 30 bd ab ca d3 bc 03 d8 88 3c f3 9a 9b bb
       -0.04301079 -0.025853476 0.016704565 -0.004748696
000040 27 9f 7a 3e 3d 8d 1d 3c 18 1a 0f 3c 67 26 f3 bb
       0.24474774 0.009616193 0.008734249 -0.0074203494
000050 f1 6f f3 3b e5 3f e2 ba 3e b7 a2 3c 63 78 ca 3b
       0.007429116 -0.0017261474 0.019862767 0.006178902
000060 dc 25 06 bb 93 7f 93 3c 2f bb d8 b9 69 c2 86 bd
       -0.0020469343 0.018005168 -0.00041338193 -0.065800495
000070 a6 2c 85 3d 79 79 21 3d 7c cf e2 ba 74 e4 44 bd
       0.06502657 0.039422486 -0.0017304267 -0.048069432
000080 9e 47 18 3c 03 6e 0e ba 87 35 b3 3b 2c a4 35 bc
       0.009294419 -0.0005433263 0.0054690274 -0.011086505
000090 eb 28 9e b9 9d 26 c7 3c 00 89 7b 3c 7f 62 b9 bc
       -0.00030166595 0.024310404 0.015352488 -0.022629974
0000a0 15 5c 61 bd 18 5f cf ba a2 ca 88 bb ed 1c bc bb
       -0.055019457 -0.0015821187 -0.0041745463 -0.005740753
0000b0 9f cc 24 3b 3b 7c 8f 3e 73 79 81 bc 34 56 6d 3e
       0.0025146378 0.28024468 -0.015804982 0.23177415
0000c0 ad 28 45 3c 7a 00 a0 3a e6 82 6b 3c b6 e0 dc 3f
       0.012033624 0.0012207173 0.01437447 1.7256076
0000d0 3a 7d 4d 3b 59 2f 20 ba 59 1b 3c bc ef 77 05 bc
       0.0031355158 -0.0006110571 -0.01148113 -0.00814627
0000e0 37 32 bf bb 05 86 8d 3c 10 57 bd be 2f 13 86 be
       -0.0058348435 0.01727582 -0.36980486 -0.2618651
0000f0 93 ef bd 3e a9 43 fc 3c 10 df b4 3c 3f 13 ed 3d
       0.37096843 0.030793982 0.02207902 0.115759365
000100 3c dc fd 3b 63 e6 c2 3e 0c 97 cb bd b9 5e b5 3c
       0.0077472012 0.38066396 -0.09940919 0.022139894
000110 b7 c7 3b bd d4 30 67 bc 96 70 17 3d e1 f6 2a 3d
       -0.04584476 -0.014110763 0.036972605 0.04173935
000120 0e 69 ce 3c 4e 7e bc bd 1c 69 d1 ba fd 57 85 bc
       0.025196578 -0.09203778 -0.001597676 -0.016277308
000130 ae 7e 0a bd 37 10 8a 3d 94 53 0d bd df b1 a1 be
       -0.033812217 0.06741374 -0.034503534 -0.31581017
000140 69 1c 55 3c 35 21 6a 3c d1 f5 90 be 00 b0 3f 3e
       0.013007262 0.014290144 -0.28312543 0.18719482
000150 eb 83 f9 bd 01 8d 0f bf 51 57 1c bd dc 94 b4 bc
       -0.121833645 -0.5607453 -0.03816921 -0.022043638
000160 64 fb da bb 22 ca 1c 3d 56 93 ed 3b f5 d3 9e 3b
       -0.0066828 0.038278706 0.00725023 0.0048470446
000170 03 cd 0a 3d d1 a2 2e 3d 48 c9 5d 3d a3 04 08 3d
       0.03388692 0.042635743 0.054147035 0.033207547
000180 2d 4d a4 bc e8 da 02 bd ea 5e fb 3d 71 a0 c9 3c
       -0.020056332 -0.031947047 0.12273963 0.024612637
000190 96 7d bf 3c 49 e0 35 3e ff 5f 96 3c 62 1d ef 3b
       0.023375314 0.17761339 0.018356321 0.007297204
0001a0 de 85 e7 3c f6 a0 e9 bc 1e 78 dc bb e1 1f a8 3c
       0.028262075 -0.028519135 -0.0067281863 0.020523014
0001b0 7d 09 1c be 9f 72 9a bd 58 ea 81 be 0f c6 09 3d
       -0.15237994 -0.075413935 -0.25374103 0.03363615
0001c0 2e b4 5b 3f c1 e1 84 bd 71 39 ae bc f7 8b 8f 3d
       0.8582181 -0.06488372 -0.021267625 0.07009118
0001d0 ad 6e 8f bc 03 25 3e 3c 94 2d 04 be 95 4d 12 3c
       -0.017508829 0.011605504 -0.12908012 0.00892963
0001e0 17 a0 11 bd 5b 2a 3e 3b 57 7c 37 bc eb 33 3c 3c
       -0.035553064 0.0029016945 -0.0111990785 0.011486988
0001f0 6f 2d a0 3b fc 04 5c 3d 42 bf 6a 3f d8 12 42 bb
       0.0048882286 0.05371569 0.91698086 -0.0029613283
000200 ca fb 95 bf 7d 78 81 ba 82 34 99 3b 02 05 64 3b
       -1.1717465 -0.0009877827 0.004675449 0.0034793024
000210 45 42 e3 bc 81 d1 5e bc ab 77 53 3f c9 06 30 3c
       -0.02774156 -0.013599754 0.82604474 0.010743805
000220 11 de e8 bc 81 c7 41 3b 81 9a a6 be 24 20 7b 3c
       -0.028426202 0.0029568376 -0.32539752 0.015327487
000230 d2 d2 17 3c 16 75 c5 bc 52 d5 74 3b 90 a0 d5 be
       0.009266572 -0.024103682 0.0037358594 -0.41724062
000240 6f ef cd bb 58 fb d2 bc 81 20 08 bc 27 4d b9 bd
       -0.006284646 -0.025754616 -0.008308531 -0.09047919
000250 15 f0 dd bb 9f 4a 35 3e d6 c1 02 bc d8 ad 4f 3a
       -0.006773005 0.17704247 -0.007980784 0.0007922328
000260 ac a1 68 3b 06 b4 4e bc f3 5e f6 3c fe 04 92 3d
       0.0035496755 -0.012616163 0.030074572 0.071298584
000270 31 be 15 ba 18 ed de 3b 42 fe 29 bc 05 8a 8e 3b
       -0.00057122397 0.006803166 -0.010375561 0.0043499493
000280 56 05 03 3c 0b 1a ea 3c 52 4d 1a bd b7 f1 4f 3c
       0.007996878 0.028576871 -0.037671395 0.012691907
000290 7f 2a 13 bd f0 d0 37 bd a1 82 3a 3d 13 54 30 bc
       -0.0359292 -0.044876993 0.045534734 -0.010762232
0002a0 0a 3d ee bd f4 1f 35 bb f3 51 f5 3c 52 97 13 3f
       -0.11632736 -0.0027637454 0.029946303 0.5765277
0002b0 08 2a 20 bb cc 13 c5 3c 79 a4 cd 3c 18 47 c7 3c
       -0.0024439115 0.024057291 0.02510284 0.024325892
0002c0 9e 60 52 3b 87 fb 78 bb 87 fb ec bd a7 e5 f0 bc
       0.0032101045 -0.003799172 -0.115714125 -0.029406382
0002d0 29 34 b2 bb 6a bb d4 3d 43 90 fc bd 98 d7 10 3d
       -0.005438347 0.10387309 -0.12332203 0.035361856
0002e0 69 2d 6d 3e 4a 94 1c 3b 26 e3 1b 3c 6d 18 1b 3f
       0.23161854 0.0023892098 0.009514606 0.60584146
0002f0 76 0c 41 be 70 fd 48 3e 4f ba cc 3d 88 f9 54 bb
       -0.1885241 0.19627929 0.09996473 -0.0032497365
000300 9e 24 52 3c 02 23 db 3a 44 d1 ae bc 2d c9 4f 3d
       0.012826113 0.0016718807 -0.02134002 0.050728966
000310 ba 1e 31 3c c6 8e 3d bf df 53 a4 bb d0 29 3c be
       0.010810548 -0.7404598 -0.005014881 -0.18375325
000320 49 81 1c 3c 46 66 1c 3d 99 84 e8 bc 16 9f 14 bb
       0.009552308 0.038183473 -0.02838354 -0.002267783
000330 88 2c e4 bc 3a b8 c4 bc b5 69 18 3d d1 86 8f 3c
       -0.027853265 -0.024013627 0.037210185 0.01752034
000340 71 af 04 3d 67 da 8e bd 55 11 0c 3e 7d df 23 3c
       0.032393876 -0.06975251 0.13678487 0.010002014
000350 27 06 13 3e d6 e3 96 3e 71 ab ef bc d7 00 9f 3e
       0.14357816 0.294707 -0.029256554 0.31055328
000360 9f 4c c3 bc bd 9e aa be aa 75 d1 bd 9d 80 b4 3b
       -0.023840247 -0.33324233 -0.10227521 0.005508496
000370 1c b0 5d 3f 52 05 a7 3f d7 fb 8f bd ce 82 8e 3d
       0.86596847 1.3048499 -0.070304565 0.06958543
000380 69 d8 9d bc 37 fd e8 bc da b3 33 bd 45 e2 0f bd
       -0.019268231 -0.028441055 -0.04387269 -0.035127897
000390 2d d4 0a bd 41 3c f5 3c 0f 18 5e bd da ce e3 bd
       -0.033893753 0.029935958 -0.054222163 -0.11123438
0003a0 c3 96 50 3c eb 2c 9f bd 9c 45 2b 3b cf 0f 79 bd
       0.012731257 -0.07772239 0.002613402 -0.060806092
0003b0 8c f2 8b bc 86 ac 61 3a 2b 99 13 3b c9 a9 dc 3a
       -0.017083429 0.0008608777 0.0022521715 0.0016835268
0003c0 d9 cc c2 3c 66 95 52 3c 49 59 2d 3d 34 84 bb 3f
       0.02377932 0.012853002 0.042321477 1.464972
0003d0 ab 9f 83 be 33 6b c6 be 47 da b2 3b cc d9 77 bc
       -0.25707754 -0.38753662 0.0054581496 -0.01512761
0003e0 79 c9 c3 b8 03 2e 99 bb 7c 46 91 3d 60 3e f2 3b
       -9.335852e-05 -0.0046746745 0.07093522 0.0073926896
0003f0 95 1d 05 be 80 26 08 3f 45 be db 3c e8 3b 2b bc
       -0.12999566 0.53183746 0.026824126 -0.0104512945

item_id_embedding.weight f4 [1600, 32]
000000 ce e7 8e 3c 70 f6 fe 3b 29 78 62 3c ad 02 90 3b
       0.017444517 0.0077808425 0.013822594 0.00439485
000010 7d 5b d1 3d a0 c5 21 bf 59 8f 29 3d 7f 53 c4 3b
       0.10222528 -0.63192177 0.041396473 0.005991399
000020 12 1d 18 3b d5 c7 81 3c 58 3f 64 bc 75 6f 4a 3b
       0.0023210687 0.015842358 -0.013931118 0.0030889187
000030 b4 f6 6c bc 5d 1f 24 bc 2e cc fa bc 6e e5 9d 3b
       -0.0144631155 -0.010017243 -0.030614939 0.00481861
000040 9e 2b 02 3c fb f6 7b 3d 7f 7b 9b bd 9a 24 2f 3e
       0.007944969 0.061514836 -0.075919144 0.17103806
000050 6d 71 c5 bc c7 e9 8d 3e 96 a1 2b bd 54 b7 e6 3d
       -0.024101937 0.2771742 -0.041902147 0.11265436
000060 78 62 57 3c 62 15 ac 3c 8c 20 91 3c 6c d8 67 3b
       0.013146035 0.02100629 0.017715715 0.00353768
000070 00 c2 4a bc 45 7f 67 bc ad c4 02 3d 29 90 b5 3c
       -0.012375355 -0.0141294645 0.031925846 0.022163467
000080 bb 89 92 bc ec 8d c8 bd cf 58 24 bc 1b 48 d2 3c
       -0.01788794 -0.097926944 -0.010030939 0.025669148
000090 da 55 0e 3d 2a 16 e4 3c 46 54 ac bc f6 b6 ae ba
       0.034749843 0.0278426 -0.021036278 -0.0013329673
0000a0 81 d2 ee 3b 57 5f a4 3c a0 59 75 be 95 da d6 3c
       0.0072882776 0.020064993 -0.2395997 0.026227275
0000b0 cf c8 f3 3c 79 04 db 3b 06 c3 bf bb ce db 93 3c
       0.029758839 0.006683883 -0.005852106 0.018049147
0000c0 6f f8 4e 3c 9f 69 e8 3c 6e bb 87 3c 24 b3 14 bc
       0.012632473 0.028370677 0.016568866 -0.009075914
0000d0 2f 82 7a 3c ea e2 dd bb f1 6d 2c be 46 24 03 3d
       0.015289827 -0.006771435 -0.16838814 0.032017015
0000e0 f3 a1 16 bc 6f 73 d3 3c 9e 96 02 3e 6f 60 ab 3b
       -0.009193885 0.025811879 0.12752768 0.0052300016
0000f0 eb e8 b1 3c e6 97 50 bc 2d f8 0f bb ca 76 3a 3b
       0.02171751 -0.012731528 -0.0021967993 0.0028452151
000100 c5 de 4c bb 00 9e 18 35 a2 9f 30 bb 07 99 a2 3b
       -0.003126071 5.685433e-07 -0.0026950617 0.00496209
000110 d5 56 a1 bb 66 42 9f bc 14 7e 5d 3c 57 78 80 3c
       -0.0049236813 -0.01944084 0.013518829 0.015682383
000120 28 68 f5 3d bc 6d ac bd d3 b9 44 39 05 b1 a9 3c
       0.11982757 -0.08419368 0.00018761242 0.020714292
000130 92 c7 97 ba 56 32 ac bb 9f 87 58 bc 7b c5 a8 bc
       -0.0011579862 -0.005255024 -0.013215928 -0.020601979
000140 a1 de 07 3c 8a 4b 20 bc 88 48 32 bd 9f 77 6f bc
       0.008292825 -0.009783635 -0.043526202 -0.014615922
000150 ec 13 cd 3b 00 53 1b bd fe c0 21 3e d4 dd 8f 3a
       0.0062584784 -0.03792095 0.15796277 0.0010976144
000160 89 cf 00 3b c7 19 97 3e 94 dc 5b bb 61 bc 83 bc
       0.001965495 0.29511854 -0.0033548223 -0.016081037
000170 41 a7 b1 3c e9 22 cb 3e 22 86 e3 3e 59 79 11 3a
       0.021686198 0.39675072 0.44438273 0.0005549393
000180 3a 1f 19 3f ec 33 e0 bb bb c1 c8 be 00 b0 0a ba
       0.5981327 -0.006842127 -0.39210305 -0.0005290508
000190 8a 67 fd 39 90 cb 25 3b 44 b3 c5 3a 2d a1 0b 3c
       0.00048333063 0.0025298335 0.0015083333 0.008522314
0001a0 f9 93 d5 3d 04 25 a9 bb f7 e3 6e bc f1 5c 25 3e
       0.10428614 -0.0051618833 -0.014580718 0.16148736
0001b0 6a d4 b9 bd 47 73 84 3b 6e d6 4d bb f9 97 be bb
       -0.09073718 0.0040420624 -0.0031408328 -0.0058164564
0001c0 24 98 b9 3c 0f 49 14 bb f1 ef 57 bc 7a d0 b3 3e
       0.022655554 -0.0022626554 -0.013179765 0.35119992
0001d0 7a af e6 bb 12 12 07 3c ce 29 7f bb 06 8f 1f 3d
       -0.0070399614 0.008244054 -0.003893483 0.038954757
0001e0 bb 92 0e 3e 39 c4 e6 b9 25 3c d3 3c 56 b8 63 3e
       0.1392316 -0.00044015216 0.025785515 0.22238287
0001f0 45 69 96 bc bc f2 b2 3b 05 ac f6 bc c1 06 6e 3c
       -0.018360743 0.005461065 -0.030111322 0.014527977
000200 bc 4b 05 bc 78 67 7e bd 35 f1 c0 bb a8 1c 9c 3c
       -0.008135732 -0.062110394 -0.005888129 0.019056633
000210 7f 2e 15 bc e4 a9 c1 3e 3f 61 da bb 02 ee 9b 3b
       -0.009105324 0.3782493 -0.0066644247 0.0047585974
000220 22 77 3a bc bf be 8e be f9 81 ea bd f3 4c 90 3c
       -0.011380943 -0.27879903 -0.114505716 0.017614817
000230 fd 05 de ba bb f3 ac bb 6d fa 3c ba 25 c0 f9 3b
       -0.001693904 -0.0052780784 -0.0007208947 0.0076217824
000240 f8 d9 57 3f 92 6b 94 3c f2 2a 72 3b a8 4f 0b 3c
       0.8431697 0.0181177 0.0036951867 0.008502878
000250 75 6e 92 3a a3 69 bc be 79 0a 34 3d 39 08 dd bc
       0.0011171835 -0.36799344 0.0439553 -0.02698146
000260 76 41 b5 ba b4 61 bf 3b ac 97 ed 3b 3c 38 f9 bb
       -0.0013828713 0.0058405045 0.0072507467 -0.0076055806
000270 69 0c eb 3c 16 4f 7e bc db 2d 87 3b 9f 3b 06 3c
       0.028692441 -0.015521785 0.0041253394 0.008192926
000280 6a d6 06 3c a3 e3 76 3c 2d 6d ae 3b 6f c2 5e bd
       0.008229831 0.015068921 0.0053230734 -0.054384645
000290 9f fa 04 3e fc 45 21 bc 8d 37 e8 ba 0e fc f2 3b
       0.1298623 -0.009843346 -0.0017716751 0.007415301
0002a0 ff 94 fe bb 99 e1 b4 3b 6d 89 02 bc 05 d1 77 3b
       -0.0077692266 0.0055200574 -0.007967335 0.0037813794
0002b0 1d b0 06 bc de 56 33 3f 0a f7 71 3a 4e d5 84 3d
       -0.0082207 0.70054424 0.0009230232 0.06485997
0002c0 91 5a ba ba 44 8e 1c ba f2 29 59 3e 62 e2 a4 3c
       -0.0014217665 -0.0005972127 0.21207407 0.020127479
0002d0 b1 38 9f 3e 9c 31 fa 3c 54 7d a2 bd e4 fd bf ba
       0.3109794 0.030541234 -0.07934061 -0.0014647809
0002e0 2c b9 6d bb e0 71 c8 bb 26 0d e6 bc 5d 91 d5 bd
       -0.00362737 -0.0061170906 -0.028082442 -0.104281165
0002f0 da fb a1 bb ee 28 1d 3c f2 4f 72 bc d6 17 0a 3b
       -0.004943353 0.009592278 -0.014789568 0.0021071336
000300 d2 22 71 3b ea a7 cd 3c 1a 66 81 be e2 e9 e3 3c
       0.0036794436 0.025104482 -0.2527321 0.027821485
000310 f4 89 b5 3b ed e4 86 3c c1 09 85 3b 34 d0 db bc
       0.005540127 0.016466582 0.0040600006 -0.026832677
000320 29 4c fd 3e 85 e5 fd ba aa 89 52 3b c9 e9 92 bc
       0.49472168 -0.001937077 0.0032125511 -0.017933743
000330 4c c5 93 3b 87 21 05 bc 78 f8 b1 bf 5b e7 66 bc
       0.0045096036 -0.008125669 -1.3903952 -0.014093245
000340 39 23 96 3c dd ce d1 ba 25 bd 9f 3e a0 d2 fc 3e
       0.018327342 -0.0016007085 0.31198993 0.49379444
000350 80 66 6d bc de c2 89 be 82 a0 5d be ec e0 c0 3c
       -0.01448977 -0.26906484 -0.2164326 0.023544751
000360 d1 16 74 3d fc c3 3d be df b5 00 3f 5b 26 99 bd
       0.059592072 -0.18531793 0.50277513 -0.07478019
000370 87 86 67 bc 6d 9c 17 bd c7 64 e0 ba c0 80 de 3a
       -0.014131195 -0.037014414 -0.0017119878 0.0016975626
000380 cc 5a 32 bd 0b d0 db 3e a9 36 b3 3c fb 3c 8d be
       -0.043543622 0.42932162 0.02187665 -0.27585587
000390 c5 38 1d 3c 70 8e 99 3b d5 fd 08 bc 89 7a b7 bc
       0.009596054 0.0046861693 -0.0083612995 -0.022397297
0003a0 28 87 84 bc d6 bb 93 bc 4d 59 ab bc b4 76 c8 3a
       -0.016177729 -0.018033903 -0.020916605 0.0015294165
0003b0 53 7c 24 3d 67 d0 b1 bc 66 c2 bd 3c 2f 2e a4 3b
       0.040157627 -0.02170582 0.023163985 0.0050103883
0003c0 43 9d 3e 3c a9 69 8f 3e c9 27 5b bd 61 2e 72 bc
       0.011634174 0.280103 -0.05350474 -0.014781565
0003d0 46 aa 11 bf 1c 9c 47 3c fb 4d 96 bc 64 15 1e 3f
       -0.5690044 0.0121832155 -0.01834773 0.6175139
0003e0 61 d5 e6 3a 97 0f 48 bd e9 14 43 3b e0 a6 06 3d
       0.0017611199 -0.048842993 0.0029767102 0.03287399
0003f0 a7 7c d3 bc 94 11 a8 bc 39 eb 8b bc 64 bc 02 3d
       -0.025816275 -0.020516194 -0.017079936 0.031917945

item_type_embedding.weight f4 [5, 8]
000000 85 65 bf 3f 21 75 7c bf 47 b4 ee 3f 08 59 b7 3d
       1.4952856 -0.98616225 1.8648766 0.08952528
000010 d1 3c ab bd af 86 29 3f 23 fd b7 bd 63 ce 85 3d
       -0.08361209 0.66221136 -0.08983829 0.06533506
000020 ab 53 8a 3f 9e 13 5c bf 10 5e b0 3f e7 f8 33 be
       1.0806783 -0.85967433 1.3778706 -0.17575417
000030 71 da 6a bf e5 9e 98 bf 1d 62 85 3f 23 b4 77 3f
       -0.91739565 -1.1923491 1.0420567 0.9675924
000040 75 f3 ac 3e bc 2c 10 bf 9e 8f 21 3e 46 1c a1 bf
       0.33779493 -0.5631826 0.15777442 -1.2586753
000050 3e b2 ee be b2 c7 09 be e3 03 36 3e f4 6a 73 bf
       -0.46620363 -0.13455084 0.1777492 -0.9508507
000060 0f 92 0e 3f 60 97 cf bc 6b 93 38 3f 94 ad 83 3e
       0.5569162 -0.025340736 0.7209994 0.25718367
000070 68 ff c5 3f 74 a0 46 3e 04 6f ad 3d cd 46 a1 be
       1.5468569 0.19397146 0.0846844 -0.3149933
000080 68 ed 3d bf f1 91 58 3e 62 e1 a1 be 26 62 b7 bd
       -0.7419038 0.21149422 -0.31617266 -0.08954267
000090 43 0e b8 3d 2f ba 00 bc 9e 6c ab 3d ef 5e 53 be
       0.08987095 -0.00785689 0.083703265 -0.20641683

item_temperature_embedding.weight f4 [7, 8]
000000 2b 44 8e 3c d6 5d 70 bc 5b 81 a9 ba b0 60 3c bf
       0.01736649 -0.01467081 -0.0012932228 -0.73585033
000010 05 a8 59 3c 5c c1 c7 be b2 16 0a 3d 45 6b 85 be
       0.013284688 -0.3901471 0.03371305 -0.26058403
000020 4e 84 52 3e 1e b5 1a 3f 3e 13 8d be 73 12 35 3e
       0.20558283 0.6043261 -0.27553743 0.17682819
000030 d7 ed 83 be 4d 05 9e 3e ff ae e0 be 01 14 ca be
       -0.25767395 0.3086342 -0.4388351 -0.39468387
000040 b6 db 2e bf f8 0b 7a 3f 2a a2 6d 3f ff 67 c3 be
       -0.68304 0.9767451 0.9282557 -0.3816528
000050 ae db 37 bd 32 ee 24 3b 2e 12 24 bf 24 86 c0 bd
       -0.044887237 0.002516639 -0.6409024 -0.09400585
000060 34 97 2e bf 9e df df 3d 07 c1 a3 be 93 ce 55 be
       -0.6819947 0.109313235 -0.31983206 -0.20879583
000070 4b c0 cb be a3 b9 67 3c e6 2e ac be 9d 00 43 3f
       -0.39795145 0.01414338 -0.3362953 0.7617281
000080 f0 50 1f bf cd e2 d8 be 49 83 cb 3e d4 a8 c9 be
       -0.62232876 -0.42360535 0.397486 -0.39386618
000090 ec 5c d3 3b 7f f4 8d 3f 64 b6 10 3f a0 2d 44 3e
       0.006450286 1.1090239 0.56528306 0.1915803
0000a0 5b 4b 0b 3f 75 e9 b6 be c4 59 ce be e2 27 cf bd
       0.5441186 -0.3572499 -0.4030286 -0.10115029
0000b0 e1 d1 5f 3e 63 76 31 bf 5f 67 a0 3f 35 2b 90 3f
       0.21857406 -0.6932127 1.2531546 1.1263186
0000c0 d0 51 dc be fc 56 b6 3d 66 5c a1 bf 16 40 9b bc
       -0.43031168 0.0890331 -1.2606323 -0.018951457
0000d0 61 28 dc bd 11 8d cf 3e 28 60 67 3e e6 77 0d be
       -0.10749889 0.40537313 0.22595274 -0.13815269

item_humidity_embedding.weight f4 [6, 8]
000000 e5 9b 43 be f1 4d 45 3e fa db c9 3d 4e 89 25 bd
       -0.19102438 0.19268014 0.0985641 -0.040414147
000010 f6 17 0c bf 1d 57 c5 bd 15 0f 3d bf df 9f 67 3d
       -0.5472406 -0.09635756 -0.7385114 0.05654895
000020 93 af 13 bf 4e 82 89 bd 03 e7 01 3f fd 1d 9b bf
       -0.5768978 -0.06714307 0.5074312 -1.2118527
000030 3d 21 1e 3f 53 42 97 3e 1a 3b 77 3e 0e 17 26 be
       0.6176947 0.2954279 0.24143639 -0.16219732
000040 60 ea 6c be 12 a5 11 3e 92 88 c2 3f 79 c4 cc 3e
       -0.23136282 0.14223126 1.5197928 0.39993647
000050 6b e3 08 3f d5 5c 9a be d4 01 9c 3f 9d 27 e4 be
       0.5347201 -0.3014895 1.2188058 -0.44561473
000060 21 ee 08 3f f5 6e 23 3f ad 79 dc bf a0 e4 ff bd
       0.53488356 0.6384118 -1.7224633 -0.12494779
000070 a2 3a e2 be 11 3a d1 be b5 09 db 3e 92 9b 62 be
       -0.44185358 -0.40864614 0.42780843 -0.22129658
000080 3a b9 b1 bf 88 b2 23 3f ee 1d 99 3d e7 ed 54 bf
       -1.3884652 0.6394429 0.07476412 -0.8317551
000090 e2 17 9b 3f 41 5c a5 bf fa 34 16 bd 6f b8 fc be
       1.2116663 -1.2918779 -0.036671616 -0.49359462
0000a0 e3 94 e3 bd 75 04 04 3f d4 37 9c be 6b 5a ab be
       -0.11112382 0.515693 -0.30511343 -0.3346742
0000b0 c4 fd 9c be 67 62 6f 3e a8 56 42 3f 0b ee ed 3e
       -0.30662358 0.23377381 0.75913477 0.46470675

item_windSpeed_embedding.weight f4 [5, 8]
000000 98 a6 88 3f 30 5c f4 3e 96 ea 6b bf ba c3 93 3e
       1.067584 0.47726583 -0.92154825 0.28860265
000010 d7 79 7e 3f 89 c6 2e be af c3 34 bf 7a 98 2f 3f
       0.9940466 -0.17067923 -0.7061109 0.68592036
000020 48 06 46 3f 0c 93 1b bc 74 00 16 bf d1 4a 69 bf
       0.77353334 -0.009495508 -0.5859444 -0.91129786
000030 d5 cf 0e 3e 2a 6c 6d 3e ea 73 ce bc 4f 84 5b be
       0.13946469 0.23185793 -0.025201757 -0.2143719
000040 da da db 3d fc f8 c7 be f3 79 51 3f 57 8f dc 3e
       0.10735102 -0.39057148 0.81826705 0.4307811
000050 5f fd 40 be dc 97 b7 bf e9 ad b3 be 4b ab b0 3f
       -0.18846653 -1.4343219 -0.3509362 1.3802274
000060 cd cc cc be cd ea 71 be d7 01 e0 3e 67 84 59 bc
       -0.4 -0.23624726 0.43751404 -0.013276196
000070 59 c9 cd 3e 71 c3 28 3f 76 4c d0 bd 46 bd 5b be
       0.4019268 0.6592322 -0.10170834 -0.21458921
000080 87 90 38 bd d3 8f 86 3f 5b 3c 54 3d 4d e6 83 be
       -0.045059707 1.0512642 0.051815372 -0.25761643
000090 4d 0c 90 3e 4a d6 1b 3f f1 c9 21 3f 88 8f 5b be
       0.28134385 0.60873854 0.63198763 -0.21441472

GCN_Layers.0.W1.weight f4 [64, 64]
000000 3e 49 26 bd 19 5f 3b 3d fd 1a e0 bc 4f 3c b7 bd
       -0.040597193 0.04574499 -0.027356619 -0.0894705
000010 5b d8 72 3c 9b 38 ed 3c c0 65 1d 3d 90 ea b4 3b
       0.014822091 0.028957656 0.038427114 0.005521126
000020 18 1c a1 bd 08 1d 1c 3e 6a 12 10 3d a6 dd cb 3d
       -0.078666866 0.1524545 0.03517381 0.099543855
000030 fe 21 7a 3c 7e 19 8d 3c 15 2d fa bd 4d 2e 88 bd
       0.015266893 0.01722407 -0.1221563 -0.06649456
000040 0d 21 fc bd d5 04 18 3d c3 8b c7 bb 5a 8a b3 3d
       -0.123109914 0.037113983 -0.006089659 0.08766623
000050 db e3 8e 3c 1a 20 97 3d 78 3d cf bd 28 12 06 3e
       0.017442634 0.0737917 -0.10119146 0.13092864
000060 b0 31 02 3d 8d 13 4f 3d 44 69 4c bc 4e e6 1f be
       0.031785667 0.050555754 -0.012476269 -0.15615198
000070 17 52 d0 bd 6b d1 38 bd f8 d4 8d bd ae 31 14 3d
       -0.101719074 -0.04512159 -0.06925386 0.03618019
000080 a7 c4 92 bd 7a 9f f2 bd a2 13 6f bd 1b a5 33 bc
       -0.07166415 -0.11846824 -0.058368333 -0.010964657
000090 14 e9 85 bd d7 eb 15 3c 2d 39 cd bd cf 5b 8b 3d
       -0.06538597 0.009150467 -0.10020671 0.068046205
0000a0 e7 1f 1d bd 2f 96 f1 3d c7 d1 80 bd 1a 6a 91 bc
       -0.038360503 0.11796223 -0.06290012 -0.017750788
0000b0 45 01 12 3e b8 8b ee 3c df de 29 bd 72 91 5b bc
       0.14258297 0.029119357 -0.041472312 -0.013401376
0000c0 12 ff ca bd 51 0d 5e bd 37 51 ba 3d 16 32 b0 3c
       -0.09911932 -0.05421192 0.09097522 0.021508258
0000d0 a4 97 b3 bd 9e 0d 8c bc 6c 7e 7b bd b0 15 20 3d
       -0.087691575 -0.017096337 -0.061399862 0.039083183
0000e0 5a 52 c3 3d 2c bd 16 3d f2 92 a1 bb 55 8b f2 3c
       0.09537192 0.036801502 -0.0049308473 0.029607454
0000f0 cf 54 0e bd 2a 2d cd bc fd 7d 28 3d 19 9b 19 bc
       -0.03474885 -0.02504595 0.041135777 -0.009375357
000100 53 78 80 3d 00 40 27 bd 50 19 b1 3c b6 9f 83 bd
       0.0627295 -0.04083252 0.021618515 -0.06426947
000110 18 0f 81 bd e8 4c 9d bd 69 56 26 3e a7 e4 9b 3d
       -0.06301707 -0.07680684 0.162439 0.07611971
000120 30 24 1c 3e e7 4b 49 3e a6 fe 94 3d 10 4d 84 3d
       0.1524818 0.1965786 0.07275133 0.06460011
000130 73 bd b7 bd 76 36 04 bd 4c 6d c3 bc 9b 3e 1f be
       -0.089716814 -0.0322785 -0.023855828 -0.15551226
000140 3f 23 64 bd 33 cd 8a bd b9 77 94 3e ad db 27 be
       -0.055697676 -0.0677742 0.2899759 -0.16392393
000150 3d 50 e6 bd 5c 14 a9 3d d2 be 3b 3d 05 57 25 bd
       -0.11245773 0.08255836 0.045836277 -0.04036619
000160 94 c6 0a 3e ef 05 07 3e c4 11 2a be 7f b8 ad 3d
       0.13552314 0.13185857 -0.1660834 0.084824555
000170 36 35 4a 3e 15 5f fb 3d 93 8e 5f bd 32 bc be bc
       0.19746861 0.12273995 -0.05457933 -0.023283098
000180 53 ab 57 3d bf 63 96 3d 55 87 df 3c 18 1e ab 3c
       0.052653622 0.07343244 0.027286211 0.020888373
000190 dd 48 f2 bc 9e f6 af bc 78 d8 b5 bd 5a 07 63 3b
       -0.02957576 -0.0214799 -0.08879179 0.0034641833
0001a0 11 5d c0 3d f1 06 84 3d bc 0c ab 3d ce bd 37 bd
       0.09392751 0.064466365 0.08352038 -0.044858746
0001b0 5f f0 be 3b 6e 64 e5 3d 5e ad 88 bb e3 30 bf 3b
       0.0058269943 0.11200796 -0.0041710576 0.005834685
0001c0 bc 49 c4 bb f6 eb 32 3d 48 e2 03 3d 19 00 e0 bd
       -0.005990235 0.04368206 0.03219822 -0.109375186
0001d0 05 fb ac 3a 36 e0 80 bd 91 01 d8 bd cf 8a 29 3e
       0.0013197368 -0.06292765 -0.10547174 0.16556858
0001e0 70 e2 ce 3d 24 35 a5 bc 5e e2 db 3d 4f ff 92 bd
       0.10101783 -0.020166941 0.107365355 -0.071776025
0001f0 23 75 d8 3d b5 86 c2 bd 78 50 af 3d 4c 2f 51 bd
       0.10569217 -0.094983496 0.0856027 -0.051070496
000200 ed 1c db bc 9c c6 26 3d a8 44 b0 bd e4 a4 21 bd
       -0.026747191 0.040716752 -0.08606845 -0.039463893
000210 88 70 01 be b9 62 b7 bc 4a 43 a2 bd e5 e6 15 bd
       -0.12640584 -0.022385942 -0.079229906 -0.03659715
000220 ae f2 8c bc f3 46 c3 bc 64 86 d5 3d 74 ec 02 3e
       -0.017205562 -0.023837542 0.104260236 0.12785512
000230 5f 9c df 3d 3c 45 ed 3d 85 a9 fc bd 31 38 bc bd
       0.10918497 0.11585471 -0.12337021 -0.09190405
000240 96 99 f3 3b 11 33 f4 bc 38 7d c1 bd b5 7e 9c bd
       0.0074340804 -0.029809507 -0.09447712 -0.07641355
000250 b5 bf 17 3c 2c dd 00 3b ba 64 da bc d2 4f 10 bd
       0.009262015 0.0019663079 -0.026659358 -0.035232373
000260 d0 fd cb 3d 27 7e ea 3d 4e 7e fd 3d d8 69 a1 3b
       0.0996052 0.11449843 0.12377606 0.0049259476
000270 35 c6 0c 3e e3 90 9c bc a6 54 59 3b 24 84 d6 3d
       0.13747485 -0.019112056 0.0033162027 0.104744226
000280 77 c6 e4 3d 1e c6 c9 3c c9 15 c1 bd 28 f0 25 3d
       0.11170667 0.024630602 -0.09427983 0.040512234
000290 7a 44 11 3d 87 be cb bc bc 47 08 bd 3d a1 09 be
       0.035465695 -0.024871124 -0.033271536 -0.13440414
0002a0 92 e7 fe 3c 42 4c ba bb c8 57 2d 3d 75 fc 62 3d
       0.03111628 -0.00568536 0.042320043 0.055416543
0002b0 f9 93 56 bc 8b 34 0f be c9 80 84 3d b1 b6 c5 bc
       -0.013096803 -0.13984887 0.06469876 -0.024134966
0002c0 d1 fb 82 3b e0 9b 40 3d 81 3f 8c bc 50 56 e5 3c
       0.003997304 0.047023654 -0.017120125 0.027995259
0002d0 1e 25 5d bd 71 58 00 be 15 bc 87 3d f3 a8 8f 3d
       -0.053990476 -0.12533738 0.06627671 0.070146464
0002e0 aa 83 3b bd 06 f0 c0 3c a4 ba f2 bc cc 71 3b 3e
       -0.04577986 0.023551952 -0.029630013 0.18305129
0002f0 91 ad dd 3d c0 b3 e3 bc ae 8d 16 3d a6 98 e3 3c
       0.10824121 -0.027795672 0.03675621 0.02778275
000300 54 3b 01 ba 77 7a 85 3d 67 e4 3c bd b6 92 2f 3d
       -0.00049298 0.06517499 -0.04611626 0.042864524
000310 47 07 34 bc 84 ff b9 bd 4d 80 d2 bc 20 81 02 3d
       -0.010988063 -0.09081939 -0.025695944 0.031861424
000320 3f ed 20 3c e5 a6 e1 39 06 82 75 3a c1 8a 8a bd
       0.009822189 0.0004303969 0.00093653833 -0.067647465
000330 3e 81 28 3d 57 1c 1c be a2 19 21 bd 53 3c ea 3d
       0.04113888 -0.15245186 -0.039331086 0.11437287
000340 47 8f e3 bd 35 58 fb bc 9f f5 8a 3d e6 ef fa bc
       -0.11111312 -0.030681709 0.0678513 -0.03063197
000350 57 5b a0 bd 0a b0 c9 3d 30 fa e4 3c 22 b3 04 3c
       -0.07829922 0.0984803 0.02795133 0.008099349
000360 18 48 ec bc 3c c7 36 3d 4b 1b db bc be aa 1f 3e
       -0.02884297 0.0446236 -0.026746413 0.15592477
000370 9f 14 60 bd c0 a3 e4 bd 3d 75 a8 bd 4a ec e0 3d
       -0.054707166 -0.11164045 -0.082254864 0.109825686
000380 f7 f3 b1 3d e1 be ae 3d 2d e5 05 bc 1b 01 a5 3c
       0.08689111 0.08532501 -0.008172316 0.020142129
000390 0e 39 e7 3c d9 ed dd 3d 72 8d c5 3d 59 ec 14 bd
       0.028225448 0.108363815 0.09646119 -0.03635821
0003a0 c2 79 c7 3c e5 78 35 be 71 bb 07 3c c1 32 be bd
       0.02435005 -0.17721899 0.008284436 -0.09287024
0003b0 57 ee 64 bd ad 78 1a 3d ca f9 fb 3b e5 8f 9e bd
       -0.05589136 0.03771274 0.0076896893 -0.077422895
0003c0 c0 a1 82 bd 7f 85 6a bc 76 fd 72 3d 8e 4e 6e bd
       -0.063785076 -0.0143140545 0.05932375 -0.058180384
0003d0 e6 b2 7e bd 04 69 0b bd f1 14 d0 3c e2 8f db 3c
       -0.06218233 -0.034035698 0.02540061 0.026802007
0003e0 bf 14 96 bd 3f fc 20 3d 1e 21 87 bd 0b 20 a3 bd
       -0.07328176 0.03930306 -0.065981135 -0.07965096
0003f0 bb ce a1 3d 32 4a 0c 3d 38 31 b1 3d 7e 3c 60 bc
       0.07900759 0.034250446 0.08651966 -0.013686297

GCN_Layers.0.W1.bias f4 [64]
000000 b5 b7 07 3d 7a c7 58 3c 32 94 3b 3b 09 13 87 bc
       0.03313418 0.013231153 0.0028622267 -0.016488569
000010 b2 8e 0d 3d f1 e7 65 bd 21 0d 56 3a 4d a7 cc 3d
       0.034559913 -0.0561294 0.00081654085 0.099928476
000020 74 00 98 3d cd c7 d0 bd 34 2f 9d bd e1 ce 6a 3d
       0.074219614 -0.10194359 -0.07675019 0.0573262
000030 58 61 bc bd 2d 9b ba 3d fa 5c f4 3d ab 8c 33 bd
       -0.09198254 0.09111629 0.11931796 -0.043835323
000040 6e e5 de 3b 0e e3 bb 3d 29 e2 fc 3d bf 33 9f 3d
       0.0068022525 0.091741666 0.12347824 0.07773542
000050 dc 46 57 bd 4b 97 77 bd 2f 48 09 bd 5b 0d 1a bd
       -0.05255781 -0.06044702 -0.033516105 -0.037610393
000060 95 50 31 bc 3e 9f bd 3d 11 57 92 bc bb ec 6a bd
       -0.010822435 0.09258889 -0.017863782 -0.05735467
000070 6b e0 22 3d 49 7b 5a 3d f3 24 5e bd e1 d2 c5 3d
       0.039764803 0.05334023 -0.054234456 0.096593626
000080 27 cf 74 3c a9 73 ed bc 9a 4c 28 3d 0f 24 2b 3c
       0.014941967 -0.028985815 0.041088678 0.010445609
000090 2d 3f 31 bc e3 e7 c9 bc 3a e3 ad bd 04 c5 ef 3c
       -0.010818285 -0.024646705 -0.08490606 0.029268749
0000a0 61 e5 c1 bb d6 6e 73 3d e8 dd ce bd 07 1b 85 bc
       -0.0059172367 0.059431873 -0.10100919 -0.01624824
0000b0 cc 54 22 3d 95 51 96 bd da 26 dc bc 61 69 5e bc
       0.03963165 -0.07339779 -0.026873995 -0.013574929
0000c0 fc f7 14 3e 50 ed af 3d 8f 3c 46 bd 4a 5d ef 3c
       0.14547724 0.08590186 -0.048397597 0.029219288
0000d0 2b 67 a4 3b 2b 84 58 3d 5b c7 d2 3b 74 35 21 3d
       0.0050171814 0.05286042 0.0064324564 0.039357617
0000e0 45 3f 66 bd 75 ef 53 bd 85 10 cb bd 10 ea 85 bd
       -0.056212682 -0.051742036 -0.0991526 -0.065387845
0000f0 42 e4 9d 3d db 77 32 bd e5 43 84 bb f9 56 3a bd
       0.07709552 -0.043571334 -0.004036414 -0.0454931

GCN_Layers.0.W2.weight f4 [64, 64]
000000 4f 55 14 bb 49 f6 12 3b 27 62 cd 3a 3d d3 47 bb
       -0.0022633856 0.002242463 0.001566951 -0.0030490898
000010 63 21 30 3c 0c b0 01 3c 11 4c 1d bb a0 6d 65 3a
       0.0107501475 0.007915508 -0.0024001638 0.0008751992
000020 57 e6 94 bb 8c 32 35 3c e9 67 0c bc ac f1 e1 3b
       -0.00454406 0.011059415 -0.008569696 0.0068952646
000030 ea ef a0 bb 16 a3 46 ba 65 39 f0 3a 40 2b 08 3c
       -0.0049114125 -0.0007577402 0.0018327652 0.008311093
000040 5e 85 a0 ba 50 97 57 bb 9d ce a9 3a f6 3e f4 3b
       -0.0012246778 -0.0032896586 0.0012955252 0.0074537946
000050 eb e0 0c bb cf 27 2c 3b c4 80 84 bb 19 25 01 3c
       -0.0021496366 0.0026268845 -0.0040436704 0.00788238
000060 c8 34 9c 3a fb aa 32 bc c2 07 95 3b 7c b3 46 3b
       0.0011917586 -0.010905023 0.004548044 0.0030319383
000070 c5 70 0c 3c c1 62 82 3b 3f 4f 68 3b c0 4d 73 bb
       0.008571808 0.0039790575 0.0035447625 -0.00371252
000080 c9 68 04 3e 75 b1 56 bd 9d 8b a3 3d a3 b1 32 bd
       0.12930597 -0.05241533 0.079856135 -0.04362644
000090 d1 42 cd 3c d7 2d 29 3d c2 00 ec bc d2 bd 0f 3d
       0.025056275 0.041303482 -0.028808955 0.035093136
0000a0 4b 0e 5e bb fb f7 96 3c 96 79 38 bd 8e 1f c7 3c
       -0.003388303 0.018428793 -0.04503783 0.024307039
0000b0 a0 1c af bc 55 36 d5 bb 06 fb 4b 3c 78 71 42 bd
       -0.021375954 -0.006506721 0.012449985 -0.047471493
0000c0 19 c2 ef bc cf da 80 bd ad 64 11 3d 6b 08 08 be
       -0.029267358 -0.062917344 0.035496403 -0.13284461
0000d0 ab 2b ac bd 1f c9 99 bc 95 18 a4 3c 68 71 a7 bb
       -0.084067665 -0.01877266 0.020031253 -0.0051099546
0000e0 e5 d5 a7 3c f9 90 56 3b 66 ca c7 3b d7 c8 a1 bc
       0.020487735 0.003274022 0.006097126 -0.019749088
0000f0 8f f6 ab 3d 55 c9 ad 3c 9c a6 c2 bc e6 f1 41 bc
       0.08396637 0.021214167 -0.023761086 -0.011837458
000100 a4 70 98 bb 42 ba 70 bb 6a 1a 40 3b f9 f0 4f 3b
       -0.0046520997 -0.0036732112 0.002931262 0.0031729324
000110 ff 59 76 39 41 08 f5 3b 6a c0 de bb 91 a6 33 3c
       0.00023493914 0.0074777906 -0.00679784 0.0109650055
000120 2a c9 bc bb a4 5e ae 3c 36 f6 74 bc 20 0c 94 bb
       -0.0057612853 0.021285363 -0.014951279 -0.004518047
000130 c4 71 18 3c f9 d7 20 3b 32 21 6d 3b 39 93 67 3b
       0.009304468 0.0024542792 0.0036183116 0.0035335554
000140 1a bb 49 bb b0 ba c0 3a 60 46 88 3c a5 0c aa bb
       -0.0030781687 0.0014704075 0.01663512 -0.0051894956
000150 c1 41 ca bb 2f 93 5d bb 63 e0 90 b9 94 9a c6 3a
       -0.0061723893 -0.0033809652 -0.00027633 0.0015152269
000160 84 cf 63 3a e4 fc 69 3c 96 69 76 3b 8d 81 15 ba
       0.0008690285 0.014281485 0.0037599555 -0.00057032035
000170 e8 84 31 3c 78 84 52 bb 8f f5 ce ba 9c b2 bc 3a
       0.01083491 -0.0032122415 -0.0015789735 0.0014396491
000180 50 a7 a1 3c b2 1d d2 bd c2 f9 3f be fc d2 f9 bc
       0.019733101 -0.1025957 -0.18747619 -0.030496113
000190 84 a6 0c bd db be 08 bd f1 4f 2d 3d 62 27 bc bc
       -0.03433849 -0.03338514 0.042312566 -0.022967998
0001a0 3b 4d 1c bd 68 bf 57 3d 91 e6 70 3d fc 25 bd 3c
       -0.03815959 0.052672774 0.058813635 0.023089401
0001b0 aa c1 9d 3d ca b3 29 3c 7e c6 a3 3c 29 34 9b 3c
       0.07702954 0.010357806 0.01999211 0.01894577
0001c0 9f 34 b1 bd 43 55 0d 3b a8 79 fc bc 15 38 1c 3c
       -0.08652615 0.0021565713 -0.030819729 0.009534855
0001d0 46 36 60 3d f5 07 55 3d b1 e2 52 bc 00 e1 b9 bd
       0.05473926 0.05200954 -0.01287143 -0.090761185
0001e0 bf c9 af 3c 36 31 d4 3c a1 1e 15 3c 67 6c 67 3d
       0.021458505 0.025902372 0.009101541 0.056499865
0001f0 65 31 dc 3d e2 11 53 bd 56 5a 59 bc fe 64 0c 3c
       0.10751609 -0.051530726 -0.013266167 0.008569
000200 5e 55 4e 3b d1 e7 ce b8 9f bf 8f 3b 7a 9a b1 ba
       0.0031483988 -9.8660246e-05 0.0043868567 -0.0013550066
000210 30 57 78 39 33 2e 0d 3b 7f 22 e7 ba 2a c0 55 3b
       0.00023683603 0.002154243 -0.0017634182 0.003261576
000220 a2 e0 40 3a 5c 5f a7 3b 10 a1 0f 3c 49 76 e5 3a
       0.00073576916 0.0051078033 0.008766428 0.0017506565
000230 96 14 57 b9 c2 be a3 38 b6 98 cf 3b 7e 81 8f 3a
       -0.00020511667 7.807977e-05 0.0063353432 0.0010948626
000240 77 0d 98 bb ea 3a ac 3a c8 fe 8b bb 8b 8b 9a b9
       -0.004640277 0.0013140116 -0.0042723157 -0.00029477137
000250 96 59 7a 3a 34 54 33 bb ee 2a a3 bb 35 c7 63 bb
       0.00095500925 -0.0027363421 -0.004979483 -0.0034756188
000260 f9 19 9c bb 67 f6 88 bb d5 71 53 bb ca 62 8f b7
       -0.0047638384 -0.004179764 -0.0032263894 -1.709293e-05
000270 76 f5 7c 3b d7 f4 4d 3b 5f 9a e6 ba 77 3c a8 ba
       0.0038598455 0.0031426453 -0.0017593614 -0.0012835403
000280 18 87 b2 3d 73 6b 51 bd 5c 9e c3 bd 75 f3 85 bb
       0.08717173 -0.051127862 -0.09551689 -0.00408786
000290 77 a8 e4 bd 67 4b fa 3c 29 dc d3 3c f8 c5 6a bc
       -0.111649446 0.030553533 0.025861816 -0.014329426
0002a0 b9 8e 14 bd 61 43 16 3d 6c 65 82 3c a3 2f 80 3d
       -0.036268923 0.03668535 0.015917502 0.06259086
0002b0 61 57 8d bb 17 74 15 3d 1f 1b f2 bb fe 43 ce 3c
       -0.004313395 0.036487665 -0.007388487 0.025178906
0002c0 15 6c c9 3c 79 76 fb bc 2c 92 f2 3c fb d6 ab bc
       0.02458767 -0.03069614 0.029610716 -0.020976534
0002d0 90 2a 40 3c a6 ea 78 3d 3a a0 87 3d dc 58 0b bc
       0.011728898 0.060770653 0.06622358 -0.008505072
0002e0 c1 88 a0 bd a7 cd 5d 3b 14 0c af b9 67 f0 cc bc
       -0.07838584 0.0033844502 -0.000333876 -0.025016977
0002f0 ee 2f df 3c 13 44 9e 3c 41 74 ad bb 8e 49 98 bd
       0.027244534 0.01931957 -0.0052933996 -0.074359044
000300 f3 f5 82 b8 da 0e 90 ba 12 ca 0a 3b e7 89 99 3a
       -6.244695e-05 -0.0010990754 0.0021177572 0.0011714072
000310 df 2c 60 ba d8 35 32 3b 19 97 99 ba 06 e2 bd bb
       -0.0008551608 0.0027192738 -0.0011718004 -0.0057947664
000320 8a 87 06 bb 91 c9 9a bb 6e 6d 91 b9 f6 04 4a 3b
       -0.0020527565 -0.0047237356 -0.00027738087 0.003082571
000330 a5 97 4e ba 36 d8 d5 bb 96 86 c1 ba 7b ea 51 3b
       -0.0007880873 -0.0065260185 -0.0014764841 0.003203063
000340 0b fc 16 bb 70 25 b2 bb 82 ec a3 bb e4 89 f3 bb
       -0.0023038413 -0.005436592 -0.005002559 -0.0074322093
000350 a1 3a e7 3a d7 46 28 ba 9d 0d ee 3a f3 ec 2c bb
       0.0017641374 -0.00064192474 0.0018162016 -0.002638635
000360 a7 ba 08 3b f3 81 95 ba fb af dc ba 2e 05 b7 ba
       0.0020863207 -0.0011406526 -0.0016837114 -0.0013963336
000370 d5 1d 88 3a 2e 53 50 3b ba 7d 9c b9 d6 9c 99 b8
       0.0010384867 0.003178786 -0.00029848312 -7.3248215e-05
000380 75 95 56 bd 4f fc a1 bd f1 f6 3d 3d 8c 40 a6 3c
       -0.052388627 -0.07909452 0.04637808 0.02029445
000390 9c f7 41 bd ea cc fb bc 87 e2 f1 ba 40 7a 8e bc
       -0.04735528 -0.03073736 -0.0018454351 -0.017392278
0003a0 3e 7c 2b bd b8 a8 97 bc c7 f7 8d bc 17 9f e7 3c
       -0.041866533 -0.018513069 -0.017330064 0.028274102
0003b0 71 a9 35 3c 26 a6 f6 bc 58 02 00 bd a1 d6 92 bd
       0.011087761 -0.030108523 -0.031252235 -0.071698435
0003c0 22 4a 09 3d ca e9 1b 3d 9e c1 bb bb 0d 4d c3 bd
       0.033517964 0.038064755 -0.005729868 -0.09536181
0003d0 ae 5c 42 bc 7b ac 4e 3c 07 d8 37 bd 82 a8 a4 3b
       -0.011862917 0.012614365 -0.044883754 0.0050249705
0003e0 f9 75 0a bd db b2 4f 3c c6 73 a3 b8 2e 33 1d ba
       -0.033803914 0.01267692 -7.79401e-05 -0.0005996701
0003f0 f9 b3 d8 3a 85 0f 89 bc 74 79 92 39 30 f4 2e bc
       0.0016533128 -0.016731033 0.0002793778 -0.010678336

GCN_Layers.0.W2.bias f4 [64]
000000 8b f9 8e bd c8 5d b0 bc 1e 32 bd bd d9 11 a1 3d
       -0.0698119 -0.021529093 -0.09238075 0.07864732
000010 79 d5 74 bc 23 bd 1b 3c 8f e7 ec bd 83 ab cb bc
       -0.014943474 0.009505543 -0.11567604 -0.024862057
000020 bc b7 17 bd 6d 03 a0 bb c2 a9 93 bd c6 26 85 bd
       -0.037040457 -0.004883221 -0.07210113 -0.06501536
000030 ae 0a af 3d 8a f5 3b 3d bc 01 b3 bb ed 61 81 bb
       0.08546959 0.04588846 -0.0054628532 -0.0039484412
000040 06 62 39 bd da b4 b2 bd c8 01 1b bd 02 1a 23 3b
       -0.045259498 -0.08725901 -0.037843496 0.0024887328
000050 0b dd d6 3d 3a b8 c7 bd 5d fe ab 3d a1 ea 72 3d
       0.10491379 -0.09751935 0.08398125 0.05930579
000060 23 7d 06 3e 41 73 a6 bc 42 7d 8b 3d 6e 04 4c bd
       0.13133673 -0.02031863 0.068110004 -0.049808912
000070 c3 83 c6 bb 1a 5e a2 3c e0 a9 88 3b 90 b8 05 3d
       -0.0060581877 0.019820262 0.0041706413 0.032646716
000080 4c c0 c5 bd fe 3d 08 bc 17 da 03 3c 60 46 e3 3d
       -0.09655818 -0.008315561 0.008047602 0.11097407
000090 06 7d 2f bd a1 01 9d 3d 2e df 03 3e 44 8d 96 ba
       -0.04284384 0.07666326 0.12878105 -0.0011486192
0000a0 97 da b6 bd c9 78 0c 3c 64 42 89 bd de ac b7 3d
       -0.089284115 0.008573719 -0.06702116 0.08968519
0000b0 3b 61 30 3d d3 d9 01 3d 1e e4 7c 3a c7 53 71 3c
       0.043061476 0.031701874 0.0009647029 0.014729447
0000c0 3b 04 b5 bc c0 c8 99 bd ef 95 c8 3d b4 c9 86 bc
       -0.022096744 -0.07508993 0.097942226 -0.016453601
0000d0 08 1b 07 bc 49 d5 59 bd 15 17 6c 3d be a1 66 3d
       -0.008246191 -0.05318192 0.0576392 0.056306593
0000e0 71 ea 17 bd 10 ff 06 3e 2b 34 40 3d a5 6c 90 bc
       -0.037088815 0.13183236 0.04692475 -0.01762993
0000f0 01 29 cd bd 37 7d 65 3d c2 1b bb bc ec ed 36 bd
       -0.100175865 0.056027617 -0.022840384 -0.044660494
