lab4-student/code/model/bestModelParms-11-14-19-49.pth (torch, 465577 bytes, 20 tensors)

user_id_embedding.weight f4 [900, 32]
1.8132614 -0.55655056 -1.045834 0.031634074 -0.45950106 0.36988145 -1.5595579 -0.9241311
-0.52092034 0.46553633 0.6348195 0.3521131 0.3545232 0.8116893 -1.1866652 -1.1327314
-1.9481341 0.59366727 0.11945715 -0.997055 -0.34286556 0.34548423 -0.78680307 -1.5049065
-0.20460896 -0.87385404 -1.0721607 -0.26515257 0.39178827 -0.44691458 0.5159137 0.16227359
0.1311825 1.2303658 -0.3471342 1.0451529 0.43161222 -1.2005099 -0.29994687 -0.6896793
0.0632702 -0.30156806 1.0552634 -0.012776166 -0.1946783 -0.6457821 0.3199491 0.82446516
-1.0185624 0.07262352 -0.9038655 0.34250972 -1.0899762 0.56677246 0.5356659 1.896708
-2.348696 1.5566845 -1.2891837 -0.1705677 0.17151777 1.937384 0.99975413 -0.031241013
-0.15630923 -0.8478528 -0.7247741 0.13145222 -0.15950863 1.1125401 -0.15053764 -0.34893015
1.484336 -0.57697046 -0.435183 0.14953087 -1.7378973 -0.52240837 -0.09013434 -0.8648352
0.9063092 -0.5463369 -1.6350566 0.9106364 0.11728943 -0.74842024 -1.1353755 0.6784537
-0.091659866 1.279802 -0.6386189 -0.5173573 -0.16127494 -0.0020900243 0.44164482 -1.2874672
1.5188426 0.97800344 0.5917304 -0.05186879 1.4544141 -0.7075151 0.7192059 -0.44459096
-1.3702933 -1.0191547 1.1561556 0.97310317 1.1156468 0.44991133 -0.56083494 0.59125096
-0.3478594 0.012350792 -7.305248e-05 1.0924948 0.12555099 -0.4110541 0.35681862 -0.70779806
-0.7974817 -0.07452355 0.09904051 1.5516183 0.06478806 -0.0934528 0.55308735 -0.29147857
-0.27546674 0.27906758 -0.79466 -0.91636795 0.066676185 1.608944 1.4995028 0.6681341
-0.09223638 -1.2152255 -0.4027319 -1.030978 0.0005201744 1.0776857 1.0201535 0.7218164
-0.05953408 0.6931974 -0.4384313 -0.4260779 -0.41922754 -0.14578734 0.27790898 0.050582398
-0.654142 0.9772433 -1.0255687 1.205509 -0.363401 0.8180982 1.4526265 0.82672745
-0.42419747 0.53525215 -1.8770002 -1.5155143 -1.1064216 0.46318483 1.9207553 0.95834786
-0.526362 -1.3121518 -1.1702161 -0.2685044 -1.8944684 2.0163684 -1.1237372 -0.23271129
0.23296879 -0.23750405 1.6937263 -0.8258653 -0.15447187 0.88879275 -0.23416005 0.03392535
-1.5084081 0.27770036 -1.8680094 -0.14661975 0.32792702 -0.014292482 1.1868594 0.7658611
0.8173818 -1.290293 0.35859075 1.0554881 1.048374 -1.6423073 -1.6765095 0.9320348
-0.74662423 -0.28004113 1.1267858 0.035891797 0.90027565 1.0849203 -2.2479565 -0.36203018
0.282879 -3.0828643 -0.7962363 -1.1900733 -0.3380188 0.028836144 -1.0727946 0.16078734
-0.065653935 0.9016889 -0.15859665 -1.2247956 -1.7183907 0.22946398 2.5028305 -0.0022867548
0.90321016 -0.12805595 0.09985987 0.6283568 2.3752832 -0.7330844 0.59640646 -0.23633696
0.18287803 1.1775308 -1.9353358 -0.66530234 -0.1447013 0.73952717 -0.3453052 1.4390799
-0.7602545 -0.89797986 -1.3643687 -0.36618966 1.3636217 -0.8162244 1.1276612 -0.24529476
-0.33019707 0.08761302 -0.1201335 -0.16589043 0.5352512 -0.18003586 0.7520793 -1.7487406
00000000: f318 e83f 197a 0ebf e3dd 85bf bb92 013d
00000010: b943 ebbe 1a61 bd3e 989f c7bf db93 6cbf
00000020: 095b 05bf c75a ee3e 8883 223f 2b48 b43e
00000030: 1184 b53e dfca 4f3f a5e4 97bf 58fd 90bf
00000040: 755c f9bf 94fa 173f f3a5 f43d ff3e 7fbf
00000050: 138c afbe 4fe3 b03e ed6b 49bf c7a0 c0bf
00000060: 0385 51be e6b4 5fbf 903c 89bf 14c2 87be
00000070: 7998 c83e fdd1 e4be ec12 043f 0c2b 263e
00000080: b554 063e a07c 9d3f 93bb b1be 92c7 853f
00000090: 47fc dc3e 4faa 99bf a392 99be d38e 30bf
000000a0: ce93 813d 2167 9abe df12 873f 2053 51bc
000000b0: c059 47be fa51 25bf 5ed0 a33e 2610 533f
000000c0: 4160 82bf a4bb 943d bb63 67bf 6f5d af3e
000000d0: 5784 8bbf 0018 113f 6721 093f 54c7 f23f
000000e0: 0951 16c0 7041 c73f f903 a5bf 4da9 2ebe
000000f0: 5ba2 2f3e 33fc f73f e3ef 7f3f 27ed ffbc
00000100: 870f 20be e20c 59bf cc8a 39bf 699b 063e
00000110: 3b56 23be b767 8e3f 8a26 1abe f9a6 b2be
00000120: b9fe bd3f 56b4 13bf 4ed0 debe 9f1e 193e
00000130: 6b73 debf 8ebc 05bf 5a98 b8bd d765 5dbf
00000140: e103 683f bcdc 0bbf 8949 d1bf 781f 693f
00000150: 7135 f03d 7898 3fbf fc53 91bf 24af 2d3f
00000160: 2bb8 bbbd 8dd0 a33f 877c 23bf 8771 04bf
00000170: 4225 25be caf8 08bb 451f e23e bacb a4bf
00000180: 6f69 c23f 6f5e 7a3f a57b 173f 5e74 54bd
00000190: 3e2a ba3f b61f 35bf e11d 383f 6da1 e3be
000001a0: c565 afbf a973 82bf e8fc 933f 4a1d 793f
000001b0: 84cd 8e3f c75a e63e e192 0fbf 395c 173f
000001c0: a11a b2be fa5a 4a3c c033 99b8 dfd6 8b3f
000001d0: 7090 003e af75 d2be eeb0 b63e 4132 35bf
000001e0: c327 4cbf ce9f 98bd c0d5 ca3d 6e9b c63f
000001f0: 9aaf 843d 2e64 bfbd 2297 0d3f ae3c 95be
00000200: fa09 8dbe f2e1 8e3e d66e 4bbf 1797 6abf
00000210: 868d 883d e1f1 cd3f b5ef bf3f d60a 2b3f
00000220: 6de6 bcbd 828c 9bbf e032 cebe 16f7 83bf
00000230: 505c 083a 9bf1 893f 6494 823f f6c8 383f
00000240: 02da 73bd 6375 313f 117a e0be e226 dabe
00000250: fea4 d6be 4749 15be 164a 8e3e 7d2f 4f3d
00000260: da75 27bf 9e2c 7a3f d645 83bf 1e4e 9a3f
00000270: b20f babe e26e 513f aaef b93f 69a4 533f
00000280: 6930 d9be 4906 093f 8b41 f0bf 5ffc c1bf
00000290: 399f 8dbf 9026 ed3e 4fdb f53f 4956 753f
000002a0: a9bf 06bf 97f4 a7bf a4c9 95bf 6979 89be
000002b0: f17d f2bf 2e0c 0140 9fd6 8fbf de4b 6ebe
000002c0: 5f8f 6e3e 4334 73be 06cc d83f e96b 53bf
000002d0: e02d 1ebe ec87 633f a7c7 6fbe 4ff5 0a3d
000002e0: 8413 c1bf be2e 8e3e ef1a efbf 7d23 16be
000002f0: 0de6 a73e 042b 6abc 02eb 973f 790f 443f
00000300: ef3f 513f 5228 a5bf 3599 b73e 3c1a 873f
00000310: 1f31 863f 2037 d2bf dd97 d6bf d599 6e3f
00000320: c422 3fbf 8d61 8fbe 843a 903f 4703 133d
00000330: 7778 663f abde 8a3f 85de 0fc0 055c b9be
00000340: 84d5 903e a64d 45c0 24d6 4bbf 5254 98bf
00000350: cd10 adbe c739 ec3c 5551 89bf 70a5 243e
00000360: 9275 86bd 15d5 663f 2967 22be 1ac6 9cbf
00000370: 3af4 dbbf 9bf8 6a3e 602e 2040 61dd 15bb
00000380: c838 673f 1921 03be 5583 cc3d fedb 203f
00000390: a404 1840 6bab 3bbf 18ae 183f 5102 72be
000003a0: 6144 3b3e 54b9 963f 15b9 f7bf 4151 2abf
000003b0: 942c 14be a751 3d3f d8cb b0be c533 b83f
000003c0: 0aa0 42bf 02e2 65bf a2a3 aebf 367d bbbe
000003d0: 288b ae3f 15f4 50bf 3457 903f 8d2e 7bbe
000003e0: 970f a9be 746e b33d 8d08 f6bd 2edf 29be
000003f0: 3906 093f 525b 38be 4588 403f bbd6 dfbf

user_age_embedding.weight f4 [5, 4]
0.61067307 0.6058687 -1.822233 1.3790014 0.64995164 -1.8528993 -0.595377 0.4783163
0.33794862 -0.46778825 0.14854075 -0.583129 1.4728545 0.66124487 1.0129609 0.4641124
-0.12298303 0.5093468 1.2887799 -1.6325625
00000000: 1255 1c3f 361a 1b3f ee3e e9bf 1e83 b03f
00000010: 3b63 263f ce2b edbf a16a 18bf e0e5 f43e
00000020: 9a07 ad3e f181 efbe 111b 183e f147 15bf
00000030: 7f86 bc3f 5847 293f b4a8 813f 24a0 ed3e
00000040: 87de fbbd 8d64 023f bdf6 a43f cff7 d0bf

user_gender_embedding.weight f4 [2, 2]
0.07157243 0.31892788 -1.6665236 0.42801753
00000000: 9194 923d 844a a33e a550 d5bf 1d25 db3e

user_occupation_embedding.weight f4 [21, 8]
0.19902438 1.2534246 -1.0639485 0.19565257 0.8650548 0.50385475 2.093513 1.1871738
-0.028464332 -1.6109042 0.9452972 -0.6188656 -1.4376019 0.6324199 -0.530207 -0.5347975
1.1083125 -0.95535225 1.4288183 0.38773745 1.0344892 -1.0805787 -0.52532816 0.76050264
2.4827504 0.12770207 -2.0202453 2.258797 0.20600708 -0.14764298 -0.9671144 -0.95902956
0.6950621 -1.2888691 -0.92726547 0.46573564 0.6669598 -1.2999644 0.620149 -1.3124641
-1.4638836 -0.41922802 0.08177471 -0.20392154 -0.31936383 -1.4475147 0.7101251 -0.4026521
0.4910117 -2.5675857 0.76602006 0.5704933 -0.83502257 0.9457357 0.11293281 0.8673268
0.18032998 0.7751217 -0.8760082 1.1111034 -0.32417744 0.24029401 0.75850695 0.7272838
-0.094950914 -1.0589043 0.71477747 0.118009314 -0.52039427 -1.3401963 1.1116452 -0.4400706
1.1149604 -0.47318968 0.27606004 -0.89102525 -0.6296985 -0.43417343 1.3747241 0.7866668
-0.045005187 -0.73707265 0.39432535 -0.6203409 0.87547386 -0.6673281 -1.0965791 -0.9345115
-0.63194263 -0.04109002 0.8253532 -0.1755337 1.527308 -0.044658802 -0.8763671 0.50186247
2.0079062 1.7791399 1.2005683 -1.2214752 -0.93024623 -0.08875729 -0.0039286697 -0.99136263
0.34941065 -1.1392517 0.8448362 -0.23620827 0.696931 1.3538414 0.16782188 0.70550126
0.26592377 1.3422426 0.76517254 -0.22789285 -0.4883403 -1.0938711 0.10715278 -0.33681756
0.9374384 1.1868987 -0.26846397 -0.5714365 -0.17620668 2.0767305 0.849198 -0.27158234
0.231194 -0.030114796 -0.9591287 -0.580188 -0.80645424 0.013104952 -0.017426912 0.6786641
1.1949035 0.33924302 -1.9459802 -0.67321503 1.5714568 -0.88822937 1.6748612 0.2049313
0.06383298 -0.21589419 1.5133996 -0.10823113 0.16338785 -1.5309362 -0.5116527 -0.5382609
1.3435943 1.0631922 -2.837406 -1.0954541 -0.6437187 -1.0001899 1.0371635 0.4880236
-0.29885408 -1.484931 0.6806078 -0.92160285 -0.82242584 -0.7943717 -0.4077699 0.9185484
00000000: 0ccd 4b3e 3870 a03f 772f 88bf 2659 483e
00000010: 3b74 5d3f a0fc 003f 1efc 0540 50f5 973f
00000020: 082e e9bc 1c32 cebf fffe 713f fa6d 1ebf
00000030: 5703 b8bf 45e6 213f a5bb 07bf 7de8 08bf
00000040: 2fdd 8d3f f791 74bf 85e3 b63f 8685 c63e
00000050: 246a 843f 6750 8abf e87b 06bf 4db0 423f
00000060: 62e5 1e40 55c4 023e b34b 01c0 2190 1040
00000070: 85f3 523e b92f 17be cf94 77bf f682 75bf
00000080: 97ef 313f aaf9 a4bf 4561 6dbf e774 ee3e
00000090: e1bd 2a3f 3c65 a6bf 16c2 1e3f d3fe a7bf
000000a0: 8a60 bbbf 0ea5 d6be 8079 a73d cfd0 50be
000000b0: a883 a3be 2948 b9bf c2ca 353f 6b28 cebe
000000c0: e365 fb3e 5353 24c0 e419 443f d90b 123f
000000d0: 0ac4 55bf bc1b 723f 5149 e73d 2109 5e3f
000000e0: 6ca8 383e 606e 463f 1342 60bf a338 8e3f
000000f0: 96fa a5be a20f 763e 832d 423f 452f 3a3f
00000100: a075 c2bd 2d8a 87bf a8fb 363f deae f13d
00000110: 8f38 05bf 8d8b abbf 644a 8e3f ef50 e1be
00000120: 06b7 8e3f eb45 f2be be57 8d3e 3b1a 64bf
00000130: ec33 21bf fb4b debe f6f6 af3f ff62 493f
00000140: 5c57 38bd cbb0 3cbf 03e5 c93e a9ce 1ebf
00000150: 0e1f 603f 04d6 2abf b45c 8cbf 253c 6fbf
00000160: fec6 21bf 024e 28bd 594a 533f 1bbf 33be
00000170: d47e c33f 26ec 36bd 9859 60bf 0f7a 003f
00000180: 8981 0040 dbba e33f 39ac 993f 4d59 9cbf
00000190: 9e24 6ebf 62c6 b5bd 12bc 80bb f1c9 7dbf
000001a0: f4e5 b23e 00d3 91bf 2f47 583f 95e0 71be
000001b0: 126a 323f ad4a ad3f 80d9 2b3e bb9b 343f
000001c0: 2927 883e 9bce ab3f 59e2 433f be5c 69be
000001d0: bd07 fabe f803 8cbf eb72 db3d 5a73 acbe
000001e0: f7fb 6f3f 4cec 973f 1c74 89be aa49 12bf
000001f0: 866f 34be 27e9 0440 0a65 593f d70c 8bbe
00000200: 1fbe 6c3e 4eb3 f6bc 7589 75bf 3387 14bf
00000210: c973 4ebf 27b6 563c e2c2 8ebc eebc 2d3f
00000220: 99f2 983f 43b1 ad3e e115 f9bf d257 2cbf
00000230: 7f25 c93f 0063 63bf da61 d63f 83d9 513e
00000240: deba 823d 5e13 5dbe 14b7 c13f 48a8 ddbd
00000250: 254f 273e b8f5 c3bf acfb 02bf 77cb 09bf
00000260: e6fa ab3f af16 883f 0f98 35c0 d737 8cbf
00000270: c0ca 24bf 3906 80bf c6c1 843f 3bde f93e
00000280: 6703 99be 3812 bebf 503c 2e3f 2aee 6bbf
00000290: 808a 52bf f25b 4bbf 37c7 d0be fd25 6b3f

user_location_embedding.weight f4 [760, 18]
0.4060855 -0.37699527 -0.59363914 -0.9907697 1.1103331 1.0774313 0.65825903 1.182071
-0.94493604 0.01009504 -0.7170452 0.7507067 -0.6605538 -1.0404537 0.49195448 -0.061725993
1.608754 -0.4253639 -0.007803118 -0.54526633 -0.13518696 0.5330663 -0.095213704 0.14417964
0.17894481 0.6042182 0.21260194 -1.1857874 1.1780627 0.98084986 0.890324 -1.1164478
0.7772556 -0.08059273 0.036480367 0.3430365 -0.21111035 0.9487147 -0.7936982 -0.7933854
-1.1767608 -0.6987618 -0.13495561 0.87781715 -0.23480111 1.672072 -0.1763015 1.5796593
0.9368252 -0.060438596 0.16740268 3.4735503 -0.5663138 0.6107904 -0.8308483 0.47902626
0.11998391 -0.34527186 -1.801246 -1.6116217 1.8238844 0.78191626 -0.76410246 1.3486503
0.8241205 1.8096453 -1.2786992 0.8251893 -1.0156927 0.18231629 0.2810729 -0.11501177
-0.5384613 -0.38845763 -0.6389325 0.060487892 -1.0648662 0.8612203 -0.82370543 -1.7154034
-0.2636729 0.25516802 -1.5784172 1.4622468 -1.2584156 -2.1008732 -1.0442315 0.71718615
0.23058152 0.5797385 0.21976502 0.9621928 -0.58479285 -0.76677984 0.023937952 -0.7006686
0.008186349 -0.8654897 1.2894735 0.3293463 -0.1586221 1.4740616 -0.072776146 0.6358807
-0.54810524 -0.24685875 0.67231697 0.9632354 -1.4020505 -1.1387924 -1.4837449 -0.019199697
2.4618058 -0.7526028 -0.011255567 0.96104145 -0.61696213 0.2976185 -1.3510554 -0.14123687
-0.6616494 -0.73119336 0.46423176 -0.22974955 -0.11361448 -0.20092385 2.5482526 0.51518613
-2.8479068 -0.17434868 -0.026430659 -0.62903136 0.201885 0.21063693 2.431766 0.019374922
0.09307749 -0.50504005 -1.7024614 0.22973913 0.7795678 0.0685666 -0.45782232 -1.8888197
-0.29951817 -0.9454355 -0.6042815 -1.2650509 -0.76658595 1.4625746 -0.69145226 -0.36596173
0.048894055 0.39103597 1.0103877 1.2069945 -0.6348385 -0.36944908 0.045086954 -0.59485114
0.09753271 0.14864524 -0.6747692 0.20435297 -0.02525534 -0.22032882 1.1207533 0.6079832
-1.3277477 0.07809723 1.0838624 2.111106 0.051369093 0.3393476 0.3175368 -0.60641986
-0.07025322 0.025846843 -1.3082786 0.11492113 0.10283126 1.1977429 -1.2974844 1.0893987
1.577466 0.8785534 -0.3921044 2.1511161 -1.457653 1.5136821 1.2472106 -0.15961836
-0.41172844 0.16017087 -0.8901774 1.1447806 -0.20703718 -2.3102717 -0.34078208 -1.4865111
0.79931396 0.7949462 -0.6791231 0.6401901 -0.49259496 0.5510348 0.9515295 -0.657558
-0.36063394 -1.2198243 1.342322 -0.57802695 1.4160227 1.7034091 -1.0176897 1.6989064
-0.58548254 -1.7592024 -1.0185797 0.7611991 2.4847665 2.9485872 -1.2361239 0.9291563
-0.7771269 -0.17862482 0.125969 -0.5778293 -0.81650233 -0.18319507 -0.7586396 -1.2837036
-0.08482397 -0.94167036 0.2367113 -1.1051596 0.6454453 0.363665 -0.30600703 -0.22036271
0.40586862 0.6667344 1.0571457 3.1733336 -1.6010399 -1.8384751 -0.67225534 0.036431883
-0.58874696 -0.8177938 1.1657966 -0.5281586 -1.3216465 2.0406647 -0.33687356 -0.57379866
00000000: 70ea cf3e 8605 c1be bcf8 17bf 15a3 7dbf
00000010: 651f 8e3f 45e9 893f aa83 283f 1a4e 973f
00000020: 54e7 71bf ab65 253c 4690 37bf 502e 403f
00000030: 0e1a 29bf 962d 85bf 75e1 fb3e 65d4 7cbd
00000040: a7eb cd3f 4cc9 d9be 4cb1 ffbb 9396 0bbf
00000050: 736e 0abe 0877 083f 67ff c2bd d4a3 133e
00000060: 4f3d 373e 0bae 1a3f 53b4 593e e2c7 97bf
00000070: c2ca 963f fa18 7b3f 46ec 633f c3e7 8ebf
00000080: 39fa 463f cd0d a5bd 706c 153d 7ba2 af3e
00000090: 502d 58be f7de 723f ce2f 4bbf 4e1b 4bbf
000000a0: 19a0 96bf 0ee2 32bf ce31 0abe a0b8 603f
000000b0: b46f 70be 7506 d63f 6188 34be 4732 ca3f
000000c0: c7d3 6f3f 768e 77bd 9c6b 2b3e a64e 5e40
000000d0: f1f9 10bf c25c 1c3f 79b2 54bf ee42 f53e
000000e0: 20ba f53d 79c7 b0be 3b8f e6bf 9f49 cebf
000000f0: 0b75 e93f aa2b 483f 389c 43bf 93a0 ac3f
00000100: 90f9 523f 75a2 e73f 6aac a3bf 9b3f 533f
00000110: 3802 82bf 1fb1 3a3e cae8 8f3e 4a8b ebbd
00000120: 9ad8 09bf ebe3 c6be 1591 23bf 27c2 773d
00000130: 894d 88bf ef78 5c3f 5cde 52bf 5792 dbbf
00000140: 2200 87be 62a5 823e 9309 cabf e72a bb3f
00000150: c313 a1bf b574 06c0 61a9 85bf 8399 373f
00000160: 901d 6c3e be69 143f 150a 613e 4452 763f
00000170: fcb4 15bf af4b 44bf 8619 c43c 045f 33bf
00000180: 0920 063c bc90 5dbf 780d a53f 14a0 a83e
00000190: d56d 22be 0dae bc3f a90b 95bd 14c9 223f
000001a0: a050 0cbf 8ac8 7cbe f71c 2c3f 9896 763f
000001b0: 6476 b3bf f3c3 91bf 5aeb bdbf af48 9dbc
000001c0: 3a8e 1d40 94aa 40bf 4569 38bc d006 763f
000001d0: 3bf1 1dbf 7461 983e 62ef acbf 66a0 10be
000001e0: db61 29bf 7d2f 3bbf c9af ed3e 7743 6bbe
000001f0: b5ae e8bd fbbe 4dbe 9216 2340 3de3 033f
00000200: 1b44 36c0 7688 32be 1c85 d8bc 3308 21bf
00000210: f1ba 4e3e 35b1 573e 0ea2 1b40 28b8 9e3c
00000220: 699f be3d 4e4a 01bf 41ea d9bf bc40 6b3e
00000230: c191 473f a56c 8c3d b067 eabe d8c4 f1bf
00000240: 725a 99be 1008 72bf 31b2 1abf 30ed a1bf
00000250: fa3e 44bf a535 bb3f 0403 31bf 565f bbbe
00000260: 2245 483d de35 c83e 6254 813f cc7e 9a3f
00000270: c784 22bf 6e28 bdbe 19ad 383d 2a48 18bf
00000280: 3bbf c73d 7536 183e adbd 2cbf e841 513e
00000290: 49e4 cebc e19d 61be d874 8f3f c9a4 1b3f
000002a0: a3f3 a9bf 71f1 9f3d 01bc 8a3f 5c1c 0740
000002b0: 6668 523d f8be ad3e 2f94 a23e 553e 1bbf
000002c0: ece0 8fbd c2bc d33c ac75 a7bf c55b eb3d
000002d0: 3299 d23d a44f 993f f813 a6bf 6b71 8b3f
000002e0: 68ea c93f e0e8 603f e8c1 c8be e3ab 0940
000002f0: 6094 babf 56c0 c13f 99a4 9f3f ff72 23be
00000300: 12ce d2be d503 243e abe2 63bf 2c88 923f
00000310: 8e01 54be 7edb 13c0 fd7a aebe ff45 bebf
00000320: d79f 4c3f 9881 4b3f 03db 2dbf 80e3 233f
00000330: 6835 fcbe 9e10 0d3f 7097 733f b955 28bf
00000340: 03a5 b8be 3423 9cbf 35d1 ab3f 93f9 13bf
00000350: 3b40 b53f 4f09 da3f a843 82bf c475 d93f
00000360: 2fe2 15bf 8b2d e1bf d260 82bf f2dd 423f
00000370: 6a06 1f40 a7b5 3c40 4f39 9ebf 30dd 6d3f
00000380: caf1 46bf 6de9 36be 04fe 003e 9fec 13bf
00000390: 4c06 51bf 7d97 3bbe 3436 42bf 6650 a4bf
000003a0: 31b8 adbd 4f11 71bf 7264 723e df75 8dbf
000003b0: e73b 253f 4d32 ba3e f4ac 9cbe c3a6 61be
000003c0: 03ce cf3e 1baf 2a3f 8d50 873f e617 4b40
000003d0: e0ee ccbf 2753 ebbf ed18 2cbf 9939 153d
000003e0: 1fb8 16bf ef5a 51bf d338 953f 6735 07bf
000003f0: b62b a9bf 409a 0240 b17a acbe 78e4 12bf

item_id_embedding.weight f4 [1600, 32]
0.6106842 -0.23913112 0.3972098 -0.61330473 1.2152302 -2.1675584 1.0741775 0.090393685
0.20051304 1.0216143 0.18057501 0.5528833 0.6385104 -0.029049683 -0.95637655 0.3153689
0.35090795 1.1292313 -1.0927408 1.4307667 -0.4103629 1.6554595 -0.9400288 1.2973275
-0.25477567 0.5848933 -0.25954568 0.5744182 -0.7621344 -0.48426038 0.7446413 0.55546755
-0.043120317 -1.2861011 -0.33568934 0.8195079 0.5088645 -0.23449591 -0.70631367 0.8831347
-0.31275588 0.81596833 -1.5802969 0.046057664 -0.048459996 0.19286934 -0.5808389 -0.40788728
-0.245227 -0.10714591 -0.9033513 -0.60171133 1.0301584 -0.121904664 -1.4445977 1.1105042
-0.12952916 0.94037265 1.3917105 0.10021209 0.79835063 0.7181497 -0.0521336 -0.13148428
-0.45027277 -0.6196465 -0.3701824 0.47494903 0.80001086 0.2197108 -0.07275215 -0.5970622
1.3324234 -1.1766679 -0.46363673 0.59712416 -0.63486403 -0.16439244 -0.08747036 0.038030595
-0.23257314 -0.5268209 -1.0341679 -0.8044114 0.8275155 -1.1105524 1.4504828 -0.021522108
-0.44798484 1.6966766 0.41446152 -0.14932866 -0.6185416 1.8430951 1.908429 -0.07646903
2.1458347 -0.3212203 -1.8446327 -0.38146198 0.52698123 0.62543833 -0.4664607 0.37946498
1.327373 -0.7505034 -0.79831374 1.4372119 -1.3061507 -0.0691938 -0.07826904 -0.3856232
0.95269233 0.1914481 -0.43280324 1.7802547 -0.48408422 -0.4316252 -0.82609147 1.0022714
1.3798664 0.23902944 0.82381177 1.558866 -0.028014418 -0.36676797 -0.9966129 0.9041394
0.11357253 -1.2025234 -0.44682306 -0.37606746 -1.0124683 1.8058623 0.23784827 0.4227446
-0.10593456 -1.6573504 -1.3195887 -0.14407411 0.22215715 -0.61285526 -0.45130095 0.42999804
2.4489038 0.021727998 0.45487195 0.5183103 -0.13832295 -1.7961333 1.0713472 0.24067248
0.018309496 -0.46850082 -0.24034166 0.5295157 0.926435 -0.67214143 -0.052168503 0.3409024
0.8810207 0.15232979 0.19408779 -1.1242865 1.3731229 -0.122086205 0.052006524 -0.026697759
-0.06535322 0.25311026 -0.08996983 0.008878515 -0.47021967 2.2784872 -0.4559984 1.1756812
0.72620934 0.292357 1.540604 0.9330071 1.7060995 1.0073749 -1.2244672 -0.42614216
-0.5213403 -0.78355277 -0.89360434 -1.3156666 0.627595 0.19601363 -0.32255286 -0.7241363
-0.8230898 0.07532296 -1.6120304 0.0034849606 0.34254423 0.6174522 0.91904426 -0.207505
2.0113788 0.16030996 -0.572921 0.34946162 0.86340106 -0.17205866 -3.1039839 -0.7849436
0.38658825 0.1460887 1.7262442 1.987844 -0.4005428 -1.5927663 -1.5441452 -0.27385786
1.0589048 -1.5030923 1.9945364 -1.0779228 -0.008236791 -0.96278167 0.56797576 0.18101892
-1.1249689 1.9144313 -0.52604175 -1.6613809 -0.6322407 -0.07241632 0.18547451 -0.5715649
-0.049310915 -0.24383658 -0.9736648 0.71160436 0.45655918 -0.9968336 -0.20698948 0.54020804
0.43894377 1.6799426 -0.0340962 -0.80075353 -2.1249504 -0.09695689 -0.37100855 2.1763508
-0.19544794 -0.64748275 0.9094845 -0.45092827 -0.99625015 -0.75327265 0.099782884 0.92757493
00000000: cd55 1c3f cade 74be 155f cb3e 8a01 1dbf
00000010: aa8c 9b3f 47b9 0ac0 a67e 893f 5320 b93d
00000020: 4a53 4d3e 42c4 823f a8e8 383e c389 0d3f
00000030: 6b75 233f 9af9 edbc 18d5 74bf 0878 a13e
00000040: 35aa b33e a78a 903f eede 8bbf 5d23 b73f
00000050: 161b d2be 19e6 d33f baa5 70bf d40e a63f
00000060: f571 82be 91bb 153f 2ce3 84be 120d 133f
00000070: 3d1b 43bf faf0 f7be d0a0 3e3f 1f33 0e3f
00000080: ee9e 30bd f69e a4bf 79df abbe 45cb 513f
00000090: f244 023f b21f 70be f9d0 34bf 1e15 623f
000000a0: 8a21 a0be 4de3 503f 2b47 cabf f6a6 3c3d
000000b0: fd7d 46bd 8a7f 453e dcb1 14bf 9ad6 d0be
000000c0: c91c 7bbe 516f dbbd 0842 67bf c109 1abf
000000d0: 3bdc 833f 27a9 f9bd 94e8 b8bf 0025 8e3f
000000e0: 4ba3 04be 43bc 703f 9223 b23f ff3b cd3d
000000f0: b560 4c3f a9d8 373f 0b8a 55bd d1a3 06be
00000100: 278a e6be 27a1 1ebf 8c88 bdbe 852c f33e
00000110: 83cd 4c3f defb 603e 14ff 94bd 11d9 18bf
00000120: da8c aa3f 0e9d 96bf cb61 edbe 21dd 183f
00000130: 7386 22bf 7e56 28be a923 b3bd f8c5 1b3d
00000140: a727 6ebe bcdd 06bf 9d5f 84bf e8ed 4dbf
00000150: 0ed8 533f 9526 8ebf 6ca9 b93f 224f b0bc
00000160: 455e e5be b32c d93f 4d34 d43e 9de9 18be
00000170: be58 1ebf 8aea eb3f 6747 f43f cb9b 9cbd
00000180: 5b55 0940 fd76 a4be ed1c ecbf fc4e c3be
00000190: 3ee8 063f ba1c 203f f0d3 eebe 3c49 c23e
000001a0: 5ce7 a93f fe20 40bf 4a5e 4cbf 8ff6 b73f
000001b0: f22f a7bf 7bb5 8dbd 854b a0bd 6770 c5be
000001c0: a5e3 733f f90a 443e 6398 ddbe 63df e33f
000001d0: e3d9 f7be fafd dcbe bb7a 53bf 6e4a 803f
000001e0: 769f b03f 22c4 743e 54e5 523f ec88 c73f
000001f0: 7e7e e5bc 03c9 bbbe 0622 7fbf ae75 673f
00000200: b798 e83d 49ec 99bf fec5 e4be ea8b c0be
00000210: 9098 81bf 7f26 e73f 7f8e 733e fb71 d83e
00000220: 38f4 d8bd 0f24 d4bf 48e8 a8bf 2a88 13be
00000230: 2a7d 633e 15e4 1cbf eb10 e7be b428 dc3e
00000240: d7ba 1c40 eafe b13c fae4 e83e fcaf 043f
00000250: 88a4 0dbe b2e7 e5bf e821 893f d972 763e
00000260: ccfd 953c 57df efbe 201c 76be 578e 073f
00000270: d82a 6d3f 7611 2cbf a4ae 55bd c28a ae3e
00000280: 938a 613f 57fc 1b3e f3be 463e 9fe8 8fbf
00000290: 7ec2 af3f 5508 fabd cb04 553d 42b5 dabc
000002a0: e9d7 85bd ab97 813e 1a42 b8bd 3177 113c
000002b0: a2c0 f0be bcd2 1140 9f78 e9be b97c 963f
000002c0: dbe8 393f d1af 953e 8332 c53f 8ed9 6e3f
000002d0: 7861 da3f a9f1 803f 57bb 9cbf 4e2f dabe
000002e0: 8f76 05bf ea96 48bf 41c3 64bf c367 a8bf
000002f0: 11aa 203f ccb7 483e a625 a5be ff60 39bf
00000300: 03b6 52bf ed42 9a3d 0357 cebf f063 643b
00000310: f561 af3e 5911 1e3f 7c46 6b3f 317c 54be
00000320: 6eba 0040 4b28 243e f3aa 12bf a2ec b23e
00000330: da07 5d3f 2530 30be aca7 46c0 10f2 48bf
00000340: e5ee c53e 4798 153e 92f5 dc3f ac71 fe3f
00000350: f213 cdbe c4df cbbf 8da6 c5bf 1937 8cbe
00000360: 318a 873f 5465 c0bf f84c ff3f 60f9 89bf
00000370: 9bf3 06bc dc78 76bf dc66 113f 065d 393e
00000380: fbfe 8fbf 160c f53f acaa 06bf 21a8 d4bf
00000390: 87da 21bf 024f 94bd 08ed 3d3e 1452 12bf
000003a0: 3efa 49bd 4cb0 79be 1942 79bf b42b 363f
000003b0: 20c2 e93e 7d30 7fbf 0df5 53be 134b 0a3f
000003c0: 3dbd e03e 5c08 d73f 75a8 0bbd 2ffe 4cbf
000003d0: 30ff 07c0 5591 c6bd d5f4 bdbe 5549 0b40
000003e0: 8123 48be 6ec1 25bf fad3 683f 12e0 e6be
000003f0: 400a 7fbf 7ad6 40bf f85a cc3d 8d75 6d3f

item_type_embedding.weight f4 [5, 8]
1.6426151 -1.1588265 2.5260773 0.13981178 -0.13971788 0.9105844 -0.16542187 0.027458476
1.17028 -1.0176454 1.8127725 -0.16642721 -1.2271984 -1.5840509 1.4018557 1.2025067
0.4530923 -1.0066981 0.16108117 -1.7518969 -0.97464406 -0.1017132 0.3252838 -1.8498709
1.0439626 -0.26727375 1.6796954 0.69729614 3.1725333 0.7734977 0.49833494 -1.1116649
-1.7913233 0.91922295 -1.2561848 0.08815473 0.49280274 -0.08452442 0.73326856 -1.4348761
00000000: 3641 d23f 6d54 94bf 40ab 2140 d22a 0f3e
00000010: 3412 0fbe 0f1c 693f 5a64 29be 99f0 e03c
00000020: bccb 953f 3442 82bf ee08 e83f e56b 2abe
00000030: d614 9dbf 2ec2 cabf 0270 b33f bdeb 993f
00000040: b7fb e73e 7cdb 80bf 76f2 243e 283e e0bf
00000050: 4682 79bf 034f d0bd 998b a63e 92c8 ecbf
00000060: 91a0 853f 1bd8 88be 4200 d73f 0082 323f
00000070: c90a 4b40 f203 463f c225 ff3e 094b 8ebf
00000080: 154a e5bf 3252 6b3f aaca a0bf 788a b43d
00000090: a450 fc3e 241b adbd 7db7 3b3f 05aa b7bf

item_temperature_embedding.weight f4 [7, 8]
-0.5255281 -0.62343526 -0.3562067 -2.2781854 -0.12334205 -1.7839391 1.0154431 -1.6061125
0.38511217 1.1207169 -0.49255767 0.41743264 -0.6950015 0.39232704 -1.0051746 -1.1300927
-0.8425666 1.5650331 1.262659 -0.79594445 -0.079544775 -0.03137336 -1.1990162 -0.38287574
-0.9292781 0.18482555 -0.4548798 -0.46705943 -0.79278237 0.021107676 -0.43643948 1.3959106
-0.8234289 -0.58835024 0.5279538 -0.60006356 0.080511406 1.2833965 0.88817894 0.4323453
0.6716504 -0.6548401 -0.49715146 -0.2649794 0.36839333 -0.8079798 1.6300234 1.6213449
-1.1965991 0.17555068 -2.4999723 -0.028863154 -0.5193619 0.562896 0.6212496 -0.6101857
00000000: 0289 06bf 7499 1fbf b960 b6be cacd 11c0
00000010: c29a fcbd 1e58 e4bf 0afa 813f 1895 cdbf
00000020: 6c2d c53e a773 8f3f 8530 fcbe bbb9 d53e
00000030: 9eeb 31bf 17df c83e 90a9 80bf e1a6 90bf
00000040: 72b2 57bf 0153 c83f cf9e a13f 04c3 4bbf
00000050: 5fe8 a2bd 5a81 00bd 5d79 99bf 4a08 c4be
00000060: 2be5 6dbf e942 3d3e 01e6 e8be 6a22 efbe
00000070: c9f3 4abf 01ea ac3c ff74 dfbe 33ad b23f
00000080: 3dcc 52bf 1f9e 16bf fb27 073f c49d 19bf
00000090: 2ae3 a43d 5646 a43f b25f 633f 5d5c dd3e
000000a0: 48f1 2b3f 9aa3 27bf a38a febe 61ab 87be
000000b0: 0d9e bc3e c4d7 4ebf 9ba4 d03f 3b88 cf3f
000000c0: 292a 99bf 8fc3 333e 8cff 1fc0 6c72 ecbc
000000d0: e7f4 04bf f419 103f 370a 1f3f 2135 1cbf

item_humidity_embedding.weight f4 [6, 8]
-0.73695266 0.5424189 0.2060153 -0.080773786 -1.2919098 -0.33756024 -1.6595179 0.2908041
-0.98159176 -0.2815807 0.6085695 -1.7010714 0.91372293 0.39093676 0.25154048 -0.2690765
-0.7597268 0.2704606 2.1656163 0.77623737 0.8213288 -0.5642918 2.1141548 -0.9481352
1.128571 1.049472 -2.1721237 -0.18281434 -0.6329026 -0.6875078 0.7339796 -0.4353713
-2.2787766 0.9598908 0.1338709 -1.1180438 1.706968 -1.9316107 -0.11854655 -0.7112787
-0.10194159 0.8250532 -0.3602819 -0.45269728 -0.36146867 0.38571098 1.2172608 0.6517736
00000000: eea8 3cbf f7db 0a3f adf5 523e ba6c a5bd
00000010: 4d5d a5bf b2d4 acbe 156b d4bf 46e4 943e
00000020: 9949 7bbf 582b 90be 36cb 1b3f b5bc d9bf
00000030: bfe9 693f dd28 c83e eac9 803e 65c4 89be
00000040: 757d 42bf d079 8a3e 7599 0a40 7eb7 463f
00000050: 9b42 523f 6d75 10bf 504e 0740 fdb8 72bf
00000060: 0475 903f 1955 863f 1304 0bc0 af33 3bbe
00000070: e805 22bf 8300 30bf 16e6 3b3f fde8 debe
00000080: 7ad7 11c0 67bb 753f 7415 093e 0f1c 8fbf
00000090: ed7d da3f 053f f7bf 89c8 f2bd 5c16 36bf
000000a0: c1c6 d0bd b036 533f df76 b8be f0c7 e7be
000000b0: 6c12 b9be e97b c53e 34cf 9b3f a2da 263f

item_windSpeed_embedding.weight f4 [5, 8]
1.678683 0.76679915 -1.3093759 0.5098293 1.616973 -0.20519188 -1.016336 1.0292895
1.33377 0.044735454 -0.7830035 -1.6360312 0.13471839 0.5400439 -0.06010915 -0.363127
0.10770177 -0.60255396 1.1227885 0.7551841 -0.3797542 -2.1391475 -0.5159877 1.9067905
-1.2329018 -0.82778656 0.98724645 0.027201233 1.0413815 1.7985734 -0.25594535 -0.63397634
-0.43902564 2.3248143 0.049839724 -0.75180423 0.81375223 1.7916167 1.3084767 -0.8622319
00000000: 16df d63f f34c 443f a199 a7bf 2c84 023f
00000010: f9f8 ce3f d21d 52be 4c17 82bf c2bf 833f
00000020: fab8 aa3f 863c 373d eb72 48bf 7869 d1bf
00000030: 9ef3 093e 5140 0a3f 0335 76bd c8eb b9be
00000040: bf92 dc3d fa40 1abf 89b7 8f3f bf53 413f
00000050: 246f c2be cbe7 08c0 c517 04bf b611 f43f
00000060: bacf 9dbf d2e9 53bf 2fbc 7c3f 1fd5 de3c
00000070: fd4b 853f a737 e63f 450b 83be 464c 22bf
00000080: f8c7 e0be c2c9 1440 bd24 4c3d 3e76 40bf
00000090: 1152 503f b253 e53f 2a7c a73f 3bbb 5cbf

GCN_Layers.0.W1.weight f4 [64, 64]
-0.08473666 -0.030212048 -0.07767199 -0.10818166 0.12236824 0.024700496 0.035331327 -0.018848166
-0.02889664 0.11166013 0.0033491666 0.08215283 -0.01696919 0.06388916 -0.08926248 -0.0070199957
-0.0496286 -0.0303166 0.0042496487 0.025931843 -0.012056534 0.01572402 -0.06381558 0.0824994
0.096668795 -0.05599216 -0.039112214 -0.060285293 -0.10279838 -0.039897628 -0.10275766 -0.059713967
-0.09524804 -0.105032 -0.07137015 0.08865264 -0.059862677 -0.03790005 -0.10688419 0.078054
-0.037125003 0.04506004 -0.08728092 0.0067231446 0.11032577 0.06734755 -0.024509134 -0.02454565
-0.09112843 -0.074089825 0.022356378 0.03170156 -0.1340677 0.029841991 -0.04959477 0.12196497
0.09758018 -0.01125096 -0.018902604 0.023699874 -0.10389144 -0.0694401 0.04500632 0.0076439213
0.056838136 -0.09187858 0.04941813 -0.102664985 -0.05386292 0.035144296 0.09761596 0.005854943
0.06703498 0.065633215 0.046695884 -0.006993091 -0.11903948 -0.023091787 -0.019561622 -0.06384494
-0.045296084 -0.038383976 0.037548464 -0.05115138 -0.055538755 0.06507097 0.071720615 -0.089265004
0.06920966 0.047779236 -0.09701065 0.04696032 0.097413786 0.067527145 -0.034839444 -0.1087536
0.061021276 0.09147104 0.044412203 -0.00520674 -0.041931394 -0.09085182 -0.09783033 -0.004686389
0.035384934 0.09040154 0.08417735 -0.06648064 -0.014694488 0.12167914 -0.0053083035 0.03451127
-0.04188667 0.0617207 -0.049695104 -0.11934625 0.00011437822 -0.08417521 -0.06140066 0.08356215
0.09038116 -0.03809328 0.077142276 0.0024608842 0.091478325 -0.115545474 0.08133048 -0.040713824
0.013877025 0.085459866 0.013569309 -0.02330177 -0.08264421 -0.033746764 -0.09728586 -0.10212327
0.07442442 -0.045692574 0.04617108 0.043367207 0.077660844 0.07648677 -0.0154401455 -0.025611736
0.019026672 -0.098662764 -0.032016233 -0.015512687 -0.030642798 0.023827692 0.01284115 -0.045616258
0.052119777 0.039325517 0.04500624 -0.095209785 0.104660995 0.07031799 -0.012244024 0.11459047
0.09736941 0.02481642 -0.10049155 0.07823729 -0.040262617 -0.10127386 -0.029978365 -0.07976613
-0.028703038 0.014527306 0.01901192 0.12408266 -0.014342822 -0.10734236 0.111530736 -0.059975926
0.013407682 0.079467036 -0.08728803 -0.027732717 -0.026279857 -0.0609714 0.08935783 0.06743446
-0.06089168 -0.02547286 -0.034292158 0.035253294 0.07861563 -0.094044074 0.10738035 0.07770084
0.022714425 -0.004863466 0.007660472 -0.034877032 0.08288156 -0.083781116 -0.01305159 -0.06237937
-0.04913293 -0.025536554 -0.09630256 -0.03861974 0.09856106 -0.10927294 -0.03529335 0.09904228
-0.052911133 0.031520627 0.09679735 0.034962654 -0.06497042 0.029197898 0.05411017 -0.029956214
-0.01284776 0.09263883 0.030030599 0.061157715 0.01241866 -0.054626837 -0.10680931 0.07684999
0.06758958 0.08183683 -0.03911899 -0.012425735 0.02225082 0.08365883 0.10515724 -0.02667523
0.066863306 -0.09659371 -0.06551553 -0.075241946 -0.09064988 0.03528839 0.004080307 -0.13408475
-0.020461077 -0.028467456 0.013611133 -0.08496428 -0.12598233 -0.006423293 0.040401444 0.020494048
-0.13910198 -0.028786056 -0.01553683 -0.07659869 0.07278385 -0.013191135 0.0941465 -0.025466949
00000000: 6a8a adbd 427f f7bc 7e12 9fbd 598e ddbd
00000010: 339c fa3d b258 ca3c 95b7 103d 7867 9abc
00000020: a5b8 ecbc 11ae e43d b17d 5b3b be3f a83d
00000030: f902 8bbc 52d8 823d 3fcf b6bd fe07 e6bb
00000040: 5c47 4bbd 855a f8bc a340 8b3b 046f d43c
00000050: c588 45bc a9cf 803c beb1 82bd 72f5 a83d
00000060: 4afa c53d 0958 65bd 2134 20bd b6ed 76bd
00000070: f587 d2bd b26b 23bd 9c72 d2bd a296 74bd
00000080: 6811 c3bd 041b d7bd 832a 92bd 848f b53d
00000090: 9132 75bd 153d 1bbd 19e6 dabd c7da 9f3d
000000a0: 6310 18bd e090 383d 57c0 b2bd d34d dc3b
000000b0: 7af2 e13d 83ed 893d 61c7 c8bc f613 c9bc
000000c0: 8ba1 babd 68bc 97bd b924 b73c 7fd9 013d
000000d0: 0b49 09be 3177 f43c e323 4bbd c5c8 f93d
000000e0: 1ed8 c73d f255 38bc a2d9 9abc 3d26 c23c
000000f0: 09c5 d4bd 9c36 8ebd 8c58 383d dc79 fa3b
00000100: 1bcf 683d d62a bcbd aa6a 4a3d 0542 d2bd
00000110: 5d9f 5cbd 77f3 0f3d e0ea c73d d2da bf3b
00000120: a349 893d b56a 863d 2f44 3f3d 4d26 e5bb
00000130: f9ca f3bd fd2a bdbc b23f a0bc 23c1 82bd
00000140: 6388 39bd 8438 1dbd 6bcc 193d 1c84 51bd
00000150: 9b7c 63bd ee43 853d 42e2 923d 92d0 b6bd
00000160: cbbd 8d3d 29b4 433d 85ad c6bd 7759 403d
00000170: e180 c73d ac4b 8a3d ceb3 0ebd 35ba debd
00000180: 72f1 793d 2b55 bb3d 92e9 353d 4d9d aabb
00000190: 41c0 2bbd 8510 babd 455b c8bd 4890 99bb
000001a0: cbef 103d 7124 b93d 2d65 ac3d 0027 88bd
000001b0: 26c1 70bc ea32 f93d 47f1 adbb b05b 0d3d
000001c0: 5b91 2bbd d8ce 7c3d 188d 4bbd cf6b f4bd
000001d0: 57de ef38 0d64 acbd 427f 7bbd a222 ab3d
000001e0: c219 b93d b307 1cbd c5fc 9d3d c946 213b
000001f0: fd58 bb3d 1ba3 ecbd 9890 a63d 8ac3 26bd
00000200: 765c 633c 9505 af3d cf51 5e3c 5be3 bebc
00000210: 5e41 a9bd 0c3a 0abd cf3d c7bd 0126 d1bd
00000220: d56b 983d 2328 3bbd e31d 3d3d d0a1 313d
00000230: a60c 9f3d 18a5 9c3d aaf8 7cbc b4cf d1bc
00000240: d3dd 9b3c b40f cabd 7423 03bd ed28 7ebc
00000250: 9b06 fbbc 4b32 c33c b063 523c 1dd8 3abd
00000260: 8c7b 553d cb13 213d 7758 383d 59fd c2bd
00000270: 8158 d63d e102 903d 299b 48bc 69ae ea3d
00000280: 9d69 c73d ce4b cb3c 84ce cdbd df3a a03d
00000290: 6aea 24bd ab68 cfbd 3095 f5bc 6d5c a3bd
000002a0: a222 ebbc f003 6e3c e3be 9b3c 0d1f fe3d
000002b0: 28fe 6abc 50d6 dbbd 3a6a e43d 51a9 75bd
000002c0: e5ab 5b3c 9dbf a23d 11c4 b2bd b92f e3bc
000002d0: db48 d7bc 26bd 79bd 3d01 b73d 141b 8a3d
000002e0: 8e69 79bd 76ac d0bc ef75 0cbd c265 103d
000002f0: 3b01 a13d 2e9a c0bd 3bea db3d 9e21 9f3d
00000300: 9a13 ba3c b65d 9fbb b204 fb3b 38db 0ebd
00000310: cfbd a93d 6f95 abbd 56d6 55bc 8381 7fbd
00000320: 9c3f 49bd 0932 d1bc 473a c5bd bc2f 1ebd
00000330: 62da c93d 7eca dfbd c38f 10bd aed6 ca3d
00000340: 58b9 58bd c61b 013d b03d c63d 0035 0f3d
00000350: 360f 85bd 6e30 ef3c a0a2 5d3d bc66 f5bc
00000360: 697f 52bc 6db9 bd3d bb02 f63c 8380 7a3d
00000370: a377 4b3c 64c0 5fbd d7be dabd 8763 9d3d
00000380: 686c 8a3d 119a a73d 3c3b 20bd 4f95 4bbc
00000390: 5a47 b63c 5255 ab3d ae5c d73d 0386 dabc
000003a0: a1ef 883d ecd2 c5bd 022d 86bd 7318 9abd
000003b0: a5a6 b9bd 8f8a 103d 19b4 853b 834d 09be
000003c0: fd9d a7bc 9534 e9bc 3b01 5f3c c101 aebd
000003d0: 8301 01be 7d7a d2bb fc7b 253d 22e3 a73c
000003e0: c070 0ebe bcd0 ebbc 308e 7ebc c6df 9cbd
000003f0: b30f 953d a11f 58bc e1cf c03d 10a0 d0bc

GCN_Layers.0.W1.bias f4 [64]
0.015980957 -0.0024986493 -6.738404e-05 -0.04929602 0.028741648 -0.06407534 0.002525112 0.103828184
0.085780986 -0.1181167 -0.13661607 0.012687109 -0.11143131 0.06011221 0.10651809 -0.043036394
0.008036706 0.08680247 0.11730536 0.047950346 -0.05418124 -0.080023095 -0.035639085 -0.024682617
-0.06365245 0.08377829 -0.018022917 -0.1012022 0.021656191 0.049500607 -0.054966193 0.07403917
0.04659333 -0.03774887 0.007564403 -0.1148452 -0.055742595 -0.0680391 -0.13852045 0.012233836
-0.027367793 0.04830999 -0.11017177 -0.02475077 0.037050556 -0.115547046 -0.052479874 -0.06205663
0.11511532 0.08684219 -0.08152762 0.01883704 0.0067104055 0.0390729 -0.008445851 0.032326993
-0.10947511 -0.10690087 -0.10421903 -0.12395988 0.07299651 -0.038451865 0.00987204 -0.075486265
00000000: 7fea 823c 61c0 23bb 8850 8db8 a0ea 49bd
00000010: 9b73 eb3c ef39 83bd 597c 253b dfa3 d43d
00000020: f1ad af3d 2be7 f1bd 15e5 0bbe 98dd 4f3c
00000030: 1936 e4bd 3938 763d 2826 da3d ee46 30bd
00000040: 63ac 033c 7ec5 b13d cb3d f03d 9567 443d
00000050: 26ed 5dbd 26e3 a3bd 4afa 11bd 3333 cabc
00000060: 375c 82bd f493 ab3d cca4 93bc 1943 cfbd
00000070: 5368 b13c 26c1 4a3d 3b24 61bd d9a1 973d
00000080: a6d8 3e3d 8f9e 1abd d0de f73b f633 ebbd
00000090: 5952 64bd 1558 8bbd 4ed8 0dbe 6d70 483c
000000a0: 6c32 e0bc b2e0 453d bda1 e1bd 20c2 cabc
000000b0: 53c2 173d eea3 ecbd 23f5 56bd 182f 7ebd
000000c0: 95c1 eb3d 51da b13d f4f7 a6bd 2350 9a3c
000000d0: f6e2 db3b e80a 203d 7760 0abc 4f69 043d
000000e0: 7d34 e0bd d8ee dabd c970 d5bd adde fdbd
000000f0: 327f 953d b47f 1dbd 56be 213c 8b98 9abd

GCN_Layers.0.W2.weight f4 [64, 64]
-0.06421741 0.08833576 0.10295244 0.02312338 0.10101515 -0.060300592 0.082090594 -0.10107691
0.010564002 -0.07409948 0.10242863 -0.08757562 0.054512333 0.096307926 -0.10323219 -0.019183014
0.018301155 -0.07738643 -0.10432823 0.110210866 0.0860634 0.06709098 0.053814795 -0.12407269
-0.10800801 0.038422793 -0.11255579 0.09245789 0.067715764 -0.04648353 0.105842195 -0.07111668
0.10198862 -0.07916133 0.11435266 0.029607726 0.0034258598 0.13263567 -0.0012727412 0.071998365
-0.015705395 -0.0060969857 -0.06590246 -0.030686876 -0.048269935 0.017580029 -0.021691067 0.05441457
-0.0132410135 -0.06635929 0.09373274 -0.007701625 -0.051925167 -0.04680751 0.078942545 0.09936653
0.022591107 -0.081201136 0.07070132 -0.034991607 0.107632376 0.036011923 0.11119015 0.0661558
-0.024402289 0.052685507 0.12717025 0.03033105 -0.021746974 -0.034929555 -0.06587359 -0.057097014
-0.08743635 -0.0054986794 0.021318875 0.03130106 0.06680662 0.023918787 0.04193287 0.09975705
-0.06190084 0.051188655 -0.036234602 0.020597352 0.047530383 -0.052921776 0.027939847 -0.054096557
-0.0007657877 -0.029823612 -0.057882104 -0.050585732 0.10784206 -0.021542491 0.01043742 0.072428115
0.038038403 -0.11647094 -0.11567595 0.0023841301 -0.004141873 0.03551103 -0.009486469 0.039165504
0.06271363 0.10707564 0.0888461 0.06491672 0.11918115 -0.12285505 0.0027462342 0.097371526
-0.007964279 -0.030706052 -0.0673786 -0.018262777 0.048524 0.07423612 0.02975449 -0.0062129176
-0.03150509 0.10851375 -0.06614331 0.009742348 -0.00040689396 -0.10769126 -0.025426006 0.016027348
0.06430314 0.108397454 0.059176054 -0.089861825 0.011618478 -0.04491873 -0.06229274 0.00546205
0.07804808 0.0043273536 -0.10528223 -0.10652327 -0.05290888 0.037702367 0.098224826 0.00053626095
0.107496 0.009193499 0.055297777 0.09129682 0.016250635 -0.108011 -0.04244725 0.0950063
-0.04972872 -0.038935423 0.07315315 0.065589316 0.066410616 -0.046190526 -0.056770157 -0.0046195425
0.079151824 -0.05764418 -0.026915932 -0.08069704 -0.010077328 0.083234794 0.067919016 -0.09263815
0.016874332 0.028229823 -0.032004658 0.021822225 -0.079425596 -0.00040185975 0.034631874 0.04459627
-0.081822194 -0.034376718 0.054410204 0.032834444 0.05161955 -0.014126646 0.104573645 0.02514338
0.06337883 -0.031493604 0.13125047 0.07417153 -0.09624911 0.092345454 0.10559598 -0.06000567
-0.03305472 -0.02519939 0.098040625 0.09149484 -0.00843409 0.08580087 0.111147024 -0.030427549
0.00038364643 -0.06099614 -0.10779954 0.060749855 -0.027928354 0.066984944 0.11023143 0.12991937
0.044862695 -0.0338454 -0.0055709328 -0.10355178 0.11699349 0.029283663 -0.06573718 -0.097173356
0.115639985 -0.03874939 0.013754688 -0.08092778 -0.11081635 -0.0058848336 0.042448077 -0.103084214
-0.062062316 -0.09414942 0.004567598 -0.05626589 -0.024928821 -0.04063996 0.028159661 -0.058164015
-0.07455749 0.062388863 0.073834024 0.036908384 0.0060546957 0.039667457 0.10928354 -0.07729462
-0.043181892 0.028875785 -0.057421103 -0.10616908 0.051265966 0.0047760853 -0.04149921 0.04831087
-0.08285758 -0.058733564 -0.06929282 0.05076741 -0.029627789 0.11941084 -0.10004392 -0.11287077
00000000: 6b84 83bd 61e9 b43d bbd8 d23d 3e6d bd3c
00000010: 08e1 ce3d c1fd 76bd 1d1f a83d 6901 cfbd
00000020: a314 2d3c 78c1 97bd 1ac6 d13d d95a b3bd
00000030: 5348 5f3d 173d c53d 666b d3bd b225 9dbc
00000040: 4eec 953c c77c 9ebd 0aaa d5bd 3cb6 e13d
00000050: 0242 b03d ff66 893d e76c 5c3d d319 febd
00000060: 4e33 ddbd 3861 1d3d a683 e6bd 905a bd3d
00000070: 90ae 8a3d 8465 3ebd cbc3 d83d 9fa5 91bd
00000080: 69df d03d 561f a2bd ba31 ea3d e78b f23c
00000090: 6484 603b a5d1 073e 1cd2 a6ba e173 933d
000000a0: 9aa8 80bc 39c9 c7bb def7 86bd 0b63 fbbc
000000b0: b2b6 45bd fe03 903c 77b1 b1bc d0e1 5e3d
000000c0: d6f0 58bc 61e7 87bd f3f6 bf3d ea5d fcbb
000000d0: 7caf 54bd 3bb9 3fbd a1ac a13d ae80 cb3d
000000e0: fc10 b93c c84c a6bd dbcb 903d 5c53 0fbd
000000f0: 5d6e dc3d 3d81 133d a9b7 e33d b17c 873d
00000100: 4fe7 c7bc c2cc 573d eb38 023e d278 f83c
00000110: b626 b2bc 4b12 0fbd bce8 86bd 8fde 69bd
00000120: d411 b3bd 442e b4bb eca4 ae3c 8a35 003d
00000130: e9d1 883d 55f1 c33c cdc1 2b3d 6d4d cc3d
00000140: bc8b 7dbd 32ab 513d bc6a 14bd c7bb a83c
00000150: 38af 423d 81c4 58bd 1be2 e43c 5a94 5dbd
00000160: 25bf 48ba a650 f4bc c915 6dbd fc32 4fbd
00000170: 4cdc dc3d e179 b0bc b601 2b3c 3155 943d
00000180: 28ce 1b3d 5188 eebd 83e7 ecbd 113f 1c3b
00000190: 8db8 87bb 0474 113d 236d 1bbc 026c 203d
000001a0: 0170 803d 794a db3d f2f4 b53d 0ff3 843d
000001b0: 3f15 f43d 6e9b fbbd 2afa 333b b96a c73d
000001c0: 9b7c 02bc 428b fbbc cbfd 89bd d29b 95bc
000001d0: 1ac1 463d 1b09 983d b0bf f33c bb95 cbbb
000001e0: 7b0b 01bd 753c de3d 2576 87bd 5f9e 1f3c
000001f0: 6254 d5b9 3c8d dcbd 334a d0bc c94b 833c
00000200: 5db1 833d 7cff dd3d 9762 723d 7a09 b8bd
00000210: 6e5b 3e3c b4fc 37bd ac26 7fbd fffa b23b
00000220: acd7 9f3d 79cc 8d3b 369e d7bd df28 dabd
00000230: fbb6 58bd cc6d 1a3d 192a c93d dd93 0c3a
00000240: dd26 dc3d 54a0 163c ec7f 623d d4f9 ba3d
00000250: 0d20 853c df34 ddbd 2bdd 2dbd aa92 c23d
00000260: 58b0 4bbd c07a 1fbd 52d1 953d b153 863d
00000270: 4a02 883d 4732 3dbd d387 68bd 885f 97bb
00000280: 5a1a a23d 4e1c 6cbd cd7e dcbc 7d44 a5bd
00000290: 611b 25bc 0177 aa3d 2019 8b3d 12b9 bdbd
000002a0: 0a3c 8a3c 3b42 e73c 5117 03bd 86c4 b23c
000002b0: e3a9 a2bd b4b0 d2b9 27da 0d3d 94aa 363d
000002c0: 6592 a7bd 9ace 0cbd 3cdd 5e3d 697d 063d
000002d0: 056f 533d 7373 67bc b52a d63d 7df9 cd3c
000002e0: c3cc 813d 70ff 00bd 8666 063e 3ee7 973d
000002f0: 411e c5bd 9d1f bd3d b542 d83d 81c8 75bd
00000300: 6364 07bd f36e cebc 86c9 c83d a661 bb3d
00000310: 232f 0abc 5eb8 af3d 0da1 e33d 3243 f9bc
00000320: 2724 c939 17d7 79bd 01c6 dcbd d7d4 783d
00000330: 01ca e4bc 672f 893d 04c1 e13d 9509 053e
00000340: f2c1 373d 79a1 0abd 5f8c b6bb f512 d4bd
00000350: 489a ef3d 4be4 ef3c 37a1 86bd d302 c7bd
00000360: a8d4 ec3d aeb7 1ebd 585b 613c 77bd a5bd
00000370: aff3 e2bd 90d5 c0bb 09de 2d3d d11d d3bd
00000380: 0e35 7ebd 69d1 c0bd caab 953b 1077 66bd
00000390: 8737 ccbc 1676 26bd 17af e63c 643d 6ebd
000003a0: 99b1 98bd 778b 7f3d 4b36 973d 3f2d 173d
000003b0: 7866 c63b 587a 223d 0cd0 df3d a44c 9ebd
000003c0: 7fdf 30bd e98c ec3c 6432 6bbd 2d6f d9bd
000003d0: 43fc 513d b580 9c3b 13fb 29bd 9ee1 453d
000003e0: 3cb1 a9bd 9b92 70bd 65e9 8dbd 7df1 4f3d
000003f0: fab5 f2bc ac8d f43d d4e3 ccbd ca28 e7bd

GCN_Layers.0.W2.bias f4 [64]
-0.092830345 -0.039646488 -0.116069935 0.061145574 -0.023595212 0.0040881676 -0.12404062 -0.035191968
-0.03587579 -0.013793757 -0.13095213 -0.11970214 0.0764168 0.011459652 -0.024557894 -0.0023166062
-0.050835975 -0.10027843 -0.05150189 -0.033945464 0.10936886 -0.12133839 0.09212484 0.08977044
0.0976067 -0.047644585 0.080066785 -0.09319697 -0.027543291 0.012778182 0.006159934 -0.0016718218
-0.07316072 -0.01644825 -0.03058895 0.0062986305 -0.09011313 0.04156417 0.10538461 -0.023774795
-0.11627498 -0.005641018 -0.0728512 0.08452597 0.04059921 0.0022984669 -0.02151611 -0.029296763
-0.07983738 -0.09541388 0.08957085 -0.02906506 -0.007796248 -0.07491343 0.044419456 0.049897302
-0.086580634 0.09744104 0.058208823 -0.07213152 -0.12232282 0.07791416 -0.011362705 -0.07458481
00000000: d61d bebd 5b64 22bd 13b6 edbd c873 7a3d
00000010: bf4a c1bc 09f6 853b 0209 febd 7425 10bd
00000020: 7ef2 12bd 36ff 61bc 5118 06be 6526 f5bd
00000030: 6980 9c3d 44c1 3b3c a32d c9bc 34d2 17bb
00000040: 6239 50bd c75e cdbd a5f3 52bd 660a 0bbd
00000050: c8fc df3d 4380 f8bd f3ab bc3d 90d9 b73d
00000060: 06e6 c73d f826 43bd 0efa a33d 0ede bebd
00000070: 78a2 e1bc 945b 513c 46d9 c93b 0821 dbba
00000080: 4ad5 95bd 7bbe 86bc ad95 fabc be64 ce3b
00000090: 3c8d b8bd 313f 2a3d e3d3 d73d 5cc3 c2bc
000000a0: 9421 eebd 4ad8 b8bb 0333 95bd f41b ad3d
000000b0: 5b4b 263d e0a1 163b 8e42 b0bc c4ff efbc
000000c0: c881 a3bd 5a68 c3bd ec70 b73d d919 eebc
000000d0: ab77 ffbb 366c 99bd 2df1 353d 1d61 4c3d
000000e0: 3051 b1bd 2b8f c73d 606c 6e3d b1b9 93bd
000000f0: 6384 fabd 7691 9f3d a42a 3abc ecbf 98bd

GCN_Layers.1.W1.weight f4 [64, 64]
0.08856751 -0.12859839 0.015227 0.010087985 -0.05161324 0.07569962 -0.03153297 0.095745504
-0.1043046 -0.047591794 0.07103565 -0.019835774 0.042891096 -0.114250906 0.093450665 -0.06502401
0.0032380745 -0.117383994 -0.06739737 -0.021337517 -0.011851421 -0.09370759 -0.050881255 -0.09579149
-0.116857626 0.09925119 -0.03419592 -0.11105795 -0.08394118 0.01246697 -0.09472697 0.089808434
0.031586163 -0.077519365 -0.029939301 -0.08088126 -0.028355008 0.06404124 0.042570453 -0.039022114
0.030734435 -0.09821468 0.083531104 0.02863177 0.028261138 -0.062423524 -0.011097607 -0.11108573
0.0893625 0.070122145 -0.03455625 -0.01050282 0.09514706 -0.0020374055 -0.024647275 -0.04169235
0.10739217 -0.07582032 -0.088185854 -0.048340246 0.00082103146 0.013626676 0.04037478 -0.08634386
0.056506842 -0.03268997 0.050917547 -0.028287418 -0.11802683 -0.009982833 -0.01795627 -0.11324938
-0.02549252 -0.007852292 -0.009699223 0.00016440592 -0.04367057 0.028153716 0.07261459 0.036075085
0.0946225 0.0027382579 -0.11607098 0.090632655 -0.045888893 -0.06204963 0.092801906 0.069968745
0.08643589 0.03813633 -0.09048211 0.0854737 0.10406378 -0.022498492 -0.114535294 -0.04069861
-0.015761694 0.076620474 0.005200465 0.068146 -0.059188068 0.026826818 0.1210094 0.051303037
-0.009885364 -0.008475203 -0.09740212 0.096478246 0.051511485 -0.03633121 -0.028452143 -0.06536867
0.024265353 -0.12092778 -0.03905166 0.012214287 -0.040889833 0.053175304 0.049224127 0.029926306
0.10407439 0.031808596 -0.05934022 -0.06070707 0.007195541 0.050210968 0.10190666 0.0011433323
0.07745389 0.037912473 -0.036639363 -0.02535351 -0.06398404 0.10513859 0.054106954 0.024807008
0.09558494 -0.019645287 0.06265967 0.08053901 0.10675007 0.037562978 -0.06616271 -0.0030445952
-0.051525347 0.06482114 0.081741825 0.009686052 -0.053610418 -0.089375205 -0.023857614 -0.13093932
0.111132234 -0.035616823 -0.007361699 0.025535285 0.065861754 -0.04025377 0.09620118 -0.06069376
-0.007870235 0.082692906 -0.019377705 -0.040802825 0.069369584 -0.11644988 -0.11582225 0.0519425
-0.01873788 -0.0021994563 -0.04574545 0.07312478 0.030211464 -0.08647548 -0.001993531 0.035758592
-0.10244267 -0.102160454 -0.10510792 -0.0680283 0.08604668 0.09245025 -0.12272286 -0.006962355
-0.024284676 0.059427865 -0.023597427 0.106017366 0.10297891 0.04237666 0.108949535 -0.07674592
0.045299396 -0.10321159 0.047563676 -0.06875299 0.051084403 -0.025592953 0.060329784 -0.09144901
-0.06595982 0.038667187 0.10791739 -0.07998809 0.04237312 -0.06618045 -0.1295019 0.020226883
0.08109348 -0.13669439 -0.12906894 0.046611868 0.07228352 -0.10493923 -0.0815773 -0.031270586
-0.026097523 0.057855353 0.10691071 3.5291065e-05 -0.11071209 0.053738132 -0.048858635 -0.041802008
-0.0013512974 -0.07233569 0.027097093 -0.055015717 0.072029755 0.025392564 0.07473693 0.098896205
-0.073374726 -0.038976733 -0.04003142 -0.09186087 0.09976096 0.06857178 -0.10586676 0.058183875
0.057065904 -0.100374505 -0.045470882 -0.121957585 -0.042054456 0.07741658 0.0043690815 -0.06704043
0.044929124 0.07311801 0.08640752 -0.0763796 0.07027585 -0.021134429 -0.015082181 -0.006951584
00000000: e262 b53d 4caf 03be ab7a 793c 1348 253c
00000010: 6868 53bd 6708 9b3d b728 01bd 3816 c43d
00000020: a69d d5bd 9def 42bd 247b 913d a27e a2bc
00000030: 93ae 2f3d 61fc e9bd 1063 bf3d 4f2b 85bd
00000040: e035 543b 0567 f0bd a207 8abd 04cc aebc
00000050: 762c 42bc c4e9 bfbd dd68 50bd 542e c4bd
00000060: 0d53 efbd 3544 cb3d 0511 0cbd 5a72 e3bd
00000070: 5ae9 abbd 4342 4c3c 3700 c2bd 7ced b73d
00000080: 7e60 013d 79c2 9ebd 4443 f5bc 13a5 a5bd
00000090: c348 e8bc 0e28 833d 5b5e 2e3d a7d5 1fbd
000000a0: c8c6 fb3c c724 c9bd 5b12 ab3d 2c8d ea3c
000000b0: e783 e73c cfaf 7fbd bdd2 35bc ea80 e3bd
000000c0: b003 b73d 339c 8f3d db8a 0dbd 0514 2cbc
000000d0: 76dc c23d fe85 05bb 15e9 c9bc 99c5 2abd
000000e0: 6df0 db3d af47 9bbd c99a b4bd 6c00 46bd
000000f0: 7d3a 573a 6c42 5f3c 0660 253d 0dd5 b0bd
00000100: b873 673d ebe5 05bd eb8e 503d 04bb e7bc
00000110: 0db8 f1bd 098f 23bc 0719 93bc 4aef e7bd
00000120: b0d5 d0bc e6a6 00bc 7de9 1ebc 6164 2c39
00000130: e9df 32bd 9fa2 e63c f5b6 943d 78c3 133d
00000140: 71c9 c13d 5874 333b 9fb6 edbd 9d9d b93d
00000150: fef5 3bbd c127 7ebd ed0e be3d c64b 8f3d
00000160: 4d05 b13d d734 1c3d af4e b9bd d60c af3d
00000170: 641f d53d c24e b8bc 7b91 eabd 96b3 26bd
00000180: ab1e 81bc 32eb 9c3d aa68 aa3b 2190 8b3d
00000190: 306f 72bd eac3 db3c c7d3 f73d 2223 523d
000001a0: 39f6 21bc 94db 0abc c37a c7bd 6396 c53d
000001b0: b5fd 523d 09d0 14bd 7814 e9bc 02e0 85bd
000001c0: 22c8 c63c fca8 f7bd a2f4 1fbd 6f1e 483c
000001d0: 197c 27bd 59ce 593d 3d9f 493d 0328 f53c
000001e0: f424 d53d bb49 023d bb0e 73bd faa7 78bd
000001f0: 93c8 eb3b 04aa 4d3d 70b4 d03d dedb 953a
00000200: 25a0 9e3d 1c4a 1b3d 2813 16bd 2ab2 cfbc
00000210: 100a 83bd e752 d73d 419f 5d3d 1138 cb3c
00000220: 09c2 c33d 27ef a0bc b753 803d a3f1 a43d
00000230: c89f da3d a3db 193d 5180 87bd d587 47bb
00000240: 3e0c 53bd f2c0 843d 4268 a73d 3fb2 1e3c
00000250: 9996 5bbd 590a b7bd 0b71 c3bc f514 06be
00000260: 4c99 e33d f2e2 11bd 683a f1bb 602f d13c
00000270: 87e2 863d 23e1 24bd 2005 c53d 059a 78bd
00000280: 28f2 00bc e65a a93d febd 9ebc dd20 27bd
00000290: a411 8e3d 467d eebd 3734 edbd a9c1 543d
000002a0: 2f80 99bc c124 10bb 955f 3bbd 72c2 953d
000002b0: 087e f73c 0e1a b1bd e6a5 02bb 9a77 123d
000002c0: 76cd d1bd 8039 d1bd d242 d7bd 6c52 8bbd
000002d0: 3e39 b03d 8f56 bd3d 1f56 fbbd 7824 e4bb
000002e0: a8f0 c6bc a26a 733d 644f c1bc a21f d93d
000002f0: 9be6 d23d 2693 2d3d ef20 df3d f72c 9dbd
00000300: dc8b 393d 9960 d3bd 21d2 423d 5ece 8cbd
00000310: e13d 513d 50a8 d1bc 5d1c 773d 9e49 bbbd
00000320: f115 87bd 7c61 1e3d cb03 dd3d ccd0 a3bd
00000330: 708f 2d3d 9e89 87bd 259c 04be d9b2 a53c
00000340: 5714 a63d 9df9 0bbe a62a 04be 16ec 3e3d
00000350: 6209 943d 61ea d6bd 0012 a7bd 9615 00bd
00000360: 79ca d5bc bcf9 6c3d 01f4 da3d 7e05 1438
00000370: 05bd e2bd 841c 5c3d fe1f 48bd 9538 2bbd
00000380: 041e b1ba bc24 94bd b9fa dd3c 2958 61bd
00000390: 5684 933d 1104 d03c ad0f 993d 188a ca3d
000003a0: 7d45 96bd 11a6 1fbd fcf7 23bd 8d21 bcbd
000003b0: 794f cc3d 5d6f 8c3d acd0 d8bd 3752 6e3d
000003c0: f0bd 693d 2691 cdbd ad3f 3abd e6c4 f9bd
000003d0: 4b41 2cbd 958c 9e3d 832a 8f3b 7e4c 89bd
000003e0: 9a07 383d e5be 953d 6df6 b03d e86c 9cbd
000003f0: c9ec 8f3d 1c22 adbc 411b 77bc 1dca e3bb
