lab4-student/code/model/bestModelParms-12-30-17-26.pth (torch, 498345 bytes, 20 tensors)

user_id_embedding.weight f4 [900, 32]
0	0x3fdd9b1a	1.7312958
1	0xbed9aaf6	-0.42513245
2	0xbf75917b	-0.9592511
3	0x3ce83c4f	0.02834907
4	0xbeb6b4c2	-0.35684782
5	0x3e87eea6	0.26549262
6	0xbfbdf594	-1.484057
7	0xbf57b0ae	-0.84253967
8	0xbed06c58	-0.4070766
9	0x3ec2872d	0.37993756
10	0x3f0b1ee7	0.5434403
11	0x3e879c64	0.26486504
12	0x3e8995d2	0.26872116
13	0x3f3b2226	0.7309898
14	0xbf8ded74	-1.108809
15	0xbf8516bc	-1.0397563
16	0xbfef36fc	-1.8688655
17	0x3f02f3f6	0.51153505
18	0x3da112c6	0.07864909
19	0xbf6451cf	-0.8918733
20	0xbe8e0861	-0.27740768
21	0x3e7d1c48	0.2471782
22	0xbf2f9fb4	-0.6860306
23	0xbfb6d4c5	-1.4283682
24	0xbe1b7173	-0.15179996
25	0xbf4428ed	-0.7662495
26	0xbf7acea1	-0.9797154
27	0xbe343462	-0.17598107
28	0x3e8db3ee	0.27676338
29	0xbeb50873	-0.3535801
30	0x3ed638d8	0.41840243
31	0x3def3f1e	0.116819605
32	0x3d63174e	0.055442147
33	0x3f94546a	1.1588261
34	0xbe8eae69	-0.2786744
35	0x3f750367	0.95708317
36	0x3eb6409b	0.35596165
37	0xbf903f43	-1.1269306
38	0xbe6838e4	-0.22677952
39	0xbf1dc1e8	-0.61624
40	0x3c48e52c	0.01226167
41	0xbe60c9f0	-0.21952033
42	0x3f7be6bd	0.98398954
43	0xba4f4226	-0.000790628
44	0xbddc10fa	-0.107454255
45	0xbf133d61	-0.5751553
46	0x3e810420	0.2519846
47	0x3f3fde33	0.74948424
48	0xbf71d306	-0.9446262
49	0x3c665f00	0.014060736
50	0xbf536ca4	-0.8258765
51	0x3e890cb0	0.26767492
52	0xbf81d310	-1.0142536
53	0x3efb27e2	0.49053866
54	0x3eeba0c0	0.4602108
55	0x3fe95a3c	1.8230662
56	0xc0118f98	-2.2743893
57	0x3fbd9ffd	1.481445
58	0xbf9bb6f7	-1.2165211
59	0xbdc48534	-0.09595719
60	0x3dbc917b	0.09207436
61	0x3feea7f1	1.8645002
62	0x3f6c0dc1	0.92208487
63	0x3b6675de	0.003516547
64	0xbd88a394	-0.06671825
65	0xbf44f2a7	-0.7693276
66	0xbf246e50	-0.64230824
67	0x3d518188	0.05114892
68	0xbdb11ddf	-0.086482756
69	0x3f84818a	1.0352032
70	0xbd842ce9	-0.064538784
71	0xbe8d430a	-0.2759021
72	0x3fb43da0	1.4081306
73	0xbefb8af5	-0.49129453
74	0xbeb3b99f	-0.35102555
75	0x3d893cec	0.06701073
76	0xbfd4f4f8	-1.6637259
77	0xbee9752b	-0.45597205
78	0xbd2dffb0	-0.04248017
79	0xbf468cad	-0.77558404
80	0x3f52ff80	0.8242111
81	0xbef3dbf4	-0.47628748
82	0xbfc78296	-1.5586727
83	0x3f569720	0.8382435
84	0x3d733aec	0.059382364
85	0xbf29d384	-0.6633837
86	0xbf860f10	-1.0473347
87	0x3f192cb3	0.5983383
88	0xbc374246	-0.011185234
89	0x3f9951c4	1.1978078
90	0xbf0dc2d8	-0.5537543
91	0xbee10136	-0.43946236
92	0xbdaa668b	-0.0832034
93	0x3c1e0d36	0.009646704
94	0x3eb9ade4	0.3626548
95	0xbf9b24df	-1.2120627
96	0x3fb90117	1.4453458
97	0x3f687e11	0.9081736
98	0x3f056b54	0.52116895
99	0xbb899012	-0.0041980827
100	0x3fb0cdf0	1.3812847
101	0xbf23ab7c	-0.6393354
102	0x3f257f49	0.64647347
103	0xbebeb903	-0.37250528
104	0xbfa5bd15	-1.2948328
105	0xbf72997e	-0.9476546
106	0x3f8ae54f	1.085123
107	0x3f66cd8d	0.90157396
108	0x3f857c32	1.0428526
109	0x3ec24a18	0.37947154
110	0xbefaa77f	-0.48955914
111	0x3f0572f8	0.52128553
112	0xbe8dce02	-0.27696234
113	0x3c8260a7	0.015915228
114	0xbbcbbf26	-0.006217855
115	0x3f8299c8	1.020318
116	0x3d6f9e23	0.05850042
117	0xbeb0c29b	-0.34523472
118	0x3e93110f	0.28723952
119	0xbf22a94d	-0.6353958
120	0xbf39c4de	-0.7256602
121	0xbc999d75	-0.01875184
122	0x3cd6c275	0.026215771
123	0x3fbd14f8	1.4772024
124	0x3cbd67ca	0.02312078
125	0xbd1fb7b9	-0.03899357
126	0x3ef7036f	0.48244807
127	0xbe6004fd	-0.21876903
128	0xbe35a9d2	-0.17740563
129	0x3e2c55c8	0.16829598
130	0xbf325ac5	-0.69669753
131	0xbf565ecd	-0.83738405
132	0x3d0eb214	0.034837797
133	0x3fc36324	1.526463
134	0x3fb5cdb0	1.4203396
135	0x3f17aa41	0.5924416
136	0xbc759bf0	-0.014990792
137	0xbf916182	-1.1357882
138	0xbea219de	-0.3166036
139	0xbf72cfa1	-0.94848067
140	0xbd47720e	-0.048692755
141	0x3f7bfc46	0.98431814
142	0x3f6e7722	0.9315053
143	0x3f21c6b0	0.631938
144	0xbd208c44	-0.039196268
145	0x3f1c5151	0.6106158
146	0xbeb6129f	-0.35561082
147	0xbeaf95ac	-0.34293878
148	0xbea8658f	-0.32889983
149	0xbdd83048	-0.10556084
150	0x3e34d9cc	0.17661208
151	0x3d00e427	0.031467583
152	0xbf143419	-0.57891995
153	0x3f6173c7	0.8806729
154	0xbf712cf8	-0.9420924
155	0x3f90d5e9	1.131528
156	0xbe8ee25b	-0.2790707
157	0x3f39d3f9	0.7258907
158	0x3faeeb7b	1.3665613
159	0x3f3c76d3	0.7361881
160	0xbea25bf7	-0.3171079
161	0x3edd38af	0.4320731
162	0xbfe493bb	-1.7857584
163	0xbfb639da	-1.4236405
164	0xbf8155b9	-1.0104285
165	0x3eb8e725	0.3611385
166	0x3feb3fba	1.8378823
167	0x3f5e5f67	0.8686432
168	0xbed068e4	-0.40705025
169	0xbf9cdd95	-1.2255121
170	0xbf8aca98	-1.0843077
171	0xbe301ed8	-0.17199266
172	0xbfe7ac15	-1.809939
173	0x3ff82246	1.938546
174	0xbf85274e	-1.040262
175	0xbe0fed4c	-0.14055365
176	0x3e1d5eec	0.15368241
177	0xbe142cce	-0.14470217
178	0x3fce9bde	1.6141317
179	0xbf3a23fc	-0.7271116
180	0xbdd8a4e2	-0.10578324
181	0x3f4aff84	0.79296136
182	0xbe1c8b17	-0.15287434
183	0x3cb579a6	0.022152733
184	0xbfb58d36	-1.4183719
185	0x3e4c1b84	0.19932371
186	0xbfe3e20a	-1.7803357
187	0xbd99fe59	-0.07519216
188	0x3e57049b	0.2099785
189	0xbc97585a	-0.018474746
190	0x3f8cc827	1.0998582
191	0x3f2c5dbc	0.6733053
192	0x3f36658d	0.71248704
193	0xbf98264d	-1.1886688
194	0x3e885967	0.2663071
195	0x3f780706	0.96885717
196	0x3f6e40d2	0.9306766
197	0xbfc81cd2	-1.5633795
198	0xbfcbe208	-1.5928354
199	0x3f56dceb	0.83930844
200	0xbf297cc1	-0.66205984
201	0xbe5d16c1	-0.21590711
202	0x3f84269f	1.0324286
203	0x3ccbab1d	0.024861867
204	0x3f4e82b3	0.8066818
205	0x3f790d56	0.97285974
206	0xc00a9a6b	-2.165675
207	0xbe91c422	-0.2846995
208	0x3e57c36a	0.21070638
209	0xc03fd7c9	-2.9975455
210	0xbf33b79d	-0.70202047
211	0xbf8d1802	-1.1022952
212	0xbe7a7f34	-0.24462587
213	0x3c9531c2	0.018212203
214	0xbf7a134d	-0.976857
215	0x3ddc9c83	0.1077204
216	0xbd27a2dd	-0.040926803
217	0x3f4fdfff	0.81201166
218	0xbdc31313	-0.095251225
219	0xbf91aa1d	-1.138004
220	0xbfd0468a	-1.6271527
221	0x3e0c4de5	0.1370159
222	0x401b33cf	2.4250371
223	0x39800ecc	0.00024425087
224	0x3f53fd47	0.82808346
225	0xbd376f5f	-0.044783946
226	0x3d366643	0.044531118
227	0x3f0aa81a	0.5416275
228	0x40132adb	2.2994907
229	0xbf260f9e	-0.6486758
230	0x3f0329a9	0.51235443
231	0xbe141ec3	-0.1446486
232	0x3dd06916	0.101762936
233	0x3f8d3844	1.1032796
234	0xbfedb723	-1.8571514
235	0xbf172b71	-0.5905066
236	0xbd5ff04a	-0.054672517
237	0x3f29a3d0	0.66265583
238	0xbe85bbd9	-0.2611988
239	0x3fae94dc	1.3639178
240	0xbf2e3e35	-0.6806367
241	0xbf50b68e	-0.81528556
242	0xbfa54a20	-1.2913246
243	0xbe8b2e1a	-0.2718361
244	0x3fa4cb11	1.2874471
245	0xbf3ac88c	-0.7296226
246	0x3f86b842	1.0524981
247	0xbe25edbc	-0.1620397
248	0xbe80cc06	-0.25155658
249	0x3d1b2b4a	0.03788308
250	0xbd16161d	-0.036642183
251	0xbd8c6385	-0.06854919
252	0x3ee67ede	0.45018667
253	0xbdb7b2a7	-0.08969622
254	0x3f2e1e95	0.68015414
255	0xbfd5f5c4	-1.6715627

user_age_embedding.weight f4 [5, 4]
0	0x3f23e8c8	0.6402707
1	0x3f0d2c85	0.55146056
2	0xbfe5cc94	-1.7953057
3	0x3fa54447	1.2911462
4	0x3f26c8da	0.65150225
5	0xbfec01c1	-1.8438035
6	0xbf1b4551	-0.60652643
7	0x3f006741	0.5015755
8	0x3ec0c5b5	0.37650838
9	0xbefc63ab	-0.4929479
10	0x3e1df328	0.15424788
11	0xbf22bbe2	-0.63567936
12	0x3fbb542b	1.4635061
13	0x3f23349a	0.6375214
14	0x3f82209d	1.0166203
15	0x3ee482f2	0.44631153
16	0xbdc5963b	-0.09647795
17	0x3effa9ac	0.49934137
18	0x3fa414ef	1.2818888
19	0xbfce0183	-1.6094211

user_gender_embedding.weight f4 [2, 2]
0	0x3d58c56d	0.052922655
1	0x3e9e696a	0.309398
2	0xbfd3db11	-1.6551229
3	0x3ed57dfa	0.41697675

user_occupation_embedding.weight f4 [21, 8]
0	0x3e54a0c8	0.20764458
1	0x3f94f26c	1.1636481
2	0xbf77d35c	-0.96806884
3	0x3e42d840	0.19027805
4	0x3f53f1ed	0.82791024
5	0x3eeb4c13	0.45956478
6	0x40001226	2.0011077
7	0x3f921c2f	1.1414851
8	0xbd6dd69b	-0.05806599
9	0xbfc91444	-1.570931
10	0x3f63f75b	0.8904931
11	0xbf0c9155	-0.5490926
12	0xbfb50eee	-1.4145181
13	0x3f1c5877	0.61072487
14	0xbeed5a41	-0.4635792
15	0xbf06c0a3	-0.5263769
16	0x3f8668ef	1.0500773
17	0xbf62cec0	-0.88596725
18	0x3fac9675	1.3483416
19	0x3ec6fba2	0.38863856
20	0x3f7fdb1e	0.9994372
21	0xbf8054f0	-1.0025921
22	0xbee3b465	-0.44473568
23	0x3f37593b	0.7162053
24	0x4019f96c	2.4058485
25	0x3e034b2a	0.12821642
26	0xbff782db	-1.9336809
27	0x400bd1bc	2.1846762
28	0x3e49a049	0.1969005
29	0xbdd7148d	-0.105019666
30	0xbf5ec5d5	-0.8702062
31	0xbf5f13fa	-0.87139857
32	0x3f2c9c76	0.6742624
33	0xbf9fe0aa	-1.2490437
34	0xbf5d41b3	-0.86428374
35	0x3eeb57fb	0.4596556
36	0x3f234125	0.6377128
37	0xbf9c6839	-1.2219306
38	0x3f18533f	0.59502023
39	0xbf9fd835	-1.2487856
40	0xbfb8e0f0	-1.4443645
41	0xbee29f4a	-0.44262153
42	0x3d8072d4	0.06271902
43	0xbe3502b9	-0.1767682
44	0xbe9c63f7	-0.30545017
45	0xbfb06779	-1.3781577
46	0x3f33fc7c	0.70307136
47	0xbec6801b	-0.38769612
48	0x3ecc95f9	0.3995817
49	0xc01f1d40	-2.4861603
50	0x3f29a056	0.6626028
51	0x3f00fe19	0.5038772
52	0xbf45aa0f	-0.77212614
53	0x3f5b11ef	0.8557424
54	0x3d8fd0b9	0.070222326
55	0x3f42d34a	0.7610365
56	0x3e361ff5	0.17785628
57	0x3f3bec82	0.7340776
58	0xbf529118	-0.82252645
59	0x3f8b07bd	1.0861737
60	0xbeb46198	-0.35230708
61	0x3e75d916	0.24008593
62	0x3f453c8b	0.77045506
63	0x3f411740	0.754261
64	0xbdf3fe7c	-0.119137734
65	0xbf7bec44	-0.9840739
66	0x3f24d2c7	0.6438412
67	0x3dda2c27	0.10652953
68	0xbee42afa	-0.4456404
69	0xbf9f1cd9	-1.2430679
70	0x3f828a32	1.0198424
71	0xbebea38d	-0.37234154
72	0x3f842695	1.0324274
73	0xbed1fe60	-0.41014385
74	0x3e5ad82b	0.21371524
75	0xbf515369	-0.817679
76	0xbf11c833	-0.56946105
77	0xbec6c16f	-0.38819453
78	0x3fa47c89	1.2850505
79	0x3f382080	0.7192459
80	0xbcfdbaef	-0.030972926
81	0xbf3f6692	-0.74765885
82	0x3ecfcb42	0.4058476
83	0xbf12ddea	-0.57369864
84	0x3f57fb4f	0.8436784
85	0xbf2449f4	-0.64175344
86	0xbf80d9d5	-1.0066477
87	0xbf628b7f	-0.88494104
88	0xbf18105a	-0.5939995
89	0xbd7a3a30	-0.06109065
90	0x3f4a92ca	0.7913023
91	0xbdfdd2e7	-0.12393742
92	0x3fbd056e	1.4767282
93	0xbd3fa2f6	-0.04678627
94	0xbf47bcf9	-0.78022724
95	0x3f016e13	0.50558585
96	0x3ff66299	1.924884
97	0x3fd96e33	1.6986755
98	0x3f8de06a	1.1084111
99	0xbf92a6bf	-1.1457137
100	0xbf57861f	-0.8418903
101	0xbd9a211a	-0.07525845
102	0x3c93326f	0.017968385
103	0xbf6731d6	-0.9031042
104	0x3e93711e	0.2879724
105	0xbf8a422f	-1.0801448
106	0x3f40a47d	0.7525099
107	0xbe496e26	-0.19670925
108	0x3f251d30	0.6449766
109	0x3fa5b9f5	1.2947375
110	0x3e308db8	0.17241561
111	0x3f2b233b	0.6685063
112	0x3e87ff73	0.2656208
113	0x3fa6ad7c	1.3021693
114	0x3f407e04	0.75192285
115	0xbe53e3ec	-0.20692414
116	0xbf00e4a8	-0.503489
117	0xbf863c8b	-1.0487226
118	0x3e0893e1	0.13337661
119	0xbe9178b3	-0.284124
120	0x3f627160	0.88454247
121	0x3f8e9169	1.1138126
122	0xbe4aae01	-0.1979294
123	0xbf0095ef	-0.5022878
124	0xbe41b51e	-0.18916747
125	0x3fffa227	1.997136
126	0x3f42ab73	0.7604286
127	0xbe4cdac0	-0.20005322
128	0x3e4210e1	0.18951751
129	0xbcebbfd0	-0.028777987
130	0xbf5d339e	-0.86406887
131	0xbf05ec7f	-0.5231399
132	0xbf355052	-0.70825684
133	0x3b7c9b46	0.0038544699
134	0xbd0277a8	-0.031852394
135	0x3f151149	0.582295
136	0x3f92552a	1.143224
137	0x3eaaff1a	0.33397752
138	0xbff16dae	-1.8861597
139	0xbf2450a3	-0.6418554
140	0x3fbf0474	1.4923234
141	0xbf4fe6b2	-0.8121139
142	0x3fc6db55	1.5535685
143	0x3e169cdb	0.14708273
144	0x3d5418cd	0.051781464
145	0xbe30d3be	-0.17268273
146	0x3fb4a955	1.4114176
147	0xbdac66bc	-0.084180325
148	0x3df80243	0.121098064
149	0xbfb54c35	-1.4163882
150	0xbec7c0ae	-0.3901419
151	0xbeed15d1	-0.46305707
152	0x3f9f817e	1.2461393
153	0x3f78bbf3	0.9716179
154	0xc02fd66d	-2.7474625
155	0xbf810131	-1.0078489
156	0xbf0df162	-0.55446446
157	0xbf643dd2	-0.8915683
158	0x3f6fba1c	0.93643355
159	0x3ed4e553	0.4158121
160	0xbe5816b6	-0.21102414
161	0xbfb209cf	-1.3909243
162	0x3f13f21a	0.5779129
163	0xbf55c03f	-0.8349647
164	0xbf3797a9	-0.7171579
165	0xbf331072	-0.6994697
166	0xbe99bd7e	-0.30027384
167	0x3f51ec1c	0.820009

user_location_embedding.weight f4 [760, 18]
0	0x3ea63e07	0.32469198
1	0xbea4cab2	-0.32185894
2	0xbefb4cc4	-0.49082005
3	0xbf67ded6	-0.90574396
4	0x3f832826	1.0246627
5	0x3f7c76ab	0.9861857
6	0x3f1498d7	0.58045715
7	0x3f8d5dd0	1.1044254
8	0xbf5ac5bd	-0.85457975
9	0x3a1807e9	0.00057995185
10	0xbf1cc6d3	-0.6124088
11	0x3f287a11	0.6581126
12	0xbf104206	-0.56350744
13	0xbf743728	-0.9539666
14	0x3ec66655	0.38749948
15	0xbcfe4b54	-0.031041779
16	0x3fc28517	1.5196866
17	0xbeb13d42	-0.34617049
18	0xbbbf501a	-0.0058384063
19	0xbee8425f	-0.45363137
20	0xbd6829ab	-0.056680363
21	0x3ee12282	0.4397164
22	0xbd295472	-0.0413403
23	0x3d9c08e9	0.07618887
24	0x3dbff60c	0.093731016
25	0x3efd9ea1	0.49535087
26	0x3df21158	0.11819714
27	0xbf8ca481	-1.0987703
28	0x3f8c75dd	1.0973469
29	0x3f67a0f1	0.9047995
30	0x3f4ee332	0.8081542
31	0xbf81df56	-1.0146282
32	0x3f337964	0.701071
33	0xbd292df5	-0.041303594
34	0x391a2178	0.00014699053
35	0x3e79b8ca	0.24386898
36	0xbe1a5356	-0.15070853
37	0x3f5ce094	0.8628018
38	0xbf3825a4	-0.71932435
39	0xbf37be74	-0.71774983
40	0xbf8c8477	-1.0977925
41	0xbf1e9352	-0.6194354
42	0xbd841d73	-0.064509295
43	0x3f4ad851	0.7923632
44	0xbe14d8ec	-0.14535874
45	0x3fcca7d4	1.5988717
46	0xbdb2c417	-0.087288074
47	0x3fc08208	1.5039682
48	0x3f5bed62	0.8590909
49	0xbc919d67	-0.01777525
50	0x3da73e60	0.08166194
51	0x40599522	3.3997273
52	0xbef86141	-0.485117
53	0x3f071b13	0.52775687
54	0xbf42620b	-0.7593085
55	0x3ecd848d	0.4014019
56	0x3d2557b0	0.04036683
57	0xbe8dece9	-0.2771981
58	0xbfdcda80	-1.7254181
59	0xbfc4fb0f	-1.5389117
60	0x3fe03ef4	1.7519212
61	0x3f356dc4	0.70870614
62	0xbf315ce4	-0.69282365
63	0x3fa37e08	1.2772837
64	0x3f409605	0.7522891
65	0x3fde3688	1.7360392
66	0xbf9a70e3	-1.20657
67	0x3f4137e9	0.7547594
68	0xbf71b646	-0.9441875
69	0x3de4de49	0.1117521
70	0x3e5c75d9	0.2152933
71	0xbd789e38	-0.060697764
72	0xbed53151	-0.41639188
73	0xbe98bab5	-0.29829946
74	0xbf0de37a	-0.55425227
75	0x3cfaa6e5	0.03059716
76	0xbf7acc3a	-0.97967875
77	0x3f46a621	0.7759724
78	0xbf3badc0	-0.73311996
79	0xbfd1a996	-1.6379879
80	0xbe2c5791	-0.16830279
81	0x3e20d62e	0.15706703
82	0xbfbf04c9	-1.4923335
83	0x3fb15040	1.3852615
84	0xbf96f448	-1.1793299
85	0xc001abff	-2.0261228
86	0xbf7006b9	-0.9376026
87	0x3f206212	0.62649643
88	0x3e1d0f7a	0.15337935
89	0x3ef9ad80	0.48765182
90	0x3e067b56	0.13132986
91	0x3f61aac0	0.8815117
92	0xbefc156e	-0.492351
93	0xbf309879	-0.68982655
94	0x3d03c247	0.0321677
95	0xbf190c02	-0.5978395
96	0xbbec82c4	-0.007217737
97	0xbf451d96	-0.7699827
98	0x3f9b3810	1.2126484
99	0x3e6aaf58	0.22918451
100	0xbd93aa65	-0.072102346
101	0x3fb1c03b	1.3886789
102	0xbd381851	-0.044945065
103	0x3f088407	0.5332646
104	0xbee70fe7	-0.4512932
105	0xbe2ef4e5	-0.17085607
106	0x3f144fe1	0.57934386
107	0x3f5ed993	0.8705074
108	0xbfa8668f	-1.3156298
109	0xbf840f84	-1.0317235
110	0xbfb31479	-1.3990623
111	0xbbf4e366	-0.007473397
112	0x401892d5	2.383962
113	0xbf2ddd48	-0.67915773
114	0xbc4bd308	-0.0124404505
115	0x3f5fcc4c	0.8742111
116	0xbf0ae875	-0.5426095
117	0x3e64abad	0.22331114
118	0xbfa1b263	-1.2632564
119	0xbdd3036f	-0.10303389
120	0xbf0c8ede	-0.549055
121	0xbf1fdc56	-0.6244558
122	0x3ebdda9d	0.3708085
123	0xbe3dd295	-0.18537362
124	0xbd6ffd37	-0.058591094
125	0xbe139aab	-0.1441447
126	0x401e58e7	2.4741762
127	0x3ed911c4	0.42396367
128	0xc03176fa	-2.7728868
129	0xbdae1f72	-0.085020915
130	0xbbc19c76	-0.005908544
131	0xbf0c79a5	-0.54873115
132	0x3df2283f	0.118240826
133	0x3ddddab0	0.10832727
134	0x4016cf30	2.3563957
135	0x3c1c644a	0.009545395
136	0x3cf059ef	0.029339759
137	0xbedb2ca2	-0.4280749
138	0xbfd09030	-1.6294003
139	0x3e13f564	0.14449078
140	0x3f34d5f0	0.7063894
141	0x3cb68b9f	0.022283373
142	0xbebe96f0	-0.3722453
143	0xbfe7d6d4	-1.8112435
144	0xbe672c5b	-0.22575514
145	0xbf5ee3d4	-0.8706639
146	0xbf06a8ac	-0.5260112
147	0xbf989195	-1.1919428
148	0xbf313091	-0.6921473
149	0x3fb1c298	1.388751
150	0xbf1deb7d	-0.6168745
151	0xbe954eef	-0.29161784
152	0x3cb6b870	0.022304744
153	0x3ea608f9	0.3242872
154	0x3f6f0d34	0.9337952
155	0x3f913a0f	1.1345843
156	0xbf0f0c9f	-0.55878633
157	0xbe96f6ec	-0.2948526
158	0x3cdfd112	0.027321372
159	0xbf04d65e	-0.518896
160	0x3d274c5c	0.040844306
161	0x3dbccc3a	0.092186406
162	0xbf107843	-0.56433505
163	0x3dfa24b8	0.12214035
164	0xbcdb5f87	-0.02677895
165	0xbe0b261f	-0.13588761
166	0x3f845864	1.0339475
167	0x3f03d426	0.5149559
168	0xbf9f8574	-1.2462602
169	0x3d39a26c	0.045320913
170	0x3f7df6c9	0.9920469
171	0x40022413	2.0334518
172	0x3d080c72	0.033214994
173	0x3e85631c	0.26052177
174	0x3e65a17e	0.22424886
175	0xbf0265bc	-0.50936484
176	0xbca4aac8	-0.020100966
177	0x3ce16ee2	0.027518693
178	0xbf9dcac5	-1.2327505
179	0x3d6e3e89	0.058165107
180	0x3cf362b9	0.02971016
181	0x3f8dd264	1.1079831
182	0xbf9b04ce	-1.2110841
183	0x3f80e044	1.006844
184	0x3fc01197	1.5005368
185	0x3f468ef7	0.775619
186	0xbe99df7a	-0.30053312
187	0x4004d598	2.0755367
188	0xbfb0a723	-1.3801006
189	0x3fb72201	1.4307252
190	0x3f95136f	1.1646556
191	0xbdb47d3a	-0.088129476
192	0xbea43e1a	-0.3207863
193	0x3db1719b	0.08664247
194	0xbf5003ac	-0.812556
195	0x3f86f3a2	1.0543101
196	0xbe059f5a	-0.13049069
197	0xc00ef15f	-2.2334821
198	0xbe862ff4	-0.2620846
199	0xbfb4d8f4	-1.4128709
200	0x3f39e93e	0.72621524
201	0x3f37b2f6	0.7175745
202	0xbf1a8286	-0.6035541
203	0x3f13334b	0.5750014
204	0xbed3f523	-0.41397962
205	0x3ef2b178	0.47401023
206	0x3f61dac6	0.88224447
207	0xbf1558e3	-0.58338755
208	0xbe8a9186	-0.2706415
209	0xbf91e782	-1.1398776
210	0x3fa1dc94	1.264544
211	0xbf022b59	-0.50847393
212	0x3fabffa0	1.3437386
213	0x3fd0a7a6	1.6301162
214	0xbf7164b8	-0.9429431
215	0x3fd019b9	1.625785
216	0xbeff3b8f	-0.49850127
217	0xbfd58ad5	-1.6682993
218	0xbf766100	-0.9624176
219	0x3f2f99a1	0.68593794
220	0x4019e6e0	2.4047165
221	0x403799c7	2.8687608
222	0xbf8ec5a5	-1.1154066
223	0x3f567a44	0.8378031
224	0xbf27d61b	-0.65561074
225	0xbe1078f1	-0.14108635
226	0x3dac1daf	0.08404099
227	0xbefb2efd	-0.49059287
228	0xbf38d0d5	-0.7219365
229	0xbe12e3bf	-0.1434469
230	0xbf320411	-0.69537455
231	0xbf98cadd	-1.1936909
232	0xbd2221c1	-0.03958297
233	0xbf5b77d3	-0.8572971
234	0x3e23ecf6	0.16008362
235	0xbf833aa5	-1.0252272
236	0x3f0ded7e	0.5544051
237	0x3e8a8252	0.27052552
238	0xbe677f90	-0.22607255
239	0xbe084b4d	-0.13309975
240	0x3e9b58d1	0.303412
241	0x3f10ebb2	0.5660964
242	0x3f756227	0.95852894
243	0x4045f44c	3.0930357
244	0xbfc3c56f	-1.5294627
245	0xbfe253d8	-1.7681837
246	0xbf14d93d	-0.5814398
247	0x3c967e2c	0.01837071
248	0xbefe6ba9	-0.49691513
249	0xbf3bfb4f	-0.7343034
250	0x3f8b84a2	1.0899851
251	0xbee0c79a	-0.43902284
252	0xbf9f16a5	-1.2428786
253	0x3ffa3092	1.9546072
254	0xbe873603	-0.26408395
255	0xbef48d69	-0.47764137

item_id_embedding.weight f4 [1600, 32]
0	0x3f0625e7	0.52401584
1	0xbe20b90b	-0.15695588
2	0x3e9bf547	0.3046057
3	0xbeffb13e	-0.49939913
4	0x3f9138e6	1.1345489
5	0xc0056b14	-2.0846605
6	0x3f7a455d	0.9776209
7	0x3d183228	0.037157208
8	0x3e063c4d	0.1310894
9	0x3f6d0334	0.9258301
10	0x3dfc9b68	0.12334329
11	0x3eec9248	0.46205354
12	0x3f0b70e1	0.54469115
13	0xbcfd021f	-0.0308848
14	0xbf55ec04	-0.83563256
15	0x3e67ddc8	0.22643197
16	0x3e833100	0.25623322
17	0x3f86bb1b	1.052585
18	0xbf827c34	-1.0194154
19	0x3faba1f8	1.3408804
20	0xbe98570e	-0.29753917
21	0x3fca36d5	1.5797983
22	0xbf5ab8f8	-0.8543849
23	0x3f9c14b2	1.2193816
24	0xbe3022c6	-0.17200765
25	0x3ef66249	0.4812186
26	0xbe1b3c89	-0.15159811
27	0x3ef56fd7	0.4793689
28	0xbf2aaf48	-0.6667371
29	0xbebfcdcd	-0.374617
30	0x3f2a5dd3	0.66549414
31	0x3ef5536a	0.47915202
32	0xbbfdf5f7	-0.0077502686
33	0xbf98abad	-1.1927391
34	0xbe6ceb6e	-0.23136684
35	0x3f377453	0.7166187
36	0x3ed09d4d	0.4074501
37	0xbdf06209	-0.11737449
38	0xbf1ca2cb	-0.611859
39	0x3f4653c5	0.7747157
40	0xbe587819	-0.21139564
41	0x3f39cc04	0.7257693
42	0xbfc02688	-1.5011759
43	0x3bd96492	0.0066343034
44	0xbb2d2069	-0.0026417023
45	0x3db34dc6	0.087550685
46	0xbef0b177	-0.47010395
47	0xbe9f21b8	-0.31080413
48	0xbe113a7e	-0.14182469
49	0xbd2e01a9	-0.042482052
50	0xbf5009cd	-0.81264955
51	0xbefc43c1	-0.49270442
52	0x3f6da1de	0.92825115
53	0xbd2b7b58	-0.041865677
54	0xbfadb36b	-1.3570379
55	0x3f830c25	1.0238081
56	0xbd4c2ff4	-0.04985042
57	0x3f57bb47	0.8427014
58	0x3fa808e0	1.3127708
59	0x3ccc7841	0.024959685
60	0x3f326bb0	0.6969557
61	0x3f241765	0.640982
62	0xbb96189c	-0.0045805704
63	0xbd28bcc4	-0.041195646
64	0xbeb53c40	-0.3539753
65	0xbf07dea3	-0.5307409
66	0xbe8d6cd5	-0.27622095
67	0x3ec1e0da	0.3786686
68	0x3f347d9d	0.7050417
69	0x3dfe582f	0.124191634
70	0xbcd2d400	-0.025735855
71	0xbefc7823	-0.49310407
72	0x3f9ee228	1.2412767
73	0xbf8ba27d	-1.0908962
74	0xbec419a1	-0.38300803
75	0x3efd8217	0.49513313
76	0xbf0aa679	-0.5416027
77	0xbdb78cfb	-0.08962437
78	0xbcede093	-0.02903775
79	0x3c129b15	0.008948107
80	0xbe100690	-0.14065003
81	0xbedfefe6	-0.43737715
82	0xbf739680	-0.9515152
83	0xbf378874	-0.71692586
84	0x3f3a94ee	0.728835
85	0xbf834fbc	-1.0258708
86	0x3facd1d8	1.3501539
87	0xbbc5103f	-0.0060138996
88	0xbeb2f8d0	-0.34955454
89	0x3fce62f3	1.6123947
90	0x3ea3f12e	0.32019943
91	0xbd7a8a00	-0.061166763
92	0xbf072b8c	-0.5280082
93	0x3fe21fb6	1.7665927
94	0x3fe97a36	1.8240421
95	0xbd1cf00e	-0.03831487
96	0x40047bf2	2.070065
97	0xbe6d33e2	-0.23164323
98	0xbfe2d664	-1.7721677
99	0xbe9acab1	-0.30232766
100	0x3edc00d0	0.4296937
101	0x3f083903	0.5321199
102	0xbec07f4b	-0.37597117
103	0x3e97a13d	0.29615203
104	0x3f9ff531	1.2496701
105	0xbf2843bc	-0.65728354
106	0xbf389ad4	-0.7211125
107	0x3faed723	1.3659405
108	0xbf9c98da	-1.2234147
109	0xbd58c0ed	-0.052918363
110	0xbd1dd3f0	-0.038532197
111	0xbe96fd1f	-0.2948999
112	0x3f600a9e	0.875162
113	0x3dba6026	0.0910037
114	0xbeac1808	-0.33612084
115	0x3fda4e3a	1.7055123
116	0xbecd8020	-0.40136814
117	0xbea72a29	-0.32649353
118	0xbf3eaaf4	-0.74479604
119	0x3f6c45c9	0.92293984
120	0x3fa73702	1.3063662
121	0x3e1a91bb	0.15094654
122	0x3f3c1b5c	0.7347925
123	0x3fbde0d2	1.4834235
124	0xbc39994a	-0.011328051
125	0xbe8b095c	-0.27155578
126	0xbf6b3ced	-0.9188984
127	0x3f5047b1	0.8135939
128	0x3d155878	0.036461323
129	0xbf904875	-1.1272112
130	0xbec06220	-0.37574863
131	0xbe9d78b1	-0.30756143
132	0xbf70117d	-0.93776685
133	0x3fddbeda	1.7323868
134	0x3e277d08	0.1635629
135	0x3eb3418e	0.35010952
136	0xbd3e4589	-0.046453033
137	0xbfca666b	-1.5812505
138	0xbf9fd0b5	-1.2485567
139	0xbd8eb60f	-0.06968319
140	0x3e1045d1	0.14089133
141	0xbf0af84e	-0.5428513
142	0xbebfb791	-0.37444738
143	0x3eb68334	0.35646975
144	0x4017e94a	2.3736138
145	0x3bde93ef	0.0067925374
146	0x3ebfa0b9	0.3742731
147	0x3ee2a032	0.44262844
148	0xbd5e00be	-0.054199927
149	0xbfdc9ed3	-1.7235969
150	0x3f7fb91a	0.9989182
151	0x3e2fa7b9	0.17153825
152	0x3bc1d37a	0.0059151025
153	0xbec35d62	-0.38157183
154	0xbe1d206b	-0.15344398
155	0x3ee5ab59	0.4485729
156	0x3f5a6286	0.85306585
157	0xbf1951eb	-0.5989062
158	0xbcd96c45	-0.026540885
159	0x3e808ef7	0.25109074
160	0x3f4f280e	0.80920494
161	0x3da7bc4a	0.0819021
162	0x3e05055d	0.12990327
163	0xbf86ac7f	-1.0521392
164	0x3fa6ccbd	1.3031231
165	0xbd6c0379	-0.0576205
166	0x3c55d41d	0.01305106
167	0xbb1a5f8a	-0.002355548
168	0xbc1cc42b	-0.009568254
169	0x3e3bc8a6	0.1833826
170	0xbcc5653c	-0.024096124
171	0x3aff4801	0.0019476415
172	0xbec94901	-0.3931351
173	0x400d21e7	2.2051942
174	0xbec42e69	-0.38316658
175	0x3f8d2770	1.102766
176	0x3f28258e	0.65682304
177	0x3e581f8f	0.21105789
178	0x3fbbde21	1.4677163
179	0x3f5b5d8b	0.8568961
180	0x3fd10a66	1.6331298
181	0x3f6e92df	0.9319286
182	0xbf938165	-1.1523863
183	0xbeaa4a6f	-0.33259913
184	0xbee60e1a	-0.44932634
185	0xbf35ab96	-0.70964944
186	0xbf5236a9	-0.82114655
187	0xbf9ed3ff	-1.2408446
188	0x3f0b8a68	0.54508066
189	0x3e068300	0.1313591
190	0xbe8513bc	-0.2599162
191	0xbf276e72	-0.654029
192	0xbf398557	-0.72469085
193	0x3d1869a1	0.03721011
194	0xbfc2cbe0	-1.5218468
195	0x3c045c66	0.00807867
196	0x3e5ee491	0.21766879
197	0x3ef87c00	0.48532104
198	0x3f4ade86	0.79245794
199	0xbe0e1166	-0.13873824
200	0x3ff5465b	1.9162096
201	0x3dca7119	0.09884853
202	0xbef56a00	-0.47932434
203	0x3e7fcbef	0.24980138
204	0x3f4340d0	0.7627077
205	0xbdeed19f	-0.11661076
206	0xc0413f7e	-3.0195003
207	0xbf2c2879	-0.67249256
208	0x3e9608e9	0.29303673
209	0x3da7bb84	0.08190063
210	0x3fd3a253	1.6533912
211	0x3ff3fbc2	1.9061205
212	0xbe9ad68c	-0.3024181
213	0xbfc2ad11	-1.5209066
214	0xbfb96d37	-1.4486455
215	0xbe3ee15f	-0.1864066
216	0x3f77b146	0.9675487
217	0xbfb43d84	-1.4081273
218	0x3ff4d5d9	1.9127761
219	0xbf7eba50	-0.9950304
220	0xbc39ca70	-0.011339769
221	0xbf5ef359	-0.8709007
222	0x3ee52115	0.44751802
223	0x3de417f0	0.11137378
224	0xbf841766	-1.0319641
225	0x3fea5206	1.8306282
226	0xbedf8a9c	-0.43660438
227	0xbfc9fd5c	-1.5780444
228	0xbf0a6694	-0.5406277
229	0xbcc7175d	-0.024303133
230	0x3db9dd13	0.0907537
231	0xbef4616f	-0.47730586
232	0xbcb8cd89	-0.022558944
233	0xbe1ba54c	-0.15199775
234	0xbf61dfc1	-0.88232046
235	0x3f1ece08	0.6203313
236	0x3eb5a4a5	0.35477176
237	0xbf660353	-0.8984882
238	0xbdef250f	-0.1167699
239	0x3edc9304	0.43080914
240	0x3ea5d240	0.3238697
241	0x3fcaecac	1.5853477
242	0xbc233d0a	-0.009963283
243	0xbf34a402	-0.70562756
244	0xc0025a17	-2.0367486
245	0xbd2ac17b	-0.041688424
246	0xbe90f940	-0.28315163
247	0x4005e891	2.0923197
248	0xbdd5252c	-0.104074806
249	0xbf0c2477	-0.5474314
250	0x3f4f7943	0.81044406
251	0xbeb12fcc	-0.3460678
252	0xbf65ea2a	-0.8981043
253	0xbf275bb3	-0.65374297
254	0x3d3059c5	0.04305436
255	0x3f55166b	0.8323733

item_type_embedding.weight f4 [5, 8]
0	0x3fd225d7	1.6417798
1	0xbf942035	-1.1572329
2	0x40212c0f	2.5183141
3	0x3df8eaa6	0.12154131
4	0xbe17a708	-0.14809811
5	0x3f656824	0.8961203
6	0xbe287519	-0.16450919
7	0x3d02fbda	0.031978466
8	0x3f96b13a	1.1772835
9	0xbf8365a0	-1.0265388
10	0x3fe7c15c	1.8105884
11	0xbe36df03	-0.1785851
12	0xbf9e130a	-1.234956
13	0xbfca4308	-1.5801706
14	0x3fafbc0f	1.3729266
15	0x3f98c9e1	1.1936609
16	0x3ee71cb9	0.451391
17	0xbf7bda55	-0.98380023
18	0x3e29b557	0.16573082
19	0xbfda6efc	-1.706512
20	0xbf73bacd	-0.9520691
21	0xbddbe7ea	-0.107375935
22	0x3e8c8be4	0.27450478
23	0xbfe7194e	-1.8054597
24	0x3f840645	1.0314413
25	0xbe846007	-0.25854513
26	0x3fd1f3f9	1.640258
27	0x3f1a49b1	0.60268694
28	0x4044d54f	3.0755193
29	0x3f3bf847	0.73425716
30	0x3ef19817	0.47186348
31	0xbf8b1822	-1.086674
32	0xbfda7474	-1.7066789
33	0x3f57747a	0.84162104
34	0xbf9673d0	-1.1754093
35	0x3cd1b5f0	0.02559945
36	0x3edec9d4	0.43513358
37	0xbd9ff4d0	-0.07810366
38	0x3f33d32c	0.702441
39	0xbfb1c22e	-1.3887384

item_temperature_embedding.weight f4 [7, 8]
0	0xbeda4a54	-0.42634833
1	0xbf07378d	-0.5281914
2	0xbe945a9d	-0.28975382
3	0xc00c1eb4	-2.189374
4	0xbd8cf85c	-0.06883308
5	0xbfd8d5bc	-1.6940227
6	0x3f6c2dd2	0.92257416
7	0xbfc21599	-1.5162841
8	0x3ebfcf8c	0.37463033
9	0x3f8c0a4a	1.094064
10	0xbef61daf	-0.48069522
11	0x3ec0b55a	0.3763836
12	0xbf294715	-0.6612409
13	0x3ec728e8	0.38898396
14	0xbf76cab8	-0.96403074
15	0xbf8d16d4	-1.1022592
16	0xbf52511d	-0.8215502
17	0x3fc3e7f1	1.5305158
18	0x3fa2d3f0	1.2720928
19	0xbf46fa46	-0.77725637
20	0xbd95d6d1	-0.073163636
21	0xbd1393c2	-0.036029585
22	0xbf95b457	-1.169566
23	0xbec80a48	-0.39070344
24	0xbf6567e0	-0.89611626
25	0x3e41d6d4	0.18929607
26	0xbeddc193	-0.43311748
27	0xbeee9041	-0.46594432
28	0xbf42d254	-0.76102185
29	0x3d13158d	0.035909224
30	0xbed72b03	-0.42025003
31	0x3faf230e	1.3682573
32	0xbf497c76	-0.7870554
33	0xbf116542	-0.5679513
34	0x3f080f29	0.5314813
35	0xbf1ef5bb	-0.62093705
36	0x3da5d4dd	0.08097241
37	0x3fa452c9	1.2837764
38	0x3f5c1959	0.8597618
39	0x3ed3ea32	0.41389614
40	0x3f2b6f7a	0.66966975
41	0xbf21eec0	-0.6325493
42	0xbf01434a	-0.504933
43	0xbe8c5aaa	-0.2741292
44	0x3ebdabf0	0.3704524
45	0xbf4d3331	-0.80156237
46	0x3fd11288	1.633378
47	0x3fcd0d72	1.6019728
48	0xbf91d788	-1.13939
49	0x3e29dad3	0.16587381
50	0xc01e103d	-2.469741
51	0xbc332761	-0.010934682
52	0xbefb1782	-0.49041373
53	0x3f065d55	0.52486163
54	0x3f170a4e	0.590001
55	0xbf14f971	-0.5819312

item_humidity_embedding.weight f4 [6, 8]
0	0xbf35c1fd	-0.7099913
1	0x3f05f3df	0.5232524
2	0x3e2f4fdb	0.17120306
3	0xbdd7df3c	-0.105406255
4	0xbf9aa8e4	-1.2082791
5	0xbe9a5af7	-0.30147526
6	0xbfcb1216	-1.5864894
7	0x3e8944f0	0.26810408
8	0xbf7a7990	-0.9784174
9	0xbe8e4ef6	-0.27794617
10	0x3f168d86	0.588097
11	0xbfd58d6f	-1.6683787
12	0x3f6687ed	0.90051156
13	0x3ece32cc	0.4027313
14	0x3e80d3f6	0.25161713
15	0xbe792c9e	-0.24333426
16	0xbf3c6565	-0.73592216
17	0x3e890847	0.26764128
18	0x4005b497	2.0891473
19	0x3f3b6454	0.73199964
20	0x3f4b1081	0.7932206
21	0xbf07709f	-0.5290622
22	0x4002d94c	2.0445127
23	0xbf64c50a	-0.8936316
24	0x3f8d0d4e	1.1019685
25	0x3f8567df	1.0422324
26	0xc007c857	-2.1216028
27	0xbe32c87c	-0.17459291
28	0xbf246975	-0.64223415
29	0xbf24ccae	-0.64374816
30	0x3f32e302	0.69877636
31	0xbee3c588	-0.44486642
32	0xc0111402	-2.2668462
33	0x3f748219	0.95511013
34	0x3debc652	0.11512436
35	0xbf8b4f49	-1.0883571
36	0x3fd76d30	1.6830196
37	0xbfef907b	-1.8715967
38	0xbdd4ed2e	-0.10396801
39	0xbf31d528	-0.69465876
40	0xbdda7d77	-0.10668462
41	0x3f52e99d	0.82387716
42	0xbeb0063c	-0.34379756
43	0xbee8171f	-0.4533014
44	0xbec49236	-0.383928
45	0x3ec5173b	0.38494286
46	0x3f98cd4e	1.1937654
47	0x3f231718	0.63707113

item_windSpeed_embedding.weight f4 [5, 8]
0	0x3fcec548	1.6153955
1	0x3f41e240	0.75735855
2	0xbfa48767	-1.2853822
3	0x3eff508c	0.4986614
4	0x3fcd0965	1.6018492
5	0xbe6b07d7	-0.2295221
6	0xbf7ca32d	-0.98686486
7	0x3f83b77b	1.0290369
8	0x3fa64c0a	1.2991955
9	0x3d68ef59	0.056868885
10	0xbf42813e	-0.7597846
11	0xbfcf4fd9	-1.6196243
12	0x3dff5bcb	0.1246868
13	0x3f017200	0.50564575
14	0xbda85f24	-0.08221272
15	0xbeb30e13	-0.34971675
16	0x3dd2175e	0.10258363
17	0xbf1c8798	-0.611444
18	0x3f8e6503	1.1124576
19	0x3f3b0676	0.73056734
20	0xbec41fd0	-0.3830552
21	0xc007e99e	-2.1236339
22	0xbf09216c	-0.5356662
23	0x3ff35753	1.9011024
24	0xbf98d0da	-1.1938736
25	0xbf48359e	-0.78206813
26	0x3f738a30	0.9513273
27	0xbb262a81	-0.0025354924
28	0x3f81b256	1.0132549
29	0x3fdd7618	1.7301664
30	0xbe838da7	-0.2569401
31	0xbf190cbc	-0.59785056
32	0xbede2875	-0.4339024
33	0x4011fe53	2.2811477
34	0x3d59c9f4	0.053171113
35	0xbf373799	-0.7156921
36	0x3f4db08f	0.8034753
37	0x3fdd3aab	1.7283529
38	0x3f9c14ca	1.2193844
39	0xbf551190	-0.83229923

GCN_Layers.0.W1.weight f4 [64, 64]
0	0xbdcc8348	-0.099859774
1	0xbc065d5f	-0.008200972
2	0xbd8eb888	-0.0696879
3	0xbe05a52f	-0.13051294
4	0x3dbda534	0.092600256
5	0x3d780977	0.0605559
6	0x3cbcc51e	0.023043212
7	0xbd44e936	-0.04807397
8	0x3ba73521	0.005102769
9	0x3e175e9c	0.14782184
10	0x3d5faa79	0.054605935
11	0x3dcbb20f	0.09946071
12	0x3d0482b4	0.03235121
13	0x3d4e5cc5	0.05038144
14	0xbdde85b0	-0.108653426
15	0xbcd91b14	-0.02650217
16	0xbdc9552f	-0.098307006
17	0xbca8b7df	-0.02059549
18	0xbd3f13d6	-0.046649776
19	0x3d1e8980	0.03870535
20	0xbd669145	-0.056290884
21	0x3c89e1fc	0.01683139
22	0xbdb7a2e9	-0.089666195
23	0x3db1b808	0.08677679
24	0x3da50d61	0.080591924
25	0xbd023426	-0.031788014
26	0xbd140794	-0.03614004
27	0xbd8fed79	-0.07027716
28	0xbdf1a999	-0.11799926
29	0xbdaf2110	-0.08551228
30	0xbdf2c337	-0.118536405
31	0xbd6619cc	-0.056176946
32	0xbd9c7179	-0.07638831
33	0xbdfc488b	-0.12318524
34	0xbd5fc485	-0.054630775
35	0x3d57d441	0.052692655
36	0xbd972d46	-0.07381682
37	0xbc355d94	-0.011069674
38	0xbdb337a8	-0.0875085
39	0x3de5a43e	0.11212967
40	0xbd45b00f	-0.048263606
41	0x3d951eff	0.07281303
42	0xbdb6f71c	-0.08933851
43	0xbc4e5c92	-0.012595313
44	0x3de9a3fe	0.11408232
45	0x3de740da	0.11291666
46	0xbcdd35c7	-0.027003182
47	0xbc2eb1e8	-0.010662533
48	0xbdd83b68	-0.10558206
49	0xbd8416e5	-0.06449679
50	0x3daaccaf	0.083398215
51	0x3ccbfd13	0.024900949
52	0xbe03e9e4	-0.12882191
53	0x3c143f06	0.009048229
54	0xbcf81174	-0.03028176
55	0x3db04122	0.08606173
56	0x3dedd0e7	0.116121106
57	0x3baf20fc	0.005344508
58	0xbd56e316	-0.05246266
59	0x3c98533f	0.018594382
60	0xbd8cd271	-0.06876076
61	0xbd87a486	-0.06623177
62	0x3cfb54fe	0.030680176
63	0x3cab12b2	0.020882938
64	0x3d44da1c	0.048059568
65	0xbdc2ad7b	-0.09505745
66	0x3d7e42e6	0.062075518
67	0xbe049255	-0.12946446
68	0xbd693d3a	-0.056943156
69	0x3c95d0cc	0.018288039
70	0x3dcd7bd4	0.10033384
71	0x3bdce2c7	0.006740901
72	0x3daab7c8	0.08335835
73	0x3d8fb48f	0.07016861
74	0x3d3bd5ae	0.045858078
75	0xbcf6d340	-0.030130029
76	0xbdda74f9	-0.10666842
77	0xbc3b1dc8	-0.011420675
78	0xbcaaf412	-0.020868335
79	0xbd5fded8	-0.05465588
80	0xbd93b5a9	-0.07212383
81	0xbd3341de	-0.043763988
82	0x3ccead82	0.02522922
83	0xbddc4e81	-0.10757161
84	0xbd14b6f7	-0.0363073
85	0x3d43a367	0.047763254
86	0x3d8ce562	0.06879689
87	0xbd9c1cef	-0.07622706
88	0x3d4444df	0.047917243
89	0x3d992fe7	0.0747984
90	0xbddd91ea	-0.108188465
91	0x3d1794f7	0.0370073
92	0x3df6950c	0.12040147
93	0x3d8108b4	0.06300488
94	0xbccdaa66	-0.025105666
95	0xbe04e1ad	-0.12976713
96	0x3d6cd615	0.057821352
97	0x3dbd9729	0.09257347
98	0x3d196e0c	0.037458465
99	0xbc2bccb2	-0.010485815
100	0xbd1fa63b	-0.03897689
101	0xbd2facef	-0.04288953
102	0xbdd9f816	-0.10643022
103	0xbca1f3c6	-0.01976956
104	0x3d2d0fec	0.042251512
105	0x3d9910e0	0.07473922
106	0x3d5637ec	0.052299425
107	0xbd88d197	-0.06680601
108	0xbc300ad7	-0.010744772
109	0x3e00d847	0.12582503
110	0xbc41a24a	-0.011818478
111	0x3ced6ca4	0.028982468
112	0xbce95613	-0.028483426
113	0x3d7da36d	0.061923433
114	0xbda401d9	-0.08008165
115	0xbde10973	-0.109881304
116	0xbc9598e2	-0.018261377
117	0xbda60bbc	-0.08107707
118	0xbd5fcff4	-0.05464168
119	0x3da589ea	0.08082946
120	0x3dbb8099	0.091553874
121	0xbd11b52a	-0.035573162
122	0x3d5f861f	0.054571267
123	0xbc4c7508	-0.012479074
124	0x3dc1f326	0.09470205
125	0xbddc1318	-0.10745829
126	0x3daf5e4d	0.08562908
127	0xbd43c263	-0.047792803
128	0x3caa5df7	0.020796759
129	0x3e076fac	0.13226193
130	0xbc7af0bb	-0.015316184
131	0xbc9b0bf2	-0.018926594
132	0xbddc0f7f	-0.10745143
133	0xbccfdafa	-0.02537297
134	0xbdfc0b51	-0.12306846
135	0xbdfaff9a	-0.122557834
136	0x3dbb9a95	0.091603436
137	0xbd3f78e5	-0.046746153
138	0x3cdd312a	0.027000982
139	0x3d07d11d	0.03315841
140	0x3de21064	0.110382825
141	0x3db84645	0.08997778
142	0xbccc4d80	-0.024939299
143	0xbc841f46	-0.016128194
144	0x3c427bb5	0.011870314
145	0xbdcba9d9	-0.09944505
146	0xbc7fb7ca	-0.015607784
147	0xbbb741f3	-0.0055925786
148	0xbd22a6df	-0.039709922
149	0x3ca2785e	0.019832786
150	0xbb481d4a	-0.0030535036
151	0xbd5290cd	-0.051407624
152	0x3ceb9bf2	0.028760884
153	0x3d6dc559	0.058049534
154	0x3d0c6bd3	0.034282517
155	0xbe13286f	-0.14370893
156	0x3dc0445b	0.09388038
157	0x3d7f38e9	0.062310133
158	0xbd164942	-0.036690958
159	0x3ddd689b	0.108109675
160	0x3dd88830	0.10572851
161	0x3c83ce3f	0.016089557
162	0xbdc6ab87	-0.09700685
163	0x3d424386	0.047427677
164	0xbd4e6c97	-0.050396528
165	0xbd553f3f	-0.05206227
166	0xbd12b6bd	-0.035818804
167	0xbe01dcb3	-0.12681846
168	0xbcd95b49	-0.026532786
169	0x3ca70f5d	0.020393068
170	0x3cc66993	0.024220264
171	0x3de9c9d4	0.11415449
172	0xbbbca9de	-0.0057575544
173	0xbe008031	-0.12548901
174	0x3df12979	0.117754884
175	0xbd61de8a	-0.05514387
176	0xba86b127	-0.0010276184
177	0x3daea3e5	0.08527354
178	0xbd964d91	-0.07339013
179	0xbd0bd397	-0.034137335
180	0xbca45b27	-0.020062996
181	0xbd9374a7	-0.07199984
182	0x3daf1132	0.085482016
183	0x3d85d25d	0.06534264
184	0xbd7643b7	-0.06012317
185	0x3bde5b35	0.006785775
186	0xbc98f3ea	-0.018670995
187	0x3d361fc8	0.044463903
188	0x3db851eb	0.089999996
189	0xbdae9ec9	-0.085263796
190	0x3df6502d	0.12027011
191	0x3d9cb45d	0.07651589
192	0x3cfbe44f	0.030748514
193	0xbc6a9ce4	-0.014319632
194	0x3bb8ce16	0.0056398017
195	0xbc9dfa1a	-0.019284297
196	0x3d877112	0.06613363
197	0xbdda4b25	-0.10658864
198	0x3c89a793	0.016803538
199	0xbd56094f	-0.05225497
200	0xbd735662	-0.059408553
201	0xbd1fdf86	-0.039031528
202	0xbde95e74	-0.11394969
203	0xbc957563	-0.01824445
204	0x3df6af6f	0.1204518
205	0xbdd43d3f	-0.10363244
206	0xbd8d261c	-0.068920344
207	0x3d925204	0.071445495
208	0xbd6f5599	-0.05843124
209	0x3d0b2e50	0.033979714
210	0x3da98140	0.082766056
211	0x3d370280	0.04468012
212	0xbd826dd1	-0.06368602
213	0x3d5b1567	0.053487208
214	0x3ddcc269	0.10779268
215	0xbd23928a	-0.039934672
216	0xbbf0555d	-0.007334395
217	0x3ddf89f3	0.109149836
218	0x3d834079	0.064087816
219	0x3dc490cc	0.0959793
220	0xbc89b483	-0.016809708
221	0xbd464dd8	-0.04841408
222	0xbdf20a51	-0.11818374
223	0x3d4f3d69	0.050595675
224	0x3db0a642	0.08625461
225	0x3d891940	0.06694269
226	0xbcb7a268	-0.022416309
227	0xbd4e00b2	-0.05029363
228	0x3bbc1a18	0.0057404153
229	0x3dd2f7ba	0.10301156
230	0x3dfa65f6	0.12226479
231	0xbd576861	-0.052589778
232	0x3d037ee8	0.03210345
233	0xbd89e1ad	-0.06732497
234	0xbcf3d866	-0.029766273
235	0xbdcdd6fa	-0.10050769
236	0xbdb8e771	-0.09028519
237	0x3d8105d9	0.062999435
238	0xba3b45a8	-0.00071438635
239	0xbdffed37	-0.12496417
240	0xbd0bff21	-0.034178857
241	0xbc45216b	-0.012031893
242	0x3d057b8d	0.03258853
243	0xbdc2f7ae	-0.095198974
244	0xbdfcf6e3	-0.123517774
245	0xbbf98f9b	-0.007615996
246	0x3d76cc46	0.060253404
247	0x3cb32379	0.0218675
248	0xbdea0e7c	-0.11428544
249	0xbc1ce244	-0.00957543
250	0xbd77cfbe	-0.060500853
251	0xbdb2a002	-0.08721925
252	0x3dcfb306	0.10141568
253	0x3ce2187b	0.027599564
254	0x3db2277f	0.086989395
255	0xbc762af5	-0.01502489

GCN_Layers.0.W1.bias f4 [64]
0	0x3d210dce	0.039319806
1	0x3ad833fe	0.0016494987
2	0x3ca8fe15	0.020628968
3	0xbc989c8e	-0.018629339
4	0x3ccb6bb9	0.02483164
5	0xbd3f5c2e	-0.04671877
6	0x3c5ea84f	0.013589933
7	0x3df719f4	0.12065497
8	0x3dd72fe7	0.105071835
9	0xbde18764	-0.11012152
10	0xbdfe414e	-0.124148
11	0x3d0efe86	0.0349107
12	0xbdc1c523	-0.09461429
13	0x3d9d79f6	0.07689278
14	0x3e010a79	0.12601651
15	0xbccf42a6	-0.025300335
16	0x3cc5eda3	0.024161166
17	0x3dce8e99	0.10085792
18	0x3dfce3e9	0.12348158
19	0x3d9257b9	0.07145638
20	0xbd2e8431	-0.042606536
21	0xbd95734c	-0.07297382
22	0xbc8d7f2a	-0.01727255
23	0xbcc98269	-0.024598317
24	0xbd2bb164	-0.04191722
25	0x3da96267	0.08270722
26	0xbc466eb5	-0.012111356
27	0xbdd6f91b	-0.10496732
28	0x3d1ac0fe	0.037781708
29	0x3d981741	0.0742631
30	0xbd2f354c	-0.042775437
31	0x3de429ee	0.1114081
32	0x3ccae159	0.024765657
33	0xbc9db5e6	-0.019251775
34	0x3c0e115e	0.008671133
35	0xbda24be0	-0.07924628
36	0xbd394e4a	-0.045240678
37	0xbd47c137	-0.04876825
38	0xbe048745	-0.12942226
39	0x3d57955c	0.052632675
40	0xbbcee11c	-0.006313456
41	0x3d86c3a7	0.065802865
42	0xbdd83dd4	-0.10558668
43	0xbc33cfb2	-0.010974811
44	0x3d5284af	0.05139607
45	0xbdd74282	-0.10510732
46	0xbd17526d	-0.03694384
47	0xbd3f9857	-0.046776142
48	0x3df7025a	0.120609954
49	0x3dcb16e4	0.099164754
50	0xbd80b4eb	-0.06284507
51	0x3d22ab9d	0.039714444
52	0x3ccda89b	0.025104811
53	0x3d59853b	0.053105574
54	0x3c84f3f3	0.016229605
55	0x3d4287fa	0.04749296
56	0xbdbf816a	-0.09350856
57	0xbd8f7e45	-0.07006506
58	0xbdae4be9	-0.085105725
59	0xbde99e20	-0.11407113
60	0x3d7f7c53	0.062374424
61	0xbcbf5980	-0.023358107
62	0x3c942150	0.01808229
63	0xbd7dc3fe	-0.06195449

GCN_Layers.0.W2.weight f4 [64, 64]
0	0xbd7a0a12	-0.06104476
1	0x3db5c947	0.08876281
2	0x3db25537	0.0870766
3	0xbd05e083	-0.032684814
4	0x3dc798b7	0.09745925
5	0xbd0b85f6	-0.034063302
6	0x3d0fdee3	0.03512467
7	0xbd9adcfc	-0.07561681
8	0x3d487fe9	0.04895011
9	0xbd998a20	-0.074970484
10	0x3d11d21e	0.035600774
11	0xbd14cf48	-0.03633049
12	0x3c547633	0.012967634
13	0x3d6900e8	0.05688563
14	0xbd887e80	-0.06664753
15	0xbcb88ab7	-0.022527082
16	0xbd3749ad	-0.044747997
17	0xbd9ee3ed	-0.07758317
18	0xbdad8bb2	-0.084739104
19	0x3dcf65e9	0.1012686
20	0x3dc073e4	0.093971044
21	0x3d964791	0.07337869
22	0x3d1f31ff	0.03886604
23	0xbe0cd0b2	-0.13751486
24	0xbdc95d50	-0.09832251
25	0x3c3e0649	0.011598178
26	0xbdfaef55	-0.1225268
27	0x3d42a00d	0.047515918
28	0x3d9ebd9c	0.07751009
29	0xbd05127c	-0.03248833
30	0x3da72fdc	0.08163425
31	0xbd477a64	-0.048700705
32	0x3df74a3a	0.120747045
33	0xbd7840ac	-0.06060855
34	0x3de575ea	0.11204131
35	0x3c8bc3d1	0.017061146
36	0x3c771d02	0.0150826
37	0x3de48032	0.11157264
38	0x3cad51c5	0.021157155
39	0x3d95b423	0.07309749
40	0xbc72ea57	-0.014826379
41	0x3a90ea21	0.0011056104
42	0xbdaceef6	-0.08444016
43	0xbc1a47bc	-0.009416517
44	0xbd7927bc	-0.06082891
45	0xbb97ea81	-0.0046361093
46	0xbcdae17b	-0.026718846
47	0x3d0cac7a	0.034344174
48	0xbc481817	-0.012212775
49	0xbdd40237	-0.10351985
50	0x3e094b3a	0.13407603
51	0xbcc49154	-0.02399508
52	0xbd9f385b	-0.07774421
53	0xbc97185b	-0.01844423
54	0x3d88691a	0.066606715
55	0x3ddccbeb	0.10781082
56	0x3d6a6174	0.057221845
57	0xbde6d250	-0.11270583
58	0x3b532847	0.0032220052
59	0xbd6d8383	-0.057986747
60	0x3e2168ec	0.15762681
61	0x3cd81f34	0.026382066
62	0x3df598d5	0.11992041
63	0x3d9c6120	0.076357126
64	0xbd27f093	-0.041000914
65	0x3d7b959e	0.061421983
66	0x3e08355c	0.13301605
67	0xbc3c7236	-0.011501839
68	0x3c2484e5	0.01004145
69	0xbc1a7c87	-0.009429104
70	0xbd840dbc	-0.06447932
71	0xbd839f34	-0.0642685
72	0xbde49f6b	-0.11163219
73	0xbd94d555	-0.07267252
74	0xba8dd6f3	-0.0010821506
75	0x3d3d370c	0.046195075
76	0x3d535071	0.051590387
77	0x3d15ad84	0.03654243
78	0x3c6c5f40	0.014427006
79	0x3da19ee2	0.078916326
80	0xbda761f6	-0.081729814
81	0x3c8bb298	0.017052934
82	0xbd47e83d	-0.048805464
83	0x3d724101	0.059144024
84	0x3d87ea97	0.06636541
85	0xbd7a49a9	-0.061105404
86	0x3c4fb02e	0.012676282
87	0xbda46ab9	-0.08028168
88	0x3d162a86	0.036661647
89	0xbde5efc9	-0.11227376
90	0xbc8dd505	-0.01731349
91	0xbd89e557	-0.06733196
92	0x3dcd178e	0.10014258
93	0xbd03faca	-0.032221593
94	0xbc91d4dd	-0.017801696
95	0x3d9b57b8	0.075850904
96	0x3d0fdc0e	0.03512197
97	0xbdf10e1a	-0.11770268
98	0xbe066410	-0.13124108
99	0x3ceb86fb	0.028750887
100	0xbbab4efa	-0.0052279206
101	0x3d045192	0.032304354
102	0xbcbba979	-0.02290796
103	0x3d834ebc	0.06411502
104	0x3d4b7149	0.049668584
105	0x3da814c8	0.08207089
106	0x3da17c2c	0.07885012
107	0x3d687edf	0.05676162
108	0x3dc30024	0.09521511
109	0xbdeadf5b	-0.11468383
110	0x3c60e801	0.013727189
111	0x3d826c74	0.06368342
112	0xbcda1d13	-0.026625192
113	0xbd13025a	-0.035890914
114	0xbd8839ab	-0.06651624
115	0xbd36ca81	-0.044626717
116	0x3d36c8e7	0.04462519
117	0x3d954801	0.07289124
118	0x3d7c47ba	0.06159184
119	0xbc3a58f6	-0.011373749
120	0xbcc051e4	-0.023476548
121	0x3e01f779	0.1269206
122	0xbd471a5d	-0.048609126
123	0x3c39a0a4	0.011329804
124	0x3c1cfd63	0.0095818965
125	0xbdbc64f1	-0.091989405
126	0xbcc3dff0	-0.023910493
127	0x3cf34d97	0.029700084
128	0x3da78738	0.08180088
129	0x3dfe1fd2	0.12408413
130	0x3d1a87a5	0.037727017
131	0xbdfde429	-0.12397034
132	0x3c412259	0.011787974
133	0xbc3b939b	-0.011448766
134	0xbd916aaf	-0.071004264
135	0x3c2edd9a	0.010672951
136	0x3da0a955	0.078447975
137	0xbce4ca03	-0.027928358
138	0xbdc253fb	-0.09488674
139	0xbd72f1f3	-0.059312772
140	0xbc9949fd	-0.018712038
141	0xbbdea5d0	-0.0067946687
142	0x3d6a231c	0.05716239
143	0xbccfe229	-0.025376396
144	0x3d6b9bb9	0.057521556
145	0xbd24c020	-0.040222287
146	0x3cbdd9a7	0.023175074
147	0x3db03852	0.08604492
148	0x3d34b13b	0.044114333
149	0xbda5fa31	-0.08104361
150	0xbd4621d1	-0.048372094
151	0x3d8368eb	0.06416496
152	0xbc2e8514	-0.0106518455
153	0xbda5fda9	-0.081050225
154	0x3d9fb9e8	0.07799131
155	0x3d305f53	0.04305966
156	0x3d2685e2	0.040655024
157	0xbd53c26b	-0.051699083
158	0xbd21e7c5	-0.039527673
159	0xbd810117	-0.06299036
160	0x3dad4445	0.08460287
161	0xbd57c3d9	-0.05267701
162	0xbcfbc605	-0.030734072
163	0xbd83afaa	-0.0642999
164	0xbbeb9f95	-0.0071906545
165	0x3d858a95	0.06520573
166	0x3cd72403	0.026262289
167	0xbda9f2bf	-0.08298253
168	0x3bc9f71a	0.00616349
169	0x3c82da8b	0.01597335
170	0xbd59e6ee	-0.053198747
171	0x3c99ffb6	0.01879869
172	0xbdd1e154	-0.10248056
173	0xbd2389fe	-0.03992652
174	0x3cef2637	0.029193027
175	0x3be81d99	0.0070836064
176	0xbd5e0eb3	-0.054213237
177	0xbd2a3f04	-0.041564003
178	0x3d5972e6	0.05308809
179	0x3d1d9937	0.038476195
180	0x3d5634dd	0.052296508
181	0xbc7bebb4	-0.01537602
182	0x3d9b8a64	0.07594755
183	0x3b3695b3	0.0027860224
184	0x3d1e9d91	0.038724486
185	0xbce81012	-0.028327975
186	0x3de04dd6	0.10952346
187	0x3c8363ed	0.01603886
188	0xbda28a31	-0.07936514
189	0x3d865857	0.06559818
190	0x3d9181fc	0.07104871
191	0xbd56bb31	-0.052424613
192	0xbc56926c	-0.013096433
193	0xbbc447b1	-0.0059899916
194	0x3d9cfc99	0.07665367
195	0x3d2feb97	0.042949285
196	0xbdb27959	-0.087145515
197	0x3e058f61	0.13042976
198	0x3d8c4639	0.068493314
199	0xbca74987	-0.020420803
200	0xbd1dd7f4	-0.038536027
201	0xbdb64143	-0.088991664
202	0xbde50231	-0.111820586
203	0x3d82918d	0.06375418
204	0xbd6e6828	-0.0582048
205	0x3d39d71c	0.04537116
206	0x3d9102db	0.07080623
207	0x3de5357f	0.11191844
208	0xbb9145fc	-0.0044333916
209	0xbd91a9e9	-0.07112486
210	0xbd178502	-0.03699208
211	0xbdc4d140	-0.09610224
212	0x3dbf394c	0.093371004
213	0x3d3b432b	0.045718353
214	0x3b014fa9	0.001973132
215	0xbe06ed90	-0.1317656
216	0x3d865417	0.065590076
217	0xbd566a7b	-0.05234764
218	0x3cbea613	0.02327255
219	0xbd5280a3	-0.05139221
220	0xbdf99b28	-0.12187797
221	0x3c7bac4a	0.015360901
222	0x3c7fc9ad	0.015612048
223	0xbe15ddb5	-0.14635356
224	0xbd40d297	-0.047075834
225	0xbdb538d1	-0.088487275
226	0x3ca47bb1	0.020078512
227	0xbbddb3e3	-0.006765829
228	0xbca991f7	-0.020699484
229	0xbd5ca04b	-0.053863805
230	0x3c667b97	0.014067552
231	0xbce020aa	-0.027359325
232	0xbda82af8	-0.08211321
233	0x3d2d4dc6	0.0423105
234	0x3cdd3ad2	0.027005587
235	0x3d60ac68	0.05485192
236	0xbd392680	-0.045202732
237	0xbce3bed2	-0.027800951
238	0x3dd01d74	0.10161868
239	0xbdc06b7e	-0.093955025
240	0xbc63855c	-0.013886776
241	0x3cfc71bb	0.03081595
242	0xbdebae92	-0.11507906
243	0xbddfb399	-0.109229274
244	0x3d7be5ef	0.06149858
245	0xbcd4ce61	-0.025977315
246	0xbd7574a1	-0.05992568
247	0x3cdca201	0.026932718
248	0xbd8ba21f	-0.068180315
249	0xbd3989f9	-0.045297597
250	0xbd92c9ca	-0.071673945
251	0x3d419b65	0.047267336
252	0x3b98017d	0.0046388493
253	0x3dd4c4ba	0.10389085
254	0xbdfcea15	-0.12349335
255	0xbdf48a0d	-0.119403936

GCN_Layers.0.W2.bias f4 [64]
0	0xbd8d9865	-0.069138326
1	0xbd1104e9	-0.035405073
2	0xbdc253e6	-0.094886586
3	0x3dbb9b2a	0.091604546
4	0xbcdb33d1	-0.026758106
5	0x3cadca61	0.021214666
6	0xbde69edf	-0.11260771
7	0xbc943b5f	-0.018094717
8	0xbc833313	-0.016015565
9	0xbbc89d9f	-0.0061223055
10	0xbdf3304b	-0.118744455
11	0xbdc5a280	-0.09650135
12	0x3dbd73ef	0.09250628
13	0x3ce9f427	0.028558804
14	0xbb9b5f30	-0.004741572
15	0x3c7adaed	0.015310985
16	0xbd0b2421	-0.033970002
17	0xbdaeab13	-0.085287236
18	0xbd371211	-0.044694964
19	0xbc276354	-0.010216553
20	0x3df5fad9	0.12010736
21	0xbde98c5f	-0.11403727
22	0x3de16a66	0.11006622
23	0x3db67a65	0.08910064
24	0x3df35480	0.118813515
25	0xbd44864e	-0.047979645
26	0x3daf3b13	0.085561894
27	0xbdc6a89e	-0.0970013
28	0xbc371d3b	-0.011176403
29	0x3d1acad7	0.0377911
30	0x3c906f46	0.017631184
31	0x3d13a1dc	0.036043033
32	0xbdbebd83	-0.0931349
33	0x3b03c068	0.0020103697
34	0xbce85f74	-0.028365828
35	0x3d232eb8	0.039839476
36	0xbda287f8	-0.0793609
37	0x3d72515a	0.059159614
38	0x3de23fac	0.11047301
39	0x3c8a5f9f	0.016891299
40	0xbdc1bab2	-0.094594374
41	0x3c4450d1	0.011982159
42	0xbd8c0330	-0.068365455
43	0x3dc8b267	0.097996525
44	0x3d60faa7	0.05492654
45	0x3c43b111	0.011944071
46	0xbbc7132a	-0.0060752826
47	0xbc689570	-0.014195785
48	0xbd94a2d5	-0.0725762
49	0xbda33fea	-0.07971175
50	0x3ddcb989	0.107775755
51	0xbbf7c6e6	-0.0075615523
52	0x3c2e6e3d	0.0106464
53	0xbd722b32	-0.059123226
54	0x3d8cbb82	0.06871702
55	0x3d852ecf	0.06503069
56	0xbd910185	-0.07080368
57	0x3e082d76	0.13298592
58	0x3d9c8b7c	0.07643792
59	0xbd8120f4	-0.063051134
60	0xbe05fa0e	-0.1308367
61	0x3dbd581a	0.0924532
62	0xbb48bd1e	-0.00306303
63	0xbd7a1aa7	-0.061060574
