lab4-student/code/model/bestModelParms-11-12-18-52.pth (torch, 498345 bytes, 20 tensors)

user_id_embedding.weight f4 [900, 32]
00000000: e48b 9f3e 52d7 253a 594c 2dbd 0253 d4bc
00000010: 498d 313c 1215 f03b de78 23be e5ce de3b
00000020: cd9b eb3a 7c62 2a3d 7ac9 2b3c baaa 4dbc
00000030: 7243 65bc 8e15 923c e7e4 9dbd 4749 5dbd
00000040: 3dbb d0be b6c0 e5bc d56f ce3c e00d 34bd
00000050: e8c2 ea3c 8cc8 6b3d 4575 a3bc 1832 27be
00000060: 487f acbc 9f73 d4bc 956f 21bd baa4 d93c
00000070: ec5f 89bc 8117 39bc 6293 a43c c201 2abc
00000080: da42 733c a585 7e3d c1e9 acbb 5895 cb3b
00000090: 3a26 ddbb 853f 8abd 3abc 03bb 7f4e b4bb
000000a0: 36db 743c bc27 ac3c 48d7 a13c b9d9 0bbc
000000b0: cbfd c5bc eb1e 94bc c79f 50bc 66d0 41bc
000000c0: 4f06 8abc 36f1 98bc 7957 3f3b 1add 3bbc
000000d0: 311f b9bc b4ec ca3c a295 313b dac5 bd3e
000000e0: a565 2bbf 05eb 313e 6ed5 9bbd 4b95 7c3c
000000f0: a536 88bc 8b66 c53e fedd 743a ba65 0a3b
00000100: d0be 6d3c 9b95 06bd 38b5 9abc 1fac 283d
00000110: 8e22 f2bb 42dc 683d 531e babc 4fb8 0b3d
00000120: 028c 2b3e 659e 14bb 5560 f0bb f903 81bc
00000130: 13ea 8bbe 9255 9f3b 373e 52bd 4e0d 3cbc
00000140: e089 3ebb 8905 6ebc aab2 51be 6816 443d
00000150: 671f 183c 69ef 823b e892 52bd feb2 f9bc
00000160: 1a66 94bc 458d a73d b49b e23c 14a5 12bd
00000170: ecbf 14bd 13e1 84bb 42e0 363d 2cb9 86bd
00000180: a3bc 1c3e a417 883d ea75 f73c 95dc 873c
00000190: be7b 163e 6a4e f0bc 6bed 753c 2a33 dabc
000001a0: 83d7 0cbe 7122 32bd 89dc 933c 4679 a73c
000001b0: d5a8 233d 2893 f5bb d524 ac3c c7e7 debc
000001c0: 5951 27bc 1857 253d 6df9 d2bb d894 c23b
000001d0: f638 99bc c8f2 a6bc 2c2e 31bc be01 1bba
000001e0: 42e4 a33b e754 813a 0ccb 5bbc 023e 423e
000001f0: b799 1b3d 0bda 25bd 40ac b8bc aa0b 2d3d
00000200: bc49 683d 6d47 543c c7e6 a4bc 61ab 5dbd
00000210: bd72 603c a7de 7d3e b23a 0f3e 55af 503d
00000220: 802f 9d3d 4a9d 29bd 0f93 40bb ccf1 b0bd
00000230: 610a 21bd 5568 3b3b 1716 a03b 36e8 9cbc
00000240: 3016 33bc 13cd 4dbd dc8a 8e3d e89b 3cbd
00000250: be7e 403d 79aa a63d 3c96 45bc 703a 153d
00000260: 6b52 9abc 796f 88b9 cccd 3fbd 055a a43d
00000270: b332 28bd 49f1 ef3c 3a74 063e a968 95bc
00000280: 13b9 373d 1e50 963d b1ca aebe da77 1abe
00000290: 15d5 1ebd 02c2 0b3d cc85 c13e ddf0 193d
000002a0: 10b6 a03c 0f6e e5bc cb4f 80bd f7f6 09bd
000002b0: 2104 bcbe 4917 de3e 42cf 8ebd 3c27 f1bc
000002c0: ef02 13bd dd2a edbc 10c7 853e 7517 823b
000002d0: 76b3 8b3c 422d 713d c184 61bd b6e3 343d
000002e0: 8160 1ebe a5ae e5bc f2a7 aebe d126 bebc
000002f0: 2267 87bd 81f5 a5bc 6582 643d 90a6 9abc
00000300: fd0e bdbb 61a2 e6bd 3b57 313a f815 383c
00000310: b531 263d f02f 8fbe 1501 70be 53e4 fbbb
00000320: 4e46 b13c eb6a 1ebc fb09 ee3d dc55 d23c
00000330: a87a ea37 7df0 ff3c c225 1abf 77e8 6f3c
00000340: 5002 9a3c 4b80 a1bf 12bc 87bc 607d 3cbd
00000350: 60e6 b1bb b34c 3abd 8fca 22bc 30f3 80b6
00000360: cf32 ffbc 4b80 453c 25d4 d1bc d717 81bd
00000370: ae3d 8abe 27e5 c43c d81f 4f3f e374 11bd
00000380: edf3 c13b 7d52 9e3c 36e7 b7bc 2cb1 1e3c
00000390: 075a 303f 1403 1bbd cb1c c9ba cea3 3bbb
000003a0: f341 933c 3363 be3c 1d84 c3be 8927 b7bc
000003b0: fae8 693b 7ffb fd3a 7d37 1abc 2861 ef3d
000003c0: b782 1c3c 7aff 3bbc 8612 c6bd 18d3 cd3c
000003d0: dcd1 b13d 324d d6bc f6de 1f3d 760e 213c
000003e0: 1bf7 2b3c bcbf 883b aab1 e13b ab75 043b
000003f0: 5009 843b cd2b 773c e5d1 1b3c 8069 93be
0.31161416 0.0006326336 -0.04230914 -0.025918487 0.010836908 0.0073267305 -0.15964076 0.006799566
0.0017975509 0.04159783 0.0104850475 -0.012552911 -0.013993131 0.017832544 -0.07709675 -0.05402496
-0.4076785 -0.028045993 0.02519981 -0.043958545 0.028657392 0.057564303 -0.01995338 -0.16327703
-0.021056786 -0.025934039 -0.039413054 0.026567806 -0.016769372 -0.011297108 0.020089809 -0.010376396
0.014847482 0.062139172 -0.005276889 0.0062128715 -0.0067489417 -0.06750397 -0.0020101205 -0.0055025215
0.014944842 0.02101504 0.019755974 -0.008535796 -0.02416887 -0.01808115 -0.012733406 -0.011829471
-0.016848711 -0.018669706 0.0029196425 -0.011466289 -0.022597881 0.024771072 0.0027097245 0.3706501
-0.6695197 0.17374809 -0.07609068 0.015416454 -0.016627619 0.38554797 0.0009340941 0.0021117763
0.014510825 -0.03285752 -0.01888524 0.041179772 -0.007389373 0.05685068 -0.022719538 0.034111317
0.16752627 -0.0022677418 -0.0073357024 -0.015748965 -0.27327022 0.0048624957 -0.051328864 -0.011477781
-0.002907388 -0.014527687 -0.20478311 0.04787293 0.009284831 0.003995825 -0.051409632 -0.030480858
-0.018115092 0.08181242 0.027662136 -0.035801962 -0.036315843 -0.0040551513 0.044647463 -0.065782875
0.15306334 0.06645134 0.030207593 0.016584674 0.14695641 -0.029334266 0.015010218 -0.026635725
-0.13754086 -0.043489877 0.018049495 0.02044357 0.039955933 -0.007494349 0.021013657 -0.02721013
-0.010212266 0.040366262 -0.0064384253 0.0059381537 -0.018703919 -0.020379439 -0.010814231 -0.00059130404
0.0050015757 0.0009867222 -0.013415109 0.18968967 0.03798839 -0.040491145 -0.022543073 0.04224745
0.056710944 0.012956482 -0.020129574 -0.054118518 0.013699231 0.24791966 0.13987234 0.05094846
0.076750755 -0.04140977 -0.0029384529 -0.08639869 -0.03931654 0.0028596122 0.004885446 -0.019153696
-0.010930583 -0.050244402 0.06960079 -0.04604712 0.04699587 0.08137984 -0.012059744 0.036432683
-0.018838128 -0.00026022995 -0.046827123 0.08024982 -0.041063976 0.029289858 0.13130274 -0.018238382
0.044854235 0.073395 -0.34139016 -0.15084782 -0.03877743 0.034120567 0.3779739 0.03758322
0.019618064 -0.028006582 -0.06265219 -0.03368279 -0.367219 0.4337714 -0.06973125 -0.029437654
-0.03589147 -0.028951103 0.26128435 0.0039700815 0.017053347 0.05888105 -0.055058245 0.044162475
-0.15466501 -0.028037379 -0.34112507 -0.023211868 -0.06611468 -0.020258667 0.055788416 -0.018878251
-0.005769609 -0.1126144 0.00067650125 0.0112357065 0.040574748 -0.2796626 -0.23437913 -0.0076871305
0.02163997 -0.009669046 0.116229974 0.025675707 2.795209e-05 0.031242603 -0.60213864 0.014642826
0.01879993 -1.2617277 -0.016569171 -0.046018004 -0.005429074 -0.045483302 -0.009935989 -3.843008e-06
-0.031152157 0.012054513 -0.025613854 -0.06303375 -0.27000183 0.02403505 0.80907965 -0.035511862
0.005918971 0.019326443 -0.022449117 0.009685796 0.6888737 -0.037844732 -0.0015343664 -0.002863157
0.017975783 0.023240661 -0.38186732 -0.022357719 0.0035691843 0.001937732 -0.0094126435 0.11688453
0.009552649 -0.011474485 -0.09671502 0.025125071 0.086826056 -0.026159856 0.03903099 0.009830108
0.010495926 0.004173247 0.0068876343 0.0020211737 0.0040294304 0.0150861265 0.009510492 -0.28791428

user_age_embedding.weight f4 [5, 4]
00000000: a2a8 ff3e 017f 2b3e 4d65 a1bf 3aa7 233f
00000010: 5179 0f3f c7e3 c4bf c385 07bf 8e0b fc3e
00000020: a537 b53e 738f cdbe db44 f23d b1b6 1abf
00000030: 4614 953f c5f2 d33e 64ab 563f de1b c43e
00000040: 3a5b 91bd 7bec 9d3e 6e3a 713f 164c 90bf
0.49933344 0.16747667 -1.260904 0.6392704 0.5604449 -1.5382012 -0.5293848 0.49227566
0.35394016 -0.40148506 0.118295394 -0.60435015 1.1646812 0.41396156 0.8385527 0.3830251
-0.07097478 0.30844483 0.9422978 -1.127322

user_gender_embedding.weight f4 [2, 2]
00000000: e605 153e d16a 933e b2f4 96bf 3b50 b63e
0.14553031 0.28792432 -1.1793425 0.35608086

user_occupation_embedding.weight f4 [21, 8]
00000000: bb08 d9bb 600b 773e 718e 58be 26a6 d03d
00000010: 30fe 4b3e f092 b13d 1bf5 2d3f bdea da3e
00000020: 063d 0dbd 5757 38bf 2866 013f 1e17 1cbe
00000030: b9af 2fbf cf4f 903e 3177 44be 5d4d b3be
00000040: 3b59 e53e bc85 87be 0ab2 263f ed6c 023e
00000050: e29c ca3e 2a66 aebe 387b 19be c8b0 aa3e
00000060: a06c 883f 6bb9 d6bc 91cf 3cbf f16e 413f
00000070: 17cb 9c3c 667c 7dbd e3e5 1fbe e999 babe
00000080: a8d9 fe3d da90 e7be 5f28 eabe ead5 ea3d
00000090: 5b2a 5b3e a965 dfbe 22fd 743e 77c1 17bf
000000a0: 611e 86bf 061a a9be 03c7 d33c 76ab d7bd
000000b0: 1f58 82be 8e70 5bbf ef1c 033f be9f a1be
000000c0: 80a0 1f3d 5f0f 73bf 2454 003d 0e8c 4fbd
000000d0: c4dd 03be 6b1c 063e 4145 47bc 3c97 223e
000000e0: 10a0 073d a76e c73e c580 d5be 23e3 c73e
000000f0: 855e 25be 7151 d43d 461e d33e 90de 113f
00000100: 99a6 5abd a5f6 163d b33d 563e 4e45 da3d
00000110: 2b68 d0bc 21e6 72be 78b6 fb3d abd9 b13c
00000120: d070 1d3e e792 c73d c088 683d 49de 0fbe
00000130: 8398 af3a fd92 d6bc 3c91 793e 22ae 0f3e
00000140: 8a75 413d 476c 96be f591 733e 385c 95be
00000150: 881d d53e 50af 28be 1eb6 08bf 6974 cebe
00000160: 044a 3ebe fa21 cebb 01f9 db3e 718a 1a3d
00000170: 14af 2c3f 1a2d c43d c0f9 98be 512a 823e
00000180: 619e e53e e0a5 ab3e dae4 e93b bbb4 f4bd
00000190: ecf9 a6bd c504 f7bc 096f 673d 7b78 fbbd
000001a0: 9418 e2bc 5188 08be 4934 483e 1be3 a43c
000001b0: eb9c 413e 751a e73e 625e bdbd 2c8c da3e
000001c0: ddfd d23c b91e 443f d2bf fc3e dc2c c3bd
000001d0: c683 4bbe 98cc a9be ac3f 8e3d fffa 15be
000001e0: 58ad ca3d 9e8f 693e edfc c7bd b78d 55bd
000001f0: 521d 623c 7d62 243f d7a5 f63d 8ca5 04bd
00000200: cea3 85bd 23be 88bd 3b68 17be db59 bfbc
00000210: 443e 48be a1ed 483c cb36 d1bc c811 bbbd
00000220: db02 8b3e 6fea a03d e3b1 1dbf 450f bebd
00000230: 6ecd bc3e 577e 32be 4f32 b33e 0800 dbbd
00000240: dc54 503c 48ba 98ba b915 973e 6315 8a3d
00000250: a87b 043d 51e7 98be 819d 8dbc 2c1c 31bd
00000260: 68a5 313e 57a2 143d c9fa 90bf e110 b9bd
00000270: 96c6 f9bc 3eb4 e3bd 6f09 fd3d d049 1abd
00000280: 90f9 833b c3e4 10be 099f d4bc b6c2 6ebb
00000290: 7e8c 93bd a357 bcbc 7da1 a83c fa6a 043e
-0.006623355 0.24125433 -0.21148087 0.1018794 0.19921184 0.08670604 0.67952126 0.42757216
-0.034482025 -0.7200827 0.50546503 -0.15243194 -0.68627506 0.2818589 -0.19186093 -0.3501996
0.4479464 -0.2646922 0.65115416 0.12736864 0.39572817 -0.3406232 -0.1498841 0.33337998
1.065815 -0.026211461 -0.7375422 0.7555991 0.01913981 -0.061886214 -0.15615039 -0.3644555
0.124438584 -0.452277 -0.45733926 0.11466582 0.21402876 -0.43632248 0.23924688 -0.5927958
-1.0478021 -0.33027667 0.025851732 -0.105307505 -0.25457856 -0.8571862 0.51216024 -0.31567186
0.038971424 -0.9494533 0.031330243 -0.050670676 -0.12877566 0.13096778 -0.0121625075 0.15878004
0.033111632 0.3895161 -0.41699806 0.3904048 -0.16149338 0.10367096 0.41234034 0.5698023
-0.053381536 0.036856312 0.20921974 0.1065775 -0.025440296 -0.237206 0.122906625 0.021710237
0.15375066 0.09744816 0.05677104 -0.14049639 0.0013396892 -0.026193136 0.24371809 0.1403127
0.047231235 -0.29379484 0.23786147 -0.2917192 0.41624093 -0.16473126 -0.5340289 -0.4032319
-0.18582922 -0.0062906714 0.42963412 0.037729684 0.6745465 0.09578915 -0.29878044 0.2542291
0.44847396 0.3352499 0.007137877 -0.11948534 -0.081531376 -0.030153641 0.056502376 -0.12278839
-0.02759961 -0.1333325 0.19551195 0.020127824 0.18907516 0.45137373 -0.09246518 0.42685068
0.025755817 0.7660938 0.49365097 -0.095300406 -0.19874486 -0.33163905 0.06945738 -0.14646529
0.09896344 0.22808692 -0.09765039 -0.052137103 0.013800936 0.6421278 0.1204335 -0.03238444
-0.06525384 -0.06676891 -0.14785855 -0.023358276 -0.19555002 0.012263686 -0.025538823 -0.09134251
0.27150616 0.07857215 -0.6159956 -0.09280256 0.3687548 -0.17431007 0.3499932 -0.10693365
0.012715545 -0.0011652196 0.2950876 0.067423604 0.03234449 -0.2986398 -0.017287018 -0.043239757
0.17348254 0.03628763 -1.1326534 -0.090364225 -0.030490201 -0.11118363 0.12355315 -0.03766805
0.004027553 -0.14149766 -0.02595474 -0.0036431975 -0.07204531 -0.022991007 0.020584816 0.12931433

user_location_embedding.weight f4 [760, 18]
00000000: 7f99 f63c be25 25bd 56a8 5c3c e4fe 45bc
00000010: 2b26 803d b653 863d 29f9 fcbc d38e 223d
00000020: cc6e c73b 03e0 a13c cf42 00bd 02bd 5a3b
00000030: 620c cfbc 7755 1ebc 2ac5 163d b419 82bb
00000040: 2f05 553e fd0b 99bc 0308 8bbb b7c5 1a3c
00000050: ac57 92bb b997 4a3c 6492 87ba 467c 113c
00000060: 59e0 c53b b046 1f3b 2809 67bc 2989 adbc
00000070: bc36 123d 6cbf 933c f66c 16bc 74aa 4abc
00000080: 0d6c 8b3b 7478 4bbc 5037 493c 20c8 b8bc
00000090: 1ee4 d6bc 1f05 cdba 3598 1cbc 3784 773c
000000a0: 2a24 6cbd 590d d2bc a4b9 44bc f572 8abb
000000b0: e351 edbb 3928 753e 67e0 ec3a 424b 3b3e
000000c0: b91c 34bc c6f6 0abd b55f 6f3b fa91 cf3f
000000d0: 823d a7bb 7e2b d6bc 433e ed3b 4c6a d9bc
000000e0: a1df 9abb aac0 493b 88bf 9bbe 10ad 40be
000000f0: b1e5 a83e bd2f f6bc 1130 413d 069d aa3d
00000100: a72e b1bb 95c7 9f3e 4299 96bd bae0 c03c
00000110: 6328 f7bc e5bb 8ebc 6a4b cb3c 5dbb 0b3d
00000120: 605d 05bc d08e dabd 42b2 c43b e159 54bc
00000130: d03b 2b3a 60d2 833d a024 af3b 879e 79be
00000140: d6cb 9c39 24f0 7b3d dd3a 79be e02e e03d
00000150: 18ca dcbd 60c8 f8be d55e e33b f018 2bbd
00000160: 611d 3f3d fbaa 87bd b9b8 913c 344d 4b3d
00000170: e4b1 803c 1296 be3d 33e5 323d ba42 563d
00000180: 193a 04bc 8768 7bbd 4f80 ce3d f9d5 2a3d
00000190: 9804 9f3c 49fa 013e 9666 05bc 7fca 0f3d
000001a0: fcb7 ff38 9d49 acbc c030 8d3c 68c9 043d
000001b0: 5a39 0fbe 8d3a 81bd 2acd 8cbe e499 dfbc
000001c0: 32c7 483f b649 2bbd 1038 8fbc 7d00 1c3e
000001d0: e8e9 5cbd 9125 2e3c 7c68 c1bd 453f cd3c
000001e0: d0eb 9dbb 17cc d1bb cd5c 993c d174 ac3c
000001f0: b025 92bc 5dd9 c1ba fc0f 553f 6437 fdbc
00000200: 1dc0 88bf d4a1 f43b c577 553c 832b ee3c
00000210: 7746 d2bb d2ad 3bbc 58dd 3d3f 341e c53c
00000220: 9f79 6cbc d2f4 ab3c 690d 88be be3b 033d
00000230: 3693 3c3c 5933 ecbb 062f 4ebb dda9 b5be
00000240: a325 8e3c 363e cbbc efde 45bc 2b9c 84bd
00000250: a59e 7bbc ea0d 0f3e 7a4b f8bb 554a 3dbc
00000260: 6e48 cb3c 94d6 23bc ca7b 8d3c 2b5a 673d
00000270: e071 253b e980 783c b223 5d3c cfeb 763a
00000280: 13da a13c a6de 243d b790 a9bc 9bd7 9d39
00000290: 759e a8bc 7b5e 68bd 0b20 c63c c678 15bc
000002a0: 44fa a3bd 21b8 493c ae85 533c 2513 023f
000002b0: 6643 863b 2620 9d3c ba09 9c3c feb2 f53b
000002c0: 5133 a73b 97a2 1e3b afaa c0bd 138f 71bc
000002d0: ba3f bdbc c463 693d 7e61 afbd d6ca b03c
000002e0: 8f95 403e 8c9b 753b c858 533c 1106 073f
000002f0: 8200 2dbe 1a5a 263e ca7c 9c3d f73a 18bc
00000300: 1a4b 0b3d fc70 a2bb cbaa 52bb 9247 293d
00000310: 3fb6 503c e00b 28bf 9c3c 813c 1b78 08be
00000320: 7e78 b83b bb04 eb3c 5c65 e0bc 4be0 b13c
00000330: 0ea6 f736 eba6 c3bc 894b 423d e289 c9bb
00000340: 76c4 073c 4709 45bd 6091 0e3e b4c5 4f3c
00000350: dc74 fb3d de2f 7b3e c910 56bc c7ef 803e
00000360: 4906 18bd 51fe abbe 8e4f 7dbd 0ced 9b3c
00000370: 582f 4b3f e023 9b3f 005c 77bd 996a 583d
00000380: 3b7b 12bc b87d b4bc 2191 a6bc 2d25 eebc
00000390: a168 70bc 6cee dc3c 8ca0 bcbd eaca b9bd
000003a0: 7c6c bdbb 95d2 9cbd 13a1 89bc 154c e0bc
000003b0: f8be 013b 3b63 953b 4c83 f43b 9091 a7ba
000003c0: 7689 b438 f32c 53bc e442 793c 940c af3f
000003d0: c3c4 52be 689f acbe 8da4 593b 518b 6bbc
000003e0: e197 eb3a 98b3 41bb fec5 483d 8829 a6b9
000003f0: 14ad 11be 3047 ef3e 45d7 f6bb b17d 663c
0.03010249 -0.040319197 0.013467869 -0.012084696 0.0625728 0.06558935 -0.030880528 0.03968699
0.006086206 0.019760137 -0.031313714 0.0033376818 -0.02527446 -0.009663931 0.036809124 -0.003970349
0.20802759 -0.018682474 -0.0042428984 0.009446553 -0.0044660177 0.012365275 -0.001034331 0.008879727
0.006038707 0.0024303608 -0.014101304 -0.021183567 0.03569673 0.018035613 -0.009181252 -0.012369741
0.004254824 -0.012418855 0.012281254 -0.022556365 -0.026231822 -0.0015641785 -0.009557773 0.015107206
-0.057651676 -0.02564113 -0.012007151 -0.0042251297 -0.0072424277 0.23941125 0.0018072248 0.18290427
-0.010993176 -0.033926748 0.0036525552 1.6216424 -0.005103768 -0.026143786 0.007240088 -0.026539944
-0.0047263657 0.0030785003 -0.30419564 -0.18816018 0.3298774 -0.03005206 0.04716498 0.08330731
-0.0054071727 0.31206957 -0.0735345 0.023544658 -0.030170625 -0.01742358 0.024816234 0.03411423
-0.008139938 -0.106717706 0.0060026953 -0.012960882 0.0006532045 0.0643661 0.005344942 -0.2437688
0.00029906508 0.061508313 -0.24338861 0.10946441 -0.10780734 -0.48590374 0.006938795 -0.04177183
0.046658877 -0.06624409 0.017788278 0.049634174 0.015709825 0.093059674 0.043675613 0.05230973
-0.008070492 -0.061378982 0.10083067 0.041707966 0.01941137 0.12693132 -0.008142134 0.035105225
0.00012193617 -0.021031195 0.01723516 0.03241864 -0.13986722 -0.06309996 -0.27500278 -0.02729506
0.7842895 -0.041818343 -0.017482787 0.15234561 -0.053934008 0.010629074 -0.09443757 0.025054583
-0.004819371 -0.0064025032 0.018721009 0.021051796 -0.017840236 -0.0014789511 0.83227515 -0.030910201
-1.0683628 0.0074655805 0.013029044 0.029073482 -0.0064170915 -0.011455016 0.7416587 0.024062254
-0.014433294 0.020990763 -0.2657273 0.032039396 0.011509707 -0.0072082696 -0.0031461134 -0.35481158
0.017351931 -0.024809938 -0.012077077 -0.06475099 -0.015357648 0.13970152 -0.007577357 -0.011553367
0.02481481 -0.00999989 0.017270941 0.056482475 0.0025244877 0.015167453 0.01349728 0.00094192935
0.019757306 0.040251397 -0.020698888 0.00030106012 -0.02058337 -0.05673073 0.024185201 -0.009123033
-0.08006719 0.012311966 0.01291029 0.5081046 0.00409739 0.019180369 0.019047607 0.007498144
0.005102553 0.0024205798 -0.09407555 -0.014743584 -0.023101676 0.05697991 -0.08563517 0.021581095
0.18807052 0.0037476746 0.012899585 0.5274363 -0.16894725 0.16245309 0.07640989 -0.009291402
0.03400717 -0.0049573164 -0.0032145258 0.04132802 0.012738763 -0.6564312 0.015775971 -0.13327067
0.005629598 0.02868878 -0.027392082 0.021713397 7.380505e-06 -0.023883304 0.047435317 -0.00615047
0.008286586 -0.04810455 0.13922644 0.012681413 0.122781485 0.24529979 -0.013065525 0.25182936
-0.03711537 -0.33592466 -0.061843447 0.019033931 0.79369116 1.2120323 -0.060390472 0.052836034
-0.008940513 -0.022032604 -0.020332875 -0.029070461 -0.014673383 0.026969157 -0.092103094 -0.09071906
-0.0057807546 -0.07657353 -0.016800439 -0.027380029 0.0019797664 0.0045589483 0.007461941 -0.001278447
8.608673e-05 -0.012889135 0.015213702 1.3675714 -0.20582871 -0.33715367 0.0033209652 -0.014376477
0.0017974341 -0.002955651 0.049016945 -0.0003169293 -0.1422618 0.46734 -0.0075329863 0.014068053

item_id_embedding.weight f4 [1600, 32]
00000000: 15b4 873c 5ae6 8839 46d8 a6ba 4017 a2bb
00000010: 2676 6b3d b504 0bbf 1a46 9f3c b5f8 ec3b
00000020: e5f4 393c a21a 75bb cc96 c2bc 5ba3 c23c
00000030: bcba 4c3b b58e 833c 3fed e8bc 4bcc 5ebb
00000040: ea63 acbb a00d 123d 4c54 89bd 1a6e 063e
00000050: 071b 24bd 8702 6b3e 6835 1bbd 9237 943d
00000060: 6d12 df3c 7481 773c fef7 423b 21a9 aa3a
00000070: 304f 3abd 86e0 debb 5286 263d e4c3 9e3c
00000080: f6cc 9cbc 9d1e 98bd 00bb b8bc 7c92 07bc
00000090: dd06 343c 36b9 903c f493 40bc 0db8 86bc
000000a0: 402e 023a c99a 433a 2777 36be 0d18 ed3c
000000b0: 309d 593c 4047 233b 7910 6b3c 9b30 043d
000000c0: 2958 a6bb 3676 99bb e058 10bc d518 0ebd
000000d0: 1fa1 1b3c 3176 16bd 5d62 e1bd 093f cf3c
000000e0: cb27 c6bb 9c45 8fbc 1749 c83d 39ed d23b
000000f0: cb0c b2bb 8109 afbc 7994 5c3a 0bcb 8a3c
00000100: 1ab2 633c aeac 6b3c 4a58 ea3a fa00 2dbc
00000110: 2bdd fc3a 0155 c6bc 4373 31bb c322 b5bb
00000120: 227c db3d c909 40bd 9f27 093a b75b a7bc
00000130: d3a5 353c 2e65 30bc fa17 69bc fbc4 83bc
00000140: 6860 2dba 78c7 b938 7bff 07bd 0c6b 26bc
00000150: c5ff e5bb 5916 07bd f6ae e73d 59d2 533c
00000160: 12f7 993b 827c 7e3e e8c2 21bc 7ffe c03c
00000170: b6aa 893c 25bd a63e d8fb c13e e35b 40bc
00000180: 39eb 053f 918a ddbb 7104 adbe 443a 76bc
00000190: 5c95 25bb 7419 f5bb 1065 063b 8828 143c
000001a0: 2ceb ba3d 9b2d 0f3c 5ac6 0dbc 3d9d 013e
000001b0: 0596 94bd bceb e2b8 e083 b1bb 4ca9 463b
000001c0: efe9 1d3c a85c f538 db7b 22bb e948 973e
000001d0: 9576 0fbc 640a ab3a ccfd 6fba 9cd1 ba3c
000001e0: 0237 d83d 222e b4ba d9d8 423b e845 423e
000001f0: 73a1 5dbc 0342 88bb 8be3 18bd 2848 1d3c
00000200: ea47 80bc 51e4 78bd e332 07bb 0830 043b
00000210: 7415 f2b9 660c ab3e 1af3 8fba 0a2c d3bc
00000220: e077 cdbc f2f8 65be 1560 adbd 6fc9 d03c
00000230: 52b0 ebb8 b0d3 4f3c 4d38 d4bb 2e75 913c
00000240: 6a5d 403f 4c1e 183c 6b93 b13c 031f 2bbc
00000250: 12e8 9c3b 18d4 9ebe ea82 fd3c ea1d 25bd
00000260: bde3 f1bc 0803 0fbb a2ee 6b3a dd96 f4bc
00000270: 9461 043d 2bdb e8bc fc15 773c e307 973c
00000280: 11c6 a03b 7a02 4f3c 0c74 90bb e6a7 4ebd
00000290: b651 c93d 9cad fe3b a246 c5bb 68c5 eaba
000002a0: 1205 9239 d7a7 c3bb 5fd5 3cbc 69c4 603c
000002b0: 0198 633b 162b 203f 5633 233c f02a 2d3d
000002c0: 625c 43bb 2627 55ba c376 233e 03bc 6e3c
000002d0: f54d 813e 52b1 2e3c be4a 41bd 3daf 943b
000002e0: b818 a7bb 07b8 1fba 22ef 42bc 2670 a1bd
000002f0: dd88 87bc a721 983c c608 87bb c739 453c
00000300: 78b8 c3bb 45de cab8 14bd 4fbe 0af4 8c3c
00000310: 97da 04bc 38a8 3d3c 3117 1c3b 5c40 a83b
00000320: e5c8 de3e 2fe6 76bc f731 65bc 0127 54bc
00000330: cb99 a13b c1d4 6b3c e32a a6bf 8fda a4bc
00000340: af33 5f3c 1008 77bb e233 903e 48a1 d83e
00000350: 39ad 02bd b91b 58be d51e 30be fd3d e53c
00000360: 6ebb 623d d63b 09be 5ffb e63e e981 a5bd
00000370: 283f e9bc 82d3 6cbc 5953 7f3c e935 d43c
00000380: 94ed 60bd 28f4 b63e 49fe b83c 7097 5fbe
00000390: 3432 9bbc 850c a7bb 3adb 323c ed92 363c
000003a0: 9af0 be3c d82b 9cbc a68c 37bc bcc7 78bb
000003b0: 17d8 703d b994 2cbc e624 fe3c 1d06 b03c
000003c0: 1796 f6bc 3607 643e bd42 5fbd 1780 bbbc
000003d0: a4fe 02bf 049f b7ba cbd5 b1bc 86a9 093f
000003e0: f5a9 84ba 0ab9 38bc 3a4c 12bc 23e4 a73c
000003f0: 7281 08bd 956a 22bd 95a8 b5bb 3dc0 933c
0.016565362 0.00026111567 -0.001272925 -0.0049466193 0.057485722 -0.5430406 0.019442607 0.0072317966
0.011349891 -0.0037399908 -0.023753546 0.023759535 0.0031239232 0.016059259 -0.02843344 -0.003399628
-0.005260934 0.035657525 -0.067055315 0.13127938 -0.040064838 0.22950183 -0.03789273 0.07237162
0.027230466 0.015106548 0.0029749866 0.0013020375 -0.045485675 -0.0068016676 0.04065544 0.019380517
-0.019140702 -0.07427714 -0.022550106 -0.008274671 0.010987964 0.01766644 -0.011754025 -0.016445184
0.0004965998 0.00074617245 -0.1781889 0.028942132 0.013282105 0.0024914294 0.014347189 0.032272916
-0.0050764275 -0.0046832813 -0.008810252 -0.03469165 0.0094988635 -0.03673381 -0.110050894 0.025298612
-0.006047224 -0.017489247 0.09779566 0.0064369706 -0.005433654 -0.021366837 0.0008414458 0.016942522
0.013897443 0.014384432 0.0017879095 -0.010559315 0.0019291987 -0.024210455 -0.0027076758 -0.0055278256
0.10717036 -0.04688433 0.0005232039 -0.020429475 0.011086899 -0.010766311 -0.014226908 -0.016085139
-0.0006613792 8.8586414e-05 -0.03320263 -0.010157358 -0.0070190155 -0.032980297 0.11312668 0.012928569
0.0046986425 0.24852183 -0.009873129 0.023558853 0.016805034 0.3256618 0.37887454 -0.0117406575
0.52312046 -0.006760903 -0.3379245 -0.01502854 -0.0025266027 -0.007479841 0.0020507015 0.0090428665
0.09126887 0.008738901 -0.008653248 0.12657638 -0.072551765 -0.00010820429 -0.005417332 0.003031331
0.009638294 0.00011699769 -0.0024793062 0.29547814 -0.0087562995 0.0013049361 -0.0009154945 0.022805028
0.10557367 -0.0013746659 0.0029731302 0.1897198 -0.013527262 -0.00415826 -0.037326377 0.009599723
-0.015659291 -0.060764614 -0.0020629696 0.002017023 -0.0004617382 0.33407897 -0.0010982484 -0.025777835
-0.025081575 -0.22458246 -0.08465592 0.025486676 -0.000112385154 0.012684748 -0.006476438 0.017756071
0.7514254 0.009284567 0.02167674 -0.0104444055 0.004788407 -0.3102119 0.030946214 -0.04031173
-0.02952754 -0.0021821875 0.00090000976 -0.029857093 0.03231962 -0.02842482 0.015080925 0.018436378
0.004906424 0.012634868 -0.004408365 -0.05045309 0.09830038 0.0077721607 -0.006020383 -0.0017911615
0.00027851068 -0.005970936 -0.011525481 0.013718703 0.0034728053 0.62565744 0.00996097 0.042277277
-0.0029809703 -0.0008131139 0.15963273 0.014571193 0.2525479 0.010662394 -0.04719042 0.0045374916
-0.0050993823 -0.0006092791 -0.011897834 -0.07882719 -0.016544754 0.018570734 -0.004120919 0.012037701
-0.005972918 -9.6735115e-05 -0.20286971 0.01720621 -0.0081087565 0.011575751 0.0023817534 0.0051346254
0.43512645 -0.0150695285 -0.013988963 -0.012948752 0.0049316636 0.014393986 -1.2981838 -0.020123748
0.013623162 -0.0037694015 0.28164583 0.42310548 -0.03190348 -0.21104325 -0.17199261 0.02798366
0.055354528 -0.13401732 0.45113656 -0.08081419 -0.028472498 -0.014454724 0.0155838365 0.025904613
-0.054914072 0.3573315 0.02258219 -0.21835113 -0.018944837 -0.005097928 0.0109165255 0.011143428
0.023308087 -0.019063875 -0.011202967 -0.0037960848 0.05879983 -0.010533505 0.031023454 0.02148729
-0.030100865 0.22268376 -0.054507006 -0.022888226 -0.511698 -0.0014009182 -0.02170839 0.537743
-0.0010121452 -0.0112745855 -0.008929307 0.020494526 -0.033326574 -0.039652426 -0.005543778 0.018036002

item_type_embedding.weight f4 [5, 8]
00000000: 7566 bb3f 6621 6abf 6bdf ef3f 7cba c43d
00000010: 1696 05be d15d 343f e702 94bd 97a2 0d3d
00000020: e93d 873f bd02 57bf 375d af3f 9a2e 39be
00000030: 5ff8 6dbf d796 9abf a319 633f 2f82 793f
00000040: 6c9c a23e 73ad 0abf 4def 0d3e 6718 9bbf
00000050: 043b e0be a27a c6bd 9790 ff3d e402 5ebf
00000060: 574b fc3e f64c 57bb 9c2e 2c3f aae4 4b3e
00000070: 57ac c43f 4043 573e ac3b e83d afa7 9dbe
00000080: a4e5 22bf 2279 443e c66e 9cbe 74db 8abd
00000090: 9aeb 3e3d d9de aebb 9008 123e 7b73 90be
1.4640642 -0.9145721 1.8740057 0.096058816 -0.13045534 0.7045565 -0.07227116 0.034578886
1.0565768 -0.83988553 1.3700322 -0.18084183 -0.9295711 -1.2077283 0.88710994 0.9746427
0.31759965 -0.5417091 0.13860817 -1.2116822 -0.43795025 -0.09691359 0.1247875 -0.8672316
0.4927623 -0.0032852269 0.6725862 0.19911447 1.5365094 0.21021748 0.113395065 -0.30791995
-0.63631654 0.19186834 -0.30553263 -0.067801386 0.046611406 -0.005336624 0.14261079 -0.28213105

item_temperature_embedding.weight f4 [7, 8]
00000000: 3c28 0a3c 6fe0 e23c e9c2 a7bb b8fb 28bf
00000010: 639c bdbb 59b7 a3be b7ee 293d e64c 6fbe
00000020: 9973 453e 163b ff3e 3961 5cbe 029e 443e
00000030: 3aed 9cbe 30ef 693e bb11 d8be e24c dabe
00000040: adcd 29bf ed29 553f 7857 4b3f ee0f 08bf
00000050: dacc 5ebd 385a 1cbc 00d6 2abf 28ec 42be
00000060: 6843 31bf 502f 063e 254e 9bbe 8c8b a2be
00000070: 26fe e3be 7d96 503d 717e 84be 9357 463f
00000080: 789f 27bf cbd7 b8be 0012 a73e f40b ebbe
00000090: 2785 473d c262 873f d835 113f 5e77 563e
000000a0: 2928 0c3f 37c5 90be e538 9ebe 6238 59be
000000b0: 101c 873e 66da 1fbf 42dd 9a3f 9095 783f
000000c0: b1e8 05bf 261d d73c f297 91bf 8abc 7abc
000000d0: 8c1d 63be 3994 a13e 5f15 513e 0060 d5bd
0.008432444 0.027694909 -0.0051196706 -0.6600909 -0.005786465 -0.3197582 0.04148742 -0.23369178
0.19282378 0.49849766 -0.21521463 0.192009 -0.3064974 0.22845149 -0.42201027 -0.42636782
-0.6632946 0.832671 0.7943034 -0.53149307 -0.05439458 -0.009542994 -0.6673279 -0.19035399
-0.6924348 0.13103986 -0.30333057 -0.3174709 -0.44529837 0.050924767 -0.25877717 0.7747738
-0.65477705 -0.36102137 0.3263092 -0.45907557 0.04871097 1.0577013 0.56722784 0.20943972
0.5474878 -0.28275463 -0.30902782 -0.21212915 0.26388597 -0.62442625 1.2098773 0.97103214
-0.52308184 0.026259016 -1.1374495 -0.01530374 -0.2217924 0.31558397 0.20418309 -0.10418701

item_humidity_embedding.weight f4 [6, 8]
00000000: d8f7 62be d1a9 153e f7df ba3d f7db a3bd
00000010: e628 d3be da0e 0fbe 0722 32bf 491c 81bc
00000020: 3070 20bf 2d26 97bd 8bf3 e63e 8752 9fbf
00000030: cfba 003f 1968 783e b46b 583e 6f21 d0bd
00000040: 80e8 9fbe a93f 1a3e 39fe ab3f 7eb5 e03e
00000050: d72c ee3e c060 9dbe d409 973f 5677 e7be
00000060: 4520 0e3f 2e28 2d3f e317 b6bf a125 1fbe
00000070: 03c2 d3be 151b b9be 4e87 be3e 9cca 40be
00000080: baa4 d5bf 843a 2b3f a59d 323d 41e0 59bf
00000090: 8c03 853f 5d3a 9dbf 9983 74bc 641b c6be
000000a0: 753d afbd cfc7 183f ca4e 88be 1da0 abbe
000000b0: dc09 9cbe 36c2 5e3e f77c 4f3f ae2b b23e
-0.22164857 0.14615561 0.09124749 -0.08000939 -0.4124214 -0.13970509 -0.6958317 -0.015760558
-0.62671185 -0.07380328 0.45107684 -1.244706 0.5028505 0.2425846 0.21134835 -0.10162627
-0.3123207 0.15063347 1.3436958 0.43888468 0.46518585 -0.30737877 1.1799874 -0.45208234
0.5551799 0.67639434 -1.422604 -0.15541698 -0.41358957 -0.36153474 0.37212604 -0.1882729
-1.6690896 0.6688616 0.043607373 -0.8510781 1.0391707 -1.2283436 -0.014923953 -0.38692772
-0.08556644 0.59679884 -0.2662261 -0.33520594 -0.30476272 0.21753773 0.81050056 0.3479895

item_windSpeed_embedding.weight f4 [5, 8]
00000000: df45 5c3f 0147 ce3e ef76 78bf b8f0 6a3e
00000010: db56 873f 2368 24be 0bb5 32bf d781 3c3f
00000020: 9e54 253f 469b 8f3d 1086 0ebf 8429 80bf
00000030: 282c ac3d fb37 713e 27ce aebd a548 81be
00000040: f7d6 833d 1ec2 d6be 443f 433f 1a28 d23e
00000050: f843 3abe b6fc a0bf 7f27 bfbe 6906 b73f
00000060: 0bcb d7be 5441 94be 76cc d63e 0655 31bd
00000070: 21a9 c83e 481d 533f 773e dabd 425c 2fbe
00000080: ce5a 00be 1993 813f f8c6 25bc 8abf 5bbe
00000090: b8a2 c23e b5a8 443f f863 0f3f edfc 7abe
0.86044115 0.40288547 -0.9705648 0.2294339 1.0573381 -0.1605535 -0.698075 0.7363562
0.6458224 0.07012038 -0.55673313 -1.001267 0.0840686 0.23556511 -0.08535414 -0.25250736
0.06437486 -0.41944975 0.7626841 0.4104622 -0.1818999 -1.2577121 -0.3733482 1.4298831
-0.42147097 -0.2895609 0.41952866 -0.043293975 0.39191535 0.82466555 -0.106564455 -0.17125037
-0.12534639 1.0123016 -0.010118239 -0.21459785 0.3801477 0.76819927 0.56011915 -0.24510546

GCN_Layers.0.W1.weight f4 [64, 64]
00000000: fc65 05be 56a7 d03c afc5 72bd 708b 30be
00000010: 2ed5 00bd 73f7 a53d 3a86 373d 612e b3bc
00000020: 3c8a 06bd 0561 473e 9977 953d 60e2 703d
00000030: 042e 083d 80ff a13c 273f 04be d15c d3bd
00000040: c080 01be 1270 13bc f29e 8dbd 55a3 b13d
00000050: a4e2 173b 0347 703c af91 e1bd 9eb4 033e
00000060: f6ef 9bbd e757 1cbd 2fdb 69bc c89f 27be
00000070: 29dd 19be f6c1 1dbd 827d a4bd 240a 58bd
00000080: f896 86bd 2c78 f5bd 1b8a 48bd f18d 9238
00000090: 6872 69bd 5246 363d 27f0 a6bd e3e8 a53d
000000a0: 3961 1bbd 46b1 d73d 8b83 debd 7bfa dabb
000000b0: e473 c23d 34cd fb3d 0d7c 2abd 6d88 11bc
000000c0: 53a3 bcbd dc8b 90bd bc23 d53d dd80 9b3c
000000d0: 0999 e1bd 02b7 7a3c 57a6 54bd 6a2b af3d
000000e0: 21fd e73d 21eb 2c3d 8c9e 27bd 53ad f03c
000000f0: a69b febc 771a debc c672 1e3d aa52 543c
00000100: 8a9e fe3d ae93 45bc 1b31 4c3d 8693 c6bd
00000110: 2ad1 873c 2592 2bbd 137d 473e 6f2a f83c
00000120: a777 df3d 1218 493e 7f07 803d 78e8 34bd
00000130: b8cf 9cbc 04b5 213c 973b 9ebd 7be4 6ebd
00000140: 2d00 17be 9677 c1bd 50b1 173e 31b2 a2be
00000150: b47b f3bb 1d3e 653d f0fc 0f3d 743a 82bc
00000160: 0a1d 8d3c bcb0 bc3d 8cdc 1ebe 310f 5dbb
00000170: 1dd0 d83d 6553 193e af32 dd3b e172 c4bd
00000180: 5c9b 4f3d 4da7 a73d e104 ab3c 6b53 bfbc
00000190: 93f4 e4bc c94a 363c c27c 9bbd 342e babc
000001a0: 0915 d33d d430 d53c 21fc 163d 56f3 31bd
000001b0: 6637 93bb a0a7 aa3d 7611 113d fb23 fe3c
000001c0: 8cf2 1b3c 246f 5a3d 8b99 ecbc 838d cfbd
000001d0: 583c bdbc b658 13bd f554 3abd 787e 033e
000001e0: 9069 8d3d cb3d c9bd c15f 953d e535 c2bc
000001f0: 8ff5 d23d 5a57 a4bd aa9c aa3d 0833 6fbd
00000200: e65a ad3c 86c0 1f3e 4e71 d4bc 4cdd 013c
00000210: 3bb7 99bd 3d18 86bd eac3 15bd b4a1 d0bd
00000220: 1ef0 483d f1a7 eebc 2775 9e3d 08a1 273d
00000230: 7f6b 343e 12bf 933d 136f 8dbd 8049 833c
00000240: c6bd a43d c2d3 493d 98c5 833c 5784 a63b
00000250: 830b 183d 4ba3 d6bc 27fb bfbb 9302 27bd
00000260: ffc0 7fbd 35c6 d63d 30fa 313d afeb 5fbd
00000270: b303 123e 94a0 9a3c 01b1 053d 3615 973d
00000280: a381 d33d 6084 3c3c 9ffd d0bd f7e2 453d
00000290: 617b b0bc 3543 e5bc df3c 4ebd 6efd e9bd
000002a0: 45d8 303d 639c 31bd 50a4 8e3c 2288 ec3d
000002b0: 72ee 96bd 1b4f 01be a2fa e63d b606 2bbd
000002c0: 6cd4 76bc 4976 a53d f24e 3abd a7c8 dfbb
000002d0: 9150 66bd 4b80 a3bd ffd9 cf3d 4e99 073d
000002e0: 33e5 28bd c469 ad3c eb1a 803c 4fca 983d
000002f0: de26 b33d e1bb 99bd f909 dc3d 8843 493d
00000300: c5ea 8abc 40b5 56bc e3dc 6f3d 7ba5 f63b
00000310: c1c4 513d c12f 0dbe 023d 01bd 27b1 57bd
00000320: 66d5 69bd ac9a 11bd c90f cabd 7ec2 343c
00000330: 7cd3 e03d 8d80 74bd c655 b8bd 6c4e 8a3d
00000340: 1406 d3bd 13af ff3c e735 2ebc 188d fb38
00000350: 9ef6 bebd af98 2a3d 95bd 173e 6025 38bc
00000360: fa1f 943d 860d cd3d 7e6e db3d b037 953d
00000370: 1a0a 82bc 830d abbd ae8f 1ebe 6e5a 4a3d
00000380: efb9 b73d 4c64 903d 3626 a2bc d524 28bd
00000390: 1a63 223c 4117 563d 9c17 c43d adb7 8ebd
000003a0: 6428 bd3b b05a 9bbd 3ad8 51bc a65a f3bd
000003b0: 3c29 78bc b03e 3a3d c4e8 73bd 5ece f1bd
000003c0: 2fcd d6bc 5d16 f6bc bed1 9b3c ba76 aabd
000003d0: e882 cfbd ac4a a5bc dbbf e43c d24c 8b3c
000003e0: 54b2 d5bd 41b5 a93c 25ed 26bd 3fbb 28bd
000003f0: 6099 db3d 51d3 4c3c f5ab 113e 7cb6 1a3c
-0.13027185 0.025470417 -0.059270557 -0.17240691 -0.031453304 0.08103838 0.044805743 -0.021872701
-0.032846674 0.19470604 0.07298202 0.058809638 0.03324701 0.019775152 -0.12914716 -0.10320438
-0.1264677 -0.008998888 -0.06915082 0.08673731 0.002317586 0.014665368 -0.11014115 0.12861869
-0.07614128 -0.038169768 -0.014273449 -0.16369545 -0.15025772 -0.038515054 -0.08031751 -0.052744046
-0.06571764 -0.119858116 -0.048959833 6.988261e-05 -0.056993872 0.044500656 -0.08151274 0.0810106
-0.037934516 0.10531859 -0.108649336 -0.0066826916 0.09494761 0.12294999 -0.04162221 -0.008882624
-0.09210839 -0.07057926 0.104072064 0.018982345 -0.11015517 0.0153024215 -0.051916447 0.085532025
0.113275774 0.042216424 -0.040922686 0.029379522 -0.031080078 -0.027112229 0.038683675 0.012959162
0.12432583 -0.012059135 0.049851518 -0.096961066 0.01657923 -0.04188742 0.19481306 0.030293671
0.10911494 0.19638088 0.0625143 -0.044167012 -0.019142017 0.009869818 -0.077262096 -0.058323365
-0.14746161 -0.09446637 0.14813733 -0.31776574 -0.007430518 0.05596744 0.03515333 -0.015897013
0.017225761 0.09213397 -0.1551382 -0.0033730979 0.105865695 0.14973219 0.0067504267 -0.09592224
0.05068527 0.08186207 0.02087635 -0.023355206 -0.027948653 0.011126229 -0.07592155 -0.02272711
0.103067465 0.02602426 0.036861543 -0.043444954 -0.004492688 0.08332753 0.035417043 0.031023016
0.009518277 0.05332865 -0.028881809 -0.10134413 -0.023100063 -0.035973273 -0.045491178 0.12841213
0.069049 -0.09826239 0.07293654 -0.02370734 0.10300743 -0.080244735 0.083306625 -0.058398277
0.021161508 0.15600786 -0.025932934 0.007926296 -0.075056516 -0.06547592 -0.03656379 -0.101870924
0.04905712 -0.029132815 0.07737189 0.040925056 0.17619132 0.07214178 -0.06905951 0.016026258
0.08044009 0.049274214 0.016085431 0.005081694 0.037120353 -0.026200911 -0.005858797 -0.04077394
-0.062439915 0.10487024 0.043451488 -0.054668125 0.14259224 0.018875398 0.032639507 0.073770925
0.103274606 0.01150617 -0.102046244 0.048312154 -0.021543207 -0.027986148 -0.05035102 -0.11425291
0.043175 -0.043362033 0.017412335 0.11549403 -0.073696986 -0.12627833 0.11278273 -0.041754447
-0.015065294 0.08079202 -0.045485444 -0.0068293395 -0.056229178 -0.07983454 0.10149001 0.033105187
-0.041234206 0.021168597 0.015637835 0.07460462 0.08747648 -0.07506538 0.1074409 0.04913667
-0.01695765 -0.013104737 0.058560263 0.007527051 0.05121303 -0.13787748 -0.031552322 -0.05265918
-0.05708828 -0.035547897 -0.09866292 0.011032699 0.109778374 -0.059692908 -0.09000735 0.06753239
-0.10303894 0.031211412 -0.0106329685 0.000119948934 -0.09324382 0.041649517 0.14818414 -0.01123938
0.072326615 0.10012345 0.10714434 0.07286012 -0.015873957 -0.083521865 -0.15484497 0.049402647
0.08971011 0.0705038 -0.019793611 -0.04105075 0.009911323 0.05226827 0.09574816 -0.06968627
0.005772637 -0.07585657 -0.0128079 -0.11882524 -0.01514655 0.04546994 -0.059548154 -0.118069395
-0.026220886 -0.03003996 0.019020911 -0.083234265 -0.1013239 -0.020177208 0.027923515 0.017004404
-0.10434404 0.020716311 -0.040753502 -0.041194197 0.10722613 0.012501554 0.14225753 0.009442922

GCN_Layers.0.W1.bias f4 [64]
00000000: 3669 ec3c f295 343c 8a1f b43c b23a 35bc
00000010: 28d9 1d3d 9457 3bbd 7c1e 303c d3bb d93d
00000020: 25f1 ea3d c81b b4bd d4e1 a8bd d572 883d
00000030: 8eff b0bd f735 a83d 0477 f63d 1d0b 06bd
00000040: 6bca 0c3d e032 933d 1632 f33d 9d7c 8a3d
00000050: 88aa 1dbc 2474 25bd 8d0d 19bc 7204 fcbb
00000060: 2d37 0ebc dbed b73d 9a58 18bc 1e8b a8bd
00000070: 8492 6f3d 5cbf bf3d 3a29 bbbc 37fc fa3d
00000080: ba41 853c c2e8 c3bc d04d 1a3d 7241 5bbc
00000090: 8050 89bc ef25 2fbd ae80 d8bd cf09 8f3d
000000a0: 1843 04bc 5f0b 7c3d 5771 d7bd d39d 8cbc
000000b0: d3fb 413d aa29 cfbd 0bb1 c5bc 2ec0 c9bc
000000c0: fa1d e33d 0b43 c73d 497f 8ebd f55a 8b3d
000000d0: f28d 423d 9225 5e3d 3e41 b13c 0c98 383d
000000e0: 770e 5abd c995 38bd 40b5 9bbd f95d 81bd
000000f0: e882 f73c 04df c4bc 8a13 343c 151a dbbc
0.028858762 0.011022078 0.021987695 -0.011061357 0.038537174 -0.045737818 0.010749456 0.10631528
0.11471776 -0.08794361 -0.08246198 0.066625275 -0.08642493 0.08213418 0.12034419 -0.032725442
0.03437273 0.07187438 0.118747875 0.06762049 -0.009623177 -0.040393963 -0.00934161 -0.0076909596
-0.008680147 0.08980914 -0.009298468 -0.082296595 0.058489338 0.09362671 -0.022846807 0.122551374
0.016266692 -0.023914699 0.037671864 -0.013382303 -0.016762018 -0.042760786 -0.10571419 0.06984293
-0.008072637 0.06153428 -0.10519665 -0.0171651 0.0473593 -0.10115369 -0.024132272 -0.024627771
0.11089702 0.09729584 -0.069578715 0.06804458 0.04749865 0.05423505 0.021637555 0.04506688
-0.05323645 -0.04506472 -0.0760293 -0.06316752 0.030213788 -0.024032123 0.010990987 -0.026745835

GCN_Layers.0.W2.weight f4 [64, 64]
00000000: 69b4 9e3b 7662 cebb 0fdc 133c d7c8 bbba
00000010: 7746 183c 3dc0 433c eea7 24bb 6be8 023b
00000020: 2dd0 d2bb 5155 993b 4f8c cfbb 0e71 4b3b
00000030: 895a 5abb a1e8 52bb b39f 0b3a 5a01 863c
00000040: bb42 513b 46f5 37bc 148e 77bb 8c1a 613c
00000050: 7745 a63a c11e 0a3b dfde 753a a518 bc3b
00000060: 0324 b43b 0ca4 25bb 1b21 1d3c fcf6 cc3b
00000070: 80e2 cd3a 6d7d 843b ce04 373b d0a7 13bc
00000080: 9d23 0d3e b6e8 40bd 654c d03d ea9b 50bd
00000090: 4d7a 7a3c 0ab1 ad3d b1e2 503d fcf6 9d3d
000000a0: ca9b b1bb f3ca f23c 298b fabc 5418 863c
000000b0: a756 56bd be90 2dbb 704e 3b3d 5375 ecbc
000000c0: d0f5 91bc 5d59 c9bd 313d ba3c 25ef eebc
000000d0: c9e9 08bd 3e65 84bd 809f bd3d b4d2 b3bc
000000e0: d3b3 a83c 0f58 36bc 8643 0d3c 1924 47bd
000000f0: 85bc 023e 5b6e 5d3c 502c 94bc f04e 753d
00000100: abd7 fbba 2f31 0fbb ac99 e73b b8ba ec3a
00000110: a828 813a 2111 a73b fa58 8fbb 7b0a f13b
00000120: b51c babb bc44 573c 1982 3fbc ee43 49ba
00000130: 2cba bf3b d1fc bd3b aae5 783b 6842 b53b
00000140: 3351 13bb fc7c c5ba 1888 643a 78c3 8bbb
00000150: 07d7 3dbb f04f 1ebb 7368 9bbb adfc a63b
00000160: f67c 9bba c40c b43b dbcf c93a ea3a 783b
00000170: 26b8 593b a835 7cbb eb7e ac3a d13e c6bb
00000180: 85d1 153d dd0c cebd bcc0 23be ed5e 143d
00000190: 47f4 44ba 863a e53b 2057 6b3d 208a 1abd
000001a0: 13d8 20bc da8a b93c 26ec 3e3d 8c8e 473c
000001b0: 8379 573d e25a e9bc 60f6 743c 09be ecbc
000001c0: 5b17 b1bd 0a71 ea3d 3e4c 2dbd 7626 b8bd
000001d0: d8c7 22bc c997 10bb e223 5a3d 2d01 97bd
000001e0: 5f6a 23ba fa80 5d3c 41b5 f63c cc82 c73c
000001f0: 4274 d03d 0236 0dbd 25f9 32bd 8fa4 0dbd
00000200: bde4 39ba 78f7 cbbb 2330 ec3b 2f8d 18ba
00000210: 59da f23b f8cb c539 1abf 86bb a43a e43b
00000220: 5a65 913a 5cca c1bb 0c11 8c3b 3b6d 0d3b
00000230: b2fa 69ba b5b6 913b 8029 803a 6d8a bd39
00000240: 6425 94ba 60ba d139 5d02 b5bb dd59 31b9
00000250: 6cd9 293b 7af0 b43b eb5b baba d3cb 8ebb
00000260: d75a c9b9 637d 08bc 6b23 a73a 0df9 2dbb
00000270: fbf9 aa3a 85fa 383b 7c2f 983b 1fcf 3bbb
00000280: 0f21 873d bf7b 41bd 9009 7fbd b759 adbc
00000290: 7ccc 8dbd 77f6 803d 0551 a63b a8e5 1cbd
000002a0: dd0c 35bc 9d9b 363c 1bab 6b3c 1547 22bb
000002b0: b7b2 d43a d222 72bb adf9 f7bb 1dc5 8f3c
000002c0: 544b e83c 7be6 65bd f40d 3aba b166 293c
000002d0: 2eec 73bc b336 3f3c c425 dd3d 4087 bab9
000002e0: 3fd0 2bbd 82f3 f4bb b391 93bc 85d2 6abc
000002f0: 993a 473c f389 cd3c 7d2e 08bd 6ca6 6cbd
00000300: 13b5 873b 5e6c d7bb be82 16b8 d4b6 9c3b
00000310: 0f2c d5ba 329a 073c c86f dbbb d800 cd3a
00000320: 357e 32bc 403c 02bc 33b3 36bb da2c e43b
00000330: 9db9 ddbb 0546 dabb fb7e abbb a628 043c
00000340: 3655 b5bb 81ac edbb 72eb 43bb 2572 12bc
00000350: 7f2f 763b d21d a33b 0678 e8ba d1bd 11bb
00000360: e6b8 053c f7b9 ae39 9207 733b 2078 823b
00000370: e0ff 74bb 35eb 333b 60bf 5c3b 8bfd e5bb
00000380: abc8 26bd 9c87 92bd 2862 ec3c f427 893b
00000390: 69ea a8bc 413f 5bbd 4a95 1dbd bab0 55bd
000003a0: 5392 32bd e8a5 593c 2cf2 e03b b981 7b3d
000003b0: e8f3 36bd 258e 38bd 2898 59bb 18a6 7bbd
000003c0: 5fbc 0cbd 3fec d0bc aa40 c8bc 324c 6cbd
000003d0: 9e23 213d 3c6f bdbc 5653 06bd d13b f6bb
000003e0: 4ca5 33bd 3594 5fbc 729c a5bc 6b05 22bc
000003f0: b2eb 043d c3d5 0f3d 4e55 c4bd cae3 de3c
0.004843284 -0.0062983586 0.009024634 -0.0014326823 0.009294144 0.011947689 -0.0025124508 0.0019974958
-0.006433508 0.00467936 -0.0063338648 0.0031042728 -0.0033318123 -0.0032182115 0.0005326226 0.016358066
0.0031930644 -0.011227911 -0.0037773894 0.013739239 0.0012685497 0.002107546 0.00093792187 0.0057402425
0.005497457 -0.0025274782 0.0095904125 0.006255029 0.0015707761 0.004043272 0.0027926448 -0.009012178
0.13783117 -0.04709693 0.10170821 -0.05092994 0.015287948 0.08481033 0.05099744 0.07713124
-0.005420183 0.02963779 -0.030583935 0.016369022 -0.052328732 -0.0026483978 0.0457291 -0.028864538
-0.017817408 -0.09831498 0.022734256 -0.029166767 -0.03342608 -0.06464623 0.09258938 -0.021951057
0.02059356 -0.011129393 0.008622056 -0.04861841 0.12767227 0.01351508 -0.018087536 0.059889734
-0.0019214054 -0.0021849384 0.0070678797 0.0018061018 0.0009854035 0.0050984775 -0.0043746205 0.0073559857
-0.0056796917 0.013138946 -0.011688733 -0.0007677664 0.005851051 0.0057979603 0.0037978687 0.005531598
-0.0022478818 -0.0015067155 0.00087177893 -0.004265245 -0.0028967278 -0.0024156533 -0.004742676 0.0050960393
-0.0011862803 0.005494686 0.0015397029 0.0037876912 0.0033221333 -0.003848413 0.0013160383 -0.006049969
0.036576767 -0.10061047 -0.15991491 0.03622334 -0.0007513207 0.006995502 0.057456136 -0.037729383
-0.009817141 0.022649217 0.046611927 0.012179982 0.052606117 -0.02848572 0.0149513185 -0.02889921
-0.08647033 0.11447342 -0.04230904 -0.08991711 -0.009935342 -0.0022063127 0.053256877 -0.07373271
-0.0006233807 0.01351952 0.030115725 0.024354361 0.101784244 -0.034475334 -0.043694634 -0.034580763
-0.00070912746 -0.006224569 0.007207887 -0.0005819378 0.007411283 0.00037726737 -0.0041121366 0.0069649983
0.0011092827 -0.0059140157 0.004274493 0.002158 -0.0008925601 0.004446829 0.0009777993 0.00036152024
-0.0011302647 0.00040002447 -0.0055239634 -0.00016913512 0.0025916947 0.005521831 -0.0014218068 -0.004357794
-0.00038405388 -0.008330676 0.0012751644 -0.002654615 0.0013044471 0.0028225493 0.0046443325 -0.002865739
0.06598102 -0.047237154 -0.06226498 -0.021160943 -0.06923768 0.062970094 0.0050755762 -0.038304955
-0.01105043 0.0111455 0.014384056 -0.0024761606 0.0016227578 -0.0036947024 -0.0075676055 0.017550046
0.028356232 -0.056128006 -0.0007097416 0.010339425 -0.014887853 0.011670756 0.10798219 -0.00035577454
-0.041946646 -0.0074753175 -0.01801381 -0.014332418 0.012159967 0.025090193 -0.03324746 -0.0577759
0.004141459 -0.0065741977 -3.588455e-05 0.004782537 -0.0016263741 0.008276509 -0.006696675 0.001564051
-0.010894348 -0.007948935 -0.0027877807 0.0069633545 -0.0067665116 -0.006661179 -0.005233643 0.008066332
-0.0055338396 -0.00725323 -0.0029894975 -0.008938347 0.003756493 0.00497792 -0.0017735965 -0.0022238384
0.008161759 0.0003332642 0.003708337 0.003981605 -0.0037383959 0.0027453427 0.0033683404 -0.00701875
-0.040718716 -0.07154772 0.028855398 0.004185671 -0.020619588 -0.05352712 -0.03847245 -0.052170493
-0.043596577 0.013284184 0.0068648066 0.06140301 -0.0446662 -0.045057435 -0.0033202264 -0.061437696
-0.034359332 -0.025503276 -0.024444897 -0.057689853 0.039340608 -0.02312433 -0.03279432 -0.007514455
-0.04385881 -0.013646175 -0.0202162 -0.009888987 0.03245134 0.03511597 -0.09586583 0.027208228

GCN_Layers.0.W2.bias f4 [64]
00000000: 3859 9abd fce3 bdbc af3a acbd 58f5 c13d
00000010: 517d d4bb 66da 993c ede2 dfbd 562b d9bc
00000020: 12ff 0c3a 003f ae3b 50ab 9ebd 6e2d 63bd
00000030: 0af2 c13d 9fc9 143d 9c10 70bb e39f d13b
00000040: a285 82bc b43c c9bd 2889 1ebd 20d1 24bb
00000050: a261 003e 3783 95bd be69 e03d 1571 c23d
00000060: 7024 0c3e 6817 efbc f990 a93d 5f03 99bd
00000070: 87c8 6f3c a622 7b3d 5d9e 093d da0f 663d
00000080: 03b8 c0bd 0f92 5bbb 6518 c03b 7343 bb3d
00000090: 3756 46bd 153d 583d 8909 e13d 7817 183d
000000a0: 8c79 bcbd 60d7 1a3c d8d4 92bd 8911 b53d
000000b0: c1f9 4f3d 74e5 2d3c 9c04 683b 7b8b 8a3b
000000c0: 35e5 6bbd ea24 83bd 525c b23d 19b0 ed3c
000000d0: 4af3 0d3d b679 24bd 7a44 8e3d f77b 7c3d
000000e0: a3c3 0dbd 0f0d 0c3e f039 9e3d ce43 a8bc
000000f0: 34f5 05be 9055 ae3d 630a 09bc 5247 d4bc
-0.075365484 -0.02318 -0.084096305 0.09470624 -0.0064846654 0.018780898 -0.109319545 -0.026509922
0.00053785846 0.005317569 -0.07747519 -0.055463247 0.094699934 0.036325093 -0.0036630994 0.006397234
-0.015932862 -0.09826031 -0.03870502 -0.0025149062 0.12537244 -0.07300418 0.10957669 0.09494225
0.13685775 -0.029185966 0.082796045 -0.07471346 0.014635212 0.06131234 0.033598293 0.05616746
-0.094100975 -0.0033503806 0.005862283 0.09143724 -0.048422065 0.052792627 0.10988147 0.037131757
-0.09202871 0.009450763 -0.07169503 0.08841235 0.050775293 0.010613788 0.0035403138 0.004228053
-0.057591636 -0.06403525 0.08709015 0.029014634 0.034655847 -0.040155135 0.069466546 0.06164166
-0.0346104 0.13676856 0.077258945 -0.020540144 -0.13081819 0.085124135 -0.008364293 -0.025912914
