lab4-student/code/model/bestModelParms-11-14-12-36.pth (torch, 650949 bytes, 32 tensors)

user_id_embedding.weight f4 [900, 32]
0	0x3eab6740	0.3347721
1	0x3c46dfbe	0.012138305
2	0xbbe25f07	-0.006908301
3	0xbbd6822d	-0.00654628
4	0x3c039c83	0.008032921
5	0xbc200837	-0.009767584
6	0xbe4cf07a	-0.2001361
7	0xb8a9ddf9	-8.0998936e-05
8	0xbc4a62ec	-0.012352686
9	0x3d1a5289	0.037676368
10	0x3c609bbe	0.013709007
11	0x39d47635	0.00040523862
12	0xbc87282b	-0.016498646
13	0x3c7458d9	0.014913761
14	0xbd870820	-0.065933466
15	0xbd828c40	-0.06374407
16	0xbeda3e89	-0.42625836
17	0xbcfbcb3c	-0.030736558
18	0xbc06bccd	-0.008223725
19	0xbd166613	-0.03671844
20	0x3c1d561c	0.00960305
21	0x3cb61e79	0.022231327
22	0xbacfa82e	-0.0015842968
23	0xbe2fe871	-0.17178513
24	0x3a9b970e	0.0011870579
25	0xbc08e6b1	-0.008355782
26	0xbd7b2e57	-0.06132349
27	0x3b287275	0.0025702987
28	0xbbf92497	-0.007603239
29	0x3b305421	0.0026905613
30	0xbc71e73a	-0.014764601
31	0xbcb42a66	-0.021992873
32	0xbc1f4e48	-0.009723254
33	0x3da051a8	0.07828075
34	0x3a1a8995	0.0005895135
35	0x3ca5fa9b	0.0202611
36	0x3c39cc47	0.011340207
37	0xbd82131b	-0.063513
38	0xbba76624	-0.0051086117
39	0xbc1ae17a	-0.009453172
40	0x3b9b5057	0.004739802
41	0x3a5240c9	0.0008020518
42	0x3cfbc900	0.030735493
43	0x3b5a6cb1	0.0033328945
44	0x3b29e02f	0.0025920977
45	0xbc4d20ed	-0.012520057
46	0x3b5b657d	0.003347724
47	0x3aaee06e	0.0013342032
48	0xbcaadbd7	-0.020856781
49	0x3b20a557	0.0024512613
50	0xbc01d572	-0.0079244245
51	0xbba43b5c	-0.005011959
52	0xbcfee21b	-0.031113675
53	0x3b7332ec	0.003710921
54	0x3b2a13cf	0.0025951748
55	0x3ec6b0dc	0.38806808
56	0xbf364941	-0.71205527
57	0x3e4aa0f7	0.19787966
58	0xbdb5a811	-0.08869947
59	0x3b87e6c5	0.004147383
60	0xbb0ab2cc	-0.00211637
61	0x3ed47cf6	0.41501588
62	0x3ba72469	0.005100776
63	0xbbc975dd	-0.0061480836
64	0x3cdf4e86	0.027259123
65	0xbcbb4b5b	-0.02286308
66	0xbb830a90	-0.003999062
67	0x3c64bf8c	0.013961684
68	0x3bbc388e	0.0057440465
69	0x3d6c37b9	0.05767033
70	0xbca565a4	-0.020190068
71	0x3bc86c98	0.006116461
72	0x3e2a89dc	0.16654152
73	0x3cde132e	0.027108755
74	0xbc9ab820	-0.018886626
75	0xbc3e3635	-0.011609604
76	0xbe9ae61d	-0.30253688
77	0xbcc261b9	-0.023728238
78	0xbd09f34b	-0.033679288
79	0xbbfe35cd	-0.0077578784
80	0x3c4a269f	0.01233831
81	0x3c46c71c	0.012132432
82	0xbe6d0106	-0.23144922
83	0x3c360be7	0.011111236
84	0xbc05ce2c	-0.008166831
85	0x3c068f21	0.0082128355
86	0xbd9cf953	-0.07664742
87	0xbbbc4ff1	-0.0057468344
88	0x3c8a5534	0.016886331
89	0x3d9d74a8	0.07688266
90	0xbc359fce	-0.011085464
91	0x3b0535e6	0.0020326315
92	0xbcc143cb	-0.023591897
93	0xbc8faa12	-0.01753715
94	0xbc242a3a	-0.010019833
95	0xbd972b4a	-0.073813036
96	0x3e39305f	0.18084858
97	0x3d605eef	0.054778036
98	0x3d177129	0.036973152
99	0x3c8169c2	0.0157975
100	0x3e28d5cc	0.16487807
101	0xbcd78a36	-0.026311021
102	0x3c62ccfc	0.013842817
103	0xb8505ea0	-4.967919e-05
104	0xbe0e572a	-0.13900438
105	0xbd78c6e3	-0.06073655
106	0x3d57df73	0.052703332
107	0x3be48579	0.006973919
108	0x3d6bf0e3	0.057602774
109	0xbce0f8c1	-0.027462365
110	0xbc57b2bc	-0.013165172
111	0xbcca0e37	-0.024664981
112	0xbaef9c67	-0.0018280864
113	0x3d1dcfed	0.03852837
114	0xbd46e4d5	-0.048558075
115	0x3d340f97	0.04396018
116	0xbbfa1c6c	-0.0076327827
117	0xbd192eae	-0.037398033
118	0x3bba30d8	0.005682092
119	0xbc8fadc2	-0.017538909
120	0x3d2443dd	0.040103782
121	0xbbc06969	-0.005871941
122	0x3d665f50	0.05624324
123	0x3e452c12	0.19255093
124	0x3ca70b62	0.02039117
125	0xbbbbd080	-0.0057316422
126	0xbc87b44d	-0.016565466
127	0x3d516e63	0.051130664
128	0xbc01c428	-0.007920302
129	0xbd16898e	-0.036752276
130	0xbd5ace20	-0.053419232
131	0xbcb317cb	-0.021861931
132	0x3d414e2b	0.047193687
133	0x3e75b99d	0.23996587
134	0x3e21f0ee	0.15814564
135	0x3d36b134	0.044602588
136	0x3d61e6e0	0.05515182
137	0xbd2365c9	-0.03989199
138	0xbcb8f5cc	-0.022578143
139	0xbd332b31	-0.043742362
140	0x3d298307	0.041384723
141	0x3d3fbd17	0.04681119
142	0x3c41d4bf	0.011830508
143	0x3d2a954c	0.041646287
144	0xbc9340bd	-0.017975206
145	0xbd486bec	-0.048931047
146	0x3d7978cd	0.06090622
147	0xbcf0df79	-0.029403435
148	0x3d5bd619	0.053670976
149	0x3d6d08e5	0.05786981
150	0xbd42b20b	-0.047533076
151	0x3d370ea4	0.044691697
152	0xbd03e3c0	-0.03219962
153	0x3d284ca8	0.04108873
154	0xbd09411f	-0.03350937
155	0x3dad953b	0.08475729
156	0xbce9aa52	-0.028523598
157	0xbcfec490	-0.031099588
158	0x3e297db6	0.16551861
159	0xbc8a934a	-0.016915936
160	0x3d73006f	0.059326585
161	0x3d681300	0.056658745
162	0xbec7c721	-0.3901911
163	0xbe3862ab	-0.18006389
164	0xbd6adf37	-0.05734178
165	0x3d6e9b08	0.058253318
166	0x3ec96918	0.39337993
167	0x3d496c7f	0.049175736
168	0xbb8497f3	-0.004046434
169	0xbd341d51	-0.04397327
170	0xbd841fbc	-0.06451365
171	0xbd02c9e4	-0.03193082
172	0xbec9afb8	-0.39391875
173	0x3eeb5b10	0.45967913
174	0xbda7bbda	-0.08190127
175	0x3c0ec50e	0.008713974
176	0xbc4d16a4	-0.012517605
177	0xbcd888c9	-0.026432412
178	0x3e978810	0.29595995
179	0xbc81392b	-0.01577433
180	0x3cd9b06e	0.026573386
181	0x3d1db5f9	0.03850362
182	0xbd80a48b	-0.06281384
183	0x3b3a27c8	0.002840506
184	0xbe336eae	-0.1752269
185	0xba64eb31	-0.0008732556
186	0xbec15e0a	-0.3776706
187	0x3c79ecf1	0.015254245
188	0xbd8ee93a	-0.06978078
189	0xbd32c55d	-0.04364525
190	0x3d157d36	0.036496364
191	0x3a62ffd8	0.00086593395
192	0xbba9f3ab	-0.005186518
193	0xbdf88ff9	-0.121368356
194	0x3cb7b25f	0.022423921
195	0x3d03499c	0.03205262
196	0x3cc04162	0.023468677
197	0xbe7ee7f8	-0.24893177
198	0xbe82b506	-0.25528735
199	0x3c4c8664	0.012483213
200	0xba47e264	-0.00076249824
201	0xbc996c6e	-0.018728461
202	0x3d8a370e	0.06748782
203	0x3c4ae8b3	0.012384581
204	0x3c69cc8d	0.01426996
205	0x3d4053af	0.046954807
206	0xbf1f3e2e	-0.62204254
207	0xbb4f3cbe	-0.0031621899
208	0x3c2412b8	0.0100142285
209	0xbfa80730	-1.3127193
210	0xbcce5e5f	-0.025191484
211	0xbd712993	-0.05887754
212	0x3b0c4535	0.0021403555
213	0xbc15a0e8	-0.009132601
214	0xbd03157c	-0.03200291
215	0x3c08247d	0.008309481
216	0xbbdef359	-0.0068039116
217	0x3c59981e	0.0132808965
218	0xbc23d5dd	-0.009999719
219	0xbdb29348	-0.08719498
220	0xbe99c8ba	-0.30035955
221	0x3c09019d	0.008362201
222	0x3f590531	0.84773546
223	0xbcc43e07	-0.023955358
224	0xba799ff4	-0.0009522431
225	0xbc45e3b1	-0.012078212
226	0xbbb88235	-0.0056307563
227	0xbca06eca	-0.019584078
228	0x3f3badb6	0.73311937
229	0xbcae46a6	-0.021273922
230	0xbc801bb4	-0.01563821
231	0x3b69ea25	0.003569254
232	0x3cf48f8c	0.029853605
233	0x3d962666	0.07331543
234	0xbedb93f0	-0.42886305
235	0x3c53d98b	0.012930284
236	0x3cb9f58b	0.022700092
237	0x3b953c07	0.004554275
238	0xbc9f3b8b	-0.019437572
239	0x3e4b494f	0.19852184
240	0x3c18f972	0.009336816
241	0xbcb123e6	-0.021623563
242	0xbe11f9b1	-0.14255406
243	0x3d443b14	0.047907904
244	0x3dab0b39	0.0835175
245	0xbd5ea71b	-0.054358583
246	0x3d20297d	0.039102066
247	0xbcb08b27	-0.021550728
248	0xba9cfc11	-0.0011976977
249	0x39c4b76b	0.0003752069
250	0xbc0a5dbe	-0.008445201
251	0x3cd96fa5	0.026542494
252	0xbc268d22	-0.010165485
253	0xbbbcde1d	-0.0057637827
254	0xbcb27dd0	-0.021788508
255	0xbea1a13b	-0.31568322

user_age_embedding.weight f4 [5, 4]
0	0x3ed8a6b7	0.42314693
1	0x3e28ad80	0.16472435
2	0xbf96589d	-1.1745793
3	0x3f26001a	0.64843905
4	0x3f177528	0.5916314
5	0xbfc8ddbd	-1.5692669
6	0xbf10eed0	-0.566144
7	0x3eed38c6	0.46332377
8	0x3e9eb120	0.3099451
9	0xbebddf9b	-0.3708466
10	0x3dbd6c68	0.092491925
11	0xbf147373	-0.5798866
12	0x3f9be25a	1.2178452
13	0x3ede7ef3	0.4345623
14	0x3f65ba3c	0.89737296
15	0x3ec968d8	0.39337802
16	0xbe0deaa2	-0.13859037
17	0x3e78c70a	0.24294677
18	0x3f887c92	1.0663016
19	0xbf99a220	-1.2002602

user_gender_embedding.weight f4 [2, 2]
0	0x3e22d9d7	0.15903412
1	0x3eaa7cbd	0.33298293
2	0xbf972e69	-1.1811038
3	0x3e9cedd2	0.30650192

user_occupation_embedding.weight f4 [21, 8]
0	0xbd60e7d7	-0.0549086
1	0x3e227452	0.15864685
2	0xbe89f319	-0.2694328
3	0x3d9f1068	0.07766801
4	0x3e330a14	0.17484313
5	0x3d278f91	0.0409084
6	0x3f197d06	0.59956396
7	0x3ef4cc96	0.47812337
8	0xbcd8f3ba	-0.026483405
9	0xbf04831d	-0.51762563
10	0x3f056ae1	0.5211621
11	0xbe1e0b0e	-0.15433905
12	0xbf3ac274	-0.7295296
13	0x3e4ac5d7	0.19802032
14	0xbe3624b3	-0.17787437
15	0xbed47ddc	-0.41502273
16	0x3edb3d3a	0.4282015
17	0xbe40a970	-0.18814635
18	0x3f1c216f	0.60988516
19	0x3e4ee98c	0.20206279
20	0x3ee24e0c	0.4420017
21	0xbe959194	-0.2921263
22	0xbdd43a6a	-0.10362704
23	0x3eb4dd9b	0.35325322
24	0x3f8c0feb	1.0942358
25	0x3c4e32ce	0.012585355
26	0xbf41726a	-0.75565207
27	0x3f4b5d21	0.7943898
28	0x3d1eea73	0.038797807
29	0xbce33329	-0.027734356
30	0xbdfc233c	-0.12311408
31	0xbeb090db	-0.34485516
32	0x3e5c0d5b	0.2148947
33	0xbeb068dc	-0.34455
34	0xbec9dd6c	-0.39426744
35	0x3da1bd91	0.07897485
36	0x3e8df7b0	0.27728033
37	0xbebbc2e4	-0.36672127
38	0x3e01f1c5	0.12689884
39	0xbf3d12eb	-0.7385699
40	0xbf7c724b	-0.986119
41	0xbe896556	-0.26835126
42	0x3d69af0c	0.057051703
43	0xbd2ca968	-0.042153746
44	0xbe71269d	-0.23549886
45	0xbf2f1327	-0.683886
46	0x3eec4254	0.46144354
47	0xbeaf16a3	-0.34196958
48	0x3d5259f2	0.05135531
49	0xbf73a6ab	-0.9517619
50	0x3c94ce14	0.018164672
51	0x3d4f4068	0.050598532
52	0xbe311b73	-0.17295627
53	0x3dc170f8	0.09445375
54	0xbc15bf4f	-0.00913985
55	0x3e0912df	0.13386105
56	0xbc0c9297	-0.008579872
57	0x3e449f49	0.19201387
58	0xbedcf9c2	-0.431593
59	0x3ec6e730	0.38848257
60	0xbe1c992e	-0.15292808
61	0x3ddab400	0.106788635
62	0x3ea907f1	0.3301387
63	0x3f083bf7	0.532165
64	0xba76a14c	-0.00094081904
65	0xbd1dfe4e	-0.038572602
66	0x3e29f925	0.16598947
67	0xbc6124bb	-0.013741667
68	0xbca90d2a	-0.02063616
69	0xbe605b32	-0.21909788
70	0x3e20c33f	0.1569948
71	0xbc64c1c5	-0.013962214
72	0x3e374921	0.1789899
73	0x3da2ab54	0.079428345
74	0x3def060a	0.11671074
75	0xbe062dda	-0.13103428
76	0xbb8e47c9	-0.0043420536
77	0xbd5115b9	-0.051046107
78	0x3e77a91c	0.24185604
79	0x3e3ef411	0.18647791
80	0xbd2900f8	-0.04126069
81	0xbe349601	-0.17635347
82	0x3e586ccc	0.21135253
83	0xbe981ae6	-0.29708022
84	0x3ed0861f	0.40727326
85	0xbe133cac	-0.14378613
86	0xbef284a3	-0.4736682
87	0xbf030904	-0.5118563
88	0xbe3f4a26	-0.18680629
89	0x3cdf062c	0.027224623
90	0x3ecc6d81	0.39927295
91	0xbc645101	-0.013935328
92	0x3f31ef0b	0.69505376
93	0x3e222407	0.15834056
94	0xbe658dc1	-0.22417356
95	0x3eaa09c2	0.3321057
96	0x3ef4dd95	0.47825304
97	0x3eaf23fd	0.34207144
98	0x3d5712b9	0.05250809
99	0xbdeea469	-0.116524525
100	0xbd885ade	-0.066579565
101	0xbcaa3e81	-0.020781757
102	0x3ced72f0	0.02898547
103	0xbde4bb6f	-0.111685626
104	0xbd99b4ea	-0.0750521
105	0xbe11b241	-0.14228155
106	0x3e425820	0.1897893
107	0x3cf146fa	0.02945279
108	0x3de5c6a2	0.11219527
109	0x3eb02e02	0.344101
110	0xbdf5b27d	-0.119969346
111	0x3eea628b	0.45778307
112	0x3d4ffb43	0.05077673
113	0x3f11286b	0.567023
114	0x3ea57338	0.32314467
115	0xbd5a9cb9	-0.05337212
116	0xbe7d460f	-0.24733756
117	0xbeaea985	-0.34113708
118	0xbc2807d5	-0.010255774
119	0xbe60d2fb	-0.21955483
120	0x3e0c1b6a	0.13682333
121	0x3e0c9404	0.13728338
122	0xbd2fec34	-0.04294987
123	0xbd65730f	-0.05601793
124	0xbc372ad6	-0.0111796465
125	0x3f1c6f41	0.6110726
126	0x3db32537	0.087473325
127	0xbd86cc47	-0.065819316
128	0xbcad402b	-0.021148762
129	0xbcca6a4d	-0.024708891
130	0xbd9f678e	-0.07783423
131	0xbd21816c	-0.039430067
132	0xbdef4897	-0.11683767
133	0x3d313971	0.04326767
134	0xbddc5d81	-0.10760022
135	0xbb7c5aee	-0.0038506347
136	0x3e99cc94	0.30038893
137	0x3c9fa597	0.01948814
138	0xbf2d5271	-0.6770392
139	0xbe096f8c	-0.13421458
140	0x3ea6f9b4	0.32612383
141	0xbdcb1b9a	-0.09917374
142	0x3ea858db	0.3288029
143	0xbd732b97	-0.059367742
144	0x3c7944f8	0.015214197
145	0x3d0e4530	0.03473395
146	0x3e98be1f	0.2983255
147	0x3d2439ec	0.0400943
148	0x3cd95069	0.0265276
149	0xbe66771d	-0.22506376
150	0x3bf1a82c	0.007374784
151	0xbd7ceb47	-0.061747815
152	0x3e631d03	0.22179036
153	0x3d85664e	0.06513654
154	0xbf940cf7	-1.1566457
155	0xbdef6205	-0.116886176
156	0xbd3fac63	-0.04679526
157	0xbe1018b4	-0.14071923
158	0x3db8015d	0.08984635
159	0xbc8f95bc	-0.017527454
160	0xbcba6ed3	-0.022757923
161	0xbe43a1d6	-0.19104704
162	0xbcfceceb	-0.03087469
163	0xbc940e65	-0.01807327
164	0xbc47d61a	-0.012197042
165	0x3d140379	0.036136124
166	0x3bd08c3c	0.0063643735
167	0x3db4ebd8	0.08834046

user_location_embedding.weight f4 [760, 18]
0	0x3c9f4057	0.01943986
1	0xbd1fb43b	-0.03899024
2	0x3c9cc1b6	0.019135337
3	0x3d1030df	0.035202857
4	0x3d969873	0.07353296
5	0x3daf62e0	0.08563781
6	0xbd7127d6	-0.05887588
7	0x3d8dbd63	0.06920888
8	0xbc7b0823	-0.015321764
9	0x3d24f37e	0.040271275
10	0xbc00d57f	-0.007863401
11	0x3c475656	0.01216658
12	0xbd29fc0c	-0.041500136
13	0xbcf796d7	-0.030223293
14	0x3c71695a	0.01473459
15	0xbb9a3a42	-0.004706652
16	0x3e6cbaef	0.23118185
17	0x3c902408	0.017595306
18	0xbc80b0d0	-0.01570931
19	0xbc0e79c9	-0.008696028
20	0xbc16d72c	-0.009206574
21	0xbc05b315	-0.008160372
22	0xbb12ba79	-0.0022388978
23	0x3b649237	0.003487719
24	0xbbf5e449	-0.0075040204
25	0xbbce3b5d	-0.0062936977
26	0xbc09fcba	-0.008422071
27	0xbd4d17d2	-0.050071545
28	0x3d2f8caf	0.042858776
29	0x3cfae89e	0.030628499
30	0xb9c44c30	-0.00037440797
31	0xbd0fb5a9	-0.035085354
32	0x3c1f8ba2	0.009737881
33	0xbbd9b969	-0.006644417
34	0x3a8fedcc	0.0010980903
35	0xbc1b1918	-0.009466432
36	0xbb1a49bd	-0.0023542487
37	0x3b1a856f	0.0023578068
38	0xbc8b4c94	-0.017004289
39	0x3bdfeb12	0.0068334425
40	0xbd26cb08	-0.04072097
41	0xb7bf0150	-2.2769585e-05
42	0xbbfb0205	-0.007660153
43	0xbb0ee0a0	-0.0021801367
44	0x3c35127d	0.011051771
45	0x3e807b4d	0.2509407
46	0xbb0471b0	-0.0020209365
47	0x3e5db784	0.21652037
48	0x3c8448bc	0.016147964
49	0xbc99792d	-0.018734539
50	0xbc072968	-0.008249618
51	0x3fd620e8	1.6728792
52	0xbc19f611	-0.009397046
53	0xbb6a0952	-0.0035711122
54	0xbc2ad0b9	-0.01042574
55	0xbb9a4385	-0.004707756
56	0xbc8d819b	-0.017273715
57	0x3cd8b923	0.026455468
58	0xbeb7f199	-0.35926512
59	0xbe6e3192	-0.23261097
60	0x3eb34f8c	0.35021627
61	0xbbad5d30	-0.00529065
62	0x3cfe68f0	0.031055897
63	0x3dd238d9	0.10264749
64	0x3ccb9e09	0.02485563
65	0x3ead2641	0.33818248
66	0xbd9e0d4b	-0.07717379
67	0x3c6c999e	0.014440922
68	0xbd274060	-0.040832877
69	0x3acaf6ea	0.0015484963
70	0x3d152a61	0.03641737
71	0x3caeb366	0.021325778
72	0xbce79f12	-0.028274093
73	0xbddb4e5f	-0.107083075
74	0x3d10d0ba	0.035355307
75	0xbd737c7d	-0.059444893
76	0xbc0d2d1e	-0.008616714
77	0x3d1794c4	0.03700711
78	0xbcaee0c2	-0.021347407
79	0xbe95640f	-0.291779
80	0xbd026624	-0.03183569
81	0x3c2ca91d	0.010538367
82	0xbe8a6087	-0.2702677
83	0x3e1e3ab7	0.15452085
84	0xbdfab163	-0.12240865
85	0xbf097c48	-0.53705263
86	0xbca0f433	-0.019647693
87	0xbca27dc6	-0.019835364
88	0xbc8aef73	-0.016959881
89	0xbcf95e74	-0.030440547
90	0xb98a56d3	-0.000263861
91	0x3c349370	0.01102148
92	0x3cb9e7e2	0.022693578
93	0x3d67ef05	0.05662443
94	0x3d418712	0.047247954
95	0x3d234b4d	0.039866734
96	0xbc29e06f	-0.010368451
97	0xbd2200d3	-0.039551567
98	0x3ddaeede	0.106900916
99	0x3b0549e4	0.0020338232
100	0xbbcec9b3	-0.0063106655
101	0x3e228383	0.1587048
102	0x3c9f0f7b	0.019416561
103	0xbce726c3	-0.028216725
104	0x393b621c	0.00017870258
105	0xbc9fee14	-0.019522704
106	0xbcbaa537	-0.022783859
107	0x3c0b029d	0.00848451
108	0xbdfe6fab	-0.12423643
109	0xbd0ceb10	-0.03440386
110	0xbe533e00	-0.2062912
111	0x3c88688c	0.016651414
112	0x3f51b885	0.8192218
113	0xbd6daf43	-0.05802847
114	0xbcb1334c	-0.021630906
115	0x3daa8e84	0.08327964
116	0xba33b8ea	-0.00068558624
117	0x3c86b216	0.01644234
118	0xbe04e9bf	-0.12979792
119	0xbb9f9fe7	-0.0048713568
120	0xbb86b46e	-0.0041108644
121	0x3c5ef280	0.013607621
122	0x3bbfde57	0.0058553624
123	0xbc0d151c	-0.00861099
124	0xba0420b2	-0.00050402724
125	0x3cb0251f	0.021502076
126	0x3f608563	0.8770353
127	0xbd29508c	-0.04133658
128	0xbf8fa53c	-1.12223
129	0xba6f35a1	-0.0009125118
130	0xbc6dd93f	-0.014517128
131	0x3c07694e	0.008264853
132	0x39622ecd	0.00021570474
133	0xbbf27ddc	-0.0074002575
134	0x3f4913e2	0.78545964
135	0x3cf68053	0.030090487
136	0xbd193310	-0.037402213
137	0x3d22b099	0.039719198
138	0xbe9c44b4	-0.30521166
139	0x3c9d4a3b	0.019200435
140	0xbc29d63b	-0.010366018
141	0xbd1a8de9	-0.037732992
142	0x3bddc7ff	0.006768226
143	0xbeca7bb1	-0.39547494
144	0xbab67ddb	-0.0013923006
145	0xbc451a49	-0.012030193
146	0xbbf9b7a3	-0.007620768
147	0xbda3c747	-0.079969935
148	0xbc4dc94b	-0.012560199
149	0x3e17c5c4	0.14821535
150	0x3b6e08be	0.0036321129
151	0xbb03203c	-0.0020008227
152	0x3c04ccee	0.0081055
153	0xbbe23aff	-0.0069040055
154	0x3ce751cd	0.028237248
155	0x3d70087d	0.058601845
156	0x3b8d07a4	0.0043038893
157	0x3c343121	0.010998041
158	0xbb92d357	-0.00448076
159	0x3c2e26ba	0.01062935
160	0x3c442b37	0.011973194
161	0x3cc23e70	0.023711413
162	0xbb89a818	-0.0042009465
163	0x3cadb5d5	0.021204868
164	0xbcff04ab	-0.031130156
165	0x3c16ca53	0.009203511
166	0x3d2ca28e	0.04214721
167	0x3bf2b6cd	0.0074070455
168	0xbdf2e025	-0.118591584
169	0x3b54d404	0.0032475004
170	0x3d23e6d2	0.04001505
171	0x3f0bda61	0.54630095
172	0x3c5d73a5	0.013516341
173	0xba4152ee	-0.0007374723
174	0x3c17bd41	0.00926143
175	0x3c1166fe	0.008874653
176	0x3c8b2aa5	0.016988108
177	0xbc500e00	-0.01269865
178	0xbdbdd8b7	-0.09269851
179	0x3bbbb3e8	0.0057282336
180	0xbb6633c2	-0.0035126065
181	0x3d8bbc19	0.06822986
182	0xbde1ee1e	-0.110317454
183	0x3d368b89	0.044566665
184	0x3e59abbd	0.21256919
185	0x3c8010ae	0.015632953
186	0x3c3135f6	0.010816088
187	0x3f1189ae	0.5685071
188	0xbe21e8db	-0.15811484
189	0x3e2ebf02	0.17065051
190	0x3d9f969c	0.07792398
191	0xbc8b018b	-0.01696851
192	0x3cb22fe2	0.021751348
193	0xbc22fead	-0.009948415
194	0xbbd62bc0	-0.006535977
195	0x3d393df7	0.04522511
196	0x3ca39b2e	0.019971456
197	0xbf34763e	-0.70492923
198	0xbc9e52c2	-0.019326571
199	0xbe22e37c	-0.15907091
200	0x3b21c6fe	0.002468526
201	0x3c3cdb25	0.0115268575
202	0xbb5e1625	-0.003388771
203	0xbbb7ed16	-0.0056129796
204	0xbbaae679	-0.0052154628
205	0x3c7d4e0b	0.015460501
206	0x3d214cd2	0.039379902
207	0xbb920783	-0.004456462
208	0x3b5c2c3a	0.0033595697
209	0xbd91c266	-0.07117157
210	0x3ddc0310	0.107427716
211	0x3cb94dca	0.0226201
212	0x3df35970	0.11882293
213	0x3e8b5391	0.27212194
214	0xbcb296b5	-0.021800378
215	0x3e91acd2	0.28452164
216	0xbcebf4f7	-0.028803332
217	0xbebc130a	-0.36733276
218	0xbdd7c9e6	-0.10536556
219	0xbbd4de27	-0.006496209
220	0x3f53bc44	0.82709146
221	0x3f9ff9be	1.249809
222	0xbd88826f	-0.06665503
223	0x3d0359fa	0.03206823
224	0xbd6a132b	-0.057147186
225	0xbc95121c	-0.018197112
226	0xbd5f78b8	-0.054558486
227	0xbc60d79c	-0.01372328
228	0xbced35d9	-0.02895634
229	0x3d03dea9	0.032194767
230	0xbd88ba26	-0.0667613
231	0xbdb70760	-0.089369535
232	0x3cc6efe4	0.02428431
233	0xbde2a773	-0.11067095
234	0x3c6b1abd	0.014349637
235	0xbd30a29d	-0.04312383
236	0xbca57f17	-0.020202203
237	0xbaade0e1	-0.0013265872
238	0x3c5013bf	0.01270002
239	0x3c27a810	0.01023294
240	0x3c8e2bbc	0.017354839
241	0x3b93a28f	0.0045054625
242	0x3d0c7399	0.03428993
243	0x3fb4a639	1.4113227
244	0xbe6c9c84	-0.23106581
245	0xbebfb1ab	-0.37440237
246	0xbc8ea285	-0.01741148
247	0xbc8379cd	-0.01604929
248	0xbc20ebfc	-0.009821888
249	0xbc7c937d	-0.015416023
250	0x3d9de380	0.07709408
251	0xbbfc2566	-0.007694888
252	0xbe2068bf	-0.15664957
253	0x3f00e0bb	0.5034291
254	0x3d034089	0.032043967
255	0x3cc1a2c2	0.02363718

item_id_embedding.weight f4 [1600, 32]
0	0x3bb5e651	0.0055511375
1	0x3b3b743f	0.0028603224
2	0x3c56b672	0.013105022
3	0x3caff7f8	0.021480545
4	0x3dc1cd1e	0.09462951
5	0xbf157c19	-0.58392483
6	0x3cf00743	0.029300338
7	0xbaad072c	-0.001320099
8	0xb9c220f0	-0.00037027104
9	0xbb5d1e5a	-0.0033740015
10	0xbc5c410e	-0.013443245
11	0x3c028f6d	0.007968766
12	0xbc4b4ce1	-0.012408466
13	0x3c714bd4	0.0147275515
14	0xbd06c2c5	-0.03290059
15	0xbb11a977	-0.0022226253
16	0x3c3be56e	0.0114682745
17	0x3d7da69f	0.06192648
18	0xbd3cfffb	-0.04614256
19	0x3e1c15b2	0.15242651
20	0xbcb6aa77	-0.02229808
21	0x3e7627cf	0.24038623
22	0xbc7c93b7	-0.015416077
23	0x3dc83782	0.09776212
24	0x3c5ed666	0.013600921
25	0xbc2f016a	-0.0106814895
26	0x3be187c7	0.006882641
27	0x3bd156ec	0.0063885357
28	0xbc230326	-0.009949481
29	0x3b044148	0.0020180512
30	0x3d1513dc	0.036395893
31	0x3c51d90f	0.012808098
32	0xbc401e1b	-0.011725928
33	0xbdab7298	-0.083714664
34	0xbca552d4	-0.020181097
35	0x3c990dd5	0.018683353
36	0x3cc0d208	0.02353765
37	0x3c888625	0.016665528
38	0xbc622b41	-0.013804258
39	0xbbc43b76	-0.0059885336
40	0xbc6fb8bb	-0.0146314455
41	0xbcaf27aa	-0.021381218
42	0xbe58dede	-0.21178767
43	0x3cada266	0.021195602
44	0x3c073010	0.008251205
45	0xbc384f1d	-0.011249331
46	0xbb10c07a	-0.0022087381
47	0x3a11070a	0.000553236
48	0x3b9df4c6	0.004820439
49	0x3d3938c6	0.04522016
50	0x3bd25a6a	0.0064194696
51	0xbc5a9817	-0.013341925
52	0x3c98866f	0.01861879
53	0xbc0deeb9	-0.008662873
54	0xbe0921fc	-0.1339187
55	0x3c8e9f33	0.017409896
56	0xbc58b73a	-0.013227278
57	0x3bcdbfce	0.0062789684
58	0x3de9b9b2	0.11412372
59	0xbd0da7d5	-0.034583885
60	0x3ca81017	0.020515485
61	0x3a7136f8	0.00092016114
62	0x3b40fac6	0.0029446348
63	0x3bf715d9	0.0075404462
64	0xb91baa7f	-0.00014845467
65	0x3c68811b	0.014190937
66	0xbbaabce4	-0.005210506
67	0x3b2542da	0.0025216849
68	0x3c19ad76	0.009379735
69	0xbbd0cb93	-0.006371924
70	0x3ae7e4d0	0.0017692093
71	0xbc126e2b	-0.008937399
72	0x3dd2a8b8	0.10286087
73	0xbd945365	-0.07242469
74	0xbc4d2fa3	-0.0125235645
75	0x3c9e2457	0.019304438
76	0xbc11b447	-0.008893079
77	0xbb902f04	-0.004400136
78	0xbbc5a356	-0.006031434
79	0xbbe33444	-0.006933721
80	0xbb0ca3f7	-0.0021460035
81	0x3bf385fb	0.007431743
82	0xbceae27e	-0.028672453
83	0x3bddb3a1	0.006765798
84	0x3b853a9b	0.004065824
85	0xbd34a3ad	-0.044101406
86	0x3e10a7f7	0.14126574
87	0xbcbe3c53	-0.023222124
88	0xbcbd99bc	-0.023144595
89	0x3e84c3e9	0.25930718
90	0xbc193119	-0.009350085
91	0xbaa861ea	-0.0012846563
92	0x3ccaaac3	0.024739629
93	0x3eb5989a	0.35467988
94	0x3ecf935c	0.40542114
95	0xbc949c90	-0.018141061
96	0x3f0fed47	0.5622143
97	0xbc2f0a55	-0.010683616
98	0xbeba52d6	-0.36391324
99	0xbbebd318	-0.007196795
100	0x3b9d1a05	0.0047943615
101	0xbb66a4ce	-0.0035193446
102	0x39a585ca	0.00031570933
103	0xb9996026	-0.0002925407
104	0x3dd102e2	0.10205628
105	0x3b386279	0.0028134866
106	0xbbc17f72	-0.0059050852
107	0x3e0daef6	0.13836274
108	0xbdaf7989	-0.08568103
109	0x3ad7d475	0.0016466515
110	0xbb9b3d2e	-0.004737518
111	0x38b0fc7a	8.4393614e-05
112	0x3c3a82c2	0.011383714
113	0xbb2a4979	-0.0025983735
114	0x3a508eaa	0.0007955829
115	0x3ea60cbe	0.32431597
116	0xbb929854	-0.0044737253
117	0x3ac49a0f	0.0014999526
118	0xbbf1ccf7	-0.00737917
119	0x3d1252d3	0.03572352
120	0x3dffa347	0.124823146
121	0xbc3ec34e	-0.011643244
122	0x3c1ff5c9	0.00976319
123	0x3e539e6e	0.20665905
124	0xbbed6c12	-0.007245549
125	0x3c47872d	0.0121782245
126	0xbcd9f94b	-0.02660813
127	0x3c1d903b	0.009616907
128	0xbbf74b7e	-0.007546841
129	0xbd8d5195	-0.06900326
130	0xbc1c62c3	-0.009545031
131	0x3bccc333	0.0062488555
132	0xbc8331c6	-0.016014945
133	0x3eaf9f8a	0.34301406
134	0xbc658044	-0.014007632
135	0xbb809929	-0.003924508
136	0x3b9cb265	0.0047820085
137	0xbe804930	-0.25055838
138	0xbdceab6d	-0.100912906
139	0x3c927258	0.017876789
140	0x3c13e3cd	0.00902648
141	0x3c2844a6	0.010270273
142	0xbab7f7f3	-0.0014035687
143	0x3c2d67e8	0.010583855
144	0x3f4b563d	0.79428464
145	0x3c5bf976	0.013426175
146	0x3ba3a637	0.0049941796
147	0x39d77edf	0.00041102522
148	0xba078e7b	-0.00051710726
149	0xbea846b8	-0.32866454
150	0x3d00b5b3	0.031423282
151	0xbbc4931c	-0.005998982
152	0xbbe080a9	-0.006851275
153	0x3bd08d13	0.0063644736
154	0xbc22a1d0	-0.009926274
155	0x3bc402a1	0.0059817587
156	0x3c98bc50	0.018644482
157	0xbc673d99	-0.014113807
158	0xbabc6378	-0.0014372906
159	0xbadd2a50	-0.0016873572
160	0x3ba2e7a8	0.0049714632
161	0x3bb34a16	0.005471478
162	0x3ba610f6	0.00506794
163	0xbd7561b5	-0.059907634
164	0x3df129a5	0.11775521
165	0xb86fe289	-5.7193018e-05
166	0xbb034ec4	-0.0020035962
167	0xbbf37bac	-0.0074305143
168	0x3a9b944e	0.001186976
169	0xbb8a172a	-0.004214187
170	0xbc3d1a66	-0.011541938
171	0x3bda0f31	0.006654643
172	0xbc391a5b	-0.011297788
173	0x3f295f95	0.6616147
174	0x3b46efcb	0.003035533
175	0x3d5d389f	0.054009076
176	0xbb8aa56a	-0.0042311447
177	0xbbf0b630	-0.007345937
178	0x3e42f182	0.1903744
179	0x3caefb96	0.0213602
180	0x3e8d8449	0.27639988
181	0x3c52e678	0.012872331
182	0xbd70c793	-0.05878408
183	0x3bb122da	0.005405766
184	0xbc198289	-0.009369501
185	0x3ae08ccb	0.0017131803
186	0xbc8ae451	-0.016954573
187	0xbdc50e18	-0.09621829
188	0x3c284571	0.010270462
189	0x3bf9523a	0.007608679
190	0x3a2fbcaf	0.0006703836
191	0x3bbb9c70	0.005725436
192	0xbb7f8e4d	-0.003899473
193	0x3cdda1f6	0.027054768
194	0xbe62e32f	-0.22156976
195	0xbae9ac5e	-0.0017827859
196	0xb99369cf	-0.00028116858
197	0x3a891175	0.0010457473
198	0x3c487fc9	0.012237498
199	0xbc910266	-0.017701339
200	0x3ee97744	0.45598805
201	0x3bbdf7f0	0.0057973787
202	0xbc2dd4a2	-0.010609778
203	0x3b9da289	0.0048106355
204	0xbc12d6ae	-0.008962316
205	0xbb82601d	-0.0039787428
206	0xbfac1e9c	-1.3446841
207	0xbc13564d	-0.008992744
208	0x3bac0738	0.005249884
209	0xbb8ce420	-0.0042996556
210	0x3e94f951	0.29096463
211	0x3eee0e23	0.4649516
212	0xbc6a8771	-0.014314518
213	0xbe6a961e	-0.22908828
214	0xbe3ac685	-0.18239792
215	0x3c4059fe	0.011740206
216	0x3d35e538	0.044408053
217	0xbe311cea	-0.17296186
218	0x3ef0020f	0.4687657
219	0xbd6654af	-0.056233104
220	0xbbbe844f	-0.0058141123
221	0xbd453a4b	-0.048151296
222	0x3b466ae3	0.0030276112
223	0x3c293029	0.010326424
224	0xbd22f97a	-0.0397887
225	0x3ed2598c	0.41083944
226	0x3cdb1821	0.026744904
227	0xbe732cf4	-0.23747617
228	0xbca56831	-0.020191284
229	0x3a01677e	0.0004936381
230	0x39d5c7f4	0.00040775503
231	0xbc9825eb	-0.018572768
232	0xbcc8d026	-0.024513315
233	0xbc7ff832	-0.015623139
234	0x3bb69fe5	0.00557326
235	0xbbac4153	-0.0052568107
236	0x3cbfb6e3	0.023402637
237	0xbcb5cf9b	-0.02219372
238	0x3d2344e5	0.039860625
239	0x3c9a4d0d	0.018835569
240	0xbbfa3446	-0.007635626
241	0x3e83ab30	0.25716543
242	0xbcc99b87	-0.024610294
243	0xbc00f8a7	-0.007871783
244	0xbf0b293a	-0.5435978
245	0xbc1072da	-0.008816445
246	0xbc0743a3	-0.008255872
247	0x3f11f41e	0.5701312
248	0xbba807cb	-0.005127882
249	0xbd28f4ee	-0.04124921
250	0x3cb0eeff	0.021598337
251	0x3c8f0ccb	0.017462155
252	0xbc4487f5	-0.011995305
253	0x39cf57df	0.00039547586
254	0xbce45b9e	-0.027875718
255	0x3d06d128	0.03291431

item_type_embedding.weight f4 [5, 8]
0	0x3fbee2c6	1.4912956
1	0xbf707848	-0.93933535
2	0x40006e83	2.006745
3	0x3dc3f63f	0.09568452
4	0xbe03a850	-0.12857175
5	0x3f2eb9b5	0.68252116
6	0xbd423938	-0.04741785
7	0x3d5c272a	0.053748287
8	0x3f8856da	1.0651505
9	0xbf5498c8	-0.83045626
10	0x3fb3f2e6	1.4058502
11	0xbe2407bb	-0.16018574
12	0xbf67cfda	-0.9055153
13	0xbfa99a8f	-1.3250293
14	0x3f6f4667	0.934668
15	0x3f4d99b8	0.8031268
16	0x3eb0b1d6	0.34510678
17	0xbf05cf7a	-0.5226971
18	0x3dd6ea18	0.104938686
19	0xbfa53894	-1.2907891
20	0xbedf47cb	-0.4360946
21	0xbdb46dc5	-0.088099994
22	0x3e0a6b1e	0.13517424
23	0xbf54d384	-0.8313525
24	0x3f0d5e14	0.55221677
25	0xbd3832b3	-0.044970226
26	0x3f24c445	0.64361984
27	0x3e5433fb	0.20722954
28	0x3fc4318e	1.5327623
29	0x3e0714e9	0.1319157
30	0x3db347dd	0.08753941
31	0xbea07024	-0.31335557
32	0xbf224684	-0.6338885
33	0x3e1f81a9	0.15576805
34	0xbe5d9132	-0.21637419
35	0xbd8c0fb1	-0.068389304
36	0x3cf2514b	0.02957978
37	0xbcac7a94	-0.021054544
38	0x3d791e17	0.06081971
39	0xbe693921	-0.22775699

item_temperature_embedding.weight f4 [7, 8]
0	0x3c402509	0.01172758
1	0x3b519bf0	0.0031983815
2	0x3c1e9841	0.009679855
3	0xbf2cd9f7	-0.6752009
4	0xbc01555a	-0.007893885
5	0xbeb37890	-0.3505292
6	0x3ceaa8ba	0.028644908
7	0xbe711eda	-0.23546925
8	0x3e4cc7ae	0.19998047
9	0x3f0cb8ad	0.5496929
10	0xbe87605c	-0.26440704
11	0x3e09885e	0.13430926
12	0xbe8b9ed6	-0.2726962
13	0x3e93ebf1	0.28890947
14	0xbe65382b	-0.22384708
15	0xbee0e7f0	-0.43926954
16	0xbf280e1d	-0.65646535
17	0x3f81c18d	1.0137192
18	0x3f5eaf95	0.86986667
19	0xbeaad637	-0.33366558
20	0x3c60f97e	0.013731359
21	0xbcb503f6	-0.022096615
22	0xbefc93b3	-0.49331436
23	0xbe497395	-0.19672997
24	0xbf3106e5	-0.69151145
25	0x3dc27131	0.09494246
26	0xbe97202e	-0.2951674
27	0xbe779044	-0.24176127
28	0xbeea396a	-0.45746928
29	0x3c20c88a	0.009813437
30	0xbe6ae182	-0.22937587
31	0x3f72b479	0.9480663
32	0xbf1bedd4	-0.6090977
33	0xbeba965c	-0.3644284
34	0x3eb7ba57	0.35884354
35	0xbeb23ba0	-0.34811115
36	0x3d2e8955	0.04261144
37	0x3f8dcf7f	1.1078948
38	0x3ee2bc61	0.44284347
39	0x3e64957d	0.2232265
40	0x3f0239a0	0.5086918
41	0xbec90f17	-0.39269325
42	0xbeb8c351	-0.36086515
43	0xbdc63272	-0.096775904
44	0x3e7a8354	0.2446416
45	0xbf2ea98c	-0.6822746
46	0x3f8e30b1	1.110861
47	0x3fa12cfa	1.2591851
48	0xbeec3cb3	-0.4614006
49	0x3d760815	0.0600663
50	0xbf8d5c22	-1.1043742
51	0x3d46a0c4	0.04849316
52	0xbd93eca8	-0.07222873
53	0x3eb8e5a9	0.36112717
54	0x3e19b020	0.15008593
55	0xbdef9fe8	-0.117004216

item_humidity_embedding.weight f4 [6, 8]
0	0xbe911e99	-0.28343657
1	0x3e647149	0.2230884
2	0x3db868a7	0.09004336
3	0xbd7cb65c	-0.06169735
4	0xbf14d334	-0.5813477
5	0xbe0b523a	-0.13605586
6	0xbf4556ec	-0.7708576
7	0x3d8c462a	0.0684932
8	0xbf31d243	-0.6946146
9	0xbcf781ca	-0.030213255
10	0x3f026656	0.509374
11	0xbfa3c527	-1.2794541
12	0x3f1cbedb	0.6122872
13	0x3e8e6893	0.2781416
14	0x3e69e4e2	0.22841218
15	0xbe2e871b	-0.17043726
16	0xbeda7c46	-0.42672938
17	0x3de5e4b8	0.11225265
18	0x3fbbf12b	1.4682974
19	0x3ee1ef04	0.44127667
20	0x3efbab11	0.4915395
21	0xbea241a8	-0.31690717
22	0x3fa23d3a	1.2674935
23	0xbee7d9a4	-0.45283234
24	0x3f328978	0.6974101
25	0x3f424e83	0.7590105
26	0xbfd62d24	-1.6732526
27	0xbe1309d6	-0.14359221
28	0xbed4c6a4	-0.415578
29	0xbeda4249	-0.42628697
30	0x3ef2d352	0.4742685
31	0xbe8948d8	-0.26813388
32	0xbfe474cd	-1.7848145
33	0x3f3b0abf	0.7306327
34	0x3db7ad6f	0.08968627
35	0xbf59eb92	-0.85125077
36	0x3f98f7c4	1.1950612
37	0xbfa4d230	-1.2876644
38	0xbd404b3f	-0.04694676
39	0xbf002e4f	-0.5007066
40	0xbda94e6d	-0.08266912
41	0x3f1b421e	0.6064776
42	0xbe9cc0e6	-0.3061592
43	0xbeab9412	-0.33511406
44	0xbe9ac557	-0.30228683
45	0x3e81d852	0.25360352
46	0x3f527f8e	0.82225883
47	0x3ee12556	0.43973798

item_windSpeed_embedding.weight f4 [5, 8]
0	0x3f64fafe	0.89445484
1	0x3ee3fa27	0.4452679
2	0xbf76187e	-0.9613112
3	0x3e8e9b59	0.27852896
4	0x3f5824c8	0.84431124
5	0xbe171d38	-0.1475724
6	0xbf1db962	-0.61610997
7	0x3f466a4a	0.77505934
8	0x3f3921c0	0.72317123
9	0x3d054648	0.03253773
10	0xbf19f877	-0.6014475
11	0xbf7726d5	-0.9654363
12	0x3d938222	0.07202555
13	0x3e504649	0.20339312
14	0xbcb72d2e	-0.02236041
15	0xbe7dc549	-0.2478229
16	0x3dba6956	0.091021225
17	0xbec64732	-0.38726193
18	0x3f4c812e	0.7988461
19	0x3ec21de1	0.3791342
20	0xbe4830a1	-0.195498
21	0xbfbc8521	-1.4728128
22	0xbe99e564	-0.30057824
23	0x3fbde5f7	1.4835805
24	0xbeda6524	-0.4265529
25	0xbe5fad42	-0.21843436
26	0x3ed02177	0.40650532
27	0xbc68c751	-0.014207677
28	0x3ea5bff6	0.32373017
29	0x3f1bb861	0.60828215
30	0xbd78ddf6	-0.060758553
31	0xbe027ea5	-0.12743624
32	0xbd8eb1d0	-0.06967509
33	0x3f82de9b	1.0224184
34	0x3de2fb87	0.11083131
35	0xbe698a82	-0.22806743
36	0x3e987be3	0.29782018
37	0x3f1e0652	0.61728394
38	0x3f000a5c	0.5001581
39	0xbe7a79e0	-0.24460554

GCN_Layers.0.W1.weight f4 [64, 64]
0	0x3c6fb042	0.0146294255
1	0x3d0d2a2c	0.034464046
2	0x3c774523	0.015092167
3	0xbe018acd	-0.12650605
4	0x3e10d7fe	0.14144894
5	0x3da2cb9e	0.07948993
6	0x3d6a0770	0.057136
7	0x3ca214be	0.019785281
8	0xbd8b1d1a	-0.0679266
9	0x3e22be8d	0.15893002
10	0xbc023c28	-0.007948913
11	0x3d93907c	0.072052926
12	0x3d11db1c	0.03560935
13	0x3c90ff11	0.01769975
14	0xbd89a79a	-0.067214206
15	0xbd78c84d	-0.060737897
16	0xbda8e2bb	-0.082463704
17	0x3b963b37	0.0045846957
18	0xbdcf63c1	-0.101264484
19	0x3dd16ae0	0.10225463
20	0xbd0d8e42	-0.034559496
21	0x3e1d0e3f	0.15337466
22	0xbe28eefe	-0.16497418
23	0x3e231fda	0.15930119
24	0x3dab7d63	0.08373525
25	0x3daa43e8	0.08313733
26	0x3d10fedc	0.035399303
27	0xbda9182e	-0.08256565
28	0xbd955e51	-0.0729338
29	0x3c9f23a0	0.019426167
30	0xbe17df35	-0.1483124
31	0xbd918bd7	-0.071067505
32	0xbd8c6b34	-0.06856385
33	0xbdb4e501	-0.088327415
34	0xbd853232	-0.065037146
35	0xbd3d9adc	-0.046290264
36	0xbd5dd981	-0.054162506
37	0xbacb8434	-0.001552707
38	0xbd71a2f8	-0.05899331
39	0x3dc02bde	0.09383367
40	0xbd360955	-0.044442493
41	0x3df18af0	0.11794078
42	0xbd330d38	-0.04371378
43	0xbd20b5e9	-0.039235983
44	0x3db9f1e0	0.09079337
45	0x3d8c52bd	0.068517186
46	0xbd1cb414	-0.038257673
47	0x3c2c4f38	0.010516934
48	0xbda6fee6	-0.08154087
49	0xbd88418d	-0.06653128
50	0x3d510d07	0.051037814
51	0x3d251f31	0.04031295
52	0xbdcfd8e5	-0.10148791
53	0x3c31c178	0.010849349
54	0xbd18aee2	-0.037276156
55	0x3d06582c	0.03279893
56	0x3d97c36d	0.074103214
57	0x3d78c330	0.06073302
58	0xbc3a7e61	-0.01138267
59	0x3c98c241	0.018647315
60	0xbdab682f	-0.08369481
61	0xbca6242a	-0.020280916
62	0x3dd67675	0.10471813
63	0x3cc0c41e	0.023531016
64	0x3d4cfc44	0.050045267
65	0xbc0260bf	-0.007957636
66	0x3cf997ef	0.030467955
67	0xbd51ad96	-0.051190935
68	0xbcd93a60	-0.026517093
69	0x3cd4bacd	0.02596798
70	0x3dfa49ae	0.122210845
71	0x3d7fa705	0.06241514
72	0x3dd42e8f	0.10360443
73	0x3e1aad1f	0.15105103
74	0x3c59c9b8	0.013292722
75	0xbdabd7fa	-0.08390804
76	0xbd23910a	-0.039933242
77	0x3cbd9899	0.023144053
78	0xbd48f303	-0.04905988
79	0xbdac4831	-0.08412207
80	0xbdcefdce	-0.10107003
81	0xbcd7bb6b	-0.026334485
82	0x3e3bd6b4	0.18343621
83	0xbddf596a	-0.10905726
84	0xbd6839c7	-0.056695726
85	0x3d878811	0.066177495
86	0x3d30f134	0.04319878
87	0x3cd32cb1	0.025778146
88	0x3c94ddc2	0.018172149
89	0x3dc78934	0.09742966
90	0xbe156129	-0.14587845
91	0x3b0ad3c6	0.0021183356
92	0x3e194f21	0.14971592
93	0x3d054ab3	0.03254194
94	0x3c824466	0.015901756
95	0xbd1deec4	-0.038557783
96	0x3d484724	0.04889597
97	0x3d9c358c	0.07627401
98	0x3ce2ad19	0.02767043
99	0xbb9d4418	-0.004799377
100	0xbce8e959	-0.028431581
101	0xbd572c0e	-0.05253225
102	0xbdd1b2b6	-0.102391645
103	0x3c334820	0.010942489
104	0x3da3df25	0.08001546
105	0x3d0a6601	0.033788685
106	0x3cde8851	0.02716461
107	0xbd645c35	-0.055751998
108	0x3b832d43	0.0040031984
109	0x3dfa1a0f	0.122120015
110	0xbc36a20b	-0.0111470325
111	0x3a7c59c0	0.0009626411
112	0xbd03d0f7	-0.032181706
113	0x3d65c8b6	0.056099616
114	0xbccb1b61	-0.024793329
115	0xbde53f32	-0.11193694
116	0xbac17c45	-0.0014761767
117	0xbd953e69	-0.072872944
118	0xbd57b29c	-0.05266057
119	0x3dc97519	0.09836788
120	0x3daa8fe0	0.08328223
121	0xbd3b9948	-0.045800477
122	0x3dc1482f	0.09437596
123	0xbd5f5654	-0.05452569
124	0x3da7da38	0.08195919
125	0xbda84d27	-0.08217841
126	0x3d876526	0.066110894
127	0xbd845e8d	-0.06463347
128	0x3d3613fa	0.044452645
129	0x3d8e90ea	0.06961234
130	0xbc74e409	-0.014946946
131	0xbd8de303	-0.06928065
132	0xbe210269	-0.15723576
133	0x3e3e970e	0.1861231
134	0xbe61deb5	-0.22057612
135	0xbe6439d9	-0.22287692
136	0x3db1416e	0.08655058
137	0xbc12f35f	-0.008969157
138	0xbd1af15c	-0.037827834
139	0x3ddcfa91	0.10789979
140	0xbd4bf0da	-0.04979024
141	0x3d26a6be	0.04068636
142	0xbdccc532	-0.099985495
143	0xbd5e6734	-0.05429764
144	0x3e05d355	0.13068898
145	0xbdc15ada	-0.09441157
146	0xbd6370ac	-0.055527374
147	0x3d4f6eba	0.050642706
148	0xbe14396f	-0.14475034
149	0x3dfd422d	0.12366138
150	0x3d5366df	0.051611777
151	0xbd9e4369	-0.07727701
152	0x3d97a62e	0.07404743
153	0x378cab90	1.676919e-05
154	0x3e1a4521	0.15065433
155	0xbe262589	-0.16225256
156	0xbd02929d	-0.031878103
157	0xbdefdde0	-0.11712241
158	0x3db7f669	0.08982546
159	0x3e14959f	0.14510201
160	0x3da64ecc	0.08120498
161	0x3ca6760b	0.02031996
162	0xbdb91cac	-0.09038672
163	0x3ce81bcc	0.028333567
164	0xbd5d1042	-0.053970583
165	0xbcb8bcc9	-0.022550957
166	0xbcaff074	-0.021476962
167	0x3b0a3c90	0.0021093227
168	0xbcc5d224	-0.024148054
169	0x3cd1c1ff	0.0256052
170	0x3d78e143	0.0607617
171	0x3dae629b	0.08514901
172	0x3b31146f	0.0027020236
173	0x3d0a680c	0.033790633
174	0x3da5a513	0.08088126
175	0xbdb6de1d	-0.089290835
176	0x3cba9422	0.022775713
177	0x3d2d2f8c	0.042281672
178	0xbde43d50	-0.11144507
179	0xbd0f810f	-0.03503519
180	0x3cc65945	0.024212489
181	0xb9aa1bb5	-0.0003244557
182	0x3db9099c	0.09035036
183	0xbd3dd3e6	-0.04634466
184	0x3c417413	0.011807459
185	0xbdd256e0	-0.10270476
186	0xbcdc405d	-0.02688616
187	0xbd9a18f9	-0.075242944
188	0x3d686b85	0.056743164
189	0xbda3f902	-0.08006479
190	0x3d2e1dd1	0.042508904
191	0x3d16415b	0.03668342
192	0xbcf14297	-0.029450698
193	0x3bd0b8cf	0.006369687
194	0xbd14b6ce	-0.03630715
195	0xbcb2cdbc	-0.021826617
196	0xbca65d61	-0.020308198
197	0xbd8a199f	-0.06743168
198	0x3cfce2fb	0.030869951
199	0xbd121921	-0.035668496
200	0xbd731050	-0.05934173
201	0xbd9ade14	-0.07561889
202	0xbd97baf5	-0.07408706
203	0x3cbac259	0.02279775
204	0x3d82aa03	0.063800834
205	0xbddc1157	-0.10745495
206	0xbc1f327a	-0.009716624
207	0x3d8c183a	0.06840558
208	0xbd59b0e8	-0.053147227
209	0x3c8148a2	0.015781704
210	0x3de460bc	0.11151263
211	0x3d63629b	0.05551396
212	0xbdc2452a	-0.09485848
213	0x3d66ab38	0.05631563
214	0x3de349b3	0.110980414
215	0xbd13990a	-0.03603462
216	0xbd47b59a	-0.048757173
217	0x3dbf2324	0.093328744
218	0x3d942361	0.072333105
219	0x3d43ab24	0.047770634
220	0xbdee5c3c	-0.11638686
221	0xbd9543c6	-0.072883174
222	0xbddcb52f	-0.107767455
223	0x3d67f655	0.056631405
224	0x3dac873b	0.08424231
225	0x3d966f38	0.07345432
226	0xbc990a29	-0.018681603
227	0x3c0625ac	0.008187693
228	0x3c1702fe	0.009217022
229	0x3dcb5195	0.0992767
230	0x3dd49899	0.10380668
231	0xbc8fa18f	-0.017533092
232	0x3c19eeb2	0.009395288
233	0xbe06c3b4	-0.13160592
234	0xbcf34a30	-0.029698461
235	0xbdb5e651	-0.0888182
236	0xbd4dcb6c	-0.050242826
237	0x3d2282f8	0.039675683
238	0xbc9a89db	-0.018864563
239	0xbdf733f1	-0.12070454
240	0xbd3afa1e	-0.045648687
241	0xbd2a36ed	-0.041556288
242	0x3da16383	0.078803085
243	0xbdb7d8b5	-0.089768805
244	0xbddea884	-0.108719856
245	0xbbf23061	-0.007391021
246	0x3cc25348	0.023721352
247	0x3dd59bbd	0.10430095
248	0xbda6a16c	-0.081362575
249	0x3a57c218	0.00082305213
250	0xbdac881d	-0.08424399
251	0xbdc0aebd	-0.09408329
252	0x3dd54d12	0.104150906
253	0x3cbc554f	0.022989897
254	0x3db402bb	0.08789583
255	0xbd6e210f	-0.058136996

GCN_Layers.0.W1.bias f4 [64]
0	0x3d430173	0.047608804
1	0xbba721e8	-0.0051004775
2	0xbbbc18de	-0.005740269
3	0xbcba80f7	-0.022766573
4	0x3d7e53dc	0.062091693
5	0xbd833aaf	-0.064076774
6	0xba5d3794	-0.0008438763
7	0x3db34024	0.08752468
8	0x3daf4d07	0.08559614
9	0xbdbd1fbd	-0.09234569
10	0xbd6173bf	-0.055042025
11	0x3d698cc1	0.057019
12	0xbdb6d3a0	-0.08927083
13	0x3d9a4e97	0.07534521
14	0x3df28960	0.118426085
15	0xbd32d02d	-0.043655563
16	0x3d0aba34	0.033868983
17	0x3dc5112a	0.096224144
18	0x3de929c0	0.11384916
19	0x3d7cefc2	0.06175209
20	0xbd667ec9	-0.056273255
21	0xbd97384e	-0.07383786
22	0xbcaa8948	-0.020817414
23	0xbd20c90e	-0.03925424
24	0xbcc76c2d	-0.024343574
25	0x3db59fc6	0.08868365
26	0xbb94465c	-0.004524989
27	0xbd55b123	-0.052170884
28	0x3d0f78dd	0.035027374
29	0x3d9e3b7b	0.07726189
30	0xbd2d470f	-0.042304095
31	0x3dda961c	0.10673162
32	0x3cf0f31d	0.0294128
33	0xbd007c15	-0.031368334
34	0x3d12c009	0.03582767
35	0xbc83d8df	-0.016094623
36	0xbd07056f	-0.032964166
37	0xbd5b12ba	-0.053484656
38	0xbde503f2	-0.11182393
39	0x3ccc2db1	0.024924131
40	0xbcb41b69	-0.021985726
41	0x3d451fc7	0.04812601
42	0xbdde66a4	-0.10859421
43	0xbc9da4d9	-0.019243645
44	0x3d2537e1	0.040336493
45	0xbdc3178d	-0.09525976
46	0xbd177470	-0.036976278
47	0xbcecf467	-0.028925134
48	0x3df12ef4	0.11776534
49	0x3da8480f	0.08216869
50	0xbd7aa746	-0.06119468
51	0x3d7bd2b2	0.06148023
52	0xbc3df9fc	-0.011595245
53	0x3d4e14a9	0.05031267
54	0x3ac0b419	0.0014702111
55	0x3d1bb681	0.038015846
56	0xbcf983eb	-0.030458411
57	0xbd531bdb	-0.051540237
58	0xbdb47a92	-0.08812441
59	0xbd3f13ac	-0.04664962
60	0x3da51570	0.080607295
61	0xbd31f8df	-0.043450233
62	0x3cbce999	0.023060607
63	0xbceb7d03	-0.028746134

GCN_Layers.0.W2.weight f4 [64, 64]
0	0x3a939118	0.0011258451
1	0xbacf3d20	-0.0015811063
2	0x3c07403b	0.00825506
3	0x3a878cdb	0.0010341661
4	0x3bdbf843	0.0067129447
5	0x3bd664be	0.006542771
6	0xbbbf075a	-0.005829734
7	0x3b2a3cd2	0.0025976193
8	0xba9d20a3	-0.0011987876
9	0xbbe7262f	-0.0070541124
10	0xbbc0bbd2	-0.005881765
11	0x3bb0b38a	0.0053924965
12	0xbb8b91af	-0.00425931
13	0xb914e9f8	-0.0001420154
14	0x3b50d144	0.0031863013
15	0x39f54e60	0.00046788435
16	0xbb5d9500	-0.0033810735
17	0xbbc57ae4	-0.0060266126
18	0xbbe4c829	-0.0069818688
19	0x3bba43d0	0.0056843534
20	0x3b31bf9f	0.0027122272
21	0x3be9398e	0.0071174568
22	0x3ae7c0df	0.0017681381
23	0x39412cbb	0.00018422578
24	0x3bfbae57	0.007680695
25	0xbadff59d	-0.0017086748
26	0x3be5dc62	0.007014797
27	0x3acf4c7b	0.001581564
28	0x3b87ceac	0.0041445103
29	0x3bb70d75	0.005586321
30	0x3b6718bc	0.0035262546
31	0xbaa28f14	-0.001240226
32	0x3df5381e	0.11973594
33	0xbda29793	-0.07939067
34	0x3d5e130b	0.05421738
35	0xbd444858	-0.047920555
36	0xbcb8d11f	-0.022560654
37	0x3db6077e	0.08888148
38	0x3d964344	0.07337049
39	0x3d88893e	0.06666802
40	0xbd77ea30	-0.060526073
41	0xba0aae9c	-0.0005290301
42	0xbd7a7fda	-0.061157085
43	0x3d3482a9	0.04406992
44	0x3cf74ff4	0.030189492
45	0x3cb26cee	0.021780457
46	0x3d089096	0.033341013
47	0x3c281cb8	0.010260753
48	0x3d0fcd63	0.03510798
49	0xbcc26e06	-0.023734104
50	0x3d85c5b7	0.06531852
51	0x3cc02403	0.023454672
52	0xbcf2aed8	-0.029624388
53	0xbc8a9ba5	-0.01691992
54	0x3cf03cd9	0.02932589
55	0x3ccb28ca	0.024799723
56	0xb9230338	-0.0001554609
57	0xb7dfb9c0	-2.6670168e-05
58	0x3c37f82e	0.011228604
59	0xbbd5c887	-0.006524149
60	0xbc9a7cf6	-0.018858414
61	0xbc8e4cc7	-0.017370595
62	0xbd31a936	-0.043374263
63	0x3d832980	0.064044
64	0xb90893b1	-0.0001302499
65	0xbb11b328	-0.002223203
66	0x3b7c377b	0.0038485217
67	0x3b2009f4	0.0024419995
68	0x3b54592d	0.0032401786
69	0x3ad3fbe1	0.0016173088
70	0xbb8caa3f	-0.004292756
71	0x3bce168f	0.0062893103
72	0xbb55e9c4	-0.0032640556
73	0x3bddc73a	0.0067681344
74	0xbc23ea95	-0.010004659
75	0xbb1444a5	-0.0022623923
76	0xbb4d7da6	-0.003135541
77	0x3a42b416	0.00074273476
78	0xbaf73c1a	-0.0018862516
79	0xba8fa41f	-0.0010958946
80	0xbb9fafbb	-0.0048732436
81	0x3ada750a	0.001666696
82	0x3b8149d3	0.003945568
83	0xbb5392e9	-0.003228361
84	0xba4a66f4	-0.00077210297
85	0x3b1491ed	0.0022669986
86	0xbb862af1	-0.0040944745
87	0x3b388fc8	0.0028161872
88	0x3b7d4367	0.0038644911
89	0x3ba61f05	0.005069616
90	0x3bd938e8	0.006629098
91	0x3b29cc52	0.0025909138
92	0x36c13440	5.757931e-06
93	0xba803bf5	-0.0009783494
94	0xbb3183bc	-0.0027086576
95	0xb9449b21	-0.00018749807
96	0x3c9396b9	0.018016206
97	0xbda4d778	-0.0804891
98	0xbe34bed5	-0.17650922
99	0x3c22689c	0.009912636
100	0xbcea0659	-0.02856748
101	0x3b6d9810	0.0036253966
102	0xbc75d69a	-0.015004778
103	0xbbfabb2f	-0.0076517086
104	0xbd89d4db	-0.06730052
105	0x3c993059	0.018699812
106	0xbb2b673d	-0.0026154064
107	0x3cc42979	0.023945557
108	0x3d1fb4b8	0.038990706
109	0xbcea1db5	-0.028578619
110	0x3c0e39a9	0.008680739
111	0xbda53ed1	-0.08068622
112	0xbda7935a	-0.08182402
113	0xbc0813dc	-0.008305516
114	0xbc828a82	-0.015935186
115	0x3c8053d3	0.01566497
116	0x3d2a317d	0.041551102
117	0x3c39b0d2	0.011333661
118	0x3ca5debd	0.020247811
119	0xbd0c53ab	-0.03425948
120	0x3c96097d	0.018315071
121	0x3c3f2480	0.011666417
122	0x3b9b3642	0.0047366926
123	0x3d7a7194	0.061143473
124	0x3d91c8e7	0.07118397
125	0xbda95028	-0.08267242
126	0x3b156c86	0.002280028
127	0xbda0e9ef	-0.07857119
128	0xbc1331a7	-0.008984006
129	0x3bdd81db	0.0067598647
130	0xbb1be78b	-0.0023789133
131	0xbb8e5698	-0.004343819
132	0xbb47832a	-0.003044317
133	0xbbcd5711	-0.0062664826
134	0x3b1f3abd	0.0024296485
135	0xbbe6911f	-0.0070363428
136	0x3b0c17b7	0.002137644
137	0x3c1304f1	0.008973346
138	0x3c0f2951	0.008737878
139	0x3b08735d	0.0020820715
140	0xbb03ecbd	-0.002013012
141	0x3c87b9a5	0.016568014
142	0x3ac8e63d	0.0015327405
143	0x3a9dcf3e	0.0012039912
144	0x3957d3f0	0.0002058295
145	0x3b1f94ec	0.002435024
146	0x3b942e57	0.0045221257
147	0x3c252522	0.010079654
148	0x3a485f86	0.00076436286
149	0xbb3abd71	-0.0028494264
150	0xba5c9d58	-0.000841578
151	0x3b824d5c	0.003976507
152	0xbb4cd589	-0.0031255207
153	0x3b2f436e	0.0026743072
154	0xbbf3cc78	-0.007440146
155	0x3b016958	0.0019746628
156	0x3b247f11	0.0025100152
157	0xbb48f753	-0.0030664995
158	0xbac37d27	-0.0014914618
159	0xbb4050bd	-0.0029344999
160	0x3db3e530	0.087839484
161	0xbd8480db	-0.0646989
162	0x3c9f1e98	0.019423768
163	0xbdc22722	-0.0948012
164	0x3c5aa8ba	0.013345892
165	0x3da52516	0.08063714
166	0x3dd024c2	0.10163261
167	0x3d0f88e9	0.035042677
168	0x3c6c64ee	0.01442836
169	0xbc4416f4	-0.011968363
170	0x3d238bc8	0.039928228
171	0x3d81e565	0.06342582
172	0xbc5f0376	-0.013611665
173	0x3d967a40	0.07347536
174	0xbc45ca23	-0.012072119
175	0x3b1763d2	0.002310027
176	0xbd316baa	-0.043315567
177	0xbc4372a2	-0.011929186
178	0x3d25f3ab	0.040515583
179	0x3b171235	0.0023051624
180	0x3d9f4ee5	0.0777872
181	0xbc95154c	-0.018198632
182	0x3ddabebf	0.10680913
183	0x3d41f0fb	0.047348958
184	0x3df5490f	0.119768254
185	0xbd0e6500	-0.03476429
186	0x3cbb4e4c	0.022864483
187	0x3cf39f4b	0.029739043
188	0xbd478c6e	-0.04871791
189	0x3d12a3c2	0.035800703
190	0x3cf06383	0.029344326
191	0x3d140bb5	0.036143977
192	0x3b8cd891	0.0042982777
193	0x3b2547cd	0.0025219799
194	0x3bb7e076	0.0056114746
195	0x3b36830a	0.0027849101
196	0xbb6cd821	-0.0036139565
197	0x3c99c216	0.018769305
198	0xbba2e567	-0.0049711945
199	0x3a1ef5d3	0.00060638523
200	0xbb1022ff	-0.0021993516
201	0xbbab67c0	-0.005230874
202	0xbbd33e99	-0.006446671
203	0x3b7959e6	0.0038047968
204	0x3b1f5226	0.002431044
205	0xbc2ab025	-0.010417973
206	0x3b1c139a	0.0023815394
207	0xbbd5e1c3	-0.006527157
208	0x3aa6f3ff	0.0012737511
209	0xbb28e6cc	-0.0025772331
210	0xbb5dc5ad	-0.0033839748
211	0x3b1003f1	0.0021975006
212	0x3be70d4d	0.007051146
213	0x39df5cfe	0.0004260316
214	0x3b2006ed	0.002441819
215	0xba1ab781	-0.0005901978
216	0x3b25dba3	0.0025307916
217	0xba95be6c	-0.0011424548
218	0xba54d76a	-0.00081192574
219	0xba948f55	-0.001133422
220	0x3beb503e	0.0071811965
221	0x3b3ce805	0.0028824818
222	0xba0c5120	-0.0005352665
223	0xbbafb0a0	-0.0053616315
224	0xbcefbe1a	-0.029265452
225	0xbd7cc3fa	-0.061710335
226	0x3c55afb0	0.013042375
227	0xbd364a8c	-0.044504687
228	0xbc42ff20	-0.011901647
229	0xbcee2580	-0.029070616
230	0x3c97196d	0.018444741
231	0xbd9a99e0	-0.075488806
232	0xbd6995ee	-0.05702775
233	0xbc5b308c	-0.013378274
234	0xbce81fbc	-0.028335445
235	0x3d0c04db	0.034184318
236	0x3b0632cb	0.0020477052
237	0xbcd562b6	-0.026048046
238	0x3cdcb869	0.026943402
239	0xbdac5e70	-0.0841645
240	0xbc6e06e1	-0.014528007
241	0xbd29f3b8	-0.041492194
242	0xb9f71180	-0.0004712455
243	0xbde92134	-0.11383286
244	0xbb4bdb51	-0.0031106065
245	0x3c98e7cb	0.018665215
246	0x3d45ca3a	0.04828856
247	0xbc94a354	-0.018144287
248	0xbcc7035f	-0.0242936
249	0x3cb77566	0.022394847
250	0x3bcc68e4	0.00623809
251	0x3c3ffdc5	0.011718218
252	0x3d4a6267	0.04941025
253	0xbc1c6f4f	-0.009548022
254	0xbc8d0eb2	-0.017218921
255	0xbde5cac4	-0.11220315

GCN_Layers.0.W2.bias f4 [64]
0	0xbd4a0f0d	-0.04933076
1	0xbd242222	-0.040071614
2	0xbdd98312	-0.10620703
3	0x3da4f8fb	0.08055302
4	0x3c9d7fb4	0.019225933
5	0x39abf21e	0.00032796053
6	0xbded15cd	-0.11576424
7	0xbd36bbd3	-0.044612717
8	0xbccc1b28	-0.024915293
9	0x38b1eec4	8.484491e-05
10	0xbd4d9f69	-0.050200853
11	0xbd872000	-0.065979004
12	0x3db5fd17	0.08886164
13	0x3cf472f0	0.029839963
14	0xbb97fc24	-0.004638212
15	0xbb7a2a2b	-0.0038172107
16	0xbc61a0da	-0.01377126
17	0xbda5dd83	-0.08098891
18	0xbd3db181	-0.04631186
19	0xbc5b0c9c	-0.0133697055
20	0x3dc736ff	0.097272865
21	0xbde7a3fc	-0.113105744
22	0x3dc37a60	0.095448256
23	0x3d7fe421	0.06247342
24	0x3ded24ae	0.11579262
25	0xbcf4994d	-0.029858256
26	0x3d9d4788	0.07679659
27	0xbd37fd7b	-0.044919472
28	0xbc1d7ddf	-0.00961253
29	0x3d2f0263	0.042726886
30	0x3c8280ff	0.01593065
31	0x3d183619	0.037160967
32	0xbda8f9e9	-0.082507916
33	0xbc3150ad	-0.010822457
34	0x3b9817d6	0.0046415133
35	0x3dad342e	0.08457218
36	0xbd8560f5	-0.06512634
37	0x3d54864c	0.051885888
38	0x3df38d7d	0.11892221
39	0xbbfda29e	-0.0077403327
40	0xbdda5b61	-0.106619604
41	0xbb5ad12b	-0.0033388834
42	0xbd982749	-0.07429368
43	0x3db36c15	0.087608494
44	0x3d33569e	0.043783776
45	0x3c6c4832	0.01442151
46	0xbbead07f	-0.007165968
47	0xbac3f098	-0.0014949022
48	0xbd7486fc	-0.059699044
49	0xbdb01d31	-0.08599318
50	0x3dc3cdb8	0.09560722
51	0x3ca2229b	0.019791892
52	0xbcce3737	-0.025172813
53	0xbd5f2665	-0.054479975
54	0x3d570157	0.052491512
55	0x3d6084c5	0.05481412
56	0xbc389ad2	-0.011267381
57	0x3e039c30	0.1285255
58	0x3d8a3b46	0.06749587
59	0xbab5e782	-0.0013878199
60	0xbdd4839e	-0.103766665
61	0x3d82b47b	0.0638208
62	0x3b6183fa	0.003441094
63	0xbce4e104	-0.027939327
