lab4-student/code/model/bestModelParms-11-14-11-30.pth (torch, 498345 bytes, 20 tensors)

user_id_embedding.weight f4 [900, 32]
00000000: f7bb c63e 3f59 26bc 8e95 54bd 0155 07bc
00000010: 6991 90bb fb1c 98bc bf27 62be e1fc c1bb
00000020: 47ba f7bc d0af a03c 9fa4 ab3c 1be2 34bc
00000030: 1f5f d6bc f436 313b 350f aebd 23f9 a4bd
00000040: a480 e6be 3848 81bb 991c f3bc 4f92 22bd
00000050: 3ba6 5b3c b079 6bbc eaaf 66bc fcd7 40be
00000060: 625f 60bb 594e 2cbd 687f 96bd d84e c1bc
00000070: 9e96 5fbc 7a2c f03b fa6c 86bc 694a 9bbc
00000080: c8e3 953c 6cfa 9e3d 5235 b8b9 aa7c 2e3d
00000090: de5c 323c c64a 8bbd f4b6 6dbc 9457 1b3b
000000a0: c5e5 bc3c fff5 c03c 3034 593d 6e0d bfbc
000000b0: 8c34 503c 35ab a8bc 9f34 ccbc 1088 c03c
000000c0: 507c cfbc a6e5 c1bb d9c6 a43b 20c7 debc
000000d0: 0180 89bc c661 013d 7e43 3abc 02e1 ca3e
000000e0: 581b 36bf 1d17 523e 3033 ccbd 92be 1b3d
000000f0: ff2c ccba cd85 d13e c4c4 583c 0427 a03b
00000100: 8b28 2c3c f614 41bc 1222 a9b9 53ea 9bbb
00000110: 0e39 003d a7df 4b3d 561a d73a 40c0 213c
00000120: b9cb 2b3e ce59 8e3c 921b 81bc 8d47 25bd
00000130: 5258 98be 7056 41bc 35f6 a1bc daf4 4abb
00000140: f4b6 673c c318 50bb 4a54 78be a3c0 163b
00000150: 64fa 173d cc8e 503c ef80 8bbd 5b94 893b
00000160: 8426 ffb8 a0eb bd3d 15b1 d1b9 123e c13b
00000170: 819b c8bc f407 b9bc b409 a3ba e951 9abd
00000180: 51aa 3f3e ac83 293d 9705 f33c c2d5 a63c
00000190: f937 1e3e 4e0c cebb 37e0 f03b 906e 16bd
000001a0: 2123 f5bd e294 0ebd 700c 8a3d 0558 1f3d
000001b0: 9b72 063d 7bf3 223b 1e55 aebc 01a7 213c
000001c0: a371 43bc 24e3 d03c 405d 0dbc 6e73 883c
000001d0: 0378 9ebc 97f4 bebc 13b6 763c 7c6d 8c3b
000001e0: 6d4b bfba f87a 5d3b a819 c8bb 1342 693e
000001f0: ee28 9dba 03b2 853c 6fc9 55bc f864 633c
00000200: 86b8 aa3c 7021 2fbc 8c16 2c3b 0fd8 ae39
00000210: 1736 46bc 5b48 833e c2e4 3d3e cb0e be3b
00000220: 3e65 3d3d f09f 79bd dc8e 5fbb 9a46 bdbd
00000230: 9dc5 873c f396 7c3c be0b 793d 0753 563c
00000240: b6b4 3d3d 812f 02bd 8d4a 9a3c 0796 d7bc
00000250: 4ed0 153d 1469 813c ed28 a8bc 2d52 9c3c
00000260: 1563 763c 5c0d 113d 8a6f 40bd bcf7 da3d
00000270: eec6 b73b 72cb 0d3b 0c6a 1e3e 5a2f 953c
00000280: 2100 823d 52d2 f7bb 67c2 ccbe 0733 37be
00000290: 9985 8bbd 8e07 403c 40bb e13e 48de 333d
000002a0: aa78 c5bc 5ef1 bcbd d176 13be 664d abbd
000002b0: 03c1 e8be 11c7 f73e 9200 dbbd 10f8 76bc
000002c0: 8967 8bbc 72c6 41bc 3083 973e 8be1 8cbc
000002d0: 7740 553d 3f5e 4b3c da00 6abc 3212 653c
000002e0: 8859 41be 912a 27bd d641 c7be 98e0 69bd
000002f0: bf85 3cbd f88c d0bc 51aa 823d 5294 c7bc
00000300: 5743 b13b c332 ebbd 338e d43c 0df2 223d
00000310: 685f 733d cf67 a5be 5188 9ebe e74f 483d
00000320: eed7 6dbd 7f3b 5fba 4196 b43d da08 4f3d
00000330: e463 5f3d a95a 1e3d dcdc 32bf 420d 4bbc
00000340: e48d 84bc 6a41 b0bf e710 a3bc f806 90bd
00000350: 468d 9dbb e3fc 763c 880b b7bd 60af 0c3d
00000360: 08f7 d6bc 10aa 653d cf2f ea3a 2864 00be
00000370: fc83 b1be e3bb 8c3b 283b 663f b4f2 31bc
00000380: f0d8 273c f414 4539 4fb8 523b f576 11bb
00000390: 6403 3c3f ec06 c3bc 0c7f 3b3c 0ac7 84bb
000003a0: 824e f83c 26c8 503d 27bb d6be 54f9 c63c
000003b0: d4d9 28bc bd2d 5a3b 8cd1 c63b 4673 2b3e
000003c0: 1126 2abc b906 91bc 5dde f4bd 8dfb a3ba
000003d0: b8a4 003e 5440 2ebd 279b 6c3d 685a c73c
000003e0: 15f3 8bbb fa3c 333c bd2c 98bb 36ce 723c
000003f0: 14cb 0e3a d550 093c fb36 b53c a999 9dbe
0.3881528 -0.010153114 -0.05190044 -0.008260013 -0.0044118655 -0.018568506 -0.22085474 -0.005920038
-0.030240191 0.019615084 0.02095252 -0.011040236 -0.026168404 0.0027040811 -0.08498994 -0.080553316
-0.4502002 -0.0039453767 -0.029676722 -0.039690312 0.013406332 -0.014372274 -0.014080027 -0.18832392
-0.003423654 -0.042066906 -0.073485196 -0.023597166 -0.01364675 0.007329521 -0.016409386 -0.01895638
0.018297091 0.07762608 -0.00035134942 0.042599358 0.010886399 -0.06801371 -0.014508951 0.0023703324
0.023058781 0.0235548 0.053028286 -0.023321833 0.012707841 -0.02058945 -0.024927435 0.02350238
-0.025327832 -0.005917269 0.0050285873 -0.02719456 -0.01678467 0.031587385 -0.01136863 0.39624792
-0.71135473 0.2051663 -0.09970701 0.03802354 -0.0015577375 0.40922394 0.013230506 0.0048874635
0.010507713 -0.011784783 -0.00032259576 -0.0047581582 0.03130441 0.04977384 0.0016411047 0.009872496
0.16776933 0.017376807 -0.015760217 -0.04035144 -0.29754883 -0.011800393 -0.019770721 -0.0030968697
0.0141427405 -0.003175304 -0.24250904 0.0023003004 0.037104025 0.012729358 -0.068117015 0.0041985936
-0.000121665216 0.092734575 -0.00039995523 0.005897292 -0.024488213 -0.0225868 -0.0012438805 -0.07535154
0.18717314 0.041385338 0.029665751 0.0203656 0.1545104 -0.006288088 0.0073509472 -0.036726534
-0.11969591 -0.034809954 0.067406535 0.0389023 0.03282414 0.0024864364 -0.021280821 0.009866477
-0.011928949 0.025498934 -0.00862819 0.016656604 -0.019344335 -0.023309989 0.015058058 0.0042855125
-0.0014594622 0.003379522 -0.006106574 0.22779112 -0.0011990347 0.016320234 -0.013048514 0.013879053
0.02083994 -0.010689124 0.0026258556 0.00033348842 -0.012097857 0.2564114 0.18544295 0.0058001033
0.04623913 -0.060943544 -0.003411225 -0.09241982 0.016573722 0.0154168485 0.060802214 0.013081319
0.046314918 -0.031783585 0.018834377 -0.026316656 0.036575608 0.015797175 -0.020527327 0.019082153
0.015038271 0.03541313 -0.046981372 0.10691783 0.005608431 0.0021636155 0.15470141 0.018211056
0.06347681 -0.007562914 -0.39992067 -0.17890559 -0.06812591 0.011720551 0.44088173 0.043913156
-0.024105389 -0.09225725 -0.14400794 -0.08364372 -0.45459756 0.48394063 -0.10693468 -0.015073791
-0.017017143 -0.011827098 0.29592276 -0.017197391 0.05206343 0.012412607 -0.01428243 0.013981389
-0.1888181 -0.04081208 -0.38917416 -0.057098955 -0.046025988 -0.025457844 0.063801415 -0.024362717
0.005409639 -0.114842914 0.025946712 0.03978162 0.05941716 -0.32305762 -0.30963376 0.048904326
-0.058067255 -0.00085156405 0.08817721 0.05054555 0.054538622 0.03866068 -0.69868255 -0.012393298
-0.01618094 -1.3769963 -0.01990552 -0.07032579 -0.004808101 0.015074941 -0.08937746 0.034346938
-0.02624084 0.056070387 0.0017867031 -0.12538207 -0.3467101 0.004294859 0.89934015 -0.010861088
0.010244593 0.0001879519 0.0032153314 -0.0022196148 0.73442674 -0.023807012 0.011443865 -0.0040520476
0.030310873 0.050972126 -0.4193966 0.02428881 -0.0103058405 0.0033291422 0.0060674604 0.16743192
-0.010385052 -0.0177034 -0.11956475 -0.0012510881 0.12562835 -0.042541817 0.057765152 0.024335101
-0.004270921 0.010939831 -0.004644005 0.014819672 0.0005447131 0.008381088 0.022120943 -0.30781296

user_age_embedding.weight f4 [5, 4]
00000000: 7a19 3e3f 6b8b 0d3c cfaa a0bf 4063 4c3f
00000010: ebe4 0e3f ded9 c5bf e491 17bf c3c8 f03e
00000020: d381 a93e 3e72 fabe bff9 5a3e 8877 24bf
00000030: 9b9f 8b3f ef2c 273f d2c5 123f 6c40 2a3e
00000040: ca12 a0bd 755c ce3e ce61 4d3f e3d1 9ebf
0.74257624 0.008639197 -1.2552127 0.79838943 0.5581805 -1.5457113 -0.59206986 0.4702817
0.3310686 -0.48915285 0.21384333 -0.6424489 1.0908083 0.6530294 0.573331 0.16626137
-0.07816084 0.40304914 0.80227363 -1.2407802

user_gender_embedding.weight f4 [2, 2]
00000000: 0f4d 35be 9e97 3a3e e18f 6dbf 2682 1a3f
-0.17705177 0.182219 -0.92797667 0.6035484

user_occupation_embedding.weight f4 [21, 8]
00000000: 384d 023d 7cdd 813e 85d5 31be 876b 9f3d
00000010: b0d6 ec3d a255 b03c 165c 3a3f 3780 b63e
00000020: 2a5b 993d ac9b 5cbf ac58 ba3e cc06 e5bd
00000030: cf53 27bf 5ce1 333e 4c6b 06be 8eaa 85be
00000040: 35c9 ae3e a447 b6be c25d fe3e 9b49 43bc
00000050: dcb8 8d3e 967b aebe 16b5 6fbe 0bb4 0c3e
00000060: f4b2 9a3f c69a a1bc 66fa 41bf 1b0e 7b3f
00000070: d78b 3e3d 54c9 0abe 2f5a 29be dba1 cfbe
00000080: 6bba 7e3e 5cc8 2cbf 5cb2 a1be d994 603e
00000090: cc14 b13d 029e 07bf bfeb 4c3e c8e7 0fbf
000000a0: 5567 87bf 4960 81be d479 3f3d 113f d33d
000000b0: 669f 28be 19a1 72bf afcb 0d3f 5c0d 90be
000000c0: 76a6 783c 80b2 81bf c033 853d 8b65 f03c
000000d0: b710 9abd a05f 8a3e c06a 123d 518b a63d
000000e0: ecc5 bdbd f1e7 383e ba00 a0be 33bf dc3e
000000f0: a2b8 b0be 840a d13d d864 983e b164 ed3e
00000100: be8a 713d 7530 5abe 209b 6c3e ab5c ad3d
00000110: 9c1b bb3c 3ba3 8dbe 5541 7f3e 3031 093d
00000120: 1fa3 543e ceb7 54bd 0d46 cc3d 5df0 24be
00000130: 5701 02be c634 32be aac5 693e 668d 573e
00000140: e0f5 e8bd ed48 cabe 3a99 303d 61c4 d6be
00000150: 6793 8f3e 720a 7cbe 9696 0abf fefc c9be
00000160: 3c75 74be 9adb 4bbe fb61 e63e 8897 d0bd
00000170: 9da9 f33e 392b 533c f99e b8be 9cc5 673e
00000180: 6b06 0a3f 49d3 bf3e 1330 ab3c e3d1 e5bd
00000190: 77d2 97bd 7ee0 e9bc 089b 333d 56a2 d8bd
000001a0: e4c4 253a 9f9c bebe 713e 953e 1c0e c13b
000001b0: c4f8 ed3d de5f cf3e 4c38 13bd edd7 ad3e
000001c0: 870a 1f3d 37e6 c93e dc19 8b3e 3838 ecbd
000001d0: ce97 66be 853f fabe 579f 9d3d 0da3 21bd
000001e0: 1cbf 313e d1ad 473e 591f 22be a599 f1bd
000001f0: f438 54bd ff61 263f 4e47 d93d ba4d 0d3d
00000200: 92a6 b03a 8c1e 4d3d 3778 4cbe fb9b 8e3d
00000210: 372f 1cbe cdef a23d 704b 103e 4344 e63d
00000220: 925a d63e 0387 bdbc f48d 4cbf 19a1 29be
00000230: bf15 d43e b05d 39be 3520 033f a5fc 2abe
00000240: f943 58bc eeab b73c 373b b33e a172 7e3d
00000250: 897d 3ebc b6b1 89be a859 3a3c 1542 c4bd
00000260: 030e 683e e1c4 063e 3fd7 99bf 2fd3 cabd
00000270: afc8 293d 2565 14be 88dc 623e 3540 d6bd
00000280: 0b5b 6bbd e77a 71be b418 cb3c 713e ad3c
00000290: 4d46 3dbc dec6 02bc fa04 5bbc 5d75 cd3d
0.031811923 0.25364292 -0.17366607 0.07784181 0.11564386 0.021525208 0.7279676 0.35644695
0.07488091 -0.86175036 0.36395776 -0.11182937 -0.65362257 0.17566437 -0.13126868 -0.26106685
0.34137884 -0.35601532 0.49680907 -0.011919404 0.276801 -0.34078664 -0.23408923 0.13740556
1.2085862 -0.019727122 -0.757727 0.980684 0.04652008 -0.13553363 -0.16538309 -0.40553173
0.248758 -0.67493224 -0.3158139 0.21931781 0.08646545 -0.52975476 0.20011805 -0.56213045
-1.057841 -0.25268772 0.046747044 0.10314763 -0.16467056 -0.94777066 0.5538892 -0.28135192
0.015176406 -1.0132599 0.06504011 0.029345294 -0.07522719 0.2702608 0.035746336 0.08132041
-0.09266266 0.18057229 -0.31250554 0.43114623 -0.34515864 0.10207084 0.29764438 0.46365884
0.058970205 -0.21307547 0.2310605 0.08464941 0.022840314 -0.27663597 0.24927266 0.033494174
0.20765351 -0.051933102 0.099742986 -0.16107316 -0.12695824 -0.17402944 0.22829309 0.21050033
-0.11375022 -0.39508763 0.04311488 -0.419467 0.28042147 -0.2461336 -0.54136026 -0.3945083
-0.23872846 -0.1990799 0.44996628 -0.10185152 0.47590342 0.012888723 -0.36058787 0.22633976
0.53916043 0.37465885 0.020896947 -0.11221673 -0.0741319 -0.028549429 0.04384902 -0.10577838
0.00063235895 -0.37228867 0.29149202 0.0058915745 0.11619714 0.40502828 -0.03594236 0.339538
0.0388284 0.39433452 0.27168167 -0.115341604 -0.22518846 -0.48876587 0.07696407 -0.039462138
0.17358059 0.194999 -0.1583227 -0.117968835 -0.051812127 0.6499328 0.106093034 0.034497954
0.0013477376 0.05007796 -0.19967733 0.06963345 -0.15252386 0.079558946 0.14091277 0.11243489
0.41865975 -0.023135668 -0.79904103 -0.1656536 0.4142284 -0.18102145 0.5122102 -0.16697939
-0.0131998 0.02242085 0.35006115 0.062121037 -0.01162661 -0.26893395 0.011373915 -0.09582917
0.22661595 0.13161041 -1.2018813 -0.09903561 0.041451152 -0.14491709 0.22154438 -0.10461465
-0.057459872 -0.2358204 0.024792053 0.021147938 -0.011552406 -0.007981984 -0.013367886 0.10032151

user_location_embedding.weight f4 [760, 18]
00000000: 8efe 303b e430 78bc 7eeb afbc 48a5 48bd
00000010: c9c6 dd3d fc27 de3d d695 07bb 4c23 e83d
00000020: c655 2fbd cac0 443c 94ba a7bc 2bbf 9dbc
00000030: 8e4f 6fbd 2d1a cdbc ca64 d33c 50f4 b1bb
00000040: 2374 663e 0840 b5bb 96a8 24bc 5193 633b
00000050: f930 0f3c 8d79 ccbc 3255 67bb c0f7 013d
00000060: 81e0 933b 8d8f e23c bbc0 f9ba 3ec2 4abd
00000070: dddd 4c3d 2c3f b73c d198 993b 3b80 28bd
00000080: d7bc 573c fd22 54bb 2026 f03c b663 4fbc
00000090: ddc8 aa3b 5ad3 eb3c 2de4 ac3b 7292 6a3c
000000a0: b1a8 34bd 48ab 913c 6012 5dbc 83ce 573b
000000b0: 3ab5 d9bb 088b 8c3e 9bd1 343c ec7d 583e
000000c0: d3ef 8ebb 2611 3bba c1d0 c93b 748f d63f
000000d0: 2e96 d23b 1b1f 153b d8da 5abc d8e0 763c
000000e0: 25c3 b83b 20cb 833c 7b92 adbe 9182 55be
000000f0: 2b1d b23e b67f c03c 3e75 063c 937c c03d
00000100: 9563 373a 1eeb b33e 12a3 ccbd 5385 8bbc
00000110: 5ea0 09bd acfd 43bb 2a2e 673c eb4a 163d
00000120: ea33 fdbc 4923 b93c 3278 9fbc 0efb 3abd
00000130: 36e7 25bd 8c40 3c3d 2cd7 093b cbba 8fbe
00000140: bad9 25bc e787 663d 0a4f 6fbe f5a4 193e
00000150: 21d3 e4bd fc36 0abf 2187 84bc 1505 f7bb
00000160: 23b3 583d 91b4 b33c c2d1 01bd 642a 9f3b
00000170: 813f 46bc 2956 303d fcc3 a03b 2180 833d
00000180: 5980 3b3d 8d3b 90bd 4be9 ce3d 80d8 873c
00000190: e3fa 023b 7e68 e13d d89f 99bc 8d57 2f3c
000001a0: acc7 fa3b c487 5fbc 9b5e fbbc db0c 753c
000001b0: 6e38 44be 56d4 c6bd 8eb5 8bbe 2bb5 ed3c
000001c0: fb20 673f 3aea 22be 1f33 1b3c bf03 613d
000001d0: 092e 9bbd 64ae 513d 822d 57be 7f15 963a
000001e0: d56e 11bd 950e 40bc ad5e 323c ec34 9dbc
000001f0: adf4 16bd b8b3 de3c b12a 613f e9ab f6bb
00000200: ca7a 90bf 9915 bb3c da74 22bc a1a8 00bc
00000210: 63ea 14bc 09f8 f53b 0899 4d3f 4dfe 8a3c
00000220: ebce 65bc 5307 923c a166 94be 84e8 1539
00000230: 7106 c3bb e10f 2abc d0f6 773c 5c4d c3be
00000240: 7afb 46ba 4a51 9ebc 1eba 61bc 4689 9cbd
00000250: e61d 03bd 53b0 1c3e d412 f83b 84dd ca3a
00000260: 0413 f83c 3b8a edbb a501 813c d212 5a3d
00000270: f028 b7bb c94d 7c3c d829 aabb 91f3 b4bb
00000280: a366 3cbb a4b0 bc3c fd33 22bc d317 04bc
00000290: 39d5 bbbc 6688 c7bc bbde 903d 660c a33c
000002a0: f17e e2bd 643f 96bb b535 753d 17bc 0c3f
000002b0: d249 99ba 45fc debb fe2b 86bc e8b2 b43b
000002c0: 04fa 31bb fdc9 69bb 9d79 e6bd b9a4 e4bb
000002d0: a582 8abb 56ba bd3d 85cb dcbd 5c82 823d
000002e0: 2dbc 5f3e f65b 2f3d 8c8c 62b9 009d 133f
000002f0: 5737 40be 34da 483e ffa8 ad3d d4ec d4bb
00000300: 5898 a13c 44d1 73bc 1fbd 1bbd 5677 943d
00000310: 5669 413c 2186 37bf 2341 b6bc 8bb3 34be
00000320: 4895 c23b c239 593d f3f4 5a3b 6252 98bb
00000330: e8d8 103c a154 1cbd c157 503d 100f 39bd
00000340: dc45 a3bb 78f7 55bd b325 013e 62a3 da3c
00000350: c9ff 023e 15c0 993e 9037 acbc a2e1 993e
00000360: 73c5 65bd 017f d9be a88d 65be 40b3 bd3c
00000370: bb28 693f 7656 a03f 0c78 4dbe 3792 8a3c
00000380: 4410 a7bd 6dec b2bd 3fee 9fbd e6eb 72bd
00000390: 18f8 f2bc c90a 5b3d 0023 87bd 75e3 30be
000003a0: 4d57 163c 55ce 23be 73cc 6cbc a31f 31bd
000003b0: 80fc 943c d4e7 ecbb 650d 883c 91c4 303d
000003c0: b0af c73c c7ca 9a3c d7f1 653b 9951 b53f
000003d0: 6fac 75be efec bcbe b759 753d 8222 eebc
000003e0: dde0 f2bc 6f90 45bc 9ac2 ba3d 7592 163c
000003f0: 1657 02be 96e2 113f 342a 65bd c166 843c
0.0027007195 -0.015148375 -0.021474596 -0.04898575 0.10828931 0.1084747 -0.0020688674 0.11334857
-0.04280641 0.012008855 -0.02047471 -0.019256195 -0.05842548 -0.025036896 0.025804896 -0.0054307356
0.2250524 -0.0055313148 -0.01004996 0.0034725259 0.008739703 -0.024960304 -0.0035298583 0.031730413
0.004512847 0.027656341 -0.001905463 -0.04950165 0.050016273 0.02236899 0.0046874066 -0.041137915
0.0131675815 -0.0032369487 0.029315054 -0.01265805 0.005211933 0.028787304 0.005276224 0.014317142
-0.04410619 0.017781869 -0.0134931505 0.0032929487 -0.0066439183 0.27449822 0.011036302 0.21141785
-0.0043620854 -0.0007136039 0.0061589186 1.6762528 0.006426594 0.0022754136 -0.0133578405 0.015068255
0.0056384974 0.016088068 -0.33900818 -0.20850588 0.34787878 0.023498397 0.008206664 0.09398761
0.0006995735 0.35140318 -0.09992041 -0.017031347 -0.033600204 -0.002990584 0.014110127 0.03669254
-0.030908544 0.022599833 -0.019466493 -0.04564958 -0.040503703 0.045959994 0.0021032793 -0.280722
-0.010122711 0.05628195 -0.23369995 0.15004332 -0.11173082 -0.5399015 -0.016177716 -0.0075384476
0.052905213 0.021936687 -0.03169418 0.0048573483 -0.012100101 0.04305092 0.0049061757 0.06420923
0.0457767 -0.070426084 0.10103091 0.016582727 0.0019985966 0.110062584 -0.018752977 0.010702026
0.0076531973 -0.013643209 -0.03068476 0.014956678 -0.19162151 -0.097084686 -0.27286953 0.029017052
0.902847 -0.15909663 0.009472637 0.054935213 -0.0757714 0.051191702 -0.21013454 0.0011450498
-0.03550609 -0.011722227 0.01088683 -0.019190274 -0.036854435 0.027185306 0.87955767 -0.0075278175
-1.1287472 0.022837447 -0.009915555 -0.007852704 -0.009089085 0.0075063747 0.8031163 0.016966963
-0.014026384 0.017825758 -0.2898455 0.00014296366 -0.0059516956 -0.010379762 0.015134528 -0.38144958
-0.00075905735 -0.019325871 -0.013777284 -0.0764337 -0.032010935 0.15301637 0.007570604 0.0015477394
0.030282505 -0.0072491444 0.015747854 0.053240605 -0.005589597 0.015399405 -0.0051929764 -0.0055221994
-0.00287477 0.023033448 -0.00990009 -0.008062321 -0.02292882 -0.024357032 0.070737325 0.019903373
-0.110593684 -0.0045851935 0.059865672 0.549745 -0.0011694974 -0.006804975 -0.016378399 0.0055144913
-0.0027157078 -0.0035673373 -0.11253665 -0.0069776443 -0.004227 0.092640564 -0.10781006 0.0637252
0.21849127 0.04281231 -0.00021605397 0.5766144 -0.1877111 0.19614488 0.08479499 -0.0064979587
0.019725963 -0.014881436 -0.038022157 0.07249324 0.011804899 -0.7168904 -0.022247856 -0.17646615
0.005938206 0.053033598 0.0033410161 -0.0046484927 0.008840777 -0.038166646 0.05086494 -0.04518038
-0.004982693 -0.052237958 0.12612037 0.026689235 0.12792887 0.3002936 -0.021022588 0.30054957
-0.056096505 -0.4247971 -0.22417319 0.023156762 0.91077775 1.2526386 -0.20065325 0.016915424
-0.08157399 -0.08736501 -0.07809114 -0.059307 -0.029659316 0.053477082 -0.065984726 -0.17274268
0.009176088 -0.15996678 -0.014453041 -0.04324306 0.018186808 -0.0072297845 0.01660795 0.04315621
0.024375767 0.01889552 0.0035086775 1.4165527 -0.2399156 -0.36899516 0.059900012 -0.029069189
-0.029648239 -0.012058361 0.091191486 0.0091901915 -0.12728533 0.5698637 -0.05594845 0.016162278

item_id_embedding.weight f4 [1600, 32]
00000000: a9fc 21bc 76b3 77bc 3f92 5a3c a19a 8abb
00000010: d393 c93d daf9 21bf 650c 333d 8887 57ba
00000020: 89ec c33c 3078 b03c 32ae 5abc 28e7 eebb
00000030: a0a5 ee3b d5fc 2c3c 52bd 05bd 1488 a5bb
00000040: 62bb e03b edd6 883d 30c1 5dbd a9f9 2b3e
00000050: b22a 05bd e992 943e 53f5 20bd 2e63 e13d
00000060: ee91 08bc 6778 873c 5e54 ac3c 8909 543c
00000070: 8cef 06bd 3342 643b c823 0e3d 936d e33c
00000080: f30a dabb b4d6 b3bd 2847 3d3a ef14 1e3b
00000090: 768b a4ba d6de 0f3c 581d fd37 33c9 ac3b
000000a0: 2f16 b03b fd16 1e3c 90b2 5fbe b64d 1ebb
000000b0: 9e92 923c 4cec a13a 1fba 733c 7aab 31ba
000000c0: 7c36 bd39 233a a13b 2581 76bc 877d 16bb
000000d0: c7ba cc3c 5c07 83b8 6e9c 20be b7e1 173d
000000e0: 2685 31bb 1017 cf3c 5985 083e a10a 47bc
000000f0: bae9 6539 8688 2d3b 2074 b03a dc73 753c
00000100: dd74 a9bb 6424 10bc bcbd 01bb b5b8 fbbb
00000110: 238a fd3a f62f 8abc cffe 0c3a f76a 32bc
00000120: d72c d43d ac00 7ebd de94 e93b a261 8f3b
00000130: cf76 65bc 3100 7fbb d01c 36bc a47d 41bc
00000140: 9d19 2dbc fb2c fe3b ce17 4abd e2be 1e3b
00000150: def6 d5bb e938 5ebd bbb8 033e 3cce 363b
00000160: f499 0bbc 9e2d 8b3e e4a3 00bc 3bda 37bc
00000170: 95a7 4f3b 985a c33e 7b17 d23e d4d6 70bc
00000180: b142 133f 708a 95bc adaa c2be 5c10 abbb
00000190: 4e06 49bb bff2 8b3c a13c 4e3c 8bae a9bb
000001a0: 6f02 d93d a535 6c3b 1f5b bebc f126 2c3e
000001b0: 84fb d2bd cb26 9a3c ca58 12bc bdd8 9a3b
000001c0: 33e0 883c ed10 75bb 6326 b43c 276e aa3e
000001d0: 0311 82bc c1dc 8ebc 5e9b d7bb 5ac0 bc3c
000001e0: 9839 fd3d ec9a deba c51d 233c af4a 843e
000001f0: 999a 3fbc 3c34 4dbc 9c6a 04bd 6efa 8a3c
00000200: 80de 38bc 6bbf 7fbd 36d5 9539 6058 34bc
00000210: aea8 0fbc 7b8d b13e ea23 13ba c9c0 21bc
00000220: 09dc 33ba cfcc 83be ef1b d1bd 0e3f 633a
00000230: 8be1 d83c 20bd 993b 05ff 84bb 2225 c53a
00000240: 5683 4e3f ba9f 5c3c 7b62 4c3b eee2 c0bb
00000250: 7bd0 42bc fc38 adbe 7d53 ef3c 82b1 9cbc
00000260: 2e69 d1bb 11cf 423c c28d aa3c a91c c0bb
00000270: 2e33 c13a 4274 a1bc 4b71 d13b 9fa6 693c
00000280: 6d24 393c 9659 5f3c 0931 4c3c 13c2 5bbd
00000290: 4e9e 013e 2086 153c 5620 eb39 eb89 3bbc
000002a0: 2b6f 41bb 8f6d bfbb 13bf 59bb 0623 c93c
000002b0: b69c 1cbc ffac 2b3f 1614 c9bb d109 713d
000002c0: 8192 1b3b 5c97 233c ce48 463e 910d be3c
000002d0: 7ef5 923e 11f6 d73c bf47 94bd 6876 b5ba
000002e0: a4fe 3bbc 587f e83b 72b7 41bc 5515 c6bd
000002f0: 49e6 193c e147 5c3c ed52 6cbb 0a13 57bc
00000300: 93a1 8bbc c528 2f3c d2c2 84be 87da 79bc
00000310: 2eb5 afbc e66e 4d3c af03 453d e51f 74bc
00000320: b0ea fe3e 31fc 27bc 320e 5d3b 7bd7 abbb
00000330: 463f a6bc 40ac 9fbc 9971 afbf 3fef aebc
00000340: faf4 433b 49aa 703b b5be 9f3e 002d fa3e
00000350: aa71 fabc 6264 76be 0866 72be 76ca 823b
00000360: 22d2 8f3d dc10 58be 2e95 fa3e b04e 9bbd
00000370: 0249 a93b 12aa 31bd 90c7 ec3b b8eb 973b
00000380: e342 42bd 3576 cb3e a491 1abd db03 82be
00000390: c8f3 6dbb 3561 8b3c 8121 9abc f604 fabb
000003a0: bb29 423d c392 59bc ca73 5ebc 0776 81bc
000003b0: 2698 e23c 6c3c d4bc 82a9 143d b6af 223d
000003c0: c84e 013c 7f16 883e 9527 ce3b 6a11 d8bc
000003d0: 3887 0dbf b202 9d3c afb7 cab9 b081 183f
000003e0: 0167 8f3c 9903 c9bc e2ff cf3c 6765 053d
000003f0: a0bd 77bc ada4 c1bc f51a 003d 65a8 1f3d
-0.009886899 -0.01511847 0.013340532 -0.004229859 0.09842648 -0.6327187 0.043712992 -0.0008221795
0.0239165 0.021541685 -0.013347195 -0.0072907396 0.0072829276 0.010558327 -0.032651253 -0.005051622
0.0068582753 0.06681619 -0.054139316 0.16794457 -0.03251142 0.29018334 -0.03929646 0.11005245
-0.008335574 0.016536904 0.021036323 0.0129417265 -0.032943293 0.0034829497 0.034702092 0.02776221
-0.0066541373 -0.08781186 0.0007220381 0.0024121364 -0.001255377 0.008781156 3.0173615e-05 0.0052730083
0.0053737382 0.0096490355 -0.2184546 -0.0024155206 0.017892178 0.0012353747 0.014875918 -0.0006777566
0.00036089483 0.0049202605 -0.015045439 -0.0022963004 0.024991406 -6.2479376e-05 -0.15684673 0.037080493
-0.002708742 0.025279552 0.13332118 -0.01214853 0.00021926212 0.002647908 0.0013462342 0.014981236
-0.005171402 -0.008797739 -0.0019796928 -0.007681931 0.0019343536 -0.016868573 0.00053785456 -0.01088976
0.10360115 -0.06201236 0.007128342 0.0043756524 -0.014005377 -0.0038910026 -0.011115268 -0.01180974
-0.010565189 0.007756827 -0.04933911 0.0024222662 -0.006529673 -0.054253493 0.12863438 0.0027893921
-0.008520592 0.2718324 -0.007851575 -0.011221464 0.003168558 0.38155055 0.4103354 -0.0146996565
0.5752364 -0.018254489 -0.3802084 -0.005220456 -0.0030673924 0.017083524 0.012587697 -0.005178278
0.10596167 0.0036042717 -0.02323681 0.1681173 -0.10301879 0.018817326 -0.008932302 0.0047255442
0.016708469 -0.0037394122 0.02199096 0.33287165 -0.015877252 -0.017439248 -0.0065798005 0.02304094
0.12364501 -0.0016983426 0.009955828 0.2583823 -0.011694574 -0.012524661 -0.032328233 0.016965117
-0.011283517 -0.06243841 0.0002857835 -0.011007398 -0.008768244 0.34678254 -0.00056129566 -0.009872624
-0.0006861096 -0.25742194 -0.10210406 0.00086687587 0.026474735 0.004691735 -0.004058721 0.0015040974
0.8066915 0.013465816 0.0031186629 -0.005886427 -0.011890526 -0.33832538 0.029214615 -0.019127611
-0.006390712 0.011890189 0.020819549 -0.0058627916 0.0014739984 -0.019708756 0.0063916794 0.014260917
0.0113001885 0.013632199 0.012462863 -0.05365188 0.12658045 0.009126216 0.00044846785 -0.011446456
-0.0029515724 -0.005841918 -0.0033225461 0.024552833 -0.009558847 0.67060846 -0.0061364276 0.058847252
0.0023738446 0.009984817 0.1936371 0.023199828 0.2870292 0.02636245 -0.07240247 -0.0013844492
-0.011474285 0.0070952587 -0.011823522 -0.096720375 0.009393283 0.013444872 -0.003606017 -0.013127098
-0.017044818 0.010690873 -0.25929886 -0.015249855 -0.021448698 0.012538647 0.048099216 -0.014900182
0.49788427 -0.010252998 0.0033730385 -0.005244193 -0.020293843 -0.019491315 -1.3706542 -0.021354316
0.0029900656 0.0036722592 0.31200185 0.48862457 -0.030571777 -0.2406173 -0.23671734 0.0039914204
0.070225015 -0.21100181 0.4894194 -0.07583368 0.005166174 -0.043375082 0.007225938 0.004636254
-0.04742707 0.39738622 -0.03773655 -0.25393566 -0.0036308635 0.017014125 -0.018814804 -0.007629986
0.04740308 -0.01327962 -0.013577411 -0.01580335 0.02766044 -0.025907718 0.036294468 0.039718352
0.007892318 0.26579663 0.0062913396 -0.026375491 -0.5528445 0.019166324 -0.00038665297 0.5957289
0.01750517 -0.024537848 0.02539057 0.032567408 -0.015120894 -0.023638094 0.03127571 0.038978953

item_type_embedding.weight f4 [5, 8]
00000000: bb20 b73f 56f9 8ebf e64f f83f fe9a 753c
00000010: ab8d 493b 3b86 183f a8e9 c43d d888 dd3d
00000020: 18a5 8d3f 8584 7abf 8af4 bd3f a746 7fbe
00000030: 3616 58bf d0c2 b2bf 3f11 6e3f a460 523f
00000040: 365a b63e d30c 1dbf 29df 6e3e 9b9b 9dbf
00000050: f15c e1be b58e 75be a902 613e 06ac 90bf
00000060: f086 2f3f f64b 94be ffe1 5e3f 82f5 9d3e
00000070: f20d dc3f 6ac6 013f 78ab 863e 48bf c9be
00000080: cd1e 31bf a4fb 593e c01b e5be 3117 23be
00000090: cb6c 023d 05d1 de3d 8136 cd3e 25ed 13bf
1.4306864 -1.1169841 1.9399383 0.014990566 0.0030754607 0.5957982 0.09614879 0.108171165
1.1066008 -0.9785846 1.4840252 -0.24929295 -0.8440889 -1.3965702 0.92995065 0.8217871
0.356157 -0.61347693 0.23327316 -1.2313112 -0.4401622 -0.2398022 0.21973671 -1.1302497
0.68565273 -0.28964204 0.8706359 0.3085137 1.7191756 0.5069338 0.26302695 -0.3940375
-0.69187623 0.212874 -0.44747734 -0.15926816 0.031842034 0.10879711 0.40080646 -0.5778373

item_temperature_embedding.weight f4 [7, 8]
00000000: 84fc f03b 511d e13b e4c0 1cbc 7a83 44bf
00000010: b45c c9bc 263b bebe bf5a 953d 1181 a1be
00000020: 697c 0bbe 4612 333f 563a 5abe 12c8 3dbd
00000030: ac8d 63be b668 253e 9cca e1be a57c 06bf
00000040: 2a79 f4be 8459 833f 1a39 3c3f 3199 adbe
00000050: 823b ccbd 5348 3a3d ed77 1fbf 60de 02be
00000060: 0efd 17bf 27ac 4b3e 9435 d9bd d70a 8fbe
00000070: 6666 e7be 3181 503e d88b ffbd 03f9 7a3f
00000080: 220a 1cbf 3907 acbe c596 ed3d 9f8c f8be
00000090: 6963 94bd 5b8b 593f 6989 ef3e 2c8e fe3e
000000a0: 2701 343e 5039 e6be 6271 20be 5fa2 71be
000000b0: 20c6 883e e281 f1be f109 823f 05f3 953f
000000c0: 587f d2be 6b01 c3bd f6db a4bf 2c17 40bd
000000d0: 37ab d1be 5cea 9a3e e09c 4b3e 2e81 57be
0.007354321 0.00686995 -0.009567473 -0.7676312 -0.024580337 -0.37154502 0.07292699 -0.31543782
-0.13621677 0.6994976 -0.21311316 -0.04633338 -0.22222012 0.16153225 -0.4409989 -0.5253394
-0.4774869 1.0261693 0.7352463 -0.33905938 -0.09972288 0.04547913 -0.6229237 -0.12780142
-0.59370506 0.1988989 -0.10605922 -0.27937958 -0.4519531 0.20361783 -0.12477845 0.9803621
-0.6095296 -0.3359926 0.11601023 -0.48544785 -0.072455235 0.84978265 0.46784523 0.49717844
0.17578565 -0.449656 -0.15668252 -0.23597096 0.26713657 -0.47169405 1.0159284 1.1714789
-0.4111278 -0.09521755 -1.2879627 -0.0468971 -0.4095094 0.30256927 0.19884062 -0.21045372

item_humidity_embedding.weight f4 [6, 8]
00000000: 46a9 b7be f6b6 483e 587f 56bd 83a5 a6be
00000010: 7aca 01bf ecf8 9dbe 33df 34bf 02b2 1d3d
00000020: 29fa 4bbf 7fdf bf3b 8c84 a13e 325b 92bf
00000030: 8248 163f 90c2 55bd b1ff 8d3e 5f08 7ebe
00000040: 18cf 08bf 83a4 d83d 92f7 8d3f 870a 303e
00000050: dece 123f 23e6 1abf b29c ad3f 784f 1abf
00000060: 62e4 ee3e 28e2 313f fafd a7bf d2e8 02be
00000070: 9607 d0be ea19 d8be a0fa ca3e 8129 a4be
00000080: 6020 e4bf 81d8 243f add1 8a3d 7ab5 44bf
00000090: 60c4 9e3f fd62 a9bf 380d 0f3e 7709 25bf
000000a0: 9e34 0cbe 0b43 193f e54a b1be e0ac b3be
000000b0: b538 1fbe 5ad1 02be c588 5b3f 74b0 933e
-0.35871333 0.19601044 -0.05236754 -0.3254815 -0.5069958 -0.30853975 -0.70653075 0.03849984
-0.7967859 0.0058555 0.31546438 -1.1434081 0.5870439 -0.052187502 0.2773414 -0.24807881
-0.53441 0.10578253 1.1091177 0.17191516 0.57346904 -0.6050741 1.3563445 -0.6027751
0.46658617 0.6948571 -1.3124382 -0.12784126 -0.40630788 -0.4220727 0.39644337 -0.32062915
-1.782238 0.6439286 0.06778274 -0.7683941 1.2403679 -1.3233334 0.13969886 -0.6446757
-0.13691947 0.59867924 -0.34627452 -0.3509283 -0.15548976 -0.12775174 0.8575557 0.2884556

item_windSpeed_embedding.weight f4 [5, 8]
00000000: 9eaf 873f 1fee 213f 2ac3 73bf 2a4e 3a3e
00000010: 3d72 783f 9e53 a2bd 1120 31bf ae56 4d3f
00000020: d350 633f 1a92 8b3e c520 32bf 67b4 97bf
00000030: f570 9b3e 549c ba3e f592 2bbe e65c b4bd
00000040: 6ad4 4f3e 98cc d7be 38dd 233f 3fd7 ab3e
00000050: 400c d5bd cd11 dcbf a32c 0fbf 7d2f bc3f
00000060: 1d3b 04bf de63 7fbe a5d0 e13e 4ac2 52be
00000070: 8545 d43e 56c9 5a3f 845d 6abd b15d a6bd
00000080: a4a0 a73d 27a1 a73f 5782 583d 090b d0be
00000090: 482a 043f ca4f 503f 55df 023f bcd3 e3be
1.0600469 0.6325397 -0.9521967 0.1819388 0.97049314 -0.07926105 -0.69189554 0.8021039
0.887952 0.27259904 -0.6958125 -1.185193 0.30359617 0.36447394 -0.16755278 -0.088067815
0.20295873 -0.4214828 0.6400943 0.33562657 -0.10402727 -1.7192932 -0.55927485 1.4701992
-0.516527 -0.2494044 0.44104496 -0.20581928 0.4145929 0.85463464 -0.05721809 -0.08123339
0.08184937 1.3096055 0.052858677 -0.4063342 0.51627016 0.8137175 0.5112203 -0.44497478

GCN_Layers.0.W1.weight f4 [64, 64]
00000000: d1e1 c9be 7449 c73c 800d 8fbd 602b 8ebd
00000010: 754a c83c 1719 a2bb 9087 e2bc 34e5 e0bd
00000020: 623d 86bb f210 64bc 663a 1abd df93 46bc
00000030: e2d5 95bd f841 fcbc 98da 66bd 184a b63d
00000040: a883 76bb 1396 5f3c b78e a23d 1461 d03d
00000050: 894d 433d f7a2 4d3d d988 babd cb42 183e
00000060: 4cd3 84bd 6c9a 903c 4d68 1dbd 24ca babc
00000070: 8d84 59bd 678f c5bc e0b0 cfbc ff03 c3bb
00000080: 5ac2 92bd bf9d 00be a383 14bd cc61 27bd
00000090: a61a 0bbd 5038 58bd b4ad bfbc 941d 7d3c
000000a0: a110 5bbc edaf 1e3d a46c 99bc 45e6 76bc
000000b0: d003 41bd 2c37 bdbc 6932 5fbc 048a f4bb
000000c0: d786 79bd 9ea7 26bd 58ca 04bd e45a b73b
000000d0: 531b 99bd c2bb 93bc e816 0cbc a2b8 1f3c
000000e0: 73d8 413d dce3 bfbc 98b8 3cbc 2336 0e3d
000000f0: 70b0 78bc 8b4b 89bd 1d49 9d3c 5480 6dbd
00000100: 2402 3e3d 0b80 a7be 5379 fdbc 4cc5 093c
00000110: 8ba7 26bd 0f8a 4d3c 4e21 cdbc 9dec e43c
00000120: 1fca 7bbd 3723 3e3d 66b5 aabc 8839 e5bc
00000130: 6ab3 98bd 382c b9bc 9b39 8bbd f32b 03bd
00000140: b660 6ebd 9f8c efbc 609c 44bc 3288 15bd
00000150: b447 19bb e185 363d 01fe 883d 5cb3 0ebd
00000160: f323 ecbb 941c 1c3d 782f b2bd 1137 6ebd
00000170: 0884 3abd 17fc 41bd 9e8b 6bbd b794 c4bc
00000180: 3e65 6d3d 00ce 8d3d c808 473d ac69 94bd
00000190: 5a62 dabc d3ea fabd 8205 38bd 0e54 87bc
000001a0: d552 553c 2378 663d 77ae 7a3d 0433 10bc
000001b0: 3f21 7fbd 9c7d c23d 76ec ae3b e03f aebc
000001c0: c46f f0bc e4fd 1b3d c0f6 5c3d b46c c2bd
000001d0: 570e 613c 64fe 26bc e402 f5bd 6e76 383d
000001e0: 2a30 923d 1c29 b3bd 8aeb 04bd bd17 64bd
000001f0: 607a 8a3d dade 81bc 0dad 543c 4f6e 50bd
00000200: 5dc1 223d 2bca fd3d d4d8 88be f2d5 67bd
00000210: fdc1 d9bd fb8c 1bbb a749 85bd 2a91 edbd
00000220: bbe9 1f3e 3470 743d 157d 9a3d 09db f2bc
00000230: 729d 663e ed11 893c f550 a33d f5e9 e8bc
00000240: 0ed9 51bc c37e 65bd 569f 7ebc d2e4 cf3b
00000250: 2e7f 583d 48b0 7bbd 52eb bebd dd06 e4bc
00000260: 6d83 a63c 9667 5e3c bab3 31bd cdae 2dbe
00000270: e916 f13a 4bc4 bbbc 9d13 7bbd bf75 e23d
00000280: e97b d23d 523f ba3c 9a57 a7bd a421 bc3d
00000290: d30b 6fbc 1784 91bd 42e7 5bbd bb2f adbc
000002a0: 2c18 5e3b 0171 1f3d 8947 4ebd 6236 f33d
000002b0: 70e1 73bd 2bf1 4ebe 033c ad3d 2fa5 0ebd
000002c0: d233 87bc 23c8 ab3c aa4a 8fbd 4c13 8dbb
000002d0: 711b 383c 60f4 a0bd 0244 893d 5242 823d
000002e0: 82fe 26bd 4599 1b3d 4457 86bc a27f 1f3b
000002f0: b1dc 413d 1528 16bd 55d6 bb3d 052f 733d
00000300: ecf7 bfbd 40c4 4cbd 4f21 d53d 7973 bebe
00000310: 59bd 1b3c f00e 9dbd e4bd a43d 0d28 6dbd
00000320: b4e3 fcbd 032d 383c b237 85bd 1dd2 033e
00000330: 85f1 6e3d de8a 88bc 8ae1 18be 2cd4 cf3c
00000340: aba8 6d3d f64f 1bbd 5e6c 8abc f102 a63c
00000350: 2ac2 9cbd 295a d6bc 7cb3 343e b3ad 2cbd
00000360: f517 203c 9503 ba3c ddc3 4b3d db2c edbb
00000370: 39ef 85bb 6156 9abc 568d c2bd 01c8 e73c
00000380: 4e3b aa3d 100e 8c3d 385f cabc 743f 1dbd
00000390: 8bdb f83b c8db 983d c731 d03d d369 ae3c
000003a0: 07e4 5ebc 00a1 f3bd 763b 0ebd 43f4 16be
000003b0: 547a 22bd dc6e e2bc d3a9 1fbd 824b d6bd
000003c0: 29b0 a5bc 7b09 9dbd f878 fabc 0858 08be
000003d0: 2711 f5bd 9c12 b7bc 78ec 993c 08dd 563d
000003e0: eefd d3bd 2ef8 853c bd56 cdbd d059 3bbd
000003f0: 59b6 a43d 5db0 c53c 1d6a 313d b662 773c
-0.39430097 0.024327017 -0.06984997 -0.06941867 0.024449566 -0.0049468386 -0.027652532 -0.10981217
-0.004096673 -0.013920056 -0.03765335 -0.012120216 -0.073161855 -0.030793175 -0.05636081 0.08900851
-0.0037615094 0.01364662 0.07937377 0.10174766 0.047681365 0.050204244 -0.09108133 0.1486923
-0.06485614 0.01765176 -0.038429547 -0.022801466 -0.053104926 -0.024116231 -0.025352895 -0.005951404
-0.07165976 -0.12560175 -0.03625835 -0.04086475 -0.03396096 -0.05278808 -0.023398258 0.0154489465
-0.013370664 0.038741995 -0.018728562 -0.015069549 -0.047122777 -0.023097597 -0.013622859 -0.007462742
-0.06091961 -0.040687196 -0.032419533 0.005595552 -0.07475915 -0.018033866 -0.008550383 0.00974861
0.047325563 -0.023424082 -0.01151862 0.034719598 -0.015178785 -0.06703862 0.019199902 -0.05798371
0.04638876 -0.32714877 -0.030941641 0.008408856 -0.040687125 0.012545123 -0.025040295 0.027944857
-0.061472055 0.046420302 -0.02083845 -0.027981535 -0.074560955 -0.022604093 -0.06798097 -0.032024335
-0.0581977 -0.029241858 -0.012000173 -0.03650684 -0.0023388686 0.04456127 0.066890724 -0.03483902
-0.007206434 0.03811319 -0.0870046 -0.058157984 -0.04553607 -0.047359552 -0.057506196 -0.023996694
0.05795788 0.06924057 0.04859236 -0.07246718 -0.026658226 -0.122518204 -0.044927128 -0.016519573
0.013020237 0.056266915 0.06120154 -0.008801226 -0.062287565 0.09496614 0.005338247 -0.021270692
-0.029350169 0.038083926 0.053946257 -0.0949339 0.013736329 -0.010192487 -0.11963442 0.04503482
0.07138093 -0.08748075 -0.03245119 -0.0556867 0.067616224 -0.015853334 0.012980712 -0.05088645
0.039735187 0.12392076 -0.26727927 -0.05660052 -0.106327035 -0.0023735154 -0.06508189 -0.115999535
0.15616505 0.059677318 0.07543389 -0.02964546 0.22520998 0.01673218 0.07974426 -0.028431872
-0.0128080975 -0.056029093 -0.015540918 0.006344416 0.052855663 -0.06144741 -0.093222275 -0.027835304
0.02032634 0.0135745015 -0.04338429 -0.16961212 0.0018393669 -0.022920748 -0.061298 0.110576145
0.1027754 0.022735272 -0.081710055 0.09186104 -0.014590221 -0.07105272 -0.05368734 -0.021140924
0.003388892 0.03892613 -0.05036119 0.11875607 -0.059541166 -0.20209186 0.08458712 -0.0348255
-0.016504202 0.020969456 -0.06996663 -0.004305279 0.011237011 -0.07859111 0.067024246 0.06360306
-0.04077006 0.037987966 -0.016399033 0.002433755 0.04732961 -0.03665932 0.0917174 0.059371013
-0.09373459 -0.049991846 0.10406744 -0.37197474 0.009505593 -0.07668865 0.08044031 -0.057899524
-0.123481184 0.0112412 -0.06504764 0.1287312 0.0583358 -0.01666778 -0.14929786 0.025369726
0.058022182 -0.037918054 -0.016897377 0.020265074 -0.07654221 -0.026166039 0.17646593 -0.04215784
0.009771337 0.022706786 0.049747337 -0.007238013 -0.0040873555 -0.018840017 -0.09499614 0.028293611
0.08312093 0.0683862 -0.024703607 -0.03839059 0.007594531 0.07463795 0.10165744 0.021290695
-0.013604171 -0.11895943 -0.034724675 -0.14741616 -0.039667442 -0.027640752 -0.038980316 -0.10463621
-0.020225601 -0.07667824 -0.03057526 -0.13314831 -0.11966162 -0.02234774 0.018789515 0.052456886
-0.103511676 0.016353693 -0.1002631 -0.04573995 0.080425926 0.024131948 0.043314088 0.015099218

GCN_Layers.0.W1.bias f4 [64]
00000000: 7a89 c33d b40b 963d 433e 183d 0a47 783c
00000010: d732 203d bf76 92bb 8ce7 d43b bdca 0f3e
00000020: 37c4 133e ebe8 c0bd 6277 85bc bb8e 713d
00000030: 1b8d 7abd 290a e23d c106 073e c6e7 a538
00000040: 67b3 143e fb13 093e 5c63 2a3e 2803 ea3d
00000050: f8d9 31bc 1ce5 45bd 8936 b33c 586a 583c
00000060: 8440 80bc f21a 0a3e 5192 f03d 419f af3c
00000070: 391a cd3d 986b a53c 54c1 223b 0782 003e
00000080: c176 903e ed10 86bd 1122 963d 210e 7fba
00000090: bd94 42bd ee8d c5bc 6e7d f0bd c4ca 5d3d
000000a0: 8648 983c dfdb 973d ffde 4dbd 6194 00bd
000000b0: 2279 5f3d 6d07 a5bb d8ad 373a c4ed a63d
000000c0: ccbe 293e 7152 f83d 6f04 42bd e6f1 7f3c
000000d0: 8066 df3d 68ae 9b3d 50ec 0d3d 23c4 913d
000000e0: d1e5 01bd f62b 70bc 50ac 16bb 9c60 b3bc
000000f0: db4b de3d 328b 863d 6b39 673d 18d3 5e3c
0.09547706 0.07326451 0.037168752 0.015153656 0.039110985 -0.004469722 0.006497329 0.14042182
0.14430319 -0.094194256 -0.016292278 0.05897401 -0.061169725 0.11037094 0.1318617 7.910984e-05
0.14521562 0.13386528 0.16639465 0.11426383 -0.01085519 -0.0483142 0.02187659 0.013208948
-0.015655763 0.13486841 0.11746658 0.021438243 0.10014767 0.020192906 0.002483447 0.12549601
0.28215602 -0.06546197 0.073307164 -0.00097295834 -0.04750513 -0.024115529 -0.11742674 0.05414845
0.01858927 0.07414984 -0.050261494 -0.031391505 0.05455888 -0.0050362856 0.0007006801 0.08150819
0.1657669 0.121250995 -0.04736751 0.015621638 0.10908222 0.07601625 0.034649193 0.07117488
-0.03171331 -0.014658919 -0.002299089 -0.021896653 0.10854312 0.06569518 0.056451242 0.013600133

GCN_Layers.0.W2.weight f4 [64, 64]
00000000: 6ff8 99bb 7bf6 1dbb a80e 513b 57e3 ebb9
00000010: 9a9d ab3b b606 d8ba 1dbf b2ba fe91 8f3a
00000020: 6a4d b5bb dc5b 4d3a 6073 97bb af61 283b
00000030: 8ae9 e0b7 c14d 1dbc dbcc a73a a5d8 e43a
00000040: d5f4 73bb 24be 64ba effa e3bb c36e 783b
00000050: 2458 4a3a 0ef5 e03a 2356 45bb 1583 173b
00000060: ddc5 543b 7488 80bb 1e88 733b d667 fb3a
00000070: 5b9b 9b3b fa06 b1bb adcd 32ba 655a f9ba
00000080: e101 aa3d 07af 48bd 1c7d db3d 76ed 583c
00000090: 26c5 88bd b686 193d 8d5c 123d cfde 55bc
000000a0: 922a 3bbd e22d dbba 6541 76bc f6d3 06bd
000000b0: ce5f b8bc d910 073d 8114 26bc 6f89 11bc
000000c0: 9e3f dd3a 7167 8dbd ef6e 693a 8912 d93c
000000d0: 8080 923a 1425 4b3c 263d 39ba 8969 fa3b
000000e0: 67d4 69bc 1cb3 11bd 6e98 813c cbd3 0bbd
000000f0: 91ea c03d 2b83 c5bc a7d4 613d e7db 60bd
00000100: 69ea a8bb fd44 f2bb 81de b03b 98ff ca39
00000110: d1a8 703b ad38 71bb eb57 0cbc 6bbb bd3b
00000120: d0fa cfbb 03f0 15bb 5a5a 0abb 3804 ce3b
00000130: 1954 8cbb 3a44 ffbb 5914 32bb 1202 fe3b
00000140: 8245 f13b 050c 27bc 2208 09bc 52bb 2bb9
00000150: 586d 19bb 1b6b 903b 263f 0ebb 9fa1 82ba
00000160: a4b5 30bb 9fba 8ebb 73db a3bb 5835 723b
00000170: a44d 9b3a 904b e3bb 73df a1bb 7a77 893b
00000180: f058 673c 54f0 93bd 17e6 99bc 685b 2d3d
00000190: ceb0 62bd 51b9 d6bc 6be6 00bc 40e8 97bc
000001a0: e62a 88bd e18a 083c 6e8d 9f3b b8b7 8ebd
000001b0: e15f b93c 2ceb fe3c 298c 913c 81f3 dd3b
000001c0: eeab 16bd a6db 1a3d 12fb bf3b 0dd6 44bd
000001d0: d8c3 843d 19b7 7fbc 7ae3 cb3d 7c7b cfbd
000001e0: aa4c 043d a19e f4bc 1363 b33c 1c56 d23c
000001f0: 40f4 bb3a 87df 34bd 446f 213d d669 223e
00000200: 378a 433b be7a c5bb 5fc7 a43b 171c ffbb
00000210: 134c 933c c68d 4c3b e3d9 59bc c72a a33c
00000220: 3358 9a3b 7ef4 85bc 42ae dc3b 2602 3cb7
00000230: 96cb b53b b4e6 cebb e48c 0fbc 68b6 f5ba
00000240: 1812 193c 9b55 b6bc d053 56bb 0d6c d93b
00000250: 8db5 543c 437a 1b3c 5fd0 31bb 931b 42bc
00000260: 684e 0537 4161 85bc 6e39 523c b74e c3ba
00000270: 8a1c f1ba b632 713b a4eb 2a38 e137 1bbc
00000280: b425 213d 5f4e 8dbd 8611 8abd 1724 14bc
00000290: 02e4 80bd fda8 ca3d a211 37bc 2532 a3bd
000002a0: d18d 003d 6edb 163b 3707 913b 9006 563b
000002b0: 2e35 66bd 4505 f2bc 072c d23c 2b3d 153e
000002c0: 3794 febc 651e 36bc de5e fb3b 1ef4 bcbc
000002d0: ec2c 273d 8b25 5f3d 4602 3b3d 41bb 623c
000002e0: ff87 763d 4c4d 6b3d cfcf 07bb e199 74bc
000002f0: a8f9 8dbd f8e1 3abd 09bf 663d 6396 eabd
00000300: 3287 a3bb c838 1fbc a7e8 c73b ca3a ed39
00000310: bf2a 1e3c 4d8f c03c e47f 36bd 71a6 e33c
00000320: 28da b8bc 27f8 16bd 06b4 373c 7dfe f13a
00000330: 013d 4ebc 2491 e2bc 1673 83bc 5b4c a33c
00000340: c921 debc 67fe 5abd 63bb c9bc dbc8 afbc
00000350: b15a c83c 406f 453c efae 96bc b200 abbc
00000360: 35b5 36bc 3edc d6bc e3dd 133d ff7b 01bc
00000370: 4998 64bc 50ca e83b 579e 9dbc ad83 5cbc
00000380: bf3c 24bd 91c9 5dbd a743 823c 075e 123c
00000390: e999 bfbc 779c bdbd 03b6 573d c1ac cfbd
000003a0: 34d0 06b9 41cc ba3c 0780 163b 8dd3 a73d
000003b0: 4c39 9fbd 2aed dcbc f37d 53bd ea78 d2bd
000003c0: 52e2 d5bd 37ce 6ebd a1b4 a2bd 6c99 4d3d
000003d0: 53a5 4a3d 5e71 473d fb16 8abd 11c5 8bbd
000003e0: 8089 79bc 2693 aabb 8a4b d6bb 453d 303d
000003f0: dbcf f13c f90f 85bd a6a5 babd b3d6 99bc
-0.004698805 -0.0024103213 0.0031899605 -0.00044992074 0.0052372934 -0.0016481492 -0.0013637278 0.0010953543
-0.00553291 0.00078338175 -0.004621908 0.002569299 -2.6811631e-05 -0.0096010575 0.001280214 0.0017459585
-0.0037224789 -0.0008725843 -0.006957404 0.0037907816 0.00077188225 0.0017162876 -0.0030111156 0.0023118902
0.0032466569 -0.0039225165 0.003715999 0.0019180726 0.0047487444 -0.005402443 -0.0006820809 -0.0019024132
0.083011396 -0.048995044 0.10717222 0.013240209 -0.06678228 0.037481986 0.035732795 -0.01305361
-0.045694895 -0.0016722048 -0.01503024 -0.032916985 -0.02250662 0.03297505 -0.010136724 -0.008882864
0.0016879921 -0.069044955 0.0008904775 0.026498096 0.0011177212 0.012398977 -0.0007066302 0.0076419753
-0.014271832 -0.035571203 0.015819754 -0.03413753 0.0941974 -0.024110397 0.05513444 -0.054897215
-0.005154897 -0.007393478 0.0053976183 0.00038718875 0.0036721716 -0.0036807463 -0.008565883 0.005790164
-0.006347038 -0.0022878654 -0.0021110983 0.006287124 -0.004282486 -0.0077901157 -0.0027172773 0.0077517116
0.0073630223 -0.010195737 -0.008363755 -0.00016377613 -0.0023411121 0.004407299 -0.002170512 -0.000996638
-0.0026963735 -0.004355743 -0.0050005256 0.0036958065 0.00118487 -0.006936498 -0.0049399673 0.004195151
0.014120325 -0.07223573 -0.018786473 0.0423235 -0.055344395 -0.026211413 -0.007867436 -0.018543363
-0.06648807 0.008333893 0.0048691547 -0.06968635 0.022628726 0.031117998 0.017767029 0.0067734127
-0.03678506 0.03780713 0.0058587873 -0.048055697 0.06482667 -0.015607619 0.09955497 -0.10130975
0.032299675 -0.029860796 0.021897828 0.025675826 0.001433976 -0.044158485 0.03941275 0.15860686
0.002983702 -0.006026595 0.0050286497 -0.007785331 0.017980611 0.0031212433 -0.013296577 0.019917859
0.004710221 -0.016351935 0.0067346403 -1.1206173e-05 0.005547951 -0.006314123 -0.008761618 -0.0018746378
0.009342693 -0.022257617 -0.0032703765 0.006635195 0.012982738 0.009489599 -0.0027132255 -0.0118473945
7.945673e-06 -0.016281726 0.012831075 -0.0014900778 -0.0018395346 0.0036803908 4.0750616e-05 -0.009473772
0.039342597 -0.06899714 -0.067416236 -0.009041808 -0.06293489 0.09895513 -0.011173638 -0.07968549
0.031385247 0.0023018974 0.004425909 0.003265772 -0.05620306 -0.029543528 0.02565576 0.14574115
-0.031076534 -0.011115645 0.007671221 -0.023065623 0.040814325 0.054479163 0.045656465 0.01383859
0.06018829 0.057446763 -0.0020723229 -0.014929266 -0.06932384 -0.045625657 0.05633453 -0.11454465
-0.004990482 -0.009718128 0.0061007324 0.00045247964 0.009653746 0.023505831 -0.04455556 0.027789326
-0.022564963 -0.03685775 0.0112123545 0.0018462684 -0.012587787 -0.027657099 -0.016046088 0.01993387
-0.02711572 -0.053465273 -0.024625486 -0.02145808 0.024457308 0.01205045 -0.018393962 -0.020874355
-0.011151602 -0.026228067 0.03610028 -0.007903098 -0.013952323 0.0071041957 -0.019240541 -0.013459128
-0.040096994 -0.054147307 0.0159014 0.008933551 -0.02338882 -0.09258359 0.052663814 -0.10140372
-0.00012856798 0.022802474 0.0022964494 0.08194647 -0.077746004 -0.026968557 -0.051633786 -0.10276969
-0.10443558 -0.05830213 -0.079446085 0.050195143 0.04947407 0.0486921 -0.067426644 -0.06824697
-0.015230536 -0.0052055297 -0.0065397667 0.04302718 0.029518059 -0.06497187 -0.09113626 -0.018779134

GCN_Layers.0.W2.bias f4 [64]
00000000: bbf2 22bb 431c 233d bdca 8fbd aa0a fa3d
00000010: c5da 2cbc 1300 793d e797 e0bd 4169 913c
00000020: 3aa2 073d 685c 8b3b f6cf 35bc 8a96 81bd
00000030: 0f96 da3d 45fe 813d b235 1f3c c691 1b3d
00000040: e4e4 c13d cd65 14bd dc34 fb3b d6c2 0f3d
00000050: 34b5 083e 0de3 acbd 0c54 123e c5f0 ce3d
00000060: a899 0c3e 04da 513c 760e 503e 6c51 e73c
00000070: 3da4 5e3d 830c 6bbc e8b8 5a3d 83a2 623d
00000080: e638 333e 7cfb 37bd 68a2 223d d079 a83d
00000090: 02f6 9fbd f732 893d 4427 ef3d 1c66 ae3c
000000a0: c058 68bd 0975 bb3c f091 72bc 40ad 703d
000000b0: 8588 6d3d d82a cf3d 2962 f13c e4a4 e23d
000000c0: ccf5 79bc b23f 3ebd 1b6b eb3d ca57 e2bc
000000d0: 9390 c33d e7bb 9bbc 93a9 ae3d a908 b33d
000000e0: abef 2bbc 101b 303e ae41 163e 88b1 b23c
000000f0: f91c a2bd a4f1 2f3e 7e3e 1a3d 81a0 6c3c
-0.0024863917 0.039821874 -0.07021091 0.12209065 -0.010550206 0.060791086 -0.10966473 0.017750384
0.033113696 0.004252959 -0.011096945 -0.06327541 0.10673153 0.06347326 0.009717392 0.037980817
0.094674855 -0.036229897 0.0076662134 0.03509792 0.13350374 -0.08441744 0.14289874 0.10104517
0.1373049 0.012808327 0.20318016 0.028237067 0.05435585 -0.014346245 0.053398997 0.055330765
0.17502174 -0.04491757 0.039705664 0.08226359 -0.07810594 0.06699174 0.11677411 0.021288924
-0.056725264 0.022882955 -0.014805302 0.058758974 0.057991523 0.10115594 0.029465752 0.11066607
-0.015256356 -0.046447463 0.11495038 -0.027629752 0.0954906 -0.019010497 0.085284375 0.08741886
-0.010494153 0.17197824 0.14673492 0.02181317 -0.07915682 0.17182022 0.037657253 0.014442564
