lab4-student/code/model/bestModelParms-11-12-18-51.pth (torch, 498345 bytes, 20 tensors)

user_id_embedding.weight f4 [900, 32]
1.8043288 -0.49286398 -1.0298852 0.025190251 -0.41947338 0.32791668 -1.5561026 -0.9118753
-0.47459486 0.4449723 0.6116464 0.32751915 0.32485932 0.8023126 -1.1801653 -1.111376
-1.9418532 0.5784017 0.089180306 -0.96169096 -0.33203384 0.30229568 -0.75489885 -1.5000296
-0.19759062 -0.8348727 -1.0511833 -0.22614777 0.3394919 -0.41652778 0.4831627 0.14442785
0.106856234 1.2315753 -0.34326106 1.0287178 0.42312437 -1.1988974 -0.29037037 -0.68639374
0.03549609 -0.2826209 1.055323 0.0021853235 -0.1618268 -0.64497286 0.31479934 0.8195738
-1.0157921 0.035887245 -0.8970617 0.33199832 -1.085658 0.5596026 0.52873456 1.8962677
-2.3474026 1.5539703 -1.2885342 -0.14440975 0.14488441 1.9375247 0.9940168 -0.005587439
-0.11825882 -0.84017545 -0.7128877 0.09829656 -0.13155401 1.1060762 -0.10824419 -0.3394303
1.4810617 -0.5595496 -0.41611743 0.117039114 -1.7372065 -0.52245766 -0.07698983 -0.8468293
0.89560837 -0.5436378 -1.6321313 0.90815175 0.094235845 -0.73229253 -1.1189374 0.66761565
-0.050980054 1.268829 -0.62408954 -0.5071229 -0.13628109 -0.0019164374 0.429711 -1.2839836
1.5180707 0.9791646 0.59033906 -0.0350991 1.4536685 -0.70817083 0.7160308 -0.43982628
-1.3671373 -1.0192926 1.1565009 0.9722404 1.114854 0.44695562 -0.5588269 0.59032595
-0.34090835 0.013617498 -0.0006045194 1.0920928 0.110300444 -0.41154203 0.35446766 -0.70571786
-0.7953313 -0.04758986 0.07293294 1.5501127 0.04017468 -0.081753835 0.5516093 -0.28050795
-0.23854461 0.2281589 -0.76624376 -0.9062956 0.05585151 1.5995452 1.4912667 0.6565142
-0.051944684 -1.2049984 -0.37894022 -1.0202459 -0.021999335 1.0564519 1.0030183 0.70076895
-0.06241094 0.6795492 -0.41959536 -0.40742326 -0.39204776 -0.13262387 0.23059815 0.04920031
-0.64275426 0.9526773 -1.0096788 1.2040317 -0.3387406 0.7980193 1.4394274 0.80742663
-0.38614294 0.49894398 -1.8595114 -1.4954519 -1.0819674 0.42765325 1.9100661 0.93912137
-0.47498727 -1.2968565 -1.1559163 -0.22360921 -1.88154 2.010515 -1.1080741 -0.19261673
0.20708854 -0.20048696 1.6858822 -0.796242 -0.14742884 0.8623577 -0.20795925 0.030990008
-1.4911149 0.25861803 -1.8528813 -0.11916494 0.27069622 -0.008874381 1.1704204 0.7434763
0.7837009 -1.2604172 0.31650522 1.0364296 1.004888 -1.6351264 -1.664849 0.91073287
-0.73011386 -0.2652133 1.104504 0.04191234 0.8725732 1.0455164 -2.2381241 -0.3370874
0.25737804 -3.071003 -0.77035594 -1.1727517 -0.3009985 0.023621831 -1.0462563 0.14625469
-0.056522608 0.8791961 -0.13577065 -1.2089009 -1.6990631 0.17705269 2.49771 -0.0032566786
0.8990987 -0.086371265 0.07377103 0.60951096 2.373124 -0.7185695 0.58095086 -0.20109895
0.14873004 1.1756479 -1.930737 -0.65960795 -0.101607375 0.7323139 -0.32502905 1.436575
-0.7515159 -0.8862289 -1.3630615 -0.33676085 1.359689 -0.8007159 1.1237749 -0.2198038
-0.31556067 0.07792337 -0.07840372 -0.11769028 0.5178642 -0.1453101 0.7489649 -1.7448181
00000000: 3ff4 e63f ab58 fcbe 47d3 83bf c95b ce3c
00000010: 37c5 d6be b2e4 a73e 5f2e c7bf a970 69bf
00000020: 19fe f2be 69d3 e33e dc94 1c3f 97b0 a73e
00000030: f653 a63e 5c64 4d3f a80f 97bf 9241 8ebf
00000040: a58e f8bf 2212 143f 2aa4 b63d 6131 76bf
00000050: 5700 aabe 80c6 9a3e 0d41 41bf f800 c0bf
00000060: 3255 4abe 38ba 55bf 2d8d 86bf 4893 67be
00000070: e2d1 ad3e 2143 d5be 1a61 f73e e5e4 133e
00000080: 71d7 da3d 42a4 9d3f eabf afbe 06ad 833f
00000090: c2a3 d83e 7875 99bf 6dab 94be 80b7 2fbf
000000a0: 5964 113d b0b3 90be d314 873f a537 0f3b
000000b0: edb5 25be f11c 25bf 612d a13e 97cf 513f
000000c0: 7a05 82bf 81fe 123d d6a5 65bf affb a93e
000000d0: d7f6 8abf 1e42 0f3f 265b 073f e6b8 f23f
000000e0: d83b 16c0 80e8 c63f b0ee a4bf 26e0 13be
000000f0: 945c 143e cf00 f83f e377 7e3f d616 b7bb
00000100: ae31 f2bd bd15 57bf cf7f 36bf b54f c93d
00000110: 18b6 06be e893 8d3f 21af ddbd cfc9 adbe
00000120: 6e93 bd3f a53e 0fbf 580d d5be 34b2 ef3d
00000130: c85c debf c9bf 05bf d8ac 9dbd cec9 58bf
00000140: 9746 653f d92b 0bbf aee9 d0bf a27c 683f
00000150: b9fe c03d 8677 3bbf 5739 8fbf dce8 2a3f
00000160: 76d0 50bd fd68 a23f 55c4 1fbf ced2 01bf
00000170: 458d 0bbe f830 fbba 1503 dc3e 9359 a4bf
00000180: 2450 c23f 88aa 7a3f 7620 173f 13c4 0fbd
00000190: cf11 ba3f af4a 35bf cb4d 373f e930 e1be
000001a0: 5bfe aebf 2e78 82bf 3908 943f bfe4 783f
000001b0: 89b3 8e3f 5ed7 e43e 480f 0fbf 9a1f 173f
000001c0: 8a8b aebe ed1b 5f3c 9c78 1eba b2c9 8b3f
000001d0: 33e5 e13d a3b5 d2be c97c b53e eda9 34bf
000001e0: d59a 4bbf 96ed 42bd de5d 953d 186a c63f
000001f0: 358e 243d 8e6e a7bd 4436 0d3f bd9e 8fbe
00000200: 0a45 74be 7da2 693e 8d28 44bf fd02 68bf
00000210: 8ec4 643d e6bd cc3f d4e1 be3f 5111 283f
00000220: f3c3 54bd 633d 9abf 7404 c2be 6b97 82bf
00000230: f337 b4bc d139 873f e762 803f 9865 333f
00000240: 9da2 7fbd f0f6 2d3f 34d5 d6be c899 d0be
00000250: 7cba c8be 8dce 07be ec21 6c3e 4486 493d
00000260: 8b8b 24bf a9e2 733f 283d 81bf b61d 9a3f
00000270: 686f adbe fe4a 4c3f 283f b83f 83b3 4e3f
00000280: 87b4 c5be 9675 ff3e 7804 eebf f86a bfbf
00000290: e87d 8abf 5ef5 da3e 0c7d f43f 426a 703f
000002a0: 8831 f3be 65ff a5bf 11f5 93bf d0f9 64be
000002b0: 4dd6 f0bf 47ac 0040 5fd5 8dbf 523d 45be
000002c0: 050f 543e 744c 4dbe fdca d73f 84d6 4bbf
000002d0: 96f7 16be 79c3 5c3f 45f3 54be c2de fd3c
000002e0: dadc bebf 9569 843e 372b edbf c00c f4bd
000002f0: b298 8a3e da65 11bc 56d0 953f 7654 3e3f
00000300: 9fa0 483f 5a55 a1bf f90c a23e baa9 843f
00000310: 2ca0 803f d24b d1bf c619 d5bf ca25 693f
00000320: bee8 3abf 0aca 87be 6360 8d3f 46ac 2b3d
00000330: f560 5f3f 7bd3 853f 6d3d 0fc0 b896 acbe
00000340: 0ec7 833e 508b 44c0 0c36 45bf ba1c 96bf
00000350: 7a1c 9abe 9282 c13c baeb 85bf cac3 153e
00000360: 4084 67bd ff12 613f 7607 0bbe 44bd 9abf
00000370: e67a d9bf 4d4d 353e 7bda 1f40 006e 55bb
00000380: 552b 663f 6be3 b0bd 4415 973d e908 1c3f
00000390: 43e1 1740 2cf4 37bf 32b9 143f e2ec 4dbe
000003a0: b04c 183e a17b 963f 6422 f7bf 11dc 28bf
000003b0: 8717 d0bd ec78 3b3f 356a a6be b1e1 b73f
000003c0: 5963 40bf e6df 62bf cd78 aebf eb6b acbe
000003d0: 4a0a ae3f b8fb 4cbf dbd7 8f3f 3f14 61be
000003e0: 2b91 a1be 4a96 9f3d 2192 a0bd 9a07 f1bd
000003f0: c092 043f 2ccc 14be 2abc 3f3f 3356 dfbf

user_age_embedding.weight f4 [5, 4]
0.6303363 0.5847128 -1.8228542 1.3421535 0.6560508 -1.8599873 -0.60907125 0.5009575
0.36726162 -0.49140128 0.14978193 -0.6202612 1.4802078 0.63640714 1.0228587 0.4585789
-0.1032659 0.506917 1.2962813 -1.6385223
00000000: b85d 213f bdaf 153f 4953 e9bf b0cb ab3f
00000010: f2f2 273f 1014 eebf 18ec 1bbf c03e 003f
00000020: b709 bc3e f398 fbbe 6f60 193e 70c9 1ebf
00000030: 7377 bd3f 94eb 223f 09ed 823f dbca ea3e
00000040: 127d d3bd 50c5 013f 8cec a53f 19bb d1bf

user_gender_embedding.weight f4 [2, 2]
0.05599955 0.30842182 -1.6684453 0.4205659
00000000: c95f 653d 77e9 9d3e 9e8f d5bf 6a54 d73e

user_occupation_embedding.weight f4 [21, 8]
0.20221227 1.215204 -1.026631 0.20843698 0.8686322 0.4979369 2.0650704 1.1930397
-0.05365216 -1.6051934 0.91798073 -0.5805746 -1.4442881 0.6389181 -0.50273556 -0.54235125
1.0913486 -0.9202777 1.3987812 0.390804 1.0380653 -1.048874 -0.48975843 0.75863093
2.466463 0.12968694 -1.9946126 2.245449 0.20733136 -0.11832114 -0.92447066 -0.92372906
0.69671327 -1.2822559 -0.902725 0.47400004 0.66667837 -1.2620364 0.6152066 -1.2947624
-1.4666302 -0.44122154 0.067535 -0.18561722 -0.30979234 -1.4226167 0.7129362 -0.38890633
0.44566122 -2.5527978 0.724938 0.5556291 -0.82463306 0.9227147 0.089682974 0.82441115
0.18544008 0.7556333 -0.86180156 1.12071 -0.35715145 0.25447872 0.7752109 0.76333475
-0.11341801 -1.0448694 0.6890147 0.11620094 -0.49435422 -1.3045964 1.0815033 -0.41463417
1.089624 -0.44426414 0.24958642 -0.8685066 -0.61034566 -0.4193278 1.3437454 0.7744397
-0.030068416 -0.7662164 0.39915955 -0.60127383 0.87669486 -0.6769983 -1.0593138 -0.91695905
-0.62064004 -0.059890144 0.8152162 -0.14780025 1.5314329 -0.05642466 -0.8359086 0.5311034
1.9987544 1.7702076 1.1808499 -1.2163296 -0.909691 -0.08958103 -0.0017646245 -0.9733751
0.33380082 -1.1377113 0.8095947 -0.21959895 0.68517077 1.3464448 0.1842607 0.70728767
0.281581 1.3238899 0.7670468 -0.22122602 -0.51515836 -1.0911965 0.13127443 -0.30609602
0.94172484 1.159425 -0.23863295 -0.5487018 -0.19344528 2.0645204 0.82552 -0.22988416
0.21061352 -0.04170626 -0.93009883 -0.57369435 -0.7697934 0.012456898 -0.016513916 0.64337945
1.182517 0.35194033 -1.9307649 -0.66863424 1.5568305 -0.85655403 1.6230335 0.17230362
0.055685516 -0.1924756 1.4772893 -0.106916405 0.14757638 -1.4849495 -0.44837546 -0.5142712
1.317928 1.0345643 -2.8218327 -1.0729402 -0.61780787 -0.96163726 1.0045573 0.47597873
-0.26080298 -1.4645184 0.64589494 -0.9020636 -0.782327 -0.7663167 -0.36000738 0.88700986
00000000: bc10 4f3e ce8b 9b3f a568 83bf 8170 553e
00000010: ae5e 5e3f 96f1 fe3e 1d2a 0440 86b5 983f
00000020: 5ec2 5bbd fa76 cdbf c900 6b3f 89a0 14bf
00000030: 6fde b8bf 2390 233f 47b3 00bf 88d7 0abf
00000040: 50b1 8b3f 5297 6bbf 430b b33f 7617 c83e
00000050: 53df 843f 8141 86bf 9ec1 fabe a335 423f
00000060: 88da 1d40 a7cc 043e 774f ffbf 70b5 0f40
00000070: ac4e 543e 5b52 f2bd 1caa 6cbf 8279 6cbf
00000080: cd5b 323f f620 a4bf fc18 67bf 22b0 f23e
00000090: 6fab 2a3f 698a a1bf 2e7e 1d3f c6ba a5bf
000000a0: 8aba bbbf cae7 e1be ca4f 8a3d 7112 3ebe
000000b0: 1a9d 9ebe 4e18 b6bf fd82 363f bb1e c7be
000000c0: b52d e43e 0a61 23c0 8995 393f b53d 0e3f
000000d0: 271b 53bf 0837 6c3f b5ab b73d 9c0c 533f
000000e0: 01e4 3d3e 2f71 413f 079f 5cbf 6d73 8f3f
000000f0: 8edc b6be 094b 823e 3974 463f e869 433f
00000100: b447 e8bd 48be 85bf 4463 303f c2fa ed3d
00000110: ff1b fdbe 04fd a6bf b36e 8a3f ee4a d4be
00000120: cd78 8b3f 9776 e3be 9593 7f3e 7356 5ebf
00000130: 9d3f 1cbf 22b2 d6be d9ff ab3f ae41 463f
00000140: 0a52 f6bc c226 44bf a45e cc3e 15ed 19bf
00000150: 136f 603f c34f 2dbf 9897 87bf d4bd 6abf
00000160: 44e2 1ebf 5e4f 75bd 02b2 503f f358 17be
00000170: fe05 c43f 8b1d 67bd 1bfe 55bf 64f6 073f
00000180: 2fd7 ff3f 2a96 e23f 1726 973f b0b0 9bbf
00000190: 82e1 68bf 4276 b7bd f94a e7ba 1c2f 79bf
000001a0: f1e7 aa3e 86a0 91bf 9941 4f3f 8cde 60be
000001b0: 5a67 2f3f 4e58 ac3f d6ae 3c3e ce10 353f
000001c0: 632b 903e 3975 a93f 2e5d 443f 1389 62be
000001d0: 6be1 03bf 54ac 8bbf ce6c 063e 9eb8 9cbe
000001e0: e114 713f 0a68 943f 325c 74be b977 0cbf
000001f0: 8516 46be 1a21 0440 4755 533f c166 6bbe
00000200: 12ab 573e 2fd4 2abd f51a 6ebf a2dd 12bf
00000210: 2e11 45bf 0418 4c3c 3148 87bc 84b4 243f
00000220: b85c 973f 8631 b43e 4e23 f7bf 9d2b 2bbf
00000230: 3946 c73f 2047 5bbf 90bf cf3f 5c70 303e
00000240: 7f16 643d 5318 45be d117 bd3f fdf6 dabd
00000250: 431e 173e d312 bebf 7891 e5be 47a7 03bf
00000260: ddb1 a83f 9a6c 843f e898 34c0 1b56 89bf
00000270: a828 1ebf dc2d 76bf 5595 803f 7cb3 f33e
00000280: f887 85be 5775 bbbf 5f59 253f a4ed 66bf
00000290: 9546 48bf 552d 44bf e352 b8be 1413 633f

user_location_embedding.weight f4 [760, 18]
0.3817003 -0.35745084 -0.5591599 -0.97378707 1.095437 1.0573726 0.6462039 1.1777645
-0.9234594 0.0035875125 -0.6790355 0.7253311 -0.6274549 -1.0240402 0.44758642 -0.05203379
1.5921024 -0.39755023 -0.003298721 -0.5204897 -0.10070368 0.508174 -0.076752506 0.114781655
0.14574382 0.5643138 0.17144312 -1.170037 1.1697481 0.9755325 0.87866277 -1.0870398
0.77072906 -0.06606417 0.020324405 0.30682644 -0.19136998 0.9325536 -0.7902824 -0.78833896
-1.1685591 -0.6854372 -0.116637245 0.8631165 -0.20583484 1.6714696 -0.14086983 1.5771904
0.93014455 -0.045746345 0.13292816 3.4736683 -0.552752 0.59670967 -0.8309229 0.46886843
0.0833334 -0.34254006 -1.7985523 -1.6120489 1.8246098 0.7792922 -0.7637664 1.3500867
0.82362825 1.8089666 -1.2788826 0.8259828 -1.0156044 0.16849734 0.27743578 -0.1085509
-0.4803321 -0.35759312 -0.6203214 0.049537554 -1.0508018 0.84495574 -0.8023749 -1.7098874
-0.22060834 0.20379628 -1.5636644 1.4573593 -1.2468948 -2.097879 -1.0097139 0.69452167
0.19221574 0.55200857 0.1853052 0.9500142 -0.5573109 -0.76077855 0.02370623 -0.66765547
0.008281272 -0.83954793 1.2823697 0.28562433 -0.11089578 1.4608734 -0.070529826 0.6005448
-0.51777077 -0.21771884 0.6477175 0.9356111 -1.3860126 -1.1022514 -1.467554 -0.01717712
2.4564822 -0.74300206 -0.025297012 0.9425397 -0.6020012 0.28474674 -1.3345649 -0.13404675
-0.6163349 -0.6914151 0.43454257 -0.22756995 -0.093202256 -0.1803712 2.5479796 0.49144015
-2.8466852 -0.13770787 -0.020571606 -0.6179353 0.17613275 0.16512798 2.42972 0.019067118
0.06992061 -0.4965793 -1.7025379 0.20072834 0.7769094 0.052192554 -0.4394839 -1.8847029
-0.28869727 -0.9418588 -0.5948435 -1.2641536 -0.7636769 1.4606836 -0.686593 -0.3571613
0.040494245 0.3905339 1.0043821 1.206201 -0.62703604 -0.3615435 0.03504232 -0.58648986
0.07977175 0.13995568 -0.63457197 0.17247577 -0.029223971 -0.18561286 1.104504 0.5823407
-1.3181993 0.061081428 1.0643226 2.1062655 0.05130393 0.3186943 0.2852761 -0.5755768
-0.041989278 0.023896098 -1.3042562 0.09889261 0.069926746 1.1767509 -1.2825719 1.0795728
1.5726746 0.84788287 -0.36398616 2.1480093 -1.4524539 1.5030148 1.2360656 -0.13805087
-0.38414988 0.13958053 -0.88241464 1.1248394 -0.17791162 -2.3062768 -0.324215 -1.4853399
0.7968551 0.7871695 -0.67269754 0.64305794 -0.47934058 0.5437085 0.9535701 -0.65328366
-0.33406225 -1.2118514 1.3367893 -0.57885605 1.4161525 1.7026584 -1.0143983 1.6983852
-0.55198497 -1.7300304 -1.010937 0.7421985 2.4735098 2.9326143 -1.1830653 0.90520316
-0.72252965 -0.16938458 0.10234865 -0.55088 -0.77802485 -0.16676098 -0.7417753 -1.2607763
-0.06341965 -0.9190547 0.2135745 -1.0975829 0.6210192 0.33459035 -0.28006768 -0.17927292
0.3654767 0.6348617 1.0289947 3.165858 -1.601853 -1.8401736 -0.6528925 0.033808764
-0.5625996 -0.79969805 1.1617 -0.50238067 -1.31532 2.026172 -0.31951118 -0.5450171
00000000: 396e c33e cc03 b7be 1a25 0fbf 1c4a 79bf
00000010: 4837 8c3f fc57 873f 9e6d 253f fdc0 963f
00000020: d667 6cbf 791c 6b3b 45d5 2dbf 4daf 393f
00000030: e2a0 20bf c013 83bf 0c2a e53e 6221 55bd
00000040: 03ca cb3f b48b cbbe 5b2f 58bb d03e 05bf
00000050: bb3d cebd b117 023f 6b30 9dbd a512 eb3d
00000060: de3d 153e df76 103f c98e 2f3e c6c3 95bf
00000070: 4eba 953f 7fbc 793f 0bf0 603f 1f24 8bbf
00000080: 804e 453f a74c 87bd 5e7f a63c 5b18 9d3e
00000090: 7ef6 43be d5bb 6e3f f34f 4abf 95d0 49bf
000000a0: 5893 95bf d078 2fbf 82df eebd 34f5 5c3f
000000b0: 5ec6 52be b7f2 d53f 2e40 10be 60e1 c93f
000000c0: f41d 6e3f 8560 3bbd 521e 083e 9550 5e40
000000d0: 2881 0dbf f7c1 183f 5db7 54bf 860f f03e
000000e0: b4aa aa3d 6961 afbe f636 e6bf 9e57 cebf
000000f0: d08c e93f b27f 473f 3286 43bf a4cf ac3f
00000100: 4dd9 523f 388c e73f 6db2 a3bf 9c73 533f
00000110: 53ff 81bf 918a 2c3e 100c 8e3e ef4f debd
00000120: 17ee f5be 7216 b7be 62cd 1ebf e4e7 4a3d
00000130: ac80 86bf 054f 583f 7168 4dbf 97dd dabf
00000140: 27e7 61be f9af 503e 2826 c8bf c08a ba3f
00000150: 409a 9fbf a643 06c0 4e3e 81bf 2ccc 313f
00000160: 34d4 443e 6f50 0d3f a5c0 3d3e 2134 733f
00000170: edab 0ebf 62c2 42bf 9133 c23c 78eb 2abf
00000180: 2cae 073c 9dec 56bf b124 a43f 5a3d 923e
00000190: 541d e3bd e6fd ba3f f171 90bd 4ebd 193f
000001a0: a08c 04bf b0f1 5ebe d0d0 253f 3684 6f3f
000001b0: dc68 b1bf 9316 8dbf cfd8 bbbf 08b7 8cbc
000001c0: 0137 1d40 6235 3ebf ae3b cfbc 484a 713f
000001d0: c01c 1abf 53ca 913e 06d3 aabf 8d43 09be
000001e0: 20c8 1dbf 9400 31bf 5d7c de3e 1908 69be
000001f0: d3e0 bebd 3ab3 38be 1912 2340 0b9e fb3e
00000200: 1730 36c0 4b03 0dbe c985 a8bc 0231 1ebf
00000210: 255c 343e 4f17 293e 8880 1b40 a532 9c3c
00000220: 8932 8f3d a43f febe c3ec d9bf bb8b 4d3e
00000230: 89e3 463f dcc7 553d 0904 e1be f23d f1bf
00000240: 21d0 93be a91d 71bf aa47 18bf c9cf a1bf
00000250: 5480 43bf aef7 ba3f 8fc4 2fbf d9dd b6be
00000260: 4bdd 253d 0ff4 c73e 988f 803f cb64 9a3f
00000270: 6f85 20bf 3b1c b9be 8988 0f3d 3324 16bf
00000280: 5f5f a33d 8b50 0f3e 4f73 22bf 7d9d 303e
00000290: 1c67 efbc 4c11 3ebe 6360 8d3f 4814 153f
000002a0: c1ba a8bf 8530 7a3d b93b 883f 0ecd 0640
000002b0: 1224 523d e62b a33e b50f 923e 0059 13bf
000002c0: f3fc 2bbd c0c1 c33c def1 a6bf 3588 ca3d
000002d0: c135 8f3d c69f 963f 512b a4bf 712f 8a3f
000002e0: 674d c93f da0e 593f 655c babe fc78 0940
000002f0: 02ea b9bf ca62 c03f 6637 9e3f 355d 0dbe
00000300: 4baf c4be 33ee 0e3e ede5 61bf bdfa 8f3f
00000310: 772e 36be 0a9a 13c0 82ff a5be 9e1f bebf
00000320: b2fe 4b3f f183 493f e835 2cbf 729f 243f
00000330: 216c f5be 7b30 0b3f 2c1d 743f 993d 27bf
00000340: 350a abbe f21d 9bbf e91b ab3f e92f 14bf
00000350: 7c44 b53f b6f0 d93f ced7 81bf b064 d93f
00000360: e34e 0dbf a371 ddbf 6266 81bf b900 3e3f
00000370: fc4d 1e40 f4af 3b40 af6e 97bf 65bb 673f
00000380: b4f7 38bf 2773 2dbe 2b9c d13d 7906 0dbf
00000390: a32c 47bf 64c3 2abe fce4 3dbf 1e61 a1bf
000003a0: 29e2 81bd 2b47 6bbf 46b3 5a3e 997d 8cbf
000003b0: 1dfb 1e3f 6d4f ab3e 0865 8fbe 5293 37be
000003c0: c31f bb3e 4c86 223f 19b6 833f 6b9d 4a40
000003d0: 8509 cdbf cf8a ebbf f623 27bf 0f7b 0a3d
000003e0: 8706 10bf 03b9 4cbf 96b2 943f 059c 00bf
000003f0: 685c a8bf cdac 0140 f896 a3be 3e86 0bbf

item_id_embedding.weight f4 [1600, 32]
0.5919509 -0.2071109 0.36730596 -0.56538707 1.205713 -2.1584895 1.0459007 0.058538716
0.16246164 0.9963416 0.17099257 0.5291296 0.6149112 -0.0447737 -0.9085335 0.28587037
0.32067057 1.1235408 -1.0883116 1.4140993 -0.3581619 1.6510371 -0.9237547 1.2903866
-0.23290783 0.5474359 -0.20328678 0.54505646 -0.7341006 -0.43900663 0.73017645 0.54446155
-0.020160997 -1.2648054 -0.291331 0.787294 0.47586334 -0.17572315 -0.6813787 0.8445954
-0.2724624 0.7961641 -1.5731745 0.025561718 -0.01224463 0.14060265 -0.53928006 -0.37635386
-0.19768596 -0.078273535 -0.88364697 -0.56111914 0.9989948 -0.07724512 -1.4293334 1.0957607
-0.09058686 0.9132311 1.3850757 0.055570837 0.76709604 0.71036893 -0.020650897 -0.08195184
-0.4222177 -0.5996405 -0.33789334 0.44442812 0.77619284 0.17972356 -0.0633373 -0.56108844
1.3138747 -1.1634011 -0.44866782 0.563113 -0.61196506 -0.13548069 -0.05662292 0.014742427
-0.19675618 -0.5044027 -1.0219226 -0.7880959 0.79883766 -1.0979167 1.4226565 -0.007814069
-0.41513866 1.6853367 0.38537177 -0.11150687 -0.5941168 1.8394619 1.8965856 -0.06457762
2.142846 -0.29453242 -1.8448106 -0.3671663 0.49870327 0.60230553 -0.44423318 0.35543457
1.3216697 -0.72680986 -0.79052997 1.4385365 -1.2962297 -0.08235629 -0.061702132 -0.3545175
0.944617 0.14522493 -0.39928997 1.7790128 -0.46652666 -0.39355448 -0.8139266 0.99366677
1.3786037 0.2041958 0.80759144 1.5563945 -0.015328372 -0.33471644 -0.9902301 0.88370985
0.07685855 -1.1995339 -0.44170183 -0.3709364 -1.0089296 1.8050685 0.22137834 0.4167224
-0.08683528 -1.6543205 -1.3203914 -0.11614287 0.19713353 -0.6119272 -0.44029188 0.42216212
2.4467795 0.012149059 0.44173518 0.5094256 -0.09920104 -1.7965033 1.0703021 0.23141237
0.013892205 -0.44813123 -0.21131225 0.51730186 0.9238052 -0.669249 -0.050260708 0.31541318
0.8800059 0.13738178 0.18084396 -1.1237777 1.3749498 -0.106123604 0.042887054 -0.010085422
-0.03556806 0.24559651 -0.05973968 0.0035711885 -0.4609093 2.2786274 -0.45068353 1.1748484
0.72668797 0.27446467 1.5404018 0.92752516 1.7057102 1.0036851 -1.2244768 -0.3999464
-0.51744974 -0.7803549 -0.8923653 -1.3134059 0.6148686 0.18758689 -0.32393676 -0.72392756
-0.7946994 0.06273286 -1.5929999 0.009648124 0.2679624 0.55270314 0.86393803 -0.17707793
1.9891096 0.13334338 -0.54149204 0.30949003 0.83424413 -0.14845534 -3.0919137 -0.7428446
0.35170522 0.12424097 1.7218394 1.9794476 -0.3602 -1.5905077 -1.5187106 -0.23821735
1.0379882 -1.479336 1.9843054 -1.0629468 -0.012083443 -0.9376087 0.51419 0.15074393
-1.1035925 1.9034631 -0.5035694 -1.650027 -0.6071381 -0.049163543 0.13562122 -0.54348266
-0.041253794 -0.20829155 -0.95279545 0.6912424 0.42006287 -0.9696873 -0.16896866 0.49809512
0.38965383 1.6585289 -0.015509074 -0.7760315 -2.1101756 -0.07780554 -0.34647068 2.1657417
-0.15306424 -0.6153917 0.8793366 -0.4127804 -0.96989655 -0.72452474 0.068635866 0.9035392
00000000: 188a 173f e114 54be 870f bc3e 35bd 10bf
00000010: ce54 9a3f b124 0ac0 13e0 853f 4bc6 6f3d
00000020: 585c 263e 3e10 7f3f ad18 2f3e 0a75 073f
00000030: d26a 1d3f a164 37bd a795 68bf 9a5d 923e
00000040: ef2e a43e 2fd0 8f3f cb4d 8bbf 3501 b53f
00000050: ff60 b7be 2f55 d33f 307b 6cbf 632b a53f
00000060: 647f 6ebe c224 0c3f 692a 50be d288 0b3f
00000070: 04ee 3bbf 7ac5 e0be d8ec 3a3f d561 0b3f
00000080: ad28 a5bc 25e5 a1bf 5629 95be 198c 493f
00000090: 5ca4 f33e c5f0 33be d66e 2ebf 6737 583f
000000a0: 3180 8bbe 69d1 4b3f c85d c9bf cf66 d13c
000000b0: b39d 48bc 24fa 0f3e 420e 0abf 74b1 c0be
000000c0: 306e 4abe e04d a0bd b036 62bf 81a5 0fbf
000000d0: 20be 7f3f b132 9ebd 66f4 b6bf e341 8c3f
000000e0: 9b85 b9bd 83c9 693f 294a b13f 3f9e 633d
000000f0: 6860 443f bdda 353f 122c a9bc 5ed6 a7bd
00000100: eb2c d8be 0a82 19bf 5b00 adbe 158c e33e
00000110: 93b4 463f 7409 383e fdb6 81bd 7ea3 0fbf
00000120: 0c2d a83f 54ea 94bf cab7 e5be 2c28 103f
00000130: bea9 1cbf 73bb 0abe 6fed 67bd 388a 713c
00000140: 747a 49be 8920 01bf 5cce 82bf a7c0 49bf
00000150: a080 4c3f 8988 8cbf 9c19 b63f 9506 00bc
00000160: 0e8d d4be 1db9 d73f 734f c53e b75d e4bd
00000170: 0a18 18bf 7d73 eb3f 51c3 f23f 4541 84bd
00000180: 6424 0940 f4cc 96be c122 ecbf 39fd bbbe
00000190: 0956 ff3e b230 1a3f 8872 e3be 85fb b53e
000001a0: 792c a93f 3610 3abf 2c60 4abf f721 b83f
000001b0: dbea a5bf 6aaa a8bd 60bb 7cbd 5183 b5be
000001c0: 6bd2 713f d8b5 143e bc6f ccbe b1b6 e33f
000001d0: 95dc eebe f97f c9be 7e5d 50bf f260 7e3f
000001e0: 1676 b03f b418 513e 50be 4e3f ef37 c73f
000001f0: da23 7bbc f45f abbe b87f 7dbf cf3a 623f
00000200: 0468 9d3d 548a 99bf be26 e2be 60eb bdbe
00000210: 9b24 81bf 7c0c e73f 01b1 623e a35c d53e
00000220: b2d6 b1bd c6c0 d3bf 9602 a9bf 50dc edbd
00000230: 5fdd 493e 43a7 1cbf f06d e1be a225 d83e
00000240: 0998 1c40 d90c 473c 1d2b e23e b769 023f
00000250: ea29 cbbd d2f3 e5bf a9ff 883f 5df7 6c3e
00000260: 229c 633c 7571 e5be 3d62 58be e56d 043f
00000270: 7f7e 6c3f e753 2bbf 2cde 4dbd d67d a13e
00000280: 1148 613f cfad 0c3e 292f 393e f3d7 8fbf
00000290: 5bfe af3f 5557 d9bd 56aa 2f3d 533d 25bc
000002a0: d0af 11bd a77d 7b3e 98b1 74bd 9a0a 6a3b
000002b0: 4efc ebbe 08d5 1140 febf e6be 6f61 963f
000002c0: 3908 3a3f a286 8c3e e32b c53f 4a72 6d3f
000002d0: b654 da3f c178 803f a8bb 9cbf c6c5 ccbe
000002e0: 9677 04bf 57c5 47bf 0d72 64bf af1d a8bf
000002f0: 0768 1d3f c716 403e 0adb a5be 5153 39bf
00000300: 6b71 4bbf 167a 803d 6ce7 cbbf 2a13 1e3c
00000310: 5e32 893e f47d 0d3f 0b2b 5d3f eb53 35be
00000320: 259b fe3f 2b8b 083e 399f 0abf 7a75 9e3e
00000330: 0691 553f ad04 18be eae1 45c0 102b 3ebf
00000340: b512 b43e 0d72 fe3d 3c65 dc3f 8a5e fd3f
00000350: 226c b8be c295 cbbf 1c65 c2bf 40ef 73be
00000360: ccdc 843f e25a bdbf b8fd fd3f a40e 88bf
00000370: a2f9 45bc 2007 70bf f5a1 033f 9e5c 1a3e
00000380: 8542 8dbf aea4 f33f ede9 00bf 1634 d3bf
00000390: 676d 1bbf b65f 49bd 4ae0 0a3e ae21 0bbf
000003a0: bdf9 28bd 614a 55be 67ea 73bf 43f5 303f
000003b0: 7b12 d73e 6d3d 78bf 1f06 2dbe 5306 ff3e
000003c0: b580 c73e ad4a d43f c519 7ebc 00aa 46bf
000003d0: 1e0d 07c0 8358 9fbd 9b64 b1be 839b 0a40
000003e0: dfbc 1cbe 4f8a 1dbf 341c 613f f457 d3be
000003f0: 244b 78bf 747a 39bf f690 8c3d 584e 673f

item_type_embedding.weight f4 [5, 8]
1.6479647 -1.1658483 2.529434 0.12985504 -0.14749844 0.9033752 -0.17277767 0.02799985
1.1810479 -1.0299178 1.8166419 -0.17658865 -1.2401792 -1.5904835 1.3897455 1.203785
0.45789346 -1.0085329 0.1635704 -1.7336568 -0.9711622 -0.11100722 0.28640962 -1.8393574
1.0560735 -0.2726199 1.6784688 0.6320211 3.1396446 0.75713646 0.49694857 -1.127021
-1.7573627 0.8840749 -1.2244939 0.042306233 0.46672744 -0.0945496 0.7412172 -1.4453646
00000000: 82f0 d23f 843a 95bf 3fe2 2140 b8f8 043e
00000010: d509 17be 9943 673f a1ec 30be f15f e53c
00000020: 942c 973f 59d4 83bf b987 e83f a8d3 34be
00000030: 31be 9ebf f794 cbbf 2ee3 b13f a015 9a3f
00000040: 0371 ea3e 9b17 81bf 007f 273e 77e8 ddbf
00000050: 169e 78bf c157 e3bd 48a4 923e 1070 ebbf
00000060: 6b2d 873f d694 8bbe 11d8 d63f 23cc 213f
00000070: f0ef 4840 b2d3 413f 0b70 fe3e 3942 90bf
00000080: 43f1 e0bf bc52 623f 37bc 9cbf 4d49 2d3d
00000090: e6f6 ee3e 38a3 c1bd 69c0 3d3f b501 b9bf

item_temperature_embedding.weight f4 [7, 8]
-0.48670274 -0.5909629 -0.33654663 -2.2603018 -0.09744284 -1.7658272 0.99152297 -1.5871844
0.39343914 1.1194925 -0.4902148 0.3962853 -0.6779844 0.40188935 -0.99791557 -1.1334304
-0.8304314 1.5606626 1.2920225 -0.7923318 -0.06836576 -0.038590778 -1.1936163 -0.3970066
-0.9096167 0.1886798 -0.43531165 -0.47006762 -0.77204967 0.03548683 -0.43168214 1.3874499
-0.79698175 -0.5851759 0.54412943 -0.62343717 0.078759626 1.294277 0.87465227 0.42411476
0.6775713 -0.64390844 -0.5069093 -0.26935434 0.37298086 -0.81179595 1.6506407 1.6167791
-1.1810963 0.18011025 -2.5137274 -0.0037209871 -0.50534064 0.5437416 0.6181339 -0.60746676
00000000: 1a31 f9be 5849 17bf d74f acbe c9a8 10c0
00000010: 1d90 c7bd a006 e2bf 73d4 7d3f dc28 cbbf
00000020: db70 c93e 884b 8f3f 6ffd fabe e8e5 ca3e
00000030: 6390 2dbf 71c4 cd3e 6577 7fbf 3f14 91bf
00000040: 2797 54bf cbc3 c73f fe60 a53f 42d6 4abf
00000050: 5903 8cbd 5d11 1ebd 6bc8 98bf 7344 cbbe
00000060: a4dc 68bf 4735 413e 2be1 debe b4ac f0be
00000070: 0ca5 45bf a35a 113d 7105 ddbe f597 b13f
00000080: ff06 4cbf 16ce 15bf 114c 0b3f 9499 1fbf
00000090: ba4c a13d deaa a53f 36e9 5f3f 9225 d93e
000000a0: 5075 2d3f 2fd7 24bf cfc4 01bf d0e8 89be
000000b0: 59f7 be3e dcd1 4fbf 3248 d33f 9ef2 ce3f
000000c0: 2a2e 97bf d26e 383e e9e0 20c0 cedb 73bb
000000d0: 015e 01bf a632 0b3f 063e 1e3f f182 1bbf

item_humidity_embedding.weight f4 [6, 8]
-0.73138106 0.5386048 0.17949688 -0.099082015 -1.257929 -0.31613654 -1.6357074 0.27947128
-0.9875191 -0.28324047 0.60387087 -1.6957449 0.91869587 0.41107637 0.24777497 -0.24930972
-0.7526966 0.2722513 2.1352544 0.7591237 0.8167458 -0.5409879 2.0922077 -0.9288483
1.1179323 1.0546978 -2.1567903 -0.1747797 -0.65326387 -0.66320604 0.71786904 -0.45694575
-2.2820814 0.96395266 0.12851006 -1.107873 1.7082307 -1.9014393 -0.111657895 -0.7052003
-0.108269535 0.8296946 -0.34476906 -0.45993698 -0.3786691 0.39422077 1.2099779 0.65268815
00000000: ca3b 3bbf 01e2 093f 08ce 373e 83eb cabd
00000010: d103 a1bf a6dc a1be dc5e d1bf dc16 8f3e
00000020: 0dce 7cbf e504 91be 4897 1a3f 2b0e d9bf
00000030: a72f 6b3f 9a78 d23e b9b8 7d3e 0c4b 7fbe
00000040: b9b0 40bf 8664 8b3e 02a8 0840 ee55 423f
00000050: 4116 513f 2f7e 0abf bbe6 0540 01c9 6dbf
00000060: 6818 8f3f 5600 873f da08 0ac0 73f9 32be
00000070: 4d3c 27bf dfc7 29bf 44c6 373f cbf4 e9be
00000080: 9f0d 12c0 9ac5 763f 2498 033e c8ce 8dbf
00000090: 4ea7 da3f 5d62 f3bf e5ac e4bd 0288 34bf
000000a0: 6bbc ddbd de66 543f 9285 b0be dc7c ebbe
000000b0: ebe0 c1be 4ed7 c93e 8ee0 9a3f 9216 273f

item_windSpeed_embedding.weight f4 [5, 8]
1.6601886 0.7666562 -1.2978437 0.5091394 1.6177804 -0.22434987 -1.0086898 1.0351942
1.3351743 0.050704572 -0.77177745 -1.6387343 0.12338099 0.50981027 -0.08423211 -0.35348025
0.10242875 -0.6186957 1.1247329 0.7405312 -0.39024934 -2.1502607 -0.5372736 1.9112066
-1.2336258 -0.812078 0.9831887 0.0046238187 1.0513649 1.7769651 -0.28053027 -0.61164135
-0.45043108 2.3228369 0.06698437 -0.7370773 0.8215958 1.7657051 1.2686546 -0.84699917
00000000: 0f81 d43f 9543 443f be1f a6bf f656 023f
00000010: 6e13 cf3f f9bb 65be bf1c 81bf 3e81 843f
00000020: fee6 aa3f 99af 4f3d 3593 45bf 0cc2 d1bf
00000030: 2caf fc3d ed82 023f e281 acbd 5dfb b4be
00000040: 2ac6 d13d d762 1ebf 3ff7 8f3f 7493 3d3f
00000050: c3ce c7be df9d 09c0 c38a 09bf 6ba2 f43f
00000060: 73e7 9dbf 58e4 4fbf 41b2 7b3f 6783 973b
00000070: 2093 863f 9873 e33f aaa1 8fbe 8794 1cbf
00000080: e79e e6be 5ca9 1440 1a2f 893d 19b1 3cbf
00000090: 1a54 523f a002 e23f 4663 a23f f0d4 58bf

GCN_Layers.0.W1.weight f4 [64, 64]
-0.10389914 -0.022877349 -0.08533572 -0.13598584 0.11410834 0.051251516 0.01891385 -0.03989845
-0.008691128 0.1387074 0.035319474 0.102156624 0.018158277 0.06751888 -0.10727036 -0.027226208
-0.079419374 -0.012780788 -0.04038386 0.028240923 -0.054561324 0.013775749 -0.08509667 0.093008935
0.09165063 -0.05031372 -0.05243303 -0.07582848 -0.1163237 -0.08105684 -0.11749906 -0.064887404
-0.07852179 -0.1218483 -0.056042846 0.05997439 -0.07475217 -0.02852482 -0.0904023 0.112499975
-0.049687758 0.06272995 -0.09459052 -0.011458577 0.122630626 0.092967466 -0.021707611 -0.0128916055
-0.10569825 -0.06267524 0.06821429 0.0225768 -0.12428561 0.012763327 -0.032413132 0.09047306
0.1154749 -0.0020582282 -0.043895498 0.012601431 -0.07958038 -0.07391208 0.028679896 0.02026072
0.04979366 -0.09963712 0.06392964 -0.12665653 -0.060327705 0.024550432 0.09820025 -0.0016629923
0.08254603 0.07021225 0.04725281 -0.034939907 -0.11167502 -0.017981967 -0.019239483 -0.0627807
-0.06801492 -0.046894427 0.020919519 -0.0926381 -0.043183453 0.057327792 0.07620643 -0.0835223
0.045736507 0.072163686 -0.10825457 0.033663034 0.12611821 0.0710185 -0.022775665 -0.12525788
0.057552043 0.09427552 0.038097803 -0.0041202256 -0.036886767 -0.05705198 -0.10645446 -0.015928019
0.041987106 0.07719135 0.06399648 -0.06563428 -0.0044103204 0.11797934 -0.011675814 0.029869005
-0.031014834 0.059146766 -0.067155145 -0.11204295 -0.012868544 -0.08072267 -0.062326618 0.08483503
0.089759596 -0.029909963 0.06902684 -0.0026300747 0.09108896 -0.11241192 0.0888186 -0.046206277
0.014233128 0.1245718 -0.0092656175 -0.01605152 -0.10550856 -0.028523687 -0.13088602 -0.12605843
0.09476185 -0.059398394 0.031253207 0.039507408 0.09530327 0.089649595 -0.024252858 -0.025294984
0.01609533 -0.10038205 -0.021282448 -0.009280349 -0.046178196 0.01859899 0.0042819995 -0.05120134
0.043807823 0.050838258 0.04078335 -0.13874106 0.103819996 0.067510664 -0.034438953 0.11471193
0.103964135 0.019237066 -0.09821615 0.05169952 -0.048513293 -0.061721664 -0.03398559 -0.119621724
-0.031098692 0.024782212 0.026684597 0.1161286 -0.00054935267 -0.12150682 0.11710282 -0.05734053
0.0029959748 0.08599163 -0.08253859 -0.033916995 -0.018860698 -0.06883349 0.088273406 0.066342816
-0.061639305 -0.0012631642 -0.016464 0.03854632 0.08977371 -0.08925718 0.115824394 0.07685316
0.03829247 -0.01275961 -0.0010878931 -0.025234364 0.07980127 -0.10877803 0.010759334 -0.061019734
-0.0499112 -0.052423116 -0.113776036 -0.032572012 0.121828005 -0.11430031 -0.06407284 0.0913992
-0.057744883 0.03405283 0.08569077 0.042702563 -0.0687712 0.06073631 0.08354589 -0.05508206
-0.013170359 0.11672787 0.050940704 0.09414437 -0.01082733 -0.04961507 -0.118371435 0.06569846
0.085136324 0.06596269 -0.023461051 -0.048193634 0.005736111 0.09764883 0.12273844 -0.048385028
0.037242346 -0.06981038 -0.050543834 -0.09822732 -0.09645566 0.04641298 0.009900135 -0.12327287
-0.034134813 -0.011434458 0.02970954 -0.09683665 -0.12196787 -0.011313738 0.060610984 0.012581529
-0.120631635 -0.012144799 -0.04305486 -0.09114747 0.09698917 0.022592153 0.07993226 -0.01427053
00000000: 13c9 d4bd 4769 bbbc 7ec4 aebd df3f 0bbe
00000010: a2b1 e93d 1ced 513d 38f1 9a3c 8f6c 23bd
00000020: 3c65 0ebc 5009 0e3e 27ab 103d 7e37 d13d
00000030: abc0 943c 5747 8a3d 90b0 dbbd 7f09 dfbc
00000040: a0a6 a2bd 8366 51bc 8c69 25bd 8259 e73c
00000050: b27b 5fbd aeb3 613c 2a47 aebd 787b be3d
00000060: 53b3 bb3d c215 4ebd 04c4 56bd f64b 9bbd
00000070: 1f3b eebd 2101 a6bd 59a3 f0bd b0e3 84bd
00000080: 08d0 a0bd 9a8b f9bd 2f8d 65bd b5a7 753d
00000090: aa17 99bd e2ac e9bc d724 b9bd 6366 e63d
000000a0: 6485 4bbd 8f78 803d adb8 c1bd c1bc 3bbc
000000b0: c425 fb3d ba65 be3d 29d4 b1bc 5037 53bc
000000c0: 5378 d8bd e05b 80bd efb3 8b3d fbf2 b83c
000000d0: 7489 febd 461d 513c a2c3 04bd f149 b93d
000000e0: 1b7e ec3d 57e3 06bb c4cb 33bd 3c76 4e3c
000000f0: 0afb a2bd 375f 97bd 1af2 ea3c cff9 a53c
00000100: 70f4 4b3d 8c0e ccbd 8bed 823d 40b2 01be
00000110: 2f1a 77bd fd1d c93c 361d c93d c3f8 d9ba
00000120: e50d a93d 71cb 8f3d 2a8c 413d 261d 0fbd
00000130: dfb5 e4bd eb4e 93bc 1f9c 9dbc 2b93 80bd
00000140: 684b 8bbd 5f14 40bd 695f ab3c 0bb9 bdbd
00000150: 22e1 30bd 8cd0 6a3d 1e12 9c3d bd0d abbd
00000160: 3456 3b3d 8eca 933d 92b4 ddbd 40e2 093d
00000170: 2225 013e 2672 913d 0894 babc 9a43 00be
00000180: b1bb 6b3d 8613 c13d 710c 1c3d f502 87bb
00000190: 9416 17bd 56af 69bd cc04 dabd 7a7b 82bc
000001a0: acfa 2b3d 8016 9e3d 9610 833d 446b 86bd
000001b0: 7384 90bb 279f f13d ea4b 3fbc d8af f43c
000001c0: d212 febc e143 723d a388 89bd c676 e5bd
000001d0: 96d6 52bc ed51 a5bd 324a 7fbd fdbd ad3d
000001e0: e1d3 b73d bd05 f5bc f25d 8d3d 555d 2cbb
000001f0: d98c ba3d 3938 e6bd 87e6 b53d cb42 3dbd
00000200: 1132 693c 801f ff3d d1ce 17bc 7a7e 83bc
00000210: df14 d8bd 82aa e9bc fc06 06be 7615 01be
00000220: 8012 c23d bb4b 73bd 5d03 003d 85d2 213d
00000230: 5c2e c33d 359a b73d eead c6bc 6d37 cfbc
00000240: 5ada 833c 1b95 cdbd 8758 aebc 9b0c 18bc
00000250: 5925 3dbd e95c 983c 0450 8c3b 7fb8 51bd
00000260: d56f 333d c73b 503d 710c 273d 2312 0ebe
00000270: 949f d43d 0843 8a3d dc0f 0dbd 17ee ea3d
00000280: 26eb d43d 0d97 9d3c 8d25 c9bd e0c2 533d
00000290: e0b5 46bd dbcf 7cbd 7934 0bbd 3cfc f4bd
000002a0: afc2 febc 1104 cb3c a899 da3c d5d4 ed3d
000002b0: 6f02 10ba 91d8 f8bd 9ad3 ef3d e7dd 6abd
000002c0: 1e58 443b 611c b03d fe09 a9bd 8cec 0abd
000002d0: c081 9abc 93f8 8cbd b0c8 b43d bede 873d
000002e0: 7f79 7cbd c290 a5ba 83df 86bc bfe2 1d3d
000002f0: 47db b73d 78cc b6bd 5735 ed3d 3165 9d3d
00000300: 91d8 1c3d af0d 51bc a397 8eba 4cb8 cebc
00000310: d96e a33d 04c7 debd eb47 303c d4ef 79bd
00000320: b06f 4cbd 9fb9 56bd 6903 e9bd 3b6a 05bd
00000330: f680 f93d 4816 eabd 9f38 83bd 812f bb3d
00000340: e685 6cbd fb7a 0b3d a47e af3d e2e8 2e3d
00000350: ead7 8cbd a3c6 783d 1c1a ab3d ba9d 61bd
00000360: 7dc8 57bc 060f ef3d 33a7 503d c3ce c03d
00000370: 1d65 31bc 2c39 4bbd b96c f2bd ea8c 863d
00000380: f45b ae3d 7217 873d 6431 c0bc b066 45bd
00000390: fdf5 bb3b 1cfc c73d 4b5e fb3d 612f 46bd
000003a0: 6e8b 183d bff8 8ebd 0d07 4fbd 682b c9bd
000003b0: 8c8a c5bd 891b 3e3d 2d34 223c 7d76 fcbd
000003c0: f2d0 0bbd 9857 3bbc 6c61 f33c 4b52 c6bd
000003d0: 4aca f9bd 425d 39bc 3943 783d c222 4e3c
000003e0: b80d f7bd fbfa 46bc 4b5a 30bd 86ab babd
000003f0: 42a2 c63d 2e13 b93c 86b3 a33d f1ce 69bc

GCN_Layers.0.W1.bias f4 [64]
0.036013074 0.000113874186 0.016945474 -0.022914333 0.023551704 -0.04748319 0.013416526 0.1177327
0.10407755 -0.11042474 -0.13416834 0.03085668 -0.09739635 0.07277333 0.12486123 -0.027675865
0.020649835 0.10110057 0.12279333 0.069253415 -0.04462531 -0.07522719 -0.020166127 -0.027381666
-0.043558743 0.07962554 -0.013084156 -0.10478642 0.035228103 0.06963931 -0.05039606 0.10483192
0.028544364 -0.019417359 0.0028077727 -0.09002359 -0.05008458 -0.05517124 -0.13643682 0.04424018
-0.01118144 0.06266372 -0.10410177 -0.010772986 0.043690443 -0.10817477 -0.0372936 -0.046296548
0.114223234 0.09597507 -0.06470925 0.035151128 0.02008956 0.04898266 0.012181926 0.044652537
-0.09688744 -0.07933453 -0.091980256 -0.116363 0.06257616 -0.02707812 0.017274564 -0.07088088
00000000: 7282 133d bdcf ee38 3cd1 8a3c d7b6 bbbc
00000010: 81ef c03c bc7d 42bd fdd0 5b3c d81d f13d
00000020: 9c26 d53d 5e26 e2bd 6d63 09be 26c7 fc3c
00000030: bd77 c7bd 2f0a 953d 3fb7 ff3d 7fb8 e2bc
00000040: d829 a93c d10d cf3d 127b fb3d bcd4 8d3d
00000050: 07c9 36bd b710 9abd 6f33 a5bc 844f e0bc
00000060: a76a 32bd b712 a33d ee5e 56bc 439a d6bd
00000070: 584b 103d 0e9f 8e3d 196c 4ebd 1eb2 d63d
00000080: dfd5 e93c 2711 9fbc 9c02 383b 4a5e b8bd
00000090: 7d25 4dbd 3dfb 61bd 18b6 0bbe 3135 353d
000000a0: 5c32 37bc d655 803d 4f33 d5bd 2e81 30bc
000000b0: c0f4 323d bc8a ddbd 2dc1 18bd 73a1 3dbd
000000c0: dfed e93d 948e c43d 4986 84bd a1fa 0f3d
000000d0: dc92 a43c 0ba2 483d b396 473c 94e5 363d
000000e0: ec6c c6bd 247a a2bd 2560 bcbd b94f eebd
000000f0: ee27 803d efd2 ddbc 6383 8d3c ff29 91bd

GCN_Layers.0.W2.weight f4 [64, 64]
-0.06556059 0.09714932 0.11022957 -0.01781088 0.09243805 -0.043060996 0.0464065 -0.093961254
0.035528347 -0.08132663 0.05447755 -0.056687377 0.029304583 0.080566905 -0.08395221 -0.025640149
-0.008894069 -0.07959487 -0.10520939 0.1064445 0.11463273 0.07290382 0.031133477 -0.13475968
-0.10134711 0.022785908 -0.116053134 0.054093447 0.070698164 -0.041095193 0.10701018 -0.07030399
0.11778804 -0.06244835 0.11646526 0.030814338 0.016750516 0.11055826 0.0010051719 0.06683072
-0.012671972 -0.0033706974 -0.07787946 -0.011835206 -0.061582997 0.001783847 -0.025639737 0.0355793
-0.0127162775 -0.094734825 0.11727724 -0.018322797 -0.07270661 -0.03131027 0.056968857 0.11236742
0.049388267 -0.09475919 0.03094732 -0.051266804 0.14107813 0.040723998 0.12509471 0.06550796
-0.029966258 0.059760597 0.13595662 -0.002069933 -0.0025032882 -0.009495735 -0.06861019 -0.073924
-0.11373048 -0.055786356 0.0004288778 0.050393928 0.06208895 0.02529833 0.028701426 0.08547529
-0.07407823 0.038142648 -0.04458208 0.05757025 0.055257555 -0.06464008 0.020135583 -0.06154409
0.034486018 -0.095452495 -0.023933763 -0.06429611 0.0999869 -0.028216999 -0.009000617 0.07515188
0.033428796 -0.12162991 -0.12781605 0.018448167 -0.011420298 0.035525758 -0.021841796 0.06142303
0.05215954 0.07975253 0.07892379 0.057530615 0.10819274 -0.11224126 0.004826249 0.07342305
-0.03560967 -0.041955214 -0.061035294 -0.0413078 0.049603898 0.081145614 0.038217817 -0.0066306237
-0.026482407 0.12435307 -0.049057536 0.01092807 -0.0020742193 -0.090617366 -0.03019361 0.020962942
0.07718978 0.12480874 0.056617245 -0.11556959 0.017634062 -0.018012635 -0.075219244 0.0014420601
0.088190354 -0.013544415 -0.10795724 -0.07564509 -0.038242277 0.0026005532 0.08173589 -0.011049223
0.085047044 -0.015373873 0.036489435 0.085214645 0.048972208 -0.09690725 -0.0414132 0.08002544
-0.013087716 -0.06679683 0.09088714 0.052294314 0.044601664 -0.05284511 -0.0490824 -0.04168725
0.08289936 -0.0585585 -0.0314404 -0.077603176 -0.0074203773 0.06789133 0.03509911 -0.08419336
0.008174544 0.012675755 -0.05125825 0.019074943 -0.099290065 -0.020838976 0.03562893 0.0077483356
-0.06163808 -0.04223459 0.06569281 0.03577745 0.057149224 -0.019556085 0.07959176 0.010770267
0.040988278 -0.033695742 0.12355038 0.036387093 -0.07894108 0.07600181 0.082036786 -0.056180917
-0.022202225 -0.01479536 0.0895499 0.061643578 -0.061819196 0.118567176 0.08566623 -0.035249233
-0.015233346 -0.0879521 -0.12877588 0.078883916 -0.04503203 0.06863779 0.09039302 0.119346485
0.006011823 -0.058945827 -0.03861366 -0.09989765 0.10604703 0.03752375 -0.017633963 -0.12759347
0.0897462 -0.05237261 0.0135440435 -0.053618077 -0.11230576 0.0063463906 0.029381359 -0.14267153
-0.048675276 -0.08605354 0.017709812 -0.005093409 -0.016929645 -0.060115848 0.019105392 -0.036154516
-0.0832429 0.046241388 0.045048572 0.053487513 -0.03560179 -0.0034330827 0.12190625 -0.09759034
-0.01881593 0.026442915 -0.09321372 -0.113791294 0.04327838 -0.016915392 -0.06043719 0.03694727
-0.08412515 -0.05587583 -0.0654654 0.05839233 -0.0048847347 0.09751153 -0.116834216 -0.1250792
00000000: a144 86bd 39f6 c63d 0ac0 e13d 1fe8 91bc
00000010: 2950 bd3d ba60 30bd be14 3e3d c26e c0bd
00000020: 2c86 113d 948e a6bd da23 5f3d 0631 68bd
00000030: 2a10 f03c 4300 a53d 23ef abbd 4a0b d2bc
00000040: 6eb8 11bc a302 a3bd 0578 d7bd 93ff d93d
00000050: 91c4 ea3d 994e 953d a20b ff3c 71fe 09be
00000060: 138f cfbd 83a9 ba3c 44ad edbd 1791 5d3d
00000070: 33ca 903d 6f53 28bd 2728 db3d 8afb 8fbd
00000080: db3a f13d d7c9 7fbd 5785 ee3d 5a6e fc3c
00000090: 6138 893c 5e6c e23d f9bf 833a 8bde 883d
000000a0: 1a9e 4fbc ebe6 5cbb 447f 9fbd 74e8 41bc
000000b0: 743e 7cbd f9cf e93a 6d0a d2bc 9abb 113d
000000c0: ef57 50bc 5504 c2bd 0d2f f03d b119 96bc
000000d0: 34e7 94bd 333f 00bd 2d58 693d e420 e63d
000000e0: 5a4b 4a3d 1b11 c2bd 3c85 fd3c 24fd 51bd
000000f0: c976 103e 35ce 263d d418 003e 0a29 863d
00000100: cc7b f5bc 87c7 743d 3638 0b3e b7a7 07bb
00000110: 350e 24bb 0094 1bbc 8083 8cbd 7765 97bd
00000120: 87eb e8bd 3c80 64bd 01db e039 dd69 4e3d
00000130: fc50 7e3d 713e cf3c 411f eb3c ab0d af3d
00000140: 54b6 97bd 773b 1c3d b39b 36bd c8ce 6b3d
00000150: bf55 623d 0562 84bd 61f3 a43c a815 7cbd
00000160: 3641 0d3d 997c c3bd bd10 c4bc aead 83bd
00000170: efc5 cc3d 5627 e7bc 5377 13bc 3be9 993d
00000180: a2ec 083d 1a19 f9bd 36e2 02be 9c20 973c
00000190: 341c 3bbc 7583 113d 91ed b2bc b796 7b3d
000001a0: 3ea5 553d 4b55 a33d cca2 a13d 39a5 6b3d
000001b0: 2894 dd3d bfde e5bd 8325 9e3b d35e 963d
000001c0: 72db 11bd 3bd9 2bbd 2500 7abd 5e32 29bd
000001d0: 752d 4b3d ac2f a63d 498a 1c3d b445 d9bb
000001e0: a2f1 d8bc d3ac fe3d 8ef0 48bd a60b 333c
000001f0: a0ef 07bb 9995 b9bd 9758 f7bc 7aba ab3c
00000200: ad15 9e3d ba9b ff3d 7ce7 673d c0af ecbd
00000210: 4f75 903c 3c8f 93bc 8c0c 9abd 8203 bd3a
00000220: 259d b43d 65e9 5dbc af18 ddbd d0eb 9abd
00000230: efa3 1cbd 0b6e 2a3b 2565 a73d cd07 35bc
00000240: 252d ae3d b2e2 7bbc f275 153d 0485 ae3d
00000250: 1597 483d 4f77 c6bd e3a0 29bd 61e4 a33d
00000260: dc6d 56bc c7cc 88bd 0923 ba3d 9032 563d
00000270: 3cb0 363d 1d74 58bd a00a 49bd 40c0 2abd
00000280: 24c7 a93d 0adb 6fbd a6c7 00bd 6aee 9ebd
00000290: a326 f3bb 9c0a 8b3d 16c4 0f3d 916d acbd
000002a0: 86ee 053c f8ad 4f3c 2cf4 51bd 0e43 9c3c
000002b0: 9758 cbbd 80b6 aabc a4ef 113d c0e5 fd3b
000002c0: 3678 7cbd 2dfe 2cbd f489 863d 608b 123d
000002d0: 4e15 6a3d 1534 a0bc 0101 a33d c675 303c
000002e0: 53e3 273d 8c04 0abd fb07 fd3d a20a 153d
000002f0: dcab a1bd d6a6 9b3d e702 a83d f61d 66bd
00000300: 71e1 b5bc 3d68 72bc f065 b73d fa7d 7c3d
00000310: 2036 7dbd 59d3 f23d c771 af3d 8061 10bd
00000320: 4995 79bc 3b20 b4bd d3dd 03be e48d a13d
00000330: 8273 38bd f891 8c3d fa1f b93d ee6b f43d
00000340: d4fe c43b 2e71 71bd 5b29 1ebd 2497 ccbd
00000350: 2f2f d93d 81b2 193d 1a75 90bc dda7 02be
00000360: dbcc b73d a984 56bd d6e7 5d3c a19e 5bbd
00000370: 9000 e6bd 62f5 cf3b 2db1 f03c 7c18 12be
00000380: ba5f 47bd d73c b0bd 2b14 913c 9de6 a6bb
00000390: 0ab0 8abc 093c 76bd e982 9c3c c216 14bd
000003a0: 417b aabd 9c67 3d3d da84 383d b915 5b3d
000003b0: 2fd3 11bd 92fd 60bb fca9 f93d 72dd c7bd
000003c0: dd23 9abc d09e d83c d6e6 bebd 690b e9bd
000003d0: ac44 313d 2692 8abc fd8c 77bd 0556 173d
000003e0: cf49 acbd 0ede 64bd b912 86bd cc2c 6f3d
000003f0: 2010 a0bb 20b4 c73d c746 efbd c314 00be

GCN_Layers.0.W2.bias f4 [64]
-0.07268805 -0.03700503 -0.098873064 0.08746767 -0.028521262 0.02059691 -0.11302363 -0.021190261
-0.017284429 -0.006209378 -0.12864068 -0.10119413 0.09011784 0.02425028 -0.0061136857 0.013004287
-0.037883658 -0.08559336 -0.04579447 -0.012564138 0.11867629 -0.116461895 0.107467294 0.08677759
0.11756189 -0.051573742 0.08487003 -0.096794546 -0.013921249 0.03302002 0.010354544 0.029095093
-0.090358965 0.0018716232 -0.03488973 0.030265724 -0.08433767 0.05378174 0.10592442 0.0083328085
-0.0998333 0.008764055 -0.066798836 0.09838716 0.04723106 0.009366447 -0.006358194 -0.013582474
-0.079965636 -0.084968254 0.10624656 -0.012524698 0.005599657 -0.06414816 0.06489345 0.062211793
-0.07404369 0.12453996 0.07006903 -0.06477413 -0.1320674 0.089088574 -0.0039547053 -0.069982454
00000000: 79dd 94bd 9692 17bd f67d cabd 4022 b33d
00000010: 6ca5 e9bc daba a83c ef78 e7bd 3397 adbc
00000020: 1398 8dbc 0a78 cbbb 62ba 03be de3e cfbd
00000030: b48f b83d 86a8 c63c 5055 c8bb ef0f 553c
00000040: e52b 1bbd 924b afbd fb92 3bbd d0d9 4dbc
00000050: 8e0c f33d 9383 eebd d017 dc3d 73b8 b13d
00000060: 4ac4 f03d fd3e 53bd 57d0 ad3d 383c c6bd
00000070: f315 64bc 0040 073d 1ba6 293c d558 ee3c
00000080: 1f0e b9bd 4151 f53a 89e8 0ebd d3ef f73c
00000090: 3ab9 acbd 3e4a 5c3d e7ee d83d 5586 083c
000000a0: 6775 ccbd 1c97 0f3c d4cd 88bd 357f c93d
000000b0: 5b75 413d ba75 193c 6658 d0bb 0689 5ebc
000000c0: 06c5 a3bd d603 aebd cc97 d93d 6434 4dbc
000000d0: 547d b73b 1c60 83bd dbe6 843d cbd1 7e3d
000000e0: 38a4 97bd ce0e ff3d 5a80 8f3d 4da8 84bd
000000f0: ad3c 07be 1274 b63d 7996 81bb f652 8fbd

GCN_Layers.1.W1.weight f4 [64, 64]
0.1106977 -0.11512429 0.029254844 0.02880126 -0.034796156 0.09238899 -0.024155423 0.11642707
-0.08999451 -0.03944664 0.085910454 -0.005546949 0.06961664 -0.10049194 0.11079287 -0.04976055
0.014855657 -0.1082345 -0.053099938 -0.004580545 0.0008137311 -0.0774817 -0.03528563 -0.07582159
-0.0986691 0.117899895 -0.017729482 -0.09856868 -0.07134461 0.03483353 -0.06421121 0.12397835
0.05256418 -0.06499887 -0.009092162 -0.07867956 -0.0036744208 0.073930785 0.061581902 -0.023999417
0.048732765 -0.08539488 0.097468324 0.046430383 0.052655794 -0.04785846 0.0036829761 -0.11074236
0.1133003 0.090653725 -0.02134348 0.0060883756 0.11172032 0.018487794 -0.008214566 -0.027395181
0.11972507 -0.061151717 -0.07152934 -0.026558796 0.014877575 0.023807978 0.055846743 -0.069419675
0.04717681 -0.026326356 0.04917984 -0.028878704 -0.10428423 -0.0114917755 -0.01824792 -0.113968834
-0.021696271 -0.0029052647 -0.009702083 0.0024906937 -0.048952527 0.027264252 0.070333056 0.027175441
0.0963255 0.0046756743 -0.11490863 0.08363916 -0.032756235 -0.059527412 0.08242003 0.06726385
0.08177264 0.042684298 -0.09573301 0.09447034 0.10121802 -0.024335945 -0.11220374 -0.052201178
0.017777855 0.075170495 0.007529406 0.060447484 -0.069211945 0.0146100335 0.120204985 0.048998084
-0.014174361 -0.0017548052 -0.09375638 0.08707941 0.044198893 -0.037123777 -0.024341423 -0.059467692
0.014598065 -0.12281082 -0.033434227 0.008251893 -0.044883605 0.05584637 0.049212012 0.03692736
0.09992432 0.03478314 -0.05600763 -0.05936447 0.0058829505 0.051830105 0.101071306 -0.002799636
0.07987066 0.045749743 -0.029050237 -0.011590404 -0.052391347 0.106926255 0.06382102 0.037090328
0.11147012 -0.0103582805 0.043107305 0.09036716 0.10933655 0.045122616 -0.059835736 0.0068010655
-0.0447322 0.07540269 0.084757514 0.022893082 -0.03994252 -0.07245586 -0.008703024 -0.1163662
0.11442082 -0.031804476 0.00021933576 0.034894004 0.07343739 -0.02810021 0.109058596 -0.056899477
-0.012040398 0.0933538 -0.0025620467 -0.037259806 0.08883378 -0.10677302 -0.10321292 0.06411375
-0.0043506213 0.012909248 -0.03718751 0.08095717 0.041670643 -0.07964999 0.012100316 0.030319022
-0.09546767 -0.08611504 -0.08927792 -0.07211657 0.09368772 0.10453469 -0.109583646 0.0031630343
-0.013549853 0.07078975 -0.010171181 0.116383865 0.11849045 0.053197097 0.11503049 -0.056971096
0.050027724 -0.09794239 0.059045732 -0.06109187 0.056739353 -0.017087163 0.07009742 -0.08725086
-0.056296382 0.048583526 0.1058759 -0.07254074 0.045168877 -0.060942195 -0.11555205 0.026314113
0.088329464 -0.12906452 -0.12186205 0.05368629 0.07987759 -0.09434921 -0.0778133 -0.02314806
-0.018353308 0.06604881 0.113516234 0.009500519 -0.10116388 0.058094423 -0.043909937 -0.0354215
0.02165137 -0.06335646 0.026533334 -0.045678712 0.07303954 0.031346425 0.080665745 0.10597804
-0.06762953 -0.030083615 -0.029188173 -0.08324128 0.10336508 0.075846076 -0.09537429 0.06580139
0.051010575 -0.0956104 -0.03381595 -0.10913458 -0.03267503 0.08056383 0.012478247 -0.057692647
0.048332803 0.07500573 0.09493336 -0.06753157 0.07719744 -0.01188896 -0.0043856665 -0.0032908681
00000000: 7ab5 e23d 49c6 ebbd dba7 ef3c 9ff0 eb3c
00000010: 6a86 0ebd 7036 bd3d 98e1 c5bc 5171 ee3d
00000020: 0b4f b8bd cd92 21bd d2f1 af3d 2ec3 b5bb
00000030: 2b93 8e3d b8ce cdbd 5fe7 e23d b8d1 4bbd
00000040: 2465 733c 0daa ddbd 527f 59bd 6518 96bb
00000050: 9250 553a baae 9ebd aa87 10bd 5a48 9bbd
00000060: 0613 cabd 8075 f13d 6b3d 91bc 60de c9bd
00000070: 1f1d 92bd 9bad 0e3d 2b81 83bd 5ce8 fd3d
00000080: 8a4d 573d 211e 85bd 4bf7 14bc c022 a1bd
00000090: 8dce 70bb 0669 973d 4e3d 7c3d 6d9a c4bc
000000a0: 029c 473d 83e3 aebd 799d c73d c92d 3e3d
000000b0: 9aad 573d 3c07 44bd 165e 713b e4cc e2bd
000000c0: fd09 e83d a9a8 b93d 86d8 aebc ff80 c73b
000000d0: a0cd e43d b773 973c 6396 06bc dc6b e0bc
000000e0: 6b32 f53d 397a 7abd fa7d 92bd d591 d9bc
000000f0: 13c1 733c f308 c33c 8ebf 643d e72b 8ebd
00000100: 793c 413d 5faa d7bc cd70 493d 0893 ecbc
00000110: f892 d5bd 0048 3cbc a97c 95bc 7e68 e9bd
00000120: 61bc b1bc 4166 3ebb 7cf5 1ebc e83a 233b
00000130: 7282 48bd 4859 df3c c70a 903d 089f de3c
00000140: 4e46 c53d 6636 993b 3755 ebbd 024b ab3d
00000150: 672b 06bd 04d3 73bd d5cb a83d a1c1 893d
00000160: 6a78 a73d bbd5 2e3d ab0f c4bd aa79 c13d
00000170: 654b cf3d 2d5c c7bc 13cb e5bd e7d0 55bd
00000180: dda2 913c fdf2 993d 3cb9 f63b c897 773d
00000190: febe 8dbd ec5e 6f3c 082e f63d 37b2 483d
000001a0: 943b 68bc 7e01 e6ba 5803 c0bd b156 b23d
000001b0: e609 353d 1a0f 18bd aa67 c7bc 6594 73bd
000001c0: b92c 6f3c 3d84 fbbd 54f2 08bd f332 073c
000001d0: dfd7 37bd 2abf 643d 8992 493d 2541 173d
000001e0: 1fa5 cc3d c478 0e3d 4268 65bd 2928 73bd
000001f0: c4c5 c03b ce4b 543d 79fe ce3d 197a 37bb
00000200: 3b93 a33d 1564 3b3d c3fa edbc aee5 3dbc
00000210: 4f98 56bd 27fc da3d 98b4 823d 07ec 173d
00000220: 724a e43d c7b5 29bc 4991 303d 6b12 b93d
00000230: d7eb df3d 7ed2 383d 5116 75bd 79db de3b
00000240: 1d39 37bd ba6c 9a3d 5995 ad3d 468a bb3c
00000250: c59a 23bd bd63 94bd 2197 0ebc 6751 eebd
00000260: 7655 ea3d 6945 02bd 7ffd 6539 04ed 0e3d
00000270: 5866 963d 6932 e6bc 1d5a df3d 6d0f 69bd
00000280: 1745 45bc 4730 bf3d 03e8 27bb bd9d 18bd
00000290: 7cee b53d d0ab dabd 4c61 d3bd 124e 833d
000002a0: a88f 8ebb 4f81 533c ee51 18bd dfcc a53d
000002b0: d6ae 2a3d 891f a3bd 6740 463c 995f f83c
000002c0: 8e84 c3bd 155d b0bd 58d7 b6bd dab1 93bd
000002d0: 59df bf3d 4916 d63d 646d e0bd e94a 4f3b
000002e0: 3400 5ebc 37fa 903d 06a5 26bc aa5a ee3d
000002f0: 1fab f23d 33e5 593d 1b95 eb3d 865a 69bd
00000300: dfe9 4c3d 0596 c8bd f0d9 713d 783b 7abd
00000310: 8667 683d 61fa 8bbc 3c8f 8f3d 94b0 b2bd
00000320: 0997 66bd 85ff 463d 77d5 d83d 3d90 94bd
00000330: 0003 393d 869e 79bd 8ea6 ecbd b290 d73c
00000340: 14e6 b43d 7d29 04be cf92 f9bd 28e6 5b3d
00000350: dd96 a33d 293a c1bd 945c 9fbd 00a1 bdbc
00000360: ad59 96bc 9944 873d 337b e83d 11a8 1b3c
00000370: 022f cfbd 6bf4 6d3d e8da 33bd 2316 11bd
00000380: 375e b13c 08c1 81bd 6f5c d93c 9a19 3bbd
00000390: c195 953d 1c65 003d 1534 a53d 040b d93d
000003a0: 5a81 8abd ea71 f6bc 091c efbc 677a aabd
000003b0: 12b1 d33d 3055 9b3d 9953 c3bd e1c2 863d
000003c0: 77f0 503d 63cf c3bd 9882 0abd f381 dfbd
000003d0: 41d6 05bd a6fe a43d 9071 4c3c 204f 6cbd
000003e0: 9ef8 453d 9b9c 993d 6c6c c23d fe4d 8abd
000003f0: b119 9e3d eac9 42bc a3b5 8fbb 9bab 57bb
