lab4-student/code/model/bestModelParms-11-14-20-11.pth (torch, 465577 bytes, 20 tensors)

user_id_embedding.weight f4 [900, 32]
00000000: c95c a23e f60d 0d3d a840 56bd a1f5 fcbc
00000010: 8927 b33b b0c9 01bd f7e7 37be f915 88bb
00000020: ed24 dbbc 492b 503c fe78 5dbc c5b8 7abc
00000030: 701e b6bc 9ac2 b23c 97ec b7bd a35c 83bd
00000040: bc1a c7be 5f55 87bc b2cb 60bc 24c9 e9bc
00000050: 4276 b33c 06e0 073d c1e3 85bc 4694 14be
00000060: dbae 94bc 6d6a f2bc 8fa9 2dbd 048d 233b
00000070: e571 91bc df3a 773b 1615 10bc 5b15 d0bc
00000080: 95d6 103c c076 8b3d 212a 84b9 eb40 c53c
00000090: d1d0 2fbc 1ac3 66bd 4634 d1bb 554f 003c
000000a0: 57ac 7a3b 340d 813c faa6 cd3c 2b90 0abc
000000b0: 0d6d 97bc a390 c4bb 8250 f7bb 5f1f 013a
000000c0: 451a 5abc d18d 35bc 83f1 18bc 7435 a5bb
000000d0: 27a6 9dbc d397 303c 03aa 83bb ffc0 b83e
000000e0: 9ea2 2cbf d3c6 303e 8d7c a3bd 1722 ea3b
000000f0: 8586 b23b 4e7b c43e de06 203c 3ec3 5e3b
00000100: f0f3 08bc 088b aebc 34fa 813b 4b51 b33c
00000110: c2c8 73bc 6e12 db3c 034e cbbc 20de b53c
00000120: 1658 353e 155e 8a3c 530d 763c 0eab 71bc
00000130: 9097 98be e9af bbbc 8c4a 19bc 4884 b93b
00000140: c2e2 953c 3f5d 04bd 463b 57be 2885 be3c
00000150: 37b5 99bc 1948 25bc c420 39bd 422a 1a3b
00000160: 90ac 68bc 4ee9 b23d 15f8 013c 7d55 d53a
00000170: cf94 10bb cb71 ecbb 65f0 1c3c c039 a3bd
00000180: e5c5 173e bde6 a93b 5655 283d b0aa 58bc
00000190: dd92 0f3e 3481 71bb 810b d0bb b6e7 95bb
000001a0: 255c cfbd 6c71 44bc d9fa 7c3d 7129 333d
000001b0: 88d8 1e3d a278 9fbc 5923 003d f95c 7ebb
000001c0: b94d 05bd 922c 063d 711c 1cbd b9e7 dc3c
000001d0: 3d19 a4bc 5902 c3bc 2167 9abc 1761 aa3b
000001e0: 5b02 97bc 50f3 c8bb 0e08 023d 7bc0 393e
000001f0: 9e71 1f3c 8405 3ebc 1011 63bc 3cef 2abc
00000200: 5022 883d 21c3 a33d cf0a c2bc ea4d 7dbb
00000210: c082 76bd aa78 5e3e 2e60 3f3e ac6a b63c
00000220: 6eb9 ba3c b6e1 83bc 0afa 5dbd 618f 00be
00000230: f42f 0bbc 6f1c 4d3c 0792 f8bb c10e c63a
00000240: d057 4d3d 3aea 2cbd f4f4 253d 0d54 81bd
00000250: 2066 a63d 539a ab3d 6f5f 58bd a8d1 9f39
00000260: 976b 02bd c496 d6bc cf8e 57bd 5f9e 483d
00000270: 926b 283a e308 2eba 4aec ff3d dd34 423d
00000280: 76c7 8d3d 09c1 943d 2181 c1be 812d 38be
00000290: 0d6b 78bd 3a31 883a ccd8 b83e f0ef b83c
000002a0: 6e6c 86bc 783b a3bc 4976 c2bd 427a b6bd
000002b0: d815 c4be 928b e03e 9759 40bd a566 e3bb
000002c0: 3c5a 963c 0ac5 c3bc a983 7c3e 6e8f 08bc
000002d0: db8b 3f3d 5c6d dc3d 0ab0 65bd dbe5 043d
000002e0: eb4b 56be 4996 80bd d652 aabe 7c0a 1cbd
000002f0: 3c08 c9bc 06b9 b0bc 784a 5d3d 0584 eabc
00000300: f9a9 7fbc 05ba c7bd 0558 493c 49be a73c
00000310: a045 283d d007 89be e461 73be 8b30 033c
00000320: f380 3f3c 8e12 80bc aadf ac3d 327d 083d
00000330: 4bc1 853c 21ca cf3c dd55 19bf 34b3 c2ba
00000340: ba99 9fbc eab2 a2bf 972c c93a c0fc 65bd
00000350: cb4d 96bc e7d6 f3bc 050d f6bc 3b89 1a3b
00000360: be62 dd3c f52c 483c 85a1 93bc 2b1c 70bd
00000370: 5191 7bbe 1f23 d83b ea23 4d3f 9920 333a
00000380: 75b5 e23c 1ee5 113d 12b2 d3bc 543f 67bc
00000390: 2c0f 303f 5d99 70bb 4ca4 a83c ccef 62bb
000003a0: 6f15 79bc ef28 673d 653f c8be bcfe b8bb
000003b0: cc60 1fbb 4fe3 babb 836f a0bc 5d44 023e
000003c0: c950 5dbb 22d6 57bc 4c25 bebd a110 4b3c
000003d0: 720d cd3d a2cb c6bc a792 3f3d ab24 9bbb
000003e0: 1b80 9bbc 7532 5f3c de1d 7ebb 7141 c8bc
000003f0: 009e b13c baaa 5d3c e896 8a3c 0130 8ebe
0.31711414 0.034437142 -0.052307755 -0.030878844 0.0054673594 -0.031686485 -0.17959581 -0.00415301
-0.026751006 0.0127056325 -0.013517616 -0.015302842 -0.02223131 0.021821309 -0.08980673 -0.064141534
-0.38887584 -0.0165202 -0.01372044 -0.028538294 0.021906976 0.03317263 -0.016343953 -0.14509687
-0.018149784 -0.029591763 -0.04239803 0.0024955878 -0.017754504 0.00377243 -0.00879409 -0.025400808
0.008840223 0.06809759 -0.0002520839 0.024078807 -0.010730938 -0.056338407 -0.0063844053 0.007831414
0.0038249695 0.015753366 0.025104035 -0.008457224 -0.018484617 -0.0059986874 -0.007547439 0.0004925634
-0.013311927 -0.011081175 -0.009334925 -0.0050417725 -0.019244267 0.010778385 -0.0040180697 0.36084744
-0.67435634 0.17263345 -0.079827406 0.007145177 0.005448165 0.38375324 0.009767262 0.0033990885
-0.0083589405 -0.02130653 0.003966594 0.02188935 -0.014879407 0.026742186 -0.024817472 0.022200644
0.17709383 0.016890565 0.015017825 -0.014750255 -0.29803133 -0.022911029 -0.009356152 0.005661521
0.018296603 -0.03231549 -0.21018705 0.023256853 -0.018763168 -0.01008799 -0.045197263 0.0023523723
-0.014201298 0.087359056 0.0079326825 0.0016276088 -0.0022061353 -0.0072157136 0.009578799 -0.07969999
0.14821585 0.005184977 0.041097008 -0.013224289 0.14020868 -0.0036850693 -0.0063490276 -0.0045747412
-0.10124997 -0.0119899325 0.061762664 0.043740693 0.03878072 -0.019466702 0.03128371 -0.003881274
-0.032544825 0.03275735 -0.03811306 0.026965963 -0.020031566 -0.02380483 -0.018848004 0.0051995623
-0.01843374 -0.0061325207 0.031745963 0.18139832 0.009731678 -0.011597995 -0.0138590485 -0.0104330145
0.066471696 0.07996202 -0.023686795 -0.0038651177 -0.060183287 0.21725717 0.18689033 0.022267662
0.022793498 -0.016098838 -0.054193534 -0.12554695 -0.00849532 0.012518986 -0.007585767 0.0015110598
0.050132573 -0.042215563 0.04051681 -0.063148595 0.081249475 0.083790444 -0.052825388 0.0003048305
-0.031840887 -0.026194938 -0.052626427 0.04897916 0.00064247206 -0.00066388975 0.124962404 0.047413696
0.0692281 0.07263381 -0.3779383 -0.17986108 -0.060648967 0.0010390647 0.36102903 0.022575349
-0.016409125 -0.019925818 -0.09495217 -0.089100376 -0.38297915 0.43856484 -0.04696044 -0.0069397264
0.018353574 -0.023897666 0.246596 -0.008334978 0.046764236 0.10763046 -0.056076087 0.03244577
-0.20927398 -0.062786646 -0.33266324 -0.038095936 -0.02454006 -0.021572601 0.054026097 -0.028627405
-0.0156044895 -0.09752277 0.012289052 0.020476477 0.041082025 -0.26763773 -0.23767811 0.008007179
0.011688459 -0.015633848 0.08441098 0.03332252 0.01632752 0.025364937 -0.5989664 -0.0014854432
-0.019482482 -1.271085 0.0015348372 -0.056149244 -0.018347641 -0.02976556 -0.030035505 0.002358033
0.027024623 0.01221775 -0.018021354 -0.058620613 -0.24567153 0.0065959836 0.80132926 0.00068331655
0.027674416 0.035618894 -0.025841746 -0.01411422 0.6877315 -0.0036712505 0.020586155 -0.0034627793
-0.015202864 0.05643552 -0.39110866 -0.005645601 -0.002431917 -0.005703367 -0.019584423 0.12721391
-0.0033770076 -0.013173612 -0.092844576 0.012394101 0.1001233 -0.024267022 0.046770718 -0.004734596
-0.018981984 0.01362287 -0.0038775126 -0.024445267 0.021681786 0.013529474 0.01691766 -0.27771

user_age_embedding.weight f4 [5, 4]
00000000: 1485 093f 0120 e73d 557b a3bf fd5c 393f
00000010: ca86 113f 84a2 c5bf 1a50 09bf badc f83e
00000020: 5200 b33e 30c0 c7be c38a d63d a273 1bbf
00000030: 901e 923f fbb5 d23e 32d2 513f cac3 df3e
00000040: 0164 95bd 5cef 763e 6f4e 683f 83b8 a2bf
0.53718686 0.11285401 -1.2772013 0.72407514 0.56846297 -1.5440221 -0.5363785 0.486059
0.34961182 -0.39013815 0.104756854 -0.60723317 1.1415577 0.41154465 0.8196136 0.43704063
-0.07294465 0.24114746 0.9074468 -1.2712559

user_gender_embedding.weight f4 [2, 2]
00000000: 5a42 263e 2a96 8c3e 1b6c 7abf e37a 003f
0.16236249 0.27458316 -0.97821206 0.5018751

user_occupation_embedding.weight f4 [21, 8]
00000000: 9c1f 8abd 1026 0e3e 4f6a 03be 4a61 5fbd
00000010: e24f 2f3e 2193 1c3c 2bc4 673f 3cb5 9b3e
00000020: c674 70bc 342c 23bf 830b cb3e 19b4 37be
00000030: de15 2ebf 5e36 993e 702e 8dbe 2be9 8fbe
00000040: 5715 cc3e 76b0 cfbd 0c08 133f 272e dc3d
00000050: 54e7 c43e aacb 82be f8b9 98be 1f0f 3a3e
00000060: b718 793f 10e3 1ebd 7383 0ebf 97bf 4f3f
00000070: 6173 98bd cecc 09be 111a 91be 64de 6cbe
00000080: 9697 a53e 3247 a7be 060e 53be 9fb3 603e
00000090: 7f7a 853e dc4b d4be dac4 e83e b2ee f2be
000000a0: 7773 8ebf 23f2 73be c566 043e 6566 3abc
000000b0: a082 85be c086 60bf 33b1 393f 85c9 84be
000000c0: 9ed7 013d 819e 65bf 5216 d0bc 64ec 243d
000000d0: 5fab 83bd 0c31 1d3e d49d 4e3d fdfb c83d
000000e0: 0e18 043d 0c0d 4e3e 1c9b a0be d890 a23e
000000f0: eeb2 05be 7bef 413e 1850 f23e acd6 c73e
00000100: db26 e7bc b21a 73bc 6f71 563e 264c 5c3d
00000110: 46a9 ac3a 1e9b 0cbe 05a7 b13e 9bb8 bc3d
00000120: bda0 073e 7bf2 9e3d c6a3 8e3d ae2f 86bd
00000130: b438 77bd 1d79 c5ba e2dc b03e a6d1 4d3d
00000140: 7df6 1fbd 0d97 70be 05ab a23d 2acd abbe
00000150: 9ecf a83e 960d 5ebe c72d 34bf 2f23 b1be
00000160: 4b6b 9bbe 2bde 41bd ddd0 853e c53e 05be
00000170: 3052 153f 1d17 8b3d 0cf4 09bf 8f4f 893e
00000180: e33a ed3e 7523 9b3e 9303 173d dfba 31bd
00000190: 6fbc bdbd f62c cfbc d9ff c73d 77b2 a8bd
000001a0: 3a2a 2bbd 3740 03bd 5464 813e aa46 0d3e
000001b0: a18e 3e3e adfa f13e 789a a63b cbbb 1e3e
000001c0: bfa2 c33d 5247 0e3f 4b56 793e 14f2 12be
000001d0: e003 51be cd44 cfbe b120 5f3d db40 1dbe
000001e0: b07b 493e 0670 043e b666 01bc 3e86 c4bd
000001f0: a38b fc3a d1f2 243f fe2f 853e 45aa b63c
00000200: 0288 82bc 02f4 c1bc 1e10 10be 69b9 74bd
00000210: c91e bbbd dbf8 1a3d e580 a53d 982c 67bd
00000220: f5ed 923e 2847 54bc de88 09bf e421 a4bd
00000230: 3a79 b23e a615 32be 6c11 fc3e c63a 32bd
00000240: d059 5e3d 2b07 0bbc 3d10 913e 6a01 263c
00000250: 27e4 213d 6442 99be 425c f1bc 72d6 abbc
00000260: bf35 613e 8c96 0c3e b1e5 8bbf 310d babc
00000270: 41ba 3ebd 4c57 87bd 5594 483e 9565 15bc
00000280: 74fa 85bc 5616 3fbe c3f6 59bc 3924 4a3d
00000290: de5f cdbc b498 d839 1579 163b 084b 5c3d
-0.0674431 0.13881707 -0.12833522 -0.05453614 0.17120317 0.009556563 0.90533704 0.30411708
-0.014676278 -0.63739324 0.3965722 -0.17939796 -0.68002117 0.2992429 -0.27574492 -0.2810758
0.3986003 -0.10141079 0.57434154 0.1075099 0.3845774 -0.25546008 -0.29829383 0.1816983
0.97303337 -0.038790762 -0.55669326 0.8115172 -0.07443882 -0.13457033 -0.283402 -0.2313171
0.32342213 -0.32671505 -0.20610818 0.2194352 0.2607002 -0.41464126 0.45462686 -0.47447735
-1.1128987 -0.23822837 0.12929828 -0.011376952 -0.2607622 -0.8770561 0.7253601 -0.25934997
0.03169977 -0.8969498 -0.025401268 0.040264502 -0.06429171 0.15350741 0.050443485 0.09813688
0.032249503 0.20122164 -0.3136834 0.31751132 -0.13056538 0.18939011 0.47326732 0.3903097
-0.02821677 -0.014837908 0.20941709 0.05378356 0.0013173006 -0.13731048 0.34697738 0.09214898
0.1324491 0.07761093 0.06964831 -0.06552063 -0.06035681 -0.0015066002 0.3454352 0.050248764
-0.03905343 -0.23495121 0.07942776 -0.33554965 0.329709 -0.2168487 -0.7038235 -0.34597155
-0.30355296 -0.047331017 0.26135913 -0.13012226 0.58328533 0.06791518 -0.5388801 0.2681851
0.4633399 0.3030049 0.036868643 -0.043391105 -0.092644565 -0.025289994 0.09765596 -0.082371645
-0.041788317 -0.032043662 0.25271857 0.13796487 0.18609096 0.47261563 0.005084332 0.15501325
0.09552526 0.55577576 0.24349324 -0.14350158 -0.20411634 -0.40482178 0.054474536 -0.15356772
0.1967609 0.12933359 -0.007898023 -0.09595917 0.0019267689 0.6443301 0.26013178 0.022297988
-0.015933994 -0.023675922 -0.14068648 -0.059747133 -0.09136731 0.037834983 0.08081225 -0.056439012
0.28697172 -0.012956418 -0.5372447 -0.080142766 0.34858114 -0.1739107 0.49232042 -0.043513082
0.05428487 -0.008485596 0.283327 0.010132173 0.039524224 -0.29933465 -0.029462937 -0.020976279
0.21993159 0.13729304 -1.0929471 -0.022711368 -0.046564344 -0.066084474 0.19587834 -0.009118457
-0.016354777 -0.18660864 -0.0133034615 0.04935095 -0.025070127 0.00041312503 0.0022960354 0.053782493

user_location_embedding.weight f4 [760, 18]
00000000: 6385 103d a7ce 2abd bb27 553c 0718 da3c
00000010: 15c6 c53d 6264 c63d aa22 d8bc 945e a23d
00000020: 90fe 98ba 2c70 263b 1585 09bd 2b15 72ba
00000030: ec91 50bd 7237 c6bc 0435 c53c 641e 26bc
00000040: dbe6 523e 5670 b2bb b6dc e6bb c7ec 3ebc
00000050: db4a b03c 1cf7 963b d96b b63a 7473 a7ba
00000060: 4235 893c 5f9e 3cbc 72ad 3b3c e954 f2bc
00000070: e05c 3f3d 4fd4 a83c fbc0 cd3a 83e0 19bc
00000080: 3a2c 59bb 5dc4 efb8 785c b53c d582 bbbc
00000090: d26d f73a 1d80 e6bb ec3c 81ba 72a2 09bc
000000a0: 01c5 3fbd 2588 47bc eef4 ad3c bcac 92bb
000000b0: a63d 163c 1f59 743e 4c5f d13b b216 463e
000000c0: cde5 aa3c c678 163c 2777 cdbb f679 cf3f
000000d0: 4b18 53bb e800 05bc 76cd 8dbb c01f a83c
000000e0: adae 23bc f2d6 8f3c d1d7 a1be 1371 4dbe
000000f0: 1d16 a13e 97f3 a13c f173 463c 8932 8f3d
00000100: 4fdd 9dba dcfd a23e d7ab 5dbd c2df 803c
00000110: d15d 75bc 9057 a6bb f8bf 2c3b 97ab 923c
00000120: 6c63 47bd 2d8e 6abc 01cc 473d 8d86 c33c
00000130: 9a94 e43b 1380 8f3d 260d 813c 8590 84be
00000140: 6480 77bc e575 af3d 6b46 66be b5b6 0b3e
00000150: 146f c0bd 5479 f3be cb74 b3bd a106 dbbc
00000160: 0805 663d 4c1c 003d d801 aa3b 68f0 2fbc
00000170: ae1c 073d 7bfc 363d 95ac 843d a033 833d
00000180: 9c79 eb3b 044a 12bd b2fe ac3d 5bea 5a3d
00000190: 8a7d a2bc ed3d ca3d 1498 b7bc 80a5 5b3d
000001a0: e53f 0bbd 35f3 cabb 8497 323b 1612 693c
000001b0: 229b d6bd 719a 6dbd 929f 3cbe 6e2b cbbc
000001c0: e918 453f a207 ebbc 8356 40bc 515f 8c3d
000001d0: a8eb 88bb ef1a 81bc 9aed 02be f9a1 d339
000001e0: 82f0 8bbc 0877 01bd e32e 3c3d b424 f03b
000001f0: 0dcf 99bc 6bb5 8dbc 4cdb 553f bc06 27bd
00000200: 28ad 88bf 874e 9d3c 9982 833b 6187 353c
00000210: 6b30 93bc a411 8dbb 9e43 3f3f d002 053d
00000220: ed50 8dba 8af3 01bc 2a1d 86be 197e f23c
00000230: 05ec d83c 17d0 c53b 33df 6c3c 657c b3be
00000240: f597 07bb 9b58 06bc 996c a93b 6110 63bd
00000250: 1236 bbbc 9cef fe3d 1138 20bc 0a4e c63b
00000260: 8a2e ea3c 9bc8 dd3a 294e e33b 2aa8 893d
00000270: dbb0 80ba a32f 203a 44de 113b e7fc 843a
00000280: 422b 1e3c a931 183d 4467 71bc c9bf 113c
00000290: 94ec 16bd c74c c0bc 32e5 e73c f1e3 0f3c
000002a0: 8c55 a5bd c00d c83c cd64 c73c 530a fd3e
000002b0: af67 b4bc 28bd d43c bf31 143c 178b 053c
000002c0: aa82 763c 43fd a53b ec60 88bd 87a9 893c
000002d0: a38b 11bc 9450 713d 2e54 c6bd ca91 c03c
000002e0: aa6b 573e 07c6 a03c 4542 f2bb e4e3 073f
000002f0: ee1c 23be f11a 253e 517d 8c3d c09c c43a
00000300: 4b10 2bbb efc2 cdbc 246d 65bc 0c9d 1a3d
00000310: 5177 ec3c e89b 26bf 5ee3 81bc 99a0 0cbe
00000320: 2f6d 803c 1e89 7e3c 44a1 c1ba fac7 77bc
00000330: f898 e93b 0e18 7b3c 4900 943c aa53 cbbc
00000340: f7f4 86bc 46c7 44bd 2615 9d3d 50d3 283c
00000350: c31a e03d 701b 823e 6795 afbc 8f09 883e
00000360: 19e7 3dbd ffb7 85be 9de2 99bd 9a3b 33bc
00000370: 2fa8 473f c1a9 943f 8fee abbd bca7 b53d
00000380: ed85 a6bc a6d4 72bc 54da d7bc 7dd9 6abc
00000390: 0dc1 85bb 6701 983b b4f6 0fbd e0c4 9fbd
000003a0: 040a c93c 27bb f4bc a952 dfbc 5ebd 11bd
000003b0: 751c fa3b 7d45 1ebd c990 27bd bb74 62bd
000003c0: 9cfa bc3c 15da 3cbc 61e5 733c fccc ad3f
000003d0: 250a 3dbe 29ab afbe f199 d73c e8ee 3e3c
000003e0: bb64 f0bb 4bec 343c 3b85 723d 3504 d33b
000003f0: cb9a 99bd a514 eb3e 3243 c23c 3805 ed3b
0.035283457 -0.041700985 0.013009961 0.026622785 0.09656922 0.09687115 -0.026383717 0.079281956
-0.0011672545 0.002539645 -0.033574183 -0.00092347217 -0.050920412 -0.02419636 0.024073131 -0.010139082
0.20595877 -0.0054455204 -0.0070453538 -0.011653132 0.021520069 0.0046070945 0.0013917639 -0.0012775497
0.016749028 -0.011512368 0.011454927 -0.029581504 0.046719432 0.02060905 0.0015697771 -0.009391907
-0.0033137933 -0.000114329836 0.02213882 -0.022889534 0.0018877333 -0.0070343153 -0.0009860075 -0.008400546
-0.046818737 -0.0121784555 0.021234956 -0.004476158 0.009169972 0.23862122 0.006389534 0.19344595
0.02086153 0.009184068 -0.0062703076 1.6209095 -0.0032210525 -0.008117892 -0.0043274714 0.020522952
-0.009990376 0.017558549 -0.31609967 -0.20062666 0.31462184 0.019769473 0.0121126035 0.06992061
-0.0012044105 0.31834304 -0.054118957 0.015731696 -0.014975981 -0.005076356 0.002635954 0.017904086
-0.0486788 -0.014316124 0.048778538 0.02386787 0.0069757225 0.0700685 0.01575334 -0.2589151
-0.015106294 0.085674085 -0.224878 0.13643916 -0.093961865 -0.47553504 -0.08762511 -0.02673656
0.056157142 0.031276986 0.005188208 -0.01073847 0.032986335 0.044674378 0.0647823 0.06406331
0.007186128 -0.035715118 0.08447017 0.053446155 -0.019835252 0.09875093 -0.022411384 0.05362463
-0.03399648 -0.0061935433 0.0027250955 0.014225503 -0.10478808 -0.058008615 -0.18420246 -0.024800982
0.76991135 -0.028690163 -0.011739376 0.06854118 -0.004178483 -0.015759913 -0.1278595 0.00040365735
-0.017082456 -0.031607658 0.045943152 0.007328594 -0.018775487 -0.01729842 0.83537745 -0.040777907
-1.0677843 0.019202484 0.004013371 0.01107964 -0.017967423 -0.0043050814 0.7471255 0.032473385
-0.0010781564 -0.007931599 -0.26194125 0.029601144 0.02647973 0.006036769 0.014457512 -0.35055843
-0.0020689939 -0.008199836 0.0051704166 -0.055435542 -0.022852931 0.124480456 -0.009778992 0.0060517834
0.028586645 0.0016920747 0.0069368077 0.06721528 -0.0009818332 0.0006110614 0.0022257725 0.0010146172
0.009653868 0.037156735 -0.014734093 0.008895823 -0.036846712 -0.02347411 0.028307531 0.008782373
-0.080729574 0.024420619 0.024340058 0.4942194 -0.022022096 0.025969103 0.0090450635 0.008150837
0.015045801 0.0050655915 -0.066591114 0.01680447 -0.00888339 0.058914736 -0.09684025 0.023507018
0.21037164 0.019625677 -0.007393154 0.5308211 -0.15929005 0.16123559 0.0685984 0.0015000328
-0.002610224 -0.025117366 -0.014003072 0.037747428 0.028865488 -0.65081644 -0.015855487 -0.13733138
0.015677063 0.015535621 -0.0014772792 -0.015123362 0.007128831 0.015325559 0.018066542 -0.024820168
-0.01647423 -0.048041604 0.07670049 0.010304287 0.109426044 0.25411558 -0.021433545 0.26569793
-0.04636297 -0.2611694 -0.07513926 -0.010939503 0.77991 1.1614305 -0.08395111 0.088698834
-0.020327533 -0.014821207 -0.026349224 -0.01433408 -0.0040818513 0.004638839 -0.035147384 -0.07801223
0.024540909 -0.029874397 -0.027261095 -0.035580985 0.007632787 -0.038640488 -0.040909562 -0.055287104
0.023068719 -0.011526604 0.014886231 1.3578181 -0.18460901 -0.34310272 0.026318522 0.011653639
-0.0073362268 0.011042665 0.05920909 0.0064397105 -0.075002275 0.45914188 0.023713682 0.007233288

item_id_embedding.weight f4 [1600, 32]
00000000: b8f6 98bc 587c 12bd 7c75 c9bb aad2 d2bb
00000010: 1605 733d 8345 09bf 2026 bb3c 557d f6bc
00000020: 68a6 6c3c c18f ef3b c2d5 a3ba b002 8e3c
00000030: 2f1f c33c 8a35 aebb a96c 7e3b 2981 2e3b
00000040: 69f1 2ebc f85e 6a3d 4520 64bd 6abe 0c3e
00000050: 2794 9fbc 8338 5e3e ec45 d7bc d785 ac3d
00000060: 1c37 c2bc 3149 ec3c c173 d83c 94ef b5bb
00000070: e9c8 94bc 5eb0 733c 754b 083d b5d4 2e3c
00000080: 7960 eebc 36c4 d6bd 4353 823b 6fb1 9abb
00000090: b210 ea3b 78b5 273b 3f15 10bc e986 97bc
000000a0: 769a 2e3c c8d7 82bc 265f 45be 8a1d eb3c
000000b0: e2e3 263d 195e 543c 9f2e 183d afc7 9d3c
000000c0: b469 ac3b caa7 6d3c 0a97 19bb 6e4d 0eba
000000d0: 7233 1a3c 9970 89bc 6a96 e1bd 92c4 023d
000000e0: db07 303c f97c 893c e0b8 f93d 6bc5 963c
000000f0: 1891 f23b e222 593a e806 fbbb 8948 983c
00000100: 4814 3cbb 4310 f93c 7ebf c9bc 676b 0fbc
00000110: b110 273a 568c 1cbd 0cf4 1f3c 27f6 82bc
00000120: cc0a e53d cc8b 36bd 0d95 0d3b 3054 92ba
00000130: eee2 d53c f243 f43b a891 67bc 4d01 613c
00000140: 018b d03a cdf2 a83c f8b1 28bc aec4 a2bc
00000150: 10ad 983c f368 55bd a6d1 e43d 0236 c5bc
00000160: f804 e0bc e7f5 6e3e f678 90bc d400 1dbc
00000170: e51d 0d3d 1c53 ad3e a5f7 ca3e 1cd0 8dbb
00000180: f93a 073f ff06 3abc 94bf a9be 4e90 d9bb
00000190: aa09 033b 7c13 293c 6ee2 f2ba 302e 83bc
000001a0: ee2a a93d 4f33 8fbb b94c 20bc e0d2 003e
000001b0: 926f 90bd 4857 473c 823b 7eb9 1148 be3b
000001c0: 21a3 813c d214 903b 06e5 dbba 0e70 973e
000001d0: 0b8a f13b 74b5 e53b 0e37 06b7 5711 a93c
000001e0: 1ae3 da3d e7e7 f33b b771 753c 6e2a 4c3e
000001f0: 4db7 4cbc 4e00 2cbc 2673 11bd c898 2038
00000200: 6f70 ccbc dce5 a4bd 7062 07bc 5dc0 d5bc
00000210: 6cb4 50ba 774e a13e 9370 63bc 9033 b0bc
00000220: 61f0 5a3b 8599 6bbe 582b b9bd 3115 113d
00000230: b37d 063d 2970 273c 63c5 a73c 48c8 313c
00000240: cb77 403f 5d8a b93b c125 483a a662 aa3a
00000250: ebc5 d1bc 5e6a 99be 2cf1 233d 0e9d 70bb
00000260: 8b1d 043c 8192 793c dbc7 5f3c 0811 7a3c
00000270: 13cd 1bba 6070 e7bc eaa9 7db9 734f 213c
00000280: ad56 9b3c d6e6 b13c 2a4d b43c 122d 24bd
00000290: a4a9 b73d c822 173c 7a30 8cbc dd7b 04bc
000002a0: e0ae 1fbc be5c 963c bdc4 81bb c4ab 513c
000002b0: 4c1a 3dbc 1950 1f3f 233d 183c 2a15 5b3d
000002c0: dabd e639 4467 ceba d4e7 253e a19f 553c
000002d0: a1da 7d3e c744 7d3c b2d3 36bd 2db8 593c
000002e0: dee7 e1bb 6bc9 153c 13e3 63bc f76b aabd
000002f0: dbcb d13b 1343 243c c835 1dbc 34ab 9abb
00000300: f435 ebbb 29ef a03c 40f0 58be e087 9f3b
00000310: a8d9 58bc 11c7 8abc 2f4c 74b9 14db abbc
00000320: b999 dc3e 2441 faba c8da 583c e1cb ccbb
00000330: c5cf d9bb 626b 4b3c ab39 a5bf 6308 e2bb
00000340: c0af 483c 0b89 86bc b140 893e 6cef d43e
00000350: f9a0 983b 2305 65be b7b7 2cbe c5c9 943c
00000360: e69f 413d ed77 2fbe 5bf9 d63e 8e5e f0bc
00000370: 6ef1 54bb 9e35 9abc 7acb 6cbc c932 b53b
00000380: b04e 38bd 3807 bb3e ab4a 4e3c 58a2 65be
00000390: 50a5 983c 5551 d0bb 87e8 bcb9 ca6c 43bd
000003a0: 4a0b 703c 0531 c1bc 2c50 3abc 340f d43c
000003b0: b86a fa3c 5cc0 233a 039c 6a3c 48a9 b43c
000003c0: d587 af3b 02ac 693e 6af4 05bc 6194 2bbc
000003d0: 81a2 00bf 1655 14bc 21bc e13c d4cc 083f
000003e0: d723 e63c a2ee 90bb 63d3 a03c 7788 bb3b
000003f0: d3ae c6bb f941 3ebb 9ed7 a93c 1576 323d
-0.018672332 -0.035763115 -0.0061480384 -0.0064338045 0.059331022 -0.5362169 0.022845328 -0.03008906
0.014443971 0.007310838 -0.0012499618 0.017335266 0.02381858 -0.005316441 0.003882209 0.0026627278
-0.010677674 0.057219476 -0.055694837 0.13744512 -0.019479824 0.21701245 -0.026278459 0.084239654
-0.023707919 0.028843494 0.026422383 -0.0055522416 -0.018162208 0.014873592 0.033275086 0.0106708305
-0.029098736 -0.10486643 0.0039772107 -0.0047208588 0.0071431035 0.0025590342 -0.008794128 -0.018496947
0.010656944 -0.015972033 -0.19274577 0.028700609 0.04074467 0.012961888 0.037153836 0.019260256
0.005261624 0.014505336 -0.0023435974 -0.0005428408 0.00941168 -0.016777324 -0.11015017 0.031925745
0.01074406 0.016783224 0.12193465 0.018404683 0.0074025504 0.0008283091 -0.0076607354 0.018589275
-0.0028698612 0.030403262 -0.024627443 -0.008753634 0.00063730316 -0.038219772 0.009762775 -0.015986515
0.111837 -0.044566914 0.0021603734 -0.0011164006 0.026109185 0.007454389 -0.014133848 0.01373322
0.0015910567 0.020623589 -0.010296337 -0.019869175 0.01863721 -0.05210204 0.111728 -0.024073604
-0.02734612 0.23335992 -0.017635804 -0.009582717 0.034452338 0.3385247 0.39642063 -0.004327787
0.5282436 -0.011354207 -0.33153975 -0.006639517 0.0019994774 0.010319587 -0.0018530616 -0.016013235
0.08260141 -0.00437013 -0.009783917 0.12580442 -0.0705253 0.012166806 -0.00024245496 0.005806931
0.015824856 0.004397013 -0.0016776628 0.29577678 0.0073711923 0.0070101563 -7.999841e-06 0.020638151
0.106878474 0.0074434164 0.014980725 0.1993806 -0.012494874 -0.0104981195 -0.035510205 3.828926e-05
-0.024955956 -0.08051655 -0.008263215 -0.026092703 -0.0007961455 0.31505176 -0.01388182 -0.021508962
0.0033407437 -0.23007782 -0.0904147 0.0354206 0.03283472 0.010219612 0.020479864 0.010850973
0.7518279 0.005662246 0.00076350203 0.001299937 -0.02560707 -0.29963964 0.04002492 -0.0036714706
0.008063684 0.015232683 0.013658489 0.01526285 -0.0005943339 -0.028251827 -0.00024191258 0.009845602
0.018962229 0.021716516 0.022009451 -0.040082045 0.08967903 0.009224601 -0.01711296 -0.008086172
-0.009746283 0.01835477 -0.0039602206 0.0127973 -0.011541914 0.62231594 0.00929192 0.05348698
0.0004401047 -0.0015747328 0.16201717 0.013038547 0.24790432 0.015458292 -0.044635482 0.01328854
-0.006894096 0.00914226 -0.013909119 -0.08321374 0.0064024753 0.010025757 -0.009595342 -0.004720116
-0.0071780626 0.01964529 -0.21185398 0.0048684925 -0.013235487 -0.016940625 -0.00023298034 -0.020978488
0.4308603 -0.00190929 0.013235755 -0.00624989 -0.0066470825 0.012415739 -1.2908224 -0.0068979724
0.012248933 -0.016422769 0.26807168 0.41588914 0.0046578613 -0.22365241 -0.16866957 0.018162617
0.04727163 -0.17135592 0.41987118 -0.029341962 -0.0032492536 -0.018824395 -0.0144528095 0.0055297357
-0.044996917 0.36528945 0.012591044 -0.2242521 0.018633515 -0.006357352 -0.000360314 -0.04771117
0.014651129 -0.023582945 -0.0113716535 0.025886156 0.030568466 0.00062466203 0.014319423 0.022053376
0.0053567686 0.22819522 -0.008175949 -0.010472388 -0.5024796 -0.009053489 0.027555527 0.5343754
0.028093262 -0.0044229785 0.019632047 0.005723055 -0.006063321 -0.0029031022 0.020732697 0.043569643

item_type_embedding.weight f4 [5, 8]
00000000: 0726 b93f 2317 6cbf bafe ef3f c28f be3d
00000010: a82c 19be fcbd f83e e25c 84bd fe3e 2b3d
00000020: dd49 863f 26a3 5bbf e0f7 b73f 46eb 4cbe
00000030: 4361 53bf d935 7dbf f2ac 8a3f f697 653f
00000040: 60d3 733e d87d 07bf 3e8f 4b3e 3f56 aebf
00000050: ff29 c1be 9a54 62be c686 4a3e 4164 80bf
00000060: e44e 0d3f 7221 9dbc 5f31 423f 3f16 653e
00000070: 5603 ba3f 6925 063e 93ae 323e c02a e2be
00000080: 2e76 0bbf f462 353e 591d 9cbe 7ccb e4bd
00000090: d620 d1bc 3939 243d ec77 283e 1dc8 a0be
1.446473 -0.92222804 1.8749611 0.093047634 -0.14958441 0.48582447 -0.064630285 0.04180812
1.0491291 -0.8579582 1.437252 -0.20011625 -0.82570285 -0.9891029 1.0834029 0.89685
0.23811102 -0.529264 0.19878861 -1.362007 -0.37727353 -0.22102585 0.19777974 -1.0030595
0.551985 -0.019180987 0.75856584 0.22371767 1.4532268 0.13100208 0.17449407 -0.4417324
-0.544772 0.17713529 -0.3049114 -0.11171624 -0.025528353 0.040093634 0.16451997 -0.31402674

item_temperature_embedding.weight f4 [7, 8]
00000000: 9604 32bc f913 fbbc 9def d4bc a962 23bf
00000010: 3d1d c33c 6249 9dbe b59e 193d d8a1 74be
00000020: bbab 6abc 5770 fd3e afdb 16be 6b3f 123e
00000030: 0e0d 00bf 18f5 ca3d 7ad5 14bf 0988 2bbf
00000040: 4ab3 cebe 2d6a 713f 89a2 333f 8057 d6be
00000050: e3c2 9fbd 3051 25bc c399 53bf 05a9 8bbe
00000060: 746d c4be 2089 583e 3b0d 75be 7d00 98be
00000070: 1e6a 20bf 1de0 9a3d dc5f 91be 9591 7c3f
00000080: f416 f0be 9978 b6be d8f1 963e c2f8 cebe
00000090: 4534 e03d 4b11 643f 3485 1d3f 52e5 b53e
000000a0: 362c 8f3e c5db 03bf 6cf8 8cbe 0aba 4bbe
000000b0: ac68 863e 6de7 12bf 8bfe a23f 951a a53f
000000c0: 81b8 82be 42d0 1b3d d0b8 85bf 166b 093d
000000d0: 63b9 a7be 1ad0 8c3e 08d8 493e 9a64 31be
-0.010865351 -0.030649172 -0.025993163 -0.6382242 0.023817653 -0.3072005 0.03750487 -0.23889863
-0.01432317 0.4949977 -0.1473224 0.14282005 -0.5001992 0.09910029 -0.5813824 -0.6700445
-0.40371162 0.94302636 0.70169884 -0.41863632 -0.078008436 -0.010090157 -0.82656497 -0.2727739
-0.38364756 0.21146059 -0.23930828 -0.29687873 -0.6266192 0.075622775 -0.28393447 0.9865964
-0.46892512 -0.35638884 0.29481387 -0.40424162 0.109474696 0.89088887 0.61531377 0.3552652
0.27963418 -0.51507217 -0.2753328 -0.19895187 0.26251733 -0.5738438 1.273393 1.2898737
-0.2553139 0.038040407 -1.0447025 0.03354939 -0.32758626 0.2750252 0.19711316 -0.17323533

item_humidity_embedding.weight f4 [6, 8]
00000000: 323a 86be 9609 f63d 8e91 8e3d 6126 fbbd
00000010: 1a40 04bf c402 03be b7bd 31bf 1013 1a3c
00000020: 7b6a f7be f9f7 13bd fb85 ef3e d3cf 99bf
00000030: d59c 1c3f c01a 463e b640 8a3e 307e 31be
00000040: 58cb 85be e1a2 413e a9d1 bd3f b10d dd3e
00000050: 04c4 f03e 35ca 8cbe 4079 9b3f 0c38 eabe
00000060: 95e3 e43e ef8b 023f d216 d4bf 81fc 24be
00000070: c70a dbbe 3f83 bfbe 2e0b c23e 6abb 9fbe
00000080: fe71 b0bf 5431 0f3f cc9f aa3d f1a4 54bf
00000090: c2a3 8c3f f1af a1bf abbc aabc 0ee4 06bf
000000a0: fc0d 08be 94c8 fa3e 77ad b3be a8b8 98be
000000b0: a193 85be 1df1 863e 9699 3d3f 2f08 c03e
-0.26216274 0.12013547 0.06961356 -0.122631796 -0.5166031 -0.12794024 -0.69430107 0.009403959
-0.48323426 -0.036125157 0.46781906 -1.2016548 0.61176807 0.19346142 0.27002496 -0.17333293
-0.261317 0.1890979 1.4829608 0.43174508 0.47024548 -0.27498022 1.2146378 -0.45745885
0.4470488 0.5099477 -1.6569464 -0.16111948 -0.4278166 -0.3740482 0.37899154 -0.31197673
-1.3784788 0.55934644 0.0833126 -0.8306418 1.0987475 -1.2631818 -0.020841917 -0.52691734
-0.13286585 0.48981154 -0.3509328 -0.29828382 -0.26089194 0.2635583 0.7406248 0.37506244

item_windSpeed_embedding.weight f4 [5, 8]
00000000: e0f9 983f 7798 1d3f e2f5 81bf d2ed 5a3e
00000010: e0a1 513f 5899 3ebe 1494 10bf b456 3e3f
00000020: d0a0 833f df88 a53d cd37 21bf f694 90bf
00000030: 007d dc3d 0742 a43e 8e80 51bc f7e8 3abe
00000040: 4a81 de3d a019 f5be 6bae 613f 4339 b83e
00000050: 2c12 21be f0f7 d7bf ea47 56be 6959 b83f
00000060: 8ebe 3cbf 77a0 e8be 52ff 1b3f 683f d8bd
00000070: fbc2 9e3e 2937 473f 6666 04be b979 35be
00000080: 645e 6cbe 49ff b53f 4311 8e3c 178d adbe
00000090: 156c 9b3e 6779 483f 8334 f63e c9b0 c5be
1.1951256 0.6156077 -1.0153162 0.21379784 0.81887627 -0.18613183 -0.5647595 0.7435105
1.0283451 0.08082747 -0.6297577 -1.1295459 0.10766029 0.32081625 -0.0127869975 -0.18252932
0.10864504 -0.47871113 0.88156766 0.35981187 -0.15729588 -1.687254 -0.2092587 1.4402286
-0.73728263 -0.45434925 0.6093646 -0.10558969 0.31008133 0.7781854 -0.12929687 -0.17722215
-0.23082882 1.4218532 0.017342215 -0.33896706 0.30355898 0.78310245 0.48086938 -0.3861144

GCN_Layers.0.W1.weight f4 [64, 64]
00000000: 6069 c8bd 3d61 c43c 9f72 bdbd f550 fdbd
00000010: 78b6 2c3d d666 753d 4625 7c3d 418e 4abd
00000020: abf3 77bd 4e3b 403e 1ab1 353d 295e d23b
00000030: b753 edbd a196 1e3d 87ea 13be 5363 ebbc
00000040: 02a1 94bd b53b 0e3d 5dd9 7dbd 0d64 c33d
00000050: 40d9 253d 6017 e13d d0fa b63b 314f a13d
00000060: 2ca0 093d 9bf4 d73c 0a06 0d3c 3d85 f9bd
00000070: 9d75 43bd ec2b afbd c833 32be 1836 53bd
00000080: 9840 80bd 0fb7 f5bd 554f 0abd 8411 9dbb
00000090: 0092 2fbd 9466 e9bc 4c3b 14bd 394c 0a3e
000000a0: 603e 68bd e017 e23d d89e 29bd 0e74 f8bc
000000b0: 7161 dd3d 4f60 403d 60f2 34bc b92e e8bc
000000c0: 0f6b 05be 18f5 26bd 9986 f33d 3558 8abc
000000d0: b8ca cfbd 450b 2b3d 21cf 8abd 6df8 053d
000000e0: fc3e cc3d 1914 5dbd e9b4 30bd 19a2 3f3b
000000f0: 7b75 19bd 63f0 0bbd ac19 c739 fd2a 73bc
00000100: 0f17 3c3e a92e 93be a297 6c3d 1322 b1bd
00000110: 4140 9c3c 4c64 233e 1d14 cc3c ff04 5b3c
00000120: b151 6e3d 406f ec3d 5063 e83c 4432 54bc
00000130: 02a5 2ebe 2ad4 9f3c 3995 823c 27dd a5bd
00000140: 8670 f43d cff2 abbc 1597 9fbc d5e2 bc3d
00000150: a272 92bd 0ac0 4f3d 08eb 3f3e c8ee a33d
00000160: 6f07 63bd ae42 df3d 54b8 9f3c d925 9c3d
00000170: c6e9 95bc 9543 4a3e 18cc bdbc 7a0b 9cbd
00000180: 3740 673d 6b6b a23d 158b 6f3d 3c92 a93c
00000190: d8f9 353b 15bc 02be 83d4 91bd 203d 74bd
000001a0: 6908 5d3d 65f0 db3d f8dc a03d a853 41bd
000001b0: d4ab 34bc c294 fe3d b0ea e3bd 714c 8f3d
000001c0: 2942 33bd cbfb 173d 802e 15bd bde7 dcbd
000001d0: bc6c 0a3c 4778 ecbd c752 76bc 73b1 fe3d
000001e0: d35a a63d 08bc babd 6aa4 f83d e837 093d
000001f0: 561d e93d 2703 8ebd 1e71 2b3d 7e00 e7ba
00000200: cc82 5bbc 5478 133e 4314 c9bd fc89 243d
00000210: 3991 d6bd c883 e5bc b2af 4fbd 8fde 4abe
00000220: 4958 6c3d f1b5 a43c bfaa df3d 1e37 5c3b
00000230: 4825 3e3e cbb7 183d 4136 28bc d394 a53c
00000240: edde 0abd 53af f0bc c65e 703c 12d7 713d
00000250: 4a47 bb3c be87 c7bd ae36 343d df44 0d3d
00000260: 08cb 8bbd b6a0 003e e91f 753d b68e a5bd
00000270: 91a2 8c3d 7b12 c33c a3fe 9a3b 451a db3d
00000280: 91bd c83d 8615 4a3c 8814 d6bd a21e d43d
00000290: 5445 28bc 3fac 2c3c a7dc 19bd fcd9 2abe
000002a0: 1b7b ebbc da3f e63c 0609 9d3c da4a ad3d
000002b0: cb9b bdbd 60e6 eebd cfc1 d73d 12c8 dabc
000002c0: 82a8 1dbd cf35 f83c e816 06bc 5b69 5abc
000002d0: afad 62bc 9ff1 8fbd 05c6 753d c95c b63c
000002e0: a7df 74bd a29d 393d ac4d 98bc 3e2e 1e3d
000002f0: e9ad 833d 26a0 c1bc da08 023e 5321 6e3d
00000300: 08bb 7abc bd48 08bc 7198 71bd dcb0 0cbe
00000310: 7441 78bc ce7f 0abe d6a9 583d b4ab 0e3d
00000320: e8d0 23bd eb32 8cbd 0e01 9cbd 5c8a b93d
00000330: 9e6b e13d b69b f3bd 537e 27be 0e89 e43c
00000340: e0df eebc f3ef 04bd 998b aabb 6f1f d4bb
00000350: 0ba8 88bd edb9 af3c cb15 473e cb97 d9bd
00000360: 217c 953d de19 223e 5218 8c3d 1a1d 053e
00000370: 8b91 a2bd ca89 67bd 9308 4fbd 890e 9b3c
00000380: 7055 ad3d d64f 973d 2c46 a4bc 84ee 7bba
00000390: f561 dd3c bb89 7a3d 7d84 d83d c211 a7bc
000003a0: ad65 963b 0327 30be 2e17 893c e74a f6bd
000003b0: c358 36bd e4cd 193d ac3f 113d 2675 00be
000003c0: 8589 35bd 29b8 29bd cdcf b73d 4f3c d7bd
000003d0: 6cec dcbd ce46 d5bc f3c8 cd3c 100a 6ebb
000003e0: f2c1 e1bd 9b27 fa3b 7d01 f7bd 5f0e 8fbd
000003f0: 2c5d eb3d 3f82 053d 465c 3c3d 3b23 c6bc
-0.09785724 0.023972148 -0.09250378 -0.12368957 0.042166203 0.059912525 0.061558984 -0.04945207
-0.060535114 0.18772623 0.04435835 0.006419916 -0.11588233 0.03871787 -0.14444934 -0.028733885
-0.07257272 0.03472491 -0.061974872 0.095405675 0.04049039 0.109907866 0.0055840984 0.07876433
0.033600017 0.026361754 0.008607397 -0.12183616 -0.047719587 -0.08553299 -0.17402565 -0.05156526
-0.0626232 -0.11997806 -0.033767063 -0.004793348 -0.042863846 -0.028491296 -0.036189362 0.13505639
-0.05670011 0.1103971 -0.04141125 -0.030328777 0.10809601 0.046966847 -0.011044115 -0.028342592
-0.13029121 -0.040761083 0.11890907 -0.016887764 -0.101460874 0.041758794 -0.06777788 0.03270762
0.09972951 -0.053974245 -0.04314128 0.0029240905 -0.037465554 -0.034164798 0.00037975365 -0.014841792
0.18368171 -0.28746536 0.057761796 -0.08649077 0.019073607 0.15956229 0.024911935 0.01336789
0.058183376 0.11544657 0.028367668 -0.012951437 -0.17055133 0.019510347 0.015940296 -0.08098822
0.11935525 -0.020989804 -0.019481221 0.09222952 -0.07150771 0.050720252 0.18742001 0.08004528
-0.05542701 0.1090139 0.019497074 0.07624406 -0.018299948 0.19752343 -0.023168609 -0.076193765
0.056457724 0.079306446 0.05848225 0.020699613 0.0027767327 -0.1276706 -0.071206115 -0.059628606
0.0539631 0.10739211 0.078546464 -0.04719892 -0.011027295 0.12430717 -0.111287475 0.06997002
-0.043764267 0.037105363 -0.0364213 -0.10786388 0.008448776 -0.115463786 -0.015034384 0.124361895
0.08122792 -0.09117895 0.121407345 0.033500582 0.113825485 -0.06934195 0.041855924 -0.0017624048
-0.013397884 0.1440137 -0.09818318 0.040170655 -0.10476918 -0.02801694 -0.050704665 -0.19811462
0.057701383 0.020106288 0.10921239 0.0033602188 0.18568909 0.037284654 -0.010266841 0.020212566
-0.033904005 -0.029380476 0.014671033 0.059042998 0.022861142 -0.09742688 0.04399746 0.03448951
-0.068258345 0.12561306 0.059844885 -0.080838606 0.068669446 0.023812523 0.004730062 0.1069837
0.09801782 0.012334233 -0.10453135 0.10357405 -0.010270435 0.010539114 -0.037563946 -0.16684717
-0.028745225 0.028106619 0.019169342 0.084615424 -0.09258231 -0.11665034 0.10535013 -0.02670673
-0.03849078 0.030299095 -0.008184172 -0.013330783 -0.013835355 -0.070285074 0.0600033 0.02226104
-0.059783604 0.045316346 -0.018591724 0.03861832 0.06429655 -0.023635935 0.12698689 0.05813725
-0.015303381 -0.008318123 -0.05898327 -0.13739341 -0.015152324 -0.13525316 0.052896343 0.034831718
-0.03999415 -0.06845649 -0.07617389 0.09059593 0.110068545 -0.11894934 -0.16356783 0.027897384
-0.029159486 -0.032455396 -0.0052046296 -0.0064734737 -0.06672677 0.021450961 0.19441907 -0.10624655
0.07299066 0.1583018 0.06840576 0.12999383 -0.07937916 -0.05652789 -0.050545286 0.01892783
0.084635615 0.07388274 -0.020052992 -0.0009610432 0.027024249 0.061166506 0.10572145 -0.02039421
0.0045897574 -0.17202382 0.016734686 -0.12026005 -0.044518244 0.03754987 0.035461113 -0.12544689
-0.044320602 -0.041435394 0.08975182 -0.1050955 -0.107872814 -0.026034739 0.025120234 -0.0036321916
-0.1102332 0.007634116 -0.12060831 -0.06985163 0.114923805 0.032594915 0.045986436 -0.024186721

GCN_Layers.0.W1.bias f4 [64]
00000000: 65a4 303d 3531 a7bc 7312 9e3c 41ed 20bc
00000010: 8086 e83c 65d5 e2bc 17f0 853b 9058 ea3d
00000020: 157c f83d a7c2 c7bd 80a7 88bd 77ee 393d
00000030: 3334 aebd 04e0 663d 7d82 013e a7c6 ecbc
00000040: e670 073d 54f3 dd3d ca42 e43d 8144 9a3d
00000050: 1c2d 6dbd 182d 94bd 508a 273b 9fee 3abd
00000060: 3368 0dbd 5168 a43d 75f4 09bd ef97 33bd
00000070: 3627 573d 8572 353d 56a8 69bc db26 9b3d
00000080: ea00 3d3e efcf ccbc 03c4 363d 37e2 a9bd
00000090: 42aa 83bc 1831 d53b 2070 c0bd fa9d 503d
000000a0: 611a 9b3a a7b9 ae3d 6f40 9dbd 8f10 edbc
000000b0: b662 963d 90da 85bd 1da9 2abd f29d 943c
000000c0: 6131 0f3e b403 983d b213 81bd 8488 19bc
000000d0: afac 8d3d 999f 413b 665e e43c ed46 553d
000000e0: baa9 04bd d5c9 4abd d62a 91bd 0445 96bd
000000f0: 47bd 8d3d 1ccc 32bd 97b1 cc3c fca2 c9bc
0.04312553 -0.020409206 0.019295907 -0.009822191 0.028384447 -0.027689645 0.004087459 0.11442673
0.12133042 -0.09753924 -0.06672573 0.045393433 -0.0850605 0.05636598 0.12647434 -0.028903319
0.033066653 0.10837427 0.111455515 0.07532597 -0.057904348 -0.072351635 0.0025564618 -0.045637723
-0.0345232 0.08027709 -0.033680398 -0.043846067 0.05252763 0.044298667 -0.014261326 0.075757705
0.1845738 -0.025001494 0.044620525 -0.082951 -0.016072396 0.0065060966 -0.09396386 0.05093191
0.0011833423 0.08531504 -0.07678305 -0.02893856 0.07343046 -0.06535828 -0.041665185 0.01814172
0.1398368 0.07422581 -0.06302585 -0.009370927 0.069177024 0.002954459 0.027877044 0.052069593
-0.032388426 -0.04950889 -0.070882484 -0.073373824 0.069208674 -0.043651685 0.024987025 -0.02461385

GCN_Layers.0.W2.weight f4 [64, 64]
00000000: e634 43ba d60a 14bb f25f 8ab8 bd61 89ba
00000010: 6d04 e93a a96f 563a 61de 06bb 25ec 9c3a
00000020: 45ca 4bbb 9957 773b efc7 dabb 16a7 263b
00000030: 6c0c b5ba f7ae 75bb bc43 513b 7bd4 d23b
00000040: 79f7 45bb a07c 72bb 4055 08ba 7f6b 613b
00000050: 83c4 133a eea5 b839 a8d3 25ba d76e 713b
00000060: 7e14 a4ba d4a3 d7b8 ff69 313b aab9 e53a
00000070: 4e1f ef3a bec1 62b7 d4ad 523b a606 16bb
00000080: afd5 053e 027a 2fbd 0e70 243e 1b5b 59bc
00000090: d150 9dbc 8723 053d 39aa 0d3e dc1e e5bb
000000a0: 6b6f 8b3c 8d12 563c f380 523c 2087 9d3c
000000b0: 9f81 5dbc b2c0 243c 4838 853c 5dcb 493b
000000c0: 0b76 643c b298 ea3c dfa9 c93c 6012 e1bc
000000d0: cf61 8dbd 8691 a9bd 7b73 f53c d512 8cba
000000e0: b19e eebc 3a04 ecbb ddc6 ad3c b0a1 03bd
000000f0: 0942 263d db07 813c b213 b23c d5a0 bc3c
00000100: 5f55 85bb 8d78 eb3b ba76 87ba 4a99 673a
00000110: 59ef b0bc 2ac4 913c e0d4 903c 0e7f 03bc
00000120: f4f4 2c3c 59f6 d03c 7232 c33a a861 133c
00000130: 929f dbba 79bc 053a 7483 423c fddc 90bb
00000140: 347b 9c3c 157c c03c 8490 be3c fb6d 7cba
00000150: c726 a8bb a3d1 6cba ce77 983c afe3 0c3c
00000160: 8dc5 14bc 6f44 473c bdfd 17bc a583 23bc
00000170: de54 023b 9ee2 05bb 12de 13bc bfcb 743b
00000180: 0292 993c 687e bfbd 2e71 f9bd f713 08bd
00000190: c42e 55bd 1fe7 583d cf08 533d 926b 92bb
000001a0: 18ec 3d3d 50cd 0b3e 1758 10bc d7df a23d
000001b0: f615 fb3d c78e eabc 3621 cebd 56ac 0c3e
000001c0: 1e3d f13b fdb7 9bbd 185a 0bbd 5a38 1a3d
000001d0: 7ed7 4f3c e51e 233e f788 e03d 8416 b7bc
000001e0: 9635 fdbd 53f5 ba3b 8be8 e23b 51b9 503d
000001f0: ad5c 4fbc 19d2 e1bd 772d a5bb eb70 a93d
00000200: 74c7 633b 0942 a7bb a5b2 36ba 28a2 cbb7
00000210: 9b06 df3b 2200 9c39 b611 c1bb dbe0 c03b
00000220: ba39 2bba 7c75 52bc cd35 db3a 0d35 903b
00000230: 6822 353b 82af 85ba 83a4 e7b9 8d6f 9ebb
00000240: cedc 50bb 48c7 f9b9 4326 23ba 5924 af3b
00000250: 3f35 193b 380b 453a 4a79 d4bb 2551 7dbb
00000260: d70a 0439 2f30 07bc 3652 453b 061f 84bb
00000270: c4b4 1f3b 4ede c13b 742f 0b3c 9e25 31bb
00000280: 68b9 833d 37ef 6cbd 356f 5abd b3bc 643b
00000290: 88cb b8bd 66f3 843d 8378 3f3d 80a6 8bbd
000002a0: 12b8 27bc 3b64 e0bc e1c9 2d3d eda4 ff3b
000002b0: 57c2 0bbc 0e00 37bc 2559 15bb 091c 513d
000002c0: 1a1d 88bd 12ee bcbd 28fb c1bc 22ff ce3c
000002d0: c673 29b8 737e dcbc aba1 c43b 76f5 65bb
000002e0: 8bb5 40bd d044 e8bc cd0e c7bc b36a 2e3c
000002f0: 8465 5dbd 78f2 dbbb 57f6 6abc 837d a4bc
00000300: b423 1b3c 8512 eebb ca9f 153b a143 06bb
00000310: ecb2 2e3b a971 c739 e71e 7bbc 2044 4d3a
00000320: af89 15bc 5de2 83bc 40d6 1a3b 9cc3 a1ba
00000330: da37 fbba d166 2fbc e813 03bc eef9 b93a
00000340: 8797 23bc ecbb 1fbc ff7b dcbb 4086 07ba
00000350: 2f9c d83b a1c8 69bb b578 89bb 135b 4239
00000360: af86 c53a 7aa0 d9ba 0615 cd3b d7b1 3cbb
00000370: e78a af3a 279d 213b cc11 553b 990a 8bbb
00000380: 5add 28bd eeca b1bd d5bf 3fbc 74b8 38bd
00000390: 93a9 75bd b2be ff3c 0dc3 1b3d 81db 6b3b
000003a0: 7cf1 35bd caa9 a3bc 6c7e af3c 456d 913d
000003b0: 9a8e 61bc 4253 adbc 92dd d6bc 6279 75bd
000003c0: 3418 38bd 0f8a 28bd f315 04bc d16b 1a3c
000003d0: 457e 03bd dc01 90bc 287c 4dbc 3892 823c
000003e0: 3bf1 fbba 2e25 51bc d5c1 983c b47a b1bc
000003f0: 5391 983d c3a6 c4bc ed2a e13a 56be bcbc
-0.0007446542 -0.0022589467 -6.598224e-05 -0.0010481399 0.0017777808 0.0008180091 -0.0020579326 0.0011972232
-0.0031095904 0.0037741421 -0.006676666 0.002542918 -0.0013812906 -0.003748832 0.0031931242 0.006434021
-0.003020732 -0.0037000552 -0.00052006915 0.0034396348 0.00056368875 0.00035218842 -0.000632579 0.0036839747
-0.0012518314 -0.00010282514 0.0027071235 0.0017526646 0.0018243582 -1.3515759e-05 0.0032147067 -0.0022892146
0.13069795 -0.042840965 0.1605837 -0.01326635 -0.019203575 0.032504585 0.13834466 -0.006992204
0.017020902 0.013065946 0.012848127 0.019229472 -0.013519674 0.010055708 0.016262189 0.003079138
0.013944159 0.028637264 0.024617134 -0.027474582 -0.06903421 -0.082797095 0.029962292 -0.0010686765
-0.029128404 -0.0072026523 0.02121299 -0.03213662 0.04059032 0.015750816 0.021737907 0.02302591
-0.004069015 0.0071860016 -0.0010335066 0.00088347925 -0.021598505 0.017793734 0.017679632 -0.008025898
0.010556448 0.025508093 0.0014892353 0.008995451 -0.001675593 0.0005101632 0.011872161 -0.004420875
0.019101717 0.023496667 0.02326227 -0.00096294255 -0.0051315757 -0.0009033924 0.018611815 0.008599206
-0.009080303 0.012162312 -0.0092768045 -0.009980117 0.001988701 -0.0020429264 -0.009025114 0.0037352887
0.01874638 -0.09350282 -0.121797904 -0.033222165 -0.052046552 0.05295479 0.051522072 -0.00446839
0.046367735 0.13652539 -0.008810065 0.0795285 0.12260048 -0.028632535 -0.10064928 0.13737616
0.007362022 -0.07603452 -0.034021467 0.037651397 0.012685655 0.15929754 0.10963624 -0.022349603
-0.12363736 0.0057055145 0.006924694 0.05095798 -0.012656373 -0.11026401 -0.00504082 0.082734905
0.0034756334 -0.0051043076 -0.0006969369 -2.4274996e-05 0.0068062074 0.00029754738 -0.005892004 0.00588618
-0.0006531734 -0.012845393 0.0016724408 0.0044008554 0.0027638916 -0.00101994 -0.00044182324 -0.0048350752
-0.003186989 -0.00047641457 -0.0006223658 0.005344909 0.0023377684 0.00075166253 -0.0064841853 -0.0038653102
0.00012592539 -0.008251234 0.0030108816 -0.0040320186 0.002436922 0.0059163934 0.0084952 -0.0027030478
0.06431848 -0.05784532 -0.05332871 0.0034902513 -0.090231955 0.06491737 0.04674579 -0.06818867
-0.010236757 -0.027391544 0.042428855 0.007801643 -0.008530221 -0.011169447 -0.002278873 0.051052127
-0.06646176 -0.09225096 -0.023679331 0.025268141 -4.0400562e-05 -0.026915764 0.0060007176 -0.0035088933
-0.047048133 -0.028353125 -0.02429905 0.010645556 -0.05405189 -0.006712254 -0.014340959 -0.02007938
0.0094689615 -0.0072653913 0.0022830837 -0.0020487087 0.0026656939 0.0003804092 -0.015327192 0.0007830281
-0.009127065 -0.01609915 0.0023626238 -0.0012341621 -0.0019166425 -0.010705666 -0.0080003515 0.0014188865
-0.009984857 -0.009749394 -0.0067286487 -0.0005169846 0.0066104154 -0.0035672563 -0.0041952976 0.0001853521
0.0015070046 -0.0016603612 0.0062586097 -0.0028792524 0.0013392837 0.002466032 0.0032511828 -0.0042432067
-0.041226722 -0.08681284 -0.011703451 -0.045097783 -0.05997617 0.03121886 0.03802781 0.0035988989
-0.04441975 -0.019978423 0.021422587 0.0710092 -0.013766909 -0.021157864 -0.0262287 -0.059930213
-0.044944957 -0.041147288 -0.008061874 0.0094251195 -0.032102842 -0.017579012 -0.012541808 0.015938863
-0.0019221673 -0.012765212 0.018647114 -0.021664955 0.074495934 -0.0240053 0.001717893 -0.023039978

GCN_Layers.0.W2.bias f4 [64]
00000000: 7639 6bbd cc0c 65bd 0072 afbd dda4 c23d
00000010: 33bc a8bc 1b17 1d3d 8f4d ecbd 60bf 293c
00000020: ca5e 8b3c 6945 26bc 06f6 7cbd 8ef7 9bbd
00000030: 4338 9c3d 66e4 4d3c 551f 733a 48ce 033c
00000040: 21de 17bc d764 6bbd ed93 3ebd cc52 cab7
00000050: 7d0d bf3d 9144 e1bd e23b f53d 92b8 703d
00000060: cf70 f03d 0f36 1abd 018d 1e3d 3cba 17bd
00000070: 9651 033c a4ab 593c 2912 2b3d 9ece 603c
00000080: 76b4 ae3d 82b8 afbb 1ed3 3c3c 3b20 c63c
00000090: 9fb6 41bd 3724 b03d 8354 0d3e 0f86 943c
000000a0: d344 abbd dde3 0b3d b9c1 48bd 52a3 923d
000000b0: 8c6a 9d3d 331c 053d 2866 54bc 94bb 403d
000000c0: 4555 ccbc f275 80bd f5fe a03d 5cc9 46bd
000000d0: 024a 623d 7890 b3bd 37e0 943d e699 8c3d
000000e0: 29b1 3ebc 5111 0e3e 0724 a33d 03ec e8bc
000000f0: f582 bdbd fc14 773d 3a43 cc3b 66d9 c2bc
-0.057427846 -0.055920407 -0.08566666 0.095041014 -0.020597553 0.038352113 -0.11538231 0.010360569
0.017012972 -0.010148385 -0.061758064 -0.07615577 0.076279186 0.012566661 0.0009274383 0.008044787
-0.009269268 -0.057469215 -0.04652779 -2.4118832e-05 0.093287446 -0.10999406 0.11974312 0.05876977
0.117402665 -0.03764921 0.03870869 -0.03704284 0.008015057 0.013285551 0.041765366 0.013721136
0.08530514 -0.005362571 0.011524944 0.02418529 -0.0472933 0.086006574 0.1380177 0.01813033
-0.083627366 0.034152854 -0.049012873 0.07160057 0.07686338 0.032497596 -0.012963809 0.04705389
-0.024943003 -0.06272496 0.07861129 -0.048531875 0.05524636 -0.087677896 0.07269328 0.06865291
-0.011638918 0.13873793 0.07965856 -0.028432852 -0.09253494 0.060322747 0.0062336 -0.023785304
