lab4-student/code/model/bestModelParms-11-14-19-42.pth (torch, 465577 bytes, 20 tensors)

user_id_embedding.weight f4 [900, 32]
000000 54 23 b2 3f 4d f3 34 be 26 ff 26 bf 4e 0f 2d bc
       1.3917031 -0.17670937 -0.65233076 -0.010562731
000010 a8 3e f2 bd e8 93 88 3d ba e6 92 bf 4a ba 07 bf
       -0.11828357 0.06668836 -1.1476662 -0.5301863
000020 ec 36 26 be bf a0 10 3e 86 e6 84 3e c3 74 87 3d
       -0.16231889 0.1412382 0.25957125 0.066140674
000030 2c c5 84 3d 91 73 da 3e 6b 30 4a bf f9 b2 37 bf
       0.0648292 0.42666295 -0.7898013 -0.71757466
000040 e0 dd c2 bf c2 04 7d 3e be 11 c8 3b 90 f8 12 bf
       -1.5223961 0.24708846 0.0061056307 -0.57410526
000050 54 14 97 bd 53 1d 91 3d 51 ae c9 be d5 ce 8b bf
       -0.07376924 0.07085671 -0.39390805 -1.0922495
000060 19 2d a1 bc 1b 35 f1 be b4 e7 27 bf e9 b9 0d bd
       -0.019674825 -0.4711083 -0.65587926 -0.034601126
000070 ee cb 89 3d a3 92 02 be ef 8a 26 3e 1d 1f e8 ba
       0.067283496 -0.1275125 0.16263936 -0.0017709468
000080 bd ae 37 3b b7 e1 54 3f 82 73 8e bd 1e 49 23 3f
       0.0028027736 0.83156914 -0.06955625 0.6378344
000090 99 fa ee 3d b1 ac 4c bf 16 cc 2d bd fb e7 a6 be
       0.116688915 -0.79951006 -0.04243096 -0.32598862
0000a0 70 83 82 3a b8 00 17 bd 61 a6 29 3f c3 42 4c bb
       0.0009957384 -0.03686592 0.662695 -0.0031167723
0000b0 8c a0 01 ba ec 5a 95 be 55 13 53 3d 4e 4c e4 3e
       -0.0004944883 -0.2917093 0.05153211 0.44589466
0000c0 f2 a4 20 bf c4 f5 71 b9 0a 68 04 bf d7 33 79 3d
       -0.62751687 -0.00023075106 -0.5172125 0.060840454
0000d0 f7 3d 31 bf 95 bf 62 3e 2b cb 48 3e 62 37 bd 3f
       -0.69235176 0.22143395 0.19608752 1.4782526
0000e0 36 3e f6 bf 02 69 92 3f f5 d4 62 bf 48 81 83 b8
       -1.9237735 1.1438296 -0.88606197 -6.270647e-05
0000f0 57 24 32 3c 55 62 c2 3f 51 13 1b 3f fb 09 58 3b
       0.010872922 1.5186259 0.6057635 0.0032964933
000100 1e 73 66 3b 9b c6 ee be c4 15 b3 be e8 5c 0f 3c
       0.003516383 -0.466359 -0.34977543 0.008750178
000110 b9 20 08 bc c4 28 37 3f 4b cb b9 bb 2b ae 90 bd
       -0.008308583 0.7154658 -0.0056699864 -0.0706447
000120 eb 45 89 3f c1 34 66 be 1f bc ff bd 68 3b 51 bc
       1.0724462 -0.22481062 -0.12487053 -0.012770511
000130 fa 74 a9 bf f3 e3 49 be d6 91 d5 b9 96 55 f0 be
       -1.3238823 -0.19715862 -0.00040735182 -0.46940297
000140 47 de 03 3f 29 60 56 be 19 41 9c bf 4c c8 07 3f
       0.51511043 -0.2093512 -1.2207366 0.53040004
000150 95 99 ee 3b 28 d7 bb be 5f 81 3a bf 5c 69 a1 3e
       0.007281492 -0.3668759 -0.72853655 0.31525695
000160 cb ef 9e 38 db d1 5e 3f 99 53 8d be d0 5b 41 be
       7.578692e-05 0.87038964 -0.27602842 -0.1888268
000170 09 26 36 bc 60 f4 19 3b 92 ff fa 3d cc 79 62 bf
       -0.011117467 0.0023491606 0.122557774 -0.884671
000180 e0 e6 8d 3f 3c 24 17 3f 2c dd 80 3e 23 68 bf ba
       1.1086082 0.59039664 0.2516874 -0.0014603179
000190 fa 05 86 3f 07 31 b1 be 30 20 b5 3e ba 6b 04 be
       1.0470574 -0.34607717 0.3537612 -0.1293172
0001a0 01 c1 76 bf ea 15 21 bf 83 56 42 3f f7 a5 16 3f
       -0.9638825 -0.62924063 0.75913256 0.5884699
0001b0 58 68 38 3f 6b 18 09 3e c0 d1 62 be f2 ea 7c 3e
       0.72034216 0.13388221 -0.22150326 0.24699
0001c0 f6 fe 80 bd 57 c9 9e 3b 8f 29 cb ba 0f 19 33 3f
       -0.0629863 0.004845779 -0.0015500056 0.6996011
0001d0 5b fb 08 bc ac ba e6 bd a9 b6 97 3d 9b 50 b1 be
       -0.008360709 -0.112660736 0.074078865 -0.3463181
0001e0 72 f5 d8 be a2 32 a7 b9 fb f8 db bb 4f ba 91 3f
       -0.4237476 -0.00031890447 -0.0067130304 1.1384982
0001f0 af 63 1d 3c 2a 6c 12 3c e1 08 5b 3e 9b 25 0d bd
       0.009606286 0.008936921 0.21390106 -0.03445969
000200 bb 20 76 bc 72 11 36 3d a5 ba c9 be 6b 14 05 bf
       -0.015022452 0.04445023 -0.3940021 -0.5198428
000210 9d 5f e7 bb a8 57 98 3f 88 71 8c 3f 17 99 a1 3e
       -0.0070609585 1.190175 1.0972147 0.3156211
000220 ea 0e 37 3b df 3d 50 bf 88 a5 ea bd 7d 2e 24 bf
       0.0027932473 -0.8134441 -0.11457354 -0.64133435
000230 39 fd 99 3b 6c 8a 2b 3f 17 ff 1c 3f 17 07 b2 3e
       0.004699376 0.6700809 0.61326736 0.34771034
000240 af cb 00 3c 95 56 a5 3e 7c 4b 03 be 4c 96 03 be
       0.007861062 0.3229262 -0.12821764 -0.12850302
000250 f7 04 e0 bd 64 3f c9 39 1c a0 e8 3c d3 8d e7 bb
       -0.10938447 0.00038384937 0.028396659 -0.0070664673
000260 ee 47 9e be f4 9a 13 3f 90 78 20 bf 8d 9a 4d 3f
       -0.30914253 0.57658315 -0.62683964 0.8031395
000270 83 02 aa bd e0 e6 d9 3e 0d 2e 84 3f e5 e5 e2 3e
       -0.0830126 0.42558956 1.0326554 0.4431602
000280 d1 bf c8 bd ae 70 40 3e f6 be b8 bf b8 a5 8a bf
       -0.09802211 0.18792984 -1.4433277 -1.0831823
000290 d2 71 30 bf c9 af f1 3d f7 c6 be 3f ec b4 0f 3f
       -0.68923676 0.118011065 1.4904469 0.5613544
0002a0 0f 07 25 be f2 a9 63 bf c8 01 42 bf b5 8e 04 bd
       -0.16115974 -0.8893119 -0.7578397 -0.03236266
0002b0 40 3b bb bf ca f1 cb 3f 8f 46 35 bf ca ad ae bc
       -1.4627457 1.5933163 -0.7081079 -0.021323103
0002c0 65 f3 28 bc a0 de a7 bb ba f8 a2 3f 4d 77 d8 be
       -0.010311936 -0.0051229745 1.2732155 -0.4227852
0002d0 8d e2 8a 3b cf 7f fb 3e f6 e2 c3 bc 8d 3c 97 3c
       0.0042384327 0.49120948 -0.023911934 0.01846149
0002e0 89 d0 8a bf 84 dd 90 3c 91 a0 b7 bf 8f 60 ae bc
       -1.084489 0.017683752 -1.4345876 -0.021286277
0002f0 c3 8c b8 3c cc 73 4b bc b8 97 46 3f f7 d5 c0 3e
       0.022528058 -0.012417745 0.77575254 0.37663242
000300 3e ee d4 3e ae 55 5d bf 19 61 b2 3d 12 35 28 3f
       0.41588014 -0.8645886 0.08709926 0.6570598
000310 9f 9d 20 3f f7 85 9d bf 86 76 a0 bf 1b c3 0a 3f
       0.6274051 -1.2306508 -1.253617 0.5420396
000320 06 c3 be be 1d dd 64 bd 49 e2 38 3f e8 b0 56 3c
       -0.37258166 -0.055874933 0.72220284 0.013103701
000330 17 5c 01 3f 9a 03 29 3f fe 16 e8 bf e5 cb 9d bd
       0.5053114 0.6602112 -1.8132017 -0.077049054
000340 3b 14 f7 3c 90 32 29 c0 30 18 d1 be ce 37 47 bf
       0.030161014 -2.643711 -0.40838766 -0.77819526
000350 e0 b9 95 bd 6d 8e 03 bc a5 b5 28 bf 8c 53 13 3c
       -0.073108435 -0.008029562 -0.6590217 0.008992087
000360 d1 b8 78 bc 9f 93 ff 3e b4 1e 84 bc 9e 73 4d bf
       -0.015180782 0.49917313 -0.016127922 -0.8025454
000370 a1 49 a4 bf a9 46 b4 3c 94 fe 04 40 a3 fc e5 bb
       -1.283497 0.02200635 2.0780382 -0.007018642
000380 2d 1c 05 3f 04 52 de bb bc 9e c4 3b 3a 65 87 3e
       0.5199612 -0.0067846794 0.006000368 0.26444417
000390 90 79 f9 3f 6f 90 b5 be 1d bd 7d 3e b6 20 24 bc
       1.9490223 -0.35461757 0.24779172 -0.0100175645
0003a0 98 c4 38 3c ee 48 47 3f 99 9d c1 bf e3 8d 9a be
       0.01127734 0.77845657 -1.512622 -0.30186376
0003b0 78 f5 28 3a 21 67 bd 3e b4 43 76 bd 01 f7 83 3f
       0.0006445269 0.36992744 -0.06012316 1.0309755
0003c0 a9 eb c2 be 48 54 03 bf 0e 10 76 bf b9 ff 93 bd
       -0.3807042 -0.5130048 -0.9611825 -0.072265096
0003d0 7e 5e 73 3f b0 31 de be 67 ff 3b 3f ae 56 e3 bc
       0.9506606 -0.43397284 0.7343659 -0.027751293
0003e0 d7 71 65 bd 66 0d 80 3c ff f4 d4 bb 12 28 80 3a
       -0.05601677 0.015631389 -0.0064989324 0.0009777567
0003f0 e7 f4 49 3e 76 ba 9d 3b 73 67 c7 3e 6d 4a aa bf
       0.19722329 0.0048134876 0.38946113 -1.3303963

user_age_embedding.weight f4 [5, 4]
000000 bd 38 2c 3f a5 b0 c5 3e ff 95 d2 bf fd 60 92 3f
       0.67274076 0.38611332 -1.6452025 1.1435848
000010 4f c1 21 3f a3 44 de bf 7d f5 14 bf 12 08 f3 3e
       0.6318559 -1.7364696 -0.58187085 0.47467095
000020 09 15 c6 3e 83 12 ed be 51 71 1c 3e fb 56 26 bf
       0.38687924 -0.46303186 0.15277602 -0.6497647
000030 7c f4 aa 3f 14 68 0e 3f e4 17 6c 3f ea 99 e9 3e
       1.3355861 0.5562756 0.92223954 0.4562524
000040 dd f5 a9 bd 05 fd bb 3e 0a a1 90 3f bf 29 c5 bf
       -0.08298848 0.36716476 1.1299145 -1.5403365

user_gender_embedding.weight f4 [2, 2]
000000 ae 38 7d 3d b2 d8 94 3e 06 01 bb bf 42 68 f1 3e
       0.061821632 0.29071575 -1.4609687 0.47149855

user_occupation_embedding.weight f4 [21, 8]
000000 d7 3d 61 3d 44 63 5d 3f 46 21 31 bf 1e 7e 04 3d
       0.054990616 0.8647959 -0.69191396 0.032346837
000010 2a 6f 11 3f a1 ca 9b 3e fd 37 da 3f 4b e9 56 3f
       0.5681025 0.3042803 1.7048336 0.83949727
000020 7b 83 0c bd 67 52 ab bf 21 10 3d 3f 95 dd c8 be
       -0.034305077 -1.3384522 0.73852736 -0.39231554
000030 49 a7 91 bf 04 6f 01 3f c5 9e cc be 1d 7e c8 be
       -1.1379176 0.5056002 -0.39964882 -0.39158717
000040 a2 1c 52 3f 12 ab 2b bf 41 cb 8f 3f d8 d2 67 3e
       0.8207494 -0.6705791 1.1233903 0.22639024
000050 a0 3f 40 3f 3e c7 38 bf b3 5a e9 be c8 57 02 3f
       0.75097084 -0.7217902 -0.4557701 0.50915194
000060 0d ed 05 40 08 d1 9b 3d b8 a7 cc bf 21 6e ef 3f
       2.0925934 0.07608229 -1.5988684 1.8705484
000070 dc e6 3b 3d 19 ab d6 bd a3 8c 22 bf 96 ba 1e bf
       0.04587446 -0.10481853 -0.63495845 -0.6200346
000080 42 ca 0f 3f 9e 5e 83 bf a2 2f 2c bf e1 95 c6 3e
       0.56167996 -1.026325 -0.6726018 0.38786224
000090 12 d3 e2 3e b8 5d 83 bf 11 26 0d 3f ea a5 80 bf
       0.4430166 -1.0262976 0.5513621 -1.0050633
0000a0 99 1f a9 bf 1b 8a ac be f9 9c 0b 3e 26 07 ac bd
       -1.3212768 -0.33699116 0.13634099 -0.08399801
0000b0 cd 96 86 be ca b4 9f bf 0b e8 46 3f b2 16 b7 be
       -0.26286927 -1.2477047 0.7769782 -0.35759503
0000c0 fe 0d 55 3e 4e b7 08 c0 be 0a e3 3e ab a4 98 3e
       0.20806119 -2.136188 0.44344133 0.29813132
0000d0 3a b9 ed be 5d a3 1e 3f 3d 95 4b 3d c1 94 f7 3e
       -0.4643038 0.6196802 0.04970287 0.48355678
0000e0 77 68 85 3d c9 22 0d 3f 14 10 26 bf 6e a8 59 3f
       0.06514066 0.551312 -0.64868283 0.8502263
0000f0 32 93 87 be 5d 97 6e 3e 10 6e 1f 3f ec f1 09 3f
       -0.2647949 0.23299928 0.6227732 0.5388477
000100 c9 7c e2 bd da d1 37 bf cf b6 d5 3e f4 1d 64 3c
       -0.11058957 -0.71804583 0.41741034 0.013923157
000110 ca 4d 73 be 41 c3 6b bf b5 f8 40 3f 42 67 39 be
       -0.23760143 -0.9209481 0.75379497 -0.18105796
000120 34 fd 3f 3f 16 f6 3b be cb 22 d0 3d 63 8f 06 bf
       0.7499573 -0.18355593 0.10162886 -0.5256254
000130 5b df 9d be df d6 48 be 64 a3 80 3f 91 42 d4 3e
       -0.3083447 -0.19613217 1.0049863 0.41457036
000140 7e 18 dd bc d1 ec 0b bf 61 63 c7 3e 5b 02 f5 be
       -0.026989218 -0.5465823 0.38943008 -0.4785336
000150 ea be 23 3f a0 21 fa be b3 93 67 bf ec 4b 3b bf
       0.63963187 -0.4885378 -0.90459746 -0.7316272
000160 09 09 08 bf 70 42 0a be d6 2b 10 3f 28 00 06 be
       -0.53138787 -0.13501906 0.5631689 -0.13085997
000170 e8 1c 98 3f ec 62 fc bb 7d 02 35 bf cc 50 c3 3e
       1.1883821 -0.007702222 -0.7070692 0.3814758
000180 db 82 cb 3f 59 6a ad 3f aa aa 4c 3f e8 9b 50 bf
       1.5899309 1.354808 0.7994791 -0.81487894
000190 0f 34 0b bf 9e fa a9 3a 36 db a9 3d d0 d2 1d bf
       -0.5437631 0.0012968366 0.08293764 -0.616498
0001a0 d3 ae 04 3e 81 04 45 bf 67 49 0b 3f bb 7f ad bd
       0.12957315 -0.7696 0.5440888 -0.08471628
0001b0 e0 d2 d1 3e 09 df 7e 3f cd 94 df 3d 97 74 d0 3e
       0.40981197 0.99559075 0.10917053 0.4071395
0001c0 ee 8a 2d 3e ff 3d 85 3f 73 d7 19 3f f5 3f 2d be
       0.16947529 1.0409545 0.60094374 -0.16918929
0001d0 aa 7b b9 be 53 dc 4e bf 76 11 c6 3d 15 5b 77 be
       -0.3622716 -0.8080494 0.09671299 -0.24155839
0001e0 16 83 1b 3f 76 41 4d 3f 7f e7 14 be f8 0b ab be
       0.60746896 0.8017801 -0.14541434 -0.3340757
0001f0 d2 f9 be bd 5d 2e d7 3f 8e 62 11 3f be 37 9f bd
       -0.09324993 1.6811024 0.5679101 -0.07774304
000200 20 04 e2 3d 1e e7 81 3d 67 3e 1d bf f5 a2 91 be
       0.11035943 0.0634291 -0.61423343 -0.2844464
000210 09 da d6 be b0 af 9f 3c e8 d6 b2 3d ad 00 98 3e
       -0.41963223 0.019492954 0.08732396 0.29688016
000220 68 55 6c 3f ac 95 2b 3e 51 8a c2 bf 84 e4 e1 be
       0.9231782 0.16756314 -1.5198461 -0.44119656
000230 6c 4f 96 3f 98 8a 19 bf 6f c0 a5 3f 8a 63 ba 3d
       1.1742988 -0.599771 1.2949351 0.09101017
000240 80 04 41 3d 91 a2 cd bd 8e 39 91 3f 12 02 77 bd
       0.047123432 -0.10040773 1.1345689 -0.06030471
000250 33 0a 60 3c 70 ff 8a bf 82 d4 7d be 32 44 86 be
       0.013674307 -1.0859203 -0.24788097 -0.26223904
000260 00 0c 6a 3f 3a e4 27 3f 00 7a 1a c0 3c af 37 bf
       0.9142456 0.6558262 -2.4136963 -0.7175176
000270 13 a1 98 be a7 a3 1c bf 30 7e 23 3f aa d1 37 3e
       -0.2981039 -0.61187214 0.6386442 0.17951074
000280 f9 34 9b bd dd 4e 88 bf 7a dc a6 3e 0b 22 0c bf
       -0.07578463 -1.0649067 0.32590085 -0.54739445
000290 14 f3 d0 be e1 aa df be 2e cf 28 be a4 27 06 3f
       -0.40810454 -0.43685058 -0.16485283 0.52404237

user_location_embedding.weight f4 [760, 18]
000000 67 b0 cb 3d ae a8 a3 bd 82 f6 6a be 7b d9 18 bf
       0.099457555 -0.079911575 -0.22945598 -0.5970685
000010 6b fb 35 3f 62 dd 2d 3f 2c 88 95 3e 9a 2a 49 3f
       0.7108676 0.6791593 0.29205453 0.7858063
000020 5f b5 0a bf 40 e1 fe ba bc dd ae be c7 d1 b9 3e
       -0.54183 -0.0019445792 -0.34153545 0.3629286
000030 3a 6e 93 be 91 74 23 bf 2d 52 03 3e 55 54 ad bb
       -0.28795034 -0.6384974 0.12824316 -0.005289594
000040 37 80 97 3f 5d 5a f3 bd ce 43 81 3c d4 e9 44 be
       1.1836003 -0.1188247 0.015779402 -0.19229823
000050 2b 73 fd 3a c3 ba 36 3e 60 ff a9 3b 9d 21 78 3c
       0.0019336691 0.17844681 0.005187914 0.015144733
000060 64 41 00 ba a0 41 6b 3e 05 c1 e9 3b ab 2b 47 bf
       -0.00048925565 0.22974253 0.0071336054 -0.7780101
000070 55 6c 44 3f 01 bb 17 3f 2a fe fe 3e 98 81 31 bf
       0.767278 0.5926972 0.49803287 -0.6933837
000080 8f 92 ca 3e 49 a9 e6 3a bf 2f 52 bc e5 98 7a 3d
       0.3956494 0.0017598058 -0.012828766 0.061180968
000090 d7 18 44 bc dc 13 0d 3f b5 cd d7 be 04 62 d6 be
       -0.011968813 0.5510843 -0.4214913 -0.41871655
0000a0 a9 df 45 bf 95 dd a6 be 25 e3 a8 bb 47 3b f8 3e
       -0.77294403 -0.3259093 -0.005154031 0.48482725
0000b0 94 e7 10 bc 04 76 a1 3f ee e7 d7 bb 1c a7 95 3f
       -0.008844275 1.261414 -0.0065889275 1.1691623
0000c0 47 25 0c 3f 02 f7 2d bb 6b 96 ee 3a d8 c2 42 40
       0.5474438 -0.0026544933 0.0018202787 3.0431423
0000d0 da dd 62 be 5a 64 85 3e 83 a2 ea be b4 c1 1f 3e
       -0.22154942 0.26053125 -0.45827112 0.15601236
0000e0 10 87 9f 3b 8d 81 85 bd 27 27 b1 bf f2 aa 99 bf
       0.0048683956 -0.065188505 -1.3840073 -1.2005293
0000f0 cb 7d b4 3f 75 38 d0 3e 7f 09 ca be ce 1d 72 3f
       1.4100889 0.40668073 -0.3946037 0.9457673
000100 d9 fd e4 3e e5 39 b2 3f 96 81 60 bf b8 b6 e5 3e
       0.4472492 1.3923918 -0.8769773 0.44865966
000110 33 78 20 bf dd b0 ae 3a 06 5d 2e 3d 31 c8 90 3c
       -0.6268341 0.0013327856 0.042569183 0.017673584
000120 d0 bb 5f be 67 59 87 bd cd 4b 8c be 31 8b aa 3b
       -0.21848989 -0.06608849 -0.2740158 0.005204581
000130 81 2f 2c bf 06 a8 f9 3e a0 20 df be f7 56 a6 bf
       -0.67259985 0.48761004 -0.43579578 -1.299529
000140 12 b5 0d bd 58 ea 68 3d ac bd 93 bf 08 8a 87 3f
       -0.03459651 0.056864113 -1.1542258 1.0588999
000150 82 78 59 bf c8 4d d7 bf 82 fc 1f bf 0e 23 b2 3e
       -0.84949505 -1.6820612 -0.6249467 0.3479237
000160 c4 3a 7f 3c 5e 87 79 3e 06 45 e3 3c 87 ae 0f 3f
       0.015577976 0.24368045 0.027742874 0.5612568
000170 3a 96 5d be 40 ef c8 be bc 9c 25 3d f5 f5 9b be
       -0.21639338 -0.39245033 0.040432677 -0.30461088
000180 0a f3 f3 bc c9 d0 ea be ab 56 61 3f d4 cf 1f 3d
       -0.029778976 -0.45862415 0.8802287 0.03901656
000190 f4 29 4e bc a4 f9 86 3f 3a 00 c9 bc 4d 76 82 3e
       -0.012583245 1.0544934 -0.02453624 0.2548088
0001a0 37 a9 4e be 14 18 9c bc 95 9f 94 3e a8 67 09 3f
       -0.20181738 -0.01905445 0.29028 0.5367379
0001b0 33 eb 7a bf 4b b7 34 bf 30 d7 88 bf cf 6b 00 bc
       -0.98015136 -0.7059218 -1.069067 -0.007838204
0001c0 c4 44 02 40 ab 56 c6 be b5 5b 99 3b c9 2d 15 3f
       2.0354471 -0.38737997 0.004680122 0.5827299
0001d0 24 32 9f be 9e 25 59 3d 60 53 70 bf 7b b2 a3 bc
       -0.31092942 0.05301439 -0.9387722 -0.019982567
0001e0 2d c3 8b be 31 d2 a3 be 16 48 14 3e 58 cb da bc
       -0.27297345 -0.319963 0.14480624 -0.02670829
0001f0 39 34 60 bc 21 d4 29 bc f2 cf 07 40 e7 d9 2a 3e
       -0.013684326 -0.010365517 2.122067 0.16684686
000200 d6 b0 1a c0 bf 62 2b ba a3 ce 93 bc 76 d3 89 be
       -2.4170432 -0.00065378466 -0.018042868 -0.26919144
000210 14 9d 48 3c 8f 2e d5 bb 77 64 00 40 30 7c 8f 3c
       0.012244482 -0.0065057944 2.006132 0.017515272
000220 fe 41 76 3c 8c 78 29 be 7c e3 a4 bf 63 e1 8c 3c
       0.015030382 -0.16549891 -1.2881923 0.017197317
000230 6c 9a cf 3e 6d 22 24 3c fb 1a 0b be 22 b9 bb bf
       0.40547502 0.010017973 -0.13584511 -1.4665873
000240 0b ba 3e bd ab bb 0f bf 1c 25 7d be 8a ab 5c bf
       -0.046564143 -0.56145734 -0.24721187 -0.8619925
000250 47 7d ca be 2b e2 86 3f cd 28 ab be 2c 3d 97 bd
       -0.39548704 1.0537771 -0.33429566 -0.073847145
000260 4e bf 10 3c 55 f0 b9 3d 80 73 1d 3f a1 ca 4e 3f
       0.008834673 0.09079043 0.61504364 0.8077794
000270 89 4a 8e be 73 27 9e bd cf 9a dc 3b af d4 78 be
       -0.2779124 -0.07722368 0.006732322 -0.24299882
000280 ad 16 d3 b9 ea df 60 3c 84 29 90 be 53 3c 80 bb
       -0.0004026195 0.01372526 -0.28156674 -0.003913441
000290 ec f6 a2 bc b1 ea fa bb 59 e3 35 3f 23 e3 81 3e
       -0.019893132 -0.007657372 0.7105003 0.25368604
0002a0 5d ef 69 bf ce a1 fd 3b a1 2e 2f 3f 9a e6 d7 3f
       -0.91380864 0.007740236 0.68430525 1.6867249
0002b0 c6 0b 8b bc 01 83 5a 3d 26 2f f9 3c 0c c6 6f be
       -0.016973387 0.05334759 0.03041799 -0.23415393
0002c0 de d7 13 ba 5f 12 6b 3b c8 b7 66 bf 78 79 aa bb
       -0.00056397717 0.0035869104 -0.9012418 -0.0052024685
0002d0 0f 64 6c bc d7 6d 48 3f e7 7f 62 bf b1 51 2f 3f
       -0.014428153 0.782926 -0.88476413 0.68484026
0002e0 52 23 95 3f 27 f2 f1 3e da 0e 9a bd a2 0e dd 3f
       1.1651404 0.4725506 -0.07522364 1.727009
0002f0 ec 02 86 bf 31 e5 8c 3f 33 e8 56 3f 00 cc ca bb
       -1.0469642 1.1007444 0.8394806 -0.0061888695
000300 5c 57 bc bd 04 d9 47 bb 5d 25 01 bf fa 34 3a 3f
       -0.0919635 -0.0030494342 -0.50447637 0.72737086
000310 9a aa 0f bc 11 3c f1 bf c2 5a 5b bd e2 ae 89 bf
       -0.008768702 -1.8846456 -0.05355335 -1.0756495
000320 32 43 da 3e 84 94 d4 3e 55 08 a2 be 63 fe 93 3e
       0.4262939 0.41519558 -0.31646982 0.2890502
000330 fd d2 20 be 06 c2 51 3e cb 67 11 3f 6a 03 9a be
       -0.15705486 0.2048417 0.56799 -0.3008073
000340 73 26 7d bd 84 64 50 bf 54 b4 6e 3f 96 f8 6f be
       -0.061804246 -0.81403375 0.9324391 -0.23434672
000350 ad 11 81 3f 1d e8 a4 3f 1b f7 20 bf 95 57 a4 3f
       1.0083519 1.2883335 -0.62877053 1.2839228
000360 62 c2 6f be 3d 31 a4 bf 93 63 2a bf 05 23 cd 3e
       -0.23413995 -1.2827526 -0.6655819 0.4006578
000370 eb 2f 03 40 da e8 20 40 0b 04 4e bf e4 5b 08 3f
       2.0497997 2.5142121 -0.8047492 0.53265214
000380 97 bc cd be 7f df 60 bd b5 26 fe 3c 23 d3 81 be
       -0.40182945 -0.054900642 0.031024316 -0.25356397
000390 c4 03 ce be 54 8c 4a bc 93 32 bd be db 47 63 bf
       -0.40237248 -0.012362558 -0.36952648 -0.8878152
0003a0 28 b2 dc bb dc a8 11 bf fd a8 39 3c 89 aa 33 bf
       -0.006735105 -0.56898284 0.011331794 -0.7018209
0003b0 71 a1 8f 3e ef 04 93 3d 8a 61 67 bd 06 ff d0 bc
       0.28052858 0.071786754 -0.056489505 -0.02551223
0003c0 b2 fd c2 3d dc 15 92 3e 4c 1b 25 3f d8 43 2f 40
       0.09521045 0.28532302 0.64494777 2.7385159
0003d0 c7 cb 97 bf e9 b6 b5 bf e7 04 99 be 77 46 68 3c
       -1.1859063 -1.4196445 -0.29886553 0.014176956
0003e0 d1 67 6b be af 3c dd be 80 37 44 3f 2f a8 3e be
       -0.22988822 -0.4321036 0.76647186 -0.18618844
0003f0 07 23 6a bf 7d 84 ce 3f b4 b4 97 bd cd 25 60 be
       -0.914597 1.6134182 -0.07407513 -0.2188942

item_id_embedding.weight f4 [1600, 32]
000000 42 ab 83 3e 71 97 f6 bc 85 b7 d5 3d 87 04 6a be
       0.25716597 -0.03010151 0.10435394 -0.2285329
000010 19 d6 51 3f 9d c1 de bf 58 e3 2b 3f 0d d7 62 bb
       0.8196731 -1.7402836 0.67143774 -0.0034613044
000020 f3 de d0 3c 22 6d 1c 3f c8 3c 8d 3c 74 68 56 3e
       0.025496935 0.61104023 0.017240897 0.20938283
000030 83 d8 8a 3e d6 b1 27 3b bc 46 06 bf dd 9b 28 3d
       0.2711831 0.0025588176 -0.5245168 0.041164268
000040 7f 80 99 3d 87 c8 3d 3f 92 03 34 bf 4a e8 81 3f
       0.07495212 0.74134105 -0.7031795 1.0149014
000050 90 43 b9 bd b7 07 9f 3f a5 67 0e bf 83 dd 64 3f
       -0.0904609 1.2424229 -0.556269 0.894005
000060 f7 7d 39 bd ea 9f 6b 3e 19 f4 95 bc d9 da 5b 3e
       -0.045286145 0.23010221 -0.018304871 0.21470203
000070 b2 e7 c7 be f0 af 0a be 5b ae c0 3e 71 48 58 3e
       -0.39043957 -0.13543677 0.37633023 0.21121384
000080 81 9a 92 bb ec 26 5e bf 88 24 5f bd ff 4b d8 3e
       -0.0044739847 -0.8677814 -0.0544782 0.4224548
000090 25 8a 25 3e f5 4a 16 bc 09 d5 a9 be 01 b6 f1 3e
       0.16165979 -0.009173145 -0.33170345 0.4720917
0000a0 19 5c 23 bd a2 ba d8 3e d2 1b 95 bf 08 09 4a 3b
       -0.039882753 0.4232989 -1.1649115 0.0030828137
0000b0 4f cb cf 3b ec f7 a2 3b b2 21 51 be db f9 bc bd
       0.006341375 0.0049734022 -0.2042301 -0.09227344
0000c0 57 b0 55 bc f5 6d bd 3b ed e5 00 bf d0 6d 74 be
       -0.013042531 0.00578093 -0.5035084 -0.23870015
0000d0 25 48 1d 3f 30 04 95 ba 2d 30 83 bf 43 d6 34 3f
       0.6143821 -0.0011369046 -1.0249077 0.7063944
0000e0 e8 76 18 bb c8 7c 07 3f 80 9b 7b 3f 8e 4f 84 bb
       -0.0023264233 0.52924776 0.9828415 -0.004037804
0000f0 79 80 ce 3e 9f 51 b4 3e 01 6e 88 3b 7c 86 d7 3a
       0.40332392 0.35218522 0.004163504 0.0016443278
000100 e7 9f fa bd 98 17 81 be 30 39 8b bd 97 5d 05 3e
       -0.1223753 -0.25213313 -0.06798017 0.13023983
000110 bc 88 d0 3e aa de 22 3b 4c e6 7f 3a 66 a8 68 be
       0.4072932 0.0024851956 0.0009761795 -0.22720489
000120 51 d7 68 3f cf e1 44 bf 54 4c 0c be 7c bd 5f 3e
       0.90953547 -0.76907057 -0.13700992 0.21849626
000130 8b 83 87 be de 4b e5 ba 8b a7 be bb 34 68 a8 3b
       -0.26467547 -0.0017493924 -0.0058183125 0.005139375
000140 12 7f 67 bc 8c 90 3b be fc 90 21 bf f4 51 d7 be
       -0.014129417 -0.18316859 -0.63111854 -0.42054713
000150 73 38 db 3e e5 c3 33 bf 02 d3 81 3f f8 66 73 38
       0.42816505 -0.70220786 1.014252 5.8031612e-05
000160 44 66 df bd 0c f6 a2 3f 98 24 cf 3d 0d 3c 40 bb
       -0.109081775 1.2731338 0.101144016 -0.0029332668
000170 1a 9e 80 be 96 f8 b5 3f 48 74 bd 3f 15 98 8c bb
       -0.25120622 1.4216487 1.4801111 -0.0042905905
000180 98 7b dc 3f ff e9 34 bd 59 51 b7 bf 37 e5 a0 bd
       1.7225218 -0.04416847 -1.43217 -0.07856219
000190 69 d0 33 3e 21 46 83 3e 2d 60 0a be 05 c5 9e 3d
       0.17559971 0.25639442 -0.1351325 0.07752422
0001a0 5d 52 6b 3f 20 8c bc be 18 9c d6 be 72 f2 83 3f
       0.9192255 -0.36825657 -0.41915965 1.0308363
0001b0 23 05 65 bf 0d c7 16 3c 22 e9 39 bc d3 e9 9b bd
       -0.89460963 0.009202731 -0.011347087 -0.07612958
0001c0 dd 76 0f 3f a8 98 a2 3a a3 c7 cb bd b0 56 ae 3f
       0.56040746 0.0012405114 -0.09950187 1.3620205
0001d0 8b f9 1c be 5c 35 c1 bd c7 b1 e5 be 0c 25 1d 3f
       -0.15329568 -0.094340056 -0.44862196 0.61384654
0001e0 97 a6 79 3f 7f 6a 3c 3c 4e 12 e0 3e c9 c8 93 3f
       0.9751982 0.0115 0.43763965 1.154565
0001f0 20 7c 8f bc 72 1a 8d bd 2f 65 1c bf bf 67 00 3f
       -0.017515242 -0.0688981 -0.61091894 0.50158304
000200 5c 1a 4d 3a 4d 59 4e bf fd 4b 0d be c2 74 a8 bd
       0.0007824057 -0.8060501 -0.13798518 -0.08225395
000210 42 3f 1e bf 55 2a b2 3f 57 22 08 3d 4e bd e1 3d
       -0.61815274 1.3919169 0.033235874 0.11022435
000220 d1 0a 3b bc 39 e6 9e bf ab c9 6a bf 34 eb 0d 38
       -0.011416153 -1.2414008 -0.9171397 3.383607e-05
000230 fd b6 79 3c 64 0b 85 be 18 ba 08 be bd fb f1 3d
       0.015241382 -0.25985253 -0.13352239 0.118155934
000240 28 86 01 40 be 00 41 3b e6 29 03 3e 99 12 3b 3e
       2.0238132 0.0029449905 0.12808952 0.18268813
000250 d3 a7 74 bb 65 65 b0 bf 62 0a 2d 3f 12 1b 9f 3c
       -0.0037331476 -1.3780943 0.6759397 0.019422088
000260 1e a0 e9 3a 6a a0 10 be f5 14 7f bc ff 67 4a 3e
       0.0017824208 -0.14123693 -0.015568961 0.19766234
000270 90 c0 09 3f 2d 3f 9f be 3c 61 89 bb 2e 81 61 3d
       0.5380945 -0.31102887 -0.0041924994 0.055054836
000280 dd 09 00 3f 8b 54 65 ba 7f f1 eb 3b fe 94 3a bf
       0.5001505 -0.00087482546 0.0072004194 -0.72883594
000290 2a 01 78 3f 36 61 aa 3b 4b f8 c4 b9 14 2f 41 bb
       0.96876776 0.0051995767 -0.00037569026 -0.0029477524
0002a0 ff c7 a1 39 78 b7 c8 3c 51 ab dd 3a e2 53 1b 3c
       0.00030857322 0.024501547 0.0016912018 0.009480448
0002b0 9c 5f 12 be 15 84 ed 3f 90 18 09 be 58 fb 46 3f
       -0.14294285 1.8555933 -0.13388276 0.7772727
0002c0 92 cb b8 3e c7 3f 13 3d 98 9d 90 3f a9 75 0b 3f
       0.36092812 0.035949495 1.1298094 0.5447641
0002d0 23 3b a5 3f 9a 5c 1d 3f 4e 2e 53 bf 66 20 df bd
       1.2908672 0.61469424 -0.8249253 -0.108948514
0002e0 7c 6c 42 be 78 68 d1 be 9d c8 02 bf 3e 71 69 bf
       -0.18986696 -0.40900016 -0.5108736 -0.9118842
0002f0 c0 6e 89 3e 8b 32 3d 3c 27 e5 53 bd ad 37 b7 be
       0.26842308 0.011547695 -0.05173221 -0.35784665
000300 52 a4 d6 be 8c 9d 14 3c b6 1d 98 bf 24 09 e6 3a
       -0.4192224 0.009070765 -1.1884067 0.0017550332
000310 41 df 42 3d c9 6a 5f 3e 6f 74 fd 3e d7 8a a0 bc
       0.047576193 0.21818079 0.49502894 -0.019597454
000320 9a 2f c9 3f d0 22 14 bc 5f 2d 46 be 2c cf 8b 3d
       1.5717652 -0.009041503 -0.19353245 0.06826624
000330 bd 97 ec 3e 37 05 67 bc 4c 72 2a c0 0c 18 be be
       0.46209517 -0.014100364 -2.6632261 -0.3712772
000340 fa 90 ae 3d 20 90 10 bc fe c3 a7 3f d3 ea c8 3f
       0.08523746 -0.008823425 1.3106687 1.5696663
000350 b5 2d b6 bd b9 6b 97 bf 1d 0c 8f bf 87 c1 ff bc
       -0.08895437 -1.1829749 -1.1175572 -0.03122021
000360 20 20 28 3f d9 c5 89 bf 2f ce c8 3f bf 50 2b bf
       0.6567402 -1.0763503 1.5687922 -0.66920084
000370 66 b2 9e b9 a9 e7 0e bf b3 4e 39 3e c8 93 83 3b
       -0.00030269026 -0.55822235 0.18096428 0.0040154196
000380 eb 01 36 bf c5 58 be 3f 19 53 49 be fc 34 9e bf
       -0.71096677 1.487084 -0.19660605 -1.235992
000390 bd 2c 8d be e5 27 2e 3b fc 0e 06 3c 7d 2f 62 be
       -0.27573195 0.0026574072 0.0081822835 -0.22088428
0003a0 ef e7 c2 3a 07 c5 cb bc ed 20 11 bf 80 c4 a8 3e
       0.0014870147 -0.024874223 -0.56690866 0.32962418
0003b0 b5 f3 0a 3e 5c 20 17 bf b5 37 ca bb 81 3a 35 3e
       0.1356953 -0.5903375 -0.0061711916 0.17698099
0003c0 ea ab e0 3d 3d de 9f 3f f3 e8 83 3b e3 e5 d2 be
       0.1097029 1.2489697 0.0040255724 -0.41191015
0003d0 ba f4 d7 bf a2 28 23 3b c8 8a 9a bd be ce de 3f
       -1.687156 0.0024896045 -0.07546002 1.7406843
0003e0 7e 21 a3 3b cb 52 8e be 5c e3 04 3f 49 5d eb bd
       0.004978358 -0.2779754 0.5190942 -0.11492402
0003f0 9e 4b 13 bf 2c 93 ba be 6c 62 3c 3c 45 c3 06 3f
       -0.5753726 -0.36440408 0.011498075 0.5264171

item_type_embedding.weight f4 [5, 8]
000000 ad 24 cb 3f 1b 24 8b bf 96 c0 14 40 13 4f d2 3d
       1.5870568 -1.0870394 2.3242545 0.102689885
000010 bd 98 2e be d3 e8 45 3f 31 8f b2 bd fc 32 20 3d
       -0.17050453 0.77308387 -0.08718718 0.039111122
000020 cd d6 93 3f 9b 98 7b bf 1a bf d9 3f b0 5d 4f be
       1.1549927 -0.9827973 1.7011445 -0.20250583
000030 7d 59 90 bf bf 41 b8 bf 58 11 a5 3f f0 7b 8f 3f
       -1.127731 -1.4395064 1.2895918 1.1209698
000040 0a 42 be 3e 31 18 5a bf fd 5e 71 3e d5 1b d0 bf
       0.3715976 -0.85193163 0.23571391 -1.6258494
000050 4a 36 40 bf 60 e6 26 be 26 36 86 3e 0b d8 d1 bf
       -0.7508284 -0.16298819 0.26213187 -1.6394056
000060 b7 d6 64 3f a5 29 69 be 7c 3a ab 3f 3b 6e 08 3f
       0.8939013 -0.22769792 1.3377223 0.532932
000070 25 59 2d 40 ee 5e fb 3e e4 13 d5 3e 7e 1d 68 bf
       2.708566 0.49095863 0.41616738 -0.9067
000080 c6 c2 b4 bf 58 2a 12 3f e4 d2 63 bf 00 41 8b bd
       -1.412194 0.5709586 -0.8899367 -0.06799507
000090 c3 f1 4c 3e 13 de af 3c 02 d4 06 3f 4c 20 8d bf
       0.200141 0.021468198 0.5266725 -1.1025481

item_temperature_embedding.weight f4 [7, 8]
000000 c2 53 60 be 04 21 99 be d5 f1 d8 bd 72 bc ec bf
       -0.21906951 -0.29908 -0.10593001 -1.8495009
000010 bb f7 18 bd 8c bc ad bf 3b 05 1d 3f 21 b3 97 bf
       -0.03734563 -1.3573165 0.61336106 -1.1851541
000020 98 79 50 3e b4 ad 66 3f 2e aa b8 be e0 0d ad 3e
       0.20358884 0.901088 -0.36067337 0.33799648
000030 b0 c7 16 bf e2 f3 87 3e 8f 0e 4d bf 90 23 76 bf
       -0.5889845 0.26553255 -0.8010034 -0.96148014
000040 c0 f6 37 bf 09 e2 ac 3f b9 61 88 3f 73 9a 22 bf
       -0.71860886 1.350648 1.0654823 -0.6351692
000050 82 f4 b5 bd f9 77 82 3b 2d 84 83 bf bf 48 b0 be
       -0.08884527 0.003981587 -1.0274712 -0.344305
000060 92 87 48 bf ad 03 72 3e c5 d4 b9 be a3 ab cb be
       -0.78331864 0.23634215 -0.36295143 -0.39779386
000070 66 75 33 bf 1f 01 65 3d 10 6e ba be e1 a4 a1 3f
       -0.7010101 0.055909272 -0.36412096 1.2628442
000080 2d b1 2f bf c0 d5 e9 be 2d 9a e6 3e 75 c1 03 bf
       -0.68629724 -0.4567089 0.45039502 -0.51467067
000090 0d b8 00 3e 9d 2c 8f 3f 39 96 45 3f 4a 1a cc 3e
       0.1257021 1.118549 0.77182347 0.39863807
0000a0 34 42 f8 3e 63 4f 20 bf 22 6c d2 be 34 f5 76 be
       0.4848801 -0.62621135 -0.41098124 -0.24116975
0000b0 e9 20 9c 3e e8 dc 34 bf ed df be 3f 88 9f c0 3f
       0.30493858 -0.70649576 1.4912087 1.5048685
0000c0 7d 36 69 bf 9d 7a f5 3d 72 b5 08 c0 8a 53 30 3d
       -0.9109877 0.11986277 -2.1360745 0.04304842
0000d0 d6 f8 d8 be 18 b4 da 3e aa 5a cf 3e 38 64 eb be
       -0.42377347 0.42715526 0.4049886 -0.45974898

item_humidity_embedding.weight f4 [6, 8]
000000 dc a4 09 bf 54 ff cf 3e f0 fa 16 3e db e9 0d be
       -0.5376718 0.40624487 0.14744163 -0.1385874
000010 74 af 79 bf b2 51 8a be 3a 5d a9 bf 2d 2d 6e 3e
       -0.97533345 -0.27015454 -1.3231575 0.2325942
000020 b1 15 57 bf 46 98 31 be c1 e9 0a 3f 52 04 bb bf
       -0.84017473 -0.17343244 0.5426293 -1.4610693
000030 16 63 4d 3f 42 3f 9d 3e ad 49 9c 3e 83 86 5c be
       0.8022932 0.30712324 0.3052496 -0.21535687
000040 60 7e 19 bf 81 59 6f 3e 2d 9e f3 3f 2d c2 1d 3f
       -0.5995846 0.23373987 1.9032646 0.61624414
000050 04 83 2e 3f 22 35 d4 be 66 30 ed 3f 14 4d 4e bf
       0.68168664 -0.41446787 1.8530395 -0.8058636
000060 88 e2 64 3f d9 4f 5e 3f 4d ad fa bf c7 55 31 be
       0.8940816 0.8684059 -1.9584137 -0.17317878
000070 be df 0c bf 0b 01 04 bf e5 82 20 3f f0 ef d2 be
       -0.55028903 -0.5156409 0.6269973 -0.41198683
000080 f1 72 03 c0 cb 71 4f 3f b4 0b ae 3d 8e 08 7b bf
       -2.0538905 0.8103301 0.08498326 -0.9805993
000090 85 57 c4 3f 4e 35 d9 bf c4 00 05 bd d6 9f 25 bf
       1.5339209 -1.6969392 -0.032471433 -0.64697015
0000a0 83 82 d6 bd 65 9a 3a 3f a3 70 be be 2c 9a b7 be
       -0.10474112 0.7289184 -0.3719531 -0.3585981
0000b0 3f ef a7 be 07 14 b0 3e 1e 0d 89 3f e1 3f 09 3f
       -0.32799718 0.3439028 1.0707128 0.53613096

item_windSpeed_embedding.weight f4 [5, 8]
000000 79 e7 bc 3f 21 9b 35 3f 38 71 97 bf f7 35 bf 3e
       1.475814 0.7093983 -1.1831427 0.3734586
000010 4d 0e b5 3f dd 91 5f be 6c 7b 55 bf e6 ef 67 3f
       1.4144989 -0.21832986 -0.8339145 0.9060043
000020 b9 b3 98 3f de 7a 9d 3d 8b 7f 36 bf ea ca b9 bf
       1.1929847 0.07689451 -0.71288365 -1.451505
000030 67 67 10 3e 5e 5d cf 3e 89 49 9f bd e1 98 83 be
       0.14101945 0.4050092 -0.077776976 -0.25702575
000040 b9 ab d9 3d e9 c6 0b bf 40 d3 7f 3f 9c e7 17 3f
       0.106284566 -0.5460039 0.99931717 0.5933778
000050 db e3 92 be f1 cf fa bf 3c c9 d9 be 4b 42 df 3f
       -0.28689465 -1.9594709 -0.42536342 1.7442106
000060 38 0b 84 bf 31 14 22 bf 47 ef 4e 3f 18 b1 b7 bc
       -1.0315924 -0.6331206 0.8083386 -0.022423312
000070 7f 3e 43 3f 70 63 b7 3f 27 8d 16 be b1 9c c2 be
       0.76267236 1.4327221 -0.14702283 -0.3801017
000080 b6 b3 b8 be 89 3b 00 40 94 6e c2 3c 3d ab 0b bf
       -0.3607461 2.0036337 0.023734368 -0.54558164
000090 f8 e9 24 3f 2e 65 ba 3f ba 36 84 3f 07 1e 21 bf
       0.6441951 1.4562128 1.0329201 -0.62936443

GCN_Layers.0.W1.weight f4 [64, 64]
000000 c8 76 33 be 0f f9 81 bb 24 c6 a6 bd ae 52 a6 bd
       -0.1752578 -0.0039664577 -0.08143261 -0.08121239
000010 af 05 b6 3d 5a bd 41 3d c2 d1 de 3c aa 80 23 ba
       0.08887803 0.04729972 0.02719963 -0.0006237129
000020 2e 89 97 bd c9 3b d4 3d cd 7d 50 3d f3 4b 7a 3d
       -0.07399212 0.103629656 0.050901223 0.061107587
000030 df 5f 0e bc 16 7d 20 3d 6c ca 1f be f0 0d f0 bb
       -0.00868985 0.03918179 -0.15604562 -0.00732588
000040 a0 d6 c4 bd 1e 2e c7 3c f2 f5 e3 bc 50 7b 80 3d
       -0.09611249 0.024313983 -0.027827237 0.0627352
000050 21 63 75 3c 08 7c 77 3d bb f1 1d bd 55 b0 87 3d
       0.014977247 0.06042102 -0.03856061 0.066254295
000060 7b 53 09 3e 32 16 c6 3b f6 07 a0 3c f6 3c e1 bd
       0.13410752 0.0060451264 0.019535046 -0.109979555
000070 59 98 e2 bd 7d 76 09 be f7 3e 01 be 72 c9 40 bd
       -0.11064214 -0.13424106 -0.12621675 -0.047067113
000080 2c e4 81 bd b9 73 ff bd 4b ee 11 bd 01 16 81 3c
       -0.063423485 -0.12473244 -0.035627645 0.015757563
000090 2f 53 91 bd 75 16 08 bd 2e c4 65 bd 60 7f ec 3d
       -0.07095944 -0.03322454 -0.056095295 0.11547732
0000a0 eb bf a7 bd 4c fa bf 3d 2f 81 80 bd 2b ed 41 bd
       -0.08190902 0.09373912 -0.0627464 -0.04734532
0000b0 c9 6f b0 3d 7f b3 c1 3d c9 b6 99 bc c4 59 81 bb
       0.08615071 0.09458064 -0.018763917 -0.0039474685
0000c0 a9 9b fc bd 5d db 77 bd 14 3b ff 3d 31 01 2b bc
       -0.12334377 -0.060511936 0.1246244 -0.010437296
0000d0 8b a3 0d be 38 cb 3e 3d fa 1d 4f bd 7f 1b 58 3d
       -0.13831918 0.046580523 -0.050565697 0.052760597
0000e0 bf b3 f1 3d 8e 20 2b bd ed 1b b2 bd f2 7f 60 bb
       0.11801862 -0.041779093 -0.08696733 -0.003425595
0000f0 d5 78 2b bd 67 0b 7f bd e3 23 57 bc a9 5b 52 3c
       -0.04186328 -0.062266733 -0.013131115 0.012839236
000100 02 8a c8 3d b6 2b 74 be b4 87 9b 3d a9 da 94 bd
       0.09791948 -0.238448 0.07594243 -0.072682686
000110 c4 28 75 ba 7c 90 dd 3d 0b e4 79 3d 3b 43 d7 3c
       -0.0009352083 0.10818574 0.061008494 0.026277175
000120 86 5c 18 3d 8c a6 ce 3d 4e b8 74 3c 43 33 81 3c
       0.037197612 0.1009036 0.01493652 0.015771514
000130 e0 2a 74 bd 33 ef a2 bc ef 8a e3 3c c7 d2 92 bd
       -0.0596112 -0.01988945 0.02777621 -0.07169109
000140 9f f0 89 3d 96 1b cf 3b e6 98 01 3c 40 b2 59 3d
       0.06735348 0.006320427 0.007909989 0.053148508
000150 f9 ed 9f bd 2d 16 8a 3c 26 73 f6 3d e8 2f 42 bc
       -0.078090616 0.016856277 0.120336816 -0.011852242
000160 b0 a9 0d bd f2 2f a7 3d c7 db 89 bd 6b 90 bd 3c
       -0.034585655 0.08163442 -0.06731372 0.023140153
000170 53 80 2e 3d 0f e2 e9 3d 38 9f ca bc 5c e4 84 bd
       0.04260285 0.114200704 -0.024734125 -0.064888686
000180 c1 9a 84 3d de ad a0 3d 3e 73 71 3d 4c d5 bf 3c
       0.064748295 0.078456625 0.058947794 0.023417138
000190 b4 ea da bc b6 d9 d9 bd 45 af 7d bd 35 df c1 bc
       -0.026723243 -0.10637228 -0.06193473 -0.023666004
0001a0 ce 0b 54 3d 5c a6 08 3e d8 22 e4 3d 06 74 46 bd
       0.05176907 0.13344711 0.111394584 -0.048450492
0001b0 e1 45 b1 bc ba 8c a0 3d 1c 1a c8 bd 09 d2 7f 3d
       -0.021639766 0.078393415 -0.09770605 0.062456165
0001c0 9e cd 7a bd be 60 5f 3d 54 3e cf bc 05 0c 05 be
       -0.061231248 0.05453562 -0.025298275 -0.12992866
0001d0 40 2f 29 3d 53 69 d3 bd 04 95 fd bc d3 25 ef 3d
       0.041304827 -0.103228234 -0.030954845 0.11677136
0001e0 6d bd c6 3d f5 a4 7e bd 90 f2 d1 3d 71 95 94 3c
       0.09704099 -0.062169034 0.10251343 0.018137665
0001f0 9c 24 c0 3d a6 24 c8 bd 87 f9 4d 3d f9 50 67 bc
       0.09381983 -0.09772615 0.050286796 -0.0141184265
000200 1f fa 19 bb 07 b3 11 3e fa 0f 95 bd 71 71 f6 bc
       -0.002349503 0.1422845 -0.07278438 -0.03008339
000210 6e 2a dd bd 2e ce 83 bd 93 c0 b9 bd b5 e7 d7 bd
       -0.107991084 -0.0643581 -0.09069934 -0.105422415
000220 ce 60 83 3d ed 0b 85 bd 56 68 f7 3c 04 57 41 bc
       0.064149484 -0.06496415 0.030201118 -0.011800531
000230 75 1a 18 3e 26 26 38 3d 0c 2c bf 3c 91 6c 17 3b
       0.14853843 0.044958256 0.023336433 0.0023105482
000240 8d 11 1f 3d 31 80 c5 bd 90 ee 25 bc 27 6c c8 3c
       0.038835097 -0.09643591 -0.0101276785 0.024465634
000250 9e 02 97 bc 94 07 2c 3d c8 53 a5 3b fb 74 24 3c
       -0.018433865 0.041999415 0.005045388 0.010037656
000260 da ca 01 3c 0a 39 82 3d c8 3c 5d 3d 00 a0 ce bd
       0.007921899 0.063585356 0.054013044 -0.10089111
000270 7f 76 95 3d 27 cb 2d 3c ee e6 7b bd ae 49 ce 3d
       0.07297992 0.010607517 -0.06149953 0.10072647
000280 4d e7 cc 3d 9e 53 a5 3c db a6 d7 bd ee 7c e2 3d
       0.100050546 0.020181473 -0.10529872 0.11058985
000290 64 0d 0b bd ad b7 c3 bc 9b 4b a2 bd 4f de 0c be
       -0.033948317 -0.023891294 -0.07924577 -0.13756679
0002a0 12 2c 1e bc 6d 36 8c bc b0 a3 7a bb fa 85 c6 3d
       -0.009654062 -0.017115796 -0.0038244538 0.09693523
0002b0 08 02 81 bd fc 38 05 be de c2 04 3e 2f 05 6f bd
       -0.062992156 -0.13010019 0.12964961 -0.058354553
0002c0 92 5a 17 bd 4a 5b 4d 3d e1 45 12 bd 3f aa 7e bc
       -0.03695161 0.05013589 -0.035711173 -0.0155435195
0002d0 e8 11 2e bd cb 7d 5a bd f0 bc 69 3d a2 19 75 3d
       -0.042497545 -0.05334262 0.05706495 0.0598389
0002e0 2e c4 b5 bd ed f3 a6 bb 0c 04 0d 3c 20 a5 4c 3d
       -0.08875309 -0.005094996 0.008606922 0.049962163
0002f0 22 3d 80 3d 70 b7 8b bd 4d 93 1c 3e 38 96 5f 3d
       0.0626166 -0.06822097 0.15290566 0.05458662
000300 4f c9 97 bb 2e 5b 75 bc 07 8c d2 bc 2a 9d 02 be
       -0.004632152 -0.014975352 -0.025701536 -0.12755266
000310 b2 50 2a 3c c9 40 08 be 2e 46 c5 3c 8d 31 11 bd
       0.010395216 -0.13305964 0.024081316 -0.035447646
000320 2a bd 2b bd 50 fe ff bc f2 9f d2 bd 88 5e b9 3c
       -0.041928448 -0.031249195 -0.102844134 0.022628084
000330 2b dd b6 3d 7a 23 c6 bd 24 c3 fc bd 97 21 19 3d
       0.08928903 -0.09674735 -0.123419076 0.03738555
000340 ae af a0 bc 29 aa 09 3c d4 a7 7f 3d e9 78 f8 3c
       -0.01961502 0.008402386 0.062415913 0.030331092
000350 4d d4 6c bd 46 5d 63 3d e3 ed 01 3e 26 4c 3f bd
       -0.057819653 0.055508874 0.12688403 -0.04670348
000360 96 78 c0 3c 10 f5 04 3e 03 14 3e 3d 51 08 8b 3d
       0.023495 0.12984109 0.046405803 0.067886956
000370 1e 01 05 bd 07 5a 82 bd f9 73 b8 bd 73 1f f6 3c
       -0.03247177 -0.063648276 -0.09006495 0.030044293
000380 8a 20 bc 3d 12 4c 89 3d f0 4f 9d bc fb 64 c9 bc
       0.09185894 0.067039624 -0.019203156 -0.024584284
000390 fc 41 ef 3b b8 db c2 3d 9c 0d c5 3d e8 fb 15 bd
       0.007301567 0.09514564 0.096217364 -0.03661719
0003a0 58 13 2f ba 84 3c 18 be e3 7b 8b bc 13 25 ff bd
       -0.00066786027 -0.14866835 -0.017026847 -0.12458243
0003b0 76 41 99 bd 0a 28 21 3d 50 63 d5 3c 1a c7 0b be
       -0.07483189 0.039344825 0.026048332 -0.1365017
0003c0 62 74 3c bd 02 85 17 bd 56 7b b9 3d ff 8e d9 bd
       -0.04600943 -0.03699208 0.090567276 -0.106229775
0003d0 f0 29 02 be 00 5f 00 bd 5f b2 d9 3c 96 d7 ec bc
       -0.1271131 -0.0313406 0.026574312 -0.028911393
0003e0 d2 c5 f9 bd 9a e3 02 bc 6a 23 d8 bd 87 1e bb bd
       -0.12195934 -0.007988835 -0.1055363 -0.09136682
0003f0 11 93 df 3d 72 21 32 3d 4a 67 55 3d 63 e6 17 bd
       0.109167226 0.043488927 0.052100457 -0.03708495

GCN_Layers.0.W1.bias f4 [64]
000000 5d c3 70 3d cc 71 9b bc f2 6c a7 3c a8 b1 fb b9
       0.058780063 -0.018975161 0.020437691 -0.00048006815
000010 b9 0c 8c 3c 01 3a ad bc ce b5 41 3c 98 58 13 3e
       0.01709591 -0.021145822 0.011823131 0.14389265
000020 ed 17 0c 3e 66 e6 df bd d7 71 b6 bd 2b a4 2d 3d
       0.13681002 -0.10932617 -0.08908432 0.04239289
000030 4a c5 c9 bd f0 b3 b4 3d 81 73 12 3e a6 ad 07 bd
       -0.09852083 0.08823383 0.14301874 -0.03312459
000040 96 ed 01 3d a7 a1 ff 3d 76 19 01 3e 6d 96 b0 3d
       0.03172072 0.124820046 0.12607369 0.086224414
000050 f2 e5 69 bd 6b 1d ad bd 97 2b 09 3c 14 12 51 bd
       -0.05710406 -0.08452877 0.008372209 -0.05104263
000060 81 9d d8 bc 70 a1 b5 3d 2f ca 66 bc 6f 5e 6e bd
       -0.026442291 0.088686824 -0.01408629 -0.058195528
000070 39 6e 4a 3d c2 0a 3d 3d ed f1 85 bc ab 0f ad 3d
       0.049421523 0.046152838 -0.01635071 0.08450254
000080 e9 b6 37 3e 57 0e 55 bc 40 4a 06 3d 21 8d fc bd
       0.17940868 -0.013003907 0.032785654 -0.12331606
000090 5d b4 28 bd 8c 74 07 bd 10 bb bb bd e5 3b 3d 3d
       -0.041187633 -0.033070132 -0.09166539 0.046199698
0000a0 ad e0 18 3c 92 73 bb 3d bb f1 bd bd 23 e0 bb bb
       0.009330911 0.09152903 -0.09274622 -0.0057335063
0000b0 f3 f7 a4 3d f4 a4 89 bd 3e b5 09 bd 27 57 28 bc
       0.08055105 -0.067209154 -0.03362011 -0.010274685
0000c0 cf 4f 10 3e 22 56 b7 3d 19 c0 7c bd a0 dc 4d 3d
       0.14092945 0.089519754 -0.061706636 0.050259233
0000d0 00 67 75 3d 0e a1 ee 3c 59 59 10 3d a1 eb 90 3d
       0.05991268 0.029129531 0.03524146 0.07076193
0000e0 39 93 39 bd df 7b 3b bd f3 6c 9f bd f0 fa 9b bd
       -0.045306418 -0.04577243 -0.07784452 -0.07616222
0000f0 8e 80 b2 3d 43 71 18 bd 66 5b 42 3d 9a a1 31 bd
       0.08715926 -0.03721739 0.047450446 -0.043367006

GCN_Layers.0.W2.weight f4 [64, 64]
000000 bc c0 3d bd 82 17 55 3c 91 dc ea 3b f3 b0 0d bd
       -0.046326384 0.013006093 0.007167407 -0.03459258
000010 2b 55 d5 3c 18 d0 02 bb 11 1c b0 bb 15 8d 40 3c
       0.026041588 -0.001996046 -0.0053744395 0.011752387
000020 23 c1 38 bc 99 74 0f bd 39 10 fa 3b 33 ed d8 bb
       -0.011276516 -0.035023306 0.0076313284 -0.006620073
000030 33 70 20 3b 9f 3f 2a 3c a8 ac 2b bd 42 92 bd bc
       0.0024480938 0.010391145 -0.041912705 -0.02314103
000040 d6 b4 60 bd 30 c3 a4 bc 63 b4 b6 bc 8e d1 71 3d
       -0.05485996 -0.020112604 -0.022302812 0.059037738
000050 57 4c 4d 3c 34 3b a8 3c e4 88 a4 3c cc 52 ed bc
       0.012530408 0.020536043 0.020084806 -0.028970145
000060 38 22 6e bd a3 62 ae bc 55 8d 01 bd 28 d5 03 3d
       -0.058138102 -0.021287268 -0.031628925 0.032185704
000070 87 f9 2d 3c b2 1d 68 bc 07 5c e1 3b bd f2 e6 bc
       0.010618574 -0.014167236 0.0068774256 -0.028191919
000080 e9 62 f7 3d a8 71 92 bd 99 26 2d 3e 07 ae 84 3d
       0.120794125 -0.071505845 0.16909255 0.064785056
000090 73 31 a2 3b eb 92 8f 3d c0 fc c9 3d a5 1e f6 3c
       0.0049497425 0.07010444 0.09862661 0.03004391
0000a0 53 42 2e bc bb 28 05 3d 57 c5 27 bd 6b 47 11 3d
       -0.01063593 0.032509547 -0.040959682 0.0354685
0000b0 55 d7 6e bd 11 34 06 bc 5e e9 21 bd 2f 5c 26 3d
       -0.058310825 -0.008191125 -0.039529197 0.040615257
0000c0 13 9f 87 3d e5 17 5f bd d4 7b ec 3d 98 95 90 ba
       0.06622138 -0.054466147 0.11547056 -0.001103091
0000d0 cd 96 cb bd 1f 46 cb bd 51 7f 68 3d 0b 75 bb 3d
       -0.09940872 -0.09925484 0.056762043 0.091531835
0000e0 6d 33 79 bb 45 75 84 bd d8 48 47 3c ac c4 29 bd
       -0.0038025037 -0.0646768 0.012163363 -0.041447327
0000f0 ff 0b 0e 3e b7 b6 11 bd 83 b6 c4 3d 23 43 96 3d
       0.13871764 -0.03557464 0.09605124 0.07337024
000100 c3 18 36 bd 16 a1 1e bc ae 71 19 3d 12 c3 f1 bb
       -0.04445721 -0.009681961 0.03746193 -0.0073779905
000110 44 ec 69 bd ad a4 2e 3d c4 3c 2f 3d 91 ff d0 bc
       -0.057110086 0.042637516 0.04278256 -0.025512489
000120 ed d0 ca bb 52 94 2f 3d 77 37 4e 3b ce be 2e 3d
       -0.0061894567 0.04286606 0.0031466165 0.042662434
000130 2b 26 8c 3d cb 7b ec bc c3 85 e2 3d 2d 8e 66 3d
       0.068432175 -0.028867623 0.11060669 0.056287933
000140 02 e0 85 3d e0 87 af 3d e8 91 65 3d 2d 98 36 bc
       0.06536867 0.08570838 0.05604735 -0.01114468
000150 f9 c6 60 bd 83 3e 7a bd 44 23 2b 3d 58 a0 ab 3c
       -0.054877255 -0.061094772 0.04178168 0.020950481
000160 0b f7 fb bd 07 35 ac 3d 98 ed dc bc c3 2e 90 bd
       -0.12302979 0.08408552 -0.026968762 -0.07040169
000170 94 4a 41 bc ce e8 90 ba 69 9f 24 bd a1 d1 b2 3d
       -0.011797566 -0.0011055709 -0.040191088 0.0873139
000180 cb 79 2d 3d 66 ea bb bd c9 4c e8 bd 34 f2 f0 bc
       0.04235248 -0.09175567 -0.113427706 -0.029412366
000190 f5 b8 33 bc d1 43 f7 3c 0e 6f 88 3d 6f d5 ee bc
       -0.01096939 0.030183705 0.06661807 -0.029154507
0001a0 70 64 65 3d 9a 4b 2c 3e 50 a6 66 3d 71 a9 8b 3d
       0.056003988 0.16825715 0.05631095 0.06819428
0001b0 77 05 13 3e fc eb b5 bd c4 40 bf bd 31 50 23 3e
       0.14357553 -0.08882901 -0.09338525 0.1594856
0001c0 b5 91 10 bc ce 21 4f bd 1d 74 5a bd ec f7 fb 3c
       -0.008823802 -0.050569348 -0.05333339 0.030757867
0001d0 67 c2 07 3d 67 0e ef 3d 46 44 75 3d fd e7 73 bc
       0.03314438 0.11672669 0.059879564 -0.014886853
0001e0 43 f9 b3 bd 09 1a 34 3d f4 e7 c6 3c 40 d2 83 3d
       -0.08787777 0.04397014 0.024280526 0.064365864
0001f0 67 b1 73 bd ef e7 be bd dd ab 50 3c 73 7d 65 3d
       -0.059495356 -0.093215816 0.012736288 0.05602784
000200 c9 4d 55 3d 63 a0 5a 3d 03 5c c8 3c 82 7c 1e bd
       0.052076135 0.053375613 0.024457937 -0.03869296
000210 94 47 a4 3c da 7f 05 bd e4 cb 8e bd c2 ef 54 bc
       0.020053662 -0.032592632 -0.06972483 -0.012996616
000220 50 ef 18 3d 0e 2a 75 bd e8 85 49 bd 20 b4 94 bc
       0.0373376 -0.05985456 -0.04919997 -0.018152297
000230 02 4a f8 3c a8 28 f5 bc 48 44 da bc af ba 80 3b
       0.030308727 -0.029926613 -0.026643887 0.0039285044
000240 1d c4 94 bb b1 39 19 bd 32 d1 a9 bc 1b cf a0 3d
       -0.00453998 -0.037408534 -0.020729635 0.07852002
000250 95 82 f7 bb bd 6f ef ba d7 c1 cc bc fb 40 8b 3d
       -0.0075534084 -0.0018267554 -0.024994774 0.067995034
000260 08 81 a5 bb 91 cb bf bd ae 06 22 3d 03 8b f8 3c
       -0.005050782 -0.09364999 0.03955715 0.030339723
000270 f2 cc 84 3d bb 29 85 3c bf 93 52 3c bc 45 97 bd
       0.06484403 0.01625525 0.012852608 -0.07386348
000280 90 fe 94 3d 15 9a 71 bd b8 e8 43 bd f0 1f 28 bd
       0.072751164 -0.058984835 -0.04782936 -0.041046083
000290 ca 1e 1b bd 57 7f c1 3d 8a 3b 9d 3c 59 a5 9f bd
       -0.03787116 0.09448116 0.01919343 -0.077952094
0002a0 38 17 8b b8 9d 23 c0 bb 9b 80 31 bc 4a ea d5 3c
       -6.632361e-05 -0.0058636204 -0.010833885 0.026112694
0002b0 47 fe 2e bd 34 9c 99 bd fc 37 99 3c 11 31 30 3d
       -0.042722967 -0.075004965 0.018703453 0.043015543
0002c0 4e 74 ea bc 4e d2 c5 bd 12 0a 1e 3c 3e 0a e0 3b
       -0.028619912 -0.09659253 0.009645956 0.0068371585
0002d0 b6 22 fe 3c fe 30 5f bd fa a8 3f 3d 57 54 ac 3b
       0.03102241 -0.054490082 0.046792008 0.0052590775
0002e0 af d2 0d 3c ba d4 5e bc 7f 23 97 3d ff 62 b4 3c
       0.008656188 -0.013600523 0.07379817 0.022019861
0002f0 ca d5 da bd 59 00 1d 3d 35 a2 29 3d 3a 48 a2 bd
       -0.10685308 0.03833041 0.04141446 -0.079239324
000300 5a 73 b4 bc 53 de 88 3c 0d 6c 49 3d 1d 64 05 bd
       -0.02202766 0.016707575 0.04917531 -0.03256618
000310 11 01 a3 bd ed 6f d3 3d c7 71 6e bc 0a 77 2c 3c
       -0.07959188 0.103240825 -0.014553494 0.010526428
000320 12 0f f5 bc fa e9 db bd bf 89 15 bd 54 b9 31 bc
       -0.029914413 -0.10737987 -0.036508318 -0.010847408
000330 d8 85 39 bd 73 80 7c 3b 5a e4 fa 3b 49 2f 7e 3d
       -0.04529366 0.003852871 0.007656616 0.062056813
000340 12 af f0 bb c5 fe 43 bd f7 b7 18 bd b8 0d 54 bd
       -0.0073450888 -0.04785039 -0.037284818 -0.051770896
000350 00 76 1b 3d b5 14 98 3d 22 3c c6 bc 4f d4 ae bd
       0.03795433 0.074258246 -0.024198595 -0.085365884
000360 89 0b ab 3c 5c 5a 52 bd 46 1c 51 3d 31 7c 30 bd
       0.020879524 -0.051355705 0.051052354 -0.04308719
000370 41 10 1a bd 55 2a 56 bb 08 94 e8 bb 2c f1 b6 bd
       -0.037613157 -0.003267904 -0.007097725 -0.08932719
000380 c3 8a 35 bd 54 cc c0 bd 0a aa 94 3c cd ed 12 bd
       -0.044321787 -0.094139725 0.018147487 -0.035871316
000390 f5 a9 57 bd e2 ef 34 bb 71 d8 16 3d a5 49 bd bb
       -0.052652318 -0.0027608802 0.03682751 -0.0057766014
0003a0 de 20 6c bd 28 73 e0 3c e5 e3 62 ba bd 2b 99 3d
       -0.057648532 0.02739866 -0.0008655175 0.074790455
0003b0 42 fc 08 bd 0f 45 63 bd ec c7 c6 3c 04 90 92 bd
       -0.033443697 -0.05548578 0.024265252 -0.07156375
0003c0 4a c1 23 bd ab 1b 6d bc f3 31 93 bd b7 2a 72 bd
       -0.039979257 -0.014471929 -0.071872614 -0.059122767
0003d0 f7 65 d3 3c 42 33 98 3c 45 fb 75 bd 7b e4 87 3d
       0.025805457 0.01857913 -0.060054082 0.06635376
0003e0 e1 1f 48 bd 1c ea d8 bc fc 63 86 bd 79 e7 f7 3c
       -0.048858527 -0.02647882 -0.06562039 0.030261742
0003f0 c1 d9 a8 3c fa 19 a9 3d 71 59 87 bd 09 a6 9a bd
       0.020611646 0.08256908 -0.066088565 -0.075512

GCN_Layers.0.W2.bias f4 [64]
000000 85 eb 40 bd fa 36 63 bd 40 45 bd bd 06 5e dd 3d
       -0.04709961 -0.05547235 -0.09241724 0.10808949
000010 8d 8b 08 bd 94 f0 3c 3d a6 fa e3 bd c8 02 53 3c
       -0.03333621 0.04612787 -0.11131792 0.012879081
000020 d0 96 b4 3c 0e 11 0f bc 62 e5 ab bd 73 4d af bd
       0.02204457 -0.0087320935 -0.08393361 -0.08559694
000030 fd 89 9b 3d 60 db 26 3d e7 79 63 3c 45 bc bb 3b
       0.075946786 0.040736556 0.013884044 0.0057292306
000040 d3 7f bb bc 4b b7 5b bd 66 fc 1d bd 7e 67 b2 3b
       -0.0228881 -0.0536416 -0.038570784 0.005444466
000050 b4 0c cd 3d 9d e7 fd bd 0f 41 07 3e 0b d3 6e 3d
       0.100121886 -0.12397692 0.13208412 0.058306735
000060 98 33 06 3e e2 3d 12 bd 68 ac 9b 3d a4 3c 50 bd
       0.13105619 -0.035703547 0.07601243 -0.05083908
000070 26 1a 24 3b 30 4e 3c 3c e5 6b 2d 3d 90 12 88 3c
       0.002504 0.011493251 0.042339224 0.016610414
000080 01 ee 8c 3d d7 6a f5 3b b3 5e 5f bb 86 7d 36 bc
       0.06881333 0.007489543 -0.0034083545 -0.011138326
000090 ee 23 98 bd 85 27 8d 3d da 7c 18 3e bd fa 35 3c
       -0.07428728 0.068923034 0.14891377 0.011107144
0000a0 77 f9 9f bd 8b e2 1d 3d 92 a1 6a bd 9b fc cc 3d
       -0.078112535 0.038546126 -0.05728299 0.10009118
0000b0 1e 24 ac 3d 26 7f 36 3d 61 71 64 bb 9d 30 a3 3c
       0.08405326 0.044554852 -0.0034857618 0.019920642
0000c0 64 f1 28 bd 3b 86 9b bd 91 26 c8 3d 0e 9f 87 3b
       -0.041245833 -0.07593962 0.09772981 0.004138834
0000d0 2a 00 3b 3d 9b 78 93 bd cf 78 b1 3d 3c 4f b4 3d
       0.045654453 -0.07200738 0.086656205 0.08804175
0000e0 a5 51 bf bc 58 9e 1d 3e 80 b2 a1 3d e7 50 e9 bc
       -0.02335436 0.15392435 0.07895374 -0.02848096
0000f0 5c b3 c2 bd 25 cf 98 3d 4d 78 dc 3c 53 15 2e bd
       -0.09506866 0.07461385 0.026912833 -0.042500805
