lab4-student/code/model/bestModelParms-11-14-11-12.pth (torch, 549085 bytes, 24 tensors)

user_id_embedding.weight f4 [900, 32]
000000 c7 40 d0 3e 34 fb 90 b9 b4 dd 67 bd e2 74 b2 bc
       0.4067442 -0.0002765298 -0.056607917 -0.02178425
000010 31 b6 8a bc 58 72 96 bc 1d 64 89 be 10 30 33 bc
       -0.016932579 -0.01836507 -0.26834193 -0.010936752
000020 07 ac 88 bc 42 42 0a 3c 76 17 6f bb 18 0f 28 bc
       -0.016683592 0.008438649 -0.003648249 -0.010257505
000030 28 e8 75 bc da ca 2d 3c 69 28 d2 bd 5c 7b 78 bd
       -0.015008964 0.010607446 -0.10261614 -0.06066452
000040 89 b1 00 bf ed e1 f7 bb 95 6d 34 ba 92 11 1c bd
       -0.502709 -0.0075647742 -0.0006882784 -0.038102694
000050 b5 fc f1 3b a6 92 e6 3b 07 90 bd bc dc 67 5e be
       0.0073848614 0.007036525 -0.023139967 -0.21719307
000060 4b af 97 bc 8d 09 ff bc 8d 02 b2 bd 95 9d 00 bd
       -0.018516203 -0.031132484 -0.08691893 -0.031400282
000070 40 ef 79 bc 3d ff 80 bb 8a ab 71 bc bf 75 8f bc
       -0.015254796 -0.003936677 -0.014750371 -0.0175122
000080 33 46 11 3c a8 60 cd 3d de a9 c9 3a 6d b0 48 3d
       0.008866834 0.10028201 0.0015385707 0.048996378
000090 ae fd 06 3c 71 4c af bd ca 7a 44 bb 85 cd f7 3b
       0.008239193 -0.08559502 -0.0029980415 0.0075623416
0000a0 92 9c 3f 3c 6c f5 a2 3c 4a db 50 3d 68 62 c0 bc
       0.011695044 0.019892417 0.05099038 -0.023484424
0000b0 0d cc 5f 3b ac 8f 97 bb 63 51 c3 3b 2b 96 09 3c
       0.0034148723 -0.0046252813 0.00596063 0.008397619
0000c0 e7 a0 d8 bc 98 a9 82 bb b1 e7 db bb 8d 56 c8 3b
       -0.026443912 -0.0039875023 -0.0067109694 0.0061138333
0000d0 9f 0f 23 bd a1 2b 9b 3b e7 96 f0 bb b4 05 ea 3e
       -0.03980982 0.0047354256 -0.0073422077 0.45707476
0000e0 e7 54 4c bf 68 90 7f 3e ae 99 03 be e9 fb 00 3d
       -0.7981705 0.2495743 -0.12851593 0.03149024
0000f0 2a f5 09 ba 68 1c f6 3e 47 1f 9d 3c 8b 57 cd bb
       -0.00052626675 0.48068547 0.019179953 -0.0062665395
000100 0e 48 6b bb 97 e3 70 bc 4e 86 6d ba 9c 81 35 bb
       -0.0035901102 -0.014702699 -0.00090608455 -0.0027695661
000110 d0 5e a3 3b 50 5e 4e 3d 20 fc df bb 07 76 f3 3b
       0.0049856678 0.050382912 -0.0068354756 0.0074298414
000120 bc e0 53 3e d6 7c 4b 3c 2d 5c e8 ba 08 dc 9c bc
       0.20691198 0.0124199 -0.0017727666 -0.019147888
000130 b2 70 b7 be 65 8b dc bb 42 98 31 bc 55 ec 00 3a
       -0.35828167 -0.0067304843 -0.010839524 0.0004918029
000140 c7 d5 6d 3c 02 58 37 b9 1f 71 96 be bd 48 c5 3c
       0.0145163005 -0.00017485025 -0.2938318 0.024082536
000150 2a 6b d4 bb a2 bd 83 3b e7 5f 99 bd fa 03 48 3a
       -0.0064825015 0.0040204087 -0.07488995 0.0007629987
000160 61 8b 30 3c 11 22 d8 3d a1 f6 30 3c 4d 14 71 bc
       0.010775418 0.10553373 0.010800988 -0.014714313
000170 57 f2 d5 bc b8 d2 89 bb b3 f1 3d ba 29 ea ef bd
       -0.026116533 -0.004206028 -0.0007245794 -0.117145844
000180 00 3c 5d 3e 09 26 29 3d 6f d2 ef 3c 66 35 84 3c
       0.2160492 0.04129604 0.029275147 0.016138744
000190 10 d3 4f 3e a8 f8 0a bc 96 e9 67 3a fa 5b 25 bd
       0.20295358 -0.008482136 0.00088467577 -0.04037092
0001a0 2c 58 31 be 2a fe 05 bd 87 f9 b7 3d ae e7 cc 3c
       -0.17318791 -0.032713093 0.089831404 0.025012817
0001b0 37 ef 4d 3d ba ce 92 3a ce 35 74 bc 01 b5 0d 3c
       0.05027696 0.0011200525 -0.014905406 0.008649112
0001c0 54 f4 ce ba 60 ea 84 3d 2c e7 08 bd 98 64 3d 3d
       -0.0015789368 0.06490016 -0.033423588 0.04623851
0001d0 4c 9f 6a bc 22 c5 0b bd 24 b7 0a bc 2a 9e ea bb
       -0.014320206 -0.034123547 -0.008466516 -0.007159968
0001e0 26 76 04 bc 16 1b 73 bb ba 6c fd bc aa 2d 83 3e
       -0.008084809 -0.0037095002 -0.030935634 0.25620776
0001f0 63 3c 04 3d ba c7 cc 3c 78 29 29 bc 21 0f ec 3b
       0.03228415 0.02499758 -0.010324828 0.007203952
000200 9d de 3f 3c 84 e7 4b 3c d7 56 26 bd 8b dc b3 3b
       0.01171079 0.012445334 -0.04061016 0.0054889373
000210 48 11 c5 3c d4 b4 9b 3e 2a 93 5f 3e 9c 7e 9d 3b
       0.024056092 0.30411398 0.21833482 0.004806353
000220 40 42 33 3d 8a 1d 89 bd eb c4 9b bc d0 d8 01 be
       0.043764353 -0.06695087 -0.019014796 -0.12680364
000230 d6 1f ab 3c 38 df 06 3d 56 95 49 3d 5a 1b c4 3c
       0.020889204 0.03292772 0.049214683 0.023938823
000240 94 0b 98 3c ca 3f 11 bd 39 a2 61 3d f8 dc cc ba
       0.018560208 -0.035461225 0.05508635 -0.0015629819
000250 c3 01 5a 3d ff b3 e3 3c 84 2d d3 bc 7c ed 3b 3d
       0.053224336 0.02779579 -0.02577854 0.04588078
000260 9f b9 a5 3c 2c 68 0c 3d 24 96 5f bd 8b 0b 06 3e
       0.020230113 0.034279034 -0.054586545 0.13090341
000270 92 dc d5 bb 0c 03 ee bc 14 bc 2e 3e c0 1b 81 3b
       -0.006526538 -0.029054187 0.17063934 0.0039400756
000280 a4 4a f5 3d e6 3b 8b 3a 06 51 e9 be cb 43 59 be
       0.11977127 0.001062271 -0.45569628 -0.21217267
000290 d7 91 6a bd dc 28 b8 3d de 39 f8 3e b0 46 5d 3d
       -0.05726799 0.08992168 0.4848165 0.05402249
0002a0 0d 74 1a bd 44 8a d1 bd a7 54 32 be b8 63 ae bd
       -0.03770833 -0.1023145 -0.17415105 -0.085151136
0002b0 c9 42 f4 be 27 28 0a 3f 64 ab 86 bd a4 0e 93 3b
       -0.47707203 0.5396752 -0.06575659 0.0044878293
0002c0 2e 3a e5 3c 4f fd ce bc ce b3 a5 3e 2e b7 4b 3c
       0.027981844 -0.025267271 0.32363743 0.01243381
0002d0 7e a8 67 3d f8 d9 70 3d c4 75 77 bd d7 c2 3f bd
       0.05655717 0.05880162 -0.060415044 -0.046816673
0002e0 12 8c 62 be 9d c3 89 bd b7 4d df be 9e 38 a0 bd
       -0.22123745 -0.067267634 -0.4361398 -0.07823299
0002f0 bc 43 82 bd 62 28 6b bd 68 5d a1 3d 1b 44 88 bc
       -0.063605756 -0.05741156 0.07879144 -0.016634038
000300 de fe c9 bc 86 00 08 be 46 a0 05 3c e9 2e 40 3d
       -0.024657663 -0.1328145 0.008155888 0.046919737
000310 2f d6 e5 3c 43 ce ad be 51 f0 ac be 46 cb 26 3d
       0.028056232 -0.33946428 -0.33777097 0.0407212
000320 4a 7e 9e bc 38 9f c5 bc 1c be c5 3d c8 be 0c 3d
       -0.019347329 -0.024123773 0.09655401 0.03436163
000330 5c e1 cf 3c 76 72 41 3d ba 51 3a bf 9f 5a 19 bc
       0.025376014 0.0472283 -0.72780955 -0.009359985
000340 59 21 db 3b 6e bf b8 bf f0 a3 db 36 56 3a 89 bd
       0.006687325 -1.443342 6.5457934e-06 -0.0670058
000350 bf 13 4b bc cb e9 f9 bb d2 39 28 bd ef d1 da 3c
       -0.012394845 -0.0076267472 -0.041070767 0.026711432
000360 6e 54 49 3b d6 2a 4f 3d 7b b7 77 bc fa 7b b0 bd
       0.003072049 0.05057796 -0.015119429 -0.08617397
000370 c4 47 b2 be 86 a2 b1 ba a0 51 71 3f 50 59 3e 3b
       -0.34820378 -0.0013552464 0.94265175 0.0029044934
000380 3f 61 d5 3c 64 1c 64 3b 3f 95 f5 3c b4 b1 6f bc
       0.026047347 0.0034806961 0.029978393 -0.01462977
000390 32 77 51 3f 9a ee ab bc 68 b7 8c bc 90 24 e0 3b
       0.818225 -0.020987798 -0.017177299 0.006840296
0003a0 c6 64 2e 3c f5 55 a9 3d b3 24 f4 be 6a 0d 09 3d
       0.010644143 0.08268348 -0.4768425 0.03346006
0003b0 63 12 46 b9 9a 03 b5 ba 61 bc 09 bc 61 e6 51 3e
       -0.00018889601 -0.0013810277 -0.008406729 0.20498039
0003c0 a7 48 51 bc 8e 24 66 bb 8d 25 10 be 8f 2c be bb
       -0.012773669 -0.0035117003 -0.14076824 -0.0058036516
0003d0 3f b5 0d 3e 33 ba 52 bd fe 48 92 3d 91 20 30 3b
       0.13838671 -0.051447105 0.071428284 0.002687488
0003e0 4b 28 32 bc 30 d4 70 3b 44 de cf bc c3 0f ed 3c
       -0.010873864 0.0036747567 -0.02537454 0.02893818
0003f0 ee 87 de 3c 59 f2 a6 bc 8a 8e e9 3b ea 75 bd be
       0.027164426 -0.020379232 0.0071275877 -0.37004024

user_age_embedding.weight f4 [5, 4]
000000 7b fc 13 3f 73 cd 1b 3e 3a 59 a3 bf ee f8 55 3f
       0.5780713 0.15215091 -1.2761605 0.8358296
000010 86 9d 10 3f 57 c9 d3 bf 83 d8 14 bf d6 d6 fb 3e
       0.5649036 -1.6545819 -0.5814287 0.49187344
000020 07 f0 b1 3e ad 90 01 bf 3f 3e 6c 3e e2 cd 31 bf
       0.3475344 -0.5061138 0.2307062 -0.6945478
000030 ea e8 8f 3f 96 fd 0c 3f 21 f3 3c 3f b2 96 9a 3e
       1.1242955 0.5507444 0.73808485 0.30193096
000040 58 c1 23 be 7e 8d b3 3e f9 89 63 3f 29 33 9b bf
       -0.15991724 0.35068887 0.88882405 -1.2124988

user_gender_embedding.weight f4 [2, 2]
000000 8a 35 c2 bc 42 2c 8e 3e 38 62 76 bf 49 20 1c 3f
       -0.02370717 0.2776814 -0.9624362 0.60986763

user_occupation_embedding.weight f4 [21, 8]
000000 8c de 05 3d d1 20 5e 3e 97 13 85 be 84 65 93 3c
       0.03268294 0.21692206 -0.25991508 0.017992742
000010 bd e5 38 3e 91 ef 1e 3d 87 4e 65 3f b8 86 a9 3e
       0.18056388 0.038802687 0.8957295 0.33110595
000020 22 a5 28 3b 96 97 4d bf e1 b6 b5 3e f7 e8 33 be
       0.0025733192 -0.80309427 0.35491088 -0.17569338
000030 33 ff 26 bf 14 71 86 3e b7 2b 43 be f2 09 70 be
       -0.65233153 0.26258147 -0.19059645 -0.23441294
000040 8b fc b0 3e 68 22 a7 be 98 c2 13 3f 75 47 8b 3d
       0.34567675 -0.32643437 0.577188 0.06800739
000050 1b fa bc 3e 54 1c ad be fc 4e 9f be 00 df 10 3e
       0.36909565 -0.33810675 -0.31114948 0.14147568
000060 27 ab 92 3f b5 1c 8a bd e0 f9 2f bf a6 49 79 3f
       1.1458482 -0.06743757 -0.68740654 0.97378004
000070 28 2f 2a 3c 03 5f ba bd 6a b5 83 be 23 1f bf be
       0.0103872195 -0.09100153 -0.25724345 -0.37328443
000080 37 d9 9b 3e da 04 0e bf 27 76 7d be c0 b4 8c 3e
       0.3043916 -0.5547615 -0.24752103 0.2748165
000090 13 05 3b 3e b8 38 ed be 4e 67 cb 3e 3e 50 13 bf
       0.18263654 -0.46332335 0.39727253 -0.57544315
0000a0 1e 66 8e bf b9 27 98 be 88 a5 3a 3e 34 17 b7 3c
       -1.1124914 -0.29717806 0.18227208 0.022349931
0000b0 77 bf 82 be 7c b2 76 bf 86 8e 3c 3f 30 c9 81 be
       -0.255367 -0.96366096 0.73654974 -0.25348806
0000c0 63 d7 ae 3c e9 66 85 bf da 34 05 3d 1c 90 52 3d
       0.021342939 -1.0422031 0.032521106 0.051406965
0000d0 54 96 13 be 55 10 66 3e 8f 66 af 3d fd 17 9a 3d
       -0.14412814 0.22467168 0.085644834 0.07524107
0000e0 91 3b ba bd 4e 2c 2d 3e c8 13 9b be 84 3e d8 3e
       -0.09093393 0.16911432 -0.3028853 0.42235196
0000f0 bb 20 a4 be 92 2e 5a 3d 84 d5 e2 3e a8 90 e3 3e
       -0.3205622 0.05326707 0.44303524 0.444463
000100 44 e0 47 ba 8d 51 bc bd 2b 6b 5a 3e 51 8f dc 3d
       -0.0007624666 -0.09195242 0.21329944 0.10769523
000110 c8 03 86 3c 9d c3 35 be 12 e3 8b 3e 98 3a 07 3e
       0.016359225 -0.17750402 0.27321678 0.13205945
000120 8f 34 5d 3e e6 a8 43 3c 08 56 ca 3d fe 7f 2a be
       0.21602081 0.011942124 0.098796904 -0.16650388
000130 9a 0a 71 bd 7f 47 83 bd 50 2a 8d 3e 33 a1 dc 3d
       -0.058848 -0.06410121 0.27571344 0.10772934
000140 63 28 db bd 06 f0 49 be 33 cf 8b 3d 1c d6 ff be
       -0.107010625 -0.19720468 0.068266295 -0.4996804
000150 e8 9f c4 3e 99 a1 83 be a4 6a 30 bf 3f fc e1 be
       0.3840325 -0.25709227 -0.6891272 -0.4413776
000160 1f 62 66 be 71 08 b8 bc fb f9 b9 3e e2 c8 1b be
       -0.22498368 -0.022464963 0.36323532 -0.1521335
000170 6e 48 24 3f 59 64 a7 3a 73 f0 f6 be 3c 6a 71 3e
       0.6417302 0.0012770995 -0.48230323 0.23575681
000180 89 22 15 3f 03 03 c2 3e 27 ed 24 3d 90 02 df bd
       0.5825582 0.37892923 0.04026523 -0.10889161
000190 6d 83 75 bd ae 13 85 bc fb 45 be 3d e9 1b e3 bd
       -0.05993979 -0.016244736 0.092906915 -0.11089308
0001a0 de 0c 20 bd 52 a0 13 be ab c0 91 3e 3a df 7f 3b
       -0.03907477 -0.14416626 0.28467306 0.0039042966
0001b0 0c af 7f 3e a5 54 00 3f de c2 cd bc 1c 11 94 3e
       0.24969119 0.5012916 -0.025117334 0.28919303
0001c0 97 9f a3 3d 15 5e 0c 3f ee b3 c9 3e a2 4c 1a be
       0.07989424 0.5483106 0.39395088 -0.15068296
0001d0 50 c6 12 be 7e 24 fd be 0b 1f 94 3d f3 e6 d9 bd
       -0.14333463 -0.49441904 0.072324835 -0.10639753
0001e0 0a 59 41 3e 51 f6 39 3e 59 bb e2 bd e5 7e ff bd
       0.18881622 0.18160369 -0.1107089 -0.12475375
0001f0 f2 04 5b bd 27 88 39 3f 9f d1 75 3e 68 7c 7f bc
       -0.053471513 0.72473377 0.24005745 -0.015593626
000200 df db ab bc 10 ea b3 bd 8c 63 31 be 8e 62 8f 3c
       -0.020978866 -0.08784878 -0.1732313 0.01750305
000210 88 73 4d be 2c ce eb 3d eb bf da 3d 50 4d 80 3c
       -0.20063603 0.115139335 0.10681137 0.015661865
000220 85 1f b2 3e d8 5a 30 3b 9d ac 37 bf 33 78 24 be
       0.34789672 0.0026909616 -0.7174776 -0.16061477
000230 10 79 b2 3e 3b 08 2d be 24 7c 02 3f 24 4b f5 bd
       0.34857988 -0.16897671 0.50970674 -0.119772226
000240 ab 62 83 bc f0 70 38 bd e1 6b b1 3e 88 29 2f 3d
       -0.01603826 -0.04502958 0.34652618 0.042764217
000250 ef bd a4 3d 64 d0 8f be bf b9 19 3b e1 f0 a0 bd
       0.080440395 -0.28088677 0.002345666 -0.07858444
000260 fd 1a 76 3e f0 13 81 3d 63 f1 a0 bf f0 0c 43 be
       0.24033733 0.06302631 -1.2573665 -0.19047904
000270 5a 3d a4 bd ee 3f 44 bd 8c 6c 52 3e b2 16 d9 bd
       -0.080195144 -0.04791253 0.2054922 -0.10600032
000280 46 14 79 bc ca 73 3f be 96 3f 37 3c 6e 6c f1 3a
       -0.0152025875 -0.18696514 0.011184594 0.0018419155
000290 b6 50 a1 bd e9 7e 7b 3a d8 ca 04 3d 42 b6 e9 3d
       -0.078767225 0.0009593801 0.03242001 0.11411716

user_location_embedding.weight f4 [760, 18]
000000 fe 93 08 3b 40 64 29 bd 74 c1 0d 3c da a1 02 bd
       0.0020840163 -0.04135537 0.00865208 -0.031892635
000010 6a 46 aa 3d e0 e8 c2 3d 36 39 67 bc 55 47 ff 3d
       0.08314212 0.09517074 -0.014112761 0.124647774
000020 d6 09 b3 bc 9e 7d 44 3b 85 8f 6b bc db 61 81 bc
       -0.021855276 0.00299821 -0.014377479 -0.015793731
000030 a4 b4 5a bd d7 1e 2b bd 42 f7 a9 3c c4 0e 1f 3c
       -0.05339493 -0.041777458 0.020747785 0.00970811
000040 00 47 8c 3e a0 a5 9e 3c 20 b4 85 ba 80 d7 ce bb
       0.2739792 0.019366086 -0.0010200776 -0.0063123107
000050 fe 4d 7f 3c a9 80 9b bc 65 c1 18 3c 96 ba b5 3c
       0.01558256 -0.018982248 0.009323453 0.022183698
000060 05 18 d0 3c 7a 6c 98 3c 3a 35 39 bb e7 f8 7a bd
       0.025402078 0.018606413 -0.0028260485 -0.061272528
000070 c4 07 a4 3d 7f 85 27 3d bb 17 9c 3c b8 f7 56 bd
       0.08009294 0.040898796 0.019054284 -0.052482337
000080 67 c6 a4 3c 96 59 65 bb 12 85 ea 3c 58 cd 7f bc
       0.020114137 -0.0034996024 0.028627906 -0.015612923
000090 ec b4 4a ba 46 1b e8 3c 09 96 1b 3b 52 80 ee 3b
       -0.0007732648 0.028333317 0.002374055 0.0072784806
0000a0 f9 71 86 bd ee 46 40 3b 66 e3 96 39 e7 46 81 3b
       -0.06564707 0.0029339152 0.00028779655 0.00394522
0000b0 5e c3 dc 3b 27 6d a2 3e 29 9d ec 3a c8 79 82 3e
       0.006737157 0.31723902 0.0018052208 0.25483537
0000c0 2e 12 9e 3c d6 1a 08 bc ec 42 60 3c e6 4a e4 3f
       0.019295778 -0.008307179 0.01368783 1.7835357
0000d0 f4 53 f2 3b 98 4f 87 bc 1a a0 b9 bc f1 7f 7c bb
       0.007395262 -0.016517445 -0.02265935 -0.0038528407
0000e0 0c 84 5f 3c 1a fd 39 3c f1 e5 cc be da 78 89 be
       0.013642322 0.011351848 -0.4001918 -0.26850015
0000f0 4c a0 d1 3e 73 c2 da 3c 40 83 20 3a 45 a7 04 3e
       0.4094261 0.026704049 0.00061230734 0.12954433
000100 f3 79 db 3b 91 8c d2 3e 71 22 fa bd bf 90 b4 3c
       0.006697887 0.4112287 -0.122136004 0.022041677
000110 d1 32 41 bd 8d 2c 3e bc e4 67 f5 3b 68 99 5f 3c
       -0.047167603 -0.011607301 0.0074891914 0.013647415
000120 7a b3 1c bd 0b 19 67 bd 81 55 8a 3c ad e8 f6 bc
       -0.0382571 -0.056420367 0.016886475 -0.030140245
000130 55 25 e3 bc 37 48 d3 3d cc 3c 03 3c fe 79 aa be
       -0.027727762 0.10316508 0.008010101 -0.33296198
000140 fe 84 d0 bb c2 dc 8c 3c 52 d6 94 be 09 2d 3d 3e
       -0.00636351 0.01719511 -0.29069763 0.18474211
000150 dd 99 01 be 55 d1 1c bf 25 19 19 bd 35 b1 a3 bb
       -0.1265635 -0.61256915 -0.037377495 -0.00499549
000160 01 6d b4 3d e6 74 90 3a 35 0e 06 bd 19 b6 3a 3d
       0.08809853 0.0011021167 -0.032728393 0.045583818
000170 3b eb 32 3c b6 45 f3 bc 55 e6 28 bc f4 2e 9e 3b
       0.010920341 -0.029696327 -0.010308822 0.0048273746
000180 84 d7 93 3d 3e 4a 1e bd 2f 86 09 3e d4 46 10 3c
       0.07218841 -0.03864502 0.13430093 0.008805949
000190 fe 1a 3f bc 86 d5 0a 3e 0d e5 f5 3c 10 47 be bc
       -0.01166415 0.13558015 0.030016446 -0.023227245
0001a0 37 1b 09 bd a0 09 9a bd 1c f7 d7 bc e4 e6 8d 3c
       -0.03347322 -0.07521367 -0.026362948 0.017322011
0001b0 c2 73 35 be 90 39 b7 bd f2 5f 8d be 26 1f f5 bc
       -0.1771994 -0.08946526 -0.27612263 -0.02992208
0001c0 c7 6b 6f 3f e4 9d 94 bd 28 7d c4 bc ad 5b 51 3d
       0.9352383 -0.07256678 -0.02398546 0.05111282
0001d0 5a 55 17 bd 43 1f 1d 3d 11 30 36 be fd 6b 22 3c
       -0.036946632 0.03835989 -0.17791773 0.009913442
0001e0 ab c9 46 bd c4 35 02 bc a3 50 37 3d 91 67 f2 3c
       -0.04853217 -0.007947389 0.044754636 0.0295904
0001f0 78 c1 1e bd a9 8c 26 3d 5c ec 76 3f b0 9d fc bc
       -0.038758725 0.040661488 0.96454406 -0.03083691
000200 a9 af 9c bf e5 c2 91 3c 8d 75 54 bc 50 a6 3b 3c
       -1.2241107 0.017793128 -0.012967479 0.011453226
000210 f1 a5 42 bc f6 74 21 bc 1c e6 5f 3f 51 1b 30 bb
       -0.011880384 -0.009854546 0.87460494 -0.002687175
000220 8c 1d c4 bb c4 5e c8 3c b2 ae b0 be be 51 2e 3b
       -0.0059849676 0.02445925 -0.34508282 0.0026599015
000230 8e d3 86 3c eb 9f 11 bb 95 57 66 3c 95 08 e8 be
       0.016458299 -0.0022220563 0.014058967 -0.45319048
000240 07 29 53 bc ac d8 fe bc 7d 50 99 bc 0d f8 cc bd
       -0.0128882 -0.031109177 -0.018715138 -0.100082494
000250 df 0b 2a bd 20 81 45 3e 51 24 4f bc a1 6e d9 bb
       -0.041515227 0.19287539 -0.012642936 -0.0066355024
000260 11 74 89 3c 72 3e af bc 5d 96 fa 3c 8e 87 bd 3d
       0.016778978 -0.021392081 0.030589277 0.09254371
000270 d1 d5 11 3c c5 c9 81 3b 47 8d 5e bc a1 02 95 bc
       0.008901075 0.0039608204 -0.013583488 -0.01818973
000280 c3 3d a8 bc 74 52 01 3c fa 14 de bb 26 f5 d9 3a
       -0.020537263 0.0078931935 -0.006777403 0.0016628846
000290 28 43 ec bc 7e e2 db bc ac dc 85 3d 83 71 10 3c
       -0.028840616 -0.026841398 0.065362304 0.008816126
0002a0 92 35 0a be 5d d6 9f 3b 28 c0 68 3d 74 cd 1e 3f
       -0.13496998 0.004877849 0.05682388 0.62032247
0002b0 7f 36 52 bc 90 09 62 3b 48 c5 03 3c e3 e1 47 3c
       -0.012830376 0.0034490563 0.008042641 0.012199852
0002c0 07 03 07 bc e7 58 a1 bc 83 29 04 be 50 66 a5 bc
       -0.008240468 -0.019695712 -0.1290646 -0.020190388
0002d0 b5 87 55 bc a3 c1 a8 3d ef 46 20 be 8f 86 0c 3d
       -0.013032843 0.08240058 -0.15652059 0.034308013
0002e0 f8 20 8a 3e 95 79 59 3d ea e5 df bb b7 cd 23 3f
       0.26978278 0.053094465 -0.006832828 0.6398577
0002f0 55 5a 55 be 5b cd 7a 3e a2 7e aa 3d 11 52 fd bc
       -0.2083524 0.244924 0.083249345 -0.030922921
000300 bc 5f 09 3d 68 18 0b bd 85 01 f7 bc 55 ea c9 3d
       0.033538565 -0.033958822 -0.030152092 0.098591484
000310 9f 85 e7 3c 51 0e 48 bf 78 42 29 bb 8d e2 4c be
       0.028261958 -0.78146845 -0.0025826972 -0.20008297
000320 99 e4 11 3c 8c db e4 3c f5 21 23 bd e9 22 e5 bc
       0.0089046 0.02793672 -0.039827306 -0.027970748
000330 16 5a 7f bc a7 07 28 bd 14 1b d4 3c 94 57 ec bc
       -0.015585443 -0.041022923 0.025891818 -0.028850354
000340 0b 8e e4 3c 0b d5 e2 bd 3f 96 10 3e ff a3 65 bc
       0.027899763 -0.11075791 0.14119814 -0.0140161505
000350 36 8c 1c 3e 78 d9 a8 3e 42 b9 93 bd 17 92 b9 3e
       0.15287861 0.32978415 -0.072130695 0.3624427
000360 e6 07 31 bd 6a b7 d8 be 97 38 0f be e6 0f 97 3c
       -0.043220423 -0.42327434 -0.13986431 0.018440198
000370 89 35 73 3f b9 5a a8 3f 63 b8 e5 bd 48 77 25 3d
       0.95003563 1.3152686 -0.112168096 0.04039696
000380 38 bb 37 bd 09 fe 46 bd 72 96 90 bd ae ee 8e bc
       -0.04485628 -0.04858211 -0.07059945 -0.017447796
000390 87 76 87 bb 1d 83 94 3c af 42 22 bd 65 7d 0e be
       -0.0041340026 0.018128926 -0.039614376 -0.13915022
0003a0 9d e0 25 3d 85 5b a4 bd 47 06 3a bc 93 7f 34 bd
       0.04049741 -0.080252685 -0.011354036 -0.044066977
0003b0 d1 3c 87 3c eb 68 e8 bb c4 08 ec ba 65 dd ef bb
       0.016508492 -0.0070925853 -0.0018007983 -0.0073200935
0003c0 c0 59 53 3d 13 9d 29 3b 56 1e 95 3c b5 6f c1 3f
       0.051599264 0.0025880977 0.018202942 1.5112215
0003d0 bc 5d 90 be bf 32 e0 be 26 6e b9 38 b7 8b 8f bb
       -0.28196514 -0.43788716 8.842004e-05 -0.004380669
0003e0 03 c6 2c bd 28 28 99 bc 78 e0 b7 3d 5d 14 33 3c
       -0.042181026 -0.018695906 0.08978361 0.010930148
0003f0 bd c9 08 be f7 fe 18 3f e2 02 45 bd 8c 5c a8 bc
       -0.13358207 0.59764045 -0.048098452 -0.020551942

item_id_embedding.weight f4 [1600, 32]
000000 96 d5 6e bb 50 e5 8f bc 6b ce 9e bb 12 67 eb ba
       -0.0036443225 -0.0175654 -0.0048463843 -0.0017959794
000010 69 c0 cb 3d a3 40 2e bf 43 3c 86 3d a6 71 91 b9
       0.09948809 -0.6806738 0.06554463 -0.0002774123
000020 28 a7 85 bb 2e 8d f5 3c 9c 45 77 3b e5 b0 98 3b
       -0.0040787645 0.029974546 0.00377307 0.0046597593
000030 8d df dd 39 c1 6d 5b 3b 52 c0 11 bd 39 39 c4 bb
       0.00042318963 0.0033482166 -0.0355838 -0.005988267
000040 2d 3a 1c 3c 18 75 97 3d 07 02 92 bd e5 ed 4f 3e
       0.009535355 0.07395381 -0.07129293 0.20305593
000050 4d e3 8f bc c0 97 a2 3e 1a 1b f7 bc 49 30 25 3e
       -0.01756444 0.317564 -0.03016429 0.161317
000060 30 b4 27 3c 31 49 95 3c 21 3a b7 3b d8 de 65 3b
       0.010235831 0.018223377 0.0055916463 0.0035075452
000070 b1 48 a7 bc 2c c7 8f ba 10 17 e5 3c fc 91 bf 3c
       -0.020420404 -0.0010969392 0.027965099 0.02338504
000080 e2 95 8a bc 3d 15 ef bd 1c 39 de 3a 05 94 fb 3b
       -0.016917173 -0.11673973 0.0016954276 0.0076775574
000090 35 bf 72 b9 39 0e a5 3a 95 24 ee bb 77 93 a6 bb
       -0.00023150149 0.001259274 -0.0072675445 -0.005083497
0000a0 2a fa 15 bb a7 9d 96 3b bc 4d 84 be fa 9f 19 3c
       -0.0022884705 0.0045964303 -0.25840557 0.00937652
0000b0 d3 57 75 3c d0 ff 47 3b 17 bf 72 3c be 0d b2 ba
       0.014974552 0.0030517466 0.014816067 -0.0013584418
0000c0 57 17 d0 3a 7e 36 67 3c 01 d9 e9 bc 61 db 56 bb
       0.0015876096 0.014112113 -0.028545858 -0.0032784569
0000d0 66 ca f8 3c 64 de 91 bb a1 69 3e be a2 70 68 3d
       0.030369949 -0.00445156 -0.18594982 0.05674804
0000e0 98 c0 94 bb f9 94 ad 3c 8d e7 2c 3e c1 40 0c bc
       -0.0045395605 0.0211892 0.16885205 -0.00856036
0000f0 2e e9 54 3c 14 d3 20 3c d8 fe ad 3a af 27 45 3c
       0.0129950475 0.00981595 0.0013274802 0.012033387
000100 b6 2b c8 bb 50 46 f2 3b 3b cd 9f 3b a0 d3 51 bc
       -0.0061087264 0.007393636 0.0048767603 -0.012806803
000110 27 05 86 bb 2a e4 5b bc 39 fb 85 bc 6a 00 42 bc
       -0.0040899697 -0.013421098 -0.016355144 -0.011840919
000120 36 3f 07 3e 72 2a 99 bd 9e 49 31 3c bd cf eb 3b
       0.13207707 -0.07478799 0.010820774 0.007196395
000130 d5 78 aa bc 30 4b 0f bc ee 1a 91 bc e4 f4 df 3b
       -0.02080957 -0.008745953 -0.017713036 0.006834613
000140 8d 2c c6 ba e3 95 46 3c a4 a4 48 bd 2c fc bd 3b
       -0.0015119478 0.012120697 -0.04898514 0.0057978835
000150 63 25 04 3c 7e 6a 9b bd 0f 43 2f 3e eb 22 25 3c
       0.008065554 -0.07588671 0.17115425 0.010079126
000160 a7 32 7c bc e0 39 a5 3e ef 19 b6 bc d9 f4 17 bc
       -0.015392936 0.32270718 -0.022229163 -0.009274685
000170 6a 4b 48 3c 63 db da 3e 0e f3 f1 3e c5 fe bb bc
       0.012225011 0.42745504 0.4725575 -0.022948632
000180 ef df 23 3f d4 f6 a8 bc 13 00 e1 be c2 41 c2 3c
       0.6401357 -0.02062551 -0.4394537 0.023712996
000190 50 a7 e1 3c b7 43 4b 3d 6d df ac 3d 52 c7 eb bc
       0.027545601 0.049625125 0.084410526 -0.028781567
0001a0 76 49 e1 3d 9d 5d 8e bc f4 88 e9 bc cb 03 3f 3e
       0.1100034 -0.017378623 -0.028507687 0.1865379
0001b0 92 a3 ac bd df 96 c3 3c 57 b2 d8 3b 79 82 21 bd
       -0.08429636 0.023875652 0.0066130566 -0.03943107
0001c0 bf ec 54 3d 69 ed 39 bd 04 4a e6 3c ed f0 c0 3e
       0.05198359 -0.045392428 0.028111465 0.37683812
0001d0 b1 29 64 bb 3b cf 08 3d a5 b0 6d bc 43 29 12 bc
       -0.003481489 0.033400755 -0.014507447 -0.00892097
0001e0 a6 28 20 3e c2 a1 3b bb 15 cd 9b 3d d0 78 89 3e
       0.15640506 -0.002863035 0.07607476 0.26849985
0001f0 f9 7f 99 bd 6e 1a 64 bc b2 24 97 bd 2c 2d 47 3d
       -0.07495112 -0.013922317 -0.07380046 0.048627064
000200 e8 a6 5e bc 38 ce bc bd 95 37 ab bb 71 33 3a 3b
       -0.013589598 -0.092190206 -0.0052251318 0.002841201
000210 57 1c e3 bc 75 34 d0 3e f3 2b 7c 3a f8 a6 65 bc
       -0.027723474 0.40665022 0.0009619586 -0.014016859
000220 a1 3d 9c bb b6 c9 9c be 25 13 0d be 81 3d 80 3b
       -0.004768089 -0.30622643 -0.13776834 0.003913582
000230 2c c3 9a 3c 8a b4 9c 3b f6 7c 19 3b 08 30 05 bc
       0.018891893 0.004782264 0.002342043 -0.008129127
000240 22 0b 63 3f 52 8b 0d 3c b6 a5 e1 ba 74 1c 29 bc
       0.8868886 0.008639174 -0.0017215523 -0.010321725
000250 f5 41 41 bc a0 e6 ca be a5 f1 27 3d 69 a9 b8 bc
       -0.011795511 -0.39629078 0.041001935 -0.022541719
000260 c5 37 39 bb 8a ff 57 3c 02 6f bd 3c 14 dd d8 3a
       -0.0028262 0.013183484 0.023124222 0.0016545379
000270 0f 00 1b 3c b4 24 69 bc 82 1d 22 3c e0 d4 2c 3c
       0.009460463 -0.014229942 0.0098947305 0.0105488
000280 0b 5c e5 3c 25 32 ba 3c 7c 1a 59 3a a8 64 a2 bd
       0.027997991 0.022728989 0.00082818395 -0.07929355
000290 2b 19 1b 3e 34 1e b5 bb 7e de a9 ba 0d 2d 07 bc
       0.1514632 -0.005527282 -0.0012959985 -0.008250487
0002a0 2c 59 9e 3b 55 86 d9 3b ce 9b 93 3b 36 2d ad 3c
       0.0048324075 0.006638328 0.0045046574 0.021139722
0002b0 df 9d 3a bc 80 5e 3f 3f 65 ed 63 ba 5c 74 9e 3d
       -0.011390178 0.7475357 -0.00086947373 0.077370375
0002c0 32 89 74 bc 54 14 c9 bb 8f a3 71 3e 31 26 03 3d
       -0.014925288 -0.0061364565 0.23597549 0.032018844
0002d0 94 4a ab 3e 96 bb f8 3c be 90 b3 bd 59 9b 8d 3c
       0.33455336 0.030362885 -0.08767842 0.01728599
0002e0 54 83 9a bc d0 d1 b3 3a d6 00 a0 bc 47 a4 11 be
       -0.01886145 0.0013719145 -0.019531649 -0.14222823
0002f0 1d e4 2d 3c 2d 89 3c bb 3b 72 63 bb 84 46 c5 bc
       0.0106134685 -0.0028768287 -0.0034705538 -0.024081476
000300 9b 0a 86 bc e0 4d 3d 3c 3d dc 92 be 3e 78 eb bb
       -0.016362479 0.011554211 -0.28683653 -0.007185965
000310 b3 7a 5e bc e5 18 15 3c cf d6 74 3c 78 6f 5b bb
       -0.013579058 0.009100174 0.0149437925 -0.0033483189
000320 49 4b 0c 3f 1e ae ae 3b c1 31 90 ba 1f b1 99 bb
       0.54802376 0.005330815 -0.0011001156 -0.004690304
000330 d4 95 6d bb f1 bd 8e bb 46 eb b8 bf 37 65 b5 bc
       -0.0036252635 -0.004356139 -1.44468 -0.02214299
000340 f9 5c 74 3c 96 1a 4b bc 6e 89 b8 3e a8 a4 0c 3f
       0.0149147445 -0.012396475 0.3604235 0.54938745
000350 26 7b b9 bb 5c 2e 8d be d8 ac 7b be de 1b 18 3d
       -0.0056604324 -0.27574432 -0.24577653 0.03713595
000360 30 3e 82 3d b9 96 5c be d5 a1 07 3f 10 04 9e bd
       0.063595176 -0.21541871 0.5298131 -0.077156186
000370 41 a0 ad 3c 5e 9b 15 bd b9 7d 0a 3c 25 d8 52 bc
       0.02119458 -0.036525123 0.008452826 -0.012868916
000380 df dd 7f bd e4 5a ef 3e 2a 20 5e bc b1 01 a1 be
       -0.062467452 0.46749032 -0.013557473 -0.31446603
000390 7d a9 c2 bb 61 7f a7 3b 5d c2 78 bc 82 f6 cc bb
       -0.0059406147 0.0051116203 -0.015183059 -0.006254972
0003a0 bc 70 42 3b 7e a7 ca bb b5 3b a3 bc c7 6d e8 3a
       0.0029669246 -0.0061845174 -0.019925931 0.0017732912
0003b0 f3 c8 95 3c b6 52 ff bc cc 89 32 bb c1 e5 38 3c
       0.018284297 -0.03116737 -0.0027242778 0.011285246
0003c0 6a 56 8b 3c b3 c1 9f 3e 00 a3 8e 3b 9d 47 e7 bc
       0.017008979 0.31202468 0.004352927 -0.02823239
0003d0 45 0a 1f bf 86 f9 82 3c 3d 30 28 3c e9 36 28 3f
       -0.62125045 0.015988123 0.010265407 0.65708786
0003e0 88 cd 36 3c 91 f3 ab bc 53 69 ab 3c f4 60 f3 3c
       0.011157401 -0.020990165 0.020924246 0.029709317
0003f0 1d d7 e3 bc 01 c1 56 bc c0 c8 d4 ba 0e ba c8 3c
       -0.027812535 -0.013107539 -0.0016234145 0.02450278

item_type_embedding.weight f4 [5, 8]
000000 43 1e bb 3f ee 08 88 bf 49 41 f9 3f a3 e6 be 3d
       1.461861 -1.0627725 1.9473048 0.09321334
000010 43 36 de bd 75 85 23 3f ce 2c b7 3d 3e 55 96 3d
       -0.10850193 0.63875514 0.08944093 0.073404774
000020 af bb 8d 3f c8 67 75 bf 7c a2 b7 3f 5e 2c 48 be
       1.1072901 -0.9586148 1.4346461 -0.19548175
000030 55 36 58 bf 7d 90 b1 bf 39 11 73 3f 18 5f 5d 3f
       -0.84457904 -1.3872219 0.94948155 0.86473227
000040 a5 0d c2 3e d2 56 2a bf b5 56 78 3e e1 17 ae bf
       0.37901035 -0.6653873 0.24251826 -1.3601037
000050 50 a8 b8 be d7 62 57 be 04 ea 86 3e 04 66 87 bf
       -0.36065912 -0.21033798 0.26350415 -1.0578008
000060 68 e0 1d 3f 27 a2 41 be cf 83 3c 3f c3 5c c4 3e
       0.6167054 -0.18909512 0.73638624 0.38352022
000070 bb a4 d0 3f 73 e7 a9 3e 43 85 8b 3e 59 a3 bf be
       1.6300272 0.33184394 0.27250108 -0.37429312
000080 fc 14 24 bf e1 7e 4d 3e 74 64 69 be 66 33 74 bd
       -0.6409452 0.20067932 -0.22792226 -0.05961933
000090 2c 6a ef bc 8f 43 44 3d 51 ae 79 3e ce 90 d1 be
       -0.029225431 0.04791599 0.24382903 -0.4093079

item_temperature_embedding.weight f4 [7, 8]
000000 6d e3 58 bc 78 c9 07 3c 87 ed 82 3c ac a5 45 bf
       -0.013237816 0.00828778 0.015982402 -0.7720592
000010 fd 00 a7 bc 9f 60 d0 be 3f dd 25 3d 88 c4 9d be
       -0.020386213 -0.40698716 0.0404942 -0.30814004
000020 e1 0e c1 3c a5 66 2b 3f 43 36 30 be b7 60 ab 3d
       0.023566665 0.669535 -0.17208199 0.08368056
000030 fb 6e df be 9c 46 41 3e 23 e3 d7 be 4f 41 cf be
       -0.4363936 0.18874592 -0.4216548 -0.40479514
000040 60 9b 06 bf 89 d8 8f 3f 42 14 4b 3f 1d 79 cd be
       -0.52580833 1.1237956 0.79327786 -0.40131465
000050 63 2d b7 bd 76 47 81 3d 8a 76 1f bf 0b 4f aa bd
       -0.08944204 0.06312458 -0.6229025 -0.083158575
000060 4a 35 10 bf 05 89 8b 3e 0a a6 51 be a1 64 8f be
       -0.5633131 0.27252975 -0.20473495 -0.2800646
000070 bb da 0b bf 97 d0 3b 3e 22 7d 2d be 3b 63 5f 3f
       -0.5463063 0.1834129 -0.16942266 0.8726079
000080 2f 2a 0e bf 0a c7 bc be ea 5a 79 3e 35 19 08 bf
       -0.5553312 -0.36870605 0.24351087 -0.5316346
000090 77 8e 1f 3d 99 4f 68 3f 53 de e8 3e 44 8c b6 3e
       0.038954224 0.90746456 0.4548212 0.3565389
0000a0 64 e5 9d 3e 46 13 09 bf dc a0 96 be 16 6a 48 be
       0.30839074 -0.53545034 -0.294196 -0.19571719
0000b0 c0 2c 98 3e 2c 09 0b bf 34 d4 73 3f 3f 26 93 3f
       0.29721642 -0.5431087 0.9524567 1.1496047
0000c0 d7 8a a5 be 1a 3f cd bc dd 5b 96 bf 33 ef e4 3c
       -0.3233249 -0.025054503 -1.1746784 0.02794609
0000d0 be 4d b8 be 97 5e 95 3e 75 eb 26 3e 32 ab 0b be
       -0.35996813 0.2917373 0.16300757 -0.13639525

item_humidity_embedding.weight f4 [6, 8]
000000 54 b7 a8 be 4c f3 be 3d 02 b1 48 3c 93 41 35 be
       -0.32952368 0.09323749 0.012249233 -0.17700796
000010 bd b4 fd be c4 43 7f be 52 5e 24 bf d5 3c f1 3c
       -0.49551955 -0.24928194 -0.6420642 0.029447952
000020 b4 36 2f bf 32 77 3f 3c 94 87 e4 3e 82 be 9d bf
       -0.68442845 0.011686133 0.44634688 -1.2323763
000030 88 44 1e 3f e4 91 39 3e 65 28 74 3e 19 1e 6d be
       0.6182332 0.18122059 0.23843534 -0.23156013
000040 f7 90 e3 be 67 ad e3 3d f5 98 94 3f b2 18 8c 3e
       -0.44446537 0.11117058 1.1609179 0.2736259
000050 a7 df 05 3f af 8c e2 be b3 c9 9d 3f 16 93 fd be
       0.5229439 -0.44247958 1.2327179 -0.4952628
000060 a9 5e d5 3e 74 59 21 3f 47 06 b8 bf 89 c6 25 be
       0.41673782 0.6302712 -1.4376916 -0.16189016
000070 3d 1f ba be 12 66 d8 be c9 34 de 3e 77 06 95 be
       -0.36351958 -0.42265373 0.43399647 -0.29106495
000080 c0 59 c5 bf c6 6c 2a 3f 24 d7 a1 3d bd 35 51 bf
       -1.5418015 0.66572225 0.07902363 -0.81722623
000090 a1 92 9b 3f f6 1a a7 bf 8c 37 04 3e d0 13 0a bf
       1.2154123 -1.3055103 0.12911814 -0.5393648
0000a0 73 d3 71 be c8 ca 1b 3f ae 8d a6 be 12 cb b6 be
       -0.23615818 0.60856295 -0.32529968 -0.35701805
0000b0 d8 7b 73 be 14 bb e2 3d eb 99 47 3f 83 27 90 3e
       -0.23777711 0.110708386 0.77969235 0.28155145

item_windSpeed_embedding.weight f4 [5, 8]
000000 db 98 93 3f cf 0a 1c 3f d6 c8 64 bf 72 ec 48 3e
       1.1531023 0.6095399 -0.8936895 0.19621447
000010 13 0c 7b 3f 6b 32 34 be e8 96 1e bf 74 1b 5e 3f
       0.980653 -0.17597358 -0.61949015 0.8676064
000020 66 35 72 3f 31 fc 2a 3e fb 6f 14 bf 2a 78 91 bf
       0.9461273 0.16697766 -0.5798337 -1.1364796
000030 3c 5c 83 3e 80 43 9a 3e ac 32 e5 bd 51 6c 34 be
       0.25656307 0.30129623 -0.111913055 -0.17619444
000040 64 25 43 3e c4 1e d3 be 36 60 0c 3f 90 ab b3 3e
       0.19057232 -0.4123441 0.54834306 0.3509183
000050 47 83 54 bd d1 4e d5 bf 6c d9 c6 be 07 2e d1 3f
       -0.05188301 -1.6664678 -0.38837755 1.6342171
000060 3c 27 fd be a9 0e 9c be 43 26 c5 3e a1 8f 0f be
       -0.49443996 -0.30479935 0.38505754 -0.14019634
000070 91 5e ba 3e b5 9a 44 3f 71 9d ee bd 31 c0 72 be
       0.36400273 0.76798564 -0.11651123 -0.23706128
000080 c8 5d ce bc eb 44 a0 3f 8c 1a 4a 3d 5a 1f ba be
       -0.025191203 1.2521032 0.049341723 -0.36352044
000090 a7 39 d7 3e c5 4d 41 3f b6 eb ed 3e 2c 07 cd be
       0.42036173 0.7550929 0.46468896 -0.40044534

GCN_Layers.0.W1.weight f4 [64, 64]
000000 af 1e 5c be 1e 9a 04 3e a8 3c ea bc 95 c7 61 bd
       -0.2149608 0.12949416 -0.028593376 -0.055121977
000010 d8 54 43 3d 84 42 13 bc 6a 4f c6 3c bd f5 e4 bd
       0.047688335 -0.0089880265 0.02420779 -0.11179683
000020 af 27 34 bd b3 0d ff 3d d2 4c 06 bc 00 b0 18 bc
       -0.043983158 0.12453785 -0.008197026 -0.009319305
000030 61 ea 05 be f4 f7 d0 3c 07 32 dc bd 53 06 0e bc
       -0.1307769 0.025508858 -0.107517295 -0.0086685
000040 f2 bf 03 be 17 19 eb bc f4 69 b8 3c 14 53 e0 3d
       -0.1286619 -0.028698487 0.02251146 0.10953346
000050 ea 98 8f bc 63 c9 92 3d 77 d0 b2 bd 21 10 3b 3e
       -0.01752897 0.07167318 -0.08731168 0.18267871
000060 36 4b ac bc e5 cd 98 3c c2 17 b6 bd 2a 2d 8d bd
       -0.021031957 0.018652866 -0.0889125 -0.0689338
000070 d4 a2 bc bd c1 1e db bd 20 49 f6 bd ee 6d f8 3c
       -0.092107445 -0.10699225 -0.12025666 0.030325856
000080 2e 14 8b bd cb cb 22 be ea d3 86 bd 33 88 a6 bc
       -0.06790958 -0.15898053 -0.06583388 -0.020328617
000090 1e da 2e bc ac d9 81 bc 52 0b 13 bd 27 c1 f3 3d
       -0.01067212 -0.015850864 -0.035899468 0.11902075
0000a0 b2 3f fe bb 63 20 b4 3d fb 4d e6 3a 9c 1b 03 bd
       -0.007759058 0.0879524 0.0017570847 -0.032008752
0000b0 e0 c4 07 3d 5b 0c 68 3d eb 75 8f bd 19 03 83 bd
       0.03314674 0.056652408 -0.07004913 -0.06397075
0000c0 b3 ff a5 bd 20 a9 85 bd f9 16 f2 3c 13 5b 84 3b
       -0.081054114 -0.06526399 0.02955197 0.004039177
0000d0 a6 b7 99 bd 5e 51 1f bd a7 c7 bc bd 27 57 09 3e
       -0.07505731 -0.038895957 -0.09217768 0.13412152
0000e0 57 70 79 3d fa d4 50 3b ed 45 27 bd 89 e3 22 3c
       0.06089815 0.0031865225 -0.04083817 0.009941944
0000f0 ca c1 4e bd f2 86 96 bc 94 d9 87 3d 88 12 5c bd
       -0.05047778 -0.018374894 0.066332966 -0.05372861
000100 c0 c0 09 3e 21 9d 9c be 53 76 e6 bd 6e 1f b0 3c
       0.13452435 -0.3058863 -0.11253037 0.021499362
000110 0b 65 26 bb 3d cc e7 bc 59 60 51 3d 7f 67 25 3d
       -0.0025389816 -0.02829563 0.051117275 0.040381905
000120 0d df ed 3c 3a f3 06 3e 6c ea a7 3d 3d 2a 99 bc
       0.029037023 0.13178721 0.08199009 -0.018696899
000130 9d d5 3e bd 36 f7 8b bb b1 24 42 bc 0e 87 77 bd
       -0.046590436 -0.004271413 -0.011849568 -0.060431533
000140 15 57 0c bd f7 c6 a3 bd 39 fb 0e 3d c3 f2 00 bd
       -0.034262735 -0.07996934 0.034907553 -0.031481516
000150 a8 b7 6d bc cc df 67 3d 58 74 a1 bc 48 11 c2 bd
       -0.014509119 0.056609914 -0.019708797 -0.094759524
000160 eb 1a 00 bd e7 12 1e 3d 4a ac e0 bd 6f a5 3b 3c
       -0.03127567 0.038592245 -0.109703615 0.011453017
000170 a5 1f 11 3b 95 f7 81 bd a8 71 a1 bc 54 c1 1f bd
       0.0022144106 -0.06346051 -0.019707516 -0.03900273
000180 00 a2 4b 3d 3d b7 b9 3d 12 2c df 3c 14 59 f3 b8
       0.049715042 0.09068153 0.027242694 -0.00011603735
000190 6f ba 49 bd fa 87 8a bd da 77 b7 bd e8 4e 9f bd
       -0.049250063 -0.06764217 -0.08958407 -0.07778722
0001a0 7d 20 0a 3d 0c 30 54 3d 04 13 cb 3c 22 cf 4c bd
       0.03372239 0.051803634 0.02478934 -0.050002225
0001b0 5a 98 8b bd 25 d7 c4 3d 3a bb 0c bb 66 e5 df 3c
       -0.06816168 0.09611348 -0.00214739 0.027331065
0001c0 f6 4a 18 bd 4f a5 16 3d c9 cd 71 3d fc 49 e4 bd
       -0.037180863 0.036778744 0.059034143 -0.11146924
0001d0 e9 4e 05 3d a1 e6 06 bd 73 39 02 be dd 79 af 3d
       0.032545958 -0.03293479 -0.12717228 0.085681655
0001e0 b3 eb 63 3d 25 72 30 bd 3b f8 18 3d 4a d3 b0 bc
       0.055644702 -0.043077607 0.037346106 -0.021585125
0001f0 a7 2a 09 3d dc d2 35 bd 79 b7 52 3d 72 fd 81 bd
       0.033487942 -0.044390544 0.051444504 -0.06347169
000200 65 93 7d 3c 26 81 e3 3d 43 f9 45 be 4b b9 76 3d
       0.015477036 0.111086175 -0.19333367 0.060235303
000210 d4 86 c5 bd 4b c5 19 3b 1c aa 40 bd 0d b5 fa bd
       -0.09644857 0.0023463543 -0.04703723 -0.12241564
000220 c8 6f 14 3e ca bc 90 3c 27 b3 cb 3c 30 65 14 bb
       0.14495766 0.017668147 0.0248657 -0.002264332
000230 46 88 94 3e a4 d2 a1 39 ca 3a 05 3e ad c9 ef bc
       0.29010218 0.00030865252 0.13010707 -0.029270971
000240 e0 8d 5c bc 00 fe fc bd 22 15 1a 3d da 63 8f bc
       -0.01346156 -0.12353134 0.03761781 -0.017503668
000250 c9 04 0d bc 1f 95 12 bd f2 f5 0c bd 0b 9d b6 bd
       -0.008607098 -0.035786744 -0.03441424 -0.08916672
000260 27 a1 e5 bc cf 9e 00 3c 1b 68 e0 bd 45 88 10 be
       -0.028030945 0.007850363 -0.109573565 -0.14114483
000270 41 6d 70 bb 7f c0 38 ba 9c 34 87 bc 89 41 0f 3e
       -0.0036686214 -0.0007047727 -0.016504578 0.13989843
000280 bb 24 bf 3d 51 8d 0a 3d d2 8b c3 bd 33 de e8 3d
       0.09333178 0.033826176 -0.09548153 0.11370506
000290 09 bf ad bc da 3c fa bd a1 15 1d bd 56 04 83 bd
       -0.021209257 -0.12218638 -0.038350705 -0.063973114
0002a0 5c e4 b0 3a b9 a0 3f 3c d3 bf 15 bd 2e 7f ea 3d
       0.0013495791 0.011696034 -0.03655989 0.11450039
0002b0 cb f3 44 bc cb f6 43 be 0d 62 d8 3d 67 3e c6 3b
       -0.012021015 -0.19137113 0.10565577 0.0060499194
0002c0 c1 14 12 bd 64 15 dc 3c 10 e0 e3 bd f8 7f 2c bc
       -0.035664324 0.026865669 -0.11126721 -0.010528557
0002d0 9e 48 bd 3c 40 ac 80 bd aa 8c 9f 3d f5 c6 bf bc
       0.023105916 -0.06282854 0.077905014 -0.0234103
0002e0 25 0c a5 bc e6 50 79 3b 05 bf 67 3d fa 5f 3c bd
       -0.020147393 0.0038042604 0.056578655 -0.045989968
0002f0 d3 c9 b8 3c b8 3e c4 bc 57 a8 5a ba 76 8d 3a 3d
       0.022557175 -0.023955688 -0.00083411246 0.045545064
000300 17 72 58 3c 83 67 71 3c cf fd b5 bc 51 48 8d be
       0.013210795 0.014734152 -0.022215752 -0.27594236
000310 a3 c9 74 bd 5f 04 95 bd 0f 74 ab 3d ec 3f 43 bd
       -0.05976261 -0.07276224 0.08371746 -0.047668383
000320 0d 71 39 bd e7 47 03 bc c8 54 f6 bc 11 7f 14 3e
       -0.04527383 -0.008012748 -0.030069724 0.14501597
000330 76 10 19 3e f4 c1 cf bd a8 ec 1a be b9 d3 c6 bc
       0.14947686 -0.101444155 -0.1512934 -0.02427088
000340 3b 4d 62 bc b1 bf 90 bd 22 4a 86 3d e0 9f 4b bc
       -0.0138123585 -0.07067812 0.065571085 -0.012428254
000350 30 1e 8c bd 2c 0a e7 bc 37 20 16 3e 85 47 42 bd
       -0.06841695 -0.028203093 0.14660726 -0.047431488
000360 27 76 b4 3d 21 6c 1b 3d 30 e5 41 3d ff 98 85 3d
       0.08811598 0.037944917 0.04733771 0.06523322
000370 0f 09 b9 bd cd 93 b7 bd 3f c8 bf bd ab e3 37 3d
       -0.09034931 -0.08963738 -0.09364366 0.044894855
000380 1c 9b 9f 3d c0 21 91 3d 89 22 0c bd 0c 72 dd bc
       0.07793257 0.070865154 -0.034212623 -0.02703192
000390 41 94 03 3d 33 24 88 3d 90 20 db 3d e9 fe 7d 39
       0.032123808 0.066475295 0.1069957 0.00024222922
0003a0 e5 86 1d bd ff 59 18 be c2 16 35 bd c9 95 0d be
       -0.038458724 -0.14878081 -0.044211157 -0.1382667
0003b0 95 f4 4f bd 00 14 d5 bc 73 49 90 bc 10 03 eb bd
       -0.05077036 -0.026010513 -0.017613148 -0.114751935
0003c0 04 c2 24 bd 1e 25 a2 bd 4f 63 b3 3c 81 8f 06 be
       -0.04022409 -0.07917236 0.02189794 -0.1314068
0003d0 54 4a 93 bd f4 96 6b bd 56 02 06 3c 44 4c 89 3d
       -0.07191911 -0.057517007 0.008179268 0.06704
0003e0 2b 83 f3 bd 5a f2 fd 3c d4 28 d7 bd 9f f4 4f bd
       -0.11890253 0.030999351 -0.10505834 -0.0507704
0003f0 75 f1 bb 3d 6e c9 05 3d f1 ae 92 3d 58 75 00 3a
       0.09176914 0.0326628 0.07162274 0.0004900298

GCN_Layers.0.W1.bias f4 [64]
000000 07 da 90 3d 77 b5 28 3d b5 40 ba 3c 7f 31 b0 bb
       0.070728354 0.041188683 0.022735933 -0.005376994
000010 a6 45 e6 3c c3 92 37 bd 78 6e d8 b8 79 db 14 3e
       0.028109383 -0.044817697 -0.00010320259 0.14536847
000020 77 1e 05 3e a8 35 e0 bd c6 4e 8c bd 98 a7 65 3d
       0.12999903 -0.10947734 -0.06850962 0.056068033
000030 73 79 8a bd ff 11 d7 3d 3c 52 02 3e e2 76 13 bd
       -0.06761446 0.10501479 0.12726682 -0.036002047
000040 d6 0c 60 3d 53 8a c3 3d eb 07 f9 3d 3b 42 ab 3d
       0.05469974 0.095478676 0.12159713 0.08362242
000050 3b 3f 02 3b 2b 8f 8a bd c0 63 8f 3c 23 69 94 bc
       0.0019874114 -0.067655884 0.01750362 -0.01811654
000060 22 d9 59 bc f8 11 d9 3d f9 f1 8b 3d 77 7c be bc
       -0.013296397 0.105991304 0.06833262 -0.023252709
000070 44 0b 81 3d 0e 1d c8 3c f4 1e b1 bc c1 5b fb 3d
       0.06300977 0.024427917 -0.021621205 0.1227336
000080 4a e7 68 3e 15 fa 10 bd 7e b8 9f 3d b3 31 ff bc
       0.2274448 -0.035394747 0.07798861 -0.031151628
000090 ee eb 30 bd 3e 0e 3c bc 59 4f e9 bd 64 18 52 3d
       -0.04319375 -0.011478005 -0.113920875 0.051292792
0000a0 0c 73 9b bc 01 3a cf 3d c3 3b 98 bd d9 d3 d6 bc
       -0.018975757 0.10118485 -0.07433274 -0.026224064
0000b0 0d 7b 93 3d 52 e7 5f bb 52 64 93 3c 2b 5a c4 3c
       0.072012044 -0.0034164977 0.017992172 0.023968777
0000c0 d9 45 05 3e 0b 0e 24 3e 4c 8b 4d bd 2e a7 01 3c
       0.13014926 0.16020982 -0.050181672 0.007913394
0000d0 f1 8b b9 3d dd 47 09 3d a6 dd e3 3c c3 41 7e 3d
       0.09059895 0.0335158 0.027815651 0.062074434
0000e0 79 1f 72 bd bf ad 5d bd b9 b5 ad bd b1 cb 48 bc
       -0.059112046 -0.054120775 -0.084819265 -0.012255595
0000f0 25 a6 c0 3d 67 f0 9b ba ce ed d1 3c 07 53 87 3b
       0.094066896 -0.0011897207 0.02562609 0.0041297707

GCN_Layers.0.W2.weight f4 [64, 64]
000000 b7 91 9e bb b0 16 3a bb 44 71 36 3b 83 a1 11 3a
       -0.004839148 -0.002839487 0.0027838508 0.0005555378
000010 29 38 56 3b 26 70 04 bb 10 03 bd bb 7d 5f 80 3b
       0.0032687283 -0.0020208447 -0.0057681873 0.003917633
000020 f1 d3 b1 bb 79 ed 89 3b 8d 21 03 bc f5 90 c6 3b
       -0.0054268767 0.004209217 -0.008003605 0.0060597607
000030 20 cf a9 bb 89 9d 6a bb de 9d 73 bb 69 4c d4 3b
       -0.005182162 -0.0035799465 -0.0037172954 0.0064788354
000040 57 33 8b ba ed b0 17 bc 90 16 5c bb b2 51 be 3b
       -0.0010620159 -0.009258491 -0.0033582784 0.0058080787
000050 5d f5 02 3a 58 d0 b3 3a e8 b0 d1 ba 1c 31 fd 3b
       0.00049956684 0.0013718707 -0.0015998157 0.0077268016
000060 d2 b1 0d bb 31 2b 44 bb fd a5 93 3b c8 4f 0c 3a
       -0.0021620882 -0.002993297 0.0045058713 0.00053524645
000070 28 d1 3f bb 37 dd 72 3a 78 c0 f2 ba 6a 36 65 ba
       -0.0029268954 0.0009264531 -0.0018520495 -0.0008743765
000080 6a 43 a4 3d 2f 73 32 3c 6f dd 8d 3d 5a 56 59 bc
       0.08020671 0.01089172 0.06927001 -0.013265217
000090 09 38 3c bd b7 1e 91 3c cd 75 c9 3d fa fc d2 3b
       -0.045951877 0.017714841 0.09836922 0.0064388486
0000a0 33 26 bc bd de 8c 10 bd d8 9d 45 bc 93 04 1a 3c
       -0.091869734 -0.03529059 -0.012061559 0.009400505
0000b0 c7 24 d0 bb e0 01 a9 3c 74 5d fd bc 56 1e 41 bd
       -0.0063520405 0.020630777 -0.030928351 -0.04714807
0000c0 ad f1 45 bd 9f f9 76 bd e5 96 8d 3b b8 57 4d bd
       -0.048326183 -0.06029665 0.0043209665 -0.050132483
0000d0 cb ab 8e bd f0 80 83 3d 71 61 4b 3c 28 c1 c3 bc
       -0.06966361 0.06421077 0.012413369 -0.023895815
0000e0 0b e9 37 bd 98 7d f6 bb 63 dc 95 3c 0f 99 76 bd
       -0.04489998 -0.007522296 0.018293565 -0.06020456
0000f0 31 d6 90 3d 9f d3 9e bb 60 9d 3e 3c ed 86 8e 3c
       0.07072104 -0.0048470045 0.011634201 0.017398322
000100 e6 c4 e0 b7 ad 00 4d ba da 0d 09 b9 58 cf 39 bb
       -2.6794569e-05 -0.000782023 -0.00013070498 -0.0028352346
000110 b9 0f c7 3a f2 11 2a 39 b9 33 d9 3b 98 5e 30 bb
       0.0015187181 0.00016219149 0.0066284803 -0.002691185
000120 16 d7 e8 3a 98 91 8f 3b cd 59 38 bb 53 98 b2 ba
       0.0017764296 0.00438137 -0.0028129697 -0.0013625718
000130 4f ff 00 39 3c 95 5d ba eb 69 00 3c 5b 6d 21 3a
       0.00012302141 -0.00084527186 0.007837753 0.0006157958
000140 d5 4e ad 3a ed 32 48 3b 70 50 56 3b 0d f6 cf 39
       0.0013222346 0.0030547932 0.0032701753 0.0003966544
000150 b2 f1 cb bb 65 b9 c2 3a 37 60 22 3a ad 33 e2 3a
       -0.0062238807 0.0014856277 0.00061941467 0.0017257832
000160 90 78 43 bb 69 fa 5b 3b c4 d2 cd ba d0 d9 1e bb
       -0.00298265 0.0033566004 -0.0015703072 -0.0024238713
000170 c4 b2 5d ba 19 33 a4 ba af cc 8c 3b da 1c 3c 3b
       -0.0008457119 -0.0012527435 0.004296861 0.002870372
000180 ed cb 31 bc 36 11 fc bd a6 5d cc bd d7 25 44 bd
       -0.010851842 -0.1230797 -0.099787995 -0.04788765
000190 c7 0b 13 bd f8 d6 83 3b 80 2e cd bc 98 9d 4a 3c
       -0.035899904 0.004023429 -0.025046587 0.012366675
0001a0 4f 83 f2 bc ff f0 02 3c 3a 9a ef 3b 25 28 7f 3b
       -0.029603628 0.007992028 0.0073120864 0.003893384
0001b0 73 25 33 3d ad 91 ea bb 77 03 29 bc 15 e7 ea 3c
       0.043736886 -0.007158479 -0.0103157675 0.028674642
0001c0 1d 6f bf bc 9a 2c 43 3d 1b c4 b7 bc d8 88 3c bd
       -0.023368413 0.047649957 -0.022432378 -0.046028942
0001d0 dd 3b 2c 3d 4d cc fc bb 37 d9 e4 bc 6f 19 97 bc
       0.042049278 -0.0077147842 -0.027935607 -0.018444745
0001e0 42 87 b7 bb 96 84 0c bd 3a 5e 26 3a a1 b8 86 3a
       -0.005600841 -0.03430613 0.00063464383 0.0010278412
0001f0 e5 52 5b bd 30 f6 16 3c f6 55 68 3c 08 ae 02 3d
       -0.05354585 0.009213969 0.014180651 0.03190425
000200 88 ab d4 3a 58 af d4 bb 9f 78 49 3b cf 3a 95 bb
       0.0016225437 -0.006490629 0.0030742062 -0.0045541297
000210 6e 71 64 3c 89 6f df bb 22 d1 32 bc a2 40 39 3c
       0.013943059 -0.006818716 -0.010914119 0.011306914
000220 06 80 0f 3b 09 8c 6c bc 4e e0 f4 3b 41 7c dd 3a
       0.0021896376 -0.014437684 0.0074730283 0.0016897992
000230 b4 3b 0a 3c 31 33 84 bb 3a e2 08 bc be 2a cc bb
       0.008437086 -0.004034423 -0.008354718 -0.006230681
000240 77 42 c8 3b 10 ee 60 bc af bb e2 bb e2 70 e0 3a
       0.006111439 -0.0137286335 -0.0069193463 0.0017123485
000250 49 e3 4f 3c 91 6f d6 3b 30 74 2e bb 45 83 d8 bb
       0.012688466 0.0065440615 -0.0026619546 -0.0066074454
000260 d1 28 0c 3b 3e 78 74 bc 5b 49 ac 3b 86 37 9a 3b
       0.0021386633 -0.014921246 0.005257768 0.004706326
000270 44 c5 d7 bb 95 a9 e1 3b 20 06 86 3b 5f fb 81 bb
       -0.006584795 0.006886671 0.0040900856 -0.0039667333
000280 46 b3 d3 3c be 0b b7 bd 1e 4b d3 bd 87 29 95 3b
       0.02584232 -0.089377865 -0.10317062 0.0045520696
000290 1e fc fd bc b9 10 87 3c 1e e9 6a bc 6c c4 d6 bd
       -0.031004008 0.016487466 -0.014337806 -0.10486683
0002a0 69 99 55 bc bb 52 b3 bc 62 3b 26 3c 07 37 0f 3b
       -0.013037064 -0.021890035 0.010145994 0.0021852867
0002b0 d3 95 9d bc 2a 88 4a 3c 29 4a 04 3d dd 88 b9 3d
       -0.01923648 0.012361566 0.032297287 0.09059308
0002c0 23 55 4f 3d 7f 92 19 bd db 6d c3 3c 55 7b 2f bd
       0.050618302 -0.037493225 0.023856094 -0.042842228
0002d0 a8 06 f1 bc 8c 0e d7 3c e3 23 33 3d c2 cb 89 3d
       -0.02942212 0.026252054 0.043735396 0.06728317
0002e0 e4 63 95 3d 68 bd 80 3d 62 03 4d bd d7 bd 4d 3c
       0.07294443 0.062861264 -0.050052054 0.012557468
0002f0 d6 a0 b6 bd c3 02 90 bd e0 ac de 3d 2b 4f d3 bd
       -0.08917396 -0.07031777 0.10872817 -0.103178345
000300 af 3b de 3b 37 3a f3 bb 76 b1 02 3c ce c1 4f 3b
       0.006782017 -0.0074227112 0.00797688 0.003170121
000310 e5 17 f1 3b 72 b0 92 3a 4d 81 d2 bc 14 3d 8c 3c
       0.007357585 0.0011191501 -0.025696421 0.017118968
000320 96 61 dc bb e0 d4 8e bc 8a 89 61 3b ae 5f 79 ba
       -0.0067255003 -0.017435491 0.0034414255 -0.00095128536
000330 5e 41 6a 3a dd b2 4f bc 15 62 20 bc ab b3 03 3b
       0.0008936132 -0.012676922 -0.00978901 0.0020096104
000340 a3 1c 93 bc 76 fd d0 bc 34 b6 3a bc 1c a7 b8 bb
       -0.017957991 -0.025511485 -0.01139598 -0.0056351554
000350 25 55 24 3c 9c 8e 65 ba 68 67 08 bc ce 47 90 bb
       0.010030066 -0.0008756907 -0.008325435 -0.004403091
000360 a4 dd a1 b9 e8 7d 96 bb 52 94 48 3c 62 1f 29 3b
       -0.00030873448 -0.004592646 0.012242394 0.002580606
000370 75 11 6d 3b 78 1a 89 3b ce 04 0a bc b9 a1 26 bc
       0.0036173735 0.0041840635 -0.008423997 -0.010170394
000380 51 27 18 bd 3c 21 48 bd b8 d7 44 3c b4 ae 8a 3b
       -0.03714687 -0.04885982 0.012014322 0.004232252
000390 0c e3 ed bc 5f dd 47 bd 6c 58 77 3d ed 09 6e bd
       -0.029038928 -0.0487951 0.06038706 -0.058114935
0003a0 26 1b 78 3b 84 f2 0a 3d f9 43 9b 3c 5d 18 b2 3d
       0.0037857979 0.033922687 0.01895331 0.08696053
0003b0 be 7c 22 bd 22 5c fd bc 49 e0 c0 bc 25 e0 39 bd
       -0.039669745 -0.030927721 -0.023544447 -0.045379777
0003c0 70 0a 19 bd 50 81 69 bd e4 f5 39 bc 13 09 a8 3c
       -0.03736347 -0.057008088 -0.011350129 0.02051214
0003d0 08 cc 49 bc b5 7d 56 3d 3f e3 56 bd 2e f0 0e bd
       -0.012316711 0.052365977 -0.052462813 -0.034897022
0003e0 83 6d 9d bd b6 61 30 3b 91 1a 89 ba c8 90 d8 3b
       -0.07686903 0.002691371 -0.0010460188 0.006609056
0003f0 d8 27 d7 3c 3f 6d bb bd 19 fa 5a bd 6d c9 01 bd
       0.026264116 -0.091516964 -0.053461168 -0.031686235

GCN_Layers.0.W2.bias f4 [64]
000000 8f 75 ae bc 6f 17 fa 3b 4c b0 a3 bd bf c7 cc 3d
       -0.02129629 0.007632188 -0.0799261 0.09999036
000010 a4 6c b4 bc d7 1f af 3c ba 92 f4 bd 7a c6 f4 3c
       -0.02202446 0.021377487 -0.11942048 0.029879797
000020 76 fc b7 3c 86 b5 5d bc 79 e5 81 bd 52 c6 88 bd
       0.02245925 -0.013532048 -0.063425966 -0.066784516
000030 78 70 d6 3d a1 fa 72 3d 32 8d c9 3a c6 3c 59 3b
       0.104706705 0.05932105 0.0015377162 0.0033147796
000040 ef 0f 2f 3c 43 2d 81 bd b4 43 23 bd 73 9c a0 3b
       0.010684951 -0.06307461 -0.03985949 0.0049014627
000050 c6 29 1f 3e 66 37 d8 bd cc 93 01 3e 0d 8d ad 3d
       0.15543279 -0.105574414 0.12654036 0.08474169
000060 46 a7 0e 3e 43 2a 96 bc bf 70 18 3e f3 1b 8a bc
       0.13930997 -0.018330699 0.14886759 -0.01685903
000070 39 23 89 3c b8 ee 30 bc 6c 65 01 3d fe 80 61 3d
       0.016740428 -0.0107991025 0.031590864 0.055054657
000080 67 14 00 3e 99 db 82 bc a1 fe 3b 3d 0b 90 89 3d
       0.12507783 -0.015973853 0.04589713 0.06716927
000090 88 27 99 bd 9b f3 95 3d d9 22 f9 3d 0e 97 9f 3c
       -0.07478243 0.07321855 0.1216485 0.019481208
0000a0 3c 4e d4 bd eb 3f 50 3d 57 23 28 bd 1e 1b 9d 3d
       -0.103664845 0.050842207 -0.041049328 0.07671188
0000b0 aa 8c 9a 3d 05 f6 d0 3d 3c 28 3a 3d 2a 13 5e 3d
       0.07546361 0.102031745 0.045448527 0.054217495
0000c0 74 08 00 bd 66 6a 25 bc 0c d3 e6 3d 99 01 0c bd
       -0.03125806 -0.010096168 0.11270723 -0.03418121
0000d0 96 1e 9d 3d 91 ab 8f bd 3c c5 9c 3d 8d b3 a1 3d
       0.076718494 -0.070151456 0.07654807 0.07895575
0000e0 41 68 1b bd 78 c3 0a 3e 10 15 90 3d 09 df d9 3c
       -0.03794122 0.13551128 0.07035267 0.02659561
0000f0 54 e9 bf bd b9 4f df 3d 10 72 ba 3b 1c 3c a2 3b
       -0.09370676 0.10903878 0.005689867 0.0049510133
