lab4-student/code/model/bestModelParms-12-30-17-31.pth (torch, 498345 bytes, 20 tensors)

user_id_embedding.weight f4 [900, 32]
000000 6b 74 d4 3f 54 85 ba be 1c df 63 bf 48 78 d3 3c
       1.6598028 -0.36429846 -0.8901231 0.02581419
000010 21 ee 99 be 9c 79 54 3e 75 e7 b4 bf 04 45 46 bf
       -0.3006449 0.20749515 -1.4133135 -0.7744906
000020 da 04 b1 be db 3f a4 3e bc 7a f6 3e 80 9b 5b 3e
       -0.34574014 0.32079968 0.48140514 0.21446037
000030 93 68 5e 3e 42 02 2a 3f ed 21 85 bf 2d 90 78 bf
       0.2171958 0.66409695 -1.0400978 -0.97094995
000040 b1 0a e6 bf f1 05 e6 3e 91 ae 8d 3d 14 0f 53 bf
       -1.7972013 0.44926408 0.069180615 -0.8244488
000050 b6 63 68 be 2a b5 4b 3e e1 78 1e bf 61 e9 ad bf
       -0.22694287 0.19893327 -0.61903197 -1.3586847
000060 86 5b e9 bd c0 57 33 bf 8c 15 69 bf 0e 4e 02 be
       -0.1139441 -0.7005577 -0.910485 -0.12725088
000070 da 00 61 3e 6c ab 97 be 75 8b b7 3e 6d 52 bb 3d
       0.21972981 -0.29622972 0.35848585 0.09146581
000080 79 81 ca 3c 72 5a 8b 3f a8 1d 63 be fd 5b 63 3f
       0.02471994 1.0886977 -0.22179282 0.8881224
000090 0b 5b 97 3e cf 4f 87 bf 76 a0 30 be 41 d6 0c bf
       0.29561648 -1.0571231 -0.17248711 -0.55014426
0000a0 c7 f1 73 3b 1f c0 28 be 50 40 6a 3f 1c 65 45 bb
       0.0037222968 -0.16479538 0.91504383 -0.003012008
0000b0 d3 82 89 bd 24 85 02 bf 9a 9c 49 3e 3d be 2e 3f
       -0.06714406 -0.50984406 0.19688645 0.6825903
0000c0 a0 41 60 bf 6e 1f 20 3b c6 e4 41 bf 62 f5 57 3e
       -0.87600136 0.0024432796 -0.75739706 0.210897
0000d0 ad f4 71 bf cc 5a da 3e 0e e0 ca 3e cc 2f e0 3f
       -0.9451397 0.42647398 0.39624065 1.7514586
0000e0 87 f4 0c c0 eb 94 b4 3f 38 bd 92 bf fe 52 71 bd
       -2.2024248 1.4107946 -1.1463995 -0.05891704
0000f0 a6 62 59 3d 44 7a e5 3f f4 60 5a 3f 08 02 71 3b
       0.053072594 1.7927938 0.8530419 0.0036774892
000100 58 03 0e bd 5a b1 33 bf fb 67 13 bf e4 e6 d4 3c
       -0.034671158 -0.7019249 -0.57580537 0.025989003
000110 7c 63 62 bd 10 68 77 3f 62 95 0b bd 35 4c 61 be
       -0.055270657 0.9664316 -0.03407801 -0.22001727
000120 82 2e ab 3f ac ca da be f6 c8 94 be 55 1c 00 3d
       1.3373568 -0.4273275 -0.2905957 0.03127702
000130 c1 cd cb bf 96 d6 c9 be 16 e9 a9 bc f9 31 35 bf
       -1.5922166 -0.3942153 -0.020741027 -0.7077938
000140 e7 63 41 3f 82 8e d3 be 19 63 be bf ed 6f 45 3f
       0.75543064 -0.41319662 -1.4873992 0.7712391
000150 f7 cc 05 3d 87 fc 18 bf f0 6f 7a bf 2e 33 08 3f
       0.032666173 -0.59760326 -0.97827053 0.53203094
000160 18 14 60 3b 34 79 90 3f ea 9b f9 be d0 f4 c0 be
       0.0034191664 1.1286988 -0.48751765 -0.37686777
000170 7d 29 3c bd d0 c2 41 3c 65 83 9a 3e ec 4d 92 bf
       -0.045938004 0.011826232 0.3017837 -1.143003
000180 1b e4 af 3f fb f5 56 3f 97 4a ea 3e f0 2c 06 3c
       1.3741487 0.83969086 0.45760033 0.008189425
000190 1d db a7 3f 41 5a 13 bf 8a 95 14 3f 9d e7 9f be
       1.3113743 -0.5755959 0.5804068 -0.31231394
0001a0 75 c6 9c bf 0b da 60 bf 47 0c 82 3f 90 94 55 3f
       -1.2248064 -0.8783271 1.0159997 0.83429813
0001b0 87 15 79 3f d3 25 a3 3e e6 b1 d9 be 77 b0 e9 3e
       0.97298473 0.31864795 -0.42518538 0.45642444
0001c0 75 82 64 be ed 41 85 3c 09 05 4e bc eb 40 73 3f
       -0.2231539 0.016266787 -0.012574443 0.9502093
0001d0 fd cb d8 3c 25 12 92 be d3 cd 67 3e 46 97 11 bf
       0.026464457 -0.28529468 0.2263711 -0.5687145
0001e0 4b e8 28 bf fc c1 e5 bb 9f 58 01 3b bf fb b3 3f
       -0.6597945 -0.00701165 0.001973666 1.4061202
0001f0 4b 83 d4 3c 5b 8c c2 bc b3 67 d5 3e 8a 77 29 be
       0.025941512 -0.023748567 0.4168068 -0.16549507
000200 9e f6 fe bd ca d8 f2 3d ac 3b 21 bf 9a 25 45 bf
       -0.12449382 0.118577555 -0.6298168 -0.770105
000210 e0 ba e6 3c ca 23 ba 3f cc da ac 3f f3 78 07 3f
       0.02816528 1.4542172 1.3504272 0.5291893
000220 09 da 02 3c d6 d8 88 bf d1 09 86 be 55 6d 61 bf
       0.007986554 -1.0691173 -0.26179364 -0.8805745
000230 be 7e 59 bd 46 2d 6a 3f d2 12 5d 3f 37 19 11 3f
       -0.053099386 0.9147533 0.8635684 0.566791
000240 48 f2 b0 bc bc f0 0b 3f 06 b8 97 be d1 cc 90 be
       -0.021599904 0.54664207 -0.29632586 -0.28281263
000250 fa 39 8a be 62 bd 98 bd fa c0 04 3e 14 b2 2e 3c
       -0.26997358 -0.07457997 0.1296424 0.010662574
000260 6c f7 04 bf a3 de 4f 3f 9e 77 5f bf 60 f0 87 3f
       -0.51940036 0.8119909 -0.87291896 1.0620232
000270 58 2c 67 be f8 88 28 3f 1c e2 a5 3f 24 27 2b 3f
       -0.2257551 0.65834 1.2959628 0.668566
000280 d3 3e 84 be 15 81 bc 3e 8b 3f db bf d0 43 ad bf
       -0.2582918 0.36817232 -1.7128767 -1.353632
000290 01 f1 70 bf a8 f0 99 3e 2b 17 e2 3f f5 20 4d 3f
       -0.9411774 0.3006642 1.766332 0.80128413
0002a0 39 aa b0 be 98 f4 93 bf 17 da 81 bf 23 82 fe bd
       -0.3450487 -1.1559019 -1.0144681 -0.12427165
0002b0 f3 a6 de bf f3 0c ef 3f fa 68 79 bf bd 56 c7 bd
       -1.7394699 1.8675827 -0.97425807 -0.09733341
0002c0 1d 14 dd 3d 16 07 c8 bd bd 9c c5 3f 87 22 29 bf
       0.10794852 -0.097669765 1.5438458 -0.6606831
0002d0 a3 ea 92 bd 5e 09 3a 3f de b6 d9 bd b9 d2 8c 3c
       -0.0717366 0.72670543 -0.10630582 0.017190324
0002e0 06 6a ac bf 73 27 1a 3e 1f c2 da bf 1b 26 31 bd
       -1.3469856 0.15054111 -1.7090491 -0.04324923
0002f0 e0 60 26 3e cb f9 a7 bc 1d 2c 84 3f 0a 62 1b 3f
       0.16247892 -0.020504853 1.0325962 0.6069647
000300 85 19 25 3f 9d 47 8f bf 29 07 62 3e 98 d3 66 3f
       0.64492065 -1.119373 0.22073044 0.90166616
000310 2f 0b 5d 3f 6a 30 bf bf ce e0 c2 bf 95 62 45 3f
       0.8634519 -1.493665 -1.5224855 0.7710355
000320 10 9a 18 bf b0 07 32 be ef b8 76 3f fb c7 6f 3c
       -0.5961008 -0.17385745 0.96375936 0.014635081
000330 ff da 3d 3f d5 9d 67 3f f2 09 06 c0 e6 3b 6f be
       0.74162287 0.9047521 -2.094357 -0.23362693
000340 20 5d 2b 3e 7e 2f 3b c0 77 d4 22 bf 42 43 84 bf
       0.16734743 -2.9247737 -0.63605446 -1.0333025
000350 43 33 48 be 77 2a 46 3c 68 9b 68 bf e0 95 91 3d
       -0.19550805 0.012095085 -0.9086213 0.071086645
000360 49 31 f6 bc b4 c8 3e 3f 66 16 7c bd 0d d5 88 bf
       -0.030052798 0.74525 -0.0615448 -1.0690018
000370 6a 34 c7 bf e1 40 cb 3d 5d 9c 16 40 65 8f 9f 3a
       -1.556287 0.09924484 2.3532937 0.0012173472
000380 0b 93 42 3f 78 f2 a6 bc 9c 85 ac 3c 59 c8 f4 3e
       0.7600562 -0.02037929 0.021059804 0.47809103
000390 21 85 0e 40 9c d9 14 bf 32 7b e5 3e fd 2b c5 bd
       2.2268755 -0.58144546 0.44820553 -0.09627531
0003a0 6b 32 84 3d ad 43 84 3f 96 6e e4 bf d2 54 06 bf
       0.06454929 1.0333153 -1.7846248 -0.52473176
0003b0 31 ee b6 bc 4a ba 18 3f a1 38 54 be 7c 8f a5 3f
       -0.022330375 0.59659255 -0.20724727 1.2934413
0003c0 cb ca 1c bf a3 51 3f bf 27 53 9c bf cf d3 5c be
       -0.6124694 -0.7473394 -1.2212876 -0.21565174
0003d0 31 bb 9b 3f b3 a9 29 bf 41 9e 7b 3f 0a d0 eb bd
       1.2166501 -0.66274565 0.9828835 -0.1151429
0003e0 61 81 48 be 72 45 78 3c 90 e4 55 bc c2 cb 11 bd
       -0.19580604 0.015153276 -0.013054982 -0.03559471
0003f0 71 43 c6 3e b5 46 4f bd 7a 95 1d 3f 98 d0 cc bf
       0.3872333 -0.05060454 0.6155621 -1.6001158

user_age_embedding.weight f4 [5, 4]
000000 26 0f 24 3f 09 98 05 3f 07 53 e2 bf f9 80 9f 3f
       0.64085615 0.5218511 -1.7681588 1.2461234
000010 c4 dd 25 3f 38 c9 e9 bf 75 00 1b bf df a3 00 3f
       0.6479151 -1.8264532 -0.6054757 0.5025005
000020 75 3d c2 3e 4d a4 fa be f2 d9 20 3e 20 0b 23 bf
       0.37937513 -0.48953477 0.1570814 -0.6368885
000030 fa 43 b9 3f 81 f4 21 3f 63 1e 81 3f 50 70 e1 3e
       1.447387 0.6326371 1.0087398 0.44031
000040 b0 c7 bf bd 82 46 f6 3e fa dd a1 3f 98 89 ca bf
       -0.09364259 0.48100668 1.2645867 -1.582324

user_gender_embedding.weight f4 [2, 2]
000000 98 e3 57 3d b2 72 9f 3e b3 fa d1 bf 81 48 d2 3e
       0.052707285 0.31142193 -1.6404632 0.4107094

user_occupation_embedding.weight f4 [21, 8]
000000 b0 b4 56 3e 4c 81 8e 3f 64 ff 68 bf c8 5e 33 3e
       0.20967364 1.1133208 -0.91014695 0.17516625
000010 8a 21 48 3f 35 48 d6 3e fc 8d f7 3f f9 72 8b 3f
       0.78176177 0.41851965 1.9340205 1.0894462
000020 84 37 6c bd b3 32 c4 bf 07 8c 5c 3f 2d 3c 05 bf
       -0.05767013 -1.5327972 0.86151165 -0.52044946
000030 34 63 b1 bf b5 3f 13 3f 79 dc dc be c9 b9 01 bf
       -1.3858399 0.57519084 -0.43136957 -0.5067411
000040 e5 85 81 3f b8 43 59 bf f8 15 a6 3f eb db c0 3e
       1.0118986 -0.84868956 1.2975454 0.37667784
000050 05 1b 74 3f 1f fa 74 bf ff db d1 be ee 56 2d 3f
       0.9535373 -0.95694155 -0.40988156 0.6771077
000060 72 09 16 40 dd c2 f6 3d 2d a8 ef bf 42 c0 07 40
       2.3443265 0.12048886 -1.8723198 2.1211095
000070 30 03 37 3e 73 65 c3 bd c7 59 51 bf 87 3b 53 bf
       0.1787231 -0.09540834 -0.81777614 -0.82512707
000080 f5 e5 24 3f 01 17 9b bf aa 7e 54 bf ab 3c e2 3e
       0.64413387 -1.2116395 -0.83005774 0.4418691
000090 d2 58 1b 3f b2 7c 96 bf 98 5f 11 3f 8f a1 99 bf
       0.60682404 -1.1756804 0.5678649 -1.2002429
0000a0 75 ea b5 bf 4e bd e2 be c1 f4 76 3d 77 c2 2c be
       -1.4212176 -0.44285053 0.06029201 -0.16871057
0000b0 a3 ee 9b be 23 7c ab bf 34 95 31 3f e0 47 c6 be
       -0.30455503 -1.3397259 0.6936829 -0.3872671
0000c0 ef d2 b4 3e 80 db 1a c0 1b 7f 1a 3f 56 bd e8 3e
       0.3531718 -2.4196472 0.603502 0.45456952
0000d0 d7 32 38 bf 6c 70 4a 3f 9f 14 61 3d 0b 67 33 3f
       -0.71952575 0.7907779 0.054951306 0.70079106
0000e0 1e 02 2b 3e 13 ca 35 3f 1f 92 49 bf 6a c6 85 3f
       0.16700026 0.71011466 -0.7873859 1.0451176
0000f0 d0 1d b0 be 4b 6a 6a 3e 39 79 3f 3f 86 10 3d 3f
       -0.34397745 0.2289211 0.74794346 0.7385334
000100 09 1f ef bd 1f 76 6b bf fd 70 1a 3f 06 52 c6 3d
       -0.11675841 -0.91977113 0.60328656 0.096836135
000110 af 90 cc be 52 4f 97 bf fa 3f 75 3f fc 62 ac be
       -0.39954135 -1.1821082 0.95800745 -0.3366927
000120 80 4a 79 3f 76 cb c0 be cf 96 33 3e 8d df 44 bf
       0.973793 -0.37655228 0.17537998 -0.7690361
000130 78 71 06 bf cf 41 b1 be 9e ba 9c 3f 99 8e 2a 3f
       -0.5251689 -0.3462052 1.2244451 0.66623837
000140 af 17 ec bc 72 dc 38 bf 24 88 d0 3e 99 51 0c bf
       -0.028819887 -0.7221137 0.40728867 -0.5481201
000150 30 f8 4f 3f 02 06 1a bf 6c c0 75 bf d3 dd 58 bf
       0.8123808 -0.6016542 -0.9599674 -0.84713477
000160 6a a0 10 bf 38 c6 83 bd 51 0d 43 3f 29 28 cd bd
       -0.5649477 -0.064342916 0.76192194 -0.100174256
000170 e4 20 b6 3f 7c a5 17 bd 0c 19 3b bf 94 6a f3 3e
       1.4228787 -0.037023053 -0.73085093 0.4754225
000180 1f 20 ed 3f b4 42 d0 3f 12 b9 84 3f 2b eb 89 bf
       1.8525428 1.6270356 1.0368979 -1.0774893
000190 41 2d 47 bf 79 b0 56 bd 45 00 f1 3c a0 3f 56 bf
       -0.77803427 -0.05241439 0.029419074 -0.83690834
0001a0 a5 2a 7b 3e ad 06 82 bf e7 16 33 3f d8 6d 2d be
       0.24527986 -1.0158287 0.6995682 -0.16936433
0001b0 6f fd 1a 3f d4 b2 9e 3f d7 05 1a 3e 52 87 21 3f
       0.6054296 1.2398324 0.1504129 0.6309711
0001c0 72 a8 7f 3e dd 9c a3 3f 5d d2 3c 3f fc 71 47 be
       0.249666 1.2782246 0.7375849 -0.19477075
0001d0 04 ed f8 be 6e c4 7f bf da 6d 00 3e bf 58 88 be
       -0.4861833 -0.999091 0.12541905 -0.26630208
0001e0 3d db 52 3f 72 06 88 3f 87 26 30 be bf 36 e9 be
       0.8236578 1.0626967 -0.17202197 -0.4554958
0001f0 b1 11 3c be 8a c2 f6 3f 57 18 33 3f eb 48 39 be
       -0.18366124 1.9278119 0.69959015 -0.18094222
000200 cc 00 29 3e 1e 13 19 bc 96 da 4c bf a9 73 f1 be
       0.1650421 -0.009342937 -0.80021036 -0.47158554
000210 60 8f 26 bf 34 98 ec ba e7 cc 37 bd c5 f8 05 3f
       -0.6506252 -0.0018050731 -0.044873144 0.5233272
000220 99 bf 8c 3f 0b 45 a0 3e cd db ea bf e5 ed 1d bf
       1.0995971 0.31302676 -1.8348328 -0.61691123
000230 43 af b6 3f 51 39 43 bf a4 5b be 3f 01 6e eb 3d
       1.4272236 -0.7625933 1.4871716 0.11495591
000240 3a 0c 3b 3d 69 4e 1c be c7 0b ac 3f 70 1a 7c bd
       0.045665957 -0.15264286 1.3441094 -0.06154865
000250 d1 6d c1 3d e1 dd ac bf 13 fa ac be 2c 4f d4 be
       0.09444774 -1.3505212 -0.3378454 -0.41466653
000260 43 0b 97 3f e0 12 69 3f 17 31 2b c0 4a a9 71 bf
       1.1800312 0.91044426 -2.6748712 -0.9439894
000270 0b 34 fe be 42 d7 52 bf 05 64 5f 3f 50 ff ba 3e
       -0.4964908 -0.8235971 0.8726199 0.36522913
000280 b0 f4 1e be ec dc a8 bf 4e ec 02 3f ef 1a 45 bf
       -0.15523028 -1.319242 0.5114182 -0.7699422
000290 fa ce 26 bf de ce 22 bf cf 92 7c be c6 fe 40 3f
       -0.6515957 -0.63596904 -0.24665378 0.75388753

user_location_embedding.weight f4 [760, 18]
000000 76 12 8b 3e a1 f6 90 be 6a 2b db be 0f 56 57 bf
       0.27162522 -0.28313163 -0.4280656 -0.8411569
000010 1e d9 74 3f e3 4a 6b 3f a8 a1 04 3f e6 7d 84 3f
       0.95643795 0.91911143 0.5180917 1.0350921
000020 d0 cf 49 bf bf b8 51 3a f8 2a 0c bf ad 93 18 3f
       -0.7883272 0.00080002466 -0.54753065 0.59600335
000030 c2 0b 00 bf fd f6 62 bf e5 eb aa 3e 40 a6 56 bc
       -0.5001794 -0.88658124 0.33383098 -0.0131011605
000040 68 5f b9 3f 4e 1f 96 be 44 68 88 bb 55 78 c8 be
       1.4482241 -0.2932076 -0.00416282 -0.39154306
000050 40 2b e8 bc f6 aa c0 3e 73 24 96 bc 6b 3b 43 3d
       -0.028340936 0.37630433 -0.018327927 0.047664087
000060 f1 7c 5f 3d 56 fb dc 3e ba 86 9d 3d 0f c2 83 bf
       0.054562513 0.43160504 0.07691713 -1.0293597
000070 9c 81 83 3f ed 20 56 3f 49 84 3d 3f 0b ed 71 bf
       1.0273929 0.8364399 0.74029976 -0.94502324
000080 69 79 22 3f 74 dd b5 bc cb 8b 1e 3a ea 75 43 3e
       0.6346651 -0.022200324 0.00060480525 0.1908795
000090 25 db ea bd 9c ab 4b 3f fb 20 27 bf 77 7d 26 bf
       -0.1146758 0.7955873 -0.652847 -0.65035194
0000a0 66 b5 83 bf b5 a6 0e bf 71 ab 00 bd c9 aa 39 3f
       -1.0289733 -0.55723125 -0.0314135 0.7252622
0000b0 da 64 c9 bd a8 8c c3 3f be ec 3c bd 59 6b b7 3f
       -0.09833689 1.52773 -0.046124212 1.4329635
0000c0 1c b9 4a 3f ec c4 67 bb 5e 97 41 3d 81 ec 54 40
       0.79188704 -0.0035365177 0.047263496 3.326935
0000d0 62 d8 d7 be 71 a6 ee 3e 41 08 31 bf 30 0d ad 3e
       -0.42157274 0.4661136 -0.6915322 0.33799124
0000e0 31 ca 58 3c 4d 01 63 be 0e ad d3 bf b7 c5 bb bf
       0.0132318 -0.22168465 -1.6537187 -1.4669713
0000f0 fa 1b d7 3f 6f 23 24 3f 19 2b 20 bf 89 56 9a 3f
       1.6805413 0.6411657 -0.6256576 1.2057658
000100 4c f9 2e 3f b6 14 d5 3f 7a 87 91 bf 55 f9 2f 3f
       0.68349147 1.6646945 -1.1369469 0.68739825
000110 e1 1e 60 bf 03 be 8b 3d d8 2a 2a 3e 9b 59 bc bc
       -0.8754712 0.06823351 0.16617906 -0.022991946
000120 d6 40 b5 be 5e 66 80 be d6 08 fc be f1 1d 97 3c
       -0.35401028 -0.250781 -0.4922549 0.018446894
000130 62 20 69 bf 25 df 35 3f 8c a2 2a bf e1 95 c8 bf
       -0.9106504 0.71043617 -0.66654277 -1.567074
000140 ec a1 f8 bd 79 59 e2 3d b8 29 b6 bf 38 57 a8 3f
       -0.12140259 0.11052222 -1.4231482 1.3151617
000150 1e 68 8e bf 2f 5d fa bf 2a 64 5e bf fc 61 10 3f
       -1.1125524 -1.9559687 -0.8687159 0.5639951
000160 b2 0a f5 3d ec 29 da 3e e8 0b b5 3d 77 c5 50 3f
       0.119649306 0.4261011 0.088401616 0.8155131
000170 0b 09 dc be 58 54 1f bf c2 36 0f 3d ab 4d 08 bf
       -0.4297565 -0.62238073 0.03496433 -0.5324351
000180 5a 5f 2b bc 58 02 34 bf cb 81 92 3f f1 8b 37 3e
       -0.010459745 -0.70316076 1.144586 0.17924477
000190 3b 66 1d bd 06 d3 a8 3f de 5b b0 bc 6e 2b f0 3e
       -0.038427573 1.3189399 -0.02152818 0.46908134
0001a0 3c b4 c7 be 42 30 01 be 02 ed 03 3f 7e 84 4e 3f
       -0.39004695 -0.12616065 0.5153352 0.8067092
0001b0 3b a8 9f bf a8 d5 76 bf 7c 80 aa bf 23 f3 9d 3a
       -1.2473215 -0.96419764 -1.332046 0.001205061
0001c0 83 f8 13 40 21 91 1d bf 3f fd f7 3b 62 c2 4f 3f
       2.312043 -0.61549574 0.007568031 0.8115598
0001d0 6c a7 fa be 58 07 31 3e 72 bf 98 bf 96 ad 9c bd
       -0.48955858 0.17287958 -1.1933424 -0.076502964
0001e0 16 5b f8 be 6f ff 0f bf c8 1e a1 3e 22 99 13 be
       -0.48506993 -0.56249136 0.31468797 -0.14413884
0001f0 dd fa fb bc 38 bb e2 bd e7 aa 19 40 20 74 b8 3e
       -0.03075927 -0.110708654 2.401056 0.36026096
000200 8e ca 2c c0 a4 ca 40 bd 53 e3 88 3a 86 40 f7 be
       -2.699863 -0.047068253 0.0010443724 -0.48291415
000210 aa f3 97 3d ec e4 87 3d f7 2c 12 40 4b ed bc 3a
       0.07419522 0.0663546 2.2839944 0.001441398
000220 f8 f1 21 3c ab 67 ba be db 71 c7 bf d3 43 cd 3d
       0.00988435 -0.36407217 -1.5581621 0.10022702
000230 32 8b 23 3f 7c 9e eb 3b 2f 11 9f be 7c 9b de bf
       0.6388427 0.0071905237 -0.31067798 -1.73912
000240 d9 c5 2f be 2e 81 4d bf 26 55 ec be 3c 9c 8f bf
       -0.17165317 -0.8027524 -0.46158713 -1.1219554
000250 5f d4 1f bf 04 c2 a8 3f 89 1b 0d bf bd b8 6e be
       -0.6243343 1.3184209 -0.5512014 -0.2331266
000260 53 b9 6d 3c 20 b1 87 3e 81 98 5d 3f 54 51 88 3f
       0.014509517 0.26502323 0.8656083 1.0649819
000270 66 35 fd be fa 36 71 be c1 c0 9f 3c e3 31 e9 be
       -0.49454802 -0.23556128 0.019501092 -0.45545873
000280 d0 1b c7 3c 9d d6 7a 3d d3 4c ff be db c1 a2 3d
       0.024305254 0.061239827 -0.498633 0.07947131
000290 95 3c c8 bc 7e 2a bc bd 63 16 77 3f 20 18 e8 3e
       -0.02444295 -0.09187792 0.96518534 0.45330906
0002a0 96 9a 96 bf 7e 55 da 3c 3c 49 6c 3f 70 29 fb 3f
       -1.1765926 0.026652094 0.92299247 1.9622021
0002b0 67 a5 9f 3c 47 91 54 3e b5 c6 2d 3e 70 4c e5 be
       0.01948805 0.20758544 0.16970332 -0.4478488
0002c0 7f 7e 45 bb fa b2 c1 3c b7 e9 94 bf 07 fb fa 3c
       -0.0030135212 0.023644913 -1.1633824 0.030637277
0002d0 5f 43 22 3c 57 85 85 3f f5 2f 92 bf c5 0c 70 3f
       0.009903758 1.0431317 -1.1420885 0.93769485
0002e0 02 0d b7 3f 92 66 35 3f f0 33 7b be d6 3f 00 40
       1.4300845 0.70859635 -0.24531531 2.0038962
0002f0 26 c6 a7 bf ae 2d ae 3f eb 4a 8c 3f 64 27 4c bd
       -1.3107345 1.360769 1.0960363 -0.049842253
000300 96 5d 85 be ea b8 43 3d 00 2c 3f bf 10 73 7c 3f
       -0.26047963 0.04778377 -0.74676514 0.9861307
000310 47 bb ba bd 80 5b 0a c0 ea 05 55 be 0e be ab bf
       -0.091177516 -2.1618347 -0.20803037 -1.3417375
000320 d9 d6 28 3f a0 a3 26 3f 0e ea 09 bf c8 99 02 3f
       0.6595283 0.6509342 -0.53872764 0.510159
000330 90 4a b4 be 9c 88 d1 3e ec 57 50 3f e4 6f 04 bf
       -0.35213137 0.40924537 0.8138416 -0.5173323
000340 34 44 5a be 22 f9 88 bf ea e1 98 3f b9 b7 e2 be
       -0.2131508 -1.0701029 1.1943944 -0.44280794
000350 00 ef a2 3f 77 7e c7 3f ff da 5f bf d2 ee c6 3f
       1.2729187 1.5585469 -0.87443537 1.5541632
000360 31 51 e3 be 02 4b cd bf 5c 69 68 bf 5c ec 20 3f
       -0.44397882 -1.6038516 -0.90785766 0.62860656
000370 29 72 15 40 4e 59 33 40 bb 2b 86 bf 01 3f 46 3f
       2.3350928 2.8023257 -1.0482095 0.77439886
000380 61 38 17 bf 37 80 e9 bd 4f 91 87 3d 69 f4 dc be
       -0.590704 -0.11401408 0.06619512 -0.4315522
000390 33 c8 29 bf b7 2e f6 bd 43 76 25 bf 77 53 90 bf
       -0.66321105 -0.12020629 -0.6463358 -1.1275471
0003a0 ff e0 b8 bc 24 86 4b bf 79 a3 f0 3d c8 67 74 bf
       -0.022568224 -0.7950156 0.1174993 -0.9547086
0003b0 a9 1b fd 3e 89 77 5b 3e 53 04 3b be a4 f6 b9 bd
       0.49435166 0.21432318 -0.18263368 -0.09080246
0003c0 32 71 81 3e 7a 1f 00 3f ed cf 63 3f c1 4e 41 40
       0.25281674 0.5004803 0.88989145 3.0204318
0003d0 46 95 ba bf 95 3b d9 bf fa b7 03 bf f7 4a 2a 3c
       -1.4576805 -1.6971308 -0.514526 0.01039385
0003e0 c0 99 de be ed 30 2b bf 6b 8a 82 3f 13 0f c3 be
       -0.43476677 -0.6687153 1.0198492 -0.38097438
0003f0 9f 37 96 bf 2f 4f f1 3f d0 be 5e be 9f 60 d3 be
       -1.1735724 1.885229 -0.21752477 -0.41284654

item_id_embedding.weight f4 [1600, 32]
000000 aa 50 ed 3e 4b 1d e1 bd d1 9e 7f 3e d6 06 e0 be
       0.46350604 -0.10991915 0.24962927 -0.43755215
000010 57 9c 88 3f 62 ce 00 c0 8e 3b 69 3f 36 af ea 3c
       1.0672711 -2.0125966 0.911065 0.028648
000020 d8 fe c9 3d 73 4c 5b 3f 09 f0 a1 3d bb e0 cc 3e
       0.09863061 0.8566353 0.07907111 0.40015206
000030 95 bd f5 3e 48 75 bb bc 4e cb 44 bf 98 52 36 3e
       0.47996202 -0.022883072 -0.7687272 0.17804945
000040 21 18 51 3e 06 26 7c 3f c5 af 73 bf 08 b1 a2 3f
       0.2041936 0.9849552 -0.9519008 1.2710276
000050 9f 2e 7b be f3 30 c1 3f fb bf 49 bf b9 5f 93 3f
       -0.24529503 1.5093063 -0.78808564 1.1513587
000060 52 d8 00 be 4a 71 d6 3e 54 49 ea bd 99 9d d5 3e
       -0.1258252 0.41883308 -0.114397675 0.417218
000070 bd c1 1a bf 54 1c a2 be 32 e9 19 3f 3b 5c d5 3e
       -0.6045187 -0.31662238 0.6012145 0.4167193
000080 c0 74 69 3b a2 aa 8f bf a8 0a 37 be 8a 24 26 3f
       0.0035622567 -1.1223948 -0.17875159 0.64899504
000090 54 ce b0 3e 28 76 96 bd 72 da 0b bf 8d 37 35 3f
       0.34532416 -0.07346755 -0.54630196 0.7078789
0000a0 12 8d 23 be cc be 28 3f 69 1f b7 bf 02 aa a8 3a
       -0.15971783 0.6591613 -1.4306461 0.0012868049
0000b0 9c 02 de 3b 23 65 4a 3d ff 35 d0 be 16 e7 80 be
       0.0067752134 0.049412858 -0.40666196 -0.25176305
0000c0 d8 d5 cc bd c9 bd c3 bc 36 8a 3e bf e5 db db be
       -0.10001725 -0.023894208 -0.74429643 -0.42941204
0000d0 67 ff 5b 3f 83 7d 9e bc b6 b2 a4 bf 51 89 74 3f
       0.8593659 -0.019346958 -1.2867038 0.9552203
0000e0 79 6f c1 bc 7d 4b 46 3f ad 01 9f 3f d2 e9 59 3c
       -0.023612725 0.77458936 1.2422386 0.013300376
0000f0 99 18 21 3f c2 ef 12 3f 91 26 a7 bb cf bd 90 bc
       0.6292816 0.5739709 -0.005101033 -0.017668633
000100 cd 72 96 be 77 7f ee be 64 d0 62 be 76 b7 a2 3e
       -0.2938446 -0.46581623 -0.22149807 0.31780595
000110 e9 5d 23 3f da 84 a5 3d fd e4 21 bc 69 90 dc be
       0.6381517 0.0808198 -0.009881255 -0.43078926
000120 da e7 95 3f 41 ac 82 bf 84 b1 a5 be a9 cf dc 3e
       1.171138 -1.0208818 -0.32361996 0.43127182
000130 03 0f f4 be f1 bf 6b bd fd 1a a2 bc 60 b8 61 3b
       -0.47667703 -0.057556096 -0.01978826 0.0034442171
000140 de ad c4 bd 48 c4 bf be 2d 05 62 bf e7 55 26 bf
       -0.09603475 -0.37454438 -0.8828915 -0.64974827
000150 c5 6b 29 3f f6 f4 74 bf a8 d1 a3 3f e5 4d 39 bb
       0.6618007 -0.9568628 1.2798357 -0.0028275189
000160 bc e5 94 be 99 45 c5 3f 53 d3 85 3e 4e c0 f0 bc
       -0.29081523 1.5411865 0.2613779 -0.029388573
000170 71 fe ed be 3d ff d8 3f 0e 5e e0 3f 62 9e c8 bc
       -0.46483186 1.6952893 1.7528703 -0.024489585
000180 0b cb ff 3f f5 28 35 be d2 c4 d9 bf 77 b7 7a be
       1.9983839 -0.17691405 -1.701319 -0.24484049
000190 b4 dd bb 3e dc 21 ef 3e 51 19 a1 be 06 cf 75 3e
       0.36692584 0.4670552 -0.31464627 0.24004754
0001a0 82 07 97 3f 69 65 17 bf 95 d5 27 bf f6 c8 a5 3f
       1.1799166 -0.59139115 -0.65560275 1.2951953
0001b0 5b 99 93 bf b9 21 07 bd 6b 79 9d bc 1a e1 75 be
       -1.1531175 -0.032991145 -0.019222936 -0.2401165
0001c0 90 ea 4e 3f 6f 18 54 3d fc e8 8e be bc 2c d1 3f
       0.80826664 0.051781114 -0.27912128 1.6341777
0001d0 08 a1 ae be 05 fe 88 be 1d 81 2d bf 4e c1 5a 3f
       -0.34107232 -0.26756302 -0.67775136 0.8545121
0001e0 bb 3f 9e 3f f6 7e d4 3d af bd 2a 3f 63 d1 b4 3f
       1.2363199 0.103757784 0.66695684 1.41264
0001f0 d7 5c b9 bb 68 d9 5c be 71 b7 59 bf dd 16 3f 3f
       -0.0056568193 -0.21567309 -0.85045534 0.7464426
000200 2e c8 47 3c 48 52 87 bf e4 4f a1 be 54 09 80 be
       0.012193723 -1.0571985 -0.31506264 -0.25007117
000210 89 6c 5e bf 1b 97 d4 3f 5f ba ec 3d 5b 0a 94 3e
       -0.8688436 1.6608614 0.11558985 0.2891415
000220 c0 74 a9 bc fd 4c c1 bf df da 96 bf 52 a4 1c bd
       -0.020685554 -1.510162 -1.1785544 -0.038242646
000230 ac 89 c2 3d 24 19 f5 be 41 d7 a0 be 00 05 98 3e
       0.09498915 -0.47870743 -0.31414226 0.29691315
000240 10 4c 13 40 ab 01 cb 3b d3 55 a0 3e 66 86 c2 3e
       2.3015175 0.006195267 0.3131548 0.37993163
000250 fc d1 d0 bc 38 78 d3 bf de 1f 6e 3f 51 7e f7 3d
       -0.025490753 -1.6521063 0.93017375 0.1208464
000260 39 ec b5 ba f2 11 a4 be 1e 76 d6 bd c6 28 c5 3e
       -0.0013879604 -0.3204494 -0.10471748 0.3850767
000270 27 f3 48 3f c6 59 08 bf 1b 9c 0e bc eb 0d 47 3e
       0.7849602 -0.53261983 -0.008704211 0.19438903
000280 bb c2 3d 3f c2 3b 33 3d 96 d4 b2 3d 06 9e 7b bf
       0.7412526 0.04375816 0.08731954 -0.98288
000290 b1 d3 9d 3f 24 85 e8 bc fd e5 c0 3a 71 25 9e b9
       1.2330228 -0.028383799 0.0014716979 -0.00030164004
0002a0 d3 1d 44 bb 15 00 07 3e 7b 0d fa bb 14 64 07 bb
       -0.0029925003 0.13183625 -0.0076310015 -0.0020659016
0002b0 2d 87 a9 be 16 81 08 40 50 a4 a4 be dc 37 84 3f
       -0.33110943 2.1328788 -0.3215661 1.0329547
0002c0 c8 2e 17 3f 55 c5 20 3e 0b c6 b2 3f 6c f6 49 3f
       0.5905576 0.15700276 1.3966688 0.78891635
0002d0 81 f2 c7 3f ad e5 5c 3f 48 8c 8a bf 3e 59 8b be
       1.5620881 0.8628796 -1.082406 -0.27216524
0002e0 84 f9 c5 be 0d 73 24 bf da cb 40 bf 15 d1 95 bf
       -0.38666928 -0.64238054 -0.7531105 -1.1704432
0002f0 eb b5 f5 3e 65 7a b1 3d 66 a1 50 be 76 62 16 bf
       0.47990355 0.08665923 -0.20374069 -0.5874399
000300 9b 3a 28 bf 21 ff a7 3c 2e d9 b9 bf 3a 3d 1a 3c
       -0.65714425 0.020507397 -1.4519403 0.009414012
000310 b2 ab 34 3e 2f 12 d8 3e d6 6c 39 3f 77 2d d5 bd
       0.17643622 0.42201373 0.72431695 -0.10409062
000320 a8 1a ec 3f ea f0 89 3d e9 34 d7 be 32 2e 4a 3e
       1.8445635 0.06735404 -0.42032555 0.19744185
000330 ed b5 31 3f 81 68 a8 bd 99 a6 3c c0 1b 14 1b bf
       0.6941822 -0.082230575 -2.9476683 -0.60577554
000340 29 00 73 3e 17 74 46 3d f6 d2 ca 3f 53 d5 ea 3f
       0.2373053 0.048450556 1.584563 1.8346351
000350 19 d4 7f be a3 d8 b9 bf ed 83 b0 bf cf 37 12 be
       -0.24983253 -1.4519237 -1.379026 -0.14279102
000360 07 01 66 3f b9 4b ab bf e5 cb eb 3f 45 d4 6d bf
       0.8984532 -1.3382484 1.8421599 -0.9290202
000370 f0 27 1e bc 6a 10 4e bf c2 3a c5 3e 1f ca a8 3d
       -0.0096530765 -0.80493796 0.3852139 0.082416765
000380 f4 65 76 bf 7e 22 e1 3f 1f a4 bf be 85 ec c0 bf
       -0.9624932 1.7588651 -0.37429902 -1.507218
000390 d5 f3 f4 be d7 68 a3 bb 36 cc 60 3d 8b ab d4 be
       -0.4784228 -0.004986863 0.05488225 -0.41537127
0003a0 df 23 0b bc bb 18 d7 bd 70 a8 50 bf e5 99 0d 3f
       -0.008492439 -0.10502764 -0.81507015 0.5531295
0003b0 04 b3 97 3e 0f 44 54 bf 50 ff 9b bd 4c b3 bc 3e
       0.29628766 -0.8291635 -0.07617056 0.36855543
0003c0 f6 37 87 3e 2f c0 c1 3f 61 3e 73 bb 47 c3 23 bf
       0.26409882 1.5136775 -0.0037116038 -0.63969845
0003d0 86 6d fb bf c0 31 7b bc 9c 90 69 be ed 4a 01 40
       -1.9642799 -0.015331686 -0.2280907 2.020198
0003e0 ea 54 7c bd ea f4 f7 be 23 7c 3e 3f 02 6b 91 be
       -0.061604418 -0.48429042 0.7440817 -0.28401953
0003f0 fb 30 54 bf 66 40 16 bf cd 16 d5 3c b1 6f 43 3f
       -0.8288724 -0.58692014 0.026011849 0.763423

item_type_embedding.weight f4 [5, 8]
000000 92 40 d1 3f b9 a5 92 bf 49 57 20 40 57 8e f5 3d
       1.634783 -1.1456825 2.5053275 0.1199004
000010 b7 bc 17 be e6 11 63 3f 6b 90 20 be bd ca 04 3d
       -0.14818083 0.88699186 -0.15680091 0.03241991
000020 91 3b 96 3f 49 c9 82 bf a0 ba e6 3f 62 ec 36 be
       1.1736928 -1.0217677 1.8025703 -0.1786361
000030 99 4c 9d bf 11 ce c8 bf 7a 42 ad 3f f4 29 97 3f
       -1.2289001 -1.5687886 1.3535912 1.1809678
000040 59 f0 e3 3e 14 d4 74 bf f3 0a 2d 3e f5 10 d7 bf
       0.44519308 -0.95636106 0.16898708 -1.680205
000050 5a 84 6e bf a5 ae df bd 94 31 86 3e 21 cf e2 bf
       -0.931707 -0.10921983 0.262097 -1.7719461
000060 ff 0c 81 3f 3c b9 74 be 41 35 cc 3f 9f 89 12 3f
       1.0082091 -0.23898786 1.5953752 0.57241243
000070 1b d3 40 40 8f 26 34 3f de 91 e6 3e 78 57 85 bf
       3.0128849 0.70371336 0.45033163 -1.0417318
000080 57 32 d4 bf b6 5c 4c 3f 69 a4 8f bf b6 ae b5 3c
       -1.6577863 0.79828966 -1.1222049 0.022178035
000090 9c 0b cd 3e 64 12 8f bd 6e 41 27 3f 68 cd a9 bf
       0.4004792 -0.069859296 0.6533421 -1.326581

item_temperature_embedding.weight f4 [7, 8]
000000 3e 0e bd be b1 37 f0 be 7c 13 7d be a2 b5 07 c0
       -0.36924928 -0.4691749 -0.24714464 -2.120461
000010 a3 a8 26 bd 27 c9 cf bf 12 6d 5b 3f 95 43 b9 bf
       -0.04068817 -1.6233262 0.85713303 -1.4473749
000020 8b f3 b7 3e 21 42 88 3f 22 a8 f1 be 04 3a b9 3e
       0.35927996 1.0645181 -0.47198588 0.36177075
000030 96 cb 23 bf 89 bb c0 3e 65 21 6e bf c4 6e 88 bf
       -0.6398252 0.37643078 -0.93019706 -1.0658803
000040 3b 4c 50 bf d4 ca bf 3f 3c da 9f 3f 5f 05 43 bf
       -0.8136632 1.4983773 1.2488475 -0.7618007
000050 24 44 a8 bd e5 38 13 bd f2 a4 92 bf 75 39 c2 be
       -0.08216122 -0.03594293 -1.1456587 -0.3793446
000060 6c 97 61 bf 03 0c 40 3e 13 c1 dc be c7 7c eb be
       -0.88121676 0.18754582 -0.43116054 -0.45993635
000070 d7 6f 3f bf 71 2d 0f 3d 4f a8 d3 be ff 84 ac 3f
       -0.7478003 0.034955446 -0.41339347 1.3478087
000080 19 33 47 bf 82 21 0e bf 85 4e 04 3f b4 53 1d bf
       -0.77812344 -0.5551988 0.5168231 -0.61455846
000090 92 e3 aa 3d 0f e9 a2 3f 4d 75 57 3f 8d 9d cf 3e
       0.08344187 1.2727374 0.8416336 0.4054989
0000a0 73 53 29 3f 2d c3 1f bf e0 a0 00 bf f9 e3 8c be
       0.6614296 -0.6240719 -0.50245476 -0.2751768
0000b0 4a c3 ba 3e c0 f4 49 bf cc 92 ce 3f 55 46 ca 3f
       0.3647712 -0.78889084 1.6138549 1.5802714
0000c0 66 8f 8c bf b5 f7 1c 3e 0d e4 1a c0 e6 f7 ff bb
       -1.0981262 0.15328868 -2.420169 -0.007811534
0000d0 eb c7 f2 be 81 09 01 3f d0 cb 0f 3f 49 72 0d bf
       -0.4741815 0.50405127 0.5617037 -0.5525251

item_humidity_embedding.weight f4 [6, 8]
000000 34 7f 2f bf 39 c4 00 3f c0 67 29 3e b9 e3 d0 bd
       -0.6855347 0.5029941 0.16543484 -0.10199685
000010 b0 00 94 bf fe 77 94 be b1 b5 c4 bf 00 da 83 3e
       -1.156271 -0.28997797 -1.5367948 0.25752258
000020 de cb 77 bf da dd 89 be 9e 66 13 3f 75 c8 d1 bf
       -0.9679545 -0.26927072 0.57578456 -1.63893
000030 52 e9 61 3f 13 90 c9 3e a8 05 83 3e 34 08 74 be
       0.88246644 0.39367732 0.25590253 -0.23831254
000040 fa 71 37 bf 4d a7 86 3e 2e e8 02 40 0a f7 34 3f
       -0.7165829 0.26299515 2.0454211 0.7068945
000050 61 32 46 3f 0d fd 04 bf 8a 8d ff 3f ee 85 5c bf
       0.7742062 -0.51948625 1.9965069 -0.8614186
000060 a3 ed 8a 3f 6a 6a 83 3f 52 76 05 c0 00 62 32 be
       1.0853771 1.026685 -2.0853467 -0.17420197
000070 a0 a6 1f bf 4a 4a 21 bf 6b 71 2e 3f d5 a0 db be
       -0.62363625 -0.6300398 0.6814181 -0.42896143
000080 86 dd 0f c0 6a 58 72 3f a2 57 e0 3d 69 c5 88 bf
       -2.2478957 0.9466616 0.10954215 -1.0685245
000090 1f 5f d4 3f 2b 07 ec bf fb 33 c8 bd 9c 11 2f bf
       1.6591529 -1.8439687 -0.097755395 -0.68386245
0000a0 24 f1 d5 bd 25 06 51 3f 95 6a ab be 64 6a e2 be
       -0.104463845 0.8165 -0.33479753 -0.44221795
0000b0 03 06 c4 be c2 6a c2 3e 3c bd 96 3f 21 c5 1e 3f
       -0.38285837 0.37972075 1.17765 0.62019545

item_windSpeed_embedding.weight f4 [5, 8]
000000 c9 b8 c9 3f 3d af 3f 3f 26 aa a2 bf 2a 6c fb 3e
       1.5759517 0.7487677 -1.2708175 0.4910596
000010 9e a1 ca 3f 7a 79 68 be 0c b8 77 bf ca e5 82 3f
       1.5830572 -0.2270259 -0.9676521 1.0226376
000020 10 c4 a1 3f 44 10 6c 3d e5 8e 3f bf e8 ca cc bf
       1.2637959 0.0576327 -0.74827415 -1.5999422
000030 d1 7e fc 3d 11 a7 fe 3e 8c 44 a0 bd d3 b8 b0 be
       0.12328876 0.49736837 -0.07825574 -0.3451601
000040 a8 8d d2 3d 79 b0 1a bf c1 20 8c 3f f0 70 38 3f
       0.10280925 -0.60425526 1.0947496 0.7204733
000050 38 19 bf be a6 f9 05 c0 5c 45 07 bf 08 eb f1 3f
       -0.37323928 -2.0933623 -0.5284021 1.8899851
000060 8c 93 93 bf 4d 8a 40 bf 4f e9 6b 3f ed e9 20 bb
       -1.1529403 -0.7521103 0.92152876 -0.0024553493
000070 67 fc 78 3f 93 c3 d7 3f 9b 30 74 be dd c1 14 bf
       0.97260135 1.685656 -0.23846667 -0.5810831
000080 06 27 d7 be 88 07 0f 40 22 76 2b 3d 85 70 30 bf
       -0.4202196 2.2348347 0.041860707 -0.6892169
000090 9b 21 48 3f 16 24 d8 3f 0b 82 96 3f 18 4b 50 bf
       0.7817628 1.6886013 1.1758436 -0.81364584

GCN_Layers.0.W1.weight f4 [64, 64]
000000 a1 81 ca bd 84 1d 10 3b 5b 5a 75 bd 79 77 03 be
       -0.09888006 0.002199025 -0.059900623 -0.12838544
000010 ed b1 9f 3d 49 2b 82 3d 38 d4 d3 3c fe 14 51 bd
       0.077976085 0.06355912 0.02585803 -0.05104541
000020 11 1e cf 3b 47 3a 1a 3e 18 15 8f 3d d1 97 c3 3d
       0.006320723 0.15061294 0.06986445 0.09550441
000030 af 16 0c 3d 50 cb 22 3d 79 c4 d4 bd 32 9c e6 bc
       0.03420132 0.039744675 -0.10389037 -0.028150652
000040 72 5f e9 bd e4 4f dc bc d6 d4 42 bd d1 0d 3e 3d
       -0.11395158 -0.026893564 -0.047566257 0.046399895
000050 9e b2 64 bd b6 42 b1 3c e5 6a c0 bd 0a b8 a3 3d
       -0.055834405 0.021638256 -0.093953885 0.07994087
000060 a7 56 89 3d 78 62 c6 bc 66 14 d1 bc 4e ec 8c bd
       0.06705981 -0.024216875 -0.025522422 -0.06881009
000070 20 79 f2 bd 8e f3 ae bd 63 49 ee bd 41 97 34 bd
       -0.11839509 -0.08542548 -0.11635091 -0.04408956
000080 db aa 9a bd ae 4d fd bd a5 b1 5e bd 8f 3f 57 3d
       -0.07552119 -0.12368332 -0.054368634 0.05255085
000090 d9 c8 92 bd 61 46 be bb 73 3c af bd 01 6c e0 3d
       -0.07167215 -0.0058067297 -0.08556452 0.109581
0000a0 5e ae 3b bd 09 2a a6 3d 72 83 af bd 6d 3d 31 bc
       -0.045820586 0.08113486 -0.08569993 -0.010817868
0000b0 38 be d8 3d d7 65 02 3e 18 44 07 bd 76 02 12 bc
       0.10583156 0.12734161 -0.033023924 -0.00891172
0000c0 0c e6 d6 bd 97 cf 88 bd 5f dd b3 3d a5 b0 c4 3c
       -0.10493097 -0.066802196 0.087824576 0.024010012
0000d0 7d 39 04 be 48 b0 26 3c f9 9c fe bc 4b 28 b0 3d
       -0.12912555 0.010173865 -0.03108071 0.08601435
0000e0 d9 e1 ed 3d 71 02 4d 3c ee f0 64 bd 46 3d bd 3c
       0.11615343 0.012512789 -0.05589383 0.023100507
0000f0 55 4b 7d bd b7 c5 6f bd 3e cb fd 3c c5 5d ad 3c
       -0.06183942 -0.058538165 0.030980702 0.021162877
000100 8b ab 4c 3d fa c0 b0 bd 9e 23 8d 3d b2 4c 03 be
       0.049968284 -0.08630557 0.06891559 -0.12822226
000110 e4 af 60 bd 43 95 db 3b 4b de d4 3d ca 41 10 3c
       -0.054855242 0.006701143 0.103939615 0.008804748
000120 30 51 a9 3d d1 02 97 3d 74 47 33 3d 1b 02 e3 bc
       0.082674384 0.07373584 0.043769315 -0.027710965
000130 1c 1c d0 bd e0 d2 25 bc 5a 24 c8 bc cf 1a 4f bd
       -0.101616114 -0.010121077 -0.024431396 -0.050562676
000140 43 06 9f bd 38 59 24 bd 9e ad f3 3c 32 01 ff bd
       -0.07764866 -0.040124148 0.029745873 -0.124514
000150 a4 d3 ff bc ca e1 2a 3d 6e 6a 85 3d 33 94 92 bd
       -0.031228848 0.041719235 0.065144405 -0.07157173
000160 2c f4 53 3d 5e e4 93 3d c4 77 de bd b8 d1 f8 3c
       0.051746532 0.07221292 -0.10862687 0.03037344
000170 05 d3 e9 3d f3 35 6e 3d cc bc ae bc 0f 0b 06 be
       0.11417202 0.05815692 -0.02133026 -0.13090156
000180 c8 f3 6b 3d 34 80 bb 3d ed 33 17 3d 2a e6 2d bc
       0.057605535 0.09155312 0.036914755 -0.010613957
000190 c3 8a 1c bd 8c 36 fb bc 0f ae dc bd 98 9d a4 bc
       -0.03821827 -0.030665658 -0.107753865 -0.020094678
0001a0 3a e8 32 3d a4 fd 93 3d e7 84 4c 3d 5c 5e 89 bd
       0.0436785 0.072261125 0.049931433 -0.06707451
0001b0 1f ac 87 bc 29 ed 04 3e b7 31 59 bc 44 de e5 3c
       -0.016561566 0.12981094 -0.013256482 0.028060086
0001c0 6d ff d1 bc f1 72 81 3d b3 ef b0 bd 87 51 dd bd
       -0.025634492 0.063207515 -0.08639469 -0.10806566
0001d0 fc 57 b4 bc 59 bb a4 bd ac ea 4a bd d4 66 a1 3d
       -0.02201461 -0.08043546 -0.049540207 0.07880941
0001e0 6d fc bb 3d 16 cc 2a bd 01 38 5d 3d 65 7d 80 bc
       0.09179006 -0.041698538 0.054008488 -0.015684793
0001f0 44 53 c2 3d ca dc d7 bd d4 a5 aa 3d 6e 7d 4c bd
       0.09488538 -0.10540159 0.083324105 -0.049924307
000200 05 ea c3 3c 5d 7b 0f 3e ec 94 71 bc df 77 be bc
       0.0239153 0.14011903 -0.014744978 -0.023250518
000210 3f 79 d5 bd 01 39 e6 bc 13 29 ed bd 18 8d f1 bd
       -0.104235165 -0.028103353 -0.115801 -0.117944896
000220 ec 44 b3 3d 0e 52 25 bd 46 ea d9 3c 5c 1c e2 3c
       0.0875338 -0.040361457 0.026600968 0.027601413
000230 19 90 f5 3d 2d 65 bf 3d 38 85 c3 bc 9d b1 1e bc
       0.11990375 0.093454696 -0.023867235 -0.009685901
000240 70 64 c7 3b 4f 47 c3 bd 7b d9 49 bc 1a b1 d3 39
       0.006084971 -0.095350854 -0.012319918 0.00040377007
000250 cd 57 e1 bc 87 5a b1 3c 67 5e d9 bb a2 79 4f bd
       -0.027507687 0.021649612 -0.006633568 -0.050653107
000260 c2 db 54 3c 7e 28 88 3d 88 f3 d8 3c da 7f 0d be
       0.0129918475 0.06648348 0.026483312 -0.13818303
000270 44 b9 b5 3d 1b fa 6c 3d 58 02 12 bd 6a 37 d5 3d
       0.08873227 0.057855707 -0.035646766 0.1041096
000280 6e dd d9 3d e7 b5 6b 3c 73 c8 c5 bd b5 28 41 3d
       0.106379375 0.014386631 -0.09657373 0.047157962
000290 7b 14 4f bd 62 65 50 bd 19 10 14 bd 05 67 05 be
       -0.05055664 -0.050877936 -0.036148164 -0.1302758
0002a0 58 28 a3 bc 7a bd 89 3c b8 cb ae 3c c4 c1 e8 3d
       -0.019916698 0.016813982 0.021337375 0.11365083
0002b0 6b 93 3f bc c9 c9 03 be 39 d8 ed 3d c0 cf 55 bd
       -0.011692862 -0.12869944 0.11613507 -0.05220008
0002c0 9e 28 44 bb 08 91 ac 3d b5 33 90 bd 07 f7 0b bd
       -0.0029931436 0.084261 -0.07041112 -0.03417113
0002d0 5b 7b b7 bc 6c 17 94 bd 44 c1 ac 3d 45 87 8a 3d
       -0.022397688 -0.0723103 0.084353 0.06764082
0002e0 01 11 71 bd ca 10 23 3c 73 74 73 bc 45 6d 4e 3d
       -0.058854107 0.009952733 -0.014859307 0.050397176
0002f0 63 f0 b8 3d 11 91 ad bd fd 42 f9 3d c2 f4 9c 3d
       0.09030225 -0.08474935 0.1217098 0.07663871
000300 1b 6a d9 3c 99 c7 03 bc 6b 6d f2 3b 10 2e 8f bc
       0.026539853 -0.008043193 0.0073982975 -0.017478019
000310 3b fb 83 3d 0a 16 da bd 96 b1 cf 3c 57 d1 3e bd
       0.06444403 -0.10648735 0.025353234 -0.04658636
000320 a8 02 7c bd 57 20 08 bd 37 a8 e7 bd 4e 05 fd bb
       -0.06152597 -0.033233967 -0.11311381 -0.0077215796
000330 1a ab ed 3d 61 85 bb bd 88 29 90 bd 0c c5 82 3d
       0.11604901 -0.091562994 -0.070391715 0.0638524
000340 94 af 8b bd bc d6 0a 3d 50 97 ab 3d 4f ba 38 3d
       -0.06820598 0.033896193 0.0837847 0.045099553
000350 3c a4 89 bd 5e 96 44 3d 7b c9 f1 3d 45 83 e6 bc
       -0.06720778 0.047994964 0.118060075 -0.028138766
000360 d0 62 83 b9 c2 9f d8 3d 82 2b 9e 3d da 55 c2 3d
       -0.00025059888 0.105773464 0.07723142 0.09489031
000370 7f a8 a8 bc af 20 4a bd 0f 62 eb bd d0 d5 48 3d
       -0.020588158 -0.049347576 -0.114933126 0.049032032
000380 17 de b1 3d cc 97 8b 3d 92 33 b2 bc 68 14 48 bd
       0.086849384 0.06816062 -0.021753106 -0.048847586
000390 de 1e d2 3b 37 aa d0 3d bc ee f7 3d 0d ad 65 bd
       0.006412371 0.10188716 0.12106082 -0.056073237
0003a0 2e ec 02 3d cc 3f 91 bd 03 7f 83 bc a5 51 d0 bd
       0.03196352 -0.070922464 -0.016051775 -0.101718225
0003b0 da 72 a0 bd 57 8a 85 3d bc 40 da bb 2c a5 fe bd
       -0.07834406 0.06520527 -0.006660549 -0.12433848
0003c0 f9 36 0d bd 75 9d 6b bc a1 fe e5 3c 8f 46 c1 bd
       -0.034476254 -0.014380802 0.028075518 -0.09437286
0003d0 b6 78 fc bd 95 7d 09 bc 3d 09 6f 3d bf fa f1 3c
       -0.12327711 -0.0083917575 0.05835842 0.02953851
0003e0 4e 6d e5 bd c9 23 fc bb 44 1b 70 bd a0 f5 a9 bd
       -0.11202489 -0.0076946956 -0.058619753 -0.082988024
0003f0 e0 b7 d3 3d c5 88 cf 3c e0 a5 bf 3d 36 17 5f bc
       0.10337806 0.025333771 0.0935781 -0.013616374

GCN_Layers.0.W1.bias f4 [64]
000000 9d 6c 24 3d fa 84 bd 3a 35 3e b5 3c f4 4f 8f bc
       0.040142644 0.0014459186 0.02212439 -0.01749418
000010 7a 9e cb 3c 40 a6 43 bd 47 9e 55 3c e6 ed f8 3d
       0.024855841 -0.04776597 0.013038225 0.121547505
000020 89 d2 d8 3d 2a d4 e0 bd 99 89 03 be cb fa 16 3d
       0.105870314 -0.10977967 -0.12845458 0.03686027
000030 d2 dd c0 bd dc e9 a0 3d 5e 51 02 3e 69 de cc bc
       -0.09417309 0.07857105 0.12726352 -0.025008397
000040 0c b6 cc 3c 71 21 cc 3d 0c 98 fc 3d b5 01 92 3d
       0.02498915 0.09967316 0.12333688 0.07129232
000050 1b ea 2c bd d2 bf 91 bd aa 4c 81 bc 23 ce c1 bc
       -0.042215448 -0.07116665 -0.015783627 -0.023657864
000060 02 a7 27 bd 96 a1 aa 3d 06 d8 3f bc aa c4 d7 bd
       -0.040930755 0.08331601 -0.011709219 -0.105355576
000070 a8 57 19 3d 3f 6b 9a 3d cf be 26 bd 8d 9e eb 3d
       0.03743711 0.07539987 -0.040709313 0.115048505
000080 3e e8 b8 3c b4 bd 99 bc cf f9 84 3c 32 44 99 bd
       0.02257168 -0.018767215 0.0162324 -0.0748371
000090 b4 80 39 bd e4 e4 37 bd fa e6 04 be 62 9b 73 3d
       -0.045288756 -0.04489602 -0.12978736 0.059474356
0000a0 29 e8 9e bb 48 2f 8b 3d 78 77 d8 bd 53 89 3e bc
       -0.004849453 0.067961276 -0.10569662 -0.01162942
0000b0 52 79 56 3d cb 7c d6 bd 28 90 16 bd 48 1b 3d bd
       0.052361794 -0.10473021 -0.036758572 -0.046168596
0000c0 81 5f fb 3d 4d 4f c7 3d 97 1a 7f bd 2f 5d 2a 3d
       0.12274075 0.09731922 -0.062281217 0.041592773
0000d0 b1 e6 e4 3c dc c6 59 3d 17 ff 99 3c 95 5e 49 3d
       0.027942033 0.053168163 0.018798394 0.049162466
0000e0 7a fa b8 bd 9d 35 85 bd b6 2d aa bd 71 a7 e3 bd
       -0.090321496 -0.065043665 -0.083095 -0.11115921
0000f0 95 a3 80 3d 6b 1b b8 bc 55 18 8c 3c 89 cd 6b bd
       0.06281201 -0.022474011 0.017101446 -0.05756906

GCN_Layers.0.W2.weight f4 [64, 64]
000000 e3 79 3a bd e7 44 ad 3d b1 e2 94 3d f2 f8 0c bd
       -0.045526396 0.08460408 0.072698005 -0.0344171
000010 ac 5c b7 3d 75 38 03 bd 1a fb 09 3d 5a 62 80 bd
       0.08953223 -0.032036263 0.033686735 -0.06268759
000020 6a 17 50 3d 2a e3 9b bd ca 44 05 3d 30 7e e2 bc
       0.05080358 -0.076116875 0.032536305 -0.027648062
000030 d1 2a 64 ba 13 df 41 3d ca f4 76 bd df 3b a2 bc
       -0.000870389 0.04733188 -0.060292043 -0.01980394
000040 c3 ba 71 bd b8 ac 94 bd a6 3b 85 bd 38 02 cd 3d
       -0.059016 -0.07259506 -0.06505518 0.10010189
000050 7e 77 af 3d 83 05 92 3d 28 31 d3 3c b0 e0 04 be
       0.08567713 0.071299575 0.025780275 -0.12976336
000060 ec eb c3 bd 3f f1 7a 3b b3 7d fd bd 0a 34 10 3d
       -0.09566483 0.0038290767 -0.12377491 0.03520588
000070 fb f5 9c 3d f1 03 be bc c0 61 83 3d ef 65 21 bd
       0.076641046 -0.023195239 0.06415129 -0.039403852
000080 83 91 f9 3d a6 80 6d bd 73 a9 cf 3d 17 31 55 3b
       0.12185957 -0.057984017 0.10139742 0.003253048
000090 4a ed 57 3c 63 fc e5 3d 9e 35 0a 3d 7b 01 97 3d
       0.013179133 0.112297796 0.03374254 0.07373329
0000a0 b1 f6 94 bc 07 1c 77 3b 0a c6 a5 bd a2 a3 39 bc
       -0.018184038 0.0037705915 -0.080944136 -0.011330517
0000b0 e0 00 6b bd 47 96 eb bb 56 61 e1 bc 16 aa 18 3d
       -0.05737388 -0.0071895453 -0.027512234 0.03727158
0000c0 3a f7 80 bc 20 48 db bd 4e b9 0f 3e 24 d2 bf bc
       -0.015742887 -0.10707116 0.14035532 -0.023415633
0000d0 4f 14 a5 bd bd ba ac bc e3 a1 a2 3d de e2 d6 3d
       -0.08060514 -0.021085138 0.07941034 0.1049249
0000e0 32 b1 7a 3d 15 fe f1 bd 9a 63 9a bc 5f 0e 72 bd
       0.061204143 -0.118160404 -0.018846322 -0.059095737
0000f0 4b e7 27 3e c1 b5 8e 3c 7b 6d e8 3d 5e 18 b2 3d
       0.16396825 0.017420651 0.11349007 0.08696054
000100 3a be 3b bd 4f 6b 7c 3d a7 01 00 3e 7a 70 69 bc
       -0.04583571 0.061625775 0.1250063 -0.014248008
000110 4f 47 89 3c e6 86 21 bc 13 e5 5b bd aa da 7b bd
       0.016757635 -0.009858822 -0.05368526 -0.06148783
000120 9b 8b d9 bd 3f a5 a6 bd 18 36 83 3a e1 94 f0 3c
       -0.10622331 -0.08136987 0.0010010628 0.029367866
000130 cd 68 1f 3d b3 74 3f 3d ba 02 91 3a 5f 40 9b 3d
       0.038918305 0.046742152 0.0011063435 0.07580637
000140 7f 55 98 bd a2 32 03 3b bb db 4b bd a6 4a 65 3d
       -0.07438182 0.0020019193 -0.0497701 0.055979393
000150 7f 64 86 3d b9 eb 67 bd 6c 9b 9b 3b 2b a5 b2 bd
       0.06562137 -0.056621287 0.0047487523 -0.087229095
000160 b0 0b e0 3c 28 04 ec bd 33 ee 24 bc 5d 3d 8f bd
       0.027349323 -0.1152423 -0.010066557 -0.06994126
000170 77 55 d5 3d b8 46 f3 bc 65 27 a6 bc e9 23 94 3d
       0.10416692 -0.029696807 -0.020282457 0.07233412
000180 e7 3a 14 3d c7 cb e8 bd 3c ff 05 be 9d 92 0f 3d
       0.036188986 -0.113669924 -0.13085645 0.03505193
000190 68 92 14 bb 8f 9d 07 3d 32 d0 aa bc 86 2a 77 3d
       -0.0022670273 0.033109244 -0.020851228 0.060343288
0001a0 16 f8 38 3d 5a ea ac 3d 27 9c a4 3d 2b db 64 3d
       0.04515847 0.084431365 0.08037596 0.055873077
0001b0 19 62 b6 3d 7d 85 eb bd a1 d1 9b 3c a5 ec 73 3d
       0.089054294 -0.1150007 0.019020857 0.059551854
0001c0 dd 46 ce bc af 05 f3 bc d0 0c 89 bd 2f dc 30 bd
       -0.025180275 -0.029665796 -0.06691897 -0.043178733
0001d0 46 ae 22 3d 50 35 8f 3d bb c8 91 3d ec 93 72 bc
       0.03971698 0.069925904 0.071183644 -0.014805775
0001e0 92 c1 a8 bc 3b 59 07 3e 9a c1 44 bd f9 93 6c 3c
       -0.020600114 0.13217632 -0.048036195 0.014439576
0001f0 3d 3e a0 3c 52 df b3 bd 87 ad bf bc c1 92 f8 3c
       0.019560928 -0.08782829 -0.023398174 0.030343415
000200 d0 47 b0 3d 74 b0 ea 3d 67 c4 e6 3c 15 8f f9 bd
       0.08607447 0.11459437 0.028169824 -0.12185494
000210 68 c6 04 3c 74 cb a6 bb 07 66 8a bd 74 2c 63 3c
       0.008103944 -0.0050901715 -0.067577414 0.013865579
000220 f4 f6 83 3d 86 2c 18 bd 6f 12 9f bd 35 c4 5c bd
       0.06443587 -0.037151836 -0.07767188 -0.053898055
000230 f4 cd 08 bc 4d 8d f3 bb b0 cb 1a 3d ed 16 ed bc
       -0.008349884 -0.007432616 0.037791908 -0.028941596
000240 fe 6a 31 3d 4c 7b 3f bd 24 2b 81 3c 13 bd aa 3d
       0.043314926 -0.046748444 0.015767641 0.08336844
000250 7e ec 02 3d f3 4e 8d bd 57 c6 5d bd 14 4f 76 3d
       0.031963818 -0.06899824 -0.05414423 0.06013401
000260 33 f3 84 bc e9 47 b6 bd 55 26 84 3d 31 3b dd 3c
       -0.016229248 -0.089004345 0.06452624 0.027005764
000270 3d 1d 21 3d f8 d1 24 bd 67 e2 11 bd 45 62 94 bd
       0.039334524 -0.040239304 -0.035616305 -0.07245306
000280 78 a2 ad 3d c0 9f 47 bd f1 5e 00 bd 3f 9f 66 bd
       0.08478254 -0.048736334 -0.031340543 -0.056304213
000290 ad d7 f2 bb b2 90 7b 3d 56 96 9f 3c 31 54 ab bd
       -0.0074109645 0.06141729 0.019480865 -0.083656676
0002a0 be c0 15 38 c6 bc b3 3c 6e 13 3f bd 19 1a 98 3c
       3.5703873e-05 0.0219406 -0.04664939 0.018567132
0002b0 82 2b c9 bd d8 a7 48 bd ea 52 9e 3c c4 69 15 3c
       -0.098227516 -0.048988193 0.019326646 0.009119455
0002c0 b9 83 4d bd 4e 9a 2e bd aa a7 31 3d 91 f5 1f 3d
       -0.05017445 -0.042627625 0.043372788 0.03905255
0002d0 d6 96 49 3d 5e c8 61 bc d2 b6 9d 3d 5a 44 1f ba
       0.049216114 -0.013780681 0.07700886 -0.0006075554
0002e0 66 43 0d 3d d7 d0 90 bc b3 30 bb 3d a8 cc ff 3b
       0.034488104 -0.017677708 0.09140148 0.0078063793
0002f0 be 09 9a bd 5c ca 7a 3d fc 7b 7c 3d 1b 7b 5a bd
       -0.075213894 0.06122814 0.06164168 -0.05334006
000300 6c b9 92 bb 49 66 e8 3a 26 b5 8f 3d 86 78 0c 3d
       -0.0044776704 0.0017730679 0.07016973 0.034294628
000310 a2 ff cd bd aa ba 05 3e 06 16 81 3d 9d 58 32 bc
       -0.10058524 0.13059488 0.06303029 -0.010885385
000320 81 7c 60 bd 86 48 be bd fe 5f bc bd 02 12 41 3d
       -0.054806236 -0.092911765 -0.091979966 0.047136314
000330 08 19 73 bd 40 1e ec 3c f4 d5 64 3d 05 92 dd 3d
       -0.059350044 0.028823018 0.055868104 0.10818867
000340 2b be 97 bb 5d ee 90 bd 29 67 f0 bc 73 d6 c0 bd
       -0.004630824 -0.07076714 -0.029346066 -0.09415903
000350 80 d1 aa 3d e0 d2 64 3d 0a 92 45 bb 35 49 00 be
       0.0834074 0.05586517 -0.003014686 -0.12527926
000360 f5 f0 52 3d e9 72 53 bd f2 c9 e3 3c 20 5f 6c bd
       0.051499326 -0.05162326 0.027806256 -0.057707906
000370 3c 54 ee bd 98 03 c6 3c 51 4a 39 3c 43 7c 10 be
       -0.1163716 0.024171636 0.011309222 -0.14109902
000380 d3 5e 3c bd f3 1a b6 bd e4 5d a6 3c 34 46 fc bb
       -0.04598887 -0.08891859 0.020308442 -0.0076987986
000390 8a a9 a7 bc 1a 32 54 bd 5c ad 42 3c de 1e fc bc
       -0.020466585 -0.051805593 0.011882152 -0.030776437
0003a0 0c d7 a8 bd 0c ea 1e 3d 44 e0 d2 3c 91 60 66 3d
       -0.08244142 0.038797423 0.025741704 0.056244437
0003b0 80 8c 32 bd 37 1d 0e bd 8c 68 a9 3d c6 9e bb bd
       -0.043591022 -0.03469583 0.08271894 -0.09161143
0003c0 60 aa 2d bc 2e 1c cc 3c 5f ab 00 be 97 87 d5 bd
       -0.010599703 0.02491578 -0.12565373 -0.10426252
0003d0 25 c9 95 3d 32 d2 d6 bc d0 44 69 bd e9 d4 af 3c
       0.07313756 -0.026223276 -0.05695039 0.021463828
0003e0 67 91 83 bd e0 ee 1b bd 0f e8 a7 bd 01 df 1e 3d
       -0.06424218 -0.038069606 -0.081985585 0.03878689
0003f0 d6 bb 8e 3c 88 8d dc 3d 87 b9 06 be 2e 3a e3 bd
       0.017423552 0.107691824 -0.1315671 -0.11095081

GCN_Layers.0.W2.bias f4 [64]
000000 f1 5d 8b bd a8 8c 11 bd d6 85 be bd b4 95 bd 3d
       -0.06805027 -0.03553453 -0.09302871 0.09257069
000010 a6 4c d6 bc 05 db a3 3c ea 29 e7 bd 1e 4e 8b bc
       -0.026159596 0.020001898 -0.11287291 -0.017005023
000020 42 27 75 bc ce 37 c6 bb 76 1a fc bd ff 48 c0 bd
       -0.014962973 -0.006049133 -0.123097345 -0.09388923
000030 ef 8a bd 3d fa 2d f9 3c 9a a6 53 bb c2 68 7e 3c
       0.09255015 0.030417431 -0.0032295347 0.015527906
000040 8a 35 06 bd 18 e5 af bd cc c3 35 bd c0 1a 27 bc
       -0.032765903 -0.08588618 -0.04437618 -0.010199249
000050 fd 43 f5 3d 98 64 e5 bd eb c3 e3 3d 08 54 b7 3d
       0.11975858 -0.11200827 0.11121353 0.089515746
000060 5c 52 f4 3d 21 94 3f bd 11 68 af 3d 8e 83 c7 bd
       0.11929771 -0.046772126 0.08564771 -0.09741889
000070 9b fc 38 bc 59 1c 20 3d 3a 1e 9f 3c 51 3c 24 3d
       -0.011290695 0.039089534 0.019423593 0.040096585
000080 c7 9a c1 bd bb 4f 21 3b 89 e2 a5 bc 85 2f 30 3d
       -0.094533496 0.0024614173 -0.020249622 0.04301407
000090 bc 5c a2 bd 2d d7 7d 3d 9f 35 dd 3d f3 f5 c3 3c
       -0.07927844 0.061972786 0.10801243 0.023920989
0000a0 69 16 be bd 97 ff 68 3c a7 74 8c bd 71 f2 c6 3d
       -0.09281618 0.014221094 -0.06858187 0.09714211
0000b0 fb e5 64 3d c2 b9 42 3c 1b db c3 bb b6 79 61 bc
       0.05588339 0.011885108 -0.005977047 -0.013761928
0000c0 4a f2 8d bd 15 76 a2 bd 03 02 dd 3d 1f 1b ab bb
       -0.069309786 -0.079326786 0.10791399 -0.005221739
0000d0 5c 92 5d 3c 1a f5 6d bd be 7f 91 3d 6e 8b 88 3d
       0.013523664 -0.058095075 0.07104443 0.06667219
0000e0 b7 d6 8a bd a8 5f 0c 3e 59 b0 9f 3d 75 35 79 bd
       -0.06779235 0.13708365 0.077973075 -0.060841996
0000f0 9e d7 03 be b4 54 be 3d d7 13 81 bb e0 28 68 bd
       -0.1287522 0.092934996 -0.0039391327 -0.056679606
