lab4-student/code/model/bestModelParms-11-14-19-28.pth (torch, 465577 bytes, 20 tensors)

user_id_embedding.weight f4 [900, 32]
0.31623054 0.024675822 -0.06052932 -0.03590749 0.0038575353 -0.030062342 -0.17673384 -0.0035146782
-0.0216733 0.019013822 -0.015854018 -0.022944896 -0.02462227 0.026724793 -0.090999946 -0.060453594
-0.38753927 -0.018090187 -0.0075515076 -0.030898327 0.025247695 0.039283056 -0.012651611 -0.14406535
-0.024053069 -0.029557964 -0.03911899 0.0013998179 -0.019198054 0.0012416842 -0.007021604 -0.022903604
0.012718995 0.069690645 0.002158323 0.026159355 -0.01085679 -0.05816206 -0.007964571 0.011940382
0.0057445923 0.019737214 0.026051028 -0.013608223 -0.021279657 -0.007624254 -0.012808047 0.0020936942
-0.013147706 -0.01401417 -0.0099666575 -0.0071252426 -0.016391918 0.012914459 -0.0047923136 0.35936004
-0.6741462 0.17251432 -0.080305114 0.009841484 0.00081162155 0.38184205 0.0074363546 0.003917739
-0.008349736 -0.024809575 0.006566114 0.021971617 -0.01564365 0.025611067 -0.029160542 0.025050744
0.17758757 0.022510555 0.01846576 -0.017049663 -0.30472764 -0.02568413 -0.0033895418 0.0013010476
0.023704214 -0.036808725 -0.20994657 0.026974281 -0.02503703 -0.0076942416 -0.04557972 0.006341361
-0.023485322 0.08780614 0.008736866 0.00032982038 -0.004995301 -0.0025063104 0.014001423 -0.08337136
0.14544438 0.007259136 0.04962652 -0.012802173 0.1415324 0.0005004087 -0.00632857 -0.006960661
-0.09845483 -0.014643739 0.061985366 0.048706155 0.041457966 -0.017555254 0.033004403 -0.008183035
-0.02798529 0.034193538 -0.0345046 0.028461419 -0.020361844 -0.029085401 -0.020145655 0.0015000815
-0.019666499 -0.0069513978 0.029392714 0.17969252 0.008819819 -0.010794978 -0.011213795 -0.01345735
0.0324641 0.04149269 -0.023764718 0.0122414045 -0.07012772 0.20927384 0.16867863 0.050827652
0.04906453 -0.020783452 -0.02997818 -0.1328936 -0.023791507 0.011863764 0.0008917559 0.02384153
0.03791508 -0.06368508 0.027834313 -0.04856724 0.07581114 0.06910502 -0.041049365 0.02961197
-0.05754228 -0.004324526 -0.061692193 0.07039794 0.012185305 -0.009964832 0.1184532 0.019735832
0.070105225 0.063362 -0.37862995 -0.18476847 -0.063332655 0.005000753 0.3609418 0.023362273
-0.016129555 -0.015863737 -0.09551908 -0.088963345 -0.38286707 0.43780124 -0.044532664 -0.0026794663
0.01664815 -0.0139968805 0.24402677 -0.008351803 0.046587948 0.110653974 -0.058796514 0.028510988
-0.20691714 -0.059417028 -0.33175611 -0.039096072 -0.021007847 -0.021131087 0.056405365 -0.024897702
-0.019896388 -0.090066716 0.017337278 0.030547515 0.04408192 -0.26562887 -0.23373249 0.0055347495
0.008176648 -0.028246734 0.08294799 0.030728396 0.022851342 0.02148269 -0.59920526 0.007615606
-0.015379485 -1.27208 0.006314355 -0.04635255 -0.01870636 -0.041194875 -0.022920977 -0.009202245
0.027980316 0.015710078 -0.018646086 -0.07035688 -0.24615015 0.0015059186 0.80206555 0.018165192
0.025544966 0.03304451 -0.02495206 -0.022031222 0.68744254 0.0003881525 0.024873983 -0.0027619046
-0.014237432 0.05370461 -0.3901571 -0.0030656573 0.0039360076 -0.0061736535 -0.018617462 0.12682988
-0.0032494473 -0.012506598 -0.09361811 0.007347765 0.098344855 -0.03187869 0.048429385 -0.005314996
-0.020566862 0.01914811 -0.011841203 -0.018083805 0.024519118 0.016223926 0.019847365 -0.2794944
00000000: f8e8 a13e f324 ca3c 98ed 77bd bb13 13bd
00000010: b4ce 7c3b 4d45 f6bc b7f9 34be 8456 66bb
00000020: 348c b1bc e0c2 9b3c 49e0 81bc eff6 bbbc
00000030: a5b4 c9bc f4ed da3c 2e5e babd 309e 77bd
00000040: 8c6b c6be df31 94bc a372 f7bb 7d1e fdbc
00000050: 41d4 ce3c 45e7 203d b448 4fbc de85 13be
00000060: f10a c5bc 8b23 f2bc 3c3b 20bd 187a b73a
00000070: 3d45 9dbc 02c0 a23a 7c15 e6bb 57a0 bbbc
00000080: 5563 503c f8b9 8e3d a772 0d3b 254c d63c
00000090: ade0 31bc 573b 6ebd d57d 02bc 98a1 433c
000000a0: 223d bc3b f0af a13c f768 d53c 06f5 5ebc
000000b0: ad52 aebc e1d4 f9bb d8d8 51bc 5c36 093b
000000c0: 7a69 57bc b09b 65bc 314b 23bc de7a e9bb
000000d0: 5848 86bc 2b97 533c d708 9dbb 0afe b73e
000000e0: d894 2cbf 98a7 303e 0277 a4bd 2d3e 213c
000000f0: 00c3 543a cd80 c33e aaac f33b 6060 803b
00000100: 55cd 08bc 733d cbbc 8e28 d73b d2fd b33c
00000110: 1d27 80bc 4dce d13c 17e2 eebc 3837 cd3c
00000120: 84d9 353e 0e68 b83c 8145 973c bcab 8bbc
00000130: 4305 9cbe 8667 d2bc 1323 5ebb ea87 aa3a
00000140: 572f c23c bfc4 16bd 3cfc 56be 2bf9 dc3c
00000150: 751a cdbc fa1f fcbb cdb1 3abd 31cb cf3b
00000160: 4a64 c0bc b5d3 b33d 1225 0f3c beeb ac39
00000170: 9faf a3bb e940 24bb 3966 653c 9bbe aabd
00000180: 5fef 143e 0cde ed3b 2e45 4b3d 35c0 51bc
00000190: dfed 103e dc2d 033a e55f cfbb 4216 e4bb
000001a0: b0a2 c9bd 4bec 6fbc 5ee4 7d3d 1b80 473d
000001b0: d4cf 293d 09d0 8fbc a02f 073d 2312 06bc
000001c0: 6841 e5bc 860e 0c3d b254 0dbd ec27 e93c
000001d0: e2cd a6bc 8244 eebc 8008 a5bc 629e c43a
000001e0: a31b a1bc 8dc8 e3bb fdc8 f03c 5101 383e
000001f0: 0181 103c 6bdd 30bc 11ba 37bc 387c 5cbc
00000200: 13f9 043d 3df4 293d 3aae c2bc 2c90 483c
00000210: 1f9f 8fbd e24b 563e 17ba 2c3e a830 503d
00000220: e3f7 483d 0f42 aabc cd94 f5bc 4315 08be
00000230: 68e6 c2bc 3c60 423c bac4 693a 504f c33c
00000240: d84c 1b3d 536d 82bd c904 e43c 71ee 46bd
00000250: df42 9b3d ef86 8d3d 6123 28bd cd94 f23c
00000260: 74b1 6bbd c1b4 8dbb f4b0 7cbd cc2c 903d
00000270: e0a4 473c 8943 23bc 9797 f23d 0aad a13c
00000280: 5493 8f3d f0c3 813d c9db c1be f233 3dbe
00000290: 8db4 81bd 5bdd a33b 5dcd b83e 3d62 bf3c
000002a0: 2122 84bc abf4 81bc 829f c3bd 6a32 b6bd
000002b0: 2707 c4be 7c27 e03e e267 36bd fc99 2fbb
000002c0: b361 883c 2c53 65bc 27e2 793e 00d6 08bc
000002d0: 01d3 3e3d 8d9e e23d 9dd4 70bd e08f e93c
000002e0: 16e2 53be 455f 73bd f0db a9be 3423 20bd
000002f0: a618 acbc 1a1b adbc 5009 673d 44f6 cbbc
00000300: c0fd a2bc e674 b8bd e806 8e3c c83e fa3c
00000310: 3e8f 343d 8200 88be 9257 6fbe d85c b53b
00000320: 59f7 053c b265 e7bc a3e0 a93d 1eba fb3c
00000330: bd32 bb3c 77fc af3c 8465 19bf 558c f93b
00000340: 3cfa 7bbc 84d3 a2bf a6e8 ce3b 2cdc 3dbd
00000350: 153e 99bc f5bb 28bd c6c4 bbbc 03c5 16bc
00000360: fa36 e53c 6cb2 803c adbf 98bc 4517 90bd
00000370: c90e 7cbe 3e62 c53a 2b54 4d3f 2bcf 943c
00000380: ad43 d13c ae59 073d 4368 ccbc d27a b4bc
00000390: 3cfc 2f3f f280 cb39 86c4 cb3c 1201 35bb
000003a0: 1e44 69bc 5df9 5b3d acc2 c7be 32e9 48bb
000003b0: a0f9 803b 5c4c cabb a683 98bc b1df 013e
000003c0: aef4 54bb 79e8 4cbc daba bfbd 85c5 f03b
000003d0: 0769 c93d 3b93 02bd e45d 463d 6b29 aebb
000003e0: d67b a8bc 7fdc 9c3c 9b01 42bc 7d24 94bc
000003f0: 51dc c83c 0ae8 843c f196 a23c e419 8fbe

user_age_embedding.weight f4 [5, 4]
0.5288884 0.11144051 -1.2799011 0.73280215 0.56920516 -1.5426165 -0.53367513 0.48460066
0.3451756 -0.38829923 0.09575018 -0.606087 1.1470921 0.4094993 0.81353045 0.43657073
-0.065379724 0.24879213 0.9036635 -1.2736675
00000000: 3b65 073f ec3a e43d cdd3 a3bf ec98 3b3f
00000010: 6eb7 113f 7574 c5bf ef9e 08bf 941d f83e
00000020: dbba b03e 28cf c6be ac18 c43d 8528 1bbf
00000030: ead3 923f e4a9 d13e 8843 503f 3386 df3e
00000040: cee5 85bd 5dc3 7e3e 7e56 673f 8907 a3bf

user_gender_embedding.weight f4 [2, 2]
0.14745629 0.2684217 -0.9867429 0.50646746
00000000: c8fe 163e 926e 893e 2f9b 7cbf daa7 013f

user_occupation_embedding.weight f4 [21, 8]
-0.0793136 0.11925981 -0.12340578 -0.043967452 0.16420628 0.015834618 0.9094365 0.30155528
-0.015033509 -0.633749 0.39688897 -0.18172292 -0.6823895 0.2985865 -0.2768656 -0.28552186
0.40191436 -0.100242026 0.5735798 0.10138592 0.38552183 -0.2689601 -0.2966039 0.17915407
0.96984076 -0.04875291 -0.55730844 0.8211012 -0.07814456 -0.14733389 -0.27728748 -0.21261455
0.32032335 -0.3379755 -0.20486291 0.22819045 0.25414422 -0.43324667 0.44893843 -0.4695507
-1.1179256 -0.22583674 0.12358993 -0.012825883 -0.25616407 -0.876742 0.72739416 -0.24518856
0.032881115 -0.89113396 -0.020650301 0.047994625 -0.054523736 0.15378766 0.05320207 0.08623041
0.032569457 0.1946771 -0.31330734 0.3256786 -0.12759644 0.18861732 0.47469375 0.37834173
-0.026288688 -0.016360614 0.20917019 0.04202249 0.01129026 -0.14076512 0.34743118 0.08650026
0.13474123 0.0813036 0.07337226 -0.080767766 -0.05375855 -0.0073512015 0.34112012 0.053854175
-0.04787711 -0.24140684 0.08368694 -0.3408813 0.32610127 -0.22475487 -0.7025213 -0.34481797
-0.2980345 -0.046497915 0.2680656 -0.122212455 0.5844617 0.0736604 -0.5416539 0.2768795
0.4644307 0.29948717 0.037619114 -0.044484053 -0.09529867 -0.024657337 0.09752434 -0.078015156
-0.039129384 -0.03087482 0.26603666 0.1256676 0.1775366 0.4857842 0.014744169 0.1337492
0.101664394 0.5349613 0.24194787 -0.14488496 -0.20004645 -0.4121799 0.05361291 -0.15429565
0.20758326 0.13642609 -0.0039658654 -0.102584876 0.023230035 0.6525042 0.2629439 0.018910773
-0.023115 -0.032270838 -0.13598017 -0.04452342 -0.09201685 0.020151246 0.08190337 -0.07541121
0.29184023 -0.026607636 -0.5305623 -0.08900005 0.34151426 -0.19402587 0.4970315 -0.0365477
0.051306676 -0.014229089 0.2826821 0.010443238 0.04362219 -0.30637747 -0.027669262 -0.01941935
0.23197067 0.14145486 -1.0973889 -0.032981522 -0.043539207 -0.06696141 0.18835987 -0.011934912
-0.01801569 -0.18280171 -0.014428743 0.042260163 -0.02048347 0.0014287321 0.0076347245 0.054062434
00000000: 2b6f a2bd 7d3e f43d 2bbc fcbd 3717 34bd
00000010: b125 283e 9ab7 813c d5d0 683f 7465 9a3e
00000020: 1b4f 76bc 603d 22bf 0835 cb3e 9315 3abe
00000030: 14b1 2ebf 54e0 983e 54c1 8dbe ec2f 92be
00000040: b8c7 cd3e b14b cdbd 20d6 123f 6ca3 cf3d
00000050: 1e63 c53e 23b5 89be 77dc 97be 2a74 373e
00000060: 7c47 783f 22b1 47bd c4ab 0ebf b033 523f
00000070: 410a a0bd b2de 16be a0f8 8dbe a1b7 59be
00000080: 6c01 a43e 200b adbe 95c7 51be c2aa 693e
00000090: 311f 823e 82d2 ddbe 42db e53e f368 f0be
000000a0: 3018 8fbf bf41 67be b81c fd3d a723 52bc
000000b0: f027 83be 2a72 60bf 8136 3a3f b612 7bbe
000000c0: 59ae 063d 5b21 64bf d22a a9bc 0396 443d
000000d0: 4854 5fbd 837a 1d3e 6aea 593d 9299 b03d
000000e0: 8d67 053d 6f59 473e d269 a0be 58bf a63e
000000f0: a4a8 02be e624 413e 0f0b f33e 02b6 c13e
00000100: 605b d7bc b206 86bc b630 563e c61f 2c3d
00000110: c8fa 383c bb24 10be 80e2 b13e 0c27 b13d
00000120: 9bf9 093e 8082 a63d 3244 963d 9269 a5bd
00000130: ed31 5cbd 59e2 f0bb 4ca7 ae3e 3296 5c3d
00000140: ca1a 44bd 5b33 77be 0f64 ab3d fe87 aebe
00000150: bff6 a63e 2426 66be 70d8 33bf fb8b b0be
00000160: fa97 98be 9974 3ebd e53f 893e 864a fabd
00000170: 489f 153f 44db 963d d4a9 0abf 26c3 8d3e
00000180: dcc9 ed3e 6256 993e 8016 1a3d e934 36bd
00000190: f32b c3bd 2ffe c9bc d7ba c73d 69c6 9fbd
000001a0: 2246 20bd 31ed fcbc f535 883e 02af 003e
000001b0: 28cc 353e b5b8 f83e 8791 713c 8df5 083e
000001c0: 6c35 d03d 39f3 083f 2fc1 773e b95c 14be
000001d0: fad8 4cbe 3e09 d3be 3699 5b3d aeff 1dbe
000001e0: b590 543e 48b3 0b3e 17f4 81bb 0518 d2bd
000001f0: ea4c be3c 840a 273f 95a0 863e c4ea 9a3c
00000200: ab5b bdbc 6d2e 04bd 633e 0bbe 315e 36bd
00000210: 5573 bcbd 3a14 a53c f4bc a73d 3171 9abd
00000220: 156c 953e 42f8 d9bc eed2 07bf a945 b6bd
00000230: f5da ae3e b8ae 46be ea7a fe3e 0bb3 15bd
00000240: f326 523d 2021 69bc b5bb 903e 1d1a 2b3c
00000250: 2ead 323d 82dd 9cbe a6aa e2bc 5415 9fbc
00000260: b889 6d3e 8bd9 103e 3d77 8cbf a217 07bd
00000270: 2b56 32bd 1023 89bd 69e1 403e a68a 43bc
00000280: a495 93bc 5f30 3bbe 8966 6cbc fe18 2d3d
00000290: f3cc a7bc 4b44 bb3a b62c fa3b 9270 5d3d

user_location_embedding.weight f4 [760, 18]
0.026121201 -0.042651523 0.0074526346 0.02906265 0.102653556 0.09361224 -0.02076031 0.07454542
-0.0027836356 0.0037813808 -0.032387234 -0.010630874 -0.054012425 -0.02567547 0.025524266 -0.016903635
0.2069401 -0.00034315008 -0.0034933956 -0.012968699 0.027671473 0.0031600613 0.0062646447 0.003080096
0.014196899 -0.009714723 0.0094892625 -0.025864707 0.043908708 0.022455689 0.0011770009 -0.005049527
0.00076722977 0.0021018172 0.03049576 -0.0220215 0.00016876924 -0.010823225 -0.0043531493 -0.010263579
-0.049656805 -0.012237905 0.025559252 -0.008212274 0.0070549254 0.23850806 0.0071003577 0.19348705
0.024966499 0.009116527 -0.010402304 1.6198184 -0.0038181318 -0.011341459 -0.0056957575 0.017310726
-0.0063828425 0.015567318 -0.31691122 -0.20107752 0.314169 0.020003356 0.014839142 0.06945343
-0.002197059 0.32141098 -0.05416244 0.01670576 -0.014721861 -0.0005358001 0.0013927564 0.013855478
-0.05202898 -0.018447168 0.053118948 0.01563761 -0.0026581949 0.079188265 0.0280272 -0.25828105
-0.017926905 0.098218665 -0.22388469 0.15284371 -0.090162225 -0.47557777 -0.09477512 -0.033317387
0.068009965 0.041426796 0.01005697 -0.011541961 0.033770926 0.046408154 0.06591912 0.06232443
0.0056457077 -0.03524619 0.087459825 0.048421305 -0.018437017 0.098078705 -0.024863297 0.05478718
-0.039262205 -0.015784694 0.0006048556 0.0054730973 -0.105598584 -0.052870635 -0.1802859 -0.02419939
0.7665491 -0.03477702 0.000320902 0.06981574 -0.019011911 -0.009487019 -0.12448359 0.009888133
-0.02182405 -0.031930998 0.045117136 0.01714105 -0.021622129 -0.010798779 0.83437705 -0.04000403
-1.0684165 0.020128863 0.0026386625 0.006868452 -0.01947685 -0.008989372 0.7475747 0.03212995
0.00032327155 -0.0056433794 -0.26291063 0.030468896 0.027286025 0.0056054723 0.018091472 -0.35082278
-0.004913336 -0.00667012 0.007607875 -0.059050843 -0.019485878 0.12082763 -0.0045318115 0.0033669816
0.023816051 0.00018388848 0.00856434 0.06604398 -0.0026326457 -0.003755862 0.00020558466 0.0008370833
0.0055864737 0.028466336 -0.016915852 0.0145271085 -0.03777127 -0.024437718 0.026583157 -0.001155949
-0.07626147 0.019298527 0.02846757 0.49600458 -0.020600608 0.019596841 0.008699595 -0.00057140266
0.014757094 0.000112406226 -0.070328236 0.005789252 -0.0066277185 0.059555523 -0.10231822 0.02234924
0.21022436 0.01974253 -0.006740595 0.5320194 -0.1609952 0.15721585 0.06707803 0.002857286
-0.00013053692 -0.023115844 -0.015985526 0.03921875 0.025364397 -0.649221 -0.0152817555 -0.13829328
0.011927843 0.008416411 -0.006008708 -0.019970084 0.0076906295 0.012223828 0.01874574 -0.019495009
-0.01278385 -0.053867802 0.07714972 0.008491221 0.112559184 0.2554781 -0.02291963 0.26476336
-0.05457455 -0.2543316 -0.088541225 -0.0077275257 0.77782094 1.1629705 -0.10885009 0.091289066
-0.021729412 -0.019059265 -0.025139293 -0.020165743 -0.0013542896 0.0041522454 -0.047906205 -0.07733629
0.011527867 -0.035919126 -0.023191918 -0.04235784 0.009947398 -0.044967033 -0.04354979 -0.056088373
0.026427694 -0.010613079 0.013209942 1.3565974 -0.18373735 -0.34517652 0.027887642 0.015722847
-0.010194695 0.014855352 0.062108304 0.0039050914 -0.088247284 0.45861652 0.022156345 0.015021176
00000000: 21fc d53c 5db3 2ebd 3b35 f43b cb14 ee3c
00000010: 073c d23d c6b7 bf3d 8711 aabc 45ab 983d
00000020: a86d 36bb 0bd1 773b 7aa8 04bd 1e2d 2ebc
00000030: 223c 5dbd 5d55 d2bc 4418 d13c 7e79 8abc
00000040: 1be8 533e d3e8 b3b9 74f1 64bb ab7a 54bc
00000050: 49af e23c 0819 4f3b a647 cd3b 70db 493b
00000060: 1c9a 683c 802a 1fbc da78 1b3c 39e2 d3bc
00000070: 9ed9 333d fef4 b73c 9945 9a3a 8176 a5bb
00000080: eb1f 493a a4be 093b 3ed2 f93c 6f66 b4bc
00000090: a6f7 3039 e553 31bc dda4 8ebb 9228 28bc
000000a0: ef64 4bbd 7e81 48bc a361 d13c c68c 06bc
000000b0: 012d e73b 753b 743e 1eaa e83b 7821 463e
000000c0: 8b86 cc3c 7c5d 153c 6d6e 2abc 3656 cf3f
000000d0: 9f39 7abb 87d1 39bc 7aa3 babb 39cf 8d3c
000000e0: 2a27 d1bb 100e 7f3c 3042 a2be 44e7 4dbe
000000f0: c2da a03e 14de a33c df1f 733c 9a3d 8e3d
00000100: 89fc 0fbb fb8f a43e 6fd9 5dbd 85da 883c
00000110: f633 71bc f074 0cba 268d b63a 1602 633c
00000120: 571c 55bd 841e 97bc 4193 593d 721a 803c
00000130: 1c35 2ebb 752d a23d 4c99 e53c 6a3d 84be
00000140: 72db 92bc de26 c93d 0742 65be 1083 1c3e
00000150: f9a6 b8bd ee7e f3be 7519 c2bd d077 08bd
00000160: cf48 8b3d 25af 293d fdc5 243c 7e1a 3dbc
00000170: 6253 0a3d 7a16 3e3d 9b00 873d e747 7f3d
00000180: a1ff b83b 4f5e 10bd 231e b33d 6b55 463d
00000190: 3a09 97bc 7ddd c83d 1dae cbbc 8668 603d
000001a0: 68d1 20bd e74e 81bc 2c8f 1e3a ab57 b33b
000001b0: 1244 d8bd e18e 58bd de9c 38be cd3d c6bc
000001c0: 903c 443f 5972 0ebd bd3e a839 8efb 8e3d
000001d0: debe 9bbc 716f 1bbc 41f1 febd d601 223c
000001e0: 5ac8 b2bc 14ca 02bd bfcc 383d 636b 8c3c
000001f0: e420 b1bc 5ded 30bc bc99 553f 44db 23bd
00000200: dfc1 88bf 49e5 a43c 69ed 2c3b c010 e13b
00000210: ea8d 9fbc 2948 13bc 0e61 3f3f b29a 033d
00000220: c67c a939 19ec b8bb 399c 86be e899 f93c
00000230: f186 df3c 1cae b73b 9134 943c 0b9f b3be
00000240: 0d00 a1bb 0691 dabb 7b4b f93b 4cdf 71bd
00000250: d9a0 9fbc 7a74 f73d 977f 94bb 94a8 5c3b
00000260: e119 c33c 30d2 4039 7251 0c3c 1142 873d
00000270: 7788 2cbb e824 76bb 3692 5739 b66f 5b3a
00000280: bd0e b73b 3c32 e93c 1d93 8abc 1c03 6e3c
00000290: 0cb6 1abd 9c31 c8bc ecc4 d93c 3683 97ba
000002a0: f92e 9cbd f217 9e3c d234 e93c 50f4 fd3e
000002b0: 9bc2 a8bc 8e89 a03c bf88 0e3c 2fca 15ba
000002c0: bdc7 713c a2bb eb38 4008 90bd c4b3 bd3b
000002d0: 552d d9bb 7ef0 733d 378c d1bd c115 b73c
000002e0: 0e45 573e 16bb a13c 36e0 dcbb 6c32 083f
000002f0: eddb 24be 31fd 203e 3560 893d 4e41 3b3b
00000300: bde0 08b9 705d bdbc 14f4 82bc d7a3 203d
00000310: ffc8 cf3c 5933 26bf 5460 7abc c19c 0dbe
00000320: 006d 433c fce4 093c b2e4 c4bb 4d98 a3bc
00000330: ad01 fc3b 7346 483c ab90 993c ffb3 9fbc
00000340: 5a73 51bc 7ca4 5cbd ac00 9e3d c31e 0b3c
00000350: 6e85 e63d 07ce 823e f3c1 bbbc 108f 873e
00000360: 9089 5fbd c037 82be 1a55 b5bd 2f37 fdbb
00000370: 461f 473f 38dc 943f ccec debd c3f5 ba3d
00000380: e101 b2bc 2d22 9cbc ebf0 cdbc a132 a5bc
00000390: 6b82 b1ba 8f0f 883b 4c39 44bd 7d62 9ebd
000003a0: 61df 3c3c ef1f 13bd fafc bdbc 6a7f 2dbd
000003b0: 69fa 223c 5a2f 38bd 4461 32bd ecbc 65bd
000003c0: e47e d83c 7be2 2dbc 836e 583c fca4 ad3f
000003d0: a525 3cbe faba b0be a074 e43c 33cd 803c
000003e0: a607 27bc dd63 733c 4765 7e3d 90ec 7f3b
000003f0: feba b4bd c9cf ea3e 3981 b53c 611b 763c

item_id_embedding.weight f4 [1600, 32]
-0.020981535 -0.031479064 0.00050091324 -0.0029328524 0.061014853 -0.53511894 0.023454063 -0.027168458
0.009083283 0.0050211144 -0.0034575916 0.01432801 0.024682174 -0.011655974 0.009007656 -0.006999453
-0.00921755 0.06643483 -0.061968945 0.14874192 -0.01800755 0.21042298 -0.034961082 0.07777084
-0.03492177 0.029038044 0.02658783 -0.00081362133 -0.018926442 0.019942664 0.036556423 0.0068683326
-0.028647693 -0.10137318 0.001450117 0.0012448017 0.0064383973 0.011647778 -0.011886257 -0.010387992
0.015545802 -0.018075027 -0.19924997 0.024412956 0.041683845 0.00150546 0.037154302 0.020256339
0.01827112 0.015775822 0.001856178 0.0030322648 0.013438605 -0.013158259 -0.10888776 0.022972915
0.01975621 0.027742114 0.12894323 0.01998178 -0.00060476206 -0.0024368493 -0.00932051 0.010542034
-0.004460215 0.03391937 -0.012194489 -0.015763532 -0.00036811084 -0.030476082 0.016985077 -0.01819225
0.11383307 -0.045209523 0.0032153036 -0.0036201987 0.028383054 0.008927675 -0.011083577 0.009130016
-0.0018574335 0.02894757 -0.0065502357 -0.014864655 0.021469228 -0.053782653 0.1110033 -0.022352202
-0.03752396 0.23417023 -0.01561815 -0.0055984263 0.03150818 0.34006435 0.40029576 -0.009951451
0.5268089 -0.011076233 -0.33145675 -0.0053123017 -0.0007392531 0.011323721 -0.0013712288 -0.015033655
0.08572533 -0.0078054494 -0.008082817 0.12552014 -0.0683569 0.008963075 0.007962335 0.005230508
0.023274222 0.0028143143 0.0026700944 0.29618025 0.0034926608 0.01707711 0.0034070816 0.03043212
0.10799686 0.008626253 0.012081948 0.19724844 -0.0025328752 -0.0077087237 -0.034173794 0.0034529152
-0.034523528 -0.079344906 -0.005492589 -0.02126254 -0.0006717199 0.31335366 -0.008809235 0.0027757487
0.011788651 -0.2269805 -0.09299751 0.015657347 0.03693505 -0.0020788023 0.013058139 -0.0033036529
0.7504723 0.018188078 -0.001010609 0.005240464 -0.013152648 -0.2970576 0.02435679 -0.019491035
-0.006100188 0.024179772 0.016562749 0.01059726 -0.013952151 -0.020905264 -0.005883049 -0.007577614
0.008946655 -0.0027376749 0.011622402 -0.04627481 0.08972841 -0.0024773984 -0.012637755 0.0003483733
-0.0029216344 0.01473004 0.00020773898 0.02079457 -0.0068138675 0.62031895 0.014645261 0.05017564
-0.00045668762 -0.0075389105 0.16085298 0.011513223 0.24683146 0.011455023 -0.047589324 0.006970198
-0.005322791 0.010064848 -0.016998926 -0.08412356 -0.0036364766 0.01095701 -0.005216709 -0.0060460875
-0.005533372 0.01494515 -0.21446513 0.0058538592 -0.011819066 -0.010629141 -0.005053419 -0.016466321
0.432932 -0.0019612026 0.011234565 -0.003589934 -0.0072259395 0.009899975 -1.2905743 -0.007812417
0.005890674 -0.015744528 0.26731753 0.41591898 -0.009386915 -0.22553526 -0.16900413 0.021622635
0.048803244 -0.17184909 0.42166972 -0.03341006 -0.009580958 -0.0183637 -0.011790007 0.002014915
-0.04378946 0.36538476 0.007707389 -0.21594277 0.02004578 -0.00036034881 -0.0018316649 -0.051454388
0.0062163086 -0.023027923 -0.005067156 0.017926322 0.020277657 0.0016724351 0.017578162 0.028746268
-0.0036106769 0.22870171 -0.012147892 -0.01238575 -0.5045271 -0.018828835 0.018564116 0.53217775
0.040348638 -0.011627039 0.024493381 0.008930677 -0.02307043 -0.0049084774 0.014307696 0.051990498
00000000: 78e1 abbc 31f0 00bd b84f 033a 1935 40bb
00000010: b6ea 793d 8efd 08bf bc22 c03c 6390 debc
00000020: 0dd2 143c 2988 a43b c398 62bb 08c0 6a3c
00000030: 4532 ca3c b3f8 3ebc d994 133c ab5b e5bb
00000040: 3505 17bc fc0e 883d 26d3 7dbd cd4f 183e
00000050: 9284 93bc 1f79 573e 5a33 0fbd 5146 9f3d
00000060: 210a 0fbd 31e1 ed3c b9ce d93c 3449 55ba
00000070: a00b 9bbc cc5e a33c 30bc 153d c00f e13b
00000080: 91ae eabc be9c cfbd da11 be3a 9d28 a33a
00000090: 31f9 d23b 52d6 3e3c 93be 42bc 6532 2abc
000000a0: d2b3 7e3c 1412 94bc 2f08 4cbe aefd c73c
000000b0: aebc 2a3d db52 c53a 1c2f 183d 9ff0 a53c
000000c0: 51ad 953c 4c3c 813c 004b f33a f6b8 463b
000000d0: 982d 5c3c bd95 57bc 8c00 dfbd b231 bc3c
000000e0: c6d7 a13c 6e43 e33c b209 043e d4b0 a33c
000000f0: e588 1eba 8cb3 1fbb 0db5 18bc 7fb8 2c3c
00000100: ff26 92bb 0aef 0a3d 65cb 47bc 8622 81bc
00000110: 00ff c0b9 faa8 f9bc 4a24 8b3c ea07 95bc
00000120: 5021 e93d 9f2d 39bd d8b7 523b db40 6dbb
00000130: 9483 e83c 6245 123c e497 35bc 1096 153c
00000140: 2075 f3ba 7423 ed3c 5ca3 d6bb e28a 73bc
00000150: 3ce0 af3c 334b 5cbd b355 e33d f71b b7bc
00000160: b9b2 19bd 52ca 6f3e 45e3 7fbc 0173 b7bb
00000170: b90e 013d ea1c ae3e 91f3 cc3e 690b 23bc
00000180: f3dc 063f 1779 35bc b3b4 a9be d112 aebb
00000190: 70ca 41ba 2187 393c ceba b3ba b84f 76bc
000001a0: c390 af3d dbc4 ffbb cb6d 04bc 5a88 003e
000001b0: b4fe 8bbd dcd9 123c 7474 023c ae64 ab3b
000001c0: 95a9 be3c 5c70 383b c0fc 2e3b f0a4 973e
000001d0: 20e5 643b 4ce5 8b3c 5849 5f3b c84c f93c
000001e0: 752d dd3d 2155 0d3c 5df3 453c 7ffb 493e
000001f0: 98fe 25bb 7699 fcbb d2f9 0bbd 4e4a 623b
00000200: 8b68 0dbd 957f a2bd 2dfb b3bb c72e aebc
00000210: 5c16 30ba e46f a03e 9c54 10bc 56e9 353b
00000220: 3025 413c 946d 68be 7b75 bebd d643 803c
00000230: 3549 173d 843c 08bb cef1 553c 1982 58bb
00000240: f41e 403f 2aff 943c 6976 84ba 33b8 ab3b
00000250: 347e 57bc ef17 98be e487 c73c aaab 9fbc
00000260: 16e4 c7bb a814 c63c 9aae 873c 21a0 2d3c
00000270: 9097 64bc 8441 abbc 98c6 c0bb a24d f8bb
00000280: fe94 123c 906a 33bb e36b 3e3c a88a 3dbd
00000290: 87c3 b73d d95b 22bb 960e 4fbc dfa5 b639
000002a0: e478 3fbb 4456 713c 82d4 5939 6059 aa3c
000002b0: dd46 dfbb 39cd 1e3f adf2 6f3c f984 4d3d
000002c0: 936f efb9 f708 f7bb a5b6 243e f5a1 3c3c
000002d0: 63c1 7c3e d9ad 3b3c 06ed 42bd 4266 e43b
000002e0: cf6a aebb 08e7 243c 5541 8bbc f948 acbd
000002f0: f451 6ebb 0885 333c edf0 aabb 421e c6bb
00000300: 4a51 b5bb 81dc 743c bf9c 5bbe bbd1 bf3b
00000310: c1a4 41bc d925 2ebc 2797 a5bb 61e4 86bc
00000320: 43a9 dd3e 8587 00bb 2e11 383c 1945 6bbb
00000330: 93c7 ecbb 8133 223c 8a31 a5bf 4eff ffbb
00000340: 8e06 c13b abfa 80bc d8dd 883e 55f3 d43e
00000350: 93cb 19bc b7f2 66be 6b0f 2dbe f421 b13c
00000360: e9e5 473d 35f9 2fbe 18e5 d73e fdd8 08bd
00000370: 73f9 1cbc 786f 96bc e02a 41bc aa0c 043b
00000380: 945c 33bd b613 bb3e 448e fc3b 1a20 5dbe
00000390: 0c37 a43c 33ed bcb9 7a14 f0ba d6c1 52bd
000003a0: 2db2 cb3b 0ea5 bcbc 630a a6bb 39da 923c
000003b0: 541d a63c 9c35 db3a 1400 903c 4b7d eb3c
000003c0: 1ba1 6cbb c830 6a3e f407 47bc 9aed 4abc
000003d0: b028 01bf ee3e 9abc c613 983c cd3c 083f
000003e0: 9d44 253d 567f 3ebc 58a6 c83c f951 123c
000003f0: 33fe bcbc 4bd7 a0bb d46a 6a3c fdf3 543d

item_type_embedding.weight f4 [5, 8]
1.4467413 -0.92454606 1.8732258 0.091765255 -0.14482586 0.47515005 -0.057630893 0.047033485
1.0481235 -0.8604315 1.4315071 -0.19991986 -0.8236372 -1.0043309 1.0934359 0.89733005
0.23689674 -0.5358198 0.21731043 -1.3576844 -0.3819224 -0.21297969 0.20829627 -1.0022855
0.5478783 -0.021892278 0.76691455 0.2243476 1.4588382 0.12754193 0.17597954 -0.43686944
-0.539072 0.16429839 -0.31406987 -0.12974201 -0.019153688 0.038447466 0.15726535 -0.3215892
00000000: d22e b93f 0daf 6cbf ddc5 ef3f 6cef bb3d
00000010: 3b4d 14be de46 f33e 5f0e 6cbd 2fa6 403d
00000020: e928 863f 3d45 5cbf a03b b73f cbb7 4cbe
00000030: e3d9 52bf ea8d 80bf b5f5 8b3f 6cb7 653f
00000040: 0f95 723e 7d2b 09bf a086 5e3e 9ac8 adbf
00000050: 558b c3be 5917 5abe 9e4b 553e e44a 80bf
00000060: c141 0c3f 6f57 b3bc 8354 443f 61bb 653e
00000070: 36bb ba3f 5a9a 023e fb33 343e 5aad dfbe
00000080: 9f00 0abf d63d 283e c4cd a0be 17db 04be
00000090: 32e8 9cbc 177b 1d3d 2b0a 213e 57a7 a4be

item_temperature_embedding.weight f4 [7, 8]
-0.0071497425 -0.026328223 -0.03354108 -0.63715476 0.029688973 -0.31100315 0.038163252 -0.2376932
-0.008926113 0.49970776 -0.13521692 0.15160476 -0.49860004 0.088916056 -0.5741637 -0.6706644
-0.40982416 0.94393575 0.7018035 -0.41869175 -0.0803893 -0.013597584 -0.82383823 -0.2752461
-0.3654157 0.21545549 -0.24601221 -0.29414958 -0.62114227 0.07868656 -0.2810286 0.99389565
-0.46301377 -0.35490075 0.2966927 -0.40542284 0.10672451 0.8839573 0.61628693 0.35550866
0.28393075 -0.51741153 -0.26817325 -0.19912647 0.260853 -0.56473875 1.2697442 1.2895029
-0.27172863 0.0375456 -1.0400652 0.03317189 -0.32472074 0.2614528 0.18302038 -0.17473912
00000000: 6348 eabb 49ae d7bc 5f62 09bd 931c 23bf
00000010: 4a36 f33c ce3b 9fbe 1251 1c3d d965 73be
00000020: d53e 12bc b2d9 ff3e 4e76 0abe 473e 1b3e
00000030: 8148 ffbe 9f19 b63d 64fc 12bf aab0 2bbf
00000040: 79d4 d1be c6a5 713f 65a9 333f c45e d6be
00000050: 25a3 a4bd 67c8 5ebc 10e7 52bf 0fed 8cbe
00000060: c417 bbbe 5da0 5c3e a0ea 7bbe c69a 96be
00000070: 2e03 1fbf 6b26 a13d fbe2 8fbe f26f 7e3f
00000080: 2410 edbe 8db5 b5be 1be8 973e 9593 cfbe
00000090: 6192 da3d 074b 623f fbc4 1d3f 3b05 b63e
000000a0: 5f5f 913e 1575 04bf 014e 89be cfe7 4bbe
000000b0: 868e 853e b892 10bf fa86 a23f 6e0e a53f
000000c0: 0420 8bbe 6ac9 193d db20 85bf 3fdf 073d
000000d0: cc41 a6be 24dd 853e b269 3b3e d0ee 32be

item_humidity_embedding.weight f4 [6, 8]
-0.24438149 0.12766847 0.06794933 -0.12823121 -0.52048457 -0.12550217 -0.69522434 0.007244368
-0.4791556 -0.037555993 0.46865803 -1.198036 0.6112216 0.1955438 0.26500607 -0.15225957
-0.25784767 0.18376787 1.4780186 0.4285831 0.47220278 -0.2781682 1.220938 -0.46783006
0.4454554 0.5147996 -1.6496668 -0.15996422 -0.43167612 -0.370133 0.37838188 -0.3130714
-1.4022115 0.55517393 0.081177205 -0.8307706 1.1080322 -1.2622166 -0.013336663 -0.5326487
-0.12558702 0.49041614 -0.34645864 -0.2945629 -0.25958025 0.26641032 0.7607545 0.37726554
00000000: 243f 7abe 86bb 023e 0529 8b3d 0b4f 03be
00000010: 7a3e 05bf a483 00be 39fa 31bf 2a62 ed3b
00000020: e253 f5be 50d4 19bd f2f3 ef3e 3e59 99bf
00000030: 0579 1c3f a23c 483e e0ae 873e efe9 1bbe
00000040: 9c04 84be a52d 3c3e b72f bd3f 3e6f db3e
00000050: 90c4 f13e 106c 8ebe b247 9c3f 6c87 efbe
00000060: bb12 e43e e8c9 033f 4828 d3bf a9cd 23be
00000070: a704 ddbe 1382 bdbe 45bb c13e e54a a0be
00000080: ab7b b3bf e11f 0e3f 3c40 a63d 62ad 54bf
00000090: 00d4 8d3f 5090 a1bf 0582 5abc aa5b 08bf
000000a0: e299 00be d317 fb3e 0763 b1be f3d0 96be
000000b0: b4e7 84be ef66 883e cfc0 423f f328 c13e

item_windSpeed_embedding.weight f4 [5, 8]
1.1960187 0.6157252 -1.0162196 0.2120957 0.8274264 -0.18782598 -0.56699294 0.74400336
1.0293145 0.08202678 -0.629914 -1.119029 0.122651316 0.3177375 -0.010569868 -0.18259881
0.10956281 -0.47672617 0.87996423 0.36020496 -0.14362714 -1.6798868 -0.22463614 1.4410734
-0.73568827 -0.45412678 0.6082406 -0.09960916 0.32088357 0.77385795 -0.14227149 -0.17611913
-0.22950418 1.4230349 0.01911612 -0.33426222 0.3099411 0.78289956 0.46501097 -0.38622192
00000000: 2417 993f 2ba0 1d3f 7c13 82bf 9d2f 593e
00000010: 37d2 533f 7455 40be 7326 11bf 0177 3e3f
00000020: 94c0 833f a8fd a73d 0b42 21bf 583c 8fbf
00000030: 9d30 fb3d 7dae a23e 3d2d 2dbc 2ffb 3abe
00000040: 7762 e03d 7415 f4be 5645 613f c96c b83e
00000050: fe12 13be 8806 d7bf 0407 66be 1875 b83f
00000060: 1156 3cbf 4e83 e8be a8b5 1b3f e3ff cbbd
00000070: da4a a43e 8e1b 463f 9eaf 11be 9358 34be
00000080: 2503 6bbe 0226 b63f 6999 9c3c 6b24 abbe
00000090: 9ab0 9e3e 1b6c 483f eb15 ee3e e1be c5be

GCN_Layers.0.W1.weight f4 [64, 64]
-0.11575739 0.024790267 -0.09507557 -0.120992325 0.033040497 0.05300013 0.06504327 -0.044092894
-0.06593131 0.194644 0.049195915 0.014110772 -0.12051068 0.045054067 -0.14000787 -0.02090865
-0.07755513 0.041789126 -0.061450277 0.09119945 0.039940365 0.11636707 0.0038763345 0.076683134
0.041041065 0.031682573 0.0052487617 -0.12991051 -0.048829135 -0.08233928 -0.18651253 -0.0358549
-0.064433634 -0.118909396 -0.03491375 -0.0038487522 -0.04236385 -0.028259404 -0.03708311 0.13939707
-0.0559549 0.111167796 -0.035911683 -0.033013288 0.11278882 0.038090955 -0.011249883 -0.02828927
-0.1294955 -0.04384647 0.113843985 -0.018532738 -0.09726533 0.04054442 -0.069204845 0.03256166
0.09997631 -0.056961805 -0.048334196 0.0047078477 -0.03412783 -0.03381694 -0.0060082576 -0.015005135
0.17887652 -0.28684294 0.06675657 -0.08182893 0.012376009 0.15696216 0.03493954 0.016584804
0.059282623 0.11674782 0.022977935 -0.011154725 -0.16750439 0.0146356635 0.014023868 -0.08058067
0.11247479 -0.01795977 -0.026868286 0.10145377 -0.077567026 0.049963944 0.19159138 0.08016832
-0.057112884 0.11303109 0.019217515 0.077965364 -0.014247678 0.19949311 -0.013667525 -0.069573626
0.056528542 0.078633785 0.057511073 0.019996183 0.003944377 -0.1271161 -0.0725045 -0.052885953
0.054760788 0.10805154 0.07906504 -0.04692395 -0.0073670857 0.13013871 -0.10376771 0.069713704
-0.043474864 0.036740825 -0.038646456 -0.10776381 0.008892695 -0.115340374 -0.016423464 0.1244786
0.080388695 -0.096966796 0.12389499 0.037270114 0.114126265 -0.0667461 0.043361966 -0.00252667
-0.011281963 0.1427297 -0.09520717 0.03186633 -0.10851441 -0.031737994 -0.054921918 -0.20385398
0.05101627 0.02877171 0.11337191 -0.00491351 0.18133558 0.02722044 -0.01358138 0.013567351
-0.030741801 -0.0280397 0.018058864 0.051246494 0.029972387 -0.08958173 0.04695146 0.03347291
-0.07109236 0.13470232 0.05368673 -0.07873492 0.07227033 0.026725544 -0.0011610541 0.10109525
0.094607465 0.01311066 -0.108326 0.106408015 -0.006527741 0.0051354086 -0.040680364 -0.16703713
-0.029907404 0.033725932 0.017698154 0.0860832 -0.085155584 -0.12029189 0.11239152 -0.02715979
-0.041406363 0.026090128 -0.010318951 -0.014025328 -0.018680109 -0.06780534 0.05687223 0.021438502
-0.0618446 0.035716202 -0.017265443 0.040817417 0.05924205 -0.022904469 0.122660466 0.058594435
-0.019141598 -0.008164507 -0.057788216 -0.13252379 -0.012819891 -0.13976973 0.050256237 0.03905305
-0.036976483 -0.06404238 -0.07802448 0.09144986 0.110888176 -0.11851353 -0.16355474 0.026952412
-0.028192563 -0.03464433 -0.008121634 -0.009597818 -0.07179466 0.024037885 0.1961719 -0.11310052
0.08722195 0.16099063 0.08379692 0.12961426 -0.07642003 -0.053599123 -0.05705951 0.024016682
0.08397121 0.07439878 -0.01903204 -0.003699317 0.028853687 0.06553558 0.109050795 -0.025244432
0.0025661397 -0.17473772 0.021291418 -0.1165381 -0.046094004 0.037801515 0.03400761 -0.12350568
-0.045033514 -0.04017071 0.09323351 -0.105683304 -0.10781149 -0.0251952 0.02671395 -4.0009036e-05
-0.11163726 0.007674793 -0.12120042 -0.066206 0.11468445 0.026503539 0.048263267 -0.026765058
00000000: 3612 edbd f514 cb3c fbb6 c2bd d3ca f7bd
00000010: 7955 073d aa16 593d 6835 853d c09a 34bd
00000020: ff06 87bd c250 473e a881 493d de30 673c
00000030: 4ece f6bd 9d8a 383d 395e 0fbe 9e48 abbc
00000040: 39d5 9ebd 132b 2b3d 49b3 7bbd c7c6 ba3d
00000050: 8298 233d dc51 ee3d 1a0a 7e3b 0c0c 9d3d
00000060: ad1a 283d 96c5 013d cefd ab3b 4307 05be
00000070: 0f01 48bd 7fa1 a8bd 24fd 3ebe 96dc 12bd
00000080: c8f5 83bd c586 f3bd b801 0fbd 593b 7cbb
00000090: b785 2dbd 4480 e7bc 76e4 17bd 1bbe 0e3e
000000a0: f730 65bd f1ab e33d 2118 13bd f138 07bd
000000b0: d3fd e63d 4305 1c3d 6e51 38bc e6be e7bc
000000c0: 789a 04be 5b98 33bd 0927 e93d f8d1 97bc
000000d0: 0c33 c7bd e811 263d 45bb 8dbd 605f 053d
000000e0: 61c0 cc3d c850 69bd 14fa 45bd 4a44 9a3b
000000f0: a0c9 0bbd a283 0abd ebe0 c4bb 19d8 75bc
00000100: 682b 373e 14dd 92be abb7 883d ed95 a7bd
00000110: bec4 4a3c b0ba 203e c31c 0f3d dbdc 873c
00000120: 56d2 723d 7b19 ef3d 393c bc3c 4fc2 36bc
00000130: 4586 2bbe 6cca 6f3c 5ec4 653c 7a07 a5bd
00000140: 2f59 e63d 5e20 93bc e11a dcbc ffc6 cf3d
00000150: 76db 9ebd fea6 4c3d 8830 443e 4a2f a43d
00000160: 33ef 69bd d87c e73d 0d6e 9d3c 4eac 9f3d
00000170: 186f 69bc ec47 4c3e c1ed 5fbc 9e7c 8ebd
00000180: 798a 673d c00a a13d bb90 6b3d 09cf a33c
00000190: d53f 813b b92a 02be 3d7d 94bd f19e 58bd
000001a0: d94c 603d 204a dd3d daec a13d 5433 40bd
000001b0: 9867 f1bb 1543 053e 2a84 d4bd 0fc6 8e3d
000001c0: b312 32bd 8c7d 163d bf4b 1ebd 46b3 dcbd
000001d0: abb2 113c 9337 ecbd 808a 86bc a3ee fe3d
000001e0: d4a2 a43d 8796 c6bd a8bc fd3d 8ca8 183d
000001f0: 08bb e93d 2eb2 88bd 519c 313d 7d96 25bb
00000200: fcd7 38bc bc27 123e fafb c2bd 4586 023d
00000210: ce3c debd b3ff 01bd cef5 60bd 19bf 50be
00000220: 70f6 503d a6b2 eb3c 882f e83d 8201 a1bb
00000230: 09b0 393e 66fd de3c 7084 5ebc 9849 5e3c
00000240: 3bd6 fbbc 83b3 e5bc 2ff0 933c d8e7 513d
00000250: a788 f53c a076 b7bd 2d50 403d e41a 093d
00000260: df98 91bd 68ef 093e 9ee6 5b3d c63f a1bd
00000270: 7702 943d 87ef da3c 832e 98ba 070b cf3d
00000280: 8fc1 c13d 18ce 563c 06da ddbd 72ec d93d
00000290: a9e6 d5bb ee46 a83b 74a0 26bd c80b 2bbe
000002a0: 5f00 f5bc 3424 0a3d b8fb 903c 644c b03d
000002b0: 0d66 aebd 985b f6bd 862d e63d 357e debc
000002c0: b899 29bd f7ba d53c d110 29bc 7dca 65bc
000002d0: 0707 99bc 87dd 8abd dbf2 683d cc9f af3c
000002e0: c350 7dbd 274b 123d 4270 8dbc 2a30 273d
000002f0: cba7 723d 27a2 bbbc 6935 fb3d b800 703d
00000300: d7ce 9cbc 6dc4 05bc 56b3 6cbd 51b4 07be
00000310: 850a 52bc cc1f 0fbe 7cd9 4d3d 17f6 1f3d
00000320: a774 17bd a728 83bd 4ccb 9fbd 104a bb3d
00000330: 5719 e33d 39b7 f2bd e57a 27be 4ecb dc3c
00000340: 17f4 e6bc 37e7 0dbd 9a10 05bc 2b40 1dbc
00000350: 1409 93bd 19eb c43c 49e1 483e 3fa1 e7bd
00000360: 6ca1 b23d bada 243e b89d ab3d 9ab9 043e
00000370: 1b82 9cbd c18a 5bbd 3cb7 69bd a2be c43c
00000380: 19f9 ab3d 635e 983d 15e9 9bbc 3e70 72bb
00000390: 915e ec3c 8537 863d 0656 df3d 69cd cebc
000003a0: ae2c 283b 72ee 32be 576b ae3c 87ab eebd
000003b0: 11cd 3cbd c3d5 1a3d 904b 0b3d 8cf0 fcbd
000003c0: 1075 38bd 0b8a 24bd 36f1 be3d 7d70 d8bd
000003d0: 45cc dcbd 2a66 cebc 37d7 da3c 60cf 27b8
000003e0: 13a2 e4bd d47c fb3b ed37 f8bd 0397 87bd
000003f0: aedf ea3d f31d d93c b4af 453d 6542 dbbc

GCN_Layers.0.W1.bias f4 [64]
0.043296847 -0.020849813 0.01900861 -0.011435414 0.028952302 -0.028188579 0.0040373057 0.10922044
0.12430664 -0.09632393 -0.067097664 0.04397527 -0.08820926 0.053421732 0.12642463 -0.027352728
0.037466258 0.10932976 0.110164866 0.076079205 -0.058214445 -0.07335494 0.0013416641 -0.04698132
-0.035968512 0.079246566 -0.036952753 -0.041203544 0.05372813 0.04677753 -0.013669856 0.07773673
0.18398425 -0.025082186 0.03805663 -0.07912279 -0.015074223 0.012340892 -0.09353521 0.05272035
0.0011976315 0.08557515 -0.0808254 -0.024668219 0.07494517 -0.06659515 -0.043069504 0.01016704
0.14382154 0.0737035 -0.062573835 0.0030431773 0.06982626 0.0064441278 0.025862718 0.053284828
-0.032930575 -0.04909469 -0.06824665 -0.07078203 0.068224154 -0.04193854 0.026511217 -0.02304585
00000000: 0958 313d 3acd aabc f2b7 9b3c 9a5b 3bbc
00000010: 612d ed3c bceb e6bc 604b 843b f7ae df3d
00000020: 7b94 fe3d 7b45 c5bd 806a 89bd 6a1f 343d
00000030: 0ea7 b4bd bfd0 5a3d 7575 013e d412 e0bc
00000040: 3876 193d 48e8 df3d 1e9e e13d 6acf 9b3d
00000050: 4572 6ebd 1d3b 96bd c7da af3a 7c6f 40bd
00000060: b853 13bd 064c a23d c55b 17bd 0cc5 28bd
00000070: 0712 5c3d cc99 3f3d 88f7 5fbc 6f34 9f3d
00000080: 5e66 3c3e 2879 cdbc 45e1 1b3d 210b a2bd
00000090: e0f9 76bc 7431 4a3c 638f bfbd 4bf1 573d
000000a0: d8f9 9c3a 0642 af3d ca87 a5bd 0115 cabc
000000b0: da7c 993d 0a63 88bd a669 30bd a893 263c
000000c0: f445 133e dcf1 963d b626 80bd 0b70 473b
000000d0: 1201 8f3d 4329 d33b 0dde d33c 3141 5a3d
000000e0: 36e2 06bd 8317 49bd e6c4 8bbd 2bf6 90bd
000000f0: 1bb9 8b3d bfc7 2bbd 0d2e d93c a7ca bcbc

GCN_Layers.0.W2.weight f4 [64, 64]
-3.2100506e-05 -0.0013954899 0.00091757404 -0.0010746666 0.0028472007 0.00057526364 -0.002743134 0.0024432128
-0.002028168 0.0048914226 -0.006893867 0.0030804223 -0.00047207676 -0.004413054 0.0040415623 0.007620348
-0.0022399111 -0.004117488 -0.00083236635 0.004768231 0.00024355532 0.0003799907 -0.0017669277 0.004200302
-0.0019404205 0.00035777365 0.0025641122 0.0022784888 0.0018189074 0.00028709596 0.0038068015 -0.0023473979
0.12762573 -0.04342178 0.15418142 -0.02376835 -0.021576729 0.039894644 0.1473789 -0.002520007
0.017377222 0.013625081 0.01582365 0.02509347 -0.011282651 0.0055557364 0.011946834 0.0015224658
0.014482718 0.02079283 0.024990847 -0.030694788 -0.06553889 -0.07712985 0.026231831 0.0021409863
-0.030963656 -0.0020258466 0.024341682 -0.03247455 0.043001954 0.025333315 0.021854647 0.011271448
-0.0042648846 0.005439526 -0.0010409852 0.001206565 -0.021199895 0.019276313 0.017627362 -0.007796756
0.009590864 0.025268136 0.0005955662 0.010179411 -0.0005259758 0.00075096916 0.011888548 -0.00520414
0.01920959 0.024399124 0.024120022 -0.00068885065 -0.005129081 -0.0021740268 0.018038593 0.008693675
-0.008574699 0.009975885 -0.008585753 -0.009794867 0.0032176538 -0.0017562563 -0.0108331125 0.004445247
0.018714553 -0.092252046 -0.12066375 -0.029246032 -0.056189884 0.052080624 0.04972616 -1.04268765e-05
0.043741647 0.13846298 -0.0063757836 0.0793993 0.1240963 -0.024129665 -0.09295002 0.14387555
0.009271858 -0.07428586 -0.02956888 0.03224163 0.014076171 0.16399026 0.106083296 -0.019752504
-0.12050637 0.0056153233 0.012247412 0.049370617 -0.012096322 -0.11644361 -0.0040552276 0.08240614
0.0030929071 -0.004674819 -0.00097254384 0.00038131926 0.006592617 -0.00047220278 -0.0053571695 0.0062923953
-0.000115996794 -0.012442676 0.0015870428 0.002993884 0.0024065864 -0.0015565853 0.000864062 -0.0048450273
-0.002133768 -0.0010116089 -0.0009522203 0.0053391852 0.0009518279 0.0014186448 -0.0072279526 -0.0041951938
0.00022584602 -0.008027287 0.002997911 -0.003474798 0.0019414478 0.006612392 0.008751878 -0.0027140179
0.059738446 -0.05782962 -0.058870457 0.0034878985 -0.09468845 0.06850294 0.045258008 -0.06702908
-0.0065822983 -0.025755936 0.041476034 0.0057243626 -0.0072581777 -0.0059773396 0.004809164 0.048471518
-0.061500832 -0.09668505 -0.022690559 0.021887945 -0.005157515 -0.028261991 0.005517707 0.00072178914
-0.055610508 -0.025759047 -0.03334188 0.0103835175 -0.06235546 -0.0006881024 -0.014303214 -0.017059388
0.009426709 -0.006857249 0.004197302 -0.0013758922 0.0028001328 -0.0009070989 -0.014996518 0.00015659904
-0.008989806 -0.016474158 0.0027211872 -0.0025058663 -0.0027456302 -0.013262349 -0.007323062 0.0013296772
-0.010697119 -0.009728134 -0.0067347786 0.0006098567 0.006096536 -0.0011102919 -0.0036415467 -0.001203478
0.00046620425 -0.0021708023 0.005721663 -0.0033814667 0.0015287971 0.0038545295 0.004101154 -0.0058191973
-0.03967291 -0.08688735 -0.00816225 -0.043869074 -0.058695246 0.03182808 0.047482293 0.0002944055
-0.033946242 -0.018587878 0.027913336 0.06970885 -0.013746605 -0.015677178 -0.026304414 -0.05998347
-0.047565304 -0.040541004 -0.004963306 0.015158407 -0.031147616 -0.020923737 -0.014151883 0.013326595
-0.009929239 -0.01405114 0.026901184 -0.029613992 0.07495707 -0.030621488 -0.0025770802 -0.03970671
00000000: a8a3 06b8 dfe8 b6ba 5a89 703a d4db 8cba
00000010: 1a98 3a3b 4acd 163a 27c6 33bb 4f1e 203b
00000020: 03eb 04bb 3a48 a03b f3e5 e1bb e9e0 493b
00000030: 1281 f7b9 619b 90bb 156f 843b 1db4 f93b
00000040: 79cb 12bb feeb 86bb 2933 5aba d23e 9c3b
00000050: e262 7f39 7d39 c739 4198 e7ba b0a2 893b
00000060: b555 feba 9193 bb39 aa0a 283b b352 153b
00000070: 6868 ee3a 5e85 9639 887b 793b cdd6 19bb
00000080: 52b0 023e 09db 31bd bce1 1d3e d8b5 c2bc
00000090: aec1 b0bc 9168 233d 7fea 163e b426 25bb
000000a0: ad5a 8e3c bb3b 5f3c 99a0 813c d290 cd3c
000000b0: deda 38bc e50c b63b a7bc 433c 7a8d c73a
000000c0: ec48 6d3c ba55 aa3c 9bb9 cc3c a373 fbbc
000000d0: 4139 86bd 41f6 9dbd 23e4 d63c ca4f 0c3b
000000e0: 7ea7 fdbc 11c4 04bb 3568 c73c 0904 05bd
000000f0: d122 303d d087 cf3c 8408 b33c e1ab 383c
00000100: 72c0 8bbb 0d3e b23b ab71 88ba 9a25 9e3a
00000110: 67ab adbc 5ce9 9d3c 4267 903c ee7b ffbb
00000120: 0023 1d3c 1fff ce3c c51f 1c3a 8bc7 263c
00000130: a3e1 09ba b0dc 443a 2fc8 423c 7e87 aabb
00000140: 6e5d 9d3c ace0 c73c 5a97 c53c fc93 34ba
00000150: da11 a8bb 1e7a 0ebb acc5 933c ea6f 0e3c
00000160: e57c 0cbc e571 233c 42ab 0cbc a67a 20bc
00000170: 46df 523b 2f32 e6ba 5e7d 31bc 6fa9 913b
00000180: 434f 993c a4ee bcbd 8e1e f7bd 6095 efbc
00000190: 5d27 66bd 7e52 553d a8ad 4b3d 18ef 2eb7
000001a0: 712a 333d 3dc9 0d3e f3eb d0bb 1a9c a23d
000001b0: 3326 fe3d 93ab c5bc 955c bebd 1d54 133e
000001c0: fee8 173c 2f23 98bd 703a f2bc cd0f 043d
000001d0: be9f 663c 10ed 273e 3342 d93d 01d0 a1bc
000001e0: 0bcc f6bd bf00 b83b 5fa9 483c d838 4a3d
000001f0: a72f 46bc fd79 eebd b7e1 84bb 8dc4 a83d
00000200: 5fb2 4a3b 392f 99bb 50f2 7eba ceeb c739
00000210: e106 d83b fc91 f7b9 328b afbb 7030 ce3b
00000220: 4e43 f3b8 5edc 4bbc 5204 d03a 0a35 443b
00000230: d2b7 1d3b 5606 ccba 3882 623a 09c3 9ebb
00000240: b0d6 0bbb f697 84ba 6c9e 79ba 55f4 ae3b
00000250: 1784 793a d2f1 b93a 76d8 ecbb d677 89bb
00000260: 14d1 6c39 e284 03bc 9a78 443b 70b9 63bb
00000270: 2e78 fe3a c4ac d83b 0964 0f3c aadd 31bb
00000280: 4db0 743d c0de 6cbd 2622 71bd 3a95 643b
00000290: 05ec c1bd 454b 8c3d 7660 393d 8b46 89bd
000002a0: 52b0 d7bb 1dfe d2bc c6e2 293d 6f93 bb3b
000002b0: 02d6 edbb 8fdd c3bb 3196 9d3b 128a 463d
000002c0: 4ce8 7bbd d002 c6bd 8de1 b9bc 594e b33c
000002d0: 5f00 a9bb b185 e7bc e2cd b43b 7336 3d3a
000002e0: d8c7 63bd a304 d3bc 7f91 08bd a11f 2a3c
000002f0: 7068 7fbd c561 34ba 0758 6abc 21c0 8bbc
00000300: 7c72 1a3c c6b2 e0bb 8589 893b 4857 b4ba
00000310: 6f82 373b 60ca 6dba f5b3 75bc bc34 2439
00000320: fb49 13bc d0f4 86bc f255 323b 7639 24bb
00000330: 08f0 33bb 534a 59bc 4cf6 efbb 9048 ae3a
00000340: f842 2fbc c062 1fbc 6baf dcbb cade 1f3a
00000350: 73c5 c73b 3787 91ba 04a7 6ebb 05be 9dba
00000360: e06c f439 0544 0ebb ca7c bb3b 999b 5dbb
00000370: eb61 c83a 469c 7c3b f962 863b f7ae bebb
00000380: 1080 22bd fff1 b1bd f5ba 05bc 0fb0 33bd
00000390: 6d6a 70bd 295e 023d cb7c 423d 705a 9a39
000003a0: 370b 0bbd 9b45 98bc 82aa e43c 83c3 8e3d
000003b0: 7139 61bc 6d6d 80bc 5b7c d7bc 3ab1 75bd
000003c0: d6d3 42bd 530e 26bd 3aa3 a2bb f85a 783c
000003d0: 4929 ffbc 4268 abbc 4ddd 67bc ca57 5a3c
000003e0: 3fae 22bc c136 66bc df5f dc3c 0b99 f2bc
000003f0: 1883 993d ead9 fabc 3be4 28bb 81a3 22bd

GCN_Layers.0.W2.bias f4 [64]
-0.05721321 -0.056365885 -0.08590419 0.0934238 -0.020018281 0.037861597 -0.11540154 0.007568932
0.019578448 -0.009149565 -0.062139187 -0.07756025 0.07334556 0.009728992 0.00088571577 0.0095993625
-0.004462003 -0.055749997 -0.04770597 0.0007852861 0.0930018 -0.11098713 0.1184514 0.057332832
0.11591189 -0.0387698 0.034759786 -0.034398966 0.009242859 0.016046075 0.04231524 0.015699767
0.08508329 -0.005497008 0.0049090167 0.028143743 -0.04628808 0.0907529 0.13838941 0.019937143
-0.08360129 0.034441493 -0.052987114 0.07582108 0.07837755 0.031287942 -0.014320601 0.038972672
-0.020745043 -0.06300608 0.07921304 -0.03668041 0.055904724 -0.083918214 0.07121962 0.06987032
-0.012162168 0.13931954 0.08239757 -0.025786106 -0.09480459 0.0619716 0.007622605 -0.022217138
00000000: 6658 6abd eadf 66bd 89ee afbd fa54 bf3d
00000010: 61fd a3bc c314 1b3d a557 ecbd ce04 f83b
00000020: fb62 a03c 0fe8 15bc a985 7ebd e9d7 9ebd
00000030: 3236 963d 5a66 1f3c 612f 683a a546 1d3c
00000040: fe35 92bb 1c5a 64bd 5667 43bd a8db 4d3a
00000050: ba77 be3d 384d e3bd a696 f23d d5d5 6a3d
00000060: 3763 ed3d 15cd 1ebd 4760 0e3d eee5 0cbd
00000070: 5c6f 173c 0f73 833c bf52 2d3d cc9c 803c
00000080: 2640 ae3d 3f20 b4bb d1db a03b b58d e63c
00000090: 9298 3dbd a8dc b93d f4b5 0d3e 3853 a33c
000000a0: 2737 abbd 8612 0d3d 0409 59bd 1548 9b3d
000000b0: 6984 a03d c927 003d f4a0 6abc cfa1 1f3d
000000c0: 82f1 a9bc 5509 81bd 723a a23d 333e 16bd
000000d0: 5afc 643d 50dd abbd 98db 913d 2c18 8f3d
000000e0: d443 47bc c8a9 0e3e 0fc0 a83d 623d d3bc
000000f0: e928 c2bd efd5 7d3d 0cc7 f93b b700 b6bc
