lab4-student/code/model/bestModelParms-11-14-19-51.pth (torch, 465577 bytes, 20 tensors)

user_id_embedding.weight f4 [900, 32]
00000000: 48a0 cb3f 6442 9dbe 185d 52bf c2eb 70bc
00000010: 2dd0 6ebe 7334 283e e692 abbf f545 33bf
00000020: 3c4e 95be 6618 893e df4d d53e 9644 233e
00000030: 0eec 1d3e b089 183f 0413 78bf c4c4 66bf
00000040: 6332 ddbf 9738 c63e 6ae0 c53b 097e 41bf
00000050: a063 1cbe ca05 023e 7bad 0fbf b2ce a4bf
00000060: 07ba 5dbd eabe 21bf 587b 57bf f691 87bd
00000070: db07 283e 8fa6 6fbe 0618 993e 6c77 153d
00000080: 3405 183c e7c2 823f 4507 2dbe 5f3d 523f
00000090: acb0 763e fb10 7dbf 86a8 01be 9721 fbbe
000000a0: 3c0f 8eb9 fe55 f6bd 7fb1 583f 7116 ed3a
000000b0: 0efb 0bbd 97bb e5be 7b12 133e 3637 1e3f
000000c0: cb22 4fbf b796 d13a 7048 31bf 0bbd 243e
000000d0: 1d7b 60bf e1de bb3e 375a ac3e 0f3e d73f
000000e0: d259 08c0 e7b6 ab3f d9dc 89bf b8e1 0fbd
000000f0: d268 d23c 3768 dc3f fe71 493f d8fd 1d3c
00000100: 8a2f 71bc 3470 23bf 7d84 03bf 1c48 da3b
00000110: 3623 a9bc 6c65 663f 1243 f3bb 4b20 2ebe
00000120: a436 a23f 40d2 babe 8386 76be 7d17 a93b
00000130: 8a02 c3bf 1dac aabe 1814 02bb a107 25bf
00000140: aec1 303f 577d b4be 7cac b5bf 283b 343f
00000150: 5221 dd3b 251c 08bf bb0c 6abf eecb f03e
00000160: 99cf da3a 009d 873f 9588 dbbe 7462 a2be
00000170: 98f1 e3bc 5d84 21ba ab82 7f3e 228c 89bf
00000180: bd1a a73f 4f07 463f b22c cb3e aa20 c1ba
00000190: 5cec 9e3f 7435 02bf 203e 043f a0c0 83be
000001a0: 380a 94bf 53eb 4fbf 292c 723f 5593 443f
000001b0: a5ea 673f 0d2e 863e cbe2 bcbe 690b cc3e
000001c0: af57 2dbe f4ea c0b7 8297 593a 6754 623f
000001d0: f83b a63b e33b 6dbe e3f7 343e 93ae 01bf
000001e0: 68c6 17bf 4a2f 483b e260 1cbb e028 ab3f
000001f0: a1fd 9c3b 463f 33ba fc55 b73e ede6 f5bd
00000200: 0414 b5bd e251 b33d 4309 11bf 69cd 32bf
00000210: f392 2b3b d87a b13f 0b05 a43f 23c4 eb3e
00000220: dbe8 b0ba 2be2 7ebf e9ee 4dbe 9488 50bf
00000230: 0ec9 3dbc 0cf5 583f 48c9 4c3f d1c4 003f
00000240: db83 a83c facf f33e 99f7 75be 8d75 6cbe
00000250: 09f8 57be c8ee 723b 77cc 9a3d e0e6 8bbc
00000260: b72a e6be 4ee7 403f 07e6 4dbf 1b8f 7e3f
00000270: 871d 2fbe 09bd 173f 4055 9d3f a136 1b3f
00000280: 0d87 55be 840b a03e 445e d2bf f108 a4bf
00000290: cc93 5fbf 677a 7c3e 32bb d83f 469a 3c3f
000002a0: a3f4 93be 3eab 8abf 1c4c 71bf e801 aebd
000002b0: 442e d5bf 6184 e53f 12cf 64bf 60c1 3bbd
000002c0: f5c5 2b3d 98d4 6bbd b94a bc3f a10c 18bf
000002d0: d9cc aebc c9d2 283f c22f 70bd bc3b 973c
000002e0: aece a3bf 6ba6 c23d 8fed d1bf f238 cebc
000002f0: 4800 dc3d e4bf 0fbd bffa 763f 20cb 0a3f
00000300: dbe2 153f 3bcc 86bf 9efd 283e 404d 543f
00000310: a853 4f3f dde9 b5bf 769e b9bf b9d1 353f
00000320: 5675 07bf 2173 dabd 298c 663f b72c b03b
00000330: 6716 2b3f bf2a 563f b61e 01c0 15bc 31be
00000340: 87ba c03d 9773 36c0 e26b 11bf 2598 76bf
00000350: 4152 0bbe c35a 39bc 2d33 58bf 1d53 d63c
00000360: 5db5 efbb bf0a 2d3f b4d7 66bc a684 7ebf
00000370: 8113 bebf d6e4 513d c600 1240 71bf 23bc
00000380: faa8 313f 16a3 deba 7432 2f3c 1f3f d53e
00000390: f8e3 0940 3ff1 04bf de67 c63e af66 6cbd
000003a0: ac03 d33c 8602 773f 8f8c dbbf 6098 ecbe
000003b0: ffb4 07bc d085 083f a099 28be 54c3 9c3f
000003c0: 4622 0cbf cdac 2ebf 3b4c 93bf 51d3 33be
000003d0: 91c1 923f f452 19bf 2af7 693f 03d6 99bd
000003e0: 3416 1abe ae52 863b 8e98 04bc dc77 95bc
000003f0: 4370 a73e ce1b 98bc 5454 0c3f 6ce4 c3bf
1.5908289 -0.30714715 -0.821733 -0.014704647 -0.233216 0.16426258 -1.3404205 -0.7002862
-0.2916125 0.26776427 0.41660973 0.15944132 0.15422079 0.59585094 -0.96904016 -0.9014399
-1.7281002 0.3871505 0.006038715 -0.7558294 -0.15272379 0.12697521 -0.56124085 -1.2875578
-0.054132488 -0.63181937 -0.8417258 -0.06619637 0.16409247 -0.23403381 0.2990114 0.036490843
0.009278584 1.021573 -0.16897304 0.82124895 0.24090832 -0.98854035 -0.12661943 -0.49049065
-0.000270957 -0.120281205 0.8464584 0.0018088353 -0.03417497 -0.44869682 0.14362518 0.61802995
-0.80912465 0.0015990351 -0.69251156 0.16087739 -0.87687856 0.3669348 0.33662578 1.6815814
-2.1304822 1.3415192 -1.0770522 -0.03512737 0.025684748 1.7219304 0.78689563 0.009643041
-0.014720807 -0.63843083 -0.51374036 0.006661428 -0.020646673 0.8999851 -0.007423767 -0.17004506
1.2672925 -0.36488533 -0.2407475 0.0051602707 -1.523515 -0.33334437 -0.0019848403 -0.64464766
0.6904553 -0.35251877 -1.4193263 0.70402765 0.006748357 -0.53167945 -0.91425675 0.47030586
0.0016693949 1.0594788 -0.4287764 -0.3171574 -0.027825162 -0.0006161386 0.2495219 -1.074589
1.3055035 0.773549 0.39682537 -0.0014734466 1.2415881 -0.50862813 0.51657295 -0.257329
-1.1565619 -0.8121845 0.94598633 0.7678731 0.90592414 0.2620701 -0.3689178 0.39852455
-0.1692798 -2.2997592e-05 0.00083004695 0.8841004 0.005073067 -0.23167376 0.17672686 -0.50657004
-0.5928712 0.0030545765 -0.0023861458 1.3371849 0.004790977 -0.00068377366 0.35807788 -0.12006936
-0.08841708 0.08755852 -0.5665476 -0.6984468 0.0026180118 1.3865614 1.2814039 0.46048078
-0.0013497131 -0.99563855 -0.20110668 -0.814584 -0.01158358 0.8474891 0.7999463 0.5030032
0.020570686 0.4761961 -0.24020232 -0.23091717 -0.21090712 0.0037068594 0.0755853 -0.017077863
-0.44954464 0.7535294 -0.8042912 0.9943711 -0.17101108 0.5927282 1.2291641 0.6063023
-0.20852299 0.31258786 -1.6435018 -1.2815229 -0.87334895 0.24656068 1.6932127 0.736729
-0.2889758 -1.0833509 -0.9425676 -0.08496457 -1.6654744 1.7931024 -0.89378464 -0.045838714
0.041936833 -0.057575792 1.4710304 -0.5939427 -0.021337913 0.6594663 -0.058639295 0.0184611
-1.2797449 0.09504398 -1.6400622 -0.025173638 0.10742241 -0.03509511 0.9647636 0.54216194
0.5854928 -1.0531076 0.16502997 0.82930374 0.80987024 -1.4211994 -1.4501483 0.71023136
-0.52913415 -0.1066649 0.9005762 0.005376424 0.6683106 0.83658975 -2.0174994 -0.17356904
0.09410577 -2.850805 -0.5680524 -0.96325904 -0.13605596 -0.011313143 -0.8445309 0.026162678
-0.0073153214 0.6759452 -0.014089514 -0.99421155 -1.4849702 0.051243626 2.2812972 -0.009994374
0.6939846 -0.0016985859 0.010693181 0.4164972 2.154539 -0.5193061 0.3875112 -0.057715114
0.025758587 0.96488225 -1.715227 -0.46210003 -0.008282899 0.5332918 -0.16464853 1.224711
-0.547398 -0.68232423 -1.1507639 -0.1756108 1.1465322 -0.598922 0.9139277 -0.075115226
-0.15047532 0.0040992117 -0.0080930125 -0.01824563 0.32702836 -0.018567946 0.54816175 -1.5304084

user_age_embedding.weight f4 [5, 4]
00000000: 1580 143f 4ee8 e93e 688c d9bf 3903 9c3f
00000010: a6ec 253f d9d9 e2bf 1a39 1bbf 8139 f53e
00000020: fe9d b73e 4834 d6be 4251 153e 7279 21bf
00000030: 2442 b53f 98e7 0f3f c06b 7a3f 1a72 f23e
00000040: 240c d7bd f1a4 dc3e e094 9e3f 25da cabf
0.5800794 0.45685047 -1.6995974 1.2188483 0.6481422 -1.7722732 -0.60634005 0.47895434
0.35862726 -0.41836762 0.14581779 -0.63075936 1.416081 0.5621276 0.97820663 0.47352678
-0.105003625 0.4309459 1.2389183 -1.5847822

user_gender_embedding.weight f4 [2, 2]
00000000: 4576 443d 4dd2 a53e 41b3 cabf e146 d33e
0.047964353 0.3238701 -1.5835954 0.41265014

user_occupation_embedding.weight f4 [21, 8]
00000000: d8b4 153e e3c3 813f abe6 55bf b3ae b83d
00000010: a2ee 2e3f 5439 c93e 3612 ee3f 0547 7f3f
00000020: 141f 20bd 124c babf 462f 423f bcf4 ebbe
00000030: 8427 a8bf 89dd 123f 200b eabe 4581 edbe
00000040: a2db 7f3f ffd4 47bf 8d12 9c3f edd4 983e
00000050: 08ce 5b3f ebd0 66bf 1675 ebbe 68d3 213f
00000060: 1acc 1240 d532 773d d452 e2bf 4142 0240
00000070: db5d d63d d700 12be 1b53 42bf 9819 44bf
00000080: 0a6d 253f 4d34 92bf 867d 3bbf d8e8 e33e
00000090: c0a3 103f decc 92bf d97a 113f d5a2 94bf
000000a0: bd2d b5bf a51d b5be 039b 023e d566 05be
000000b0: 3ed2 a0be 03be a7bf c78a 453f d93e c7be
000000c0: 86f4 9e3e 064b 15c0 f268 083f d913 c03e
000000d0: bffd 20bf 963a 3e3f 0f35 d03d 5d17 243f
000000e0: 8f77 db3d ae20 223f 6a50 34bf 53ab 7d3f
000000f0: e75a 8bbe 8e8e 713e 1831 333f b371 273f
00000100: f03d b8bd f2f2 5dbf 3a70 fe3e 69d9 be3d
00000110: 6ebf aebe 304c 8fbf 1ca2 633f 62ce 8dbe
00000120: 95f1 6b3f eed9 8abe 14b3 fa3d d4ee 2fbf
00000130: 09ee debe be40 a5be 4dee 923f f5db 133f
00000140: 9a73 7fbd fa67 1cbf 162c b93e 6a5b 01bf
00000150: f445 473f d29b 0bbf e59e 79bf a9c5 4fbf
00000160: f207 17bf 6d83 bbbd 0697 1f3f 21aa fcbd
00000170: 2a27 ab3f dd42 a0bd b60a 41bf f1d5 e13e
00000180: 654b e43f 59fc c53f f367 783f d1dd 81bf
00000190: c0b2 37bf 4daa d93b a031 9b3d 7302 47bf
000001a0: ab51 563e 2576 67bf 2b01 1f3f f72b e2bd
000001b0: 385f 043f b72d 963f 5929 133e 2bb0 073f
000001c0: 781b 4f3e db97 923f 97c4 1f3f 0eff 10be
000001d0: 8f0e d8be 423d 69bf 5b2d fb3d d1fd 74be
000001e0: 4977 433f bbc4 713f 3738 4ebe 5c85 c7be
000001f0: e0bc f8bd 2779 ef3f 9b2f 2a3f da03 15be
00000200: b7c5 1d3e 19bf 693d be65 3abf f161 ccbe
00000210: cf59 13bf 06e6 493d 0cff 093d eefc e13e
00000220: 78a8 8a3f 4f44 753e a60e ddbf 8dd6 12bf
00000230: f61b ab3f 860e 45bf 5d53 b93f 0f36 e63d
00000240: dece 853c 5476 e0bd a913 a33f 84c4 81bd
00000250: 4e9f 923d dc3a a3bf c9d1 abbe b9ce b6be
00000260: 7e54 8e3f 6793 503f f2f3 26c0 46b8 5ebf
00000270: 6df7 e5be e49d 43bf a2c8 4f3f 5975 9a3e
00000280: 793f 0bbe f1de a0bf a70f ea3e f3c9 30bf
00000290: 5d7a 15bf 3b7d 16bf 3675 4bbe 999a 2d3f
0.14619768 1.0137905 -0.83555096 0.09017696 0.68332875 0.3930155 1.8599308 0.9971774
-0.03909214 -1.4554465 0.75853384 -0.46085155 -1.3137059 0.57369286 -0.45711613 -0.46387687
0.9994451 -0.7805938 1.2193161 0.2984995 0.85861254 -0.90162534 -0.45987767 0.63213205
2.2937074 0.06035121 -1.7681527 2.0352938 0.1046712 -0.14258133 -0.7590806 -0.7660155
0.64619505 -1.1422211 -0.7323841 0.44513583 0.5649986 -1.146877 0.56828076 -1.1612192
-1.4154583 -0.3537418 0.12754445 -0.13027509 -0.31410402 -1.3104862 0.7716488 -0.38915136
0.31045932 -2.332704 0.53285134 0.37515143 -0.62887186 0.74308145 0.1016637 0.6409815
0.10716163 0.63331115 -0.704352 0.99089545 -0.2721779 0.23589537 0.69996786 0.65407866
-0.08996189 -0.8669883 0.49694997 0.093188114 -0.34130424 -1.1195126 0.88919234 -0.2769652
0.921655 -0.27119392 0.12241188 -0.687238 -0.4354098 -0.32275957 1.1478974 0.577575
-0.062366106 -0.61096156 0.36166447 -0.5053011 0.77841115 -0.5453464 -0.9750808 -0.8116098
-0.589965 -0.09155927 0.6233982 -0.12337137 1.3371327 -0.07825253 -0.7540697 0.44108537
1.7835509 1.5467635 0.97033614 -1.0145818 -0.71757126 0.006642616 0.075778246 -0.7773811
0.20929591 -0.9041465 0.6211116 -0.11043542 0.5170779 1.1732701 0.14371242 0.53003186
0.20225322 1.1452593 0.6240935 -0.14159796 -0.42198607 -0.91109097 0.1226451 -0.23924948
0.7635389 0.9444081 -0.20138632 -0.38968933 -0.121454 1.8708848 0.6647889 -0.1455225
0.15407453 0.05706701 -0.72811496 -0.39918473 -0.5755891 0.049291633 0.033690497 0.44138283
1.0832663 0.23951839 -1.7270095 -0.5735863 1.3367908 -0.76975286 1.4478565 0.112407796
0.016333994 -0.10960069 1.2740375 -0.063363105 0.07159291 -1.2752337 -0.3355849 -0.35704592
1.1119535 0.8147492 -2.6086392 -0.8699993 -0.44915333 -0.76412797 0.81165516 0.30167654
-0.13598432 -1.2568036 0.45715067 -0.6905815 -0.58389837 -0.58784837 -0.19868931 0.6781402

user_location_embedding.weight f4 [760, 18]
00000000: 3498 5c3e ebba 27be e927 c5be db44 45bf
00000010: bc56 623f 998f 5a3f 9721 e53e 2c80 783f
00000020: 39d3 38bf ee58 1dbc e07e f8be 5955 063f
00000030: fd47 ddbe ec7f 50bf 09f8 853e 1a10 eaba
00000040: 7a94 b03f 93ff 54be ab98 523c 5a7d a6be
00000050: f9f8 85bc 7d36 a43e dae3 cfba cfb3 083c
00000060: d782 f73c 6236 bf3e 3987 173d cba0 76bf
00000070: 2f96 753f fe2d 453f d8c5 2c3f 7842 62bf
00000080: 3d1e 113f fddd 833b b6b6 3cbb eb0b 0c3e
00000090: 2237 43bd f09f 3a3f ff3d 17bf d5ae 15bf
000000a0: fd6b 75bf 8273 f9be 6f22 8cbc 2327 293f
000000b0: 0208 65bd 43ce ba3f da2e dcbc 0088 ae3f
000000c0: f275 393f 8dc6 4dbb a779 c23c 0e3f 5040
000000d0: 7902 b7be a4f7 cf3e 01df 20bf f8fd 903e
000000e0: 56e9 9d3b 6727 30be f4ae cabf ad00 b3bf
000000f0: 3927 ce3f 8d94 133f bb0a 10bf 849f 913f
00000100: db76 1e3f bd14 cc3f 28be 88bf 9dda 1e3f
00000110: ba59 4fbf d21a 2d3d fce1 ee3d 22c6 14bc
00000120: 84d7 9ebe cc28 3dbe 156d dbbe 8868 0e3b
00000130: 334d 58bf bd2d 253f f269 19bf 269c bfbf
00000140: 9e4e 90bd 4f82 9f3d d9fd acbf ee5d 9f3f
00000150: eb33 84bf 8da0 f0bf 0f5d 4ebf 413f fe3e
00000160: f6bf 423d e060 bc3e 82d2 4a3d 7390 3d3f
00000170: cc3d bbbe 81c2 0dbf c3d9 713d 1fc6 edbe
00000180: 71c6 43bd 0709 23bf fbb3 893f bb32 103e
00000190: 5ea1 22bd f1fe 9f3f 76c8 c5bc 5c5c d03e
000001a0: 8995 a7be cb8b 97bd a78b e73e 90ca 383f
000001b0: eee9 95bf c79c 64bf b7db a0bf 43fe b8ba
000001c0: 452f 0f40 9204 0bbf 48f7 68bb edf1 3e3f
000001d0: 1dd5 e1be 7b33 163e d27a 90bf 825d 14bd
000001e0: 92f5 d8be 9398 f9be a392 813e 6ef0 87bd
000001f0: a45a a23a 85c2 99bd 611a 1540 d951 9b3e
00000200: e331 28c0 3cbe cabc e5c1 92ba acf6 d6be
00000210: 2590 393d da1b 243d 3986 0d40 d3ce 413c
00000220: 7a5a 193c 0236 9cbe 5d77 bebf 3a57 633d
00000230: 0bd8 123f 1795 073c fee5 84be 16c9 d5bf
00000240: 0cd9 02be 8375 3cbf 301a cdbe 292b 87bf
00000250: cc14 10bf ade1 9f3f 907c f9be 37f1 37be
00000260: f45d 3f3b 7fd6 523e d261 4b3f 26be 7e3f
00000270: 76d9 dbbe 8475 43be d381 363c f662 c9be
00000280: a499 f03b eee9 083d 595b dfbe b674 1a3d
00000290: 9095 b0bc 902f 25bd 1cfc 643f 2510 ca3e
000002a0: b184 8dbf 8534 3a3c 2454 5b3f 5cda f13f
000002b0: 454f bbbb ec0d 163e a7d9 e93d 1c9d c3be
000002c0: d6f7 963b 41a6 2fbc dd08 8cbf 6460 d23a
000002d0: 16a8 2bbc ba22 773f 715a 89bf 2d19 5f3f
000002e0: 27fc ad3f d29c 243f 1b53 42be 5c3c f73f
000002f0: 81e2 9ebf 8597 a53f e3b2 833f 8f40 fdbc
00000300: 5b74 51be ec87 093c fd3f 2ebf b833 6a3f
00000310: 85eb 2fbd bdc4 05c0 02bb 1ebe ffc4 a2bf
00000320: b27d 183f 2092 153f 41f0 f2be 0732 e53e
00000330: 50e1 94be b316 b73e 497a 3e3f 6842 eebe
00000340: 0148 27be ad4a 80bf 9605 903f 827f c7be
00000350: d7c5 993f e357 be3f d411 4fbf 5cdf bd3f
00000360: b0ce c5be 17c3 bebf 8de7 54bf 80b5 113f
00000370: 8005 1040 475b 2d40 40d5 7bbf 25d8 363f
00000380: 7fa7 08bf 119d c2bd 85f6 983d d412 b9be
00000390: 52f9 12bf 64f7 8abd 6e0b 09bf 5d73 88bf
000003a0: 9870 f6bc f9b2 35bf 195b a33d 0ef9 62bf
000003b0: 801f db3e 9091 243e 023e ebbd 3fac 3dbd
000003c0: 652c 4e3e c401 e13e 86a3 523f e0b0 3c40
000003d0: bd60 b1bf beb2 cfbf 3c1c ebbe c0c2 233d
000003e0: 9aaf bdbe 976b 18bf 45ef 733f c7da a1be
000003f0: 8d97 8dbf 84f7 e73f b668 2abe eda2 b1be
0.21542436 -0.16379897 -0.38507012 -0.7705819 0.88413596 0.8537536 0.4475219 0.97070575
-0.721973 -0.009603722 -0.48534298 0.5247398 -0.43218985 -0.81445193 0.26165798 -0.0017857582
1.3795311 -0.20800619 0.012853782 -0.3251751 -0.016354071 0.3207282 -0.0015860752 0.008343651
0.030213756 0.37346178 0.036994193 -0.963391 0.95932287 0.77023304 0.67489386 -0.88382673
0.56686765 0.004024266 -0.0028795428 0.13676421 -0.04766 0.72900295 -0.59078974 -0.584699
-0.958679 -0.48720938 -0.017106263 0.6607534 -0.05591584 1.4594196 -0.02687781 1.3635254
0.72445595 -0.0031398863 0.023739649 3.2538486 -0.35744074 0.40618622 -0.62840277 0.28318763
0.0048190756 -0.17202531 -1.5834641 -1.3984581 1.610572 0.57648546 -0.56266373 1.1376805
0.6190011 1.5943829 -1.0683031 0.6205233 -0.80996287 0.042261906 0.11664197 -0.009080442
-0.310238 -0.18472594 -0.4285666 0.0021729786 -0.84492797 0.64522916 -0.59927285 -1.4969528
-0.07046245 0.07788526 -1.3514968 1.245054 -1.0328344 -1.8798996 -0.80610746 0.49657634
0.04754635 0.3679266 0.049517162 0.74048537 -0.36570585 -0.55374914 0.059045564 -0.46440217
-0.04779667 -0.6368565 1.0758051 0.14081852 -0.039704673 1.2499677 -0.024143439 0.40695465
-0.32731274 -0.0739971 0.45223734 0.72184086 -1.1712015 -0.89301723 -1.2567052 -0.0014113862
2.23726 -0.5430385 -0.0035547782 0.745879 -0.44107905 0.14668076 -1.1287482 -0.03622199
-0.42374855 -0.48749217 0.25307187 -0.06637655 0.0012386632 -0.07507805 2.329735 0.30335882
-2.6280448 -0.024748914 -0.0011196701 -0.4198507 0.045303483 0.040065624 2.2113173 0.011829096
0.00935995 -0.30509955 -1.4880177 0.055503108 0.57360905 0.008275292 -0.2595672 -1.6701992
-0.1277811 -0.7361681 -0.40059042 -1.0560046 -0.56281734 1.2490746 -0.48727846 -0.1796311
0.0029200288 0.20589636 0.79446137 0.99508893 -0.42939347 -0.19087797 0.011139351 -0.39333314
0.007342534 0.033426218 -0.4362438 0.03770896 -0.021555692 -0.040328562 0.8944719 0.39465442
-1.1056119 0.011365061 0.85675263 1.8894763 -0.005716237 0.14653748 0.11418467 -0.38205802
0.004607181 -0.01072079 -1.0940205 0.0016050455 -0.0104770865 0.96537364 -1.0730726 0.8714779
1.3592576 0.6430179 -0.18977015 1.9315295 -1.2412874 1.2936865 1.0288967 -0.030914573
-0.20454542 0.008394223 -0.6806639 0.91485167 -0.04294922 -2.090133 -0.15501025 -1.2716368
0.59566796 0.58426094 -0.47448924 0.4476473 -0.2907815 0.35759506 0.7440534 -0.4653504
-0.16336061 -1.0022789 1.1251705 -0.38964468 1.2013501 1.4870571 -0.8088658 1.4833789
-0.38634253 -1.4903287 -0.8316582 0.5691757 2.2503357 2.7086961 -0.9837227 0.7142356
-0.5338058 -0.09502614 0.07468895 -0.36147177 -0.5741168 -0.06785467 -0.53533065 -1.0660206
-0.030082986 -0.70976216 0.0797636 -0.8866128 0.4279747 0.16071153 -0.114864364 -0.046306845
0.20134123 0.4394666 0.82280767 2.9482956 -1.3857647 -1.6226423 -0.4591998 0.03998065
-0.37048036 -0.5953917 0.9528697 -0.31612226 -1.1061875 1.8122411 -0.16641507 -0.34694615

item_id_embedding.weight f4 [1600, 32]
00000000: 0bc4 ce3e 55d1 a1bd 0504 583e 6556 bcbe
00000010: e953 803f f698 f8bf c6d6 573f ebae 82bb
00000020: 2ce4 213d 57dc 4b3f 4623 2a3d b75b ad3e
00000030: 8212 db3e acee f1bb f671 33bf 8105 0a3e
00000040: 9e17 293e a14c 6a3f 4eed 60bf ab23 9a3f
00000050: c6f8 3ebe b0c4 b73f f9fd 3abf 001f 8a3f
00000060: eab5 c2bd 13e1 be3e 111d 7ebd 53d7 b73e
00000070: fd31 0bbf 508f 80be 7765 083f da27 b63e
00000080: dd98 9f3b 98eb 86bf 3987 02be 543e 163f
00000090: f36d 933e abcd 34bd 48ed f7be b65f 243f
000000a0: f978 e5bd 31df 173f 0f19 aebf e17d 9e3a
000000b0: 2e3f 753a 9d4d f63c 4634 b2be 0727 49be
000000c0: 7a37 61bd e2ae 70bb d2fd 2dbf b710 bebe
000000d0: 1875 4a3f ea8c 7a38 7ecb 9bbf 2f5b 633f
000000e0: a2c1 80bc 4ea0 353f 2d39 963f 2842 c73a
000000f0: 1dd7 103f 9379 023f 2ab5 3138 5871 26bc
00000100: 7edc 78be 57c4 cebe b9e2 28be f1a3 813e
00000110: d05a 133f fe5c 423d af19 953a 1973 bdbe
00000120: 9a39 8d3f 3729 74bf 96e9 89be 6aea bb3e
00000130: 6f00 d8be 0c19 54bc 7f2d 26bc e553 2a3b
00000140: 6cb1 72bd c202 a2be 160d 50bf ac68 16bf
00000150: a83e 183f 1dfa 63bf 88ef 9a3f 4917 1e3b
00000160: 3e7e 6cbe de49 bc3f dfa2 563e d0d1 3fbc
00000170: 3ec3 cbbe 36d8 cf3f 173d d73f db40 20bc
00000180: 7d81 f63f f3fb 04be de85 d0bf 4e12 3dbe
00000190: f7a2 9d3e 79b8 d03e dc4d 82be 5f74 373e
000001a0: 43d7 8d3f 935b 07bf 9829 16bf cf01 9d3f
000001b0: 5de8 8abf 1875 743c 200f edbb bac5 35be
000001c0: 77bd 3c3f f237 ac3c 8186 5ebe 0510 c83f
000001d0: 3f71 8cbe 3be8 53be f341 1dbf e95e 4a3f
000001e0: ca2b 953f c8e5 6f3d 093c 1b3f 830c ac3f
000001f0: 120c a9bc 8871 26be 1c08 4abf 7bc7 2d3f
00000200: 1dd9 9339 a87d 7dbf 8b07 84be 5f60 40be
00000210: d116 4dbf 708a cb3f 27a8 973d ee44 6d3e
00000220: 5ed0 99bb dc5a b8bf f71b 8ebf eeae 4fbc
00000230: df49 7c3d 0730 d4be 6f91 83be b0ba 753e
00000240: 70af 0e40 4760 80bb e61d 833e e6e8 a23e
00000250: a9ef 4abc ee56 cabf 70cb 5c3f a5b3 a33d
00000260: 61ae 6cbb 6933 86be 9b7e 7bbd ecec a73e
00000270: 706c 373f 0853 f1be 085c 74bc c381 173e
00000280: b91a 2d3f 72e6 b63c 1ea3 303d 3608 6abf
00000290: 30b6 943f 30bb aabb 4c99 d83a 0445 073c
000002a0: 54dc 2fbb 9e18 b33d 4cbf 8f3b a18c 193c
000002b0: e2f2 8bbe b1f2 0340 71b0 87be 6b5d 773f
000002c0: ff8b 063f a784 e63d a7dd a93f 97ee 383f
000002d0: 85be be3f f30a 4c3f 0aef 81bf 3028 63be
000002e0: e045 a8be 6e14 14bf 4f14 30bf cf42 8dbf
000002f0: ccfb d53e 9821 3e3d 3c87 1cbe 5fa7 05bf
00000300: c773 17bf daa4 2d3c 1389 b0bf b5d4 25bc
00000310: cb15 023e 1ca4 b73e 7039 293f 4c78 5fbd
00000320: d0c7 e23f 5446 ad3c 54ea aabe ba5c 143e
00000330: 4a28 223f e4f0 f7bc ffce 37c0 85a5 0bbf
00000340: c0a5 393e 2630 773c 783f c03f fafd e13f
00000350: 6cf1 33be 95d7 afbf ea5e a7bf 19fe a5bd
00000360: 2902 543f 4440 a2bf 3349 e23f 9a3f 5abf
00000370: 9430 28bc b1c9 3abf 1aec a43e 414c 8a3c
00000380: e8fc 64bf 9611 d83f 4393 a3be 9261 b7bf
00000390: 68a3 d7be 6328 86bb e6d8 c63c 4b0e b4be
000003a0: 0e98 9a3b 8a5c 87bd f1c5 3ebf 5cee fb3e
000003b0: 9cb9 783e 4be4 42bf dbc5 52bd b7cb 9d3e
000003c0: 6721 603e 6e4d b93f 0c02 42b9 6d01 13bf
000003d0: 9565 f2bf 82b0 d1ba 463d 32be 4953 f93f
000003e0: 4e5a e8bc c11c debe ce00 2e3f 713f 6abe
000003f0: ad6f 42bf f6ee 05bf 905d 8f3c 3646 333f
0.40383944 -0.07901255 0.21095283 -0.36784664 1.0025607 -1.942168 0.84312093 -0.003988137
0.039524242 0.79633087 0.041537546 0.33859035 0.42787558 -0.007383188 -0.70095766 0.13478662
0.16512915 0.91523176 -0.878621 1.2042135 -0.18649587 1.4356899 -0.7304378 1.079071
-0.095073536 0.37281093 -0.06203944 0.35906467 -0.5437315 -0.2510934 0.53279823 0.3557728
0.0048705176 -1.0540648 -0.12746896 0.58688855 0.28794822 -0.044141453 -0.4842322 0.64208543
-0.11204714 0.5932494 -1.3601397 0.0012091958 0.0009355423 0.030066306 -0.34805506 -0.19643794
-0.054984547 -0.0036725332 -0.67965424 -0.37122127 0.7908492 5.973588e-05 -1.2171476 0.8881101
-0.015717331 0.7094773 1.1736199 0.0015202211 0.56578237 0.5096676 4.236881e-05 -0.010158859
-0.24302861 -0.4038417 -0.16492738 0.2532039 0.57560444 0.047451966 0.0011375452 -0.37001875
1.1033204 -0.9537539 -0.26936024 0.3670228 -0.4218783 -0.012945425 -0.010142683 0.0025989946
-0.059251234 -0.3164273 -0.8126997 -0.58753467 0.59470606 -0.8905352 1.2104349 0.0024122766
-0.23095033 1.4710042 0.20960568 -0.011707738 -0.39797395 1.6237857 1.6815518 -0.009781088
1.9258267 -0.12986736 -1.6290853 -0.18464014 0.30788395 0.4076574 -0.25450027 0.17915486
1.1081318 -0.52874106 -0.5865722 1.2266177 -1.0852162 0.014920495 -0.007234469 -0.17751208
0.737266 0.02102277 -0.21730997 1.5629889 -0.2743015 -0.20694058 -0.61428756 0.7905107
1.1653988 0.058568746 0.6063848 1.3441318 -0.020635638 -0.16254246 -0.78918624 0.6788251
0.00028199787 -0.9901986 -0.25787005 -0.18786763 -0.8011294 1.5901623 0.074051194 0.23170826
-0.0046940288 -1.4402728 -1.1102284 -0.012675984 0.061593886 -0.41442892 -0.25696895 0.23996997
2.2294579 -0.003917727 0.25608748 0.31818312 -0.012386241 -1.5807779 0.8624792 0.07993249
-0.003611468 -0.26211098 -0.061400037 0.32797945 0.7164984 -0.4713366 -0.01491452 0.14795594
0.676189 0.022326682 0.04312431 -0.9141878 1.1618099 -0.005210303 0.0016525178 0.008256201
-0.0026834207 0.0874493 0.004386818 0.009371907 -0.27333742 2.0616877 -0.26501802 0.9662692
0.5255737 0.1125577 1.3270768 0.7223906 1.4901892 0.7970421 -1.0151074 -0.22183299
-0.3286581 -0.57843673 -0.6878099 -1.1036013 0.41793668 0.046418756 -0.15285963 -0.52208513
-0.5916104 0.010598386 -1.3791832 -0.010121514 0.12703626 0.35867393 0.6610327 -0.054558083
1.7717228 0.0211517 -0.33381903 0.14488497 0.63342726 -0.030266233 -2.872009 -0.5454944
0.18129635 0.015087163 1.5019369 1.7655632 -0.17572564 -1.3737665 -1.307584 -0.08105106
0.82815796 -1.2675862 1.7678589 -0.852533 -0.010265488 -0.72964007 0.3221138 0.016882064
-0.89448404 1.6880367 -0.3194829 -1.4326651 -0.42116857 -0.00409417 0.024273347 -0.35167155
0.0047178334 -0.06609447 -0.74520785 0.4920529 0.24289554 -0.761296 -0.05145822 0.30819485
0.21887742 1.4476755 -0.00018502044 -0.5742405 -1.893725 -0.0015998038 -0.17406186 1.9478542
-0.028363373 -0.43381312 0.6796998 -0.22875763 -0.75951654 -0.5231775 0.017500669 0.7002901

item_type_embedding.weight f4 [5, 8]
00000000: 1bce cf3f c414 8fbf 806e 1e40 56b3 e43d
00000010: acfa 15be 5760 623f b3b7 20be 2571 4c3d
00000020: e0f5 943f c3ea 7abf 067a e33f 1d92 44be
00000030: 9a50 99bf 140f c7bf 0b6e b03f b686 943f
00000040: d278 d33e 55c1 6bbf ccfe 253e edc9 d6bf
00000050: 5d4e 5fbf f2f1 e9bd 1f64 9b3e 65be dbbf
00000060: 4c37 733f 2ceb 74be d216 c13f 341a 143f
00000070: 6452 3a40 2a44 243f b54a e13e b373 77bf
00000080: 43a5 c9bf 5786 333f 3c3a 86bf 1ad2 143d
00000090: 23ce a03e 80c7 04bd 5f14 193f 36c0 9cbf
1.6234773 -1.1178212 2.4754944 0.11167018 -0.14646405 0.8842825 -0.15695076 0.04991259
1.1637535 -0.9801447 1.7771614 -0.19196363 -1.1977723 -1.5551476 1.3783582 1.160361
0.41303116 -0.92091876 0.16210479 -1.6780373 -0.8722895 -0.114231005 0.30349824 -1.7167479
0.9500625 -0.23917836 1.5085089 0.5785248 2.9112787 0.6416651 0.4400231 -0.9666092
-1.5753559 0.7012686 -1.0486522 0.03633318 0.3140727 -0.03241682 0.5979671 -1.2246158

item_temperature_embedding.weight f4 [7, 8]
00000000: ff4a a0be 030c ccbe 1999 23be fff3 02c0
00000010: ef32 8bbc 9b87 c7bf 54f4 483f 8a3c b0bf
00000020: 291b 9d3e b7cd 803f d291 cbbe 1e07 be3e
00000030: fb60 28bf d35d b63e b2f5 66bf 0286 80bf
00000040: 6e4c 44bf 6947 bc3f 1bb5 933f 0166 37bf
00000050: 0bc1 7fbd bfe4 84bc fb07 8fbf 847c b9be
00000060: f1de 52bf b095 3e3e 6268 bbbe 5032 d2be
00000070: d05f 44bf 652e 053d 690f e1be edfb a63f
00000080: a56e 32bf 157e 07bf 6467 fb3e 6bbe 0cbf
00000090: 18c2 ab3d 747e 9e3f 847d 4f3f 0f5b d33e
000000a0: b898 153f 80f3 1abf d686 fbbe b935 88be
000000b0: b9a0 b93e b2bc 46bf 76f1 c53f b55d c73f
000000c0: b398 80bf a123 0c3e 9a2e 12c0 fad8 8bbc
000000d0: 58d0 ddbe fe4c f33e f6ea fc3e 5d09 04bf
-0.31307217 -0.39852914 -0.15976371 -2.0461423 -0.01699206 -1.5588259 0.78497815 -1.3768475
0.30684784 1.0062779 -0.3975969 0.37114805 -0.6577298 0.35618457 -0.9021865 -1.0040896
-0.7667912 1.4709293 1.1539644 -0.7164002 -0.06243996 -0.016222356 -1.117431 -0.3622781
-0.8237143 0.18611789 -0.36603075 -0.4105401 -0.767087 0.03251495 -0.4395707 1.3045632
-0.6970008 -0.5292676 0.49102318 -0.54978055 0.0838663 1.238234 0.81050897 0.4128041
0.58436155 -0.605278 -0.4912631 -0.26603487 0.36255434 -0.77631676 1.5464313 1.5575472
-1.00466 0.13685466 -2.2840943 -0.017071236 -0.43323016 0.47519678 0.4939801 -0.5157679

item_humidity_embedding.weight f4 [6, 8]
00000000: da62 22bf e77a e13e abb4 2c3e db3a aabd
00000010: 22c2 88bf 0b15 85be 76e5 babf e344 823e
00000020: d7f8 6cbf 40f2 5cbe 7d38 183f 262a cbbf
00000030: 32c0 5a3f ba77 b43e f173 8d3e 97e0 69be
00000040: 3169 35bf 0325 743e 7c45 0040 4b82 273f
00000050: 8973 3a3f ced2 efbe 8677 fa3f 2b68 54bf
00000060: 0883 853f 4c67 793f 3445 04c0 51ce 2bbe
00000070: 7762 13bf 0d7b 15bf 0f85 303f c06a d4be
00000080: 3b10 0cc0 6ef8 623f 4b0f cc3d 9a67 84bf
00000090: fdb9 ce3f 1f39 e7bf d741 6ebd 1512 26bf
000000a0: 7bc1 d6bd 5dfb 4b3f d167 b5be 8a2f ccbe
000000b0: 8db1 a9be 24fb af3e 49c3 953f 6f11 1c3f
-0.63432086 0.4403908 0.16865794 -0.08312007 -1.0684245 -0.25992617 -1.4601276 0.2544318
-0.925672 -0.21576786 0.59461194 -1.5872238 0.85449517 0.35247594 0.2762752 -0.2283958
-0.70863634 0.23842244 2.004241 0.65433186 0.7283254 -0.4684052 1.9567726 -0.8297145
1.0430613 0.97423244 -2.0667238 -0.16777922 -0.5757212 -0.58390886 0.6895303 -0.41487694
-2.1884906 0.88660324 0.099638544 -1.0344117 1.6150509 -1.8064307 -0.05816826 -0.6487134
-0.10486122 0.79680425 -0.35430768 -0.3988002 -0.33143273 0.34371293 1.1700221 0.609641

item_windSpeed_embedding.weight f4 [5, 8]
00000000: 979f cb3f c384 3f3f 8031 9fbf 56e9 fb3e
00000010: c3f3 c63f fe5a 64be 4ac6 79bf 8f8d 803f
00000020: 5e68 a43f 7821 403d 6725 3ebf 56e8 cabf
00000030: ece3 0b3e 1077 ed3e 0178 acbd efd6 adbe
00000040: 2eba e23d 76fb 1abf b093 833f 70fd 3c3f
00000050: 1c39 b8be f0d1 04c0 cc5b ffbe 04ab ef3f
00000060: faec 8dbf 6ff8 3ebf ee32 5d3f 7634 503d
00000070: fd69 6e3f f6d2 c93f 8100 5abe 76c0 0bbf
00000080: 8419 c6be d516 0c40 b4fb c33c c1cc 2cbf
00000090: f8d5 3a3f 3f88 ca3f d05f 933f af01 41bf
1.5908078 0.74811953 -1.2436981 0.4920146 1.554314 -0.22300336 -0.9756819 1.00432
1.284435 0.04690692 -0.7427582 -1.5852153 0.13661164 0.463799 -0.084213264 -0.33953044
0.11070667 -0.6053995 1.0279446 0.73824215 -0.3598107 -2.0753136 -0.49874723 1.8724065
-1.1087945 -0.7459783 0.8640584 0.05083128 0.93130475 1.5767505 -0.21289255 -0.5459055
-0.38691342 2.1888936 0.023923732 -0.6749993 0.7298274 1.5822829 1.1513615 -0.75393194

GCN_Layers.0.W1.weight f4 [64, 64]
00000000: 6d6e dcbd 83a1 23bc 1cf3 b9bd 1e44 f9bd
00000010: 8255 853d f594 673c 1511 db3c 041c febc
00000020: d02d 5dbd f08d 143e 6298 693c 3c84 573d
00000030: 391d 233d 572b e53c 12b6 28be 9602 35bc
00000040: 1157 99bd 41c8 1d3d f2a0 9cbc 80c5 9b3d
00000050: 6ca1 01bd fe1e 223d b185 8ebd a84c bd3d
00000060: 8b38 1c3e aa0f b6b9 ad98 0dbc 68ae abbd
00000070: c9f4 08be 1b49 cebd 427f 11be 514c 30bc
00000080: c75b 84bd 0895 0ebe 5bb4 2dbd 97e7 c43c
00000090: bc24 96bd f59b 94bb 623f abbd 5a60 c03d
000000a0: 3d73 b2bd eb97 de3d b761 c4bd b3c8 34bd
000000b0: 02b5 d93d 120b d73d 9a6f 01bd 8146 06bc
000000c0: 9aa8 f3bd 24a9 54bd b1a4 993d 6e77 743b
000000d0: 62e1 1fbe 54bb 9b3c 334b 0abd 31ba b93d
000000e0: 031f ef3d 0c4e 233c 737d bbbd 001f 1cbc
000000f0: 60a0 53bd b642 5fbd c57e 343c 6422 ad3c
00000100: e694 a43d d45c cbbd 4560 0f3d 762c a3bd
00000110: 1e51 bdbd cbdb 853d 2649 813d fd67 c83d
00000120: f499 523d 5982 b23d 73eb ecbc 53f9 18bd
00000130: 0ad5 35bd 0a7e 9bba 44dc bbbc c19e 36bd
00000140: 01fd 48bd 7dbb 85bc bf73 8a3d 137f 57bd
00000150: dd93 90bd d6a8 a33d 1e15 4f3d 8a7b 9cbd
00000160: f754 783d c726 8d3d 6f69 98bd bc73 6e3d
00000170: 7839 ba3d 2a6c 663d 99ab 6cbd f91f 8abd
00000180: 5f42 613d ced9 b93d b73a 523d b07e 79bd
00000190: 8581 2bbd 53d7 e9bd 1c86 84bd 3340 e9ba
000001a0: e189 3a3d cf51 e73d f8ea e03d 8c8c 80bd
000001b0: fef6 79bd 362f 233e c3ec 23bd a411 d23c
000001c0: d225 2cbd 3f8a 693d dc86 09bd d1c3 06be
000001d0: 0226 9ebc 4aa4 6abd 82cf a2bd 7600 d53d
000001e0: 6fc9 ae3d ae6c ecbd dac1 453d 477a a9bd
000001f0: 2ae2 9b3d 125e 61bd 607f b53d 4b89 a7bd
00000200: 165e de3c 7ba6 d83d 32f7 09bd fc29 bebc
00000210: d5b2 f6bd 9d2c 79bd 8c6f c3bd 83e8 f3bd
00000220: 9db5 2b3d 30b0 3dbd 6ee3 a23d f303 d03b
00000230: fd39 f03d 1543 c83d 4c63 ad3c bf19 67bc
00000240: 4360 92bb b1e3 76bd b362 6fbd a9ef a43b
00000250: 189c 12bd 2300 2d3d 9ddf 2e3d a7ff 13bd
00000260: faad a13d 6fed 8a3d 94ae 6b3d 058b e7bd
00000270: 2d09 fc3d 9f0a 903d 9cae 31bd dc06 083e
00000280: 4e3d d23d 4ed9 8c3c 088b bfbd cebf 3a3d
00000290: b45a 4ebd 3b69 93bd 88cc 1abd 1885 fdbd
000002a0: cc48 1dbd ee73 fe3c 0bed 8c3c eb14 dd3d
000002b0: 16f6 98bc 71aa 0abe 8dfd dd3d ed18 7ebd
000002c0: de4c 47bc 3bf2 973d cf04 a3bd 3156 1cbd
000002d0: a6ac 18bd ca9c 71bd 8777 9d3d 84f6 7f3d
000002e0: 0058 81bd 5d69 80bc e7e2 58bc 855b 3c3d
000002f0: 4fba ad3d b797 8dbd a947 e23d 43b0 8b3d
00000300: a281 9e3b 0087 633c efdb 44bc 0159 80bd
00000310: 1215 473d 09de f0bd fbc6 003d 3091 5fbd
00000320: 18c7 9cbd 9fbc b7bc 7492 05be 1de7 99b9
00000330: f42d 003e 245c 79bd 8533 babd f10d cb3c
00000340: 83e8 11bd 29b4 b53c 5573 be3d 31c8 443d
00000350: 235f 58bd d037 8e3d 5d22 9e3d 36e7 5ebb
00000360: 5d85 0dbc 2cc3 d73d 722f 943d 4309 b53d
00000370: d655 18bd d3ab b2bd 71a2 d6bd f86e 9c3d
00000380: 12c4 ad3d 4a89 863d 2f9a b5bc cc48 39bd
00000390: a930 213a 1f30 9e3d 69f0 e53d d9c2 17bd
000003a0: 5f9a 233d 0b48 dbbd b3b5 22bd 8c0f d9bd
000003b0: 2c7c c9bd 37e2 c23c 47a7 e2bb 63b9 07be
000003c0: e19f 19bd 5c4f e7bc ccdf ba3d b19b b9bd
000003d0: 7504 febd dc62 91ba 86f1 193d db65 d73c
000003e0: b01e 09be 00a5 e4bb e863 a7bd c223 ccbd
000003f0: a6b0 da3d 1d51 b23c 1158 a23d 39fc d9bc
-0.107632495 -0.009987238 -0.090795726 -0.121711954 0.0651045 0.014134635 0.026741544 -0.031019218
-0.05399877 0.1450727 0.014257522 0.052616343 0.03982279 0.027974768 -0.16475704 -0.01104798
-0.0748731 0.038521055 -0.019119713 0.076060295 -0.031648085 0.039580338 -0.06959093 0.09243137
0.15255944 -0.00034725416 -0.008642358 -0.08382875 -0.13374628 -0.100725375 -0.14208701 -0.010760383
-0.06462818 -0.13924038 -0.04240833 0.024036212 -0.07331225 -0.004535193 -0.08361699 0.093933776
-0.08713386 0.1086882 -0.0958895 -0.044136714 0.106302276 0.10500158 -0.031600572 -0.00819552
-0.118973926 -0.051919118 0.075021155 0.003730263 -0.1561332 0.019010223 -0.03376312 0.09068716
0.11675837 0.009967338 -0.09154787 -0.009528875 -0.051666617 -0.05450698 0.011016552 0.021134563
0.080362126 -0.09929815 0.03500392 -0.079674646 -0.092439875 0.06536063 0.0631278 0.09785459
0.051416352 0.08716268 -0.028920865 -0.03734715 -0.044392623 -0.0011863124 -0.02293218 -0.044584993
-0.04906941 -0.016324753 0.06760358 -0.05261142 -0.07059453 0.07991187 0.05055725 -0.07640751
0.060627904 0.06892162 -0.07441985 0.05821584 0.090929925 0.056255497 -0.057780836 -0.067443796
0.054994937 0.09074746 0.051325526 -0.060911834 -0.041871566 -0.11418023 -0.06470892 -0.0017795622
0.045541648 0.112949006 0.10982317 -0.06276807 -0.061026566 0.15935978 -0.040020715 0.025643177
-0.042028256 0.057016607 -0.033575878 -0.13160636 -0.019305233 -0.057285585 -0.07949735 0.104004785
0.08534514 -0.115441665 0.048280574 -0.08275276 0.07611497 -0.055021353 0.088621855 -0.081804834
0.027144473 0.10578629 -0.03368301 -0.02321338 -0.12045828 -0.060833562 -0.0954276 -0.119095825
0.041921247 -0.046310604 0.07953535 0.006348127 0.117298104 0.0977842 0.021165513 -0.014105259
-0.0044670417 -0.060275737 -0.058443736 0.0050334525 -0.035793394 0.04223646 0.042693723 -0.03613248
0.078945115 0.06783568 0.057539538 -0.11305813 0.12306438 0.07033276 -0.04337941 0.13283867
0.10265599 0.017193463 -0.0935269 0.045593075 -0.05037947 -0.071978055 -0.037792712 -0.12378901
-0.038399503 0.031061139 0.017202875 0.107950054 -0.01867203 -0.1354158 0.108393766 -0.06203549
-0.012164323 0.07419249 -0.079599015 -0.038168136 -0.037274025 -0.058987416 0.07688814 0.062490955
-0.06315613 -0.015675241 -0.0132376915 0.045985717 0.08482801 -0.06913703 0.11048824 0.06820729
0.004837231 0.013887167 -0.012015327 -0.06266976 0.04860408 -0.117611 0.031439763 -0.05458182
-0.076551616 -0.022428809 -0.13044149 -0.00029354627 0.1251753 -0.060878888 -0.09091858 0.024786921
-0.03562213 0.022180634 0.092993416 0.04804248 -0.052825104 0.06944239 0.07721398 -0.0034012324
-0.008637753 0.10535273 0.07235612 0.08839657 -0.037191235 -0.08724179 -0.10480202 0.07638353
0.08484663 0.065691546 -0.022168247 -0.04523544 0.00061489135 0.07724022 0.11227495 -0.037051056
0.03994214 -0.107071005 -0.039724063 -0.105986685 -0.09838137 0.023789508 -0.0069169137 -0.13254313
-0.037505988 -0.028236084 0.09124717 -0.09062899 -0.12403194 -0.0011092084 0.03758385 0.026293686
-0.13390613 -0.0069776773 -0.081733525 -0.09967758 0.10678224 0.021767193 0.079269536 -0.026609527

GCN_Layers.0.W1.bias f4 [64]
00000000: d7b3 593d 9711 2f3c b37e 173c 920f b7bc
00000010: b481 df3c fbbc 32bd 8d91 483c 0f29 b93d
00000020: 9b06 bd3d fa90 eabd 6999 02be 3739 f23c
00000030: 4b96 ccbd db4c a53d 6b8e f63d a9d5 f4bc
00000040: 017e ab3b 3e31 ed3d a86a fc3d efb6 643d
00000050: f661 41bd 6aa5 9cbd d4fa f5bc 870b 39bd
00000060: 67db 22bd f218 b53d 595d b1bc 7222 bebd
00000070: 2b71 133d bcc2 353d d418 3cbd b3a3 cf3d
00000080: cd38 1b3d e09f d8bc c2df 403c ffa2 cfbd
00000090: 3d08 49bd 806a 65bd 5381 03be 3746 ac3c
000000a0: 3bdd e0bb 19b4 633d ac91 e2bd c714 3abc
000000b0: 67bb 6b3d 3b8e a9bd 4bfb 1dbd 9659 3dbd
000000c0: c0be d13d a308 9b3d eebc 81bd a309 283d
000000d0: 4894 d13c 8fb9 353d 051a d0bb cf0b 493d
000000e0: 3d0a d6bd aa13 88bd c519 d3bd 9696 a2bd
000000f0: 8ae0 a73d 5f00 0fbc 1185 f93c 9044 5abd
0.053150024 0.010685346 0.009246516 -0.022346292 0.027283527 -0.043637257 0.012241733 0.090410344
0.092297755 -0.11453433 -0.12753834 0.029568298 -0.099896036 0.080713 0.12038883 -0.029887037
0.0052335267 0.11581658 0.123250306 0.05583852 -0.047212563 -0.07648738 -0.03002683 -0.04517701
-0.03976002 0.088426486 -0.021650957 -0.09283914 0.035996597 0.044375166 -0.045922115 0.10138645
0.037895966 -0.026443422 0.011772098 -0.10138511 -0.049080122 -0.05600977 -0.12842302 0.021029575
-0.00686231 0.055591676 -0.11062941 -0.011357493 0.057551768 -0.082790814 -0.03856973 -0.046228014
0.10241461 0.07570007 -0.063348636 0.041024815 0.025583401 0.044366416 -0.006350758 0.049083527
-0.104511715 -0.066443756 -0.103076495 -0.07938878 0.08197124 -0.008728116 0.030458959 -0.053288043

GCN_Layers.0.W2.weight f4 [64, 64]
00000000: f067 81bd 9e19 b93d 56b5 c03c 9bac 5639
00000010: fb94 3b3d 5d93 0a3c a532 933b b10f b73c
00000020: 7339 a33b ddd8 5dbd 1350 fb3c 1d98 5bbd
00000030: 701f cfbc 60bb 823d 9abb c5bd 8cd3 2fbd
00000040: 6b4e 98bd d6b3 84bd 6fc7 8cbd 0842 b23d
00000050: 2a63 7a3d 86e5 ae3d 3d8f 0e3d c499 c4bd
00000060: 9172 00be 38b9 a4bc 4e29 91bd 59de 333c
00000070: 20be d43c 1aae c83c 9571 793d 8cde d53c
00000080: 489f 023e 6ccf 46bd fd3d 0d3e 7595 cb3d
00000090: 6941 ce3b 7ff5 b03d f771 463d d710 643d
000000a0: b6ce 08bd 9b37 aa3d 6a3c aabd 8662 dc3c
000000b0: d14e 4cbd 42a8 0cbd b68e 3abd 3537 153d
000000c0: e02a 1e3d ac6f 39bd f0a0 133e 3240 1bbd
000000d0: 2d34 d0bd 6cdf f8bc 1e5c 183e b945 c33d
000000e0: 2d1f 673d c026 b5bd 1dbf b53c 006b 2ebd
000000f0: 5a6e 1f3e 1ac0 b63c 9f5e f13d 277f ca3d
00000100: ceed 0ebc c291 ab3c a078 c73d 48b3 bfb9
00000110: 92b3 313d 03ee c0bc ef99 85bd 5d6b b3bc
00000120: 92a1 43bd 0eb7 97bd 3e7d 8dbb 1581 593c
00000130: 83e4 4f3d fac4 99bc 4d84 633c 4d89 8a3d
00000140: 99a4 07bc ba88 7c3d 6b1f 02bd b598 a1bc
00000150: b252 693c f3ce 253b 4697 893c d3da 17bd
00000160: a11e 1d3b c9ea d73b b858 963c fdba 1bbd
00000170: 165b b23d c35f 7dbc c09d 1bbc a689 363d
00000180: 567e 7c3c 0d40 fabd 8147 80bd 69b7 343d
00000190: bd15 36bc 7b03 a93c 6f43 363d 8f19 353d
000001a0: 44da 1b3d 02ce f23d 9fa5 293d 9289 503d
000001b0: 613d fb3d 4a2e 96bd f890 c6ba a271 c03d
000001c0: fec0 6a3c 7095 adbc 5199 2cbd 2c51 5e3c
000001d0: 32ee 423d 9ebc d03c 9f81 063b 66ba d1bc
000001e0: 3016 70bd 508f 573d 2fc2 e6bc e57d 823c
000001f0: cb14 7dbc fee1 e6bd ee3c fdbc 6749 6cbc
00000200: e8ee 183d 8883 f33d 894e 9c3c d97b 6abd
00000210: 8e10 483c 5959 0e3d 0310 0fbd f226 4d3c
00000220: 184a 113d 7c01 89bc c8d6 5cbd f777 24bc
00000230: 7e5f 8abc 6cf9 5d3c fad0 5f3b d56b 79bc
00000240: 0ec7 e73c b3d1 59bd 4297 89bc 2592 983d
00000250: ff8b 6c3d 865c 18bd 9691 cfbc 67a4 1e3d
00000260: a39f 0bbd e7c1 bdbd a5ab 473d 082d 6d3c
00000270: 1733 3e3d 5663 85bc 50dc 8bbb f2a4 4dbc
00000280: bdab a83d 4faa 5cbd 6450 fbbc 82c6 1fbd
00000290: c4a9 6e3c 8259 743d 17e9 293d bed0 e1bd
000002a0: 585e 283d f55c 683b 2d94 e4bc 8631 0c3d
000002b0: 4254 bebd c4bd 64bd 20a1 c43c 48e1 b43c
000002c0: eabb 00bd a367 a1bd a303 863d 720f 1a3d
000002d0: b299 c13c 4869 64bd 107a 753d 2858 143d
000002e0: 20bd 1f3d cda4 07bc ef09 a93d bd98 0bbd
000002f0: ec7d a8bd d871 2e3c 2fa8 a53d 5bc4 dabd
00000300: f966 92bc a536 5d3d e4b2 473d fb21 833c
00000310: 26e9 83bd 9e85 053e cdac 8e3c e498 ad3c
00000320: 557e 28bc 5eab acbd 91fd a5bd b47f 2c3d
00000330: 554a 8abd b6d7 1a3d eca1 8c3c 3093 903d
00000340: 7af2 aabc 506e 80bd 0ff6 f0bc b328 82bd
00000350: 7c04 983d 5392 c73d 676b 1bbc b578 55bd
00000360: 35fa 1f3c d463 65bd 6b03 073d a62f 2cbd
00000370: 1996 97bd 3a96 c33c f936 c4bb af3b c3bd
00000380: bd2e 53bd efca b1bd bde7 863c 6fd8 7ebb
00000390: 409c 8ebb 9edf 63bd 6fc0 153c d7df 75bd
000003a0: 313a a6bd 74fc 583c 4652 a13c 4d0d 863d
000003b0: cdfb a23b 5310 83bd 2cb4 403d 04d7 87bd
000003c0: 8309 34bc ea9d 483c 3be5 e3bd 0190 f4bd
000003d0: f3a6 7e3d 98df a2bc abf1 8fbd d37d f23c
000003e0: 7588 d0bd 5b06 3bbd 920c 87bd 3754 583d
000003f0: b8cc 1b3d c109 d33d 1946 c7bd 6e37 f4bd
-0.06318653 0.09038089 0.023523968 0.00020472931 0.045796376 0.008457986 0.0044921213 0.02234635
0.0049812137 -0.054161895 0.03067783 -0.053611863 -0.025283545 0.06383395 -0.09654923 -0.042926356
-0.07436832 -0.064796135 -0.068739764 0.08704001 0.061129726 0.08539872 0.03480457 -0.09599641
-0.12543704 -0.02010785 -0.07087956 0.010978305 0.025969565 0.02449708 0.060899336 0.026107095
0.12756073 -0.048537657 0.13793178 0.09940616 0.0062944186 0.08640575 0.04844853 0.055680122
-0.03340026 0.08311387 -0.08312304 0.026902448 -0.049879853 -0.03434015 -0.045546256 0.036429603
0.038615108 -0.045272514 0.14416862 -0.03790302 -0.10166202 -0.030379973 0.1487889 0.09534783
0.056426216 -0.088452816 0.022185856 -0.042582512 0.1556944 0.022308398 0.11785626 0.09887534
-0.008723689 0.020943526 0.09739804 -0.00036563934 0.043384142 -0.023550993 -0.06523501 -0.02190178
-0.047761507 -0.07407962 -0.0043179085 0.013275404 0.050755035 -0.018770684 0.013886523 0.06764469
-0.008278989 0.06165383 -0.031768244 -0.019726137 0.0142409075 0.0025300353 0.016795766 -0.03707392
0.0023974555 0.006589268 0.018352851 -0.038020123 0.087087795 -0.015464726 -0.00949806 0.044564866
0.01541098 -0.12219248 -0.06263638 0.044120226 -0.011113581 0.020631542 0.044497903 0.044213828
0.03804995 0.11855699 0.041417714 0.050912447 0.122675665 -0.07333048 -0.0015149405 0.09396674
0.0143282395 -0.021189421 -0.0421384 0.013569158 0.047590442 0.025480565 0.0020524038 -0.025601577
-0.05861491 0.052626908 -0.028168766 0.015929172 -0.015446852 -0.11273573 -0.030912843 -0.014421797
0.037337214 0.11890322 0.019080417 -0.057247017 0.012210978 0.034753177 -0.03492738 0.012521492
0.035471052 -0.01672434 -0.05391577 -0.0100383675 -0.016891237 0.013548236 0.003415166 -0.015223463
0.028293159 -0.0531785 -0.016795758 0.0744975 0.0577507 -0.037197612 -0.025337975 0.038731005
-0.03408779 -0.092654996 0.048747677 0.014476068 0.04643544 -0.016282719 -0.0042682067 -0.012551533
0.082358815 -0.053873356 -0.030677982 -0.03900767 0.0145668425 0.059655674 0.041482057 -0.110261425
0.0411056 0.0035455797 -0.027902687 0.034226917 -0.09293415 -0.055845037 0.024002612 0.022080079
-0.03142921 -0.07881095 0.065436624 0.037612386 0.023632858 -0.055764467 0.05993086 0.036216885
0.038998723 -0.008279038 0.08253848 -0.03408121 -0.08227143 0.01064726 0.08088719 -0.10681983
-0.017871367 0.05400719 0.048754588 0.016007414 -0.06440954 0.13039252 0.017416382 0.021191068
-0.010284026 -0.08431123 -0.081050046 0.042113975 -0.06752459 0.037803374 0.017167054 0.07059324
-0.020867575 -0.062710404 -0.029414205 -0.06355419 0.0742273 0.09744706 -0.009486056 -0.05211707
0.009764244 -0.056003407 0.032962244 -0.04203763 -0.07401676 0.023875345 -0.0059879986 -0.09532868
-0.051558245 -0.08681285 0.016467923 -0.0038886329 -0.0043521225 -0.05563318 0.009140118 -0.060027923
-0.08116568 0.013243783 0.019692551 0.06545506 0.0049738646 -0.06399598 0.047046825 -0.06632808
-0.010988596 0.012244681 -0.111277066 -0.11941529 0.062170934 -0.019882008 -0.070285164 0.029601013
-0.10182277 -0.045660358 -0.065941945 0.05281469 0.038037032 0.10304595 -0.09730167 -0.11924635

GCN_Layers.0.W2.bias f4 [64]
00000000: ac14 60bd f013 d0bc 5f55 d8bd 64d9 b23d
00000010: 3148 c9bc 1f4a c63c ba85 e8bd 4682 36bd
00000020: 691a e9bc 51fc 37bc c700 fabd 6c40 cebd
00000030: 3151 ae3d 03e1 043d bbd9 23bc eb99 293c
00000040: 9fc1 56bd 7043 8fbd adb0 35bd 6af3 cebc
00000050: 00de eb3d 416b f0bd 4993 c33d 100d 8c3d
00000060: eda7 ed3d ae52 1ebd e6bb 983d aa0d aebd
00000070: 5342 42bc 0283 013c 4bc5 6c3c 66c8 d93c
00000080: 1f7d a1bd 01f8 abbb a8be c2bc 8ba9 7a3c
00000090: a843 aabd 0cd4 553d b927 e63d 0179 6fbc
000000a0: eeb8 c2bd 9002 073b 7725 97bd a0e8 c63d
000000b0: 6c15 7a3d 3c31 f03c 8b67 00bc 3b9d 66bc
000000c0: 8b8a a2bd c912 c4bd 2a16 d83d 0421 c8bb
000000d0: f26c 363c 6065 8bbd f4c8 3c3d 2b4a 883d
000000e0: a080 a8bd f586 083e 6c84 6b3d f1eb f0bc
000000f0: 56aa e1bd 6577 d83d 1528 1a3c 08a0 56bd
-0.054707214 -0.025400132 -0.10563158 0.0873287 -0.024570556 0.024205266 -0.11353631 -0.044557832
-0.028454976 -0.0112295905 -0.122071795 -0.10070881 0.0851158 0.03244115 -0.010000641 0.010351638
-0.052430745 -0.069952846 -0.044357944 -0.025262553 0.115169525 -0.11739207 0.09549577 0.06838429
0.11604295 -0.03865307 0.07457714 -0.084987 -0.011856633 0.00790477 0.014451335 0.026584815
-0.07885193 -0.00524807 -0.023772553 0.015299211 -0.08313686 0.052204177 0.11238045 -0.014616252
-0.09507929 0.0020600893 -0.07380193 0.097123384 0.061055586 0.029320352 -0.007837187 -0.014075573
-0.07936581 -0.095738955 0.105511025 -0.0061074514 0.011134373 -0.06806445 0.04609008 0.066547714
-0.08227658 0.13332732 0.057499334 -0.02940938 -0.11018817 0.10569648 0.00940897 -0.05239871

GCN_Layers.1.W1.weight f4 [64, 64]
00000000: 4387 eb3d ecf8 e6bd e7c0 d33c efbf f33c
00000010: a379 ecbc 26b4 a03d 82f9 1cbd a72d fe3d
00000020: 2043 b6bd 21bf 2fbd 29f2 893c dda8 4dbc
00000030: 95bf 8e3d de91 cebd b203 ec3d f03e 41bd
00000040: e59f 843c 3220 e0bd 7b41 8ebd 62b1 3abc
00000050: b0bf 053b 22b3 9bbd d4ef 51bd 5b45 97bd
00000060: c63e bebd f7bf 043e d383 c4bc 35a7 9ebd
00000070: 089b 8bbd 6a5d 1b3d 509f 6abd 2be4 0f3e
00000080: 2c4e 0d3d 74bf 80bd a2ac 42bc 0c9f d5bd
00000090: e9c4 dbbc 47b9 723d bc15 963d 1768 73bc
000000a0: 0a16 483d 24e9 92bd d6ac cc3d e6c2 743d
000000b0: af1c 863d d319 7fbd e864 563c 0567 0cbe
000000c0: 064f fa3d c0a4 a13d 0772 83bc adea 563c
000000d0: fbb1 d83d 5034 c63c 4fab d4bb 06a1 9abc
000000e0: 9523 e03d ae5c 85bd ced5 61bd c8a5 bebc
000000f0: 9443 b23c 2532 973c 40b5 683d f970 b2bd
00000100: c09d 883d bbfa 2dbd 42cf 1d3d 9f32 2cbd
00000110: 7763 02be 3e6d 543b 544e d0bc e0d9 e5bd
00000120: c919 cabc 095d 89bc da32 babb a80e b2bc
00000130: f0e7 29bd 9bdd 863c 8c1f 703d 239e a83c
00000140: 0f66 d63d 077c 2f3c 6150 e9bd b3a1 9c3d
00000150: b852 54bd 205a 93bd 17de 943d ba82 213d
00000160: 9cb9 a43d 127f 3f3d 511b c5bd a78a 703d
00000170: 51b7 a43d ba22 e0bc 0917 debd fea7 82bd
00000180: 20c6 f03c b196 743d eb79 9abc 1f4b 8f3d
00000190: e78b 86bd 3d7d 93bb a50e c83d 1d79 443d
000001a0: a3e4 95bc dc71 85bc b05b d2bd 1155 d03d
000001b0: 34ce 4c3d 0a66 47bd 27fc 38bd bf42 85bd
000001c0: 79d5 513c 5fad 06be c664 22bd 040e 11bc
000001d0: 7751 44bd 6a0e 4b3c 7562 4f3d e0f2 ba3c
000001e0: 78ff cc3d d5ab e13c 885c 65bd 1bc0 73bd
000001f0: a31b 87bb 1623 263d 6383 503d 6605 81bc
00000200: 9304 c43d 9e63 223d 134e 06bd e16b 68bb
00000210: 5f3e 79bd cb34 f23d 6332 783d 512f 1c3d
00000220: b212 d33d 828a 25bc ebce f139 c03f ba3d
00000230: 2c4b 023e 7df7 703d bc08 5ebd 7a61 283c
00000240: 7001 11bd 7110 9a3d 1779 ba3d 6d27 a33c
00000250: aa3b 3fbd b804 b3bd aa72 8cbc 7934 e6bd
00000260: 9ead fb3d 1f69 c1bc 7f65 643a 8b87 243d
00000270: 84d5 b93d f8be 0cbd 0ec6 ee3d 7937 16bd
00000280: 3060 c2bc 1cb1 b83d 5a43 08bc 6dbb 85bd
00000290: beb4 973d a228 f6bd 3ad7 d8bd 8bfc 7e3d
000002a0: e6ca f4bb c6d1 833c 02cd 06bd f080 bf3d
000002b0: b3f2 503d feb7 9cbd 1976 3b3c 647e cf3c
000002c0: 3a01 bfbd c9fb bfbd 80a5 ccbd f037 47bd
000002d0: 7e9e bf3d 0c82 ee3d cf19 dfbd 88b2 2d3c
000002e0: 7d5a dabc 3ac6 a53d fe97 383b cb9d eb3d
000002f0: 5d7b fe3d 2ab8 613d 955c f53d cc9d 83bd
00000300: c59f 583d 9781 bcbd f03e 6a3d 2601 5fbd
00000310: 08e8 583d 26bb 59bc da4d 8f3d 8c81 a0bd
00000320: 1a4b 68bd 85ce 373d b8bb 693d 8eac 90bd
00000330: 8dd0 623d 1e6e 5abd 40d6 f3bd 922d d33c
00000340: b252 cd3d 7edd fcbd 904a ecbd e038 653d
00000350: cf01 ad3d 61a2 d1bd 794d a3bd 7061 9dbc
00000360: 7b29 93bc 0801 873d 27c9 e63d 8de6 b03c
00000370: d866 b3bd df50 743d 2a2e 0fbd 9800 09bd
00000380: ed5d 1aba a1e0 81bd 773d 143d f89b 98bd
00000390: cef6 a83d 6404 f43c 3bc9 a73d d062 e33d
000003a0: 4f0d 82bd d2d6 07bd a87d febc ef49 a5bd
000003b0: 8c23 e53d 439f a23d b616 c3bd c454 8e3d
000003c0: 571a 863d c451 b9bd c3cc 27bd 8f86 cfbd
000003d0: 008d 0cbd 69be b13d 4dd0 303c dd35 68bd
000003e0: d8c0 5a3d 93bf b43d 4eb8 c03d 1f5d 9fbd
000003f0: 8654 a53d fee4 61bb d2f1 cf3b c62d 5c3c
0.115004085 -0.11277947 0.025848819 0.029754607 -0.028866595 0.078468606 -0.038323887 0.12411051
-0.08899522 -0.042906884 0.016839104 -0.012552467 0.06970135 -0.10086416 0.11524142 -0.047179163
0.016189525 -0.10943641 -0.06946083 -0.01139483 0.0020408444 -0.07602526 -0.05125411 -0.073862754
-0.09289317 0.12963854 -0.02398864 -0.07746736 -0.06816679 0.037930883 -0.05728084 0.14051883
0.03449838 -0.06286517 -0.011881979 -0.104307264 -0.026827293 0.059258725 0.07328364 -0.01485636
0.048849143 -0.07173374 0.09993903 0.059756182 0.0654844 -0.062280487 0.013085581 -0.13711174
0.12222104 0.07892752 -0.016045583 0.0131174745 0.10580822 0.024194866 -0.006490148 -0.01887561
0.10944287 -0.06511818 -0.05513554 -0.02327241 0.02176074 0.018456528 0.05681348 -0.08712954
0.066707134 -0.042475443 0.038527735 -0.042040464 -0.12733255 0.0032413746 -0.025427975 -0.11223197
-0.024670498 -0.016767995 -0.0056823315 -0.021735504 -0.04148096 0.016463092 0.058623835 0.020583218
0.10468685 0.010710723 -0.11392284 0.07648029 -0.0518367 -0.07194924 0.07268923 0.03943131
0.08043215 0.046752043 -0.09624351 0.05872598 0.08042777 -0.027360309 -0.10844237 -0.06379698
0.029391348 0.059714023 -0.018856963 0.0699675 -0.06569653 -0.0045010136 0.09768418 0.047967065
-0.018297499 -0.016289644 -0.10271394 0.10172475 0.050001338 -0.048681296 -0.045162346 -0.065068714
0.0128072435 -0.13152073 -0.039646886 -0.008853439 -0.047929253 0.012393573 0.050631005 0.02282089
0.10009664 0.027547756 -0.055996448 -0.059509378 -0.0041231676 0.040560804 0.05090655 -0.015749644
0.09571185 0.039645784 -0.0327893 -0.0035464691 -0.060850497 0.11826476 0.060594928 0.038131062
0.103063 -0.010103824 0.00046121268 0.090941906 0.12723988 0.058829773 -0.05420755 0.0102771465
-0.03540176 0.07522667 0.09105127 0.01991626 -0.04668776 -0.087411344 -0.01714452 -0.11240477
0.12288974 -0.023609696 0.0008712634 0.040168326 0.09073928 -0.03436181 0.1165887 -0.036673997
-0.023727506 0.09018156 -0.008316839 -0.06529889 0.07407521 -0.12019469 -0.10587926 0.062252562
-0.0074704764 0.016091239 -0.032910354 0.09350765 0.051012706 -0.07652281 0.011441731 0.025328822
-0.09326406 -0.09374196 -0.09992504 -0.04863733 0.09356402 0.11645898 -0.108935945 0.010601647
-0.026654476 0.08094449 0.0028166766 0.11504706 0.124258734 0.055107273 0.11980549 -0.06426582
0.052886743 -0.09204405 0.057188928 -0.054444455 0.052955657 -0.013289249 0.06997271 -0.07837209
-0.056712247 0.044874687 0.05706379 -0.07064162 0.05537467 -0.053327672 -0.11906099 0.025778566
0.100255385 -0.12346934 -0.11537659 0.055962443 0.084476106 -0.102360494 -0.07973761 -0.0192115
-0.017964115 0.065919936 0.112688355 0.02159431 -0.0875985 0.059647437 -0.034956135 -0.033447832
-0.000588863 -0.06341673 0.03619143 -0.07451624 0.08250199 0.02978725 0.081926785 0.11102831
-0.06350195 -0.033163853 -0.031065777 -0.08070742 0.11188421 0.07940533 -0.09525816 0.069497615
0.06547993 -0.09048799 -0.04096676 -0.10133087 -0.034314156 0.08678896 0.01079185 -0.056691993
0.053406566 0.088256024 0.09410153 -0.07781433 0.08072762 -0.0034468765 0.006345966 0.013438648
