lab4-student/code/model/bestModelParms-11-14-19-54.pth (torch, 465577 bytes, 20 tensors)

user_id_embedding.weight f4 [900, 32]
0.30147877 -0.0079259155 -0.033583038 -0.01782709 -0.033777434 -0.032425098 -0.17836386 -0.009380931
-0.011883347 0.03214062 -0.0033894836 0.022589032 -0.02307094 -0.0018949608 -0.060750306 -0.03282724
-0.3948196 0.0024205542 -0.012826994 -0.013252768 -0.017662102 -0.028892355 0.0029083027 -0.14411348
0.028950842 -0.01856939 -0.04342397 -0.0012887589 0.00835049 0.022187125 -0.021332245 -0.040728986
0.0058102226 0.06629124 -0.0025982796 0.013405739 -0.01409901 -0.050075553 -0.002526906 -0.0029549876
-0.009754648 0.00012051061 0.020479342 0.011104186 -0.024297237 0.0049522463 -7.149125e-05 0.006492154
-0.020263692 -0.0060444623 -0.010841076 0.010215259 -0.022973882 -0.011968368 0.005964911 0.3740626
-0.6727869 0.16937946 -0.072850496 -0.0049557462 0.008978964 0.39241913 0.018015323 -0.013874135
0.0054663024 -0.0017313206 -0.008923027 -0.008691868 0.012935154 0.034017965 -0.010754719 0.002540012
0.17596701 0.014883897 0.013115922 -0.027419452 -0.27230486 -0.006598797 -0.018877832 -0.003922637
0.023089679 -0.0018584928 -0.214446 0.017828636 -0.016997175 -0.00072857563 -0.04450194 0.0006965374
0.008969826 0.07805541 0.004530881 -0.013915551 -0.019570904 -0.015025225 0.011317585 -0.07110879
0.15250982 0.013211039 0.022954475 0.0027780803 0.13633034 -0.012109736 0.0060902657 -0.022368582
-0.09929234 -0.02435591 0.044283636 0.031150663 0.028378006 0.009429076 0.021589963 -0.015913209
-0.011419963 0.020427542 -0.021914586 0.022153795 -0.007973075 -0.008290033 -0.006541318 0.0038141336
-0.015336211 -0.0099724615 -0.0012696825 0.17328578 0.04330775 0.0054111895 -0.0091997925 0.019595541
0.0129877115 0.046618626 -0.022670655 -0.021324903 -0.034874447 0.1993452 0.16070811 0.03329136
0.033618234 -0.02025966 0.01421343 -0.051714994 -0.025805447 0.023799066 0.008970916 0.0040591806
0.0020705105 -0.035365373 0.028649073 -0.027261974 0.008650084 0.049256273 -0.02595329 0.001964383
-0.032467626 -0.009257015 -0.008298507 0.04598641 -0.017366907 -0.01663749 0.13591367 -0.03295695
0.0536727 0.06658489 -0.35535252 -0.15989536 -0.059264027 0.03962128 0.39248714 0.022695068
-0.016122656 -0.032671846 -0.058348455 -0.059537955 -0.36456457 0.42738748 -0.074981384 -0.009016877
0.003765557 -0.013183321 0.28506646 0.021119723 0.016458856 0.03484382 -0.06544481 0.0016611746
-0.1652337 -0.044699304 -0.3444111 -0.03471097 -0.066108905 -0.042622883 0.06376914 -0.035762932
-0.00937274 -0.15546341 0.03927203 0.022142358 0.045985207 -0.25903517 -0.23939787 0.02278398
0.017060926 -0.024408724 0.066158354 0.044026017 0.0025430035 0.02195801 -0.584993 9.108435e-05
-0.0063679493 -1.2616773 -0.05332049 -0.047180906 -0.016851068 -0.021168064 -0.01781782 -0.012812144
-0.005370024 0.025565721 -0.03302845 -0.049694635 -0.24910928 0.030860597 0.79491645 -0.0037686185
0.025356598 0.045099545 -0.043567043 -0.037189215 0.68535674 -0.040421482 0.0064077517 -0.004885234
-0.020977579 0.05049182 -0.41493675 0.010282057 -0.007140489 0.008093916 -0.08646331 0.15411353
0.0224076 -0.052432157 -0.08101067 0.029383104 0.09749245 -0.05473967 0.029764686 0.01718062
0.011642146 -0.038393676 0.013463084 0.003950077 -0.024356792 0.00016614972 0.0069396216 -0.29160017
00000000: 6d5b 9a3e b3db 01bc 5e8e 09bd 1e0a 92bc
00000010: 355a 0abd 2ed0 04bd 04a5 36be 7ab2 19bc
00000020: 5fb2 42bc e2a5 033d 1922 5ebb a20c b93c
00000030: 45ff bcbc 5560 f8ba 50d5 78bd db75 06bd
00000040: cb25 cabe 29a2 1e3b 5028 52bc 2322 59bc
00000050: 1db0 90bc a9af ecbc 3999 3e3b 7c92 13be
00000060: 512a ed3c d51e 98bc 55dd 31bd 93eb a8ba
00000070: 7ed0 083c c6c1 b53c f6c0 aebc 70d3 26bd
00000080: ae63 be3b b4c3 873d e647 2abb bfa3 5b3c
00000090: 89ff 66bc 061c 4dbd 739a 25bb 77a8 41bb
000000a0: f6d1 1fbc a4ba fc38 4bc4 a73c 55ee 353c
000000b0: 000b c7bc 7446 a23b 93ed 95b8 23bc d43b
000000c0: 0b00 a6bc a010 c6bb c59e 31bc e75d 273c
000000d0: b933 bcbc f916 44bc 4d75 c33b 2285 bf3e
000000e0: c33b 2cbf cf71 2d3e a432 95bd d063 a2bb
000000f0: 811c 133c 29eb c83e df94 933c 5750 63bc
00000100: ab1e b33b 7bed e2ba e331 12bc 5668 0ebc
00000110: f8ed 533c 6c56 0b3d 9034 30bc 5476 263b
00000120: b230 343e 97db 733c 2ae4 563c c29e e0bc
00000130: 8b6b 8bbe b93a d8bb afa5 9abc 7789 80bb
00000140: 9126 bd3c ac98 f3ba bb97 5bbe 5c0d 923c
00000150: a93d 8bbc e2fd 3eba ab47 36bd d597 363a
00000160: 2df6 123c 84db 9f3d c977 943b 0dfe 63bc
00000170: 2953 a0bc 5c2c 76bc 646d 393c 7ca1 91bd
00000180: 892b 1c3e 1d73 583c 060b bc3c 7410 363b
00000190: 2e9a 0b3e ea67 46bc da90 c73b 513e b7bc
000001a0: c859 cbbd 0c86 c7bc c262 353d ad2f ff3c
000001b0: fe78 e83c 697c 1a3c 6fdd b03c 6b5c 82bc
000001c0: cc1a 3bbc a957 a73c 3886 b3bc e07b b53c
000001d0: 80a1 02bc ebd2 07bc 8d58 d6bb 8bf6 793b
000001e0: bb44 7bbc 8963 23bc 7a6b a6ba d471 313e
000001f0: 7863 313d 5950 b13b baba 16bc d486 a03c
00000200: 69ca 543c 2cf3 3e3d cfb7 b9bc 90b1 aebc
00000210: 82d8 0ebd 2621 4c3e ab90 243e 855c 083d
00000220: 46b3 093d 96f7 a5bc 72df 683c 1ad3 53bd
00000230: f265 d3bc 42f6 c23c c0fa 123c e002 853b
00000240: 67b1 073b 48db 10bd 76b1 ea3c 8154 dfbc
00000250: 15b9 0d3c f2c0 493d fe9b d4bc e1bc 003b
00000260: c6fc 04bd bcaa 17bc 76f6 07bc 3f5c 3c3d
00000270: 0b45 8ebc 584b 88bc f42c 0b3e defd 06bd
00000280: e8d7 5b3d a95d 883d c4f0 b5be 9cbb 23be
00000290: d6be 72bd ec49 223d 13f4 c83e 02eb b93c
000002a0: a913 84bc ead2 05bd cafe 6ebd 12de 73bd
000002b0: 35a8 babe 88d2 da3e d78f 99bd 86bb 13bc
000002c0: 90c7 763b dbfe 57bc 3bf4 913e 4503 ad3c
000002d0: b9d4 863c 65b8 0e3d ee07 86bd c5bb d93a
000002e0: 0633 29be 9e16 37bd a756 b0be 172d 0ebd
000002f0: 1b64 87bd 5595 2ebd 6599 823d 277c 12bd
00000300: 1f90 19bc cd31 1fbe b5db 203d e463 b53c
00000310: fc5a 3c3d 42a0 84be b724 75be 78a5 ba3c
00000320: 5bc3 8b3c cef4 c7bc 087e 873d a054 343d
00000330: 85a8 263b 49e1 b33c 1ac2 15bf 8a04 bf38
00000340: 3baa d0bb a47e a1bf 9666 5abd c440 41bd
00000350: 400b 8abc a668 adbc adf6 91bc 07ea 51bc
00000360: 07f7 afbb 346f d13c d748 07bd 9a8c 4bbd
00000370: 8116 7fbe 5dcf fc3c a57f 4b3f edfa 76bb
00000380: a4b8 cf3c 4dba 383d 5b73 32bd b853 18bd
00000390: 8a73 2f3f ff90 25bd 1ef8 d13b 5014 a0bb
000003a0: 2cd9 abbc 83d0 4e3d 9772 d4be 1376 283c
000003b0: c3fa e9bb 589c 043c ad13 b1bd f0cf 1d3e
000003c0: 2590 b73c 1ac3 56bd ece8 a5bd d6b4 f03c
000003d0: 1faa c73d b436 60bd 12d5 f33c 5fbe 8c3c
000003e0: b3be 3e3c b042 1dbd 4494 5c3c a66f 813b
000003f0: e587 c7bc 7a38 2e39 c465 e33b 9e4c 95be

user_age_embedding.weight f4 [5, 4]
0.4594821 0.14477973 -1.050384 0.7518106 0.5649445 -1.449895 -0.470115 0.46746954
0.33433244 -0.30692044 0.06835364 -0.5935381 1.1414156 0.32736897 0.73821014 0.45652923
-0.07785982 0.104415424 0.900476 -1.28823
00000000: 3d41 eb3e 2341 143e fc72 86bf a976 403f
00000010: 34a0 103f 2996 b9bf eab2 f0be 2b58 ef3e
00000020: 9f2d ab3e ad24 9dbe fefc 8b3d 1df2 17bf
00000030: e819 923f e89c a73e 57fb 3c3f 33be e93e
00000040: f874 9fbd c1d7 d53d 9885 663f b8e4 a4bf

user_gender_embedding.weight f4 [2, 2]
0.17575872 0.3355111 -0.90743923 0.37214884
00000000: 18fa 333e 1cc8 ab3e f04d 68bf 4b8a be3e

user_occupation_embedding.weight f4 [21, 8]
0.0533239 0.07116937 -0.11166822 -0.07698506 0.1677194 -0.011225807 0.74021316 0.31794795
-0.06189952 -0.61766917 0.21570563 -0.105479255 -0.7238767 0.17142196 -0.27158576 -0.30670798
0.5524975 -0.08138122 0.4965983 0.12834445 0.40562993 -0.19455585 -0.2519898 0.21882583
1.0101298 -0.11548782 -0.53812057 0.6912569 -0.026400905 -0.015604387 -0.18171667 -0.2406295
0.30111417 -0.319321 -0.16436692 0.13659653 0.2697508 -0.3920405 0.36804917 -0.49988827
-1.1667992 -0.25492868 0.07222517 0.024765886 -0.2948957 -0.74087673 0.69422275 -0.31460088
0.046094432 -0.8851826 -0.035664663 0.018112022 -0.086899355 0.07114659 0.0684519 0.07210502
0.04621215 0.1686267 -0.230131 0.43779784 -0.11189848 0.09624223 0.46377668 0.41374445
-0.026972104 -0.01840156 0.18082054 0.12995078 -0.011815372 -0.1309434 0.27126658 0.026605817
0.18367009 0.08210723 0.0764448 -0.03644273 -0.031434353 -0.049948744 0.25096795 0.085405104
-0.055258114 -0.06462264 0.020280577 -0.25913435 0.4086338 -0.16561064 -0.6315333 -0.34356713
-0.30632406 -0.010896285 0.2186073 -0.07433889 0.65574515 -0.043923914 -0.40899566 0.23830439
0.4424314 0.27695423 0.03525769 -0.09247427 -0.08706773 0.04036305 0.080935515 -0.089815505
-0.06722965 -0.13375786 0.23053525 0.13429756 0.20228937 0.32926667 -0.039756525 0.22579154
0.058593847 0.41442758 0.20149691 -0.06522936 -0.19368872 -0.32221502 0.039707318 -0.086500876
0.21051307 0.10122494 -0.03685139 -0.006249643 0.005998828 0.546902 0.18647186 -0.017789643
-0.04192406 -0.028324826 -0.15018336 -0.1496761 -0.14729704 0.12875684 -0.022959922 -0.14557563
0.3990214 0.010543688 -0.5185328 -0.07516245 0.30098855 -0.16442372 0.39960408 -0.036825843
0.007765694 -0.017295578 0.23539916 -0.044648197 0.034653224 -0.2275483 -0.023147296 -0.060988463
0.16022561 0.06145912 -1.0725642 -0.0037908643 -0.05854543 -0.026550658 0.16040783 -0.034115672
0.03303973 -0.18475594 0.055291016 0.033911496 -0.048644796 0.035400454 0.04814461 0.04759676
00000000: 296a 5a3d 3fc1 913d 4fb2 e4bd 58aa 9dbd
00000010: a2be 2b3e 72ec 37bc 9c7e 3d3f 13ca a23e
00000020: 5a8a 7dbd 911f 1ebf f0e1 5c3e 8205 d8bd
00000030: fc4f 39bf 3d89 2f3e 4a0d 8bbe d408 9dbe
00000040: 7a70 0d3f 32ab a6bd 2242 fe3e ba6c 033e
00000050: baae cf3e a639 47be cf04 81be e113 603e
00000060: ef4b 813f e184 ecbd 45c2 09bf 36f6 303f
00000070: b646 d8bc 8ba9 7fbc ef13 3abe 9467 76be
00000080: a32b 9a3e 0b7e a3be cd4f 28be f6df 0b3e
00000090: c71c 8a3e 88b9 c8be f170 bc3e 5bf1 ffbe
000000a0: ad59 95bf 0386 82be caea 933d d4e1 ca3c
000000b0: 92fc 96be 19aa 3dbf 95b8 313f 5e13 a1be
000000c0: 84cd 3c3d 549b 62bf 1c15 12bd aa5f 943c
000000d0: 4af8 b1bd 4eb5 913d 8230 8c3d ccab 933d
000000e0: f448 3d3d 7aac 2c3e 76a7 6bbe 0a27 e03e
000000f0: 082b e5bd a51a c53d 2374 ed3e 50d6 d33e
00000100: 9af4 dcbc debe 96bc 0529 393e d111 053e
00000110: 4395 41bc 0716 06be 74e3 8a3e 71f4 d93c
00000120: 0314 3c3e d627 a83d 178f 9c3d f944 15bd
00000130: 4fc1 00bd 0e97 4cbd df7e 803e dfe8 ae3d
00000140: 5556 62bd e058 84bd 7423 a63c 42ad 84be
00000150: 7338 d13e d695 29be 2bac 21bf 08e8 afbe
00000160: 82d6 9cbe 5586 32bc 98da 5f3e fd3e 98bd
00000170: eade 273f 90e9 33bd e167 d1be 1106 743e
00000180: 5e86 e23e f2cc 8d3e 5e6a 103d 2663 bdbd
00000190: 9150 b2bd ba53 253d 85c1 a53d 31f1 b7bd
000001a0: b3af 89bd d2f7 08be 6f11 6c3e 4d85 093e
000001b0: f224 4f3e a495 a83e bdd7 22bd e635 673e
000001c0: 1a00 703d da2f d43e 3555 4e3e f896 85bd
000001d0: 5656 46be 5ef9 a4be 24a4 223d 5f27 b1bd
000001e0: bd90 573e 054f cf3d 7cf1 16bd cec9 ccbb
000001f0: d191 c43b c501 0c3f 7bf2 3e3e 96bb 91bc
00000200: 90b8 2bbd 7709 e8bc abc9 19be b144 19be
00000210: 09d5 16be d5d8 033e 7216 bcbc c711 15be
00000220: 884c cc3e 6fbf 2c3c 91be 04bf c5ee 99bd
00000230: 2c1b 9a3e b15e 28be e898 cc3e b2d6 16bd
00000240: 5d77 fe3b 75af 8dbc 7a0c 713e 07e1 36bd
00000250: 8af0 0d3d 6c02 69be 669f bdbc 0acf 79bd
00000260: 2f12 243e 8fbc 7b3d c949 89bf 2670 78bb
00000270: 55cd 6fbd c480 d9bc f341 243e e0bc 0bbd
00000280: ab54 073d a930 3dbe d578 623d c8e6 0a3d
00000290: c43f 47bd 1100 113d 4833 453d d2f4 423d

user_location_embedding.weight f4 [760, 18]
0.06373309 -0.0045500416 -0.040053632 0.04426986 0.07227406 0.1350057 -0.049681343 0.12939978
0.0043820688 0.0058740717 0.0038435492 0.014036076 -0.04310088 -0.07031531 0.049622558 0.010801532
0.1908711 0.034951705 0.020253599 -0.0015365881 0.044836115 0.033425614 0.012787308 0.00748753
-0.0032634032 0.010806356 0.0059193675 -0.056635413 0.062365774 0.0028690493 -0.016724726 -0.024032565
0.0025554043 0.013752378 0.012734038 0.0012469696 -0.0028845037 0.0060844766 0.0076058065 -0.0029004635
-0.0429793 -0.01502295 -0.008053091 -0.006279507 -0.0052334378 0.24418876 0.01625462 0.18951933
0.011857539 -0.0039004658 0.008873745 1.6174214 0.00065314467 -0.008855097 -0.012794335 0.0016124564
-0.0053312755 -0.0017514032 -0.30981946 -0.19519973 0.32611993 -0.011521431 0.018646063 0.07150295
-0.004676466 0.3185298 -0.06262516 0.005247936 -0.032580946 -0.0035089557 0.009765441 -0.0006176751
0.029800236 -0.035362992 0.034043748 0.02420458 0.016705103 0.08328747 -0.026349159 -0.23754305
-0.0126733305 -0.0061353105 -0.24790376 0.14906178 -0.09129978 -0.4871758 -0.00698276 -0.016671102
0.019548448 0.06470063 0.011855223 -0.0070674713 0.034091603 0.07401791 0.055768054 0.04458241
-0.013677541 -0.008359247 0.10001953 -0.02610318 0.011921899 0.121975735 0.007699906 0.01643466
0.004810717 0.0037505412 -0.026855862 0.0150658395 -0.11017909 -0.020836538 -0.22632794 -0.040865395
0.7562989 -0.07152586 -0.0005269289 0.08454521 -0.028806329 0.014721494 -0.11792875 0.010165294
-0.010478922 -0.024359575 0.01182038 0.010938102 0.014286608 0.03234544 0.8380856 -0.013089187
-1.0725667 0.04829074 0.020238938 0.052596305 -0.006604273 0.0027632813 0.74276465 0.028102541
0.012230243 0.013637227 -0.2685125 0.013263237 0.0079600625 0.022941375 -0.010437185 -0.3523294
-0.009882788 0.01859066 0.011148663 -0.06079803 -0.0043648416 0.12758112 0.0037245713 -0.0052376552
0.007363293 -0.02793272 0.027805818 0.038646806 -0.01224239 0.017830428 -0.026308676 0.0024467404
0.0022134192 0.02697003 -0.003947726 0.0074924245 -0.032114107 -0.030066285 0.023444097 -0.009020948
-0.09998859 -0.016511215 0.037844345 0.50370485 -0.009962755 0.005890459 0.0024378018 -0.0022341069
0.0055443114 -0.006953779 -0.07951183 -0.007080266 -0.012841399 0.036531795 -0.10596252 0.015143516
0.18815249 0.021903574 0.0058254935 0.5303675 -0.14398754 0.15535052 0.065167956 -0.0009282368
0.018444307 -0.006424175 -0.0031992903 0.035259794 -0.00063434796 -0.6616185 -0.017487533 -0.13877234
0.0043934775 0.026947064 0.00084100117 0.0069204425 -0.01345442 0.008769957 0.007077838 -0.013957979
0.00543827 -0.058190867 0.08784031 -0.0071609365 0.113102555 0.24898803 -0.019177228 0.25081092
-0.030451206 -0.27480257 -0.06176168 0.005347012 0.7807101 1.16187 -0.123419635 0.040976383
-0.031635515 -0.00055876514 -0.0035396465 0.002473524 -0.0055588805 0.006354993 -0.035211194 -0.11886005
0.0024622544 -0.040170673 0.024144912 -0.046194494 0.023168877 -0.0037379584 -0.020300085 -0.023646623
0.039036144 -0.01077596 0.033262324 1.3547812 -0.18625464 -0.33069614 -0.007958525 0.0047056666
-0.002741734 -0.0031891884 0.06306414 -0.0077093863 -0.092554115 0.4379594 0.044533957 0.05687687
00000000: 7f86 823d 8418 95bb 470f 24bd 5054 353d
00000010: 6c04 943d ef3e 0a3e aa7e 4bbd 6081 043e
00000020: 7597 8f3b 497b c03b 0ee4 7b3b 92f7 653c
00000030: 8c8a 30bd 7901 90bd 0641 4b3d e9f8 303c
00000040: b773 433e 8529 0f3d e0ea a53c 5767 c9ba
00000050: 13a6 373d 4ce9 083d db81 513c f459 f53b
00000060: d2de 55bb 240d 313c 41f7 c13b 89fa 67bd
00000070: 4173 7f3d a906 3c3b 4b02 89bc f1df c4bc
00000080: 9278 273b a751 613c 6da2 503c 5b71 a33a
00000090: f109 3dbb 4a60 c73b 213a f93b b415 3ebb
000000a0: 100b 30bd d222 76bc 1df1 03bc 53c4 cdbb
000000b0: 427d abbb 9e0c 7a3e 6928 853c 5b11 423e
000000c0: 2046 423c f59e 7fbb 2f63 113c aa07 cf3f
000000d0: cc37 2b3a f814 11bc 559f 51bc 0f59 d33a
000000e0: fbb1 aebb 578f e5ba a8a0 9ebe 70e2 47be
000000f0: 31f9 a63e 62c4 3cbc a1bf 983c 2370 923d
00000100: 0a3d 99bb 5716 a33e 9f41 80bd e1f6 ab3b
00000110: 9973 05bd 82f6 65bb 3aff 1f3c 79eb 21ba
00000120: a01f f43c c9d8 10bd 7571 0b3d af48 c63c
00000130: 24d9 883c 9f92 aa3d 31da d7bc 7c3e 73be
00000140: cda3 4fbc b70a c9bb 7cda 7dbe a7a3 183e
00000150: 61fb babd 1b6f f9be a3cf e4bb d691 88bc
00000160: 1124 a03c c481 843d 693c 423c 3f96 e7bb
00000170: a3a3 0b3d b496 973d 0b6d 643d 0c9c 363d
00000180: c417 60bc 39f5 08bc 0ad7 cc3d 56d6 d5bc
00000190: 1254 433c 6ace f93d 7e4f fc3b fba1 863c
000001a0: 38a3 9d3b a4cb 753b d300 dcbc b6d6 763c
000001b0: 93a5 e1bd 63b1 aabc 83c2 67be 7962 27bd
000001c0: ce9c 413f 267c 92bd 9a21 0aba 0a26 ad3d
000001d0: 40fb ebbc 6c32 713c a184 f1bd 558c 263c
000001e0: c9af 2bbc bb8d c7bc 44aa 413c ba35 333c
000001f0: 6112 6a3c a77c 043d c78c 563f 0874 56bc
00000200: de49 89bf 83cc 453d 21cc a53c 396f 573d
00000210: a868 d8bb 2b18 353b d325 3e3f 4d37 e63c
00000220: 5b61 483c ad6e 5f3c 787a 89be 0c4e 593c
00000230: ec6a 023c 8def bb3c ba00 2bbc 8564 b4be
00000240: 6beb 21bc 714b 983c e2a8 363c 5b07 79bd
00000250: f206 8fbb a0a4 023e f017 743b a3a0 abbb
00000260: c747 f13b 29d3 e4bc 07c9 e33c 1d4c 1e3d
00000270: 4e94 48bc 1e11 923c 4b85 d7bc 7e59 203b
00000280: 030f 113b 41f0 dc3c ed5b 81bb 0383 f53b
00000290: 158a 03bd 924d f6bc d60d c03c 99cc 13bc
000002a0: d1c6 ccbd 8742 87bc ac02 1b3d cdf2 003f
000002b0: d33a 23bc c004 c13b 87c3 1f3b 186a 12bb
000002c0: 0ead b53b 87dc e3bb 19d7 a2bd 9301 e8bb
000002d0: bb64 52bc 5da2 153d e102 d9bd 821c 783c
000002e0: 0cab 403e 206f b33c c8e3 be3b 2ac6 073f
000002f0: 7871 13be 3514 1f3e c776 853d eb54 73ba
00000300: 8418 973c e381 d2bb 2fab 51bb 936c 103d
00000310: 5f4a 26ba d45f 29bf 0442 8fbc 561a 0ebe
00000320: 29f7 8f3b 17c0 dc3c a276 5c3a e1c4 e23b
00000330: ed6f 5cbc deaf 0f3c 35ed e73b 02b0 64bc
00000340: 8433 b23b 8c59 6ebd 9fe5 b33d 4aa6 eabb
00000350: 50a2 e73d b8f6 7e3e 9019 9dbc 4a6a 803e
00000360: cf74 f9bc ecb2 8cbe d1f9 7cbd fd35 af3b
00000370: 9edc 473f 28b8 943f 6fc3 fcbd dad6 273d
00000380: 3e94 01bd 187a 12ba 6af9 67bb d91a 223b
00000390: 4527 b6bb 8c3d d03b 9d39 10bd e66c f3bd
000003a0: c65d 213b 018a 24bd 8dcb c53c 7036 3dbd
000003b0: a8cc bd3c 89f8 74bb 5d4c a6bc 90b6 c1bc
000003c0: 5de4 1f3d a78d 30bc 133e 083d 7869 ad3f
000003d0: 89b9 3ebe 0151 a9be 7964 02bc fe31 9a3b
000003e0: aaae 33bb b401 51bb c627 813d 059f fcbb
000003f0: 038d bdbd 373c e03e 3d69 363d b9f7 683d

item_id_embedding.weight f4 [1600, 32]
-0.0029945895 -0.0045540496 0.00868827 -0.0037007325 0.070618644 -0.54099643 0.018496163 -0.0111500155
0.0019818598 0.0067481208 -0.005707499 7.78964e-05 -0.00588435 0.014869277 -0.015246395 -0.01247396
-0.0018207527 0.041784223 -0.04389242 0.15034091 -0.0135727255 0.21302886 -0.020179953 0.108688325
0.008942563 0.006555582 -0.0026433303 -0.0071648406 0.00046783342 -0.0020845567 0.01557278 0.0040018926
-0.012537545 -0.08746942 0.005155504 0.03152945 0.02607825 0.009716044 -0.018412482 -0.0034353198
-0.0061742337 -0.03344826 -0.20353943 0.0020181416 0.01164119 0.002199552 0.021120172 -0.0032396752
0.009402641 0.0153913135 -0.00076031324 -0.032373972 0.022385255 -0.012706092 -0.1109636 0.018173078
0.016968336 0.030662673 0.10641255 0.005566548 0.010959369 -0.003965572 -0.018531028 0.022785649
-0.014468651 0.02234737 -0.029951716 -0.028766844 0.008770424 -0.0045010755 -0.0041906084 -0.0026559646
0.091402546 -0.032775003 -0.013976203 -0.0053045084 0.013126686 0.009044497 -0.014600823 -0.0054813935
-0.003425938 0.018743131 -0.022746194 -0.00026043298 -0.017877618 -0.047425326 0.11627056 -0.0028280918
-0.028788408 0.24286106 -0.020736244 -0.005664265 0.026406081 0.34459916 0.37175816 -0.012683686
0.52540565 -0.015115522 -0.3266744 0.039084174 0.02321327 0.02333173 -0.0038684257 -0.0033544435
0.059431564 -0.018808477 -0.0035371284 0.14622816 -0.06932478 0.013740074 0.019446712 -0.038085923
0.0060336627 -0.002627041 -0.009624301 0.2807781 0.009965428 0.036995716 0.04054097 0.021685144
0.10956714 0.046446744 0.03321926 0.17345689 -0.0051487098 -0.03359744 -0.05876345 0.06725924
-0.008899968 -0.058759075 0.0006031511 0.01202326 0.00029267484 0.30881613 -0.010881275 -0.010909534
-0.004517192 -0.23177077 -0.097470775 0.0045735617 0.018014641 0.004167143 0.009108142 -0.0046993284
0.75363535 0.0146506 -0.0106569175 -0.017426992 0.007016877 -0.31037953 0.028574096 -0.01169996
0.01222943 0.006037312 0.0033286735 -0.00078451494 0.0109770065 -0.0071830987 -0.008416034 0.006155973
0.015857445 0.0110906735 0.0025122026 -0.03828772 0.090597406 -0.0034328208 0.0021248318 0.002768826
-0.0066104094 0.002981667 -0.0059170197 0.0043419083 -0.0073579038 0.6204101 -0.0024997308 0.04263068
0.0019786162 0.0059478967 0.16757737 0.0103221545 0.24435356 0.016208272 -0.05474486 -0.0057729175
0.0028626558 0.00040624008 -0.005600434 -0.07931719 -0.0045769117 -0.0031070416 -0.00016849574 -0.0035202778
-0.004642043 0.021373158 -0.21722052 -0.014613885 0.021860395 -0.0023408136 -0.010750151 0.0014395937
0.42874864 9.438704e-05 -0.012726136 -0.0017285465 -0.009372171 0.0053651505 -1.2852999 -0.014384221
-0.005170466 -0.012535831 0.26980317 0.41670418 -0.012160316 -0.17400768 -0.18248466 0.02882362
0.06405645 -0.15343647 0.4270086 -0.017212829 -0.011175124 -0.013693346 -0.0039287633 -0.008791348
-0.069559254 0.35458392 -0.02707175 -0.2107537 -0.031720042 -0.013368083 -0.010614737 -0.027888361
0.025130305 -0.002947472 -0.0035876648 -0.029097987 0.028542195 0.013467983 0.051412806 0.024700524
-0.01835856 0.24677815 -0.036729254 -0.05258721 -0.5046394 -0.047819063 -0.020795168 0.5401154
0.0055498825 -0.04735802 0.0017793983 0.031076152 0.013985206 -0.007970571 -0.00082918315 0.042562034
00000000: e040 44bb 233a 95bb 3f59 0e3c fd87 72bb
00000010: 82a0 903d be7e 0abf 4485 973c 8eae 36bc
00000020: 17e2 013b 571f dd3b f905 bbbb 505c a338
00000030: 81d1 c0bb 459e 733c 04cc 79bc 955f 4cbc
00000040: 53a6 eeba ef25 2b3d 8ac8 33bd f8f2 193e
00000050: 2360 5ebc 3d24 5a3e 6e50 a5bc fc97 de3d
00000060: d483 123c 35d0 d63b b93b 2dbb 0ac7 eabb
00000070: 8a47 f539 0f9d 08bb f924 7f3c 4f22 833b
00000080: 466a 4dbc 2b23 b3bd 81ef a83b 0625 013d
00000090: 0ea2 d53c 0b30 1f3c c6d5 96bc 1a23 61bb
000000a0: 3a51 cabb 0b01 09bd a46c 50be cc42 043b
000000b0: b1ba 3e3c 5c26 103b 3604 ad3c bb50 54bb
000000c0: 890d 1a3c d92b 7c3c c24f 47ba 929a 04bd
000000d0: 4861 b73c 362d 50bc e240 e3bd b5df 943c
000000e0: 2e01 8b3c 4930 fb3c d3ee d93d 9767 b63b
000000f0: ed8e 333c a1f1 81bb 62ce 97bc f8a8 ba3c
00000100: ec0d 6dbc d511 b73c 4d5d f5bc 72a8 ebbc
00000110: d3b1 0f3c c27d 93bb 5f51 89bb b10f 2ebb
00000120: 4231 bb3d 153f 06bd 72fc 64bc 71d1 adbb
00000130: 5011 573c 5f2f 143c 4a38 6fbc 439d b3bb
00000140: b485 60bb 328b 993c 3a56 babc b98a 88b9
00000150: 1574 92bc 0f41 42bd 421f ee3d 8257 39bb
00000160: abd5 ebbc 92b0 783e 0edf a9bc 4c9b b9bb
00000170: 9151 d83c 4d6f b03e 1657 be3e 3ccf 4fbc
00000180: fc80 063f 18a7 77bc de41 a7be ba16 203d
00000190: c129 be3c 2f22 bf3c 6a85 7dbb 39d6 5bbb
000001a0: 836e 733d 3c14 9abc 2bcf 67bb d6bc 153e
000001b0: 26fa 8dbd 0c1e 613c b64e 9f3c fcff 1bbd
000001c0: 08b6 c53b 6f2a 2cbb 3faf 1dbc 26c2 8f3e
000001d0: 0946 233c d288 173d 4a0e 263d 0ba5 b13c
000001e0: bd64 e03d f13e 3e3d eb10 083d af9e 313e
000001f0: 82b6 a8bb 789d 09bd f1b1 70bd 36bf 893d
00000200: 2cd1 11bc 5bad 70bd c91c 1e3a 35fd 443c
00000210: 2772 9939 261d 9e3e 6047 32bc e7bd 32bc
00000220: f404 94bb 5155 6dbe c29e c7bd d1dd 953b
00000230: 7193 933c 878c 883b 513a 153c d3fc 99bb
00000240: 3fee 403f 1209 703c 5a9a 2ebc 0dc3 8ebc
00000250: d5ed e53b 11ea 9ebe 3914 ea3c 30b1 3fbc
00000260: f25d 483c a5d4 c53b e025 5a3b e8a7 4dba
00000270: e7d8 333c 3360 ebbb 68e3 09bc 0bb8 c93b
00000280: 79e7 813c a8b5 353c c4a3 243b 96d3 1cbd
00000290: 228b b93d 2df9 60bb c340 0b3b 3175 353b
000002a0: 229c d8bb 1268 433b 8fe3 c1bb 9146 8e3b
000002b0: 921a f1bb 32d3 1e3f 86d2 23bb 829d 2e3d
000002c0: acab 013b 93e6 c23b 6799 2b3e 411e 293c
000002d0: d237 7a3e 36c7 843c 253c 60bd be2a bdbb
000002e0: 659b 3b3b 9ffc d439 d883 b7bb 0d71 a2bd
000002f0: ebf9 95bb 829f 4bbb 3bae 30b9 76b4 66bb
00000300: 471c 98bb c316 af3c 0e6f 5ebe 146f 6fbc
00000310: 9214 b33c 5668 19bb 6721 30bc c0b0 bc3a
00000320: f184 db3e a8f1 c538 4881 50bc 6590 e2ba
00000330: bc8d 19bc 25ce af3b b584 a4bf ccab 6bbc
00000340: 036d a9bb 1663 4dbc a423 8a3e 405a d53e
00000350: 103c 47bc 122f 32be 42dd 3abe 831f ec3c
00000360: 0730 833d 731e 1dbe dfa0 da3e eb01 8dbc
00000370: de17 37bc 0e5a 60bc dbbc 80bb 9609 10bc
00000380: 1575 8ebd 068c b53e 93c5 ddbc d1cf 57be
00000390: e0ec 01bd ce05 5bbc 6fe9 2dbc 2276 e4bc
000003a0: 12de cd3c 602a 41bb 071f 6bbb e75e eebc
000003b0: 52d1 e93c d1a8 5c3c 3c96 523d c158 ca3c
000003c0: b164 96bc 69b3 7c3e 6a71 16bd b065 57bd
000003d0: 0c30 01bf ecdd 43bd a15a aabc 0145 0a3f
000003e0: cadb b53b 7cfa 41bd b33a e93a 6a93 fe3c
000003f0: 3522 653c ff96 02bc 8a5d 59ba 8755 2e3d

item_type_embedding.weight f4 [5, 8]
1.4341456 -0.8572386 2.0603178 0.089842364 -0.15182386 0.7533814 -0.12734279 0.0695643
1.0206383 -0.74118733 1.3723843 -0.19883522 -0.81173486 -1.3675699 1.2520685 0.9115736
0.275262 -0.49874786 0.08771066 -1.3712476 -0.38665846 -0.1116099 0.2533875 -0.9049246
0.45517907 -0.015046239 0.74651235 0.28205577 1.3658683 0.22250035 0.25863558 -0.39464828
-0.5660918 0.1156712 -0.18459952 -0.103014566 -0.025079653 -0.020003919 0.17429698 -0.25267
00000000: 1592 b73f fd73 5bbf 3fdc 0340 46ff b73d
00000010: b777 1bbe 9add 403f 2666 02be ba77 8e3d
00000020: 47a4 823f 74be 3dbf 4aaa af3f 769b 4bbe
00000030: dbcd 4fbf 880c afbf c843 a03f e35c 693f
00000040: 24ef 8c3e e15b ffbe a6a1 b33d 0b85 afbf
00000050: 19f8 c5be bb93 e4bd 02bc 813e 23a9 67bf
00000060: 3b0d e93e 8084 76bc 6f1b 3f3f 9d69 903e
00000070: c6d4 ae3f 22d7 633e e26b 843e 570f cabe
00000080: 64eb 10bf 06e5 ec3d a807 3dbe 4df9 d2bd
00000090: d873 cdbc 42df a3bc e87a 323e f65d 81be

item_temperature_embedding.weight f4 [7, 8]
-0.050189834 -0.03185058 -0.005345596 -0.616225 0.053101923 -0.33235258 0.013012291 -0.2077019
0.039839007 0.40816045 -0.20241593 0.05777285 -0.47652307 0.16962388 -0.3174323 -0.2796209
-0.4818207 0.85404503 0.70062554 -0.28789496 -0.031511188 0.023082208 -0.5974353 -0.12601437
-0.3442326 0.14570451 -0.21206394 -0.17544155 -0.6312424 0.043233093 -0.27221897 0.6171788
-0.4799227 -0.33728123 0.35337874 -0.31096178 0.009694735 0.9368095 0.42885125 0.2919347
0.28731188 -0.3821095 -0.36610776 -0.19161382 0.29902527 -0.620708 0.95895636 1.0187451
-0.23082674 0.061531473 -1.0038391 0.0028315776 -0.22373253 0.25477555 0.14270613 -0.12365638
00000000: db93 4dbd c175 02bd 1c2a afbb ecc0 1dbf
00000010: 6781 593d 1e2a aabe 8131 553c cfaf 54be
00000020: 3a2e 233d 68fa d03e 1f46 4fbe 39a3 6c3d
00000030: d5fa f3be e2b1 2d3e 7d86 a2be 782a 8fbe
00000040: 34b1 f6be b2a2 5a3f 325c 333f f866 93be
00000050: e011 01bd e616 bd3c 85f1 18bf e909 01be
00000060: 413f b0be 9033 153e 4a27 59be f3a6 33be
00000070: 1a99 21bf 2f15 313d 4960 8bbe 6eff 1d3f
00000080: 6eb8 f5be 20b0 acbe 0fee b43e 6236 9fbe
00000090: aad6 1e3c bfd2 6f3f 6492 db3e 7778 953e
000000a0: 8b1a 933e dba3 c3be 7a72 bbbe 6a36 44be
000000b0: d719 993e b8e6 1ebf 2a7e 753f 3d66 823f
000000c0: d85d 6cbe 6d08 7c3d cd7d 80bf fd91 393b
000000d0: 241a 65be f171 823e 8e21 123e 8e3f fdbd

item_humidity_embedding.weight f4 [6, 8]
-0.23529007 0.052379273 0.030241156 -0.09548961 -0.58598894 -0.17482889 -0.7912776 0.12102875
-0.6415224 -0.06380236 0.50616467 -1.0957867 0.6817711 0.2359325 0.23290215 -0.071113445
-0.44613042 0.08974871 1.3289019 0.2915938 0.5265946 -0.27226543 1.3876549 -0.29809788
0.6554492 0.61721957 -1.6537122 -0.13596594 -0.44249865 -0.356015 0.5426469 -0.2524474
-1.5645752 0.6407186 0.0880856 -0.7861326 1.3151077 -1.3242458 -0.012136348 -0.37582725
-0.09703993 0.46077 -0.30184394 -0.32721645 -0.26014143 0.19303587 0.96200037 0.30316043
00000000: e1ef 70be a68b 563d 4dbc f73c 0f90 c3bd
00000010: 5f03 16bf 5806 33be 2b91 4abf ecdd f73d
00000020: d03a 24bf d0aa 82bd 0294 013f bd42 8cbf
00000030: 8d88 2e3f 4a98 713e e77d 6e3e eda3 91bd
00000040: 356b e4be 2cce b73d 7519 aa3f c84b 953e
00000050: e7ce 063f 6066 8bbe ad9e b13f 49a0 98be
00000060: 85cb 273f 1a02 1e3f d7ac d3bf a83a 0bbe
00000070: 2f8f e2be 9947 b6be e8ea 0a3f c940 81be
00000080: 0044 c8bf 2206 243f 3966 b43d fc3f 49bf
00000090: 7355 a83f e380 a9bf 88d7 46bc 6e6c c0be
000000a0: dfbc c6bd 0cea eb3e 4a8b 9abe ea88 a7be
000000b0: 4231 85be 32ab 453e a845 763f d837 9b3e

item_windSpeed_embedding.weight f4 [5, 8]
1.3235344 0.6239527 -0.9756957 0.39112926 1.0689844 -0.19858582 -0.54089534 0.64925367
1.1004001 0.05488005 -0.58998436 -1.3899165 0.13213651 0.33276844 -0.058156155 -0.20150475
0.10124313 -0.5170144 0.8209098 0.6223553 -0.1793234 -1.6909931 -0.3292243 1.3123552
-0.65663254 -0.5003552 0.5293643 0.0039022742 0.3909662 0.6585248 -0.106715985 -0.12672643
-0.22933424 1.558339 -0.0055363253 -0.4912217 0.35992432 0.7414105 0.44987446 -0.3494795
00000000: 9369 a93f 5dbb 1f3f 32c7 79bf 1842 c83e
00000010: 7bd4 883f 155a 4bbe 1e78 0abf 7d35 263f
00000020: e9d9 8c3f e7c9 603d 3709 17bf c9e8 b1bf
00000030: cb4e 073e a060 aa3e 2635 6ebd 4357 4ebe
00000040: 8f58 cf3d 0e5b 04bf 2527 523f ad52 1f3f
00000050: 8ea0 37be 7672 d8bf 1690 a8be 41fb a73f
00000060: 1219 28bf 4717 00bf 6b84 073f 4cbd 7f3b
00000070: b92c c83e 1595 283f e98d dabd 93c4 01be
00000080: 98d6 6abe a777 c73f 106a b5bb 6981 fbbe
00000090: 0048 b83e 14cd 3d3f f255 e63e faee b2be

GCN_Layers.0.W1.weight f4 [64, 64]
-0.14659114 0.03518917 -0.033014882 -0.16517504 0.07659499 0.0013782559 0.057574667 -0.050691143
-0.10798509 0.2136864 -0.007478057 -0.011737736 -0.12280564 -0.020939369 -0.17901812 -0.052530892
-0.052656613 0.12180593 0.005439792 0.1056073 0.023193868 0.09813436 -0.0893151 0.14635742
0.12957022 0.07687007 0.087576196 -0.12693557 -0.13757779 -0.12958631 -0.14313594 0.01518525
-0.06994957 -0.13047387 -0.046837464 -0.0413787 -0.04552544 -0.02990555 -0.083086014 0.08578329
-0.07221729 0.09205896 -0.099531874 -0.038044736 0.08159453 0.06905186 -0.01467385 -0.009092676
-0.1164374 -0.044697255 0.048257172 -0.007846724 -0.14748102 0.002647889 -0.0680452 0.084848434
0.09379287 0.009117883 -0.08305028 0.0284912 -0.03936179 -0.026040208 0.01593723 0.0068115382
0.23116119 -0.17070901 0.009822029 -0.0036154543 -0.014996014 0.21240723 0.110462464 0.15814261
0.046789307 0.16207646 -0.09455155 -0.05909745 -0.015484131 -0.07149686 0.007920463 -0.14472778
-0.019372413 -0.038491294 0.3262869 -0.15909842 -0.07490751 0.0580008 -0.014245879 -0.09958399
0.04420795 0.1401168 -0.15086699 0.15456975 0.13943198 0.056338944 -0.035708208 -0.018501528
0.03189023 0.067645796 0.042828094 -0.03028902 -0.05578463 -0.08201346 -0.030588934 -0.07342474
0.09300973 0.110829934 0.115091525 0.01419244 -0.110243954 0.21192713 -0.031806145 -0.0020359033
-0.02559882 0.082466386 0.00811774 -0.120681815 -0.030643253 -0.018597113 -0.1402075 0.08617
0.088521704 -0.10323982 0.0064023235 -0.0874985 0.12828058 -0.03929955 0.072734065 -0.09337747
-0.03325484 0.08290988 -0.08495697 -0.031208215 -0.14604235 -0.07231714 -0.0746388 -0.10114577
0.024190193 -0.04284966 0.10316618 0.078248814 0.20278658 0.08598943 -0.002376741 -0.038715154
-0.052938525 0.083619654 -0.08683546 0.029068867 -0.072579846 -0.06486879 0.11574774 0.028390735
0.07457816 0.14846727 0.057607077 -0.03591927 0.07461225 0.0816536 -0.01393905 0.13917667
0.0996002 0.015794856 -0.08248168 0.020081783 -0.05990583 -0.06005303 -0.012232849 -0.11244008
0.0076812063 0.0057693725 0.025715588 0.10413044 -0.034448944 -0.16910402 0.098303534 -0.041867487
-0.021009352 0.06388448 -0.045435384 -0.0464125 -0.03263457 -0.0807242 0.06848465 0.054406084
-0.0406294 -0.019370556 -0.005824525 0.07453911 0.09108017 -0.051329687 0.10095292 0.050738316
-0.03531849 0.064020984 -0.040507615 -0.1535949 0.038513817 -0.09643339 -0.0043313135 -0.004045558
-0.042278077 0.005901631 -0.04952671 0.057327393 0.15766634 -0.0376384 -0.08067663 -0.037619013
-0.025993528 0.02398036 -0.0042076046 0.055265594 -0.07147136 0.06271667 0.14173631 -0.0035844275
-0.0114294775 0.12723315 0.11068691 0.13029765 -0.12193952 -0.1340575 -0.09482771 0.118626215
0.08662073 0.0778132 -0.019809507 -0.018879866 -0.0034667677 0.062680535 0.108748436 -0.018532591
0.050949015 -0.16790397 -0.04205743 -0.09900473 -0.067972876 0.01696433 -0.013290846 -0.12834351
-0.03511967 -0.055339422 0.052097466 -0.0959501 -0.104929775 -0.011560165 0.020635396 0.09890553
-0.12574792 -0.004101845 -0.06561562 -0.044244166 0.13632563 0.0005915212 0.053993255 -0.031778328
00000000: fd1b 16be 8522 103d 9d3a 07bd a523 29be
00000010: d6dd 9c3d 98a6 b43a 6ad3 6b3d 84a1 4fbd
00000020: 4927 ddbd 9cd0 5a3e 7d0a f5bb a24f 40bc
00000030: 8681 fbbd 0a89 abbc 8750 37be a22a 57bd
00000040: 76ae 57bd 6375 f93d 4840 b23b a448 d83d
00000050: 1101 be3c abfa c83d d6ea b6bd b8de 153e
00000060: 0eae 043e 0e6e 9d3d 265b b33d 66fb 01be
00000070: 31e1 0cbe 46b2 04be 3a92 12be 8ecb 783c
00000080: b841 8fbd f19a 05be a4d8 3fbd b67c 29bd
00000090: e278 3abd 7cfc f4bc 0029 aabd 26af af3d
000000a0: a9e6 93bd 6889 bc3d 5ed7 cbbd ccd4 1bbd
000000b0: 081b a73d 106b 8d3d 966a 70bc 73f9 14bc
000000c0: bb76 eebd 7814 37bd 50a9 453d 8c8f 00bc
000000d0: 4405 17be 3588 2d3b 485b 8bbd 04c5 ad3d
000000e0: 7a16 c03d 2c63 153c 4416 aabd 6166 e93c
000000f0: d439 21bd 4652 d5bc cb8e 823c 5333 df3b
00000100: 85b5 6c3e 58ce 2ebe 93ec 203c 42f1 6cbb
00000110: d7b1 75bc 4881 593e 253a e23d 23f0 213e
00000120: 25a6 3f3d 5ff7 253e 3ea4 c1bd 2b10 72bd
00000130: 27b1 7dbc f26c 92bd d4c4 013c 8533 14be
00000140: e5b2 9ebc 0ca9 1dbd 140f a73e b2ea 22be
00000150: 1c69 99bd 3f92 6d3d 8c67 69bc b1f2 cbbd
00000160: 6513 353d c77a 0f3e e07c 1abe 8847 1e3e
00000170: 42c7 0e3e aac3 663d c542 12bd 8490 97bc
00000180: 549f 023d e189 8a3d 836c 2f3d ae20 f8bc
00000190: 6d7e 64bd acf6 a7bd a595 fabc b65f 96bd
000001a0: e37b be3d cefa e23d 1bb5 eb3d 6887 683c
000001b0: 95c7 e1bd 6d03 593e 2947 02bd ca6c 05bb
000001c0: 9eb4 d1bc 23e4 a83d 4500 053c 0728 f7bd
000001d0: 8f07 fbbc f958 98bc 8e92 0fbe e679 b03d
000001e0: de4a b53d 666f d3bd 95ca d13b 6a32 b3bd
000001f0: fc5b 033e 91f8 20bd 99f5 943d b03c bfbd
00000200: 3a36 08bd a8cc a93d ebfd adbd 5fa8 ffbc
00000210: 208c 15be 021b 94bd 3adc 98bd 8325 cfbd
00000220: 832a c63c 2083 2fbd ca48 d33d ea40 a03d
00000230: 49a7 4f3e 3a1b b03d 19c3 1bbb c893 1ebd
00000240: 11d6 58bd c840 ab3d cad6 b1bd d521 ee3c
00000250: bea4 94bd eed9 84bd 270d ed3d b093 e83c
00000260: 6fbc 983d ce07 183e 66f5 6b3d 1620 13bd
00000270: 4fce 983d 013a a73d 9d60 64bc 5484 0e3e
00000280: 31fb cb3d 3764 813c 28ec a8bd 8d82 a43c
00000290: d15f 75bd 2afa 75bd 4a6c 48bc fc46 e6bd
000002a0: a1b2 fb3b 010d bd3b 7fa9 d23c 5742 d53d
000002b0: 561a 0dbd 9b29 2dbe 5d53 c93d 3e7d 2bbd
000002c0: ce1b acbc ded5 823d 741a 3abd 091b 3ebd
000002d0: d4ab 05bd bb52 a5bd ae41 8c3d ead8 5e3d
000002e0: 046b 26bd 00af 9ebc a8db bebb f6a7 983d
000002f0: 3d88 ba3d 143f 52bd 68c0 ce3d fbd2 4f3d
00000300: 1faa 10bd 6f1d 833d 50eb 25bd fb47 1dbe
00000310: aac0 1d3d df7e c5bd b1ed 8dbb 9a90 84bb
00000320: c72b 2dbd 7862 c13b 85dc 4abd 21d0 6a3d
00000330: 4973 213e b92a 1abd ca39 a5bd 6516 1abd
00000340: 61f0 d4bc 7672 c43c f2df 89bb 2d5e 623d
00000350: 945f 92bd 9971 803d 5323 113e b7e8 6abb
00000360: b442 3bbc 6849 023e d2af e23d bf6c 053e
00000370: 6dbb f9bd 5f46 09be 0835 c2bd 4df2 f23d
00000380: 3666 b13d 875c 9f3d 8c47 a2bc f3a9 9abc
00000390: b632 63bb a75e 803d 80b7 de3d a9d1 97bc
000003a0: eaaf 503d 05ef 2bbe 6944 2cbd fec2 cabd
000003b0: 5d35 8bbd c7f8 8a3c d9c1 59bc 7b6c 03be
000003c0: a5d9 0fbd 97ab 62bd 2764 553d 7c81 c4bd
000003d0: 6ce5 d6bd d966 3dbc 900b a93c fc8e ca3d
000003e0: 10c4 00be c568 86bb 7b61 86bd 5f39 35bd
000003f0: f298 0b3e 5110 1b3a 0828 5d3d fe29 02bd

GCN_Layers.0.W1.bias f4 [64]
0.03809809 0.04174912 0.006939974 -0.024420245 0.03283331 -0.051639587 0.0018721359 0.061151423
0.08635447 -0.06979101 -0.09792243 0.034562483 -0.092060454 0.07049136 0.11519345 -0.031642616
0.0014551894 0.109158054 0.1102425 0.061265375 -0.036314752 -0.064182185 -0.019368034 -0.04063727
-0.044350594 0.08195752 -0.017468367 -0.06654573 0.035314973 0.040173713 -0.040763207 0.09679946
0.042692456 -0.029896552 0.035250813 -0.07853175 -0.027477916 -0.047742166 -0.12265283 0.0129927965
-0.019366518 0.0508419 -0.104709744 -0.019728113 0.05248766 -0.057842273 -0.042739492 -0.02084796
0.11178151 0.09206286 -0.050525647 0.035048768 0.025026564 0.03450905 -0.0055371877 0.04460082
-0.07867205 -0.06747407 -0.091542535 -0.06154057 0.0802681 -0.012710085 0.027244408 -0.03966806
00000000: be0c 1c3d 2001 2b3d b968 e33b f70c c8bc
00000010: 397c 063d 0884 53bd 7562 f53a ea79 7a3d
00000020: 9dda b03d 97ee 8ebd 8e8b c8bd 6491 0d3d
00000030: 318a bcbd c65d 903d 8bea eb3d b09b 01bd
00000040: 0ebc be3a 428e df3d d2c6 e13d 67f1 7a3d
00000050: c7be 14bd f371 83bd b6a9 9ebc 4473 26bd
00000060: f8a8 35bd 58d9 a73d d219 8fbc 2149 88bd
00000070: 6fa6 103d 318d 243d 52f7 26bd cc3e c63d
00000080: 49de 2e3d 9de9 f4bc 2863 103d 41d5 a0bd
00000090: 5e19 e1bc 4a8d 43bd 6831 fbbd bddf 543c
000000a0: 88a6 9ebc 993f 503d 1072 d6bd da9c a1bc
000000b0: 4dfd 563d 05ec 6cbd 9b0f 2fbd 57c9 aabc
000000c0: b4ed e43d 748b bc3d fbf3 4ebd 4c8f 0f3d
000000d0: 8204 cd3c 5d59 0d3d 4c71 b5bb 59af 363d
000000e0: d01e a1bd d82f 8abd a77a bbbd f711 7cbd
000000f0: 9a63 a43d f63d 50bc aa2f df3c fa7a 22bd

GCN_Layers.0.W2.weight f4 [64, 64]
-0.002960519 -0.001437611 0.0043842425 -0.0018974614 0.003194831 0.003875226 -0.009534616 0.0010838761
-0.006023498 0.004568531 -0.003841134 0.011216759 -0.009105338 -0.0027250487 -0.0025723567 0.007747076
0.0007936341 -0.0051657204 -0.0014481689 0.0076740193 -0.00040430037 0.0025039152 -0.00403847 0.005042827
-0.0032790191 -0.009166822 0.008170827 0.002263456 0.0030614994 0.00041905692 0.0020533437 -0.0012610729
0.12304709 -0.04072817 0.15408672 0.047572568 -0.019526191 0.038426843 0.041072097 0.03978789
-0.041131396 0.022534074 -0.021159153 0.02187137 0.0037974124 0.01554079 0.024552722 0.0028209486
0.047139235 0.015181262 0.026184458 -0.023920156 -0.106017716 -0.016992563 0.09710987 0.0059560947
-0.023385175 -0.021221537 0.0388636 -0.07158708 0.07742587 0.010927215 0.0014943784 0.090122
0.0019534382 0.0028226331 0.0031774018 0.0023044145 -0.0004709999 0.004468708 -4.6459478e-05 0.004413493
-0.0015621372 0.0065169004 -0.00978119 0.006003654 0.0029790814 -0.0010380457 0.0016598323 0.005781303
0.004821995 -0.00026599248 0.0023748244 -0.0056872214 -0.002157939 -0.0051324107 0.0012288729 0.005768481
-0.0023897279 0.0037019413 0.0016769237 0.00016907066 -0.001022158 -0.007298558 0.00017376742 -1.28596e-05
-0.046126332 -0.08231821 -0.06379454 -0.08823016 0.00984145 0.017823517 0.024413716 0.008424027
-0.07172758 -0.013924933 0.024908153 0.011851608 0.048648477 0.0056295763 0.074150845 0.03743619
-0.023177538 0.15462947 -0.028105441 0.024912177 0.06446404 -0.0030874643 -0.034494027 0.008755674
0.032654725 -0.027217798 0.027867597 -0.01596886 0.16785702 -0.037870966 -0.0076213274 -0.014004902
-0.0016723336 -0.0020236836 -0.0020295882 0.001167417 0.0016370716 -0.005478053 -0.00800365 0.010940459
0.0016519242 -0.009631566 0.004255968 0.0016188021 0.0028304786 -0.0031470172 -0.0041953786 -0.00091581955
0.0027066686 0.0036939688 -0.00062343973 0.0033270954 0.00027959654 0.003590543 -0.0049272445 -0.0014466841
0.0028032286 -0.008544859 0.005197592 -0.0005305042 0.0019070455 0.010651682 -0.0011264959 -0.0015481251
0.06704249 -0.05914602 -0.0058972845 0.06459831 0.030131044 0.039769974 0.07872064 -0.11516773
0.020196574 -0.02873729 -0.0019921167 0.003738496 0.005112209 0.032739997 -0.027935516 0.05623518
-0.03275683 -0.07628775 0.01824675 0.062342174 0.000546242 0.009376798 0.0017797746 0.008027823
0.04819628 -0.027156493 -0.022938726 -0.006736012 -0.045551725 0.055977535 0.007622483 -0.08146025
0.008459783 -0.0002445462 0.0019741028 0.0025868171 0.0052832905 0.0026706792 -0.015113957 0.001077832
-0.0045139394 -0.012095558 -0.001582875 0.010961904 -0.00054868887 -0.014820717 -0.007408032 0.0029224714
0.005467483 -0.0065376665 -0.0046092863 -0.0037422774 0.002204664 0.00083130103 -0.0037775494 0.0034665961
0.0055928477 -0.0063168765 0.012938917 -0.007830989 0.005828923 0.002386034 -0.0024308118 -0.0077626547
-0.039613675 -0.08706768 0.0009106477 -0.04647167 -0.009559059 -0.019087793 -0.011677044 -0.03751325
-0.04741991 -0.053870227 -0.008261516 0.060337078 0.039019585 -0.041878473 -0.08507227 -0.08512898
0.0010646349 -0.08647164 -0.02916753 -0.03354209 0.042083956 0.018032435 -0.021611206 -0.007894069
-0.09754722 0.009686262 0.0042891474 -0.008795603 0.09758287 0.032919046 -0.031857967 -0.11923343
00000000: 4405 42bb 386e bcba b1a9 8f3b 3db4 f8ba
00000010: 5f60 513b 81f7 7d3b 1437 1cbc d910 8e3a
00000020: c360 c5bb 9eb3 953b 89bb 7bbb 7fc6 373c
00000030: 8e2e 15bc bb96 32bb fc94 28bb 2fdb fd3b
00000040: e20b 503a 3445 a9bb 7cd0 bdba 5776 fb3b
00000050: 47f8 d3b9 ba18 243b 2455 84bb 4d3e a53b
00000060: d0e4 56bb 7030 16bc efde 053c 7d56 143b
00000070: 70a3 483b deb4 db39 6491 063b 964a a5ba
00000080: 1d00 fc3d 95d2 26bd e9c8 1d3e 74db 423d
00000090: 64f5 9fbc 7765 1d3d 373b 283d a0f8 223d
000000a0: 6579 28bd 6199 b83c f655 adbc 962b b33c
000000b0: 02de 783b cc9e 7e3c ca22 c93c aadf 383b
000000c0: 1215 413d d4ba 783c ca80 d63c 34f4 c3bc
000000d0: d11f d9bd fd33 8bbc 8ae1 c63d 582b c33b
000000e0: 4492 bfbc cad8 adbc 702f 1f3d 3f9c 92bd
000000f0: 7491 9e3d 1008 333c 05df c33a e291 b83d
00000100: 4105 003b edfb 383b f53b 503b a905 173b
00000110: 89f0 f6b9 3d6e 923b 7cdd 42b8 109f 903b
00000120: a0c0 ccba b98b d53b 4941 20bc 4dba c43b
00000130: b13c 433b 090f 88ba bb8e d93a 1671 bd3b
00000140: d301 9e3b e874 8bb9 f1a2 1b3b df5b babb
00000150: 356c 0dbb c82d a8bb 2212 a13a 8705 bd3b
00000160: fb9c 1cbb 459c 723b 39cc db3a 8f48 3139
00000170: eef9 85ba be28 efbb 5635 3639 90bf 57b7
00000180: f7ee 3cbd 7396 a8bd b6a6 82bd 04b2 b4bd
00000190: 083e 213c a002 923c 46ff c73c ee04 0a3c
000001a0: e9e5 92bd 6725 64bc 2f0c cc3c 3f2d 423c
000001b0: a043 473d 4f78 b83b 66dc 973d b156 193d
000001c0: d2de bdbc 3057 1e3e 623d e6bc 9f14 cc3c
000001d0: b905 843d 0e57 4abb 9c49 0dbd f573 0f3c
000001e0: f6c0 053d dcf7 debc 964a e43c 20d1 82bc
000001f0: b6e2 2b3e 961e 1bbd 54bc f9bb d174 65bc
00000200: 3432 dbba c79f 04bb d702 05bb 0404 993a
00000210: 0293 d63a 3d81 b3bb be21 03bc 9c3f 333c
00000220: 6185 d83a b7cd 1dbc a675 8b3b fc2d d43a
00000230: 8d7f 393b 303e 4ebb 6379 89bb 9c13 70ba
00000240: 5d62 313b 8316 723b 556e 23ba 660b 5a3b
00000250: d096 9239 514f 6b3b b974 a1bb aa9e bdba
00000260: 5fb6 373b bcff 0bbc 9050 aa3b 8911 0bba
00000270: d4f5 f93a 6484 2e3c eea6 93ba 75ea caba
00000280: 934d 893d 1943 72bd 023e c1bb 1e4c 843d
00000290: 61d5 f63c d7e5 223d 4938 a13d 0fdd ebbd
000002a0: 4973 a53c 776a ebbc 2c8e 02bb 8e01 753b
000002b0: 5184 a73b 601a 063d 06d9 e4bc dc56 663d
000002c0: 072c 06bd c03c 9cbd 357a 953c 825a 7f3d
000002d0: ae31 0f3a 24a1 193c 5347 e93a 2187 033c
000002e0: 7669 453d 4b77 debc ffe9 bbbc c4b9 dcbb
000002f0: 7294 3abd b348 653d 06c6 f93b a2d4 a6bd
00000300: e79a 0a3c 6f36 80b9 f35f 013b 9787 293b
00000310: 741f ad3b 9006 2f3b 88a0 77bc 0a46 8d3a
00000320: abe9 93bb 732c 46bc 7978 cfba 8f99 333c
00000330: e3d5 0fba 98d2 72bc 14bf f2bb ef86 3f3b
00000340: 9228 b33b ec39 d6bb 7f09 97bb ff40 75bb
00000350: 207c 103b abeb 593a c390 77bb d52f 633b
00000360: 3544 b73b cdfd cebb c0fd 533c 8c4d 00bc
00000370: 8d00 bf3b 025f 1c3b 414e 1fbb de5d febb
00000380: f341 22bd 8a50 b2bd 88b8 6e3a 1459 3ebd
00000390: 999d 1cbc 015e 9cbc 1351 3fbc 7ea7 19bd
000003a0: 613b 42bd 07a7 5cbd 4f5b 07bc 0324 773d
000003b0: 00d3 1f3d c388 2bbd 5f3a aebd 1a58 aebd
000003c0: 388b 8b3a 0b18 b1bd bef0 eebc 6e63 09bd
000003d0: 3a60 2c3d c2b8 933c fc09 b1bc 2056 01bc
000003e0: d6c6 c7bd 21b3 1e3c fa8b 8c3b 6f1b 10bc
000003f0: 87d9 c73d 1fd6 063d 807d 02bd a830 f4bd

GCN_Layers.0.W2.bias f4 [64]
-0.06649534 0.011687826 -0.10327983 0.08221647 -0.017349953 0.014726867 -0.117805034 -0.040592737
-0.031151908 0.019129768 -0.09277797 -0.08692035 0.08136005 0.02392381 -0.010640502 0.0035884874
-0.044854693 -0.0665663 -0.048801858 -0.009521601 0.12033913 -0.103818305 0.10081145 0.06891561
0.098587416 -0.03303631 0.07278085 -0.05903297 -0.009375271 0.0047429153 0.017736495 0.0251181
-0.06818085 -0.010046067 0.0054990216 0.03292339 -0.059719644 0.05706466 0.09642268 -0.020965885
-0.104006894 -0.0003915342 -0.0726769 0.0857351 0.055889722 0.031040043 -0.013162339 0.010012558
-0.051520783 -0.066180564 0.103546746 -0.007726397 0.010825919 -0.07266707 0.044714026 0.06143774
-0.05746977 0.11778703 0.06313334 -0.019105127 -0.097657524 0.0947714 0.0074285776 -0.03882188
00000000: b52e 88bd 4c7e 3f3c 6084 d3bd 1c61 a83d
00000010: 7d21 8ebc f548 713c c443 f1bd 9244 26bd
00000020: 4932 ffbc 08b6 9c3c 6002 bebd 4c03 b2bd
00000030: 19a0 a63d defb c33c 8055 2ebc d42c 6b3b
00000040: 8eb9 37bd ea53 88bd 75e4 47bd 7d00 1cbc
00000050: 5d74 f63d b19e d4bd 3c76 ce3d a123 8d3d
00000060: 33e8 c93d 1551 07bd 200e 953d 8ecc 71bd
00000070: bd9a 19bc 756a 9b3b 204c 913c 79c4 cd3c
00000080: 67a2 8bbd 4298 24bc 2331 b43b adda 063d
00000090: 969c 74bd a2bc 693d 4179 c53d a6c0 abbc
000000a0: 9101 d5bd d546 cdb9 a0d7 94bd e295 af3d
000000b0: 9fec 643d b047 fe3c daa6 57bc b60b 243c
000000c0: 7507 53bd ad89 87bd 5110 d43d b72d fdbb
000000d0: 325f 313c 79d2 94bd 0e26 373d 24a6 7b3d
000000e0: 6c65 6bbd 543a f13d 0d4c 813d 5b82 9cbc
000000f0: ab00 c8bd 8217 c23d 6d6b f33b b103 1fbd
