lab4-student/code/model/bestModelParms-11-14-18-43.pth (torch, 498345 bytes, 20 tensors)

user_id_embedding.weight f4 [900, 32]
0.02058962 -0.03144888 0.0355469 0.080326594 -0.036068156 0.008930748 0.0058940505 0.032481443
-0.010332119 0.11103229 -0.037994087 0.01155502 0.041415997 -0.0114576565 -0.012272414 -0.09224793
0.012084897 -0.0037758595 -0.012024995 -0.016355963 0.073613994 -0.08543122 0.053942446 0.059957728
-0.04105945 -0.06640496 0.0062818495 0.020587206 -0.026373135 -0.031865604 -0.001143483 -0.062494975
0.032956034 -0.0077192974 0.0038140365 0.023756087 -0.017142491 0.0026025127 0.0023166442 0.009883239
0.001297804 0.041772958 -0.015801571 -0.0064766156 0.0056446884 -0.011878352 -0.003877747 -0.035559732
0.0072538876 -0.009342086 -0.0017890162 0.0011484632 0.06641227 -0.046405938 0.025341913 0.009230543
-0.0032389907 -0.011439234 -0.0039888723 0.011294879 -0.0061117387 0.016820313 0.003834323 -0.027713839
-0.031769324 0.009000866 0.007375602 -0.02819468 0.012001165 0.00048404935 -0.005754303 -0.008129254
0.006519518 -0.020064378 0.018498516 0.010950685 -0.00048432034 0.013669614 0.0047313166 0.014901929
-0.0111533785 0.01063902 0.0007450351 0.0011844276 0.022239676 0.077511884 -0.014469277 -0.024404928
0.016771689 0.01764164 -0.006061985 -0.008987517 -0.00048608455 0.0797762 -0.0065250234 0.010443856
-0.03701682 0.015394916 -0.009112178 -0.056577995 0.018150384 -0.0028548986 -0.0044838456 -0.021259727
0.008745777 -0.05869032 0.025222074 0.009840319 -0.0031066579 0.012792682 0.005513259 0.05812182
-0.019969499 0.011907777 0.004564424 0.0014215704 0.0011948599 -0.21501824 -0.03752328 -0.047249593
0.03876698 0.06009602 -0.0077798087 -0.011912311 0.01292964 0.06902141 -0.001859888 0.054308463
0.055923447 -0.017251229 -0.045346078 0.008965099 -0.0027183 -0.0060658264 0.009624332 -0.0012077086
-0.017137952 0.0024873768 -0.01737084 -0.035767574 -0.02661712 -0.016858533 -0.006048135 0.01032388
0.018675972 -0.020687446 0.004330887 0.013132121 0.30125833 0.08893156 0.018398412 0.027897988
-0.034011304 -0.045035284 0.015930582 0.012741093 0.012349514 -0.1755841 0.01009091 -0.026147198
-0.08936968 0.028779266 0.04830822 -0.033327468 0.013944549 0.0049562603 -0.007976319 -0.0101817595
0.010580361 -0.04805857 0.034448076 0.041999828 0.020662392 0.023331175 0.009088651 0.02550427
-0.03801753 0.028003741 -0.0039796145 -0.020256007 0.15331444 0.011010503 -0.05009628 -0.057999123
0.0591078 0.081795186 -0.012019821 -0.025064962 -0.011852077 0.14779738 -0.018108055 0.06696087
-0.030582448 0.00554048 0.0074599595 -0.011293419 0.004484368 0.0012990279 -0.0012937852 -0.0021791705
-0.00077001663 -0.00801211 0.016760157 0.021596693 0.009664468 0.015848288 0.0026022801 0.0061104726
-0.011425695 0.0046216734 -0.002458909 -0.0019889707 -0.06195409 -0.14969906 -0.012830277 -0.020540908
0.025486358 0.028512904 0.0021728028 -0.007237253 2.2923981e-05 -0.08024051 -0.0034502326 0.01685107
0.03942825 -0.006023116 -0.030805128 0.019889103 0.0063495724 -0.0036416748 0.005198023 0.006108309
0.0014088206 -0.0060277134 -0.003128403 -0.020766402 -0.016658284 -0.016289916 -0.006495892 0.010146341
0.014254621 -0.014767468 0.0038816147 0.011723288 0.0720269 -0.09469831 0.0073192795 0.027725842
-0.035411984 -0.040633205 -0.0022096531 0.012819665 0.0052736886 -0.03303978 0.0098239 -0.0018178184
00000000: 90ab a83c 8ad0 00bd a099 113d 4582 a43d
00000010: 34bc 13bd 4652 123c e122 c13b 430b 053d
00000020: 0c48 29bc e664 e33d b09f 1bbd 4451 3d3c
00000030: d2a3 293d e5b8 3bbc 3c12 49bc 7cec bcbd
00000040: bbff 453c 6974 77bb 7c04 45bc f1fc 85bc
00000050: efc2 963d 90f6 aebd c1f2 5c3d 3c96 753d
00000060: f42d 28bd 53ff 87bd f9d7 cd3b 80a6 a83c
00000070: 790c d8bc 8285 02bd ece0 95ba bbfa 7fbd
00000080: e8fc 063d 29f2 fcbb eaf4 793b 209c c23c
00000090: 696e 8cbc eb8e 2a3b d7d2 173b 4fed 213c
000000a0: 131b aa3a 1f1a 2b3d 4c72 81bc ca39 d4bb
000000b0: 14f7 b83b 6b9d 42bc cd21 7ebb 15a7 11bd
000000c0: 05b2 ed3b 8c0f 19bc 6c7d eaba 0888 963a
000000d0: 2803 883d 2714 3ebd d899 cf3c b43b 173c
000000e0: 3f45 54bb a06b 3bbc 16b5 82bb 280e 393c
000000f0: fb44 c8bb c1ca 893c 4449 7b3b 2208 e3bc
00000100: 8d20 02bd 5e78 133c 09af f13b 88f8 e6bc
00000110: 89a0 443c 01c8 fd39 988e bcbb 9030 05bc
00000120: aea1 d53b 0d5e a4bc 338a 973c 806a 333c
00000130: 60ec fdb9 84f6 5f3c 2909 9b3b 3827 743c
00000140: a9bc 36bc 494f 2e3c 764e 433a cc3e 9b3a
00000150: fb2f b63c 8dbe 9e3d 8c10 6dbc d8ec c7bc
00000160: c864 893c 3385 903c 9ea3 c6bb 6140 13bc
00000170: 2ad9 feb9 b461 a33d ddcf d5bb b51c 2b3c
00000180: f39e 17bd f53a 7c3c 3f4b 15bc 54be 67bd
00000190: 1db0 943c 4019 3bbb 39ed 92bb e128 aebc
000001a0: 734a 0f3c 4365 70bd 869e ce3c 4a39 213c
000001b0: 1299 4bbb 6698 513c 92a8 b43b 2511 6e3d
000001c0: 1397 a3bc d618 433c 2a91 953b fd53 ba3a
000001d0: d89c 9c3a be2d 5cbe 03b2 19bd ca88 41bd
000001e0: 20ca 1e3d 3f27 763d c4ed febb db2b 43bc
000001f0: d7d6 533c 195b 8d3d 7cc7 f3ba 8d72 5e3d
00000200: fc0f 653d 7352 8dbc cfbc 39bd 5ae2 123c
00000210: 8225 32bb d7c3 c6bb 60af 1d3c fa4b 9eba
00000220: e464 8cbc 4203 233b 4b4d 8ebc 0581 12bd
00000230: 250c dabc e81a 8abc 6f2f c6bb 7e25 293c
00000240: 5afe 983c b878 a9bc 1dea 8d3b 1c28 573c
00000250: 883e 9a3e c021 b63d 44b8 963c 528a e43c
00000260: 704f 0bbd eb76 38bd da80 823c 04c0 503c
00000270: 9e55 4a3c 51cc 33be 5854 253c a632 d6bc
00000280: 7307 b7bd 7fc2 eb3c d7de 453d 6282 08bd
00000290: ad77 643c 2068 a23b 1baf 02bc 65d1 26bc
000002a0: 4059 2d3c 10d9 44bd 6d19 0d3d 0308 2c3d
000002b0: 2d44 a93c 0521 bf3c 91e8 143c 55ee d03c
000002c0: 45b8 1bbd 1a68 e53c 6d67 82bb edef a5bc
000002d0: 76fe 1c3e 6665 343c c231 4dbd 7d90 6dbd
000002e0: 051b 723d 3c84 a73d c9ee 44bc 0955 cdbc
000002f0: 372f 42bc 3258 173e 5857 94bc c822 893d
00000300: 0b88 fabc ea8c b53b ad72 f43b 0808 39bc
00000310: 9bf1 923b 2544 aa3a 3a94 a9ba 6ad0 0ebb
00000320: f1da 49ba 3a45 03bc 994c 893c 8ceb b03c
00000330: b757 1e3c 45d4 813c 048b 2a3b 5c3a c83b
00000340: d732 3bbc 6871 973b a625 21bb 6459 02bb
00000350: 92c3 7dbd b64a 19be 1536 52bc 6845 a8bc
00000360: c4c8 d03c e593 e93c 9565 0e3b 7a26 edbb
00000370: e04c c037 2355 a4bd 4c1d 62bb 410b 8a3c
00000380: 847f 213d 8f5d c5bb 095b fcbc 79ee a23c
00000390: 1310 d03b 2aa9 6ebb 2d54 aa3b 3628 c83b
000003a0: 2da8 b83a 2084 c5bb e505 4dbb 4d1e aabc
000003b0: f476 88bc 6e72 85bc 7edb d4bb d73c 263c
000003c0: 378c 693c 40f3 71bc b062 7e3b 0913 403c
000003d0: d782 933d 30f1 c1bd 91d6 ef3b 4e21 e33c
000003e0: 280c 11bd 016f 26bd d4cf 10bb 9209 523c
000003f0: e8ce ac3b b854 07bd 6cf4 203c dd43 eeba

user_age_embedding.weight f4 [5, 4]
0.3508284 -0.1344911 -0.5578209 -0.2359918 0.50279003 -1.1471697 -0.364123 0.21794237
0.3036216 -0.13625899 0.07002435 -0.34901315 0.87220347 0.1955576 0.5899794 0.09325225
0.10607439 0.019786742 0.744387 -0.4097303
00000000: c89f b33e 09b8 09be 5acd 0ebf d6a7 71be
00000010: d9b6 003f 75d6 92bf 546e babe 492c 5f3e
00000020: 4a74 9b3e 7a87 0bbe ed68 8f3d dab1 b2be
00000030: ba48 5f3f 4040 483e e408 173f 09fb be3d
00000040: 883d d93d ce17 a23c 2590 3e3f 2bc8 d1be

user_gender_embedding.weight f4 [2, 2]
0.1565239 0.26536018 -0.95993215 0.26295367
00000000: cd47 203e 4add 873e 1dbe 75bf dda1 863e

user_occupation_embedding.weight f4 [21, 8]
-0.07086758 -0.07954846 -0.057398804 0.02500476 -0.01699598 -0.04451584 0.03499465 -0.041299682
-0.016829407 -0.11079364 0.047418337 0.04008463 -0.2328414 -0.061966263 0.018877815 -0.004111122
0.06847222 0.082207546 0.07882044 -0.05274615 0.067222945 0.07624574 -0.08548527 -0.025660962
-0.04059173 -0.027799996 -0.066908635 0.004127492 -0.044478394 -0.08313271 0.030145178 -0.045664854
0.09866461 -0.06817927 -0.06110222 0.011621494 0.08164066 -0.04440242 0.11199138 0.03807734
-0.07009695 -0.08115999 0.03380343 -0.041891262 -0.11400724 -0.27569416 0.1727507 -0.04688628
0.0067496304 0.029756326 -0.0052419933 -0.026844956 0.033844847 0.027694136 -0.05009014 -0.004282262
0.08605963 -0.020074919 -0.0013474348 0.009475425 0.021173323 0.10621453 0.008698138 0.12642464
0.014166419 0.0050985767 0.035605285 -0.0009668282 0.017457595 -0.0037880645 -0.010055603 0.006881762
0.030730126 0.084253885 -0.0007933789 -0.07434852 0.011581606 -0.030433027 0.019486325 -0.008682063
0.0113525605 0.00996705 -0.104866534 -0.06559938 0.028683724 -0.06592264 0.011671972 -0.028631983
0.09937624 -0.0041672885 0.18093716 0.047972873 0.13839382 0.11645196 -0.14198717 0.037726842
-0.016830342 0.01764651 0.03098336 0.02495241 -0.04679678 -0.0010653497 -0.023963436 0.0036973427
0.048263416 -0.021378694 0.12461538 0.02351977 0.07824202 0.08238979 -0.066801794 0.052251846
0.02519732 0.022675436 -0.056346975 -0.012381921 -0.05297565 -0.054615576 0.057430055 -0.04583739
0.053535778 0.0390162 -0.006198786 -0.024644224 0.0287312 0.03305921 -0.01627625 0.0006371015
-0.071733825 -0.07662292 -0.027923927 0.053548563 -0.051283363 -0.09196374 0.03007576 -0.033733755
-0.05557548 0.024192173 -0.11101417 -0.05267242 0.007879128 0.05869132 -0.019346436 -0.034882937
-0.028460318 -0.0039523006 -0.009761695 -0.013002943 0.004654493 0.014009566 -0.012990166 -0.037789706
0.077186294 0.06588318 -0.05171688 -0.03461082 -0.035100274 -0.039467655 0.08506747 0.034226935
0.002413811 -0.011336303 0.0021198355 0.010524963 0.0067519182 0.030238992 -0.01218709 0.0289865
00000000: 0623 91bd 4eea a2bd 021b 6bbd c8d6 cc3c
00000010: 273b 8bbc 3e56 36bd 8d56 0f3d db29 29bd
00000020: d3dd 89bc c7e7 e2bd bb39 423d c82f 243d
00000030: fa6d 6ebe 56d0 7dbd a6a5 9a3c 97b6 86bb
00000040: 2a3b 8c3d 6e5c a83d 9c6c a13d 590c 58bd
00000050: 2fac 893d ba26 9c3d e712 afbd f036 d2bc
00000060: 8443 26bd d1bc e3bc 6507 89bd ea3f 873b
00000070: fa2e 36bd 7b41 aabd 05f3 f63c 120b 3bbd
00000080: ac10 ca3d 93a1 8bbd 5246 7abd 1468 3e3c
00000090: 3833 a73d 50df 35bd bd5b e53d fcf6 1b3d
000000a0: fd8e 8fbd 3537 a6bd 7775 0a3d 2c96 2bbd
000000b0: a17c e9bd c927 8dbe 8fe5 303e d40b 40bd
000000c0: 012c dd3b 8ac3 f33c 07c5 abbb f4e9 dbbc
000000d0: e5a0 0a3d d0de e23c 522b 4dbd 3852 8cbb
000000e0: 0840 b03d 2874 a4bc 699c b0ba d03e 1b3c
000000f0: ad73 ad3c 0187 d93d a382 0e3c 7675 013e
00000100: 451a 683c f611 a73b d9d6 113d be72 7dba
00000110: 3b03 8f3c 2d41 78bb 42c0 24bc 6780 e13b
00000120: bfbd fb3c 4d8d ac3d c2fa 4fba 0944 98bd
00000130: c7c0 3d3c af4e f9bc c9a1 9f3c 363f 0ebc
00000140: 1700 3a3c d64c 233c 44c4 d6bd f858 86bd
00000150: 21fa ea3c 7302 87bd cd3b 3f3c 9f8d eabc
00000160: c585 cb3d c08d 88bb 9747 393e 347f 443d
00000170: 1cb7 0d3e 5d7e ee3d 1665 11be 7687 1a3d
00000180: c9df 89bc 6a8f 903c d1d0 fd3c ff68 cc3c
00000190: fbad 3fbd 34a3 8bba f84e c4bc 1e4f 723b
000001a0: dcaf 453d 5f22 afbc 5936 ff3d 88ac c03c
000001b0: 5a3d a03d fabb a83d 61cf 88bd 0806 563d
000001c0: 9c6a ce3c d6c1 b93c 16cc 66bd 8add 4abc
000001d0: fffc 58bd 95b4 5fbd c73b 6b3d fdbf 3bbd
000001e0: 5548 5b3d 73cf 1f3d 301f cbbb afe2 c9bc
000001f0: b25d eb3c 1869 073d c555 85bc 2803 273a
00000200: 2fe9 92bd 7aec 9cbd b8c0 e4bc bd55 5b3d
00000210: 810e 52bd 7c57 bcbd 7161 f63c 682c 0abd
00000220: 1da3 63bd aa2e c63c 665b e3bd 09bf 57bd
00000230: 7517 013c 4f66 703d 6b7c 9ebc 69e1 0ebd
00000240: 9d25 e9bc 4d82 81bb 84ef 1fbc 4c0a 55bc
00000250: b884 983b 6188 653c b5d4 54bc 61c9 1abd
00000260: d913 9e3d c3ed 863d 14d5 53bd 13c4 0dbd
00000270: 4ec5 0fbd d6a8 21bd db37 ae3d 8b31 0c3d
00000280: 0731 1e3b e7bb 39bc f0ec 0a3b e570 2c3c
00000290: 323f dd3b c3b7 f73c 5cac 47bc 1975 ed3c

user_location_embedding.weight f4 [760, 18]
0.02155596 -0.0054528113 -0.005587436 -0.019442827 -0.014333772 0.005708264 -0.007986607 -0.003964726
0.008484132 -0.040069308 0.0067300703 0.016082574 -0.030896565 0.025690213 0.018704318 -0.010215161
-0.018453933 0.018714953 0.0016058536 -0.019991145 -0.005037903 -0.008556446 -0.0004973954 0.01499024
0.010800891 -0.0023514954 -0.024256377 0.0067076944 -0.008689253 0.0021231582 0.012242454 0.007882215
-0.00028049434 0.0036595426 0.018957827 -0.0146123925 -0.005383 0.0062614083 0.017096972 0.009898869
0.0032409683 -0.0133798625 -0.009689088 0.010314496 0.011081268 0.0043257535 -0.0050815116 0.0018138023
0.003428532 -0.02006749 -0.004240292 0.002201779 0.012922763 -0.011580026 -0.025566947 -0.011602621
0.005343316 0.0019050281 0.0037038848 -0.0029896235 -0.00025494734 -0.0051809577 -0.010810605 0.009225211
8.583427e-05 -0.008846491 0.012050339 -0.021128254 -0.00038031882 0.003918745 0.018433625 -0.020856662
0.017764594 -0.0074993656 -0.010962327 -0.040351756 -0.0047463253 0.017241778 -0.010047586 -0.0047474187
-0.0074571604 -0.0074929707 -0.005523283 -0.0023991936 -0.006024094 0.008083905 0.007237665 -0.0049747303
-0.020428004 -0.00045701966 -0.0029908405 -0.005014059 -0.0032855975 -0.0045409687 0.007037712 0.009379281
0.0032175586 0.003675115 -0.0037619146 0.014010625 -0.005013625 -0.002744575 0.010703861 0.0030232684
-0.009835475 0.0077900635 0.009889494 -0.00551763 0.025240969 -0.00039170915 -0.005334812 -0.0037295537
0.0034092735 -0.008570722 -0.012008006 0.021538371 0.013387763 0.024891596 -0.0033195242 0.00022066035
0.015020313 0.0043605533 -0.0043403716 0.0073159463 0.006549098 -0.00741145 -0.0049102656 0.015004612
-0.002685765 0.014534229 -0.0048091104 -0.0037857932 0.011199785 -0.007910823 -0.0024921664 -0.01653632
0.011568488 -0.0057675825 0.00023774861 -0.011691116 0.007982095 -0.013002038 -0.0025673662 -0.00127393
0.007998074 0.009024088 -0.00016290246 -0.0015398683 -0.0033912014 -0.0029459083 -0.0009815211 0.002503748
0.012246151 -0.00474383 -0.0017847632 0.009185526 -0.007355538 0.0033657325 -0.0023240978 0.0023428197
0.00027769158 0.009680285 -0.0020066171 0.01132845 -0.011280231 0.0108688455 -0.00082572695 -0.00011487538
0.0102810655 -0.010678271 0.0058183535 -0.0010471959 0.01013255 -0.0076689436 -0.006223906 0.008583844
0.007517621 -0.016513454 -0.0019326103 0.018770467 0.0018149954 0.008822396 -0.0010766289 0.0014527552
0.0027460959 -0.002019939 0.0127363615 -0.003639661 0.007613038 0.005512967 0.00060656905 0.0011811964
-0.0022488632 -0.0028566034 0.0016056355 -0.0028501013 -4.3741427e-05 -0.0034756018 0.0021734391 -0.0041144234
0.0029936233 0.007926431 0.0021128263 -0.007888111 0.000273032 0.00084504974 -0.003730821 -0.00039067515
0.0005174068 0.0034698916 0.007456607 -0.00931933 -0.008598447 0.005496613 0.0038324457 -0.002959533
-0.017030472 -0.045429833 0.023536023 -0.067324005 0.0076122982 0.02576595 -0.018698826 0.0038302357
-0.049252085 0.013711665 -0.041075114 0.015902888 0.024793105 -0.009193651 -0.012349807 0.025737114
0.015666436 -0.046081662 0.003369499 0.011275463 0.0065885927 0.019775823 -0.0021040814 -0.027285755
0.00549713 -0.006089316 0.013436225 -5.9325685e-06 0.00834082 0.0016684746 -0.012143749 -0.015295298
0.018523939 -0.011570272 0.001484165 0.005650891 -0.01864778 -0.014483971 0.0012593537 -0.032773368
00000000: 2096 b03c 7fad b2bb cf16 b7bb 9046 9fbc
00000010: 32d8 6abc 640c bb3b 42da 02bc 88ea 81bb
00000020: 0701 0b3c b71f 24bd ec87 dc3b 9abf 833c
00000030: cb1a fdbc 4874 d23c cc39 993c 7e5d 27bc
00000040: b42c 97bc 1a50 993c 817b d23a 78c4 a3bc
00000050: fe14 a5bb 5630 0cbc a463 02ba a099 753c
00000060: 38f6 303c 8c1b 1abb 4fb5 c6bc 38cc db3b
00000070: 5e5d 0ebc af24 0b3b 9394 483c 6824 013c
00000080: 500f 93b9 f0d4 6f3b 724d 9b3c d168 6fbc
00000090: e063 b0bb 802c cd3b f30e 8c3c de2e 223c
000000a0: 6d66 543b 3637 5bbc fbbe 1ebc 22fe 283c
000000b0: 358e 353c 0dbf 8d3b cf82 a6bb 1bbd ed3a
000000c0: 39b1 603b 9464 a4bc 26f2 8abb b94b 103b
000000d0: ffb9 533c 26ba 3dbc c671 d1bc eb18 3ebc
000000e0: fc16 af3b 23b2 f93a e0bc 723b 8fed 43bb
000000f0: 74aa 85b9 06c5 a9bb f71e 31bc 5725 173c
00000100: ec01 b438 dff0 10bc c96e 453c 2915 adbc
00000110: 8765 c7b9 d168 803b 1d02 973c 97db aabc
00000120: 0e87 913c 3dbd f5bb 559b 33bc e247 25bd
00000130: 1087 9bbb a13e 8d3c a19e 24bc 3c90 9bbb
00000140: 325b f4bb 9887 f5bb a8fc b4bb ca3b 1dbb
00000150: c365 c5bb 5b72 043c ef29 ed3b 1003 a3bb
00000160: a158 a7bc 249c efb9 fa01 44bb fa4c a4bb
00000170: 2e53 57bb 68cc 94bb 9b9c e63b 8eab 193c
00000180: addd 523b 33da 703b 748a 76bb d28c 653c
00000190: 5649 a4bb 54de 33bb 3f5f 2f3c 0722 463b
000001a0: f924 21bc ca43 ff3b 8b07 223c 3ccd b4bb
000001b0: 26c6 ce3c 505e cdb9 a6cf aebb 876b 74bb
000001c0: 1e6e 5f3b 376c 0cbc 3abd 44bc 3d71 b03c
000001d0: 5958 5b3c 76e9 cb3c 608c 59bb 1061 6739
000001e0: c217 763c f9e2 8e3b ad39 8ebb 9bba ef3b
000001f0: d199 d63b c0db f2bb 4be6 a0bb e7d5 753c
00000200: a903 30bb fa20 6e3c be95 9dbb 121b 78bb
00000210: 4e7f 373c 669c 01bc 9d53 23bb 2d77 87bc
00000220: c189 3d3c fdfd bcbb 284c 7939 188c 3fbc
00000230: 55c7 023c 8006 55bc 4241 28bb fff9 a6ba
00000240: 5b0a 033c c5d9 133c ccd0 2ab9 68d5 c9ba
00000250: eb3e 5ebb 2410 41bb 62a6 80ba ec15 243b
00000260: 15a4 483c 2172 9bbb b7ee e9ba e37e 163c
00000270: ba06 f1bb 9f93 5c3b e44f 18bb fe89 193b
00000280: 2297 9139 0f9a 1e3c 7381 03bb f79a 393c
00000290: b8d0 38bc 3e13 323c 9975 58ba 40e9 f0b8
000002a0: ea71 283c eaf3 2ebc e3a7 be3b 1042 89ba
000002b0: ff02 263c c34b fbbb e8f1 cbbb 40a3 0c3c
000002c0: 6056 f63b 3947 87bc a44f fdba 86c4 993c
000002d0: 24e5 ed3a d08b 103c ac1d 8dba 606a be3a
000002e0: d8f7 333b f460 04bb 2cac 503c 6187 6ebb
000002f0: cb76 f93b 1ea6 b43b 2902 1f3a 60d2 9a3a
00000300: aa61 13bb da35 3bbb 3074 d23a c4c8 3abb
00000310: 0077 37b8 ecc6 63bb 4270 0e3b 49d2 86bb
00000320: aa30 443b dcdd 013c 5877 0a3b 233d 01bc
00000330: bc25 8f39 5486 5d3a ca80 74bb 88d3 ccb9
00000340: 95a2 073a 1f67 633b 8e56 f43b 1ab0 18bc
00000350: 80e0 0cbc ef1c b43b c529 7b3b b9f4 41bb
00000360: 7d83 8bbc a214 3abd 9ece c03c 2be1 89bd
00000370: 9670 f93b 1d13 d33c 482e 99bc b104 7b3b
00000380: 8ebc 49bd e4a6 603c 613e 28bd c646 823c
00000390: e91a cb3c f8a0 16bc d856 4abc a4d6 d23c
000003a0: e656 803c 20c0 3cbd d0d2 5c3b b8bc 383c
000003b0: 1fe5 d73b e800 a23c a1e4 09bb 6086 dfbc
000003c0: 4521 b43b e388 c7bb 9d23 5c3c 6010 c7b6
000003d0: efa7 083c b8b0 da3a 93f6 46bc 2199 7abc
000003e0: 84bf 973c 3d91 3dbc 5088 c23a 1c2b b93b
000003f0: 3bc3 98bc 2d4e 6dbc e610 a53a 5e3d 06bd

item_id_embedding.weight f4 [1600, 32]
0.019184023 -0.015083503 0.003952729 0.027655294 -0.01250024 -0.001567016 0.0065860795 0.013214491
-0.0037082706 0.033789255 -0.014200724 -0.0024321508 0.00858661 -0.002715651 -0.0037640242 -0.034443133
0.006172157 -0.0036200522 -0.0047905925 -0.0021654633 -0.07315937 -0.074331515 0.020321345 0.024867801
-0.015329524 -0.03129352 -0.0021290877 0.008941107 -0.004040003 -0.027329354 -0.0027980995 -0.02814215
-0.0065251044 0.00085876946 0.013831707 0.0062594796 -0.0040628295 0.0032109984 -0.00019112571 0.0029802178
-0.0038010154 0.013605029 -0.00251505 0.0036848816 0.008256325 0.0022455407 -0.0022799023 -0.012678471
0.0015433589 0.0020310846 -0.0021660645 -0.0057420363 -0.05615912 -0.011545691 0.0029317483 0.0057711797
-0.00018676138 -0.0036333043 0.005863241 -0.0016014947 -0.0071680346 -0.080817044 -0.0025513729 -0.004437703
0.022167891 -0.0026384252 -0.027725799 -0.0033944757 0.00031362748 -0.002135629 0.00126 -0.0010848508
0.006286107 0.003544493 -0.0040260544 -0.014275194 -0.015426897 -0.007813129 -0.001432089 0.008667157
0.012423663 -0.008483391 0.0039101737 0.009709934 -0.08674553 -0.005930152 0.00922567 0.004471562
-0.0140933 -0.016941125 -0.0066664093 0.0049834577 0.009793477 0.083337136 0.0074738157 -0.014277234
0.030168088 -0.006615325 -0.022827735 0.015696129 -0.001929255 -0.003526399 0.0011179621 0.00082764216
-0.0038980246 0.004335537 -0.01612983 -0.020635711 -0.019139618 -0.015323692 -0.003672688 0.0028075834
0.012907503 -0.01322712 0.0056751585 0.0109387 0.028941737 -0.005085727 0.01443353 0.01843724
-0.022560865 -0.03453232 0.005268665 0.008231781 0.008929397 -0.06586091 0.010931458 -0.021468164
0.013318345 0.001760105 -0.024938555 -0.011596967 0.0077537424 -0.004252221 -0.002296216 -0.0061397897
0.0047231973 -0.019334257 -0.0012133986 -0.013074598 -0.017513543 -0.0014951173 -0.0017240184 0.022822887
0.0046816114 -0.0065892898 0.005940388 0.010455868 -0.13541332 -0.0065049827 -0.0037674722 -0.004343753
-0.0027348842 -0.00030956324 0.0025495186 9.712204e-05 0.011418981 0.027413897 0.0072172238 0.0042565023
-0.0071011987 0.006340804 -0.0032789328 -0.006068899 0.0043935226 0.0007718586 -0.000833473 -0.0014948756
0.0041784514 -0.006484679 0.004359952 0.0012141843 -0.0006883673 0.004657474 -0.0006062513 0.011815769
-0.0010634577 0.0030925553 0.00078700454 -0.0007935161 0.0014959895 -0.01986957 -0.011799314 -0.0039842688
0.0055620484 0.007676915 -0.0050438987 -0.005185305 5.3834512e-05 0.07246613 -0.0013580801 0.0055847703
-0.05368555 0.02701282 -0.0025397516 -0.07412393 0.032570723 -0.006163968 -0.005367547 -0.030448366
0.0025330456 -0.10483093 0.03594915 0.0010084556 -0.021202795 0.015590275 0.0074102366 0.09034066
-0.03407686 0.013988021 0.005686865 0.0023884608 0.07331834 -0.05854992 -0.054934945 -0.0710815
0.052912116 0.0703986 -0.0006541286 -0.022916202 0.014489558 -0.03036068 -0.007206049 0.075379394
0.07148475 0.0013080544 -0.1226106 -0.04312572 0.027797485 -0.019004473 0.0024075483 -0.031337567
1.1181284e-05 -0.09160426 0.0026497087 -0.061628383 -0.08499447 -0.024482863 0.004149783 0.1045711
0.01425956 -0.023335405 0.021292523 0.042940017 -0.03558657 -0.055825315 -0.013932326 -0.0055728443
-0.022048967 -0.015946502 2.8973584e-05 0.0038917311 0.044452827 -0.04073286 0.023811705 0.0034543402
00000000: d027 9d3c cc20 77bc e585 813b 5b8d e23c
00000010: cecd 4cbc 5564 cdba 0ad0 d73b 9881 583c
00000020: 7506 73bb 9a66 0a3d 27aa 68bc b864 1fbb
00000030: daae 0c3c 10f9 31bb d9ad 76bb 3e14 0dbd
00000040: ce3f ca3b 663e 6dbb 67fa 9cbb 72ea 0dbb
00000050: 94d4 95bd 1f3b 98bd f378 a63c 8fb7 cb3c
00000060: af28 7bbc a22d 00bd 2a88 0bbb b97d 123c
00000070: 0062 84bb cfe1 dfbc 5260 37bb 5e8a e6bc
00000080: 8bd0 d5bb 0b1f 613a 629e 623c 521c cd3b
00000090: 7c21 85bb 9d6f 523b eb68 48b9 c24f 433b
000000a0: 751a 79bb a1e7 5e3c 89d3 24bb 0e7e 713b
000000b0: 8945 073c ec29 133b 6a6a 15bb 5db9 4fbc
000000c0: 884a ca3a f21b 053b 88f4 0dbb b127 bcbb
000000d0: 1b07 66bd 232a 3dbc 9322 403b 2a1c bd3b
000000e0: 60d5 43b9 bb1c 6ebb 6e20 c03b 3fe9 d1ba
000000f0: d5e1 eabb 6883 a5bd ef34 27bb 276a 91bb
00000100: 7099 b53c 6ee9 2cbb 3721 e3bc da75 5ebb
00000110: 5e6e a439 e9f5 0bbb 9626 a53a 8d31 8eba
00000120: b0fb cd3b ba4a 683b feec 83bb 81e2 69bc
00000130: 19c1 7cbc a302 00bc efb4 bbba b100 0e3c
00000140: 9f8c 4b3c ecfd 0abc ea20 803b 6a16 1f3c
00000150: a4a7 b1bd b851 c2bb 4427 173c 2e86 923b
00000160: 96e7 66bc 1dc8 8abc e571 dabb 464c a33b
00000170: d274 203c a9ac aa3d e9e6 f43b 0feb 69bc
00000180: 1123 f73c 5ec5 d8bb 3b01 bbbc 2b95 803c
00000190: 0edf fcba 281b 67bb 9588 923a 20f6 583a
000001a0: 0076 7fbb 1f11 8e3b b522 84bc 390c a9bc
000001b0: b0ca 9cbc 3910 7bbc 7bb1 70bb 6fff 373b
000001c0: fe79 533c 90b6 58bc aef6 b93b 3c38 333c
000001d0: 3917 ed3c 2ca6 a6bb 9d7a 6c3c b209 973c
000001e0: 90d1 b8bc c371 0dbd c4a4 ac3b 98de 063c
000001f0: 9b4c 123c 16e2 86bd dc19 333c 01de afbc
00000200: 3035 5a3c 53b3 e63a f14b ccbc 3401 3ebc
00000210: 1b13 fe3b 3756 8bbb 1d7c 16bb 4a30 c9bb
00000220: 0dc5 9a3b e062 9ebc e70a 9fba d736 56bc
00000230: 9078 8fbc d0f7 c3ba 75f8 e1ba 10f7 ba3c
00000240: 3468 993b f8ea d7bb 96a7 c23b 174f 2b3c
00000250: caa9 0abe c027 d5bb b2e7 76bb 0b56 8ebb
00000260: be3b 33bb e04c a2b9 d315 273b 00ae cb38
00000270: ad16 3b3c 1c93 e03c 767e ec3b 217a 8b3b
00000280: 2cb1 e8bb 85c6 cf3b 5de3 56bb 9ddd c6bb
00000290: 8af7 8f3b 8e56 4a3a 6d7d 5aba b4ef c3ba
000002a0: 64eb 883b 6e7d d4bb eedd 8e3b 4425 9f3a
000002b0: 8c73 34ba b99d 983b d6ec 1eba ed96 413c
000002c0: b863 8bba 78ac 4a3b fb4e 4e3a f703 50ba
000002d0: 1415 c43a 82c5 a2bc e951 41bc 788e 82bb
000002e0: d841 b63b a18e fb3b 4a47 a5bb 7ee9 a9bb
000002f0: 5ecc 6138 1f69 943d 9b01 b2ba 7300 b73b
00000300: 61e5 5bbd fd49 dd3c f671 26bb 49ce 97bd
00000310: e168 053d 1cfb c9bb 3fe2 afbb da6e f9bc
00000320: 7401 263b 99b1 d6bd 6a3f 133d 282e 843a
00000330: 7cb1 adbc 5a6e 7f3c 92d1 f23b 8604 b93d
00000340: 2d94 0bbd 032e 653c e258 ba3b b987 1c3b
00000350: ed27 963d 0ad2 6fbd 7703 61bd 2d93 91bd
00000360: 60ba 583d 242d 903d d479 2bba c2ba bbbc
00000370: 9c65 6d3c f6b6 f8bc b820 ecbb 8360 9a3d
00000380: 9966 923d 0673 ab3a 441b fbbd 98a4 30bd
00000390: 8db7 e33c 45af 9bbc f5c7 1d3b d25b 00bd
000003a0: 4097 3b37 049b bbbd bca6 2d3b 0b6e 7cbd
000003b0: 9511 aebd 4990 c8bc e7fa 873b 5f29 d63d
000003c0: eea0 693c e429 bfbc a86d ae3c dfe1 2f3d
000003d0: 39c3 11bd 16a9 64bd 6944 64bc 689c b6bb
000003e0: 09a0 b4bc 3da2 82bc 4c0c f337 6a0c 7f3b
000003f0: 2b14 363d 80d7 26bd c410 c33c 3662 623b

item_type_embedding.weight f4 [5, 8]
1.2287968 -0.6702232 1.932846 0.1659847 -0.024301456 0.42252764 -0.13658242 0.051734667
0.92453927 -0.6166227 1.3745625 -0.06790811 -0.7827432 -0.9409935 0.47720224 0.11822472
0.18700996 -0.27568182 0.1859551 -0.30143765 -0.3707172 -0.13135007 -0.1213558 -0.2649938
0.27191556 -0.006231562 0.302935 -0.115603775 0.14232865 0.0135271875 -0.065402664 -0.1442863
0.0038024425 0.03303989 0.035383772 -0.1236779 -0.013926944 0.01331508 0.025140187 -0.054763272
00000000: 3749 9d3f bf93 2bbf 7f67 f73f e5f7 293e
00000010: d913 c7bc 8b55 d83e 43dc 0bbe bbe7 533d
00000020: 9bae 6c3f fcda 1dbf aaf1 af3f 6813 8bbd
00000030: dc61 48bf f3e4 70bf da53 f43e cd1f f23d
00000040: 8a7f 3f3e 2b26 8dbe 046b 3e3e 0956 9abe
00000050: a5ce bdbe a280 06be 6489 f8bd 44ad 87be
00000060: 8438 8b3e 2132 ccbb 4c1a 9b3e acc1 ecbd
00000070: 9abe 113e 23a1 5d3c d5f1 85bd cabf 13be
00000080: 6632 793b d654 073d 93ee 103d d74a fdbd
00000090: d62d 64bc 7e27 5a3c cbf2 cd3c 744f 60bd

item_temperature_embedding.weight f4 [7, 8]
0.015335054 0.007599359 -0.016688459 -0.009618371 -0.006436754 -0.0019945018 -0.010874369 -0.006969969
0.07871472 0.1519058 -0.034500074 0.060168058 -0.0670213 0.041770544 -0.11561868 -0.18489444
-0.11827358 0.42313075 0.3006535 -0.09605022 0.0044165226 -0.06488873 -0.28390178 -0.11080194
-0.12933919 0.015959961 -0.13344294 0.022355147 -0.08789168 -0.005999948 -0.14792436 0.5507731
-0.12813263 -0.115704805 0.17755681 -0.041389562 -0.0021465556 0.22866309 0.21866791 0.07030154
0.086770795 -0.13272263 -0.17513683 -0.013648265 0.0013843982 -0.08974533 0.51834524 0.7058867
-0.01897543 -0.0137062585 -0.16170914 0.029617032 -0.032640632 0.0066462993 0.037485 0.011064216
00000000: e13f 7b3c 0b04 f93b 3cb6 88bc 5f96 1dbc
00000010: 68eb d2bb 30b6 02bb 692a 32bc 5664 e4bb
00000020: 2f35 a13d 328d 1b3e f34f 0dbd c872 763d
00000030: 7742 89bd 9717 2b3d 7dc9 ecbd f854 3dbe
00000040: 6b39 f2bd 98a4 d83e 41ef 993e fab5 c4bd
00000050: 7ab8 903b 62e4 84bd 935b 91be 21ec e2bd
00000060: 7e71 04be 77be 823c 44a5 08be 2422 b73c
00000070: 8e00 b4bd 369b c4bb 7c79 17be 77ff 0c3f
00000080: 3335 03be a4f6 ecbd 74d1 353e 1a88 29bd
00000090: 3aad 0cbb a826 6a3e 7bea 5f3e 41fa 8f3d
000000a0: e3b4 b13d 71e8 07be 1257 33be f99c 5fbc
000000b0: b274 b53a 66cc b7bd 46b2 043f feb4 343f
000000c0: 5c72 9bbc 3790 60bc 1597 25be 6b9f f23c
000000d0: 2fb2 05bd 33c9 d93b df89 193d af46 353c

item_humidity_embedding.weight f4 [6, 8]
-0.16229491 0.05302075 0.010243079 0.017136656 0.0013030197 -0.03552158 -0.062676005 -0.0016148036
-0.5519315 -0.16666748 0.0065914546 -0.54750293 0.19845986 0.031847335 0.030736016 0.017738188
-0.27059862 0.070688725 -0.005468979 0.04674551 0.07262005 -0.011942442 0.12382687 -0.06824772
0.63665986 0.5267471 -0.034813643 -0.030394036 -0.13400215 -0.038194228 0.06545215 -0.041294202
-1.41355 0.51553047 -0.0015064485 -0.30472407 0.47507003 -0.22624756 -0.045995336 -0.06849568
-0.03541687 0.4602421 0.021189159 -0.14871086 -0.11171487 0.046691697 0.12979247 0.12198135
00000000: a330 26be 492c 593d 96d2 273c 2c62 8c3c
00000010: 16ca aa3a 147f 11bd 475c 80bd d1a7 d3ba
00000020: 624b 0dbf e1aa 2abe 21fd d73b 2729 0cbf
00000030: 1039 4b3e 5a72 023d 19ca fb3c ad4f 913c
00000040: e78b 8abe 40c5 903d 1f35 b3bb 3878 3f3d
00000050: d2b9 943d 3baa 43bc f198 fd3d 76c5 8bbd
00000060: 24fc 223f e6d8 063f c098 0ebd eafc f8bc
00000070: dc37 09be 8d71 1cbd c70b 863d 1c24 29bd
00000080: 35ef b4bf cef9 033f 0674 c5ba cb04 9cbe
00000090: 613c f33e 71ad 67be 9b65 3cbd 7747 8cbd
000000a0: 4811 11bd daa4 eb3e e394 ad3c a947 18be
000000b0: c4ca e4bd cb3f 3f3d 51e8 043e 5cd1 f93d

item_windSpeed_embedding.weight f4 [5, 8]
0.20729922 0.18685742 -0.385073 0.10911449 0.14780356 -0.0014404835 -0.07287027 0.64302105
0.15839212 -0.01857031 -0.18621868 -0.4195126 -0.030475212 0.17390251 0.01283208 -0.27508733
-0.023278283 -0.18361804 0.29978576 0.1187334 -0.028664762 -0.78525937 -0.033321775 1.3255848
0.013203579 -0.07693566 0.07176125 0.009446355 -0.020478282 0.037440676 0.030330569 -0.22586599
-0.0035858352 0.1914617 0.03727418 -0.018614974 -0.016462835 0.031636067 0.0639877 -0.28066126
00000000: 3f46 543e 8d57 3f3e 4a28 c5be 6b77 df3d
00000010: d159 173e 9bce bcba 023d 95bd 079d 243f
00000020: 8b31 223e c320 98bc 1cb0 3ebe 5bca d6be
00000030: 27a7 f9bc 8013 323e a53d 523c 3fd8 8cbe
00000040: 19b2 bebc 5e06 3cbe 857d 993e 7f2a f33d
00000050: 5dd2 eabc c206 49bf 6a7c 08bd c3ac a93f
00000060: d353 583c 7190 9dbd 90f7 923d e2c4 1a3c
00000070: 12c2 a7bc 655b 193d d077 f83c 6a49 67be
00000080: 5500 6bbb 890e 443e d0ac 183d 6e7e 98bc
00000090: 11dd 86bc d294 013d fc0b 833d d5b2 8fbe

GCN_Layers.0.W1.weight f4 [64, 64]
-0.0044 -6.3130865e-05 -0.0104500875 -0.008374195 0.000543495 -0.00030977794 -0.0009849432 0.0045035454
9.49288e-05 0.013487764 -2.5200443e-05 0.0035106346 -8.841406e-05 0.006445739 -0.020644262 -1.22453e-07
-0.0015596721 -0.009659834 0.0047680344 -0.0018941963 0.0012122039 -0.0003515311 -0.00035133853 0.012415098
0.004577277 -0.004578423 -0.00016311614 -0.0010470581 -0.025611294 0.0008286787 -0.015104113 4.79399e-05
-0.11592121 -0.062038533 -0.09501374 0.022559553 -0.019910173 0.0013786913 -0.10230247 -3.356065e-05
-0.00061510206 0.005809711 -0.017696138 0.03358876 0.011278314 0.0001668624 -0.035235923 -0.042150233
-0.044209413 -0.07630726 -0.0002283814 0.049684666 -0.08261939 0.042922974 -0.05636143 0.05689782
0.04929949 -0.008138084 0.0026337479 0.026403055 -0.08870364 -0.017487943 0.04649213 -0.020436201
0.0005121736 -7.076987e-06 0.00014304802 -0.0024242264 0.00017240232 7.180849e-06 0.004570813 0.0048734173
0.00019494942 0.0009127263 -5.3525167e-05 3.8380636e-05 -7.731395e-05 -0.00019897679 0.0028521994 -0.002424263
0.0024720845 -0.0074385335 0.00067962916 1.1851617e-05 0.0022832497 0.00016258679 0.006767431 0.00012609291
-0.00014722417 0.0003824655 -0.011820196 -0.0018838047 -1.7226306e-05 0.0022290633 -0.00012946557 -7.383482e-05
0.007832376 0.12972562 -0.011084245 0.013618943 0.0059868833 0.00044894256 -0.11394321 0.010457561
0.059165522 0.01347632 0.00040119325 -0.015489464 -8.140666e-05 0.00044353202 -0.020984087 -0.012286839
0.013853008 0.010110714 0.00075662776 -0.05410329 -0.040482853 -0.024091471 -0.08387144 0.06449439
0.02907187 -0.0077668456 0.0015570276 0.016188331 0.026227979 -0.03162528 0.081759244 -0.07237699
-1.8154853e-05 0.0059744497 6.5317465e-05 7.969344e-05 -0.0071654604 0.00011599853 -3.6559366e-05 -0.0047499742
0.0015575204 8.427031e-05 -7.823675e-05 -0.0009170711 0.010303011 0.0016678675 0.00770687 5.215554e-06
0.00017354482 -8.2860527e-07 0.00010598774 -0.003073053 0.00083381153 -0.00032253846 -0.00012189988 -0.0003095149
7.3450305e-05 0.0010236584 -2.8946567e-06 -0.0013876669 -3.374332e-05 0.00073258206 6.9469706e-08 0.0047054314
0.04785617 0.05880952 -0.12900573 0.014503411 0.0012260756 0.00021201471 -0.04993062 -0.014001899
0.0072581843 -0.008582615 0.009113703 0.1258852 -0.0017945578 -0.006968783 0.04361876 -0.06777538
0.03677431 0.0257568 -0.0016745981 0.0068987096 -0.034881853 -0.014516877 0.03327515 0.039401434
-0.074234724 -0.0067529418 0.00051768834 0.014106158 0.0251784 -0.028542643 0.08203105 0.028669585
0.00017910473 0.0027230626 0.0011402463 1.3035406e-05 -0.0010159217 -0.005726845 -0.00070868275 -0.002570975
-0.000118930206 0.003107794 -0.015140175 0.00010094504 0.028306095 -0.00028584333 -0.0043801623 0.007917575
-0.002403369 -0.0006355187 0.0016283344 -0.0051411595 -0.012167933 -0.0013154828 0.003214473 9.573249e-05
-0.00015611268 -0.000106069536 2.4229097e-05 0.0054959306 0.015308681 -0.00037332255 -0.022457179 0.012281516
0.035942405 0.09999839 -0.0657633 -0.011261853 0.036510784 0.0022676347 0.06790536 -0.027375057
0.05020545 -0.048905525 0.015824545 -0.04323939 -5.7274632e-05 0.013105432 -0.012878641 -0.11433287
0.0038073487 -0.03549643 -0.008463634 -0.04870121 -0.10386469 0.015835296 0.019093188 0.02341118
-0.12423143 0.014978023 0.0017811304 -0.03869345 0.042543743 0.009163574 0.07454742 -0.044821773
00000000: e02d 90bb 2065 84b8 d836 2bbc eb33 09bc
00000010: 5579 0e3a b169 a2b9 3619 81ba 7a92 933b
00000020: 8314 c738 c8fb 5c3c 8a65 d3b7 ad12 663b
00000030: f06a b9b8 c736 d33b 281e a9bc a07b 03b4
00000040: e96d ccba 4844 1ebc 2c3d 9c3b ae46 f8ba
00000050: d0e2 9e3a b54d b8b9 dc33 b8b9 b268 4b3c
00000060: fcfc 953b 9906 96bb 280a 2bb9 713d 89ba
00000070: c7ce d1bc b03b 593a 3e77 77bc 1313 4938
00000080: 1968 edbd 1e1c 7ebd 9096 c2bd d0ce b83c
00000090: a91a a3bc 34b5 b43a f583 d1bd 79c3 0cb8
000000a0: cd3e 21ba 635f be3b 7ef7 90bc 5e94 093d
000000b0: adc8 383c c9f7 2e39 8b53 10bd b9a5 2cbd
000000c0: ee14 35bd fb46 9cbd aa79 6fb9 2682 4b3d
000000d0: 5b34 a9bd 00d0 2f3d 3edb 66bd b00d 693d
000000e0: 43ee 493d 9955 05bc f59a 2c3b 384b d83c
000000f0: 41aa b5bd e042 8fbc 886e 3e3d d269 a7bc
00000100: 6343 063a db76 edb6 29ff 1539 c5df 1ebb
00000110: e5c6 3439 06f3 f036 c2c6 953b 30b1 9f3b
00000120: 566b 4c39 0644 6f3a 3680 60b8 e5fa 2038
00000130: 9c23 a2b8 6da4 50b9 f7eb 3a3b 62e0 1ebb
00000140: b202 223b f1be f3bb 2429 323a 4fd6 4637
00000150: 93a2 153b 0f7c 2a39 53c1 dd3b cf37 0439
00000160: 3060 1ab9 a785 c839 7fa9 41bc ffe9 f6ba
00000170: 3681 90b7 7a15 123b 26c1 07b9 c4d7 9ab8
00000180: 5e53 003c cbd6 043e b19a 35bc fd21 5f3c
00000190: 9e2d c43b 0d60 eb39 0f5b e9bd 3156 2b3c
000001a0: 8c57 723d c8cb 5c3c 3f57 d239 85c7 7dbc
000001b0: deb8 aab8 dc89 e839 d2e6 abbc bd4e 49bc
000001c0: baf7 623c 68a7 253c 6e58 463a 699b 5dbd
000001d0: 59d1 25bd 7a5b c5bc cac4 abbd a215 843d
000001e0: 2128 ee3c 0681 febb 2d15 cc3a 649d 843c
000001f0: 0fdc d63c 8289 01bd 6471 a73d 633a 94bd
00000200: 404b 98b7 51c5 c33b 0cfb 8838 1721 a738
00000210: 3dcc eabb 3d44 f338 5257 19b8 aca5 9bbb
00000220: b625 cc3a 47ba b038 0913 a4b8 9a67 70ba
00000230: f6cd 283c 599c da3a e989 fc3b 4501 af36
00000240: 95f9 3539 526d 5eb5 bc45 de38 4665 49bb
00000250: 2594 5a3a 611a a9b9 80a4 ffb8 6346 a2b9
00000260: 5509 9a38 472c 863a d341 42b6 60e2 b5ba
00000270: 9d87 0db8 c00a 403a 602f 9533 0530 9a3b
00000280: d504 443d 40e2 703d 141a 04be b79f 6d3c
00000290: 45b4 a03a 4450 5e39 0d84 4cbd 3968 65bc
000002a0: 10d6 ed3b 199e 0cbc a451 153c 0de8 003e
000002b0: 5e37 ebba 645a e4bb 96a9 323d d2cd 8abd
000002c0: a9a0 163d edff d23c 307e dbba 920e e23b
000002d0: 46e0 0ebd 32d8 6dbc 864b 083d 6663 213d
000002e0: 6008 98bd c847 ddbb 7ab5 073a 841d 673c
000002f0: ef42 ce3c 43d2 e9bc e5ff a73d 7adc ea3c
00000300: 0fce 3b39 6975 323b 5174 953a a4b2 5a37
00000310: ad28 85ba 42a8 bbbb e5c6 39ba ce7d 28bb
00000320: 2b6a f9b8 22ac 4b3b 7f0e 78bc 75b2 d338
00000330: 2fe2 e73c 3edd 95b9 7787 8fbb b7b8 013c
00000340: d781 1dbb f098 26ba d66d d53a 2c77 a8bb
00000350: 035c 47bc 476c acba e8a9 523b fdc3 c838
00000360: 2eb2 23b9 a671 deb8 973f cb37 3517 b43b
00000370: 43d1 7a3c 81ba c3b9 1ef8 b7bc 6938 493c
00000380: 5838 133d f5cb cc3d e9ae 86bd a383 38bc
00000390: 558c 153d 999c 143b f711 8b3d a841 e0bc
000003a0: 3ba4 4d3d 2951 48bd 7aa2 813c c91b 31bd
000003b0: 2b3a 70b8 2ab8 563c ef00 53bc 5a27 eabd
000003c0: b684 793b b464 11bd 0eab 0abc ec7a 47bd
000003d0: 03b7 d4bd 06b9 813c 5169 9c3c cec8 bf3c
000003e0: 0c6d febd 6266 753c d274 e93a 067d 1ebd
000003f0: 5942 2e3d d122 163c 51ac 983d 0997 37bd

GCN_Layers.0.W1.bias f4 [64]
-0.014775477 -0.040893342 -0.03079687 -0.05100719 -0.006723199 -0.079929926 -0.021385627 0.082970195
0.035979982 -0.12101273 -0.016302586 -0.009537233 -0.09895685 0.023291714 0.05638677 0.018722588
0.03176906 0.10236679 0.05801252 0.02664517 -0.020080486 -0.035552528 -0.0557256 0.0114134485
-0.06226156 0.03712412 -0.0051824534 -0.020843774 0.02989975 0.03774716 -0.01727378 0.020026244
0.06755438 -0.005354395 0.034090266 -0.019894734 -0.024921618 -0.056913853 -0.10917676 0.02011762
-0.015323756 0.016144807 -0.12309149 -0.03735804 -0.02166463 -0.015427176 -0.07438796 -0.038782474
0.012999997 0.0100831 -0.0731073 0.045928203 0.005780656 -0.008991945 0.06082861 0.015831191
-0.097373165 -0.04870227 -0.046927188 -0.0040213745 0.02298069 -0.057301745 -0.026802989 -0.07252566
00000000: d814 72bc c77f 27bd b849 fcbc eaec 50bd
00000010: 484e dcbb 4db2 a3bd e930 afbc 47ec a93d
00000020: bf5f 133d 86d5 f7bd 008d 85bc 0e42 1cbc
00000030: e4a9 cabd 44ce be3c d0f5 663d 1d60 993c
00000040: 4620 023d aea5 d13d 899e 6d3d f946 da3c
00000050: d57f a4bc 879f 11bd 8740 64bd 79ff 3a3c
00000060: fa05 7fbd 760f 183d 92d1 a9bb 90c0 aabc
00000070: 52f0 f43c c49c 1a3d be81 8dbc 140e a43c
00000080: f359 8a3d ec73 afbb 3ca2 0b3d 48fa a2bc
00000090: 6c28 ccbc 801e 69bd 1198 dfbd b5cd a43c
000000a0: 7e10 7bbc 1d42 843c 6417 fcbd bf04 19bd
000000b0: 067a b1bc 44c2 7cbc b758 98bd 5fda 1ebd
000000c0: f0fd 543c 9633 253c 48b9 95bd 361f 3c3d
000000d0: a86b bd3b f352 13bc 6c27 793d 6ab0 813c
000000e0: 956b c7bd 087c 47bd b936 40bd bcc5 83bb
000000f0: 0042 bc3c 3cb5 6abd f191 dbbc 5588 94bd

GCN_Layers.0.W2.weight f4 [64, 64]
-1.0552084e-06 -5.8480662e-08 -2.5544787e-06 -9.012706e-07 -2.7780675e-07 -1.6931692e-08 -5.0649107e-09 -5.836304e-07
4.1769674e-08 -1.8340686e-06 -1.8880247e-07 -1.1507021e-06 -1.1513049e-06 -1.7395583e-07 -2.0277064e-08 -2.7353149e-06
-3.8035614e-07 -2.7019468e-07 -3.9011567e-08 -8.314054e-08 -2.6885953e-05 -2.626386e-05 -7.69122e-07 -7.298292e-07
-7.933504e-07 -6.2834266e-07 -1.0784339e-07 5.840966e-08 -3.6062437e-07 -1.2762116e-05 -8.666166e-08 -4.7217418e-07
0.055030376 -0.09070337 0.0011011839 2.1327037e-06 -0.015960427 0.030993415 3.3918124e-05 0.0076146876
-0.004410356 8.804395e-06 -7.4368313e-06 -0.026312176 -0.00046720434 3.6222366e-06 -0.00014989443 0.0009502368
-0.01355773 -0.0003334962 -1.2080677e-07 9.15354e-05 -0.0015695255 -5.9347967e-05 5.828175e-07 -2.490813e-07
-3.5148933e-06 -1.5653941e-07 2.518312e-07 2.7327515e-06 1.3691626e-06 -1.2220695e-05 -2.9866592e-07 -3.7636226e-05
-2.4638734e-06 -1.14329055e-07 -2.6126008e-06 -1.678791e-06 -3.80359e-07 -3.3934832e-08 -1.0075377e-08 -3.2750773e-07
4.020774e-08 -3.3276579e-06 -3.5203095e-07 -1.887747e-06 -2.6321823e-06 -3.995106e-07 -2.7420219e-08 -4.3049304e-06
-6.846929e-07 -4.9890167e-07 -7.390925e-08 -4.1750977e-07 -3.3926917e-05 -5.2342522e-05 -1.4627925e-06 -1.1239872e-06
1.1830382e-06 -1.2026759e-06 -1.317675e-07 -5.4589314e-08 -3.42177e-07 -3.453365e-05 -2.2592859e-07 -5.455902e-07
-0.012890252 -0.13505818 -0.031036563 1.530883e-05 -0.027434694 0.012215912 1.9318835e-05 0.0019780928
-0.0005284097 1.8144881e-05 -1.145691e-05 0.006325036 0.0059786374 -2.1008165e-05 2.0310615e-06 -5.5918836e-06
-0.003055184 -2.6937363e-05 4.5439414e-08 -3.2620046e-06 0.0011600025 -5.486204e-06 -6.2874974e-06 -3.699265e-07
-1.4014346e-05 -9.304317e-07 -4.1624952e-07 5.0481704e-06 -2.2556462e-05 -0.00041691872 -6.516957e-07 -6.720075e-05
-8.300414e-07 -6.9481395e-08 -1.0733412e-06 -1.3043588e-06 -1.5266234e-07 -1.6843051e-09 -5.55642e-09 -1.2144903e-07
-2.9589017e-08 -3.4057564e-06 -1.4258039e-07 1.5830314e-07 -1.191786e-06 -1.18242944e-07 -1.06588285e-08 -1.9608265e-06
2.7651683e-07 -2.0155669e-07 -2.8150819e-08 -1.7480912e-07 -2.2316404e-05 -4.0445016e-06 -4.4329977e-07 -5.368496e-07
-6.181962e-07 -5.250079e-07 -1.4848908e-07 -5.7108153e-08 -8.069233e-08 -2.4892175e-05 -8.793286e-08 6.177533e-09
0.026800638 -0.07851983 -0.00044159478 -4.7188264e-06 -0.023179604 0.014174001 8.086517e-06 -0.000905475
-0.0011874117 1.3075967e-05 -5.468155e-07 -0.0072030756 -0.0003107465 1.2587428e-06 -5.044827e-07 0.0002912113
-0.004972276 9.677469e-06 -4.9814535e-08 3.1320098e-05 0.00041983527 -3.1054528e-06 0.00013054763 -4.0758988e-07
2.4579209e-05 -1.1353632e-06 -2.1597778e-06 4.9047717e-06 -9.20801e-06 7.900176e-05 -4.613099e-07 -3.4368477e-05
-4.046563e-06 4.7278633e-08 -9.037514e-06 -1.2289474e-06 -3.6908088e-07 -1.2129134e-07 -2.8645474e-08 -1.2233883e-07
-7.9390176e-08 3.2285784e-06 -5.9203103e-07 -3.4195245e-06 -2.8269587e-06 -7.11206e-07 -4.449554e-08 -3.3570268e-07
-1.3933573e-06 -1.3546787e-06 -1.18432666e-07 -1.1005492e-06 -1.4790459e-05 -5.5962064e-05 -8.6880186e-07 -1.2161127e-06
-1.537109e-06 -3.3874082e-06 -1.6221468e-07 -2.5237597e-07 -9.689774e-07 -2.993165e-05 -3.6776325e-07 -2.4691528e-06
-0.07737492 -0.09762766 -0.029445717 1.1669385e-05 -0.022637298 -0.0035033 0.00054602296 0.0006225591
-2.5833204e-05 4.6448924e-05 3.5330537e-05 0.0039981846 0.00018185018 9.5111227e-07 0.00034013152 -0.0060593383
-0.015543791 -6.582867e-05 8.3410036e-08 -0.00013013776 -6.4940386e-06 0.00097562105 -3.3123115e-06 2.1378046e-06
-0.007054738 -1.0957378e-06 2.0356424e-08 -3.9583138e-06 -0.00078847446 -3.451923e-05 -0.0001446566 -0.0035510538
00000000: afa0 8db5 2b2c 7bb3 9c6d 2bb6 d8ee 71b5
00000010: 7825 95b4 2f71 91b2 6d07 aeb1 c7aa 1cb5
00000020: 3e66 3333 1e2a f6b5 a1b9 4ab4 d371 9ab5
00000030: 8986 9ab5 9dc8 3ab4 bc2d aeb2 5a90 37b6
00000040: c033 ccb4 460f 91b4 ac8d 27b3 ff8a b2b3
00000050: 2589 e1b7 3651 dcb7 a975 4eb5 7be9 43b5
00000060: a0f6 54b5 61ab 28b5 8897 e7b3 1ade 7a33
00000070: d69b c1b4 df1c 56b7 c01a bab3 207f fdb4
00000080: 8867 613d b0c2 b9bd 9a55 903a 921f 0f36
00000090: 71bf 82bc e7e5 fd3c 4f43 0e38 a184 f93b
000000a0: bf84 90bb 97b6 1337 e589 f9b6 a28c d7bc
000000b0: 1bf3 f4b9 8d15 7336 fb2c 1db9 5019 793a
000000c0: 3e21 5ebc 1ad9 aeb9 1db7 01b4 b2f6 bf38
000000d0: 89b8 cdba 65ec 78b8 ea72 1c35 79b9 85b4
000000e0: 68e1 6bb6 3a15 28b4 6b33 8734 5064 3736
000000f0: 12c4 b735 7c07 4db7 5558 a0b4 97db 1db8
00000100: 0659 25b6 1085 f5b3 2454 2fb6 d252 e1b5
00000110: 2534 ccb4 bebf 11b3 fa17 2db2 52d4 afb4
00000120: e1b0 2c33 ba50 5fb6 c4fe bcb4 7e5e fdb5
00000130: 8ca4 30b6 527c d6b4 b389 ebb2 1273 90b6
00000140: bdcb 37b5 43ec 05b5 0ab8 9eb3 1b26 e0b4
00000150: c04c 0eb8 5b8a 5bb8 2b55 c4b5 e8db 96b5
00000160: e2c8 9e35 a16b a1b5 f97b 0db4 9675 6ab3
00000170: 73b4 b7b4 39d8 10b8 c796 72b4 ac74 12b5
00000180: a331 53bc b14c 0abe 6440 febc 766b 8037
00000190: b9be e0bc 4025 483c e20e a237 e4a2 013b
000001a0: fa84 0aba d635 9837 0e37 40b7 3f42 cf3b
000001b0: 72e8 c33b b13a b0b7 5f4d 0836 eaa1 bbb6
000001c0: 7b39 48bb 8cf7 e1b7 2a29 4333 d0e8 5ab6
000001d0: 3a0b 983a 2216 b8b6 31f9 d2b6 509a c6b4
000001e0: 281f 6bb7 c8c2 79b5 e678 dfb4 7463 a936
000001f0: a237 bdb7 e295 dab9 30f0 2eb5 21ee 8cb8
00000200: 03d0 5eb5 cd35 95b3 b90f 90b5 6d11 afb5
00000210: 81eb 23b4 387d e7b0 caea beb1 a867 02b4
00000220: f02a feb2 738e 64b6 3318 19b4 09fa 2934
00000230: 75f5 9fb5 bfec fdb3 061e 37b2 be96 03b6
00000240: 2f74 9434 7b6b 58b4 4ed0 f1b2 2ab3 3bb4
00000250: 1d34 bbb7 01b6 87b6 a8fe edb4 061c 10b5
00000260: 1ff2 25b5 45ee 0cb5 5e70 1fb4 1447 75b3
00000270: 1449 adb3 8acf d0b7 9ad5 bcb3 2842 d431
00000280: 038d db3c 01cf a0bd d985 e7b9 6956 9eb6
00000290: 27e3 bdbc 123a 683c 53ab 0737 665d 6dba
000002a0: eda2 9bba da60 5b37 e0c8 12b5 c707 ecbb
000002b0: b0eb a2b9 13f2 a835 ca6b 07b5 b8ad 9839
000002c0: 79ee a2bb 6a5c 2237 a9f3 55b3 b35d 0338
000002d0: 561d dc39 4667 50b6 9de3 0839 bad2 dab4
000002e0: 732f ce37 c862 98b5 b3f0 10b6 ab93 a436
000002f0: 1a7c 1ab7 bfad a538 f3a9 f7b4 df26 10b8
00000300: b6c7 87b6 680f 4b33 d49f 17b7 50f2 a4b5
00000310: 1726 c6b4 4f3c 02b4 1010 f6b2 3e5c 03b4
00000320: 367d aab3 8eaa 5836 10ec 1eb5 fc7a 65b6
00000330: c8b6 3db6 b4e9 3eb5 5d1b 3fb3 a03a b4b4
00000340: 6403 bbb5 68d2 b5b5 0c55 feb3 95b6 93b5
00000350: 8a24 78b7 cfb8 6ab8 9c37 69b5 5039 a3b5
00000360: aa4e ceb5 3b53 63b6 3b2d 2eb4 4a7e 87b4
00000370: cf0d 82b5 bb15 fbb7 ff70 c5b4 b9b3 25b6
00000380: be76 9ebd 03f1 c7bd 2538 f1bc a0c7 4337
00000390: db71 b9bc 9f97 65bb fb22 0f3a 3c33 233a
000003a0: 62b4 d8b7 27d2 4238 e02f 1438 3403 833b
000003b0: 09af 3e39 f04f 7f35 ae53 b239 6a8d c6bb
000003c0: 63ab 7ebc 800d 8ab8 271f b333 9775 08b9
000003d0: 5ee7 d9b6 d2c0 7f3a 1449 5eb6 3477 0f36
000003e0: 6e2b e7bb 4411 93b5 40dc ae32 a8d1 84b6
000003f0: a0b1 4eba bec8 10b8 f6ae 17b9 ccb8 68bb

GCN_Layers.0.W2.bias f4 [64]
-0.10067352 -0.07099432 -0.11988163 0.040840574 -0.013549259 -0.030089436 -0.13297188 -0.037080217
-0.030545127 -0.032763027 -0.015994834 -0.08661388 0.008162109 -0.0024826112 -0.052517414 0.050406262
0.01783372 0.025158076 -0.0762623 -0.039599128 0.10518383 -0.059428234 0.036797777 0.078862965
0.06992505 -0.06166859 0.07095775 -0.018983247 0.014514608 0.00982636 -0.006945341 -0.020833418
0.0496233 0.014235735 0.03283437 -0.0057113925 -0.0332287 -0.0028408417 0.030336415 -0.0060730134
-0.023806922 -0.029191524 -0.090734616 0.054019738 -0.018968109 -0.0054765656 -0.048264243 -0.018945802
-0.04364536 -0.072906695 0.0672441 0.019330831 -0.006831107 -0.046958383 0.09986305 0.031355605
-0.08233112 0.040720806 0.027823703 -0.0018772036 -0.11810453 0.028774062 -0.043403495 -0.071903996
00000000: eb2d cebd 7865 91bd 8084 f5bd 7248 273d
00000010: b6fd 5dbc 1f7e f6bc c829 08be 6de1 17bd
00000020: c639 fabc 8632 06bd 9907 83bc 9e62 b1bd
00000030: 5eba 053c 4eb3 22bb 801c 57bd cc76 4e3d
00000040: 0618 923c 4f18 ce3c 692f 9cbd b232 22bd
00000050: 9f6a d73d 056b 73bd 44b9 163d e882 a13d
00000060: dd34 8f3d 3498 7cbd 4c52 913d c182 9bbc
00000070: aece 6d3c befe 203c be95 e3bb d8aa aabc
00000080: cd41 4b3d 003d 693c 557d 063d a226 bbbb
00000090: d11a 08bd 6a2d 3abb 1384 f83c 2100 c7bb
000000a0: bc06 c3bc 1023 efbc 12d3 b9bd cd43 5d3d
000000b0: 0263 9bbc c374 b3bb bab0 45bd 3a34 9bbc
000000c0: 7ac5 32bd 1b50 95bd 46b7 893d b15b 9e3c
000000d0: 7bd7 dfbb 6f57 40bd 0085 cc3d bc6e 003d
000000e0: 389d a8bd dcca 263d 89ee e33c 800c f6ba
000000f0: cae0 f1bd 95b7 eb3c ddc7 31bd 6742 93bd
