lab4-student/code/model/bestModelParms-11-14-19-27.pth (torch, 465577 bytes, 20 tensors)

user_id_embedding.weight f4 [900, 32]
1.8721254 -0.55865556 -1.0936636 0.023449814 -0.47568747 0.38746455 -1.6216474 -0.9721717
-0.53983146 0.5026892 0.67344594 0.38332787 0.37572703 0.86256075 -1.2469704 -1.1770535
-2.0086734 0.6419521 0.121822074 -1.0287988 -0.37692723 0.3530459 -0.81919634 -1.5662428
-0.24232954 -0.90078366 -1.1132975 -0.27154565 0.4009861 -0.48002002 0.5464696 0.17644605
0.16609712 1.2986876 -0.40678176 1.0949796 0.48940948 -1.2656633 -0.35482815 -0.7528357
0.0699095 -0.3467937 1.1215736 0.007587376 -0.22132003 -0.7115163 0.37663314 0.8861615
-1.0818031 0.073911145 -0.96325225 0.3968525 -1.1522831 0.626744 0.59526074 1.9634845
-2.4143713 1.6205446 -1.3552862 -0.19942349 0.20539604 2.0044012 1.0606921 -0.039483156
-0.17945269 -0.90684986 -0.77831036 0.13606302 -0.18682246 1.172563 -0.16599485 -0.40050897
1.5476665 -0.6248108 -0.47928163 0.16937846 -1.8045062 -0.5847887 -0.115296 -0.9131816
0.96256 -0.60627246 -1.6997179 0.9739753 0.13379467 -0.7972807 -1.1849284 0.73236686
-0.10642189 1.3344767 -0.6908826 -0.5721048 -0.19814561 -0.012639613 0.494936 -1.3501769
1.5851271 1.0454406 0.6565027 -0.08646448 1.5205884 -0.7746257 0.7820411 -0.5050104
-1.4339496 -1.0860367 1.2228893 1.0386248 1.1815039 0.511784 -0.6249597 0.65632606
-0.40565106 0.022876946 -0.0072894236 1.159223 0.16822222 -0.47706166 0.42057082 -0.7719568
-0.861638 -0.09482074 0.13376448 1.6172436 0.08695467 -0.14284234 0.61804813 -0.34329057
-0.29871467 0.28786844 -0.8305675 -0.9704016 0.08480851 1.6652937 1.5579178 0.7186557
-0.10081669 -1.2709556 -0.4385631 -1.0863491 0.008654321 1.1232021 1.0695965 0.7656488
-0.07938521 0.7451867 -0.48470125 -0.47432417 -0.45029494 -0.13311447 0.29128718 0.04258611
-0.7056928 1.0203612 -1.0754782 1.2696738 -0.39840665 0.8633865 1.5051095 0.87351924
-0.45091596 0.5619856 -1.9269606 -1.5616692 -1.147927 0.4914669 1.9756533 1.0051217
-0.53811157 -1.3616265 -1.2201654 -0.2732042 -1.9467218 2.0766468 -1.1695586 -0.23527639
0.2444468 -0.25368285 1.7511743 -0.86006624 -0.17220873 0.9292466 -0.25279993 0.049907822
-1.55879 0.303354 -1.9198003 -0.1481016 0.33384308 -0.017708192 1.2360027 0.8074753
0.8512729 -1.3270085 0.35660762 1.1000355 1.0733656 -1.7001115 -1.7297412 0.9753555
-0.79311556 -0.31065646 1.1720713 0.067391254 0.93084055 1.1105332 -2.3022122 -0.39128533
0.29892185 -3.1371348 -0.83241916 -1.2390037 -0.34958476 0.017523043 -1.1103784 0.18128616
-0.05535729 0.9425974 -0.1573102 -1.2725039 -1.7645537 0.22257449 2.5641522 -0.0018271559
0.9651378 -0.14096878 0.12162873 0.6752635 2.440327 -0.7826694 0.64651597 -0.25932613
0.2022077 1.2413374 -1.9972918 -0.7253741 -0.14917319 0.79776144 -0.3891206 1.5032095
-0.8164537 -0.9537482 -1.4297646 -0.4024869 1.4247807 -0.8672115 1.1894569 -0.27658498
-0.37902114 0.116447054 -0.1391079 -0.17541964 0.58227587 -0.20278779 0.8144811 -1.8122157
00000000: cea1 ef3f 0d04 0fbf 2bfd 8bbf d319 c03c
00000010: 4f8d f3be c161 c63e 2492 cfbf 3fe0 78bf
00000020: 6532 0abf 3db0 003f f466 2c3f 8d43 c43e
00000030: 4b5f c03e c8d0 5c3f ba9c 9fbf b0a9 96bf
00000040: 1b8e 00c0 f956 243f da7d f93d aeaf 83bf
00000050: 9bfc c0be 6fc2 b43e dab6 51bf a57a c8bf
00000060: 3c25 78be c299 66bf 8880 8ebf 0808 8bbe
00000070: 0d4e cd3e 2fc5 f5be 6fe5 0b3f 46ae 343e
00000080: 5d15 2a3e 653b a63f b345 d0be 4b28 8c3f
00000090: e193 fa3e 4101 a2bf 09ac b5be d7b9 40bf
000000a0: b62c 8f3d f28e b1be b98f 8f3f 869f f83b
000000b0: b8a1 62be ef25 36bf 0fd6 c03e 7bdb 623f
000000c0: 8678 8abf ba5e 973d b397 76bf 4030 cb3e
000000d0: 037e 93bf 4b72 203f 0263 183f 7653 fb3f
000000e0: 0f85 1ac0 016e cf3f 057a adbf ac35 4cbe
000000f0: 5753 523e 1c48 0040 c2c4 873f 17b9 21bd
00000100: 72c2 37be 5027 68bf 593f 47bf 1b54 0b3e
00000110: 634e 3fbe 8b16 963f 8efa 29be 830f cdbe
00000120: f019 c63f 9af3 1fbf 6764 f5be 8c71 2d3e
00000130: 0ffa e6bf b6b4 15bf 4f20 ecbd 45c6 69bf
00000140: 556a 763f ac34 1bbf 5b90 d9bf 7256 793f
00000150: 7801 093e 971a 4cbf bcab 97bf 657c 3b3f
00000160: b8f3 d9bd 22d0 aa3f afdd 30bf 7675 12bf
00000170: afe6 4abe 6116 4fbc 4068 fd3e 99d2 acbf
00000180: 72e5 ca3f ffd0 853f 9010 283f 4a14 b1bd
00000190: a4a2 c23f df4d 46bf d833 483f 5d48 01bf
000001a0: a98b b7bf 4003 8bbf a387 9c3f a8f1 843f
000001b0: 853b 973f 4704 033f 5cfd 1fbf fc04 283f
000001c0: 7fb1 cfbe 6f68 bb3c 1edc eebb 6b61 943f
000001d0: 7242 2c3e 6d41 f4be 0f55 d73e f69e 45bf
000001e0: 4f94 5cbf 6031 c2bd 8ef9 083e d701 cf3f
000001f0: 4a15 b23d 4345 12be 6738 1e3f c8c3 afbe
00000200: 21f1 98be 7e63 933e 12a0 54bf 3d6c 78bf
00000210: 16b0 ad3d 5828 d53f da69 c73f d2f9 373f
00000220: fb78 cebd acae a2bf 588b e0be 7d0d 8bbf
00000230: daca 0d3c 16c5 8f3f 8ae8 883f 8f01 443f
00000240: b794 a2bd 8ec4 3e3f c32a f8be 9eda f2be
00000250: 0f8d e6be 294f 08be 9823 953e c66e 2e3d
00000260: 49a8 34bf 329b 823f 45a9 89bf ac84 a23f
00000270: f5fb cbbe e606 5d3f 6ea7 c03f f59e 5f3f
00000280: 75de e6be 4ade 0f3f a5a6 f6bf c7e4 c7bf
00000290: 46ef 92bf 8da1 fb3e 35e2 fc3f d4a7 803f
000002a0: aec1 09bf c749 aebf 612e 9cbf 6ce1 8bbe
000002b0: 2e2e f9bf c8e7 0440 19b4 95bf 4bec 70be
000002c0: 4350 7a3e b8e2 81be 7b26 e03f 4d2d 5cbf
000002d0: 7c57 30be 1be3 6d3f fe6e 81be 256c 4c3d
000002e0: 6e86 c7bf 3751 9b3e 04bc f5bf f2a7 17be
000002f0: 7bed aa3e c510 91bc 5635 9e3f b4b6 4e3f
00000300: 05ed 593f 6adb a9bf 4695 b63e f7cd 8c3f
00000310: 0b64 893f 419d d9bf 2968 ddbf e6b0 793f
00000320: 9f09 4bbf 5d0e 9fbe 6f06 963f 6d04 8a3d
00000330: 914b 6e3f f425 8e3f 7257 13c0 8d56 c8be
00000340: 490c 993e d1c6 48c0 6c19 55bf ac97 9ebf
00000350: c6fc b2be 7c8c 8f3c e120 8ebf 14a3 393e
00000360: 53be 62bd 104e 713f ed15 21be 68e1 a2bf
00000370: e5dc e1bf 91ea 633e 121b 2440 2e7d efba
00000380: 4513 773f 1f5a 10be 7c18 f93d 12de 2c3f
00000390: 512e 1c40 065d 48bf 1282 253f 65c6 84be
000003a0: 890f 4f3e 25e4 9e3f 42a7 ffbf 1eb2 39bf
000003b0: dbc0 18be 183a 4c3f d13a c7be 2b69 c03f
000003c0: 1c03 51bf d828 74bf 8702 b7bf c312 cebe
000003d0: 375f b63f 9301 5ebf 2040 983f 8c9c 8dbe
000003e0: 0f0f c2be cb7b ee3d 4d72 0ebe 35a1 33be
000003f0: 0810 153f 9aa7 4fbe d581 503f aff6 e7bf

user_age_embedding.weight f4 [5, 4]
0.59942025 0.63234466 -1.8626682 1.3844856 0.6631608 -1.8710058 -0.61652756 0.49013045
0.3491086 -0.46504083 0.13346387 -0.6208633 1.4897155 0.6519279 1.0264876 0.46978453
-0.11791857 0.53242755 1.2904425 -1.6781104
00000000: 9b73 193f 57e1 213f e96b eebf d336 b13f
00000010: e8c4 293f 1e7d efbf c0d4 1dbf 61f2 fa3e
00000020: 5dbe b23e d519 eebe c1aa 083e e6f0 1ebf
00000030: ffae be3f bfe4 263f f263 833f 9987 f03e
00000040: 4b7f f1bd 2c4d 083f 382d a53f 52cc d6bf

user_gender_embedding.weight f4 [2, 2]
0.062315192 0.3126336 -1.683658 0.42063478
00000000: 373e 7f3d 8311 a03e 1b82 d7bf 715d d73e

user_occupation_embedding.weight f4 [21, 8]
0.18191452 1.2621553 -1.0784752 0.19146849 0.90694237 0.54026467 2.1178548 1.2281375
-0.045822483 -1.6258757 0.95392334 -0.6059822 -1.4649262 0.67623657 -0.51446706 -0.5565427
1.129791 -0.9667877 1.4441783 0.40501314 1.0653477 -1.1033813 -0.51657104 0.78395146
2.5168958 0.12007744 -2.0514927 2.2970405 0.20901297 -0.15393281 -0.978451 -0.96652895
0.70538837 -1.303438 -0.9365819 0.4984867 0.684953 -1.2987084 0.64236456 -1.336278
-1.4975265 -0.4230275 0.070611015 -0.1909153 -0.31268457 -1.4236898 0.73381495 -0.40194437
0.48908335 -2.6125686 0.7826531 0.6017116 -0.86971706 0.9777705 0.12493268 0.88561994
0.16759889 0.78390026 -0.8896582 1.1369984 -0.34392068 0.28745013 0.7735716 0.75456494
-0.10624012 -1.082934 0.74009967 0.13944021 -0.5236549 -1.3640312 1.1400841 -0.44826585
1.1344476 -0.47883382 0.2751606 -0.9205679 -0.64602673 -0.4330289 1.4031949 0.81848633
-0.044043574 -0.74639225 0.40652728 -0.61189187 0.90961707 -0.66404444 -1.0969497 -0.9511013
-0.6539042 -0.034753513 0.834477 -0.17239419 1.5778567 -0.03335483 -0.88237774 0.54165936
2.0656278 1.8344539 1.247073 -1.2809132 -0.97553277 -0.08120955 0.010042624 -1.0414084
0.33446404 -1.151516 0.8562466 -0.22571471 0.72383946 1.3999768 0.18972243 0.7285041
0.2709762 1.360996 0.7834727 -0.23361203 -0.5071099 -1.0802404 0.11923148 -0.33643997
0.94962746 1.2059926 -0.26676378 -0.5929847 -0.18447396 2.1272771 0.8737261 -0.2644051
0.22401589 -0.03013632 -0.98835737 -0.62021685 -0.8190949 0.038744267 -0.009355809 0.69891906
1.2198231 0.33731604 -1.9682672 -0.68673563 1.5998076 -0.9090527 1.682948 0.20570093
0.057004247 -0.21201056 1.5383643 -0.116299994 0.15854348 -1.5505004 -0.5084375 -0.5615991
1.3814521 1.0908192 -2.888533 -1.1330583 -0.66644526 -1.0226012 1.0693768 0.5137421
-0.30999425 -1.5304668 0.7106418 -0.9604816 -0.84146386 -0.8288175 -0.416907 0.9475571
00000000: cd47 3a3e 4e8e a13f 7a0b 8abf 5110 443e
00000010: 602d 683f c94e 0a3f ef8a 0740 9c33 9d3f
00000020: 5bb0 3bbd b21c d0bf 5234 743f a621 1bbf
00000030: b482 bbbf d71d 2d3f 1db4 03bf 9579 0ebf
00000040: fe9c 903f 667f 77bf d6da b83f e25d cf3e
00000050: 505d 883f 993b 8dbf 003e 04bf 0bb1 483f
00000060: d214 2140 29eb f53d a84b 03c0 b602 1340
00000070: 7f07 563e 90a0 1dbe c47b 7abf 716e 77bf
00000080: 5594 343f 0ed7 a6bf d5c3 6fbf a639 ff3e
00000090: 1459 2f3f 143c a6bf 0172 243f 280b abbf
000000a0: f3ae bfbf 0f97 d8be 829c 903d 4d7f 43be
000000b0: 3118 a0be 783b b6bf 4cdb 3b3f a7cb cdbe
000000c0: 2269 fa3e 5334 27c0 f45b 483f c509 1a3f
000000d0: c7a5 5ebf 2b4f 7a3f b4dc ff3d fdb7 623f
000000e0: 0b9f 2b3e b0ad 483f a4c0 63bf 2a89 913f
000000f0: 5f16 b0be aa2c 933e ca08 463f 2b2b 413f
00000100: 6c94 d9bd 959d 8abf 2c77 3d3f 6ac9 0e3e
00000110: 3f0e 06bf 9398 aebf 47ee 913f 1a83 e5be
00000120: 9435 913f b529 f5be dae1 8c3e 57aa 6bbf
00000130: 0262 25bf f7b5 ddbe e49b b33f 5288 513f
00000140: 0967 34bd 9013 3fbf 5824 d03e f2a4 1cbf
00000150: aadc 683f d1fe 29bf d968 8cbf 607b 73bf
00000160: 4466 27bf b359 0ebd 49a0 553f 1a88 30be
00000170: 35f7 c93f 139f 08bd 82e3 61bf 30aa 0a3f
00000180: 3f33 0440 63cf ea3f 17a0 9f3f f7f4 a3bf
00000190: 84bc 79bf 3151 a6bd d189 243c df4c 85bf
000001a0: df3e ab3e e064 93bf fa32 5b3f c221 67be
000001b0: 8b4d 393f 7132 b33f 9946 423e 3f7f 3a3f
000001c0: 64bd 8a3e 1e35 ae3f ab91 483f fe37 6fbe
000001d0: f4d1 01bf 5145 8abf a22f f43d dc41 acbe
000001e0: c91a 733f f75d 9a3f 4395 88be d8cd 17bf
000001f0: bee6 3cbe 4f25 0840 84ac 5f3f 1b60 87be
00000200: 6c64 653e 72e0 f6bc fd04 7dbf 88c6 1ebf
00000210: 34b0 51bf 4fb2 1e3d 1b49 19bc 5cec 323f
00000220: 2a23 9c3f b0b4 ac3e 2ef0 fbbf e8cd 2fbf
00000230: 7fc6 cc3f aeb7 68bf d76a d73f 44a3 523e
00000240: 497d 693d 4c19 59be 1fe9 c43f b12e eebd
00000250: 3959 223e cc76 c6bf f628 02bf f5c4 0fbf
00000260: 6cd3 b03f f79f 8b3f badd 38c0 0e08 91bf
00000270: 289c 2abf 99e4 82bf 57e1 883f 9a84 033f
00000280: 91b7 9ebe 56e6 c3bf 9fec 353f 1fe2 75bf
00000290: 2d6a 57bf 622d 54bf d674 d5be 1a93 723f

user_location_embedding.weight f4 [760, 18]
0.42276233 -0.38467768 -0.6189794 -1.0372076 1.1558526 1.1224297 0.70477957 1.2423666
-0.9849234 0.010438019 -0.7420759 0.78601253 -0.68767655 -1.0863014 0.50317633 -0.05861998
1.6585355 -0.43846688 -0.0035911566 -0.57998836 -0.15036702 0.57301307 -0.10936859 0.15657066
0.20394471 0.6295031 0.22288696 -1.2359611 1.2374924 1.041883 0.94458616 -1.154643
0.83668935 -0.09269935 0.05135953 0.366153 -0.23529392 0.99783456 -0.85694623 -0.85443795
-1.2346061 -0.74829406 -0.17582689 0.9295273 -0.26559266 1.7381836 -0.19849916 1.6444099
0.99619186 -0.080972865 0.18861462 3.5408602 -0.6181697 0.6624886 -0.8976505 0.5345116
0.13192663 -0.40846142 -1.8655727 -1.679074 1.8918874 0.8451989 -0.8306903 1.4170337
0.889991 1.8758926 -1.345982 0.89254373 -1.0822192 0.23130804 0.34336972 -0.16346058
-0.5431796 -0.4119394 -0.6828374 0.084716074 -1.1177377 0.9137662 -0.8681949 -1.7763042
-0.2815253 0.2591662 -1.630414 1.5238864 -1.3116101 -2.1645632 -1.0755596 0.75876045
0.2384757 0.61694455 0.22839618 1.011792 -0.619332 -0.82207185 0.009928597 -0.72948
0.002653068 -0.9047032 1.3470315 0.34692016 -0.1533875 1.5285009 -0.071356274 0.6621155
-0.5794066 -0.26213387 0.7098631 0.9925509 -1.4496472 -1.1626906 -1.5267098 -0.013145846
2.5222507 -0.7962791 -0.018473301 1.0043235 -0.65558535 0.31558904 -1.3998058 -0.14229666
-0.67406785 -0.74820757 0.47797427 -0.23643674 -0.116883844 -0.21860144 2.6150355 0.55523795
-2.9133072 -0.19392888 -0.03622878 -0.6814633 0.2391041 0.22525777 2.496488 0.027431393
0.12931286 -0.5620297 -1.7691859 0.2593482 0.8420646 0.088108584 -0.5043845 -1.9522295
-0.35250968 -1.0081098 -0.65884006 -1.3308281 -0.8311663 1.52711 -0.7515855 -0.42165306
0.06976974 0.45544258 1.0696635 1.2718804 -0.69025445 -0.4267461 0.043539632 -0.65135676
0.13019203 0.19491437 -0.70271975 0.21591501 -0.0207518 -0.24087936 1.1692555 0.64940524
-1.3839043 0.06413883 1.1312894 2.1729531 0.06438371 0.3766624 0.34217405 -0.6398726
-0.07574348 0.037109815 -1.371703 0.11597723 0.107730135 1.2415153 -1.3489528 1.1458584
1.6389328 0.91430056 -0.4247946 2.2149634 -1.5202872 1.5699049 1.3024238 -0.18130587
-0.44117975 0.17506136 -0.9490228 1.1879662 -0.23437029 -2.3733556 -0.38528246 -1.5518441
0.86327446 0.85375625 -0.73761374 0.70724976 -0.54324883 0.60995215 1.0207266 -0.719551
-0.39562738 -1.2785432 1.4033232 -0.64488155 1.4826444 1.7693428 -1.0807503 1.7649821
-0.607542 -1.7679983 -1.0484325 0.78279555 2.536717 2.9935014 -1.251168 0.96180844
-0.78660244 -0.20413288 0.13200462 -0.60392696 -0.8317215 -0.19580206 -0.7804213 -1.3212624
-0.085535295 -0.9720897 0.26802003 -1.1637001 0.6851565 0.3941523 -0.33099306 -0.21591866
0.42849907 0.7009661 1.0940754 3.232756 -1.6671281 -1.9045715 -0.71879005 0.043303166
-0.62343806 -0.8593521 1.2277489 -0.5625605 -1.38067 2.0926838 -0.3689159 -0.6060308
00000000: 4e74 d83e 79f4 c4be 6f75 1ebf 38c3 84bf
00000010: faf2 933f c7ab 8f3f 6f6c 343f de05 9f3f
00000020: f123 7cbf 3a04 2b3c b0f8 3dbf 1e38 493f
00000030: 920b 30bf ed0b 8bbf 2ad0 003f 811b 70bd
00000040: e44a d43f bb7e e0be 9c59 6bbb 1e7a 14bf
00000050: d0f9 19be fcb0 123f a4fc dfbd 0f54 203e
00000060: e2d6 503e 1d27 213f 7b3c 643e f933 9ebf
00000070: 2766 9e3f 6c5c 853f 66d0 713f 58cb 93bf
00000080: 4631 563f 28d9 bdbd 5f5e 523d 6878 bb3e
00000090: e4f0 70be 1672 7f3f d460 5bbf 72bc 5abf
000000a0: 9307 9ebf 3390 3fbf f70b 34be 80f5 6d3f
000000b0: c3fb 87be cd7c de3f 5d43 4bbe 067c d23f
000000c0: 6e06 7f3f 1ad5 a5bd 3124 413e 749d 6240
000000d0: 5f40 1ebf da98 293f 6ccc 65bf c1d5 083f
000000e0: c617 073e db21 d1be 16cb eebf e6eb d6bf
000000f0: 5e29 f23f f55e 583f 1fa8 54bf 5c61 b53f
00000100: 73d6 633f 401d f03f 2349 acbf bf7d 643f
00000110: 2986 8abf 04dc 6c3e 28ce af3e 3662 27be
00000120: d10d 0bbf b9e9 d2be 6fce 2ebf 9f7f ad3d
00000130: 0712 8fbf 95ec 693f 0542 5ebf f05d e3bf
00000140: 1624 90be 6fb1 843e 68b1 d0bf b60e c33f
00000150: d7e2 a7bf 3488 0ac0 f0ab 89bf 203e 423f
00000160: f932 743e 14f0 1d3f b0e0 693e 6682 813f
00000170: 8b8c 1ebf 4d73 52bf 8eab 223c 34bf 3abf
00000180: 18df 2d3b a19a 67bf 876b ac3f 859f b13e
00000190: 9d11 1dbe eba5 c33f 3d23 92bd 6780 293f
000001a0: fe53 14bf 6936 86be 97b9 353f d117 7e3f
000001b0: 0a8e b9bf 0cd3 94bf 3a6b c3bf ad61 57bc
000001c0: 8e6c 2140 f2d8 4bbf 5255 97bc ac8d 803f
000001d0: 71d4 27bf e394 a13e d62c b3bf 37b6 11be
000001e0: b68f 2cbf 888a 3fbf 0bb9 f43e 791c 72be
000001f0: cc60 efbd 0ed9 5fbe be5c 2740 1324 0e3f
00000200: a073 3ac0 4b95 46be a164 14bd 6174 2ebf
00000210: b5d7 743e f9a9 663e 76c6 1f40 cdb7 e03c
00000220: 976a 043e 2ee1 0fbf af74 e2bf 4ac9 843e
00000230: 8c91 573f 4672 b43d 581f 01bf a8e2 f9bf
00000240: 267c b4be be09 81bf bea9 28bf 9358 aabf
00000250: 51c7 54bf 5778 c33f e867 40bf e9e2 d7be
00000260: 70e3 8e3d c52f e93e bcea 883f facc a23f
00000270: 84b4 30bf 777e dabe 9d56 323d 51bf 26bf
00000280: 0f51 053e a297 473e 71e5 33bf d318 5d3e
00000290: aeff a9bc 14a9 76be 2aaa 953f 6c3f 263f
000002a0: c723 b1bf 385b 833d 17ce 903f aa11 0b40
000002b0: 9bdb 833d e5d9 c03e 7031 af3e b1ce 23bf
000002c0: 661f 9bbd 7600 183d f793 afbf 7885 ed3d
000002d0: 9ea1 dc3d f9e9 9e3f 7caa acbf 7dab 923f
000002e0: 8dc8 d13f 9a0f 6a3f ae7e d9be f6c1 0d40
000002f0: c598 c2bf a5f2 c83f d3b5 a63f 3fa8 39be
00000300: 50e2 e1be 4943 333e 29f3 72bf 470f 983f
00000310: c4fe 6fbe 0fe5 17c0 be43 c5be d4a2 c6bf
00000320: 8eff 5c3f c58f 5a3f 41d4 3cbf 520e 353f
00000330: 5b12 0bbf d325 1c3f 2ba7 823f 7f34 38bf
00000340: ac8f cabe 4ea7 a3bf 18a0 b33f f516 25bf
00000350: 4bc7 bd3f d379 e23f 0756 8abf efea e13f
00000360: df87 1bbf c54d e2bf 0933 86bf 4a65 483f
00000370: 9259 2240 8795 3f40 4626 a0bf 1439 763f
00000380: c75e 49bf 3608 51be 382c 073e f59a 1abf
00000390: b3eb 54bf 5680 48be b1c9 47bf 201f a9bf
000003a0: 212d afbd dfda 78bf ec39 893e 20f4 94bf
000003b0: 6b66 2f3f 55ce c93e ec77 a9be c819 5dbe
000003c0: 3b64 db3e 8472 333f aa0a 8c3f 79e5 4e40
000003d0: 7464 d5bf 00c9 f3bf a002 38bf a95e 313d
000003e0: a399 1fbf 80fe 5bbf e026 9d3f f703 10bf
000003f0: cbb9 b0bf 88ee 0540 8be2 bcbe d624 1bbf

item_id_embedding.weight f4 [1600, 32]
0.6566007 -0.25850025 0.42535645 -0.6282376 1.2720035 -2.2256157 1.110555 0.09259651
0.1985884 1.0606911 0.21520416 0.5926291 0.6801584 -0.02908609 -0.9769239 0.33580342
0.3801375 1.1890008 -1.1502591 1.4812114 -0.40976408 1.7171878 -0.98909897 1.3564506
-0.28533903 0.6107245 -0.25702292 0.6068511 -0.7977019 -0.49845845 0.79214096 0.60457295
-0.042805225 -1.3308882 -0.3553587 0.8542398 0.5415001 -0.24051216 -0.7470777 0.9107716
-0.33563542 0.8622928 -1.6398447 0.05400255 -0.042276997 0.2048847 -0.6049643 -0.44090554
-0.25850075 -0.12802188 -0.9500024 -0.62821925 1.064283 -0.13033815 -1.4961891 1.1624411
-0.14542013 0.9795754 1.4519311 0.10069162 0.83304 0.7758032 -0.049652565 -0.13228644
-0.48999283 -0.66491795 -0.39525723 0.50433093 0.84179705 0.23908727 -0.09044624 -0.62573564
1.380522 -1.229962 -0.51390105 0.6280198 -0.67777795 -0.18619192 -0.08683769 0.03080331
-0.25448757 -0.5664992 -1.0868468 -0.85490847 0.86294615 -1.1644288 1.489284 -0.011283588
-0.4765191 1.752074 0.45135814 -0.16238658 -0.6572311 1.905798 1.9631492 -0.091282845
2.209291 -0.35771722 -1.9109013 -0.42402536 0.56345737 0.66735595 -0.5068812 0.41289365
1.3875291 -0.79282767 -0.8532535 1.504461 -1.3623263 -0.09794864 -0.07524646 -0.41193974
1.0077043 0.19309308 -0.45819682 1.8457593 -0.52536994 -0.45374304 -0.8793623 1.0612243
1.4438316 0.26173276 0.8757761 1.6228956 -0.029419677 -0.39630717 -1.0573262 0.9489919
0.13090597 -1.2667657 -0.50596046 -0.4319955 -1.0743389 1.8718162 0.28325325 0.4792848
-0.14054671 -1.7215291 -1.3862914 -0.16727175 0.25936148 -0.67800635 -0.50445306 0.4852291
2.5139313 0.007938659 0.5063866 0.57341695 -0.15483697 -1.8629555 1.1369479 0.29220656
0.008900769 -0.5130706 -0.2717045 0.584598 0.98955333 -0.73404586 -0.08171582 0.38169923
0.94608444 0.20046358 0.23285806 -1.1901075 1.4407076 -0.16576447 0.08477036 -0.029472372
-0.090812124 0.30801523 -0.10938114 0.0017360958 -0.5268033 2.3456824 -0.51568544 1.241765
0.79175436 0.33632475 1.607142 0.99345875 1.7723143 1.0704393 -1.2912008 -0.46595618
-0.58264005 -0.84683603 -0.95883113 -1.3806247 0.6810495 0.24719083 -0.38422313 -0.788629
-0.8587015 0.099631034 -1.6589456 0.014378353 0.31561577 0.6151141 0.9307979 -0.21558844
2.0550947 0.15179618 -0.5904617 0.37107152 0.8998528 -0.18005389 -3.1572285 -0.8059855
0.40608907 0.14620046 1.7827417 2.0465019 -0.40412042 -1.6531194 -1.5830339 -0.2781788
1.1016841 -1.5440197 2.049703 -1.1242864 -0.0059444527 -1.0005821 0.56740344 0.18020189
-1.1698627 1.9702089 -0.5640347 -1.7159461 -0.67253274 -0.07796999 0.19046707 -0.6054812
-0.052454703 -0.26346 -1.0173581 0.7577002 0.48034373 -1.0355233 -0.22433572 0.56273305
0.45487598 1.725566 -0.03153799 -0.8412991 -2.1770856 -0.11684897 -0.40646446 2.2321603
-0.20231125 -0.68170166 0.94518024 -0.47540334 -1.0347694 -0.7903585 0.09793279 0.9698759
00000000: fc16 283f 255a 84be 52c8 d93e 2ed4 20bf
00000010: 03d1 a23f 7d70 0ec0 ab26 8e3f 3da3 bd3d
00000020: c25a 4b3e bac4 873f 7b5e 5c3e 8ab6 173f
00000030: dc1e 2e3f f445 eebc af17 7abf 6dee ab3e
00000040: 62a1 c23e 2e31 983f b13b 93bf 5698 bd3f
00000050: 99cc d1be cfcc db3f 9735 7dbf 2ca0 ad3f
00000060: f517 92be 7158 1c3f 8298 83be 985a 1b3f
00000070: 3136 4cbf f235 ffbe c0c9 4a3f 4bc5 1a3f
00000080: 8854 2fbd 8b5a aabf 93f1 b5be 76af 5a3f
00000090: c09f 0a3f d248 76be 7c40 3fbf 5428 693f
000000a0: 68d8 abbe 39bf 5c3f 6ee6 d1bf c731 5d3d
000000b0: a52a 2dbd 4bcd 513e f1de 1abf 5fbe e1be
000000c0: 365a 84be 2b18 03be 5b33 73bf fad2 20bf
000000d0: 6d3a 883f 5d77 05be 2083 bfbf dfca 943f
000000e0: 04e9 14be 74c5 7a3f e1d8 b93f 6837 ce3d
000000f0: 1c42 553f 0a9b 463f 7d60 4bbd 1976 07be
00000100: 57e0 fabe 1038 2abf 285f cabe d51b 013f
00000110: 0380 573f 4bd3 743e e13b b9bd 3630 20bf
00000120: f2b4 b03f 656f 9dbf 058f 03bf e8c5 203f
00000130: db82 2dbf 18a9 3ebe f5d7 b1bd 3957 fc3c
00000140: 324c 82be 1706 11bf cc1d 8bbf 48db 5abf
00000150: 0aea 5c3f 010c 95bf dca0 be3f ccde 38bc
00000160: 50fa f3be f643 e03f 6a18 e73e ab48 26be
00000170: 4c40 28bf 30f1 f33f 7948 fb3f 80f2 babd
00000180: 0665 0d40 b626 b7be 6a98 f4bf da19 d9be
00000190: be3e 103f d7d7 2a3f f7c2 01bf cc66 d33e
000001a0: 8e9a b13f c1f6 4abf d26e 5abf 2e92 c03f
000001b0: b560 aebf 4c99 c8bd d11a 9abd c4e9 d2be
000001c0: 74fc 803f 31ba 453e c698 eabe d741 ec3f
000001d0: a57e 06bf 0251 e8be e31d 61bf 33d6 873f
000001e0: 79cf b83f d601 863e dd32 603f 0bbb cf3f
000001f0: 8901 f1bc c6e8 cabe 7756 87bf 22f1 723f
00000200: 370c 063e 6125 a2bf a086 01bf 842e ddbe
00000210: f083 89bf ac97 ef3f 9206 913e d164 f53e
00000220: 7aeb 0fbe 115b dcbf ff71 b1bf 4949 2bbe
00000230: 07cb 843e d391 2dbf d623 01bf f36f f83e
00000240: 40e4 2040 2611 023c 8da2 013f 74cb 123f
00000250: 958d 1ebe 5375 eebf 8287 913f 199c 953e
00000260: 88d4 113c 9858 03bf da1c 8bbe 37a8 153f
00000270: 5e53 7d3f 6eea 3bbf a05a a7bd 156e c33e
00000280: 9732 723f 5346 4d3e 5872 6e3e 7155 98bf
00000290: 1b69 b83f 29be 29be 159c ad3d 0b70 f1bc
000002a0: b5fb b9bd 2cb4 9d3e 3803 e0bd b58d e33a
000002b0: 95dc 06bf a91f 1640 f603 04bf 28f2 9e3f
000002c0: 6ab0 4a3f c232 ac3e d4b6 cd3f 5053 7e3f
000002d0: 32db e23f 2804 893f 1146 a5bf cf91 eebe
000002e0: e627 15bf 3fca 58bf f575 75bf 4fb8 b0bf
000002f0: 4359 2e3f 981f 7d3e e5b8 c4be 97e3 49bf
00000300: ddd3 5bbf 5b0b cc3d 5458 d4bf 2f93 6b3c
00000310: 6498 a13e 1e78 1d3f c548 6e3f 37c3 5cbe
00000320: ac86 0340 7570 1b3e 7f28 17bf 16fd bd3e
00000330: c15c 663f 0c60 38be 0810 4ac0 1155 4ebf
00000340: e8ea cf3e 93b5 153e e130 e43f e3f9 0240
00000350: dfe8 cebe 6b99 d3bf dba0 cabf 746d 8ebe
00000360: fc03 8d3f 70a2 c5bf 552e 0340 9ee8 8fbf
00000370: afc9 c2bb 1313 80bf 5a41 113f d886 383e
00000380: 10be 95bf ce2f fc3f 9464 10bf 1fa4 dbbf
00000390: 1b2b 2cbf bbae 9fbd cd09 433e d100 1bbf
000003a0: beda 56bd 3be4 86be ca38 82bf a4f8 413f
000003b0: 9def f53e 078c 84bf 43b8 65be 460f 103f
000003c0: 81e5 e83e 59df dc3f fb2d 01bd 615f 57bf
000003d0: 5f55 0bc0 834e efbd 1c1c d0be b7db 0e40
000003e0: ae2a 4fbe 0084 2ebf 55f7 713f 1168 f3be
000003f0: 5373 84bf ef54 4abf fd90 c83d c949 783f

item_type_embedding.weight f4 [5, 8]
1.6595324 -1.1768812 2.5409648 0.12697037 -0.150877 0.89954394 -0.1642348 0.021687137
1.1820303 -1.0279735 1.8184023 -0.16654141 -1.2412622 -1.601289 1.4140913 1.2100848
0.4664804 -1.025349 0.16119601 -1.7788775 -0.99005616 -0.12402091 0.323873 -1.8685362
1.0542196 -0.26774943 1.6921431 0.67680067 3.1914375 0.7627598 0.5159684 -1.1249882
-1.8093148 0.9350061 -1.2732232 0.07593582 0.4985228 -0.101074435 0.7517003 -1.4481819
00000000: 8f6b d43f 0ba4 96bf 2b9f 2240 8504 023e
00000010: 807f 1abe 8348 663f 2b2d 28be 39a9 b13c
00000020: c54c 973f a394 83bf 68c1 e83f d589 2abe
00000030: aee1 9ebf 0af7 ccbf f200 b53f 0fe4 9a3f
00000040: 85d6 ee3e a33e 83bf 9110 253e 42b2 e3bf
00000050: 5274 7dbf adfe fdbd afd2 a53e 322c efbf
00000060: abf0 863f 7416 89be 2598 d83f cf42 2d3f
00000070: 8340 4c40 3a44 433f 8116 043f 9dff 8fbf
00000080: a197 e7bf 8f5c 6f3f faf8 a2bf 3d84 9b3d
00000090: 613e ff3e 1d00 cfbd 6e6f 403f 065e b9bf

item_temperature_embedding.weight f4 [7, 8]
-0.5399718 -0.65011275 -0.38164598 -2.3273356 -0.11364568 -1.8334211 1.0575302 -1.656035
0.39238775 1.1365756 -0.50120723 0.4295761 -0.69803697 0.4104196 -1.0255594 -1.146577
-0.85222155 1.5925076 1.2993839 -0.80340797 -0.07220512 -0.035672914 -1.2221407 -0.3923075
-0.9335229 0.19924998 -0.44345838 -0.45332444 -0.7964947 0.036932144 -0.45532832 1.4064305
-0.82286084 -0.593889 0.5510893 -0.59472513 0.07976478 1.3074118 0.8904907 0.43569246
0.67962277 -0.6502101 -0.51396567 -0.24260671 0.38523874 -0.82522243 1.6686628 1.6321764
-1.224441 0.19555658 -2.5425658 0.00020977204 -0.5092981 0.5620743 0.6468805 -0.6323582
00000000: 983b 0abf ca6d 26bf 1a67 c3be 11f3 14c0
00000010: 11bf e8bd 8bad eabf 265d 873f f4f8 d3bf
00000020: 0ce7 c83e 4f7b 913f 1e4f 00bf 66f1 db3e
00000030: 8db2 32bf 8522 d23e 8845 83bf 09c3 92bf
00000040: 312b 5abf 4ad7 cb3f 3652 a63f 25ac 4dbf
00000050: 47e0 93bd c31d 12bd 1b6f 9cbf 87dc c8be
00000060: 5bfb 6ebf 3008 4c3e fa0c e3be 241a e8be
00000070: 14e7 4bbf 2946 173d cb20 e9be ea05 b43f
00000080: 02a7 52bf 1c09 18bf 3014 0d3f e83f 18bf
00000090: b85b a33d 4559 a73f 33f7 633f 1513 df3e
000000a0: c2fb 2d3f 2b74 26bf 4193 03bf e56d 78be
000000b0: 033e c53e c741 53bf be96 d53f 28eb d03f
000000c0: 7cba 9cbf fc3f 483e 66b9 22c0 41f6 5b39
000000d0: 5c61 02bf 1ae4 0f3f f699 253f 3ae2 21bf

item_humidity_embedding.weight f4 [6, 8]
-0.7508115 0.5533474 0.19792971 -0.080521025 -1.3005344 -0.33339298 -1.6860658 0.29227003
-0.99453634 -0.2811124 0.61651534 -1.7236977 0.9396834 0.40786362 0.2610821 -0.26559725
-0.76807666 0.27626994 2.1855576 0.7852293 0.8390297 -0.5537203 2.1400237 -0.958626
1.1319087 1.065884 -2.1966593 -0.18727061 -0.63981205 -0.69408417 0.75149506 -0.45472583
-2.2971663 0.97306573 0.12006626 -1.1299247 1.738759 -1.9456109 -0.119445994 -0.7246243
-0.111368924 0.8334949 -0.3573634 -0.46379858 -0.36273503 0.40573654 1.2410979 0.6657855
00000000: 2f35 40bf 2da8 0d3f 16ae 4a3e 35e8 a4bd
00000010: e977 a6bf 7cb2 aabe 01d1 d7bf 6ba4 953e
00000020: ef99 7ebf f7ed 8fbe f3d3 1d3f 20a2 dcbf
00000030: 178f 703f 80d3 d03e 8eac 853e 5dfc 87be
00000040: aca0 44bf 4173 8d3e 2de0 0b40 ca04 493f
00000050: a7ca 563f 9dc0 0dbf 26f6 0840 8368 75bf
00000060: 62e2 903f e36e 883f 1196 0cc0 dec3 3fbe
00000070: b9ca 23bf 80af 31bf fb61 403f d3d1 e8be
00000080: c604 13c0 d61a 793f 4de5 f53d 5fa1 90bf
00000090: a88f de3f c709 f9bf 1aa0 f4bd fa80 39bf
000000a0: 6415 e4bd ec5f 553f 56f8 b6be 0277 edbe
000000b0: 68b8 b9be b3bc cf3e 4cdc 9e3f eb70 2a3f

item_windSpeed_embedding.weight f4 [5, 8]
1.7028404 0.7797007 -1.3243029 0.52329624 1.6488329 -0.21261398 -1.0316122 1.0451758
1.3647947 0.038584974 -0.79999995 -1.6558968 0.12727289 0.5217702 -0.06590635 -0.35263428
0.099593244 -0.6318408 1.1299219 0.75496024 -0.38501984 -2.175412 -0.5157161 1.9216752
-1.2677678 -0.83956206 1.0110575 0.029364686 1.0849122 1.8278491 -0.2772529 -0.6230058
-0.463501 2.3556826 0.0656847 -0.74411935 0.8408087 1.8151208 1.3287554 -0.8519434
00000000: adf6 d93f 779a 473f c282 a9bf bef6 053f
00000010: f50c d33f 7bb7 59be de0b 84bf 52c8 853f
00000020: 98b1 ae3f 470b 1e3d cccc 4cbf 6df4 d3bf
00000030: d353 023e bb92 053f e9f9 86bd 7b8c b4be
00000040: 8bf7 cb3d 52c0 21bf 48a1 903f 1345 413f
00000050: 5221 c5be f339 0bc0 f805 04bf 74f9 f53f
00000060: 3746 a2bf 8aed 56bf 556a 813f 368e f03c
00000070: 67de 8a3f f6f6 e93f 18f4 8dbe 4f7d 1fbf
00000080: 0150 edbe 81c3 1640 b385 863d 9b7e 3ebf
00000090: 3d3f 573f e155 e83f a814 aa3f f618 5abf

GCN_Layers.0.W1.weight f4 [64, 64]
-0.10808216 -0.04346039 -0.0984364 -0.12582915 0.119147524 0.03478463 0.028887361 -0.035828423
-0.042167418 0.117908604 -0.009700413 0.09917991 -0.015057152 0.070638955 -0.10954434 -0.028416326
-0.059900947 -0.023607772 -0.005816018 0.02562127 -0.022161158 0.021193769 -0.077360354 0.10229247
0.11006973 -0.07709081 -0.048015714 -0.09131979 -0.11344174 -0.056477226 -0.12301275 -0.06133511
-0.07590526 -0.12482456 -0.052398417 0.071211904 -0.07876382 -0.037916034 -0.091828465 0.07479162
-0.05538891 0.065252215 -0.10393901 -0.01271562 0.1209634 0.06799638 -0.013457014 -0.008920864
-0.110126995 -0.05475213 0.028962435 0.011391764 -0.12088037 0.01342443 -0.033086006 0.10020568
0.11723502 -0.0048747645 -0.03755858 0.0076827775 -0.08453272 -0.081182726 0.023847613 0.024196783
0.060062263 -0.09920319 0.059803102 -0.09624377 -0.06391641 0.03278198 0.08995229 0.0069524106
0.06662296 0.06941429 0.026306119 -0.02966074 -0.09792525 -0.020015996 -0.0230714 -0.070537835
-0.052758913 -0.02927117 0.03263951 -0.05234422 -0.044485305 0.060126122 0.07390761 -0.084860034
0.05415174 0.06902506 -0.09824164 0.043641515 0.10663671 0.06992615 -0.014392514 -0.12138867
0.060882255 0.09205131 0.04810093 -0.003176211 -0.039523773 -0.0969627 -0.08957136 0.00053199264
0.028546434 0.09981916 0.10144005 -0.0632839 -0.026928172 0.12495156 -0.02993626 0.037530877
-0.044340428 0.065217674 -0.05649559 -0.12067996 0.0042894627 -0.08384305 -0.056857727 0.08255956
0.091786735 -0.049038704 0.09234341 0.0034955174 0.088512875 -0.12616953 0.07969679 -0.03441618
0.011007067 0.09859332 -0.002437492 -0.013903398 -0.10446922 -0.045712445 -0.122573785 -0.1156241
0.08459507 -0.06821151 0.05761214 0.043497864 0.088957824 0.08462688 -0.028948994 -0.042149507
0.016779665 -0.08699674 -0.038118564 -0.002278371 -0.036561437 0.0361027 0.01869439 -0.047841873
0.0522616 0.03003783 0.056145184 -0.1193524 0.10213863 0.05910219 -0.029701546 0.12801623
0.10905006 0.01325217 -0.09042874 0.0635283 -0.05135197 -0.08697611 -0.023122638 -0.10132207
-0.036587767 0.028802866 0.013726419 0.11171639 -0.010033979 -0.11901721 0.122394085 -0.05029735
-0.0033566465 0.089936495 -0.10138958 -0.044537704 -0.012162346 -0.07296046 0.09701312 0.05691823
-0.05146432 -0.01580421 -0.022657594 0.033757698 0.09094101 -0.10246321 0.098231174 0.08626388
0.022642558 -0.017052822 -0.014096101 -0.046853393 0.08300308 -0.098944 0.010076105 -0.06902126
-0.041694704 -0.049270887 -0.123742685 -0.061953347 0.11085672 -0.1286955 -0.058172178 0.110079795
-0.06548346 0.03780667 0.1088906 0.036670737 -0.07343599 0.057746686 0.06557285 -0.048245948
-0.0063983193 0.10492029 0.017943118 0.075256795 -0.0016452201 -0.05861963 -0.12568372 0.08849906
0.08646279 0.06306806 -0.021645349 -0.03619441 0.0021522932 0.08398358 0.119966134 -0.04322042
0.050016608 -0.07711176 -0.06963067 -0.09544903 -0.11515694 0.030876322 0.015543084 -0.11849444
-0.03885564 -0.009930927 0.024973549 -0.10323114 -0.11345616 -0.025885304 0.05432471 0.0012759133
-0.12529783 -0.01258533 -0.035334326 -0.100774124 0.09115235 0.0067846295 0.081741236 -0.014866152
00000000: 2e5a ddbd 8603 32bd 0699 c9bd 5bd9 00be
00000010: 9e03 f43d 547a 0e3d 30a5 ec3c d3c0 12bd
00000020: beb7 2cbd 117a f13d 7bee 1ebc d61e cb3d
00000030: 46b2 76bc 28ab 903d c858 e0bd 5bc9 e8bc
00000040: b25a 75bd 1665 c1bc 4c94 bebb b3e3 d13c
00000050: 518b b5bc 8e9e ad3c 1b6f 9ebd b77e d13d
00000060: 3d6c e13d c9e1 9dbd 20ac 44bd df05 bbbd
00000070: 2554 e8bd aa54 67bd 1cee fbbd 863a 7bbd
00000080: 3874 9bbd 05a4 ffbd b99f 56bd 8cd7 913d
00000090: ed4e a1bd d84d 1bbd 9010 bcbd 592c 993d
000000a0: 7bdf 62bd f4a2 853d fadd d4bd 2d55 50bc
000000b0: a9bb f73d b041 8b3d cf7a 5cbc d128 12bc
000000c0: 438a e1bd c543 60bd a142 ed3c 85a4 3a3c
000000d0: 2190 f7bd 24f2 5b3c 3185 07bd a338 cd3d
000000e0: ea18 f03d 7dbc 9fbb 07d7 19bd cfbf fb3b
000000f0: 7e1f adbd 2143 a6bd 125c c33c 5538 c63c
00000100: d903 763d 0b2b cbbd 19f4 743d 741b c5bd
00000110: 9be6 82bd 6646 063d e838 b83d 0cd1 e33b
00000120: 9e71 883d 1429 8e3d ee7f d73c 15fb f2bc
00000130: 098d c8bd 96f8 a3bc 3c00 bdbc 2476 90bd
00000140: bb19 58bd 18ca efbc 02b1 053d e566 56bd
00000150: 3936 36bd cf46 763d df5c 973d 19cb adbd
00000160: 37ce 5d3d 035d 8d3d ea32 c9bd 72c1 323d
00000170: 5964 da3d 7135 8f3d 94ce 6bbc 9f9a f8bd
00000180: ac5f 793d 6685 bc3d 7b05 453d fa27 50bb
00000190: aee3 21bd 6194 c6bd 3071 b7bd 6c75 0b3a
000001a0: 36da e93c fd6d cc3d cdbf cf3d fd9a 81bd
000001b0: 7898 dcbc 9ae6 ff3d e33c f5bc fab9 193d
000001c0: 4f9e 35bd d890 853d eb67 67bd 0e27 f7bd
000001d0: 9f8e 8c3b e8b5 abbd a6e3 68bd fd14 a93d
000001e0: affa bb3d cfdc 48bd 8b1e bd3d 0d15 653b
000001f0: 3d46 b53d 9632 01be 1238 a33d fbf7 0cbd
00000200: fc56 343c 4beb c93d 54be 1fbb 14cb 63bc
00000210: f5f3 d5bd f93c 3bbd f707 fbbd 54cc ecbd
00000220: 2e40 ad3d 7ab2 8bbd b5fa 6b3d d12a 323d
00000230: 852f b63d dc50 ad3d 7126 edbc f6a4 2cbd
00000240: 8275 893c 592b b2bd 3622 1cbd b950 15bb
00000250: 72c1 15bd 6de0 133d fa24 993c d7f5 43bd
00000260: 4210 563d e511 f63c 7ef8 653d 086f f4bd
00000270: 0f2e d13d 2315 723d a850 f3bc b016 033e
00000280: a355 df3d a11f 593c b432 b9bd 201b 823d
00000290: 7156 52bd 8820 b2bd b06b bdbc f281 cfbd
000002a0: 0edd 15bd fdf3 eb3c c6e4 603c 90cb e43d
000002b0: 8f65 24bc 4cbf f3bd c0a9 fa3d 9804 4ebd
000002c0: 2ffb 5bbb a030 b83d 57a5 cfbd 2b6d 36bd
000002d0: 9444 47bc 4b6c 95bd d1ae c63d 1723 693d
000002e0: 40cc 52bd d577 81bc 6b9c b9bc 8345 0a3d
000002f0: 483f ba3d 3bd8 d1bd 6d2d c93d 1eab b03d
00000300: e37c b93c 5cb2 8bbc 55f3 66bc 58e9 3fbd
00000310: 85fd a93d 27a3 cabd 3f16 253c 055b 8dbd
00000320: 11c8 2abd 45d0 49bd ce6c fdbd cbc2 7dbd
00000330: d908 e33d c1c8 03be f345 6ebd 8471 e13d
00000340: 311c 86bd 2bdb 1a3d 0902 df3d 0e34 163d
00000350: 9c65 96bd ca87 6c3d 0f4b 863d 8b9d 45bd
00000360: fea8 d1bb 73e0 d63d 72fd 923c 3c20 9a3d
00000370: 6da4 d7ba 231b 70bd 3cb3 00be ff3e b53d
00000380: 6713 b13d d429 813d 9651 b1bc 9740 14bd
00000390: 7d0d 0d3b 95ff ab3d ceb0 f53d e507 31bd
000003a0: 37de 4c3d c5ec 9dbd 869a 8ebd c87a c3bd
000003b0: 67d7 ebbd 57f0 fc3c 6ba8 7e3c 37ad f2bd
000003c0: 1727 1fbd 54b5 22bc 5495 cc3c d96a d3bd
000003d0: b45b e8bd 6b0d d4bc 9683 5e3d 8c3c a73a
000003e0: 134e 00be b332 4ebc baba 10bd aa62 cebd
000003f0: 15ae ba3d 9951 de3b f367 a73d 2991 73bc

GCN_Layers.0.W1.bias f4 [64]
0.035813652 -0.00640343 0.013612927 -0.029229835 0.02005326 -0.048423827 0.015034953 0.11894784
0.09732196 -0.105788544 -0.12410585 0.03252067 -0.10233171 0.07500546 0.12526748 -0.03837285
0.0045024687 0.10759221 0.12352824 0.065125115 -0.058552727 -0.085014425 -0.023751318 -0.043220628
-0.04379604 0.07848458 -0.017239844 -0.098954044 0.025115047 0.054970473 -0.052074157 0.08873286
0.04867633 -0.024604954 0.016649006 -0.116762556 -0.047930103 -0.058449112 -0.11617243 0.021992978
-0.010960951 0.06181648 -0.09990037 -0.00952471 0.049239226 -0.09545436 -0.03808993 -0.049436253
0.122427255 0.08634955 -0.07118421 0.034111254 0.01591958 0.045239393 0.007990234 0.045979172
-0.09696803 -0.08211944 -0.10447461 -0.10830758 0.080742195 -0.032222543 0.023915583 -0.06654212
00000000: 56b1 123d ddd3 d1bb c108 5f3c 6873 efbc
00000010: bc46 a43c 1058 46bd 2a55 763c ed9a f33d
00000020: bc50 c73d aaa7 d8bd 352b febd 6534 053d
00000030: 4a93 d1bd 769c 993d 1e46 003e d92c 1dbd
00000040: 7289 933b 4e59 dc3d 60fc fc3d 5160 853d
00000050: fcd4 6fbd 0b1c aebd 2092 c2bc 1d08 31bd
00000060: 7a63 33bd 86bc a03d 933a 8dbc 6ba8 cabd
00000070: 12be cd3c b828 613d b64b 55bd 93b9 b53d
00000080: d560 473d 5490 c9bc 7f63 883c 3521 efbd
00000090: 5b52 44bd 5668 6fbd d0eb edbd 9e2a b43c
000000a0: 9095 33bc 4733 7d3d 9198 ccbd 870d 1cbc
000000b0: 12af 493d 937d c3bd 3004 1cbd ab7d 4abd
000000c0: 24bb fa3d 08d8 b03d 07c9 91bd 3eb8 0b3d
000000d0: c769 823c f14c 393d 78e9 023c a854 3c3d
000000e0: 2d97 c6bd 3d2e a8bd c9f6 d5bd 5dd0 ddbd
000000f0: 2a5c a53d c9fb 03bd 9dea c33c 3c47 88bd

GCN_Layers.0.W2.weight f4 [64, 64]
-0.06582628 0.110525735 0.12102057 0.024341105 0.09704192 -0.06348567 0.07700667 -0.112568825
0.001425355 -0.08076663 0.09494499 -0.08207763 0.05819245 0.11470973 -0.10226395 -0.04196118
0.030381931 -0.087656274 -0.097067714 0.11335662 0.10976161 0.07915396 0.035654455 -0.119376004
-0.101688966 0.042184588 -0.118647255 0.080671094 0.067062445 -0.038819723 0.12567219 -0.06470102
0.12054341 -0.0603531 0.118432306 0.016254183 0.018856302 0.1197253 -0.004846421 0.064576246
-0.008652513 -0.0028488936 -0.05753453 -0.012700494 -0.06345195 0.0010802989 -0.017728535 0.041961458
-0.008497515 -0.076582946 0.08750004 -0.016314898 -0.06991318 -0.060016852 0.0705008 0.10307482
0.029378688 -0.09068994 0.060262706 -0.043121926 0.12431921 0.052306302 0.12381875 0.058309957
-0.031777974 0.05563507 0.11244399 0.034610845 -0.028859956 -0.02186972 -0.06139626 -0.07063332
-0.09104167 -0.012338409 0.018101662 0.0452473 0.091823846 0.009281155 0.058734607 0.09386596
-0.07431991 0.074238166 -0.017415859 0.024659317 0.039409492 -0.07353002 0.043011166 -0.054345477
0.009545693 -0.04775196 -0.04320609 -0.04244769 0.09869886 -0.008954723 -0.011540982 0.06286414
0.0410896 -0.114546396 -0.11643037 -0.0068394714 -0.00039066415 0.0338887 0.015113716 0.037769396
0.07955486 0.102673024 0.10191964 0.06472259 0.11037572 -0.11665177 -0.0028418032 0.11020633
-0.03206701 -0.026262118 -0.07255924 -0.023833739 0.032940846 0.07274146 0.018701417 0.0019161581
-0.05731735 0.10200506 -0.069307424 -0.001241141 -0.029781 -0.084478915 -0.026349302 0.034103334
0.060855772 0.11962929 0.060017947 -0.08796654 0.008849957 -0.04293043 -0.07685401 0.00053343555
0.09421645 0.0041477703 -0.12126742 -0.11027187 -0.043962404 0.040450606 0.108006805 -0.01657318
0.11768456 0.01571537 0.06696005 0.09388243 0.03691845 -0.11377453 -0.035753895 0.10050194
-0.0437101 -0.03911305 0.09124187 0.05504276 0.06020288 -0.042822044 -0.061202448 -0.002090569
0.089187875 -0.0486463 -0.040003233 -0.09857477 -0.0033771717 0.07618293 0.07334099 -0.101798885
0.01974027 0.03141441 -0.023949312 0.031994227 -0.08495085 -0.013953211 0.045575827 0.034380905
-0.07884515 -0.047600877 0.061083995 0.05079886 0.049119245 -0.016341772 0.113194585 0.031965267
0.056111068 -0.03611003 0.123465054 0.0662865 -0.090365686 0.08718015 0.108328715 -0.05496022
-0.042568386 -0.013475451 0.110627614 0.095893964 -0.025429258 0.09479449 0.11311748 -0.030786619
0.015481371 -0.075684726 -0.104031265 0.07301381 -0.014428459 0.08463714 0.12020439 0.11802066
0.039308265 -0.043252848 -0.0029748983 -0.11310365 0.12540852 0.040654693 -0.063666575 -0.10593003
0.11673817 -0.036660917 0.0017798143 -0.067637615 -0.11762215 0.015008095 0.054570105 -0.103867434
-0.046260573 -0.0778355 0.020385917 -0.0414077 -0.0070063416 -0.05141001 0.044842523 -0.061402053
-0.07545496 0.07433182 0.074801356 0.056889117 -0.007317138 0.02671196 0.1207873 -0.091640204
-0.026405388 0.026200201 -0.08242624 -0.107543275 0.04277165 -0.0013010725 -0.073545694 0.041215274
-0.10472504 -0.078065254 -0.0773625 0.06838853 -0.019217107 0.11522205 -0.11270015 -0.12400648
00000000: eecf 86bd 515b e23d a2d9 f73d ff66 c73c
00000010: eabd c63d c604 82bd acb5 9d3d 7c8a e6bd
00000020: fad2 ba3a fa68 a5bd 8572 c23d 5118 a8bd
00000030: 355b 6e3d efec ea3d c36f d1bd 7cdf 2bbd
00000040: 87e3 f83c 2285 b3bd 70cb c6bd 8427 e83d
00000050: b2ca e03d 791b a23d 680a 123d 687b f4bd
00000060: 4e42 d0bd bfc9 2c3d 55fd f2bd e336 a53d
00000070: 0958 893d 6e01 1fbd 36b0 003e f881 84bd
00000080: 77df f63d d034 77bd a38c f23d 7e27 853c
00000090: 8878 9a3c 8a32 f53d bace 9ebb 8d40 843d
000000a0: 45c3 0dbc 81b4 3abb 54a9 6bbd bc15 50bc
000000b0: 19f3 81bd d198 8d3a 6f3b 91bc c7df 2b3d
000000c0: 2939 0bbc 85d7 9cbd 3933 b33d d2a6 85bc
000000d0: a42e 8fbd 3bd4 75bd b962 903d e418 d33d
000000e0: 93ab f03c a6bb b9bd 07d6 763d 9ea0 30bd
000000f0: 129b fe3d 223f 563d af94 fd3d 6cd6 6e3d
00000100: 9f29 02bd 99e1 633d 0949 e63d 1ac4 0d3d
00000110: b76b ecbc 2128 b3bc a57a 7bbd 34a8 90bd
00000120: 0e74 babd 0a27 4abc f049 943c 3c55 393d
00000130: 240e bc3d fc0f 183c b393 703d cc3c c03d
00000140: 0935 98bd 2e0a 983d b4ab 8ebc 5602 ca3c
00000150: d96b 213d e896 96bd 7a2c 303d 5d99 5ebd
00000160: 8a65 1c3c 8f97 43bd def8 30bd a1dd 2dbd
00000170: a122 ca3d d5b6 12bc 6316 3dbc eabe 803d
00000180: 924d 283d 4d97 eabd 0c73 eebd a51d e0bb
00000190: 0ed2 ccb9 e1ce 0a3d 859f 773c 15b4 1a3d
000001a0: a9ed a23d 3c46 d23d 3fbb d03d 478d 843d
000001b0: aa0c e23d 20e7 eebd 8c3d 3abb dbb3 e13d
000001c0: b258 03bd a723 d7bc f099 94bd f93e c3bc
000001d0: fbec 063d 79f9 943d b733 993c 9927 fb3a
000001e0: 99c5 6abd 07e8 d03d 0df1 8dbd c8ad a2ba
000001f0: 49f7 f3bc 4803 adbd 7eda d7bc f0af 0b3d
00000200: e743 793d 3400 f53d 61d5 753d cd27 b4bd
00000210: 69ff 103c d2d7 2fbd a365 9dbd 41d6 0b3a
00000220: 8ef4 c03d 05ea 873b 0e5b f8bd 38d6 e1bd
00000230: ec11 34bd 89af 253d ac32 dd3d 7ac4 87bc
00000240: 9a04 f13d 85bd 803c 5a22 893d 6e45 c03d
00000250: cd37 173d 9f02 e9bd ad72 12bd f6d3 cd3d
00000260: 5d09 33bd 0135 20bd 04dd ba3d 8474 613d
00000270: 4c97 763d 2b66 2fbd 6baf 7abd ed01 09bb
00000280: 22a8 b63d 5841 47bd 6eda 23bd 92e1 c9bd
00000290: 8a53 5dbb cc05 9c3d cd33 963d ef7b d0bd
000002a0: 59b6 a13c 65ac 003d 5931 c4bc 610c 033d
000002b0: b6fa adbd 029c 64bc b8ad 3a3d fed2 0c3d
000002c0: 9179 a1bd 23f9 42bd 3633 7a3d 7712 503d
000002d0: 4331 493d 2edf 85bc 90d2 e73d 03ee 023d
000002e0: b8d4 653d 1ce8 13bd 3fdb fc3d 37c1 873d
000002f0: a511 b9bd 828b b23d 72db dd3d f81d 61bd
00000300: 305c 2ebd 23c8 5cbc bb90 e23d 0e64 c43d
00000310: 0551 d0bc 9d23 c23d 23aa e73d 3834 fcbc
00000320: 94a5 7d3c 9800 9bbd 580e d5bd 4488 953d
00000330: 5865 6cbc 3d56 ad3d b82d f63d d1b4 f13d
00000340: b401 213d e629 31bd 83f6 42bb e3a2 e7bd
00000350: 176b 003e 8985 263d 9f63 82bd d8f1 d8bd
00000360: 6c14 ef3d c229 16bd a848 e93a 9785 8abd
00000370: e2e3 f0bd 83e4 753c e784 5f3d 73b8 d4bd
00000380: ba7b 3dbd 3868 9fbd 5e00 a73c 1f9b 29bd
00000390: 7495 e5bb 4d93 52bd cbac 373d b880 7bbd
000003a0: 2188 9abd 483b 983d 7431 993d 9004 693d
000003b0: 9ac4 efbb 0ad3 da3c 555f f73d dcad bbbd
000003c0: 1d50 d8bc cea1 d63c 17cf a8bd a63f dcbd
000003d0: 5331 2f3d c088 aaba 209f 96bd 59d1 283d
000003e0: 157a d6bd ade0 9fbd 3b70 9ebd 490f 8c3d
000003f0: 326d 9dbc 8af9 eb3d 56cf e6bd 1cf7 fdbd

GCN_Layers.0.W2.bias f4 [64]
-0.07305757 -0.043555744 -0.10241347 0.081252664 -0.032294344 0.019755961 -0.111531645 -0.020075632
-0.024336647 -0.0014630585 -0.11842373 -0.09995758 0.08554807 0.026321458 -0.0058292383 0.002338511
-0.05436707 -0.07961543 -0.045265198 -0.016779765 0.10506912 -0.12633274 0.104035124 0.07123981
0.1175187 -0.05293747 0.08088617 -0.09095245 -0.024085244 0.018245345 0.009075482 0.012846641
-0.07121793 -0.0033035586 -0.021529034 0.004503781 -0.082305335 0.051116176 0.12776762 -0.014014843
-0.099894606 0.007858276 -0.0625637 0.099749774 0.05278985 0.022450991 -0.0071319225 -0.016658455
-0.07260272 -0.09589723 0.09991527 -0.013816687 0.0014140788 -0.068782054 0.060872443 0.06354976
-0.07405117 0.12243574 0.0580026 -0.056434587 -0.114571325 0.084133714 0.002640714 -0.065640494
00000000: 359f 95bd 8267 32bd 27be d1bd cc67 a63d
00000010: 1347 04bd 41d7 a13c b46a e4bd a775 a4bc
00000020: a65d c7bc 19c4 bfba 2488 f2bd 8fb6 ccbd
00000030: d433 af3d 19a0 d73c 3203 bfbb b441 193b
00000040: 01b0 5ebd 6a0d a3bd 0068 39bd b875 89bc
00000050: 7b2e d73d 5f5d 01be 5e10 d53d 2de6 913d
00000060: a5ad f03d f6d4 58bd a6a7 a53d 4745 babd
00000070: 6b4e c5bc 4377 953c 55b1 143c b87a 523c
00000080: b5da 91bd 8480 58bb a85d b0bc 7494 933b
00000090: b38f a8bd 325f 513d 84d5 023e 839e 65bc
000000a0: 8b95 ccbd 00c0 003c 6621 80bd 9c49 cc3d
000000b0: 2b3a 583d 24eb b73c e7b2 e9bb 5077 88bc
000000c0: bcb0 94bd c465 c4bd 61a0 cc3d 635f 62bc
000000d0: 9c58 b93a 9bdd 8cbd 6255 793d 6026 823d
000000e0: 24a8 97bd 97bf fa3d 2294 6d3d f427 67bd
000000f0: 5fa4 eabd 4c4e ac3d d40f 2d3b 866e 86bd

GCN_Layers.1.W1.weight f4 [64, 64]
0.1069078 -0.117780745 0.028497515 0.028534204 -0.0382548 0.09235714 -0.019161636 0.11364689
-0.09145924 -0.035583854 0.10368585 -0.009019133 0.06345265 -0.10218257 0.11270858 -0.051489312
0.018090531 -0.106699236 -0.053276576 -0.0060591004 0.0020818082 -0.08306518 -0.03432587 -0.07889245
-0.102326475 0.12067429 -0.020922028 -0.10455595 -0.06944757 0.029006097 -0.08482975 0.11166301
0.053574253 -0.065745056 -0.010699509 -0.09029194 -0.00980497 0.07797658 0.061010145 -0.027440088
0.04374345 -0.08492824 0.09807658 0.04312506 0.047570784 -0.049293984 0.0021659643 -0.10511879
0.113299586 0.09123104 -0.022320058 0.0077310815 0.11073368 0.01261359 -0.01152064 -0.0266935
0.122235216 -0.062147338 -0.07213362 -0.03204801 0.01652858 0.030660061 0.05723969 -0.07267468
0.056579478 -0.032260217 0.047548864 -0.033016443 -0.118015334 -0.012741737 -0.016602224 -0.114470765
-0.027980208 -0.008227648 -0.009063924 -0.001980118 -0.048350677 0.022304405 0.067033194 0.033425104
0.09333805 0.0017006099 -0.11912396 0.087315224 -0.044049308 -0.05754577 0.08874757 0.06979579
0.08319125 0.037274353 -0.0896748 0.0852147 0.10341298 -0.02105147 -0.1130008 -0.04598315
-0.011704279 0.07638386 0.002606151 0.06756 -0.06066572 0.021065325 0.11763712 0.047422923
-0.0114272 -0.011417979 -0.0977496 0.093689114 0.051084958 -0.040227596 -0.022297371 -0.065932296
0.021532219 -0.119448036 -0.03726819 0.0071389982 -0.042480454 0.051685147 0.048173103 0.028828284
0.10404544 0.028073177 -0.058624413 -0.064885974 0.005745962 0.043823015 0.096660905 0.0021267682
0.08820528 0.04788208 -0.02756144 -0.013099096 -0.055673875 0.117337085 0.063940965 0.035795532
0.10639948 -0.008494158 0.068215236 0.09167382 0.119985886 0.051213395 -0.054446407 0.008213108
-0.0392278 0.07553481 0.09402175 0.021863876 -0.043009218 -0.08053368 -0.012344628 -0.118111044
0.1222721 -0.023919396 0.0030528738 0.036199514 0.077794805 -0.030126639 0.10830402 -0.04714845
0.0049562454 0.09357766 -0.005587107 -0.028063329 0.08151019 -0.10474294 -0.1045326 0.06309784
-0.007402891 0.009621609 -0.035454746 0.08466826 0.04106689 -0.07513918 0.0073822294 0.0454261
-0.090592235 -0.0900224 -0.09611053 -0.056290243 0.09698229 0.10453852 -0.11138092 0.0036210215
-0.01332092 0.07183737 -0.0110267205 0.11782749 0.11449979 0.054603882 0.12035318 -0.065105595
0.054779753 -0.09799997 0.0585593 -0.06035109 0.060153436 -0.014742446 0.067451134 -0.07956676
-0.056449145 0.048199013 0.11091803 -0.07161157 0.056791104 -0.05244522 -0.11735883 0.029687943
0.09248408 -0.12707566 -0.116913356 0.060243804 0.082176484 -0.102237545 -0.06940824 -0.02083945
-0.017110987 0.06735932 0.11511424 0.00867975 -0.09846471 0.06172238 -0.044011604 -0.029305905
0.008491435 -0.06252801 0.037863933 -0.04777168 0.08678701 0.040242914 0.08161983 0.10972619
-0.06591467 -0.02901506 -0.030680636 -0.08160671 0.109815024 0.0786528 -0.09882558 0.06726335
0.06441917 -0.090784185 -0.037955727 -0.10941707 -0.03241275 0.08578904 0.016838428 -0.05874188
0.056495424 0.08450096 0.09821661 -0.07052618 0.07937975 -0.008127312 -0.0037185552 -0.00075546314
00000000: 7af2 da3d 0837 f1bd 9f73 e93c 90c0 e93c
00000010: 11b1 1cbd bd25 bd3d ddf8 9cbc b3bf e83d
00000020: fb4e bbbd 60c0 11bd 3f59 d43d fcc4 13bc
00000030: 77f3 813d 1845 d1bd c2d3 e63d 75e6 52bd
00000040: 9832 943c 2185 dabd 8a38 5abd 6b8b c6bb
00000050: f26e 083b 141e aabd 4999 0cbd 5d92 a1bd
00000060: 8b90 d1bd 1524 f73d ac64 abbc 6e21 d6bd
00000070: 873a 8ebd 329e ed3c 38bb adbd 94af e43d
00000080: ad70 5b3d 58a5 86bd fe4c 2fbc fbea b8bd
00000090: 06a5 20bc 2fb2 9f3d c6e5 793d 09ca e0bc
000000a0: 552c 333d dbee adbd 60dc c83d e7a3 303d
000000b0: 95d9 423d 7de8 49bd daf2 0d3b 8548 d7bd
000000c0: 9d09 e83d 57d7 ba3d 8ed8 b6bc 0355 fd3b
000000d0: 57c8 e23d 3ba9 4e3c 11c1 3cbc 54ac dabc
000000e0: 7556 fa3d 358e 7ebd cbba 93bd c644 03bd
000000f0: f266 873c cf2a fb3c 2a74 6a3d 76d6 94bd
00000100: e2bf 673d 4a23 04bd 99c2 423d 403c 07bd
00000110: 06b2 f1bd b8c2 50bc 6301 88bc a66f eabd
00000120: c036 e5bc 42cd 06bc da80 14bc dec4 01bb
00000130: 5c0b 46bd bab7 b63c b348 893d c3e8 083d
00000140: 0528 bf3d 00e7 de3a 43f7 f3bd 53d2 b23d
00000150: 0c6d 34bd 1db5 6bbd 49c1 b53d 18f1 8e3d
00000160: 2d60 aa3d feac 183d 6ca7 b7bd 0b85 ae3d
00000170: 2fca d33d 2274 acbc f76c e7bd d458 3cbd
00000180: 4ec3 3fbc 246f 9c3d f5cb 2a3b e65c 8a3d
00000190: 9e7c 78bd 3091 ac3c bbeb f03d 8a3e 423d
000001a0: 2739 3bbc 7a12 3bbc f130 c8bd 14e0 bf3d
000001b0: 763e 513d b1c5 24bd faa8 b6bc 8307 87bd
000001c0: 5664 b03c 2ca1 f4bd 88a6 18bd 42ee e93b
000001d0: fcff 2dbd ceb3 533d 2951 453d 4b29 ec3c
000001e0: c715 d53d b8f9 e53c 2720 70bd f0e2 84bd
000001f0: 9f48 bc3b c37f 333d 27f6 c53d 4061 0b3b
00000200: f8a4 b43d 0020 443d 87c8 e1bc 979d 56bc
00000210: 4a0a 64bd 6d4e f03d 7bf3 823d 569e 123d
00000220: f8e7 d93d 152b 0bbc 6eb4 8b3d 7cbf bb3d
00000230: 29bb f53d 23c5 513d 3203 5fbd 4690 063c
00000240: 54ad 20bd ffb1 9a3d 7a8e c03d df1b b33c
00000250: 6f2a 30bd d8ee a4bd 1f41 4abc 34e4 f1bd
00000260: cb69 fa3d 9cf2 c3bc b912 483b f145 143d
00000270: e252 9f3d 24cc f6bc 7fce dd3d bc1e 41bd
00000280: 0068 a23b a5a5 bf3d 0d14 b7bb 11e5 e5bc
00000290: d1ee a63d 7783 d6bd 3015 d6bd 7139 813d
000002a0: f393 f2bb f4a3 1d3c ff38 11bd 8d66 ad3d
000002b0: c135 283d 92e2 99bd a1e6 f13b b810 3a3d
000002c0: 6c88 b9bd aa5d b8bd 99d5 c4bd 9990 66bd
000002d0: a79e c63d 4b18 d63d ae1b e4bd a94e 6d3b
000002e0: fd3f 5abc 791f 933d 6ba9 34bc 8a4f f13d
000002f0: de7e ea3d 52a8 5f3d ba7b f63d 1556 85bd
00000300: bc60 603d 35b4 c8bd e0db 6f3d b432 77bd
00000310: 7363 763d 4d8a 71bc d223 8a3d e6f3 a2bd
00000320: 3837 67bd 546c 453d fe28 e33d 16a9 92bd
00000330: ca9d 683d cdd0 56bd d459 f0bd 2134 f33c
00000340: 4b68 bd3d 1f20 02be 4570 efbd 35c2 763d
00000350: 254c a83d eb61 d1bd e825 8ebd 7fb7 aabc
00000360: 572c 8cbc aff3 893d 04c1 eb3d 8335 0e3c
00000370: dea7 c9bd 9bd0 7c3d 8345 34bd f012 f0bc
00000380: a91f 0b3c af0e 80bd 3617 1b3d 3dac 43bd
00000390: 63bd b13d c1d5 243d 4c28 a73d 20b8 e03d
000003a0: 45fe 86bd feb0 edbc f555 fbbc 6b21 a7bd
000003b0: b3e6 e03d b814 a13d 1165 cabd 5ec1 893d
000003c0: 33ee 833d 0fed b9bd 7777 1bbd 0f16 e0bd
000003d0: 3bc3 04bd 2ab2 af3d bef0 893c 539b 70bd
000003e0: bf67 673d d70e ad3d ca25 c93d 0870 90bd
000003f0: da91 a23d 6b28 05bc 01b3 73bb 460a 46ba
