lab4-student/code/model/bestModelParms-11-14-11-47.pth (torch, 498345 bytes, 20 tensors)

user_id_embedding.weight f4 [900, 32]
00000000: a862 a33e f918 a43c 94f5 9a3c 04b0 39bd
00000010: 43f4 9bbb a45a 953c dd3f 29be a75b 393c
00000020: de9a ff3a 110f 8e3c 4ae7 71bb 70de c9bb
00000030: 04e7 18bd 962b ba3a 867b 69bd dce7 6ebd
00000040: cf1f ccbe 3226 06bd 5356 8eba 3be5 95bc
00000050: 303d 4b3d 508b 963c fe9f abbc c023 2dbe
00000060: a804 8a3b 609d f4bb 6663 3ebc adcb 4fbb
00000070: 9ae1 a6bc 97e1 a83c 0269 86bb 541f cbbc
00000080: d2aa b43b 064a 773d 915f 8e3c 1f81 83b9
00000090: f825 febb d0c4 23bd 04d0 b83b c05c f13b
000000a0: 7b30 823b 200c d43b bccf bf3c ceb0 093b
000000b0: 7844 7ebc 3e9a fcbb 4ade e13a e406 0e3a
000000c0: 859f 95bc fa03 aebc f62a b3bb afcf ae3b
000000d0: 74fd 8ebb 8afd 573c dfbe 66ba 62e4 b43e
000000e0: b957 2cbf 5ab1 333e 7094 65bd 271c 8f3b
000000f0: 8a7c debb d548 c53e ea9c 1e3c 5cce 01bc
00000100: e7d0 b23c 0e75 5abc 48d8 153c c395 a1bc
00000110: 12e8 30bc 8656 a63d 42f9 9f3c 5ea5 3b3d
00000120: 0560 423e f3d8 a9bb 3fbe 3abd ba6c f9ba
00000130: 776c 93be 9502 4bbc b36c aebc cf58 07bd
00000140: 07b7 b53c 35e9 a8b9 2df3 4cbe 9788 3aba
00000150: 3614 813d 4824 8d3d ce6d 5cbd be9d 9fbc
00000160: 9b12 11bc 034a 883d f3eb fc3c 26fc 103c
00000170: 7dc7 d1bc 4b60 3ebc 5b22 bfbb 212b 90bd
00000180: 3a0b 1b3e 8d07 133d 4f4f 013d f6bd a0bb
00000190: 3651 f93d d3b5 e4bc 84f8 29bc ad34 21bd
000001a0: ce29 1cbe f18c b3bc d265 923d 7451 303c
000001b0: 7a27 2b3d 5383 853b 038b eb3b 00fa 393d
000001c0: 70f5 b7bc 706f 9bbb af97 41bd 4fbe 8c3d
000001d0: 8a5b 2abd 0f2a 95bd b89d b03c 3446 38bc
000001e0: 7233 6b3b ad5f 453c b1d8 20bc 1d72 233e
000001f0: e2d6 9d3c 1822 ad3c e2d6 86bb 35d8 ccbc
00000200: 4ab4 8b3b 9db6 a5bc 647f 96bd a1db 6fbc
00000210: 832b a93c 2969 513e b43b 193e 0826 d73a
00000220: 0e59 813d 7eb4 04bd aded e63b 31e4 61bc
00000230: 6079 99bc 58da 5a3c 84e7 023d b23d 0cbd
00000240: d43f fa3c addb b3bc 0d4b 513d d904 64bd
00000250: 89a2 8e3c 098e 003d fdf1 c6bc 2e6c 2a3d
00000260: 3536 2b3c f9ec 4b3b 09bf 863b 22dc 883d
00000270: 9cb3 ffbc c074 22bd 6ba7 063e e38e 4a3d
00000280: 7af5 973d 9b10 533d e87d 9bbe aaf3 45be
00000290: 888c fbbc bfd4 213d 0d6a c53e cfbf 9b3d
000002a0: 6cdd 063d 53fa 64bd d76b a0bd 8ac0 bebc
000002b0: 1a5f cfbe 1290 da3e e86a 68bd 426c 9fbc
000002c0: 9773 5dbc 901b 17bd f2fe 833e 021b b53c
000002d0: 89c3 5d3d c357 343d f667 04bd 6fd5 db3b
000002e0: 6602 0cbe 9487 68bb 4852 aabe c352 b6bc
000002f0: 3e1e 17bd 6841 2d3d 9fe6 343d 8464 10bd
00000300: 97b0 c5bb 3e1f 7fbd cddf 69bb 8c3f 173d
00000310: b18e d33c 078a 87be 9946 84be aacc f3bc
00000320: 917f 86bd c551 303b fff4 dd3d 7552 c6ba
00000330: fb96 2d3d b525 ed3c 8766 1cbf c802 1b3d
00000340: e789 78bc 5ed8 a1bf 0db7 1dbd 0783 2cbd
00000350: a200 a5bd 7e64 c9bd e7d3 4e3b 2927 9f3c
00000360: 68d7 113b 1a60 143c 3b35 5fbd 600f b2bd
00000370: 5d9c 72be 0484 663b b8be 4b3f 3cf3 58bb
00000380: c289 323c 6525 6cbc 2e66 1dbd 36d7 af3a
00000390: d888 313f 8685 05bb 00d1 4dbb 1c00 a93a
000003a0: 5e69 2f3d 1ddc 513d bbe6 c8be 6311 03bb
000003b0: 4306 35bc dc9e 1fbc b0da 85ba de3d e73d
000003c0: 7208 993c 139c 85bb 1ca3 9fbd f194 bdbc
000003d0: 5749 d03d 3c63 a83c 45d9 d13c dcbe ad3c
000003e0: 249e 6e3a 22a0 04bc 6ccb 6c3c b76f d23b
000003f0: d371 29bc 6015 d7bc 76e5 383c 48a5 82be
0.31911206 0.02003144 0.018915929 -0.045333877 -0.004759343 0.018231697 -0.16528268 0.0113133555
0.001950111 0.017341169 -0.003691154 -0.00616055 -0.03732969 0.0014203663 -0.057002567 -0.058326587
-0.39868018 -0.03275127 -0.0010859467 -0.018297782 0.0496189 0.018376976 -0.020950314 -0.16908169
0.004211981 -0.0074650496 -0.011620378 -0.0031707094 -0.020371247 0.020615382 -0.0041018734 -0.024795212
0.0055135274 0.06037333 0.017379554 -0.0002508247 -0.007755991 -0.039982617 0.005640032 0.007365793
0.0039730645 0.006471172 0.023414485 0.0021009925 -0.015519254 -0.007708817 0.0017232385 0.0005417897
-0.018264541 -0.02124213 -0.005467768 0.0053348164 -0.00436371 0.013183007 -0.0008802246 0.35330492
-0.67321354 0.17548123 -0.056049764 0.0043673697 -0.0067897486 0.3853213 0.009680966 -0.007922735
0.021828128 -0.013333572 0.009145804 -0.019724732 -0.010797517 0.08121972 0.019528035 0.045812003
0.18981941 -0.005183333 -0.04559159 -0.0019029595 -0.2879369 -0.012390752 -0.021292066 -0.03304368
0.022182 -0.0003221721 -0.20014639 -0.00071156904 0.06302683 0.06891686 -0.053815655 -0.019484397
-0.008854534 0.066547416 0.030874228 0.008849179 -0.025607819 -0.011619638 -0.005832953 -0.07039476
0.15141001 0.035895873 0.031569775 -0.0049054576 0.12173693 -0.027918732 -0.010374192 -0.039356876
-0.15250322 -0.021917792 0.07148327 0.010761607 0.041785695 0.004074493 0.0071882023 0.045404434
-0.0224559 -0.004743509 -0.047263797 0.06872236 -0.041591205 -0.07283413 0.021559581 -0.0112472065
0.0035888818 0.012046737 -0.009817288 0.159615 0.019267503 0.021134421 -0.0041149715 -0.02500544
0.0042634355 -0.020228678 -0.073485166 -0.014639766 0.02065063 0.20450272 0.14964181 0.0016414532
0.06315814 -0.032398693 0.007047376 -0.013787315 -0.018734634 0.013357721 0.03195907 -0.034238525
0.030548014 -0.021955336 0.051096965 -0.055668686 0.017411487 0.031385455 -0.02428531 0.041607074
0.010449936 0.0031116589 0.0041121286 0.06682612 -0.031213574 -0.039662123 0.13149802 0.049452674
0.07419868 0.051529508 -0.30369496 -0.19331232 -0.030706659 0.03950953 0.38557473 0.07604944
0.032926008 -0.05590279 -0.07833069 -0.02328517 -0.40502244 0.42688042 -0.05674258 -0.019460801
-0.013516328 -0.03689152 0.25780445 0.022107605 0.054141555 0.04402901 -0.032325707 0.006708793
-0.1367279 -0.0035481201 -0.332659 -0.02225626 -0.036894076 0.042298704 0.04416525 -0.03525211
-0.006033014 -0.062285654 -0.0035686374 0.036925837 0.025824877 -0.26472494 -0.25835112 -0.029760677
-0.065673 0.0026904207 0.10837745 -0.0015130775 0.042380314 0.028948644 -0.61093944 0.03784445
-0.015169597 -1.2644155 -0.03850465 -0.042117145 -0.08056761 -0.098336205 0.003155941 0.019427853
0.0022253636 0.0090561155 -0.054494124 -0.08694339 -0.2369246 0.0035173902 0.7958789 -0.0033103963
0.010897102 -0.014413212 -0.038427524 0.0013415578 0.6934943 -0.0020373776 -0.0031405091 0.0012893709
0.042825095 0.051235307 -0.39238533 -0.0019999377 -0.011048856 -0.009742465 -0.0010212269 0.11291097
0.018680785 -0.0040774434 -0.077947825 -0.02314231 0.101702385 0.020555131 0.025616297 0.021209173
0.0009102544 -0.008094819 0.014452796 0.006422009 -0.010342079 -0.02625531 0.0112851765 -0.25516725

user_age_embedding.weight f4 [5, 4]
00000000: ff45 483f e197 6c3e af54 93bf 0981 4b3f
00000010: 8935 223f 9f16 dcbf bc30 16bf 801a 023f
00000020: 103c b73e f6af c4be 7528 013e 8527 16bf
00000030: 2666 a13f d511 0f3f 28fa 513f 8b7c de3e
00000040: 4d5f 7f3d 3128 b83e c1ef 5e3f 9945 bebf
0.78231806 0.23104812 -1.1510218 0.7949377 0.6336294 -1.7194403 -0.5866811 0.50821686
0.35788012 -0.38415498 0.1261309 -0.5865405 1.2609298 0.55886585 0.82022333 0.43454394
0.062346745 0.35968164 0.87084585 -1.486499

user_gender_embedding.weight f4 [2, 2]
00000000: 5c23 4f3d d81c e03e 0a40 b8bf 9bee d93e
0.05057083 0.43772006 -1.4394543 0.42564854

user_occupation_embedding.weight f4 [21, 8]
00000000: 55ea cc3c f717 913e 0cb4 d7bc 533e 013e
00000010: b02e 933a 1f0a 093c 13ca 293f 18de e83e
00000020: 95a5 803d 30dc 80bf 9d7f a83e 4649 9ebe
00000030: 8844 0abf 18f2 603e 7062 0abe 6e76 dabe
00000040: 0fea ac3e c239 8cbe 5e77 e23e a3dc df3c
00000050: f747 ac3e 985c 56be b59a 0ebd 3c45 903e
00000060: fbf7 733f 2643 ed3d ccd3 12bf e4cf 5c3f
00000070: d1bd 953c c7e3 9a3d 0ea1 5fbd d6d4 f6be
00000080: 4264 993e 5d61 35bf cd9a 91be d1af 823e
00000090: 7632 213e 846a 02bf 0594 3b3e 5c79 46bf
000000a0: d6db 82bf dd13 dfbe 1f6c 813c ccf1 7bbd
000000b0: ad1c cdbe 4e32 8bbf 524b 0d3f 4e67 b1be
000000c0: d926 293d f9d0 61bf 714c 7abd 4352 133d
000000d0: fb47 e33c 9b55 b83c 96a2 07bd 3a74 9f3d
000000e0: a497 443e 204b b83e ae23 86be df5d 373f
000000f0: 9da7 fb3d 8783 7d3d 1ad4 b83e 9576 0f3f
00000100: f945 da3d 37b9 29be a74b dd3d 0850 833d
00000110: 370f a63d 75f8 4fbe 5589 143e 236f 1abd
00000120: 8312 173e 51e6 5ebd b23b ca3d ae0d edbd
00000130: 9607 d53c 805e e6bd 69f3 4a3e 3e90 523e
00000140: e99f 203d b6c5 d9be 5df0 793e 4aff a0be
00000150: fd95 8e3e 4751 9abe 181f d5be ce75 edbe
00000160: 47db 8dbd ed7a 23be bbdb d03e 5dbd d83d
00000170: 0385 053f 678a 51bd 4056 36be ec79 c23e
00000180: bfd7 de3e 65bb 9d3e 0885 74bc ef3c 75bd
00000190: d2db c7bd 7d79 18bd 502a 823a 1921 e1bd
000001a0: 4d50 063e f3c9 afbe 1b64 4f3e 804d f23d
000001b0: 1049 ee3d 2f05 0e3e 12db f4bd 7d5e 033f
000001c0: 66fe 363e af50 223f e271 1e3e 7aaf 9fbd
000001d0: f458 25bd 1a9a eebe 7c6f 49bb 07e5 27be
000001e0: 3537 173e 360e 453e 6744 a53d acd4 74bd
000001f0: 725e d63a 60e0 1c3f 6a27 cc3d fd00 563d
00000200: 3cf4 1fbd fee1 7abd fe07 98bd 8182 b83d
00000210: f631 1fbe a780 3ebd e90b f639 4c96 1cbd
00000220: 0c79 1f3e 88ca 103e bba5 05bf ccf0 78be
00000230: 4107 983e 3e92 0ebc 8094 b63e 0d42 00be
00000240: f287 8a3c 1d06 28bb d1d3 613e 096d e53a
00000250: 51fe 973d a0a2 39be 00bd e33d 183c f9bd
00000260: 9fa8 083e 7c4f 4d3d 2d4e 8bbf b09a 84bd
00000270: 1e38 8ebd ca8b b5bd 07d0 483d 66c1 23bd
00000280: d7bf 02bb 647f 2ebe 2ff1 803b d03b 883b
00000290: 966b 383c dc46 07bd 5bfc 4bbb 1c6d 953d
0.025014082 0.28338596 -0.02633097 0.12621431 0.0011229124 0.008364229 0.66323966 0.45481944
0.06281582 -1.0067196 0.3290986 -0.30915278 -0.5401082 0.21967351 -0.13514113 -0.4266848
0.33772323 -0.27387816 0.44231695 0.027326887 0.33648655 -0.20933759 -0.03481551 0.28177822
0.95300263 0.11585073 -0.57354426 0.86254716 0.018278988 0.07562976 -0.054596953 -0.48209256
0.29959303 -0.7085169 -0.28438416 0.25524762 0.15741906 -0.5094378 0.18318184 -0.7752893
-1.0223339 -0.43569842 0.015798626 -0.061509892 -0.4006094 -1.0874727 0.55193055 -0.34649128
0.041296814 -0.8820949 -0.061108056 0.035967123 0.027744284 0.022501757 -0.03311404 0.0778584
0.19198471 0.35994816 -0.26199096 0.7162761 0.12287829 0.061893012 0.3609932 0.56040317
0.106578775 -0.1657456 0.10805445 0.06411749 0.08108371 -0.20309623 0.14505513 -0.037703644
0.14753155 -0.054418866 0.09874667 -0.11574875 0.026004594 -0.11248493 0.19819416 0.20562837
0.039215002 -0.42533654 0.24408098 -0.3144477 0.27848807 -0.30140135 -0.41625285 -0.4637894
-0.069265895 -0.15964861 0.4079264 0.10582993 0.52156085 -0.05115738 -0.1780634 0.37983644
0.43523976 0.30807033 -0.014924295 -0.059872564 -0.09758724 -0.037225235 0.0009930823 -0.10992641
0.1311657 -0.34333763 0.20253031 0.11831188 0.11635029 0.13869165 -0.11955847 0.5131605
0.17870483 0.63404363 0.1547313 -0.077971414 -0.040368035 -0.46601945 -0.0030736616 -0.16395961
0.14767154 0.19243702 0.08069687 -0.059773132 0.0016355051 0.6127987 0.09968455 0.052247036
-0.03905128 -0.06125068 -0.074233994 0.09009267 -0.15546402 -0.04650941 0.0004692965 -0.03822927
0.1557352 0.1413976 -0.5220601 -0.24310607 0.29693034 -0.008701859 0.35660172 -0.12525196
0.016910527 -0.002563841 0.22053458 0.0017503808 0.07421554 -0.18128443 0.11120033 -0.12169665
0.13345574 0.05012463 -1.0883232 -0.06474817 -0.06944297 -0.08864553 0.049026515 -0.03997936
-0.0019950771 -0.17040783 0.0039350013 0.004157521 0.011256119 -0.03302656 -0.0031125757 0.072962016

user_location_embedding.weight f4 [760, 18]
00000000: 6999 103d 3c55 95bc 3ef9 97bb 9d63 133b
00000010: 6246 903d 9e0c 2d3d 6f1a 90bc 8e57 533d
00000020: aa4a 87bc 06dc df3c d83c cb3b a38c e0ba
00000030: b117 1ebd 01e0 1cbd 9e30 063d b2bf 57bb
00000040: c752 553e fd76 9f3c 764e 07bc ab95 d7bb
00000050: dcfe 803b eaf6 6ebc bddb b73c 8ce8 803c
00000060: 85d6 31bc 3275 2c3c 1568 a6bc cd20 2abd
00000070: 6cd3 e83c ed55 413c 933d 7abc 0cf3 cfbc
00000080: 0514 c3bb 9249 22bc 3d05 f03b 7857 ffbc
00000090: 5321 3bbb bce9 033d 62c4 2d3c de81 413b
000000a0: e40e 5fbc 395d ab3c be41 3dbc 61ba 9cbb
000000b0: 240e c9bc 0877 7a3e dbde e0bb ef36 303e
000000c0: fc7d e33c 9619 dfbb 937c 7abc 64cb ce3f
000000d0: 3e5c 5a3c 1074 27bd 87a5 993c 6f75 74bc
000000e0: 2807 4dbc 7cba e83c c211 9fbe 7843 4ebe
000000f0: d692 a23e d5d4 b13a da97 fa3c 3df1 a83d
00000100: b851 083d 5d8f a43e 5eb1 99bd 5b52 66bc
00000110: eee4 2a3c 33f3 1f3c 5db9 46bc dcab 403d
00000120: 72be 5abd 9834 71bc 0eff 923a d3ff 7abd
00000130: b04d 90bc f935 033c 6865 52bb 646a 7ebe
00000140: 759b f0bc 8064 2a3c 44f9 60be 7983 123e
00000150: 738d debd d1bf f2be 776d 4dbd a63c c6bc
00000160: 953c a93c 772e 55bd 0a16 b73c c03c 953c
00000170: c110 473b 9122 c83c e648 a83d 0289 103c
00000180: 7f9d d9bb a94d dcbc 6ea6 673d 3cd4 443d
00000190: 95d1 5e3b e12c d33d 83e8 0c3b 52f3 3abc
000001a0: 3215 0bbb c081 e8ba 58e6 dd3c 1eb0 9c3b
000001b0: 9d3f e1bd 3bf4 83bd d3a3 27be 0437 673c
000001c0: fc17 433f d1d9 9cbc b574 cc3c 3f20 0e3d
000001d0: b41c 1c3d 6383 58bb 5f60 c2bd e907 293d
000001e0: 0bbe 72bb 77a9 24bc 9990 aa3c 7f94 4c3d
000001f0: 9e05 24bd d048 a33d e7e3 523f cd47 bb3a
00000200: 24c4 88bf d0b6 aabc 1495 4e3b 5dbc 3939
00000210: 237e 703a 0f41 963b 758e 3b3f 27eb 273b
00000220: 29ac a8bc 98b3 9bbb dbad 81be 65e8 f13c
00000230: db48 66bc 4980 27bc e4e6 143c 9dc2 bebe
00000240: 4be4 0b3d 6a47 11bd 8705 9bbc 106d 4dbd
00000250: 3b06 9abc 51c3 063e dcd1 bc3a 0008 733b
00000260: ce74 323d 62fe 25bc 0829 293d c8e6 9b3d
00000270: 5077 a1bc 79f9 88bc 5138 293d 0f09 c93c
00000280: 93a0 4fbc b16e 853d baef 5abc b3a2 d53b
00000290: 1ab1 fcbb bcb0 04bc b273 4d3d 34a0 2b3c
000002a0: 193f bcbd c989 ba3b 389c 183c fce1 013f
000002b0: 936c 22bc 4941 9c3b 20de 6a3c d20f 27bc
000002c0: 541d 63bc a95c 06bc 02bd 9fbd 45db a9bc
000002d0: 787f 253c 8822 603d f5b5 9fbd e8a6 443d
000002e0: 88b8 423e ac14 45bc 9aa0 973c e65a 063f
000002f0: cf6c 10be 2f0e 153e ebdc a53d eb87 65bb
00000300: 2e32 a33c d739 8cbc 2169 36bc fa6b 283d
00000310: 6b6e d23a 7e8a 26bf fbed 053d 5c83 31be
00000320: 8e1f 9bbc a267 b23c 3458 33bd 5403 b4ba
00000330: 4b06 1a3c ab94 313c a1a3 a93d 6ceb e8bc
00000340: 0d27 2b3d 55e2 6bbb 074d 563d de27 13bc
00000350: cc57 233e 7137 8b3e 043b 2dbd 70e1 9b3e
00000360: 28a1 3f3b 6f34 85be a9e1 01bd 38ba 0d3c
00000370: db33 473f c78f 923f b7a8 61bd 9403 d23c
00000380: fecd c23c 9865 f9bc 2bbe e7bb d482 143b
00000390: e629 5cbd eac5 203d 77af 82bc d740 afbd
000003a0: 2d49 8f3c ef34 78bd a423 963b 4b3a 80bd
000003b0: aa6a 81bc 23e5 7bbc d7f3 06bd a1cd bdbc
000003c0: 0aa7 c33c f648 e63b d027 563d b7fe ab3f
000003d0: 52f3 4abe b70f a3be 3751 203b 3a72 a2bb
000003e0: 0c6a c43c 963b f63c a807 dc3c 9dd6 843d
000003f0: e97e bebd 5cec de3e a808 22bb a07b 33bc
0.035302553 -0.01822912 -0.0046378663 0.0022489794 0.070446745 0.04224836 -0.01759073 0.05159717
-0.016515095 0.027326595 0.0062023215 -0.0017131757 -0.038596813 -0.038299564 0.03276121 -0.0032920656
0.20832358 0.019465918 -0.008258453 -0.006579121 0.0039366316 -0.014585236 0.022443647 0.015735887
-0.010854368 0.010525988 -0.020313302 -0.041535188 0.028421126 0.011800271 -0.0152734695 -0.025384448
-0.0059533142 -0.009905236 0.007324843 -0.031169638 -0.0028553798 0.03220533 0.010605903 0.002952687
-0.01361439 0.020918475 -0.011551319 -0.0047829603 -0.024542876 0.2445947 -0.006862504 0.17208456
0.027770035 -0.00680847 -0.01528849 1.615582 0.013327656 -0.04088217 0.018755687 -0.0149205765
-0.012513913 0.028409235 -0.31068236 -0.20142925 0.31752652 0.0013567457 0.030589987 0.082491376
0.033281058 0.32140628 -0.07504533 -0.014057721 0.010430558 0.009762573 -0.012129155 0.047038898
-0.05340428 -0.014722012 0.0011214928 -0.06127913 -0.01761517 0.008008474 -0.00321039 -0.24845272
-0.029371003 0.010399938 -0.21970087 0.14307965 -0.10866823 -0.4741197 -0.050153222 -0.024198841
0.02065877 -0.052046265 0.022349376 0.018217444 0.0030374976 0.024430545 0.08217029 0.008821728
-0.0066410895 -0.0268925 0.056555204 0.048053965 0.0033999432 0.10311294 0.0021500892 -0.011410551
-0.002122235 -0.0017738864 0.027087376 0.004781737 -0.109984614 -0.06443068 -0.16371088 0.014112238
0.7620847 -0.019146832 0.024957994 0.03469872 0.03811331 -0.0033037297 -0.094910376 0.04126731
-0.0037039544 -0.010050169 0.020820903 0.049946304 -0.04004442 0.07972872 0.82379 0.0014288366
-1.0684857 -0.020839125 0.0031521963 0.00017713146 0.0009174069 0.0045853923 0.7326425 0.002562234
-0.020589905 -0.004751634 -0.25327954 0.02952976 -0.014055456 -0.010223457 0.009088252 -0.37257853
0.034153264 -0.035468496 -0.018923534 -0.05015284 -0.018801799 0.13160445 0.0014405805 0.0037083626
0.043568425 -0.01013145 0.041298896 0.076123774 -0.019710213 -0.01672052 0.041313473 0.024540452
-0.012672561 0.06515253 -0.013362819 0.0065196394 -0.007711542 -0.008098777 0.050159164 0.010475207
-0.091917224 0.005692695 0.009314589 0.5073545 -0.009913581 0.004768525 0.014335185 -0.010196643
-0.013861973 -0.008200803 -0.07799722 -0.020734439 0.010101192 0.05472043 -0.077983774 0.048010737
0.19015706 -0.012028854 0.018509198 0.5248245 -0.14104007 0.14556192 0.080987774 -0.003502364
0.019921388 -0.017117424 -0.011133463 0.0411186 0.0016054636 -0.6505507 0.03269766 -0.17335266
-0.018935945 0.021777932 -0.04378529 -0.0013733902 0.009400914 0.010838668 0.08283163 -0.02843257
0.04178529 -0.0035993059 0.052319553 -0.008981673 0.1595146 0.27190736 -0.04229261 0.30445433
0.0029240344 -0.26016566 -0.031709347 0.008650355 0.778135 1.1450127 -0.05509254 0.025636472
0.023779865 -0.030443951 -0.0070722303 0.0022660987 -0.053750895 0.039251246 -0.015952809 -0.08557289
0.017490948 -0.060597356 0.0045818854 -0.062611185 -0.015797932 -0.015374455 -0.032947388 -0.02316934
0.023883361 0.0070277406 0.052284062 1.3437108 -0.19819382 -0.31847927 0.002446247 -0.0049574645
0.023976348 0.03005771 0.02685912 0.06486247 -0.0930155 0.43539703 -0.0024724398 -0.010954767

item_id_embedding.weight f4 [1600, 32]
00000000: e72d 4d3c d17c e83b e191 f93c 3553 cdbb
00000010: e191 4c3d 70cf 09bf 9652 2d3c 9256 07bc
00000020: f5d3 8fbc e132 443c c988 033b ebca 743b
00000030: 92e3 283b 9761 0c3b 0731 b5bc 1a43 2f3d
00000040: be55 79bc f41c 333d 9dc0 53bd ecb2 0d3e
00000050: 5e02 07bd 947b 543e 2925 08bc 7109 bb3d
00000060: e712 473b 012a 5e3c 0c25 46bc a20c 81bc
00000070: 1baf 29bc 2b8c f23c cb7d c63c c3aa bbbb
00000080: da5d 02bd 2deb 7fbd b990 3abd cbe8 0b3d
00000090: 2dbc aabb 4020 40bc e4a4 0b3c 439f d4bc
000000a0: 1259 9cbc 3870 8ebc 6eca 38be 93ad c23c
000000b0: e51c 173d 7754 97bc e763 993b 8ff8 ba3c
000000c0: ed61 6f3c e497 be3c ca04 42bc 5bee 2bbc
000000d0: 1618 edbb 649e e4bc 38c9 eabd 77be 303d
000000e0: ab6d 9bbc a7ad c13b f783 d43d b032 5ebb
000000f0: ffaa e43c 2eda b8bc 42eb 60bc a2a1 a53c
00000100: 1c11 c7bb ec9b b3bb 8c36 023c 4e2c d33b
00000110: 778d 903b d36b 2c3c 9b64 1ebc 8089 ecbb
00000120: f13f 973d d697 32bd a50d 5f3b b9f4 11bc
00000130: 5205 0439 42f2 a23b 7b63 67bb 1c4d c9bb
00000140: 9e29 64bb 1dae d3bb db67 cebc 10f9 17bb
00000150: 7ad5 9a3b d49d c9bc c914 f13d ea88 96bc
00000160: abef c83b 3dce 773e 2792 863c 6642 cfba
00000170: f1d3 16bb 694c a73e 1145 b83e 8264 0cbc
00000180: 8c09 083f e028 f7bc 8849 adbe 79e1 a53a
00000190: 6b3d a73c 79c9 e23c 994b 28bd 4f23 d2bb
000001a0: a43b c93d af03 a93a 0e43 91bc 4db1 dc3d
000001b0: 12a7 85bd 4ead 593c e2e6 8f3c 12da 30bd
000001c0: ba71 f73a c000 f8b9 9de0 813c 3f43 933e
000001d0: c2c2 9e3c 37fb 483d 01b2 acbc 8220 9bbc
000001e0: 45ba e43d 12ff 8d3c 3ac2 6c3d 3f07 3f3e
000001f0: 9cad 0abd 22f4 0cbd a087 c6bc 2be1 a43b
00000200: 3768 82bc 146b 52bd 6f54 f33b c5b5 b63b
00000210: 341a afbc abcb 9a3e a75d 603b 8162 33bc
00000220: 416b f7bc 22e5 6cbe 58e6 9cbd dc31 843c
00000230: 8537 ee3c 9ee2 cb3b d97b 0aba a2c8 023d
00000240: 6f14 3f3f 395a 703c 57fa d7bc 79de ab3a
00000250: 09f3 babb e244 a0be 3f93 0f3d f928 8e3b
00000260: 2be6 0fbc d569 96b8 9c2d c4bc 5823 77bb
00000270: 6a5f b73c 9a0c 903c e2b7 56ba 1190 12bc
00000280: bb7d 633c ac2f ac3c 7524 a03b 5c13 1fbd
00000290: 5ff5 c73d 9b3c e9bb 9f48 d13b 6ada d0bb
000002a0: ea6d 41bb 305d e3b9 70cc 193b 08cd ed3b
000002b0: 1d32 f8bb 52c5 1d3f ae31 01bb 8e20 453d
000002c0: b406 243b 647f 27bb 9deb 2e3e 4d1b 9b3c
000002d0: 924c 7b3e 1e9c 453b a519 58bd 0000 df3b
000002e0: d162 25bb bcfa a5ba 2864 abbc 7059 a7bd
000002f0: 7612 e13b f50d b73b 7c45 15bb 2b01 03bb
00000300: 22db a03c 22c0 053d 4dbb 51be 5291 d3bc
00000310: f248 e2bb 1d43 ea3b eb5f ab3c 59ef 293c
00000320: faf6 e43e dade 903c 21a7 eabb 0992 6f3b
00000330: 2325 3cbd 8690 89bc 7988 a5bf 240d c33b
00000340: 0982 273c 5cb8 a2bc b4e4 8f3e 6e04 d73e
00000350: 1a9d 91bc 7994 5abe 3739 30be 68ab 053d
00000360: 535a eb3c 770f 1bbe 6785 ec3e 38f2 4ebd
00000370: 8723 71bc df3e 2fbc 94ad 043d 3b90 563c
00000380: eb7c 13bd 4242 af3e 446e 653c 1b50 5ebe
00000390: d4cb 253d b92d 703d f81e bcbd ad47 9dbc
000003a0: ac2b 8e3c 4bb7 f83a 28a3 fdbc 3cbf 4abd
000003b0: 2fb7 c43c 4af4 9c3c 52e3 0f3d 8def b3bd
000003c0: 2d27 81bc 33ab 5e3e e9c7 8d3c c45a 20bd
000003d0: db8b fabe 5386 b63d 9955 34bd f860 023f
000003e0: bce7 003d 1e72 fc3c e901 bc3d f939 a43c
000003f0: 6652 94bd 1624 80bd 7eec 1cbc 1bb6 a53a
0.012523151 0.0070949574 0.030465068 -0.0062660226 0.04994381 -0.5383215 0.010578772 -0.008260386
-0.017557124 0.011975021 0.0020070544 0.0037352394 0.0025770408 0.0021420473 -0.022118105 0.042788602
-0.015218196 0.043728784 -0.051697362 0.13837785 -0.032961242 0.20750266 -0.008309641 0.0913266
0.0030376257 0.013559819 -0.012093794 -0.015753094 -0.01035669 0.029607853 0.024229905 -0.0057271435
-0.031827785 -0.06248014 -0.045548175 0.034157556 -0.0052104206 -0.011726439 0.0085232 -0.025954848
-0.01908544 -0.017387494 -0.18045971 0.023764407 0.03689279 -0.018472893 0.0046810987 0.0228236
0.01461075 0.023265786 -0.011841962 -0.01049384 -0.0072355373 -0.027907558 -0.11464161 0.04315039
-0.018973192 0.0059105936 0.10376733 -0.0033904724 0.027913569 -0.022564974 -0.013727965 0.020218674
-0.0060750376 -0.005481234 0.007947575 0.0064444905 0.004411395 0.010523754 -0.009667541 -0.0072185397
0.07385243 -0.043601833 0.0034035232 -0.008908444 0.00012590483 0.004972727 -0.0035307098 -0.0061432254
-0.0034814845 -0.006459965 -0.025196007 -0.0023189224 0.0047251554 -0.024611391 0.117715426 -0.018375833
0.0061320863 0.24199767 0.016427113 -0.0015812635 -0.002301451 0.32675484 0.35990193 -0.008568885
0.5313957 -0.030170858 -0.33845162 0.0012655697 0.020415029 0.02768396 -0.04108772 -0.0064129005
0.09825829 0.0012894775 -0.01773217 0.10776005 -0.06526007 0.013285948 0.017566148 -0.043176718
0.0018878498 -0.00047302805 0.015854174 0.28762242 0.019379977 0.049067702 -0.021080973 -0.0189364
0.111683406 0.017333541 0.057802416 0.18655108 -0.033856973 -0.03441251 -0.024234593 0.005031725
-0.015918834 -0.05137165 0.0074258368 0.005575868 -0.0213748 0.3023351 0.0034235509 -0.010948778
-0.03020251 -0.23134282 -0.07661122 0.016137056 0.029079208 0.0062220832 -0.0005282737 0.03192962
0.74640554 0.014669948 -0.026364489 0.0013112567 -0.0057052416 -0.31302553 0.035052534 0.0043383804
-0.008782904 -7.17227e-05 -0.02394753 -0.0037710276 0.022384364 0.017584134 -0.0008190853 -0.008945481
0.013884957 0.021018825 0.0048871585 -0.038836822 0.09763598 -0.0071178204 0.006386831 -0.0063736932
-0.0029514977 -0.00043366244 0.0023467802 0.0072571076 -0.0075743333 0.6162921 -0.001971345 0.04812675
0.002502841 -0.0025558108 0.17082067 0.018933916 0.24540928 0.0030152868 -0.05275883 0.00680542
-0.00252359 -0.0012663226 -0.020921782 -0.08171356 0.006868656 0.0055863806 -0.0022777012 -0.001998971
0.01963574 0.032653935 -0.20481606 -0.02582613 -0.0069056684 0.007149114 0.02091976 0.010372006
0.44719678 0.017684389 -0.0071610366 0.003655555 -0.045933854 -0.016792547 -1.2932273 0.005952494
0.010223874 -0.0198633 0.28104174 0.41995567 -0.017775107 -0.213457 -0.17209326 0.03263417
0.028729593 -0.15142618 0.46195528 -0.050523967 -0.014717943 -0.010696142 0.0323921 0.013095911
-0.036007803 0.34230238 0.01400334 -0.21710245 0.04047759 0.058637355 -0.09185594 -0.019199217
0.017354809 0.0018975524 -0.030961588 -0.04949878 0.02401313 0.019159455 0.0351289 -0.08785925
-0.01576575 0.21744995 0.017307239 -0.03914906 -0.48934826 0.08912339 -0.044026945 0.5092921
0.031471 0.030816134 0.09180052 0.020047175 -0.07242279 -0.06256883 -0.0095778685 0.0012642773

item_type_embedding.weight f4 [5, 8]
00000000: a31f bc3f f113 6ebf 2b4b 0140 0dc9 a73d
00000010: 50a7 00be f256 2d3f c17e 5bbe 2de3 be3c
00000020: 87e7 943f 2dc8 59bf 122f b73f 6f99 65be
00000030: b526 90bf d2fc a3bf db12 8f3f 8dc2 8e3f
00000040: 6eb3 4f3e 652c 19bf bb64 a23d 06f7 9bbf
00000050: 7bce 35bf c8b0 28be 41fd dd3c 2a9b c6bf
00000060: 6b86 353f d552 3fbd 233b 1e3f 6b4c 603e
00000070: 52d6 eb3f 775d 483e e614 313e 257a 4abf
00000080: 4aa7 37bf 5aec 5e3e ff87 aebe 40bd 50be
00000090: a0d7 5d3c 782b 713d 16e4 093f 8f33 85bf
1.4697155 -0.9299918 2.020213 0.08192644 -0.12563825 0.67710793 -0.21435072 0.023301685
1.1633157 -0.8507107 1.431124 -0.22421812 -1.1261812 -1.281153 1.1177629 1.1153122
0.2028329 -0.59833366 0.07929369 -1.218476 -0.7101819 -0.16473687 0.0270983 -1.5516102
0.7090823 -0.046709854 0.61808985 0.21904151 1.842478 0.19566904 0.17293128 -0.7909263
-0.7173964 0.21769848 -0.34088132 -0.20384693 0.013540179 0.058879346 0.53863657 -1.040636

item_temperature_embedding.weight f4 [7, 8]
00000000: 52e1 87bd 8c83 98bd e856 4b3c c990 34bf
00000010: c4e7 e8bc fe6c cdbe 41ad a03c 9353 5ebe
00000020: 4095 743e 2229 5f3f 4044 59bd 7478 823e
00000030: 655f bdbe 278a 9f3e c2bb e1be d928 03bf
00000040: fe50 17bf 67c5 aa3f b548 343f 3709 1fbf
00000050: 5e9f 33bd a08b 78bb ef81 47bf a133 7dbe
00000060: 8f0e 39bf 17d1 423e f5a6 e2be 7f3f d1be
00000070: c222 0abf 94e2 cb3c 992a c6be 00a4 683f
00000080: 4af5 14bf 2696 f5be c534 ce3e d24e f8be
00000090: 931a a13d 9915 8a3f 4e0a 0f3f 1456 643e
000000a0: bae5 113f 3bbb 14bf 0ec2 8fbe 0baf 4cbe
000000b0: 8536 873e 12b4 32bf a28c a13f 63b3 8c3f
000000c0: 40f5 f4be 7522 8f3d 2de6 8cbf 5415 8b3d
000000d0: 30d7 5bbe bbd6 a83e 96be 683e b13d 29be
-0.06634773 -0.074469656 0.012410857 -0.70533425 -0.028430827 -0.40122217 0.019613864 -0.21711569
0.2388506 0.8717214 -0.053043604 0.25482523 -0.36986843 0.3116009 -0.4408856 -0.51234204
-0.5910796 1.3341492 0.7042344 -0.62123436 -0.043853156 -0.003792502 -0.7793264 -0.24726726
-0.7228784 0.19025074 -0.44268003 -0.40868756 -0.53959286 0.024888314 -0.38704374 0.90875244
-0.5818678 -0.47966117 0.40274635 -0.48497635 0.07866397 1.0787841 0.558751 0.22298461
0.5699116 -0.5809819 -0.2807774 -0.19988649 0.26408783 -0.69806015 1.2621043 1.0992244
-0.4784336 0.06988994 -1.1007744 0.067911774 -0.21468806 0.32976326 0.22728953 -0.1652744

item_humidity_embedding.weight f4 [6, 8]
00000000: 5fa5 83be 7b29 923e b6c6 f13d d5a5 37bd
00000010: c930 e9be dd89 54be 8342 40bf 222f c53d
00000020: 5ba5 22bf 0eaa 28be 6dcf 043f 94a7 90bf
00000030: a934 213f 4c68 903e c8a5 423e 1b23 8abd
00000040: d375 b4be a456 153e 7d36 c33f 18fd c93e
00000050: d279 db3e dd4f 9fbe f731 ae3f 870a 9fbe
00000060: 521c 3c3f 5a08 2c3f 2011 e4bf a8b4 c7bd
00000070: 339e f0be 989f fcbe ac95 0f3f 6bc4 67be
00000080: 8dbc ccbf 951c 263f aba5 db3d e911 3cbf
00000090: dd51 9f3f 92c7 b4bf f726 eabd bb6d bbbe
000000a0: 7bb5 84bd 4d4c 0f3f 8e3d 9bbe b081 9bbe
000000b0: 4233 53be 57cc a63e d816 763f 533b a33e
-0.25712106 0.28547272 0.11805479 -0.044835884 -0.45545033 -0.20755716 -0.7510149 0.096281305
-0.6353356 -0.1647112 0.51879007 -1.1301141 0.6297098 0.28204572 0.19008553 -0.06744977
-0.35246143 0.14583832 1.5251004 0.39450908 0.4286638 -0.31115618 1.3608998 -0.3106272
0.73480713 0.67200243 -1.7817726 -0.09751254 -0.46995696 -0.4934051 0.56087756 -0.22633521
-1.5995041 0.6488736 0.10724958 -0.7346483 1.2446858 -1.4123404 -0.11433213 -0.36607155
-0.06479927 0.559758 -0.303204 -0.3037238 -0.20625022 0.32577774 0.96128607 0.31881198

item_windSpeed_embedding.weight f4 [5, 8]
00000000: 0421 833f 64dc 103f e58f 67bf b214 e03e
00000010: 0fa1 4f3f b00a 1ebe c910 12bf 229d 0c3f
00000020: 92a6 673f 8c18 e33c 089b 09bf 9eea a7bf
00000030: 3e57 793d 97dd b83e be29 45bc 3653 72be
00000040: 2134 f83d b5e0 fabe 2005 603f 6b8c 173f
00000050: 3f0d 32be 6bf4 b0bf b850 b9be 519d ab3f
00000060: 6fdb e2be 5d03 c3be 2a9c f43e 660e a9bd
00000070: ad78 b83e a6c8 4d3f 1ad0 fbbd f6f0 c03c
00000080: 3098 bfbd 4bc4 ab3f 8238 b73d 4336 fbbe
00000090: 7ae4 9a3e e6a7 3d3f 3a03 eb3e 15b4 51be
1.024445 0.5658629 -0.9045394 0.4376579 0.8110513 -0.15433764 -0.5705686 0.54927266
0.9048854 0.027721666 -0.53752184 -1.3118474 0.060874216 0.3610656 -0.012033878 -0.23664555
0.12119318 -0.48999563 0.8750782 0.59198636 -0.17387865 -1.382459 -0.36194396 1.3407384
-0.4430804 -0.38088503 0.47775394 -0.082546994 0.36029568 0.8038429 -0.122955516 0.0235524
-0.09355199 1.3419279 0.08946325 -0.49064836 0.3025244 0.7408432 0.459009 -0.20478852

GCN_Layers.0.W1.weight f4 [64, 64]
00000000: ca03 cfbd 8c5b 40bd 4a76 bcbd 7a33 f8bd
00000010: bc74 ed3d 305f 2a3d 2067 123d d8d4 f6bc
00000020: 7482 16bd f463 fd3d 9012 05bc a274 c83d
00000030: e036 3cbc 467b 9b3d ea64 d2bd 08c9 e7bc
00000040: 22f3 80bd b857 e2bc 803f febb 507d f83c
00000050: 7851 b6bc f873 883c 2afb 9ebd 121c c93d
00000060: 58f7 de3d e672 96bd a0c2 4bbd f61b b1bd
00000070: c48c e2bd 905f 4ebd 2691 eebd d8e0 6ebd
00000080: 0a0c a7bd daf3 f3bd bc28 6cbd 8894 9a3d
00000090: 20c2 96bd 0444 2ebd a0a5 c0bd a45b a43d
000000a0: 64d6 4dbd 480c 823d 629e cebd 4046 d3bb
000000b0: 74f1 ee3d 84e9 943d a82c 8fbc d058 57bc
000000c0: 5c3f d7bd 2c80 74bd f0e5 f93c a0fb 893c
000000d0: 5202 edbd 884d 933c a035 0bbd 8e28 d93d
000000e0: 4846 e53d 20a0 f2bb 784b 08bd c0ac 603c
000000f0: 0c80 b7bd d2a4 a9bd 28a4 f33c 7889 ad3c
00000100: 50c1 6b3d 0a05 bfbd e298 863d 24ee d0bd
00000110: 10e7 84bd 00eb d63c a6df b83d 00f4 f53a
00000120: 78e2 8c3d 58c3 863d 9066 e43c 605c 0cbd
00000130: 0442 d5bd 489d a4bc 10ab e8bc 34b0 8dbd
00000140: 6cc1 6bbd e07b 0abd 4880 153d 60e4 71bd
00000150: 884a 4cbd 408c 7e3d ded6 9a3d a6d1 b1bd
00000160: 3824 603d 3aff 8e3d 9055 d3bd 6c0b 2e3d
00000170: b0af e43d 7e6f 903d f0db 3ebc 1e09 ffbd
00000180: 9c40 7e3d 0cce b83d d019 3a3d 0054 a739
00000190: 3ca7 2cbd 14f5 babd 2407 c5bd c008 b5bb
000001a0: bcfd 0a3d 50ac c03d be99 c83d 72d8 8abd
000001b0: 4804 a9bc 6c9c f73d 100b cdbc a0ab 113d
000001c0: c0a7 26bd 56b9 823d 2862 7dbd a405 f6bd
000001d0: 0064 ffb9 b839 b2bd ec2d 7dbd 8e0d a23d
000001e0: b6ba b83d c03b 3ebd f876 c83d 80cd bc3a
000001f0: 9a34 b33d f62e febd d261 a73d b804 1abd
00000200: c077 833c 0a15 c03d 602d a93b 2034 24bc
00000210: e241 cbbd a0e9 1ebd 4a5f ecbd ead4 e2bd
00000220: 80a0 b73d 0055 79bd 68f5 6e3d 903e 423d
00000230: a42b be3d 7c11 b73d a8cb c8bc f011 19bd
00000240: a06e 363c 9c0c bebd 64fe 37bd 008d 703b
00000250: 7c0f 14bd e01a ee3c f0f5 b23c 60a5 4bbd
00000260: 6cb3 603d d0e2 053d b8af 4c3d cae7 e6bd
00000270: a601 c83d 30d9 823d 8087 b6bc 86b8 fd3d
00000280: e8f2 d83d 10d8 853c c0ee bbbd 3e93 8b3d
00000290: 1482 45bd f214 bfbd 907b a3bc 6af0 c1bd
000002a0: 908e 1bbd b00e 063d d8f2 9d3c 5096 ed3d
000002b0: 3087 52bc aad4 e8bd 8410 f23d f435 56bd
000002c0: 0024 deb9 38bc b43d c235 cbbd c861 29bd
000002d0: b099 50bc 520b 91bd 3ebc c83d a814 743d
000002e0: 5c05 58bd 6024 94bc e037 96bc fc51 213d
000002f0: c026 b43d e0e3 d9bd 0011 c93d e6b5 b23d
00000300: 4036 e23c 783c b3bc 806c 69bc 3c24 23bd
00000310: e218 ae3d 98ec bdbd d0c7 8a3c 4469 82bd
00000320: 04b6 17bd 7472 33bd 1c08 f8bd 024e 81bd
00000330: 2e9a ea3d 2450 fbbd 70fb 59bd b253 ec3d
00000340: 2e08 89bd 74d6 003d 9ead d23d 0cab 303d
00000350: 6034 91bd 5cc4 543d b84f 7b3d 0c4d 31bd
00000360: 00f4 2eba 96be d33d c814 8a3c 1c10 a53d
00000370: c0a5 d2bb c48e 5dbd 66aa f7bd 9082 ba3d
00000380: 2c65 a93d 982c 8a3d b8e1 bebc 88bd fdbc
00000390: 6022 c43b 349d 9f3d 66eb fa3d b071 18bd
000003a0: c0d8 493d be27 98bd 6675 8dbd b891 b8bd
000003b0: 483b f2bd cc90 133d f0da 2e3c 46e2 f3bd
000003c0: d0fe 13bd 0068 4fbc a099 f33c 5693 cebd
000003d0: 2ebf e3bd 7078 acbc 640a 613d a0d9 ef3b
000003e0: 5a97 ffbd 081c 8cbc 746e 07bd 56a1 c3bd
000003f0: f270 b33d 0088 a939 e289 ad3d b096 3ebc
-0.101081446 -0.046962306 -0.09202249 -0.121191934 0.11594531 0.041594684 0.03574288 -0.030130789
-0.036745504 0.1237258 -0.008122101 0.09787871 -0.011487693 0.07591872 -0.10273154 -0.028294101
-0.06296374 -0.027629718 -0.0077590346 0.030333191 -0.022255644 0.01665686 -0.077627495 0.09819807
0.10887021 -0.07346134 -0.049746156 -0.08647911 -0.11062005 -0.050384104 -0.116487786 -0.058319896
-0.08156593 -0.11911745 -0.057656035 0.07547861 -0.07361245 -0.042545334 -0.094065905 0.080252916
-0.050253287 0.06349999 -0.10088803 -0.0064475834 0.11667147 0.07271102 -0.017477348 -0.013143733
-0.10510132 -0.059692547 0.03050515 0.016843617 -0.11572708 0.017981306 -0.033986688 0.10603438
0.11195046 -0.0074043423 -0.033275098 0.013713062 -0.0895997 -0.0828339 0.029741362 0.021183714
0.057557404 -0.09327133 0.06572129 -0.10201672 -0.06489384 0.026235104 0.090270326 0.0018764734
0.06879133 0.065802276 0.027880937 -0.034267783 -0.10412982 -0.020094529 -0.028401881 -0.06918374
-0.05755751 -0.033809543 0.03649929 -0.059055686 -0.049875766 0.06214547 0.07560514 -0.086825654
0.05472204 0.06982274 -0.10319054 0.04249136 0.11166322 0.070525154 -0.011649117 -0.12452911
0.062073335 0.09023675 0.045434773 0.00031915307 -0.042151675 -0.09128776 -0.096205026 -0.0055247247
0.033933386 0.09407866 0.09794949 -0.06779565 -0.020631924 0.12090382 -0.02502969 0.035564065
-0.040687323 0.06383006 -0.061861187 -0.120127946 -0.00048711896 -0.08702415 -0.061811373 0.079127416
0.09019987 -0.0464437 0.097883165 0.0014404505 0.08750267 -0.12411301 0.081729546 -0.037602156
0.016048312 0.09379013 0.00516288 -0.010022193 -0.099246755 -0.03879702 -0.115416124 -0.110757664
0.0896616 -0.060872078 0.058339506 0.047422945 0.092856675 0.08938882 -0.024511173 -0.037370622
0.0111347735 -0.09279749 -0.04492034 0.0036705136 -0.03614758 0.02906555 0.021845788 -0.04971826
0.05485861 0.03268701 0.049972266 -0.11274679 0.097659394 0.063890815 -0.022281408 0.12388711
0.10593206 0.016338378 -0.09176397 0.068151936 -0.048219755 -0.09330167 -0.01995638 -0.094696835
-0.037977755 0.03272885 0.019280836 0.116009355 -0.012849614 -0.113686875 0.11819556 -0.052297547
-0.00042369962 0.088249624 -0.09922363 -0.041353017 -0.012731954 -0.07082237 0.09801529 0.05959001
-0.052739486 -0.018083751 -0.01833719 0.039384827 0.087964535 -0.10639167 0.098176956 0.087261006
0.027613759 -0.02187942 -0.01424706 -0.039829478 0.0850084 -0.09273642 0.016940981 -0.06367734
-0.037038818 -0.043810323 -0.12110922 -0.06313707 0.11455189 -0.12271145 -0.053218305 0.11539401
-0.06691013 0.03145452 0.10287021 0.043131873 -0.07090068 0.051945075 0.061355323 -0.04328637
-0.0006673932 0.10339086 0.016855612 0.08059713 -0.0064284503 -0.05409123 -0.12093048 0.09106934
0.0827125 0.06746787 -0.02330099 -0.030974165 0.005985543 0.07793656 0.1225193 -0.037217796
0.049278975 -0.07429455 -0.069071576 -0.09012169 -0.11827713 0.03602676 0.010672316 -0.119083926
-0.03613168 -0.012659073 0.02973634 -0.10086696 -0.11120449 -0.021053523 0.05494155 0.007319644
-0.1248004 -0.01710321 -0.03306432 -0.09552257 0.08761777 0.0003233552 0.08473565 -0.011632606

GCN_Layers.0.W1.bias f4 [64]
00000000: 8086 f23c 0066 88ba e02b 0d3c 98fb 0dbd
00000010: 101b d33c 1895 5cbd 707e 4e3c 7cda e43d
00000020: 0405 c13d daee dcbd ceb4 fcbd f0f7 de3c
00000030: 024a d1bd 1402 8e3d 703e f73d 7cda 1abd
00000040: 4090 883b b8b6 cd3d 5e7d fb3d 08cc 723d
00000050: b02f 59bd f4b7 a7bd 8842 f2bc c447 20bd
00000060: f89f 47bd 3a3b a03d 101f 59bc fac1 c6bd
00000070: f065 c23c 481d 713d 4076 5fbd 286b ba3d
00000080: 80b7 303d a0d4 acbc 5041 2e3c f095 e4bd
00000090: fc70 54bd 14c4 72bd a083 f7bd f035 923c
000000a0: 1864 8bbc c0e4 6e3d 4ae7 cabd 20ff 3fbc
000000b0: 3851 2f3d 142e d0bd b817 22bd 205f 3fbd
000000c0: 1e21 ef3d 5e1c b73d 08d4 8abd 481e ec3c
000000d0: 7028 533c 9cb6 463d 806c 9a3b 6863 2a3d
000000e0: c092 d2bd e8b7 b5bd a286 dabd 5496 e2bd
000000f0: 16db a93d d003 0dbd 284c 9e3c becf 90bd
0.02960515 -0.0010406375 0.008616418 -0.034663767 0.02576974 -0.053853124 0.012603387 0.11174485
0.09424785 -0.10787745 -0.12339173 0.027217835 -0.10219194 0.0693399 0.12072456 -0.03780602
0.0041675866 0.100446165 0.12279771 0.05927661 -0.053023994 -0.08189383 -0.02957274 -0.03913094
-0.048736542 0.078237966 -0.013252035 -0.09704967 0.023730248 0.058865815 -0.05455613 0.0910247
0.04314375 -0.021097481 0.010635689 -0.11161411 -0.051865563 -0.059269026 -0.12085652 0.017847985
-0.017015502 0.05832362 -0.09907396 -0.011718541 0.042802066 -0.10165039 -0.0395734 -0.046721578
0.116762385 0.089409575 -0.06778723 0.028823033 0.012888059 0.048513994 0.0047126412 0.041598707
-0.102818966 -0.08872968 -0.106702104 -0.11063829 0.082937405 -0.034427464 0.019323424 -0.07070874

GCN_Layers.0.W2.weight f4 [64, 64]
00000000: 78f6 7bbd ac31 e43d dac7 f43d b8df d83c
00000010: fcab d03d 9c00 84bd 0c22 a93d d272 e7bd
00000020: 80e3 a93b e089 a8bd ca4f c83d 1af3 a5bd
00000030: 8ca6 7a3d 626e ee3d 92c5 dcbd d8bc 1abd
00000040: b0c1 063d a083 aebd b08d bfbd f4e5 ed3d
00000050: de75 e43d b650 a73d d064 163d 943a efbd
00000060: 1652 ccbd 701a 373d 0a0a f8bd 9449 a03d
00000070: 6640 8f3d 74bc 1ebd 1429 f93d 2c37 74bd
00000080: 64b0 ed3d b6a6 86bd 8440 fd3d 1896 9c3c
00000090: 4885 863c 544b f93d 00e7 123a b6c0 863d
000000a0: e057 97bb 8079 38bb 5cee 67bd a882 9bbc
000000b0: 8a4b 80bd e0bd 8d3b a088 8abc c874 2a3d
000000c0: a0cb 19bc 16f2 93bd a6e2 b23d 3873 abbc
000000d0: d0c8 87bd 3c44 7dbd 5482 983d 46ef ca3d
000000e0: f8a9 e63c 7416 babd a292 843d 1cae 48bd
000000f0: 9eba f83d 5496 563d da3f fa3d d0e7 7f3d
00000100: 3021 0ebd 6824 6f3d a0a9 f03d 8c42 043d
00000110: 1051 dcbc 7058 a5bc e4c2 82bd a255 8fbd
00000120: 825e c3bd 00b7 38bc 7827 8c3c 40e6 343d
00000130: fc7f b23d e06e 483c 04c1 683d 3e21 c43d
00000140: 5ac8 94bd def8 943d 2817 b0bc d8fb f83c
00000150: f020 333d 8cb4 8dbd 3ca7 253d 289f 5dbd
00000160: c07a 3e3c 4c0e 54bd f82a 3abd 6c9b 3dbd
00000170: 52e1 cf3d b0ec 03bc 9067 0cbc 8444 7f3d
00000180: 7011 213d 8206 e9bd 6cd2 f9bd 40be 40bc
00000190: c080 5abb 9841 103d d047 093c 003a 183d
000001a0: 56ab 953d ee1f c93d de1c c43d 9e8c 873d
000001b0: dafe e93d 6c80 f5bd 40a8 d0bb 5665 db3d
000001c0: 98b8 14bd a84d eabc 60d4 8dbd 18ad b5bc
000001d0: 60ce 163d 2884 a13d 10c8 523c 00f4 be3b
000001e0: bc1f 55bd 1899 da3d ae2b 84bd 20ec 8b3b
000001f0: d0fe dbbc 30bb b6bd 20bb ccbc 60d2 e13c
00000200: 4063 7f3d d61a ef3d 5042 5b3d 80c9 aabd
00000210: a0d6 a13b 9890 28bd f04c 94bd c04f 013b
00000220: 8e32 cc3d 70f8 1c3c 1683 f9bd 5011 dcbd
00000230: acc4 1cbd 94b5 1e3d 6841 e53d 50a5 33bc
00000240: 42ac ee3d 9070 763c f27e 953d 76f5 b73d
00000250: a852 fc3c 1ab3 f2bd fcc7 14bd 08b6 cd3d
00000260: 38ae 3dbd e0ad 16bd 9875 b93d 501d 563d
00000270: 402b 7a3d 7814 2fbd eac6 8cbd 0025 623a
00000280: 52c9 b33d a48b 4abd 4090 17bd 2ca2 c5bd
00000290: c010 18bb 22f8 973d 66a0 a53d f404 d9bd
000002a0: a061 df3c 04f5 103d 48a8 91bc f06c ef3c
000002b0: 649b b4bd d031 17bc 6c23 333d 20ea 163d
000002c0: 4666 acbd f41a 39bd 6c18 803d b097 3b3d
000002d0: ecb5 313d 3885 96bc a033 f13d 2022 fa3c
000002e0: fcba 553d d4ff 17bd 301f f63d 70a4 743d
000002f0: 6a69 c3bd 9475 be3d 8e8f e23d e493 44bd
00000300: 5c44 21bd 008a 46bc 9e16 dc3d 7695 d13d
00000310: 48df c2bc 629c b73d 467a ef3d 2809 d4bc
00000320: 7083 ae3c 103f 9cbd 4413 dcbd 06e0 9e3d
00000330: 1083 13bc 2cea aa3d 3a53 f53d c4a8 fb3d
00000340: 7461 1b3d 5081 47bd 0068 6f39 94ec efbd
00000350: 3872 f93d fca2 133d bc53 8dbd 3c3c d1bd
00000360: 10f5 f83d 10cb 04bd 8077 c7ba 1ac8 90bd
00000370: c093 ebbd f0f2 863c 109c 5a3d e26b c9bd
00000380: e86c 40bd 4e2f aabd 509a d73c e4e0 1cbd
00000390: c057 d6bb d4c1 62bd d8c9 513d ae5d 89bd
000003a0: b033 8ebd 6ec5 9f3d d6e2 a53d 68fa 553d
000003b0: c077 0fbc 9406 043d ae97 f83d 587a bcbd
000003c0: 5846 d9bc e031 ed3c d00a a7bd d6cb e4bd
000003d0: 189c 243d c077 edbb 70ac 8dbd bc42 113d
000003e0: ce18 d4bd 6258 abbd 9e56 a6bd ac16 7f3d
000003f0: 6019 a6bc a076 f23d 9448 f3bd 6cee f7bd
-0.061514348 0.11142287 0.11952181 0.026473865 0.101890534 -0.06445429 0.08258447 -0.11301197
0.005184591 -0.082294226 0.097808436 -0.081030086 0.061193988 0.116421476 -0.10779871 -0.03777775
0.03289956 -0.08521199 -0.093531966 0.11616126 0.11155294 0.08169691 0.036717236 -0.11681095
-0.09976594 0.044702947 -0.1211129 0.07826534 0.06994705 -0.03875394 0.12166038 -0.05962293
0.116059095 -0.06574766 0.12365821 0.019114539 0.016420975 0.12172571 0.00056038797 0.065797254
-0.00461863 -0.0028148592 -0.0566238 -0.0189832 -0.06264408 0.0043256134 -0.016910851 0.041615278
-0.009386927 -0.072239086 0.08734636 -0.020928964 -0.06630099 -0.06183265 0.07446733 0.09908919
0.02815722 -0.09086314 0.064732805 -0.04899417 0.121449694 0.052389458 0.1221921 0.062476933
-0.03469962 0.05838433 0.117511034 0.032290027 -0.026894122 -0.020183772 -0.06384829 -0.06998755
-0.0953951 -0.011274099 0.017108664 0.044164896 0.08715817 0.012233466 0.0568247 0.09576653
-0.072647765 0.0727403 -0.021495417 0.030393526 0.043732584 -0.06919202 0.04044269 -0.05410686
0.011625946 -0.051771447 -0.045451134 -0.0462908 0.10150398 -0.008052036 -0.008569613 0.0623212
0.03932327 -0.113781944 -0.12198338 -0.011764109 -0.00333409 0.035218805 0.008378938 0.037164688
0.0730807 0.09820543 0.095758185 0.066186175 0.11425562 -0.11987385 -0.006367713 0.10712688
-0.036308855 -0.028601483 -0.06925273 -0.022177264 0.03681791 0.07886535 0.012865081 0.005827427
-0.052032217 0.106737316 -0.06453644 0.0042700917 -0.026854903 -0.08922422 -0.024991572 0.027566135
0.06235051 0.116750404 0.053530037 -0.08339214 0.0049389154 -0.04115352 -0.07241237 0.0019731373
0.0997058 0.0095807165 -0.12183206 -0.107454896 -0.0382735 0.038747385 0.11194116 -0.010964707
0.11653949 0.015041485 0.072996035 0.08982365 0.030801132 -0.11850567 -0.036323532 0.10044485
-0.046308726 -0.036786914 0.09055632 0.05227405 0.061076403 -0.04274413 -0.06873877 0.0008626729
0.08778633 -0.049449578 -0.037002802 -0.096500725 -0.0023203343 0.074203745 0.08087234 -0.10596648
0.02726823 0.035389915 -0.017780438 0.02922675 -0.08818701 -0.009228185 0.043734953 0.036844373
-0.084179446 -0.04519172 0.06254658 0.045798957 0.043386385 -0.01837407 0.11777425 0.03053385
0.052180275 -0.03710921 0.12017667 0.059727132 -0.095415905 0.0929977 0.11062537 -0.047992602
-0.039371833 -0.012117863 0.107465014 0.102335855 -0.02378811 0.089653745 0.11693244 -0.025883272
0.021302909 -0.07629216 -0.10745862 0.07757573 -0.009003416 0.08345446 0.11978765 0.12288049
0.037934735 -0.048707306 0.00022831559 -0.117150456 0.121799886 0.036044106 -0.06900737 -0.10216567
0.12156117 -0.032420218 -0.0015218109 -0.07069416 -0.115027905 0.016473264 0.05337149 -0.0983503
-0.04697886 -0.08309804 0.0263187 -0.03830041 -0.0065412223 -0.05536063 0.051217884 -0.06707321
-0.06943452 0.078013286 0.08099906 0.05224076 -0.008756578 0.032232836 0.121383056 -0.09203023
-0.0265228 0.028954446 -0.08156359 -0.11171691 0.040187925 -0.0072469413 -0.069176555 0.035464033
-0.103562936 -0.08366467 -0.0812199 0.06227748 -0.020275772 0.11839032 -0.118790776 -0.12106022

GCN_Layers.0.W2.bias f4 [64]
00000000: fa5a a2bd 307a 1cbd dafd dbbd 804a 9b3d
00000010: 90d5 d9bc 70cb 6a3c cc6e e9bd 989f dfbc
00000020: c8bf e0bc 40d2 67bb 320a f1bd e89d d7bd
00000030: 9e9f af3d a82c a93c 201f 2abc c07b 3f3b
00000040: 3c21 60bd 3cb5 b1bd b8b3 3cbd 3865 b9bc
00000050: e089 e23d 7e65 fcbd 923c c93d 2253 9a3d
00000060: 5aa0 e63d c838 5abd 36e5 ad3d 605b b6bd
00000070: d848 d1bc 9852 b53c a0b9 d93b 4073 753c
00000080: 3250 9dbd 0074 5839 20ad e1bc 90a7 1f3c
00000090: 9ea3 b0bd c45b 4e3d f821 fc3d a8cd 94bc
000000a0: 5afd d8bd 20b8 8e3b 90d3 7cbd f6da c73d
000000b0: 8cdc 3d3d 584b 853c b0ec 0cbc 403e 64bc
000000c0: d65e a0bd d466 bebd 50b0 d33d 9898 9cbc
000000d0: 0059 d4ba fc3e 86bd 10ee 6b3d 645c 723d
000000e0: 26a1 a3bd 6c3b ed3d 44bc 643d c092 70bd
000000f0: b84c e6bd 84f6 a73d 0005 00bb d4f6 8ebd
-0.07927509 -0.038202465 -0.10741778 0.07582569 -0.026591092 0.01433073 -0.11398086 -0.02729778
-0.027435198 -0.0035373122 -0.11769523 -0.10528165 0.085753664 0.020651177 -0.010383397 0.0029218048
-0.054719195 -0.08677146 -0.04606983 -0.022631273 0.11061454 -0.123240456 0.09826006 0.075353876
0.112610534 -0.053276807 0.08490984 -0.08904147 -0.02554743 0.02213411 0.0066444427 0.014981091
-0.07681312 0.00020642579 -0.027548373 0.00974454 -0.086249575 0.050380483 0.123111665 -0.01816447
-0.10595198 0.0043554455 -0.0617252 0.0975856 0.046352908 0.016271278 -0.008601353 -0.013930857
-0.078305885 -0.09296957 0.10336363 -0.019115731 -0.001620084 -0.06554982 0.05760008 0.05917014
-0.07989721 0.115835994 0.055843607 -0.0587337 -0.11245102 0.08201316 -0.001953423 -0.069806725

GCN_Layers.1.W1.weight f4 [64, 64]
00000000: cc0b d23d bcb4 f8bd 60c6 d23c 0824 bc3c
00000010: e817 21bd c841 b43d 3855 b7bc 1884 e23d
00000020: fce7 c5bd c0a4 1ebd 7803 dc3d b064 58bc
00000030: 00ae 763d f2d8 dbbd b4e9 db3d 440a 66bd
00000040: c0cb 633c b4ce e0bd a8bb 68bd 80ed 2fbc
00000050: 80dd f2ba aa15 b0bd b802 19bd e059 a9bd
00000060: 3e81 dcbd 1a71 ef3d d01c b5bc c203 debd
00000070: b2de 92bd 8000 d03c 4a74 b7bd c2c8 da3d
00000080: 6488 483d c0f3 8cbd 20bd 6cbc 6664 bfbd
00000090: 30e5 57bc b0c3 973d 8c85 673d e007 f6bc
000000a0: bc1c 283d 4611 b7bd c417 c33d cc6a 253d
000000b0: 98ba 303d f88f 57bd 0004 43ba 1c0d ddbd
000000c0: 4aba e13d 20d6 b33d f878 c4bc 4064 4f3b
000000d0: 40cd db3d 806c 0c3c a0e8 67bc 28c4 fabc
000000e0: dac6 f63d 7237 86bd c680 9dbd 50e0 13bd
000000f0: f039 5e3c f097 d93c 8034 5c3d 8c69 97bd
00000100: 50cc 6f3d 6035 f8bc 10d2 503d 5084 e6bc
00000110: a660 ecbd 305c 04bc 508b 86bc f267 e3bd
00000120: 60e0 cfbc a0f4 c9bb 60ee 09bc 8093 f03a
00000130: 7405 33bd 0083 e43c d0b4 913d 10a1 193d
00000140: 265e c43d 8027 823b ba65 e9bd 04fb bc3d
00000150: 0862 2fbd 50e1 75bd 1800 c03d 3a23 943d
00000160: f005 b03d 1c00 263d f060 b7bd ce08 b33d
00000170: ea7a de3d 2021 a6bc a0b0 e3bd 405c 29bd
00000180: 98d2 82bc 869b a13d a00b bd3b ce6b 933d
00000190: ace3 66bd 9076 d73c c0c1 f53d 8cb9 4c3d
000001a0: d06a 13bc 60f1 00bc 3e73 c5bd 4ea8 c73d
000001b0: 58c9 5e3d 14af 16bd a8cc cdbc 2839 83bd
000001c0: d803 d63c f4e6 f2bd 34fd 17bd e005 2e3c
000001d0: 1498 22bd b453 5d3d a486 4f3d 5078 f93c
000001e0: 728c da3d 9845 043d 507d 6abd 8807 7fbd
000001f0: d026 013c 2460 473d 566d ca3d 40be 1c3b
00000200: 708d ab3d c01f 3c3d a071 fbbc a0f5 97bc
00000210: c4dc 6bbd b24f e53d 8cf7 793d 5840 013d
00000220: ea18 d23d b0f8 45bc eab7 8e3d e664 b33d
00000230: 5c82 eb3d a466 3a3d 34da 74bd a043 833b
00000240: e458 34bd 28ed 913d dae6 b73d a8b1 883c
00000250: 6c02 3fbd f0c1 a8bd c019 8bbc 0894 fbbd
00000260: 0e22 f23d a09a e5bc 00fe e839 c88e 063d
00000270: 22f7 963d b481 05bd 2ae5 d73d 5cb1 57bd
00000280: 405d 663b 0823 b83d 10ea 2cbc 2c0e 01bd
00000290: 1a2f 9f3d e21d e0bd 46ef ddbd 24dd 733d
000002a0: 10d9 34bc 60f4 b33b 20f3 1dbd 30d4 a43d
000002b0: 98ba 183d eec3 a2bd 406e a03b 84db 323d
000002c0: ce27 c2bd a623 c0bd 1aca c8bd b87b 7cbd
000002d0: e6a9 be3d 3e8d ce3d 7aec ecbd 0078 c538
000002e0: 68f0 8cbc 4ed9 883d c045 7cbc 90f1 e93d
000002f0: b2bd e33d 105f 4e3d 8844 ef3d e472 8abd
00000300: ac58 683d 7a73 c5bd 5c10 793d 34c2 76bd
00000310: 8270 813d 90b9 71bc 70a9 903d 5e93 a1bd
00000320: 54c4 62bd a019 4a3d 5e1c ea3d ea0d 92bd
00000330: 8c56 623d 08d8 65bd 1c60 efbd 3032 fe3c
00000340: ca40 bd3d 16f3 febd 7256 f0bd 1cd5 703d
00000350: 10a5 ad3d 80f6 c8bd 26f5 90bd a85a a1bc
00000360: 8037 86bc 9819 8a3d 2299 f23d c04a 283c
00000370: 48f8 c5bd 5c37 853d b465 25bd 3826 f5bc
00000380: 7003 423c 9c91 77bd e4dc 243d b0ff 39bd
00000390: 4008 b03d 9866 1a3d 1e2d aa3d 604e e43d
000003a0: d0c4 82bd e8f4 e8bc b04e ecbc a672 a4bd
000003b0: 9072 e23d c465 a23d 7e9f c1bd 10cc 8f3d
000003c0: 94ca 853d 5678 b6bd 68cc 0abd cedd e0bd
000003d0: 789f 00bd 4285 b63d 6089 933c fcab 67bd
000003e0: 1427 663d 1617 a83d ee1f cb3d f823 8cbd
000003f0: 4666 a73d 3087 14bc c089 59bb 80c1 0c3b
0.10256156 -0.12143847 0.025729358 0.0229664 -0.03932944 0.08801609 -0.022379503 0.11060351
-0.09663388 -0.038731337 0.10742849 -0.0132075995 0.060224533 -0.107347384 0.10737935 -0.056162134
0.013903558 -0.109769255 -0.056819588 -0.010737777 -0.0018529147 -0.08597882 -0.03735611 -0.082690954
-0.107668385 0.11691494 -0.022108465 -0.108405605 -0.07171382 0.025390863 -0.08957727 0.10682823
0.048958197 -0.06882429 -0.014449388 -0.09345321 -0.013177201 0.07410371 0.056523845 -0.030033052
0.04104303 -0.089388415 0.09526017 0.040385053 0.0431467 -0.052627534 -0.0007439256 -0.10793516
0.1102186 0.087810755 -0.023983464 0.0031645447 0.10732508 0.00857079 -0.014154583 -0.030611113
0.12049647 -0.06553544 -0.07690577 -0.036102593 0.013563618 0.026561707 0.053761005 -0.07393178
0.058544457 -0.030298889 0.05098158 -0.028139263 -0.11541872 -0.00807862 -0.016423851 -0.1110381
-0.025375545 -0.006163195 -0.008418649 0.0018354505 -0.043706372 0.027894497 0.07114565 0.037507117
0.0958827 0.003971994 -0.11396356 0.09227565 -0.0428181 -0.060029328 0.09375018 0.072332814
0.085948825 0.040527448 -0.08954036 0.08741914 0.10863288 -0.020279467 -0.11117673 -0.041347742
-0.01596956 0.07890992 0.005769208 0.071982965 -0.05636947 0.026301652 0.119998455 0.04998164
-0.008997634 -0.007870048 -0.09641121 0.097488984 0.054391235 -0.03678806 -0.025122002 -0.06407386
0.02612488 -0.11860457 -0.037106708 0.010621518 -0.039695814 0.054034904 0.050665513 0.030452877
0.10671319 0.032292932 -0.057248414 -0.06226304 0.007882789 0.04867567 0.098841354 0.0023917109
0.083765864 0.045928717 -0.030693829 -0.01854974 -0.057583585 0.11196841 0.061027095 0.031555504
0.10258658 -0.0120832175 0.069686726 0.08759479 0.114994735 0.045508042 -0.059778407 0.0040058643
-0.044030085 0.07125312 0.08979578 0.016686276 -0.04663317 -0.08240116 -0.016980052 -0.12284094
0.11822902 -0.028027833 0.00044439733 0.03285101 0.073713556 -0.032594398 0.105417565 -0.052659377
0.0035150796 0.08991057 -0.010553852 -0.031507656 0.07772656 -0.109432 -0.108366534 0.059537068
-0.01103808 0.0054917783 -0.03856194 0.08048284 0.037287325 -0.07947527 0.0048959553 0.043666378
-0.094802484 -0.093817994 -0.09804173 -0.061641425 0.09309749 0.100855336 -0.11568542 9.416044e-05
-0.017204478 0.066820726 -0.015397489 0.114230275 0.11120166 0.050383627 0.11682993 -0.06760195
0.05672519 -0.09641166 0.060806617 -0.0602438 0.06320287 -0.014753714 0.07063568 -0.07889436
-0.055363014 0.049340844 0.11431192 -0.0713156 0.05525832 -0.056114227 -0.11688253 0.03102979
0.09240873 -0.12448709 -0.11735238 0.058796987 0.08478749 -0.09812641 -0.07078008 -0.019696549
-0.016383886 0.06743163 0.11845614 0.010271728 -0.096664965 0.065046996 -0.040380195 -0.02992545
0.01184164 -0.0604416 0.04024972 -0.04540986 0.085953236 0.037695497 0.08309387 0.11147761
-0.06385195 -0.028437093 -0.028846115 -0.0802968 0.11057007 0.079295665 -0.09454249 0.07021344
0.06532779 -0.08909671 -0.033886343 -0.10979806 -0.03140208 0.08912136 0.018009841 -0.0565605
0.05618961 0.08207528 0.099181995 -0.06842798 0.08173804 -0.009065434 -0.0033193678 0.002147764
