lab4-student/code/model/bestModelParms-11-14-18-56.pth (torch, 498345 bytes, 20 tensors)

user_id_embedding.weight f4 [900, 32]
00000000: f4a9 903f a95f 62bf 3fc3 fbbe 1c62 163f
00000010: 49ab a63d bc87 73be 597f fcbf 37e2 c5be
00000020: a415 62bf 83c0 403d b6e7 8a3f c223 aabd
00000030: 3e38 5cbe 063b 393f cb1e 36bf 5ca6 8ebf
00000040: 1b5d b2bf 2e6b 313e 79d9 903e 3d78 adbf
00000050: 328b 503e 9ab7 c73e fe4a ddbd 4b0f e7bf
00000060: 8b7a f93e fa5c acbe 49df 5dbf da74 bf3e
00000070: 0489 4e3f 40b9 84bf eefa 753f fc62 f9bd
00000080: 5c76 9fbe cbfb 4f3f 9a57 e93d 2472 bf3f
00000090: ab09 2c3f f0d6 d8bf 0327 1bbf 9223 5dbe
000000a0: 476d 05be a1f2 b4be c738 bd3f b079 11bd
000000b0: 9e1e 0bbf 78b5 2ebf 2905 143f c607 1a3f
000000c0: da8d fbbe c322 a0be 7870 03bf e567 a7bd
000000d0: e779 19bf 1a31 2a3f 901a 983f 52d9 c53f
000000e0: f58e c0bf 6fbd ee3f 9854 53bf a3d0 4c3e
000000f0: a191 f03e 0fd2 803f 9fda b93f 50aa 82be
00000100: 1e86 23bf 5c79 9cbf 9168 62be 91dc c43e
00000110: 6a3d 943e 29cc 163f e214 dfbe ae38 123e
00000120: 7294 773f ac6c 42bf a1af 8c3d a10c 9cbe
00000130: d01e 09c0 96a2 833e 3815 983e 299a c9bf
00000140: eb86 ac3f bccd 47bf c4c1 92bf 08d6 f03e
00000150: ab58 003f 4acf b4be 04fc d5be 06da a63e
00000160: dbce 263f b484 ce3f 94e2 cebe 5c83 a03d
00000170: c2b4 b23e ed4e 52bf 8ad6 5c3f b2ff c8bf
00000180: 69bd 463f df4d f33e 15a2 813f 5f79 f63e
00000190: ef8a e13f 602a 9bbf 2fd0 843e c425 e83c
000001a0: 065f e6bf 2ac0 8ebf 66bb cf3f 6ff5 fa3e
000001b0: b50a 263f aa0d 3dbd 1788 24be 983e 023f
000001c0: edaf 463e 8ed2 afbe 5f73 0d3f 1746 153f
000001d0: 225e 093f 8edf c1bd c2d4 6e3f be75 7bbf
000001e0: 5457 27be 8b39 d03e 4750 dc3e a5eb f83f
000001f0: f937 d93e 13f6 7bbf f764 853f 6e66 2bbf
00000200: cd6d 3fbf 191d 9fbe 89c9 56be 5dcc bfbe
00000210: 3558 f43e db56 813f 5a90 763f 8c62 913f
00000220: 91fb 36bf 0f5a cfbf 7a3c 443e ee52 b6bf
00000230: 9ed7 1cbf 00e0 f43f b704 bb3f ca5b 803f
00000240: 6352 b33e 87c3 3e3e 4f34 0e3c 155c 5fbf
00000250: c4e8 283e b54b 0d3e 2ede 493f a7b3 08bf
00000260: eb49 3c3d 4717 b83f 166c 08bf 8bcd dd3f
00000270: 9fa8 613e 0916 bc3d 4fb9 f73f c5fc 923e
00000280: d02a 4abf 26e9 7abd 36ef a5bf a3b0 5bbf
00000290: dd57 0ebf 5bdb 8abe 0f75 ae3f 2dd0 b33f
000002a0: 9277 60bf b2ce e7bf 5466 15bf 96c2 33bf
000002b0: 8e10 17c0 36f7 b53f c7ce 10bf f07d 483e
000002c0: 49db 2d3f 4c5e 64bf 71c6 0440 24b5 a2bf
000002d0: fe58 e93e 094e 9d3f 8385 e83e b1bd b4be
000002e0: 6e43 30bf daaf 383f f97f a3bf 2f97 c03e
000002f0: 8bf3 453f 6568 47bf 71ac d03f 70ec 323e
00000300: b3ab b33e 4e27 c5bf d38c 2e3f 9513 943f
00000310: eac7 a63f a4c9 f7bf 8287 edbf 9c38 9f3f
00000320: 21fc 99bf 3890 08be 13a6 ac3f 23cd a5be
00000330: 7621 e03e 5e51 563f 1cb0 f7bf 14e5 f6bd
00000340: adc7 2b3f 4218 51c0 8d7b 05bf a4a8 bcbf
00000350: bd74 183e 4b88 b4be 1301 b4be 1edb 35be
00000360: c222 223f eb83 993f 05e5 a23d b48b 3fbf
00000370: 9356 a6bf f3e4 4ebf ebe1 3940 71c7 20be
00000380: b51e c43e c9ed 32bf 5f49 033f 4134 8f3f
00000390: 12c2 2a40 153d b0bf 15b0 813d 2a0b 873e
000003a0: 8c05 afbe 0127 f83e 2da1 a8bf 02e2 52bf
000003b0: bcb5 fdbe 41dc 283f 8042 b83d 2cd9 7c3f
000003c0: 8473 12be af26 9bbf f284 6dbf 24dd 22bf
000003d0: fb7a e43f c43d dfbe 2043 e53f 2b07 1dbf
000003e0: ecf5 d23e aeaf b83e dec9 633e 95ee 353f
000003f0: 4d3b 783f a323 54bf 2c5e a73f 922b 03c0
1.1301866 -0.88427216 -0.49172398 0.58743453 0.08138139 -0.23782247 -1.9726363 -0.3864915
-0.8831427 0.047058593 1.0851963 -0.083076015 -0.2150583 0.7235569 -0.71140736 -1.1144519
-1.3934664 0.17326042 0.28290918 -1.3552319 0.20365599 0.39007264 -0.10805319 -1.8051542
0.48726305 -0.33664685 -0.8666883 0.37393838 0.8067782 -1.0369034 0.96086013 -0.12177083
-0.3114499 0.8124358 0.11393662 1.4956708 0.6720225 -1.6940594 -0.606064 -0.215956
-0.13029967 -0.3534136 1.4782952 -0.03551644 -0.54343593 -0.6824565 0.57820374 0.6016811
-0.49131662 -0.3127652 -0.5134349 -0.08174113 -0.59951633 0.66481173 1.1883106 1.5456946
-1.5043627 1.865156 -0.82550955 0.20001464 0.46986106 1.0064105 1.4519843 -0.25520563
-0.6387652 -1.2224536 -0.22110201 0.3844953 0.28953105 0.58905274 -0.4357062 0.14279434
0.96710885 -0.7594707 0.06869436 -0.30478385 -2.1425056 0.2570998 0.2970369 -1.5750171
1.3478674 -0.780483 -1.1465383 0.47038293 0.50135297 -0.353144 -0.41793835 0.32588214
0.65159386 1.6134248 -0.4040724 0.07837555 0.34903532 -0.8215168 0.8626486 -1.5703032
0.77632767 0.47520348 1.0127589 0.48139474 1.7620524 -1.2122307 0.2594008 0.02833832
-1.7997749 -1.1152394 1.6229064 0.49015376 0.6486009 -0.04615561 -0.16067539 0.5087676
0.19403048 -0.34340328 0.5525417 0.58310074 0.5365926 -0.09466468 0.9329339 -0.98226535
-0.16341907 0.40668902 0.43029997 1.9446913 0.42425516 -0.98422354 1.0421437 -0.6695317
-0.7477692 -0.31076887 -0.20975317 -0.37460604 0.47723547 1.0104631 0.96314013 1.1358199
-0.7147761 -1.6199359 0.19163695 -1.4244058 -0.61266506 1.9130859 1.4610814 1.0028012
0.35023794 0.18629275 0.0086794635 -0.8724988 0.16495043 0.13798411 0.78854644 -0.5339913
0.04596893 1.4382104 -0.53289926 1.7328352 0.2203698 0.0918389 1.9353427 0.28708473
-0.78971577 -0.061257504 -1.2963626 -0.858164 -0.5560282 -0.2712048 1.3629473 1.4047905
-0.8768245 -1.8109953 -0.58359265 -0.7021879 -2.3603854 1.4216068 -0.5656552 0.19579291
0.6791273 -0.89206386 2.074612 -1.271153 0.45575708 1.228944 0.4541436 -0.35300973
-0.6885289 0.7214333 -1.2773429 0.37615344 0.7732474 -0.7789367 1.6302625 0.17473006
0.35091934 -1.540262 0.6818363 1.1568476 1.3029759 -1.9358411 -1.8556979 1.2439151
-1.2030069 -0.13336265 1.3488182 -0.3238307 0.4377553 0.83717906 -1.9350619 -0.12055412
0.67101556 -3.2671056 -0.5214165 -1.4738965 0.14888282 -0.35260233 -0.3515707 -0.17759368
0.63334286 1.1993383 0.07953838 -0.74822545 -1.299517 -0.808181 2.904414 -0.15701081
0.38304678 -0.6989408 0.5128383 1.1187822 2.668095 -1.3768641 0.06332413 0.26375705
-0.3418392 0.48467258 -1.3174187 -0.8237611 -0.49552715 0.6596108 0.08997059 0.9876888
-0.14301878 -1.212118 -0.92780983 -0.63618684 1.7850031 -0.4360181 1.791111 -0.6133906
0.41203249 0.36071533 0.22244975 0.7106717 0.96965486 -0.8286688 1.3075614 -2.0495343

user_age_embedding.weight f4 [5, 4]
00000000: 1407 503e be78 813f 610c 31bf f65f 0e40
00000010: e3a6 6d3e 3c49 b9bf 373b 873e dfad 9f3f
00000020: f8be 68bd d9c8 95bd 0ede 983f b51f 723e
00000030: 0034 893f 9198 883f ad08 f23f 0179 9e3f
00000040: 66af 04bf 6a75 6b3f e2f5 1240 0c45 54bf
0.203152 1.0114973 -0.69159514 2.224607 0.23208193 -1.4475474 0.26412365 1.2474936
-0.056822747 -0.07313699 1.1942766 0.23644908 1.0718994 1.067156 1.8908898 1.2380677
-0.51830137 0.91976035 2.2962575 -0.8291786

user_gender_embedding.weight f4 [2, 2]
00000000: 8cc1 f13e 05d1 1dbf b694 a1bf 6d2b e9be
0.47217977 -0.61647063 -1.2623508 -0.45540944

user_occupation_embedding.weight f4 [21, 8]
00000000: 7c2f 29be 05b5 cf3f 2a8a 32bf dd95 1ebe
00000010: 696a a83f 6d3f 723f d56d c43f 71e3 fc3f
00000020: 251a 7dbe 1440 b5bf 62f7 9d3f 8117 50bf
00000030: 78d2 90bf 8fc3 803f 213d 81bf cd2b bf3e
00000040: f03e 533f 3b0d 21bf bf89 e63f 1938 903d
00000050: 01ab ba3f e1f4 03bf bfc2 89bf d4e9 c33f
00000060: fcfd 0940 0c7a f93e b021 bcbf b155 dc3f
00000070: 0fbd 1d3f 6468 eb3e a297 c9bf ba78 52be
00000080: 4514 b03e 7a32 6bbf 687c 0fbf 1657 ec3d
00000090: 39fb 8b3f aae6 64bf 4d5c 433d caa2 14bf
000000a0: d58b e6bf 2883 aebd fcdf d83e ec68 09bf
000000b0: 4148 ad3d ebf5 83bf cf67 1a3e 7dfb c03e
000000c0: f53e 163e ddde 01c0 241d 953f d12a 683e
000000d0: 0fee 89be aa2b b23f f4e9 edbe be10 b83f
000000e0: b998 09be 4bc5 8b3f 0769 acbe eb36 4b3f
000000f0: 8ee4 213d 3398 2c3f 8adc 553e 0f5e c13f
00000100: 8e34 e4be 5c5b 39bf a9c0 8d3f 357b 42be
00000110: 2d15 0dbe 9da0 46bf 5cee 113f bdf2 a43e
00000120: 0550 423f 77ea bbbd 7532 2b3f 3ef1 a6bf
00000130: 2142 0fbd c85e 52bc f773 4f3f 832f c63f
00000140: 73b7 93be 23b9 f9be 6757 393f 495f 68bf
00000150: 7ddc a33f 711b 99be ef12 d2bf 0878 0bbe
00000160: a8bd 5ebf 2067 4b3e 2edc 8f3f 4a18 d2be
00000170: 7f64 f53f 5d72 9a3e 706f b1bf 7d80 b03f
00000180: 5182 c83f d31a 0540 566e c73f 28fd bbbf
00000190: 5ad9 d7be e566 f13e f30c 02bf 437e 35be
000001a0: dd5d 063e 67b4 3cbf c502 933f 626f e8be
000001b0: fb05 893f 54d1 de3f f60f 9ebe 7d89 b33f
000001c0: 54fe 53bc 6d7b d03f b162 8f3f 4408 08bf
000001d0: f6a2 08be 2efc 34bf 87ab dcbe b6e6 ed3e
000001e0: 3050 3d3f 951a b13f 3dee 9f3b 3784 43bf
000001f0: c701 143e d7cb 1c40 2820 c73e cec7 2e3f
00000200: b9e3 e3bd 5187 8f3e e774 27bf d6c1 77bf
00000210: af03 dabe b29a 213f a608 17bf d05d a23f
00000220: 2d4e 2d3f a239 713f 5452 b2bf 9bd0 a7bf
00000230: 4c0a 0240 04f2 87be 6e42 893f dfd8 2e3f
00000240: 608c 3fbe d115 4a3d 763b ef3f b814 dcbe
00000250: e2ad 093f 9450 7abf d1a3 5abf a81e 843e
00000260: 6d5b 503f 119b ba3f 3c28 13c0 40bc bcbf
00000270: dce7 83be c283 d8be db88 f83e a79f a23f
00000280: 9533 1ebf 15bd 73bf ea24 883f 73e2 a8bf
00000290: 4a6a 6bbe e577 86be f65f 49bf 592c c03f
-0.1652202 1.6227118 -0.6974207 -0.15486856 1.3157474 0.9462803 1.5346018 1.975691
-0.24717005 -1.416018 1.234112 -0.81285864 -1.131423 1.005968 -1.009678 0.37338105
0.8251791 -0.62910813 1.8010787 0.0704195 1.4583436 -0.5154553 -1.0762557 1.5305734
2.156127 0.48725927 -1.4697781 1.7213651 0.61616606 0.4597808 -1.57494 -0.20553866
0.34390464 -0.91873896 -0.56049204 0.11540048 1.0936042 -0.89414465 0.047695447 -0.58060896
-1.8011423 -0.0852111 0.42358387 -0.53675723 0.08461047 -1.0309423 0.15078662 0.3769187
0.14672454 -2.0292275 1.1649518 0.22672583 -0.26939437 1.3919575 -0.46467555 1.4380109
-0.13437165 1.0919584 -0.3367388 0.79380673 0.039524607 0.6741974 0.2088491 1.510683
-0.44571346 -0.7240503 1.107442 -0.18992312 -0.13777609 -0.77588826 0.5700433 0.32216445
0.7590335 -0.0917558 0.66873866 -1.3042371 -0.034975175 -0.01283998 0.81036323 1.548325
-0.28850898 -0.4877406 0.7239899 -0.90770394 1.2801663 -0.2990375 -1.6412028 -0.13620007
-0.8700814 0.19863558 1.1239069 -0.41034156 1.9171294 0.30165377 -1.3862133 1.3789212
1.566477 2.0797622 1.5580547 -1.4686632 -0.42158014 0.47148815 -0.5080101 -0.17723946
0.13121744 -0.7371277 1.148522 -0.45397478 1.070495 1.7407632 -0.30871552 1.4026333
-0.0129390545 1.6287667 1.1201993 -0.5313761 -0.13343415 -0.70697296 -0.43099615 0.4646508
0.7395048 1.3836237 0.004880695 -0.7637362 0.14453803 2.4499414 0.3889172 0.6827363
-0.11127419 0.28032926 -0.65412754 -0.96780145 -0.42580935 0.6312667 -0.5899757 1.2684879
0.6769741 0.94228566 -1.3931375 -1.3110536 2.0318785 -0.2655183 1.0723398 0.6829967
-0.18705893 0.049337212 1.8690021 -0.42984557 0.5378095 -0.977792 -0.85406214 0.2580464
0.81389505 1.4578573 -2.2993307 -1.4744949 -0.25762832 -0.42288023 0.48541912 1.2704972
-0.6179746 -0.9521039 1.0636265 -1.3194107 -0.22989765 -0.26263347 -0.7866205 1.5013534

user_location_embedding.weight f4 [760, 18]
00000000: 75f9 f43b aa3d 56bf b9a5 84bc 1602 b1bf
00000010: a0a0 aa3e df2e ca3f d996 973d 7ccc d23f
00000020: f4d5 afbf 9de3 1f3f 35b4 92bf 07bd 303e
00000030: b264 b7bd cc6e febe d37f b2bd 2e44 df3a
00000040: 73e7 0440 e8f7 11bf af16 bfbe 7cd6 7dbf
00000050: 4956 d33e b010 823d 6bca 3bbf cfff 133f
00000060: b21d cbbe 0084 773f 3834 9fbe f4b4 2cbf
00000070: 95d3 2e3f 8d5b df3e 5e50 a73f 07e3 1fbf
00000080: 1718 933e 7a8e 1e3e 18ee 103f af4b 93bd
00000090: 5607 26bf 188b b83e 4763 72be 5a19 9bbf
000000a0: 808b d7bf 0a35 e0bd 0f5b 1abf 4660 a83f
000000b0: 7b5f 23bf b3c7 0740 49ca 22bf 7a9a 833f
000000c0: 0b99 b53f 3394 8d3e 252e c7be e2ad 6540
000000d0: f39f 7ebc 545b e83d b6ee a5bf 0538 98bd
000000e0: 3bb4 093f c8a6 3fbf 6148 08c0 a04c 87bf
000000f0: a02d a33f 9e04 a03f 3bc0 99bf 1b3a e63f
00000100: 83ef 893e f959 a53f 0d25 45bf 1e33 9f3f
00000110: 2283 bdbf 1792 843e 4fa2 383f 2e53 dbbe
00000120: 4961 7dbf 7f38 5ebf 4ade 61bd 82e6 08bf
00000130: 7df2 d3bf 3bdc af3f d90c a9bf eee4 92bf
00000140: 2b02 38bf b39b 343f 3673 04c0 c76a 643f
00000150: 4118 30bf 1d2a c5bf 6cad c1bf a378 793f
00000160: c34d 2e3f 67b2 f93d 921a 52be 74f4 ac3e
00000170: 3276 f23b 44dd 9fbf b1cd 3abf f8d7 8bbd
00000180: a536 26bf e13b 8abe a88a 353f a6f8 4b3f
00000190: 66f8 16bf 2e12 5d3f a4a4 be3e 8f11 8f3f
000001a0: 83e2 82bf b99d 873e c95c 923f dca2 c13e
000001b0: 305c efbf 1da2 c8bf 0da4 73bf 4b77 c2bd
000001c0: 491f d23f fb76 4abe 4d48 e0be 312a b33f
000001d0: 01f1 83bf ad07 333f 84c5 e5bf e53a 0fbf
000001e0: 14e1 9ebd 6935 1dbe 12b2 9fbd 0c67 61be
000001f0: f7ad e93e ba1d 273f cfe7 fb3f 9b6a 43bd
00000200: 309f 12c0 7ddc 17bf 4ad5 0fbf c54d 55bd
00000210: 2be1 bbbe f639 1b3f 2560 f53f bf91 ec3e
00000220: 10cd d7be fb2d 6abf 7a4c 98bf 053e 293f
00000230: a97f 813e 202f b1bd bbb7 b93d a003 09c0
00000240: 2cc9 1dbf 51ff b5bf a9b8 24be 1c2f bfbf
00000250: 7cb5 cdbf fe58 e83f 40be 84bf 8d50 9f3d
00000260: e7b8 31be 8898 3a3f bce6 333f 857a 6a3f
00000270: e4ae 64be 63c2 723b b38f cebe 9afd 26bf
00000280: 7dc0 133f b897 cbbd a2c1 8bbf 6e3d 4dbe
00000290: d3e9 903e 05f8 d5be 7301 c5bc 0a1f 8c3f
000002a0: 91a6 ebbf e440 253f 8b1c 313f 4ae7 1e40
000002b0: 4235 00bf 7f96 5abe 663c 6f3f 2d07 d6bd
000002c0: 924f 1dbf 5a07 bcbc 1698 59bf 302f 1dbe
000002d0: 0306 8bbe 6438 1e3f 95e2 40bf d4d1 293f
000002e0: 63ee 4b3f 010a ac3f 854e 53bf 84d4 2440
000002f0: 5dbf ecbf f5b7 f83f 992d 3a3f 58e1 1dbf
00000300: 0fce ec3d 13e1 073f 2573 a7bf cc94 963f
00000310: 50f8 9b3e 8bda 22c0 21c3 4bbf b361 fdbf
00000320: f415 a23f d1e4 993e a5b2 b2bf 527f 8e3f
00000330: 2ce6 77bf 9500 813f 4e21 ec3e 7166 08be
00000340: 33ed 47bf 4fcb debf ee77 e73f 1714 95bd
00000350: 1a9b 663f 2d3e e13f e7eb 06bf baa2 9f3f
00000360: 246b 82bf 2958 0ac0 f8c3 eabe 48fe b53f
00000370: 0958 bd3f ea89 5a40 ab81 d6bf f1fc ad3f
00000380: a447 94bf 6204 4a3e 875f debe bb78 83bf
00000390: 6a9e 83be 2fc6 dc3e 059c 95bf 31cd 92bf
000003a0: efaa fa3e 4965 7dbe ef3e 4dbe f31d b8bf
000003b0: a122 753f 9475 833d 4c20 97bf e92b a33e
000003c0: d7e0 76bd 36bc 743f 8b37 363f c573 5c40
000003d0: b029 f5bf 8156 10c0 b2b8 5cbd a9c3 303e
000003e0: 8eb8 56bf d80e 7bbf 22ee af3f c8d9 f8be
000003f0: f2aa e4bf 1037 bc3f 6dc6 553e c9fb 73bf
0.0074760267 -0.8368784 -0.016192304 -1.3828762 0.33325672 1.5795554 0.07401819 1.6468654
-1.3737168 0.62456685 -1.1461245 0.17259608 -0.08954753 -0.49693906 -0.08715787 0.0017033869
2.0766265 -0.570189 -0.37321994 -0.991554 0.41276768 0.06350839 -0.7335574 0.5781221
-0.39671093 0.9668579 -0.31094527 -0.6746361 0.682916 0.43624535 1.3071401 -0.6245579
0.28729317 0.15484038 0.566133 -0.0719217 -0.64854944 0.3604362 -0.23670684 -1.2117112
-1.6839447 -0.109476164 -0.60295194 1.315438 -0.63817567 2.1215637 -0.6358991 1.0281518
1.418733 0.2765213 -0.38902393 3.588738 -0.015541065 0.113455445 -1.2963474 -0.0743256
0.53790635 -0.74863863 -2.1294177 -1.0570259 1.2748299 1.2501409 -1.2011789 1.7986482
0.26940545 1.2918082 -0.7700966 1.2437475 -1.4805644 0.25892708 0.72122663 -0.428369
-0.9897657 -0.86804956 -0.055143632 -0.53476727 -1.6558377 1.3739084 -1.3207046 -1.1476114
-0.7187831 0.7055008 -2.069532 0.8922543 -0.6878701 -1.5403477 -1.5131049 0.974497
0.68087405 0.12192231 -0.20517948 0.33780253 0.007399344 -1.24894 -0.7297011 -0.06828302
-0.6492713 -0.2699881 0.709147 0.7967628 -0.58972776 0.86355865 0.37234986 1.1177233
-1.0225376 0.2648752 1.1434566 0.37819564 -1.8700008 -1.5674473 -0.95172197 -0.094954096
1.6415797 -0.1977195 -0.4380516 1.3997251 -1.0307924 0.6993359 -1.7950902 -0.5594924
-0.07757774 -0.15352406 -0.07797636 -0.22011966 0.45640537 0.65279734 1.9680117 -0.04770909
-2.290966 -0.59320813 -0.5618483 -0.05207612 -0.36695227 0.60635316 1.9169966 0.46204945
-0.42148638 -0.9147641 -1.1898339 0.6611026 0.2529271 -0.086515665 0.09068247 -2.1408463
-0.6163509 -1.4218541 -0.16086067 -1.4936252 -1.607101 1.8152158 -1.037056 0.07779036
-0.17355691 0.72888994 0.7027395 0.915932 -0.2233234 0.0037042133 -0.4034401 -0.65230715
0.5771559 -0.099410474 -1.0918467 -0.20042965 0.28303394 -0.41790786 -0.024048543 1.0946972
-1.8410207 0.6455214 0.6918418 2.4828668 -0.50081265 -0.21346472 0.93451536 -0.104505874
-0.6144954 -0.022952724 -0.8499769 -0.15350032 -0.27153024 0.61804795 -0.75345737 0.663358
0.79660624 1.3440553 -0.82541686 2.575471 -1.84959 1.9431139 0.72725827 -0.6167197
0.1156274 0.5307781 -1.3082014 1.1764159 0.30462885 -2.5445888 -0.7959462 -1.979544
1.266295 0.30057386 -1.3960768 1.1132605 -0.9683559 1.0078303 0.4611916 -0.13320328
-0.7809631 -1.7405795 1.8083475 -0.072792225 0.90080416 1.75971 -0.5270371 1.2471535
-1.0188947 -2.1616309 -0.45852637 1.4218225 1.4792491 3.4146676 -1.6758322 1.3592817
-1.1584363 0.19728234 -0.43432257 -1.0271219 -0.25706798 0.43119952 -1.1688238 -1.146887
0.48958537 -0.24745668 -0.20043539 -1.438414 0.95755965 0.064189106 -1.1806731 0.31869438
-0.060273018 0.9559969 0.711785 3.444566 -1.9153347 -2.2552798 -0.053887077 0.17262138
-0.8387536 -0.98069525 1.3744547 -0.48603654 -1.7864668 1.4704304 0.20876475 -0.9530607

item_id_embedding.weight f4 [1600, 32]
00000000: 3d84 e73e 7c84 75bf d0cc 1c3f f3e4 a83e
00000010: b05b ab3f 0868 32c0 6783 593f 6915 d93e
00000020: 6452 25bf 60ab a73e 9104 283f 84ec 86be
00000030: b135 6a3e a6d7 e6bd 9abb 02bf 08d7 2c3f
00000040: 446c 763f de1c 613f 15ad dfbe 58a0 963f
00000050: 903b 5d3e aa49 0e40 d062 8ebd c24f 2a3f
00000060: d9fc 153f cec8 713f 650d 36bd 196e 583f
00000070: a3fa dcbe 1485 b1bf 40a3 a63f 6115 803e
00000080: 36aa eabe 9710 d3bf a0ec 793e 08ec a13f
00000090: 43c9 613f 0985 24bf 9da3 86bf 707b a63f
000000a0: fb2f 39bf 4cf7 de3e 214a 83bf b90a 54be
000000b0: 8538 dfbe 1822 aabd a928 04be 3d1d 82be
000000c0: 4838 b33e ddaa e0be d010 f5be df64 7fbf
000000d0: 0703 bd3f 26b7 613e 065f 44bf e203 253f
000000e0: 4fab 013f e943 aa3f 0a2c c93f a0f6 133f
000000f0: e26b 9c3f b01c d4bd a8be 0c3f 74d9 dbbe
00000100: 8cc2 63bf 91fa 7ebf fa86 553e ff5c 5e3f
00000110: 8963 993f a415 97be deed d8be b7bd 04bd
00000120: 5038 473f a7d2 a2bf d87b 3b3d 8f17 8f3e
00000130: 18c5 8abf 239e a33d ddb8 d63e 826f 13bf
00000140: 8836 b03e 26b3 5bbf b3b8 15bf 82aa 9cbf
00000150: c158 a33f 2bad 2fbf 027b fb3f c173 f3be
00000160: 99f3 4c3e 2145 0740 a044 233f 7622 c93e
00000170: 2fb8 8abd 05ef 953f 0098 1740 dde6 ccbe
00000180: 8d49 c33f c7e5 2fbf def2 a9bf 0936 2f3e
00000190: 211e 633f 835b e73c 3967 43bf eb05 453f
000001a0: eb13 523f d071 78bf 8e58 63be 215b 7e3f
000001b0: 4dfe debf e971 f9be d55d 703e 0dbc 73be
000001c0: 55fd b63f 3426 bfbe 7718 563d e047 9f3f
000001d0: 6662 9e3d 64b7 91bd 7775 1bbe b3ab 053f
000001e0: a8bc f73f 6c65 273f 5fd9 803f 177d 0540
000001f0: 86bd 0f3f e97d 90bf d283 ecbe 3d90 e13e
00000200: 258e d6be 566e cbbf af37 d33d bf08 133e
00000210: 1b3b fcbe 8e45 a03f 5279 8dbe 948e 5f3f
00000220: 1675 f2be 5d81 fcbf 7a02 4cbf 868f c8be
00000230: 26d3 b4be 9bcb 83bf fead 5a3d cced 42bf
00000240: 61f5 3940 48dd 0cbf 2e06 473f 1fa3 c0bc
00000250: d60d eb3e abde a6bf f764 cd3f 3ea6 80be
00000260: 4cdc 213f 27f5 9c3d d997 483e 7d6a 803f
00000270: f33a b33f f46f a1bf 7167 073f fb9f 34be
00000280: 908c 5b3d df5c a4be 12d6 0c3f 561b 32be
00000290: f9a1 cc3f 652e 4abf f424 b4be 740f 733e
000002a0: 7b26 25bf 09f2 bfbe b2e0 de3e b8a9 f3be
000002b0: aed1 4abf 0d39 0040 cd46 b2be dac2 0040
000002c0: 30b2 983f 8b02 49be da08 e43f 959d 133f
000002d0: a420 0540 6f01 5c3f ded3 9dbe 371b 84be
000002e0: 4256 f63e 4dd7 d3be f681 00bf bc8e 19bf
000002f0: afb3 603f 9ec2 9cbf e19a d73d 5578 85bf
00000300: 8c60 a0bf 7b26 00bf 7a69 88bf 1465 243f
00000310: 1b0e 323f ab04 f5bd 0b9c da3e 5122 c03e
00000320: 16dc b63f 0768 a4be 5c3f ecbd 7e9e e1be
00000330: 409e 993e b9c4 27bf f165 20c0 e116 7abe
00000340: d734 5d3f 3af8 e5be 8ce7 0840 94d8 bb3f
00000350: d472 693e c7fa 46bf bf64 54bf 4558 51bf
00000360: 466d e03f 2d1a 72bf c858 0f40 112b 94be
00000370: 7d01 b73e fce7 e2bf 2ee9 833f 9b9e 12be
00000380: 9493 c0bf 6d62 b23f 2217 b53d c23c 46bf
00000390: 6d02 06be 9ee6 11bf 6d47 8dbe 9769 8cbd
000003a0: c398 32bf 67ab e2be 8fb5 c9be 7d71 923d
000003b0: 469d c6bd 6200 cbbf 0fdf c73e b178 383f
000003c0: 4c98 663f d014 8e3f 5226 093f 076e 9bbf
000003d0: 3311 c6bf c6be de3e 5ff1 bf3e a878 d03f
000003e0: bc1b 2c3f 85cf 09be b200 9f3f 06fd 5e3e
000003f0: 1c87 dabe cfa9 e0bf dad4 0f3f 41c7 eb3e
0.45218077 -0.9590528 0.6125002 0.32987174 1.3387356 -2.7875996 0.8496613 0.42399147
-0.64578843 0.32747936 0.6563197 -0.26352322 0.22872044 -0.112716004 -0.5106751 0.6751561
0.9625895 0.8793467 -0.4368674 1.1767683 0.21604753 2.223246 -0.06952441 0.6652795
0.5858894 0.9444703 -0.044446368 0.84542996 -0.4315997 -1.3868737 1.301857 0.2501631
-0.45832986 -1.6489438 0.24406672 1.2650156 0.88197726 -0.64265496 -1.0518681 1.300642
-0.7233884 0.43548048 -1.0256997 -0.20707215 -0.43597808 -0.08307284 -0.12906136 -0.25412932
0.35003877 -0.43880358 -0.4786439 -0.9976329 1.4766549 0.22042522 -0.76707494 0.6445905
0.5065202 1.3301975 1.5716565 0.57798195 1.2220423 -0.10357034 0.5497842 -0.4293934
-0.8896873 -0.99601084 0.2085227 0.8686065 1.1983501 -0.29508698 -0.42368978 -0.03240749
0.778203 -1.2720536 0.045772403 0.2794766 -1.0841398 0.079891466 0.41937914 -0.5759202
0.34416604 -0.85820234 -0.58484954 -1.2239535 1.276146 -0.6862361 1.9646914 -0.4754925
0.200148 2.1135943 0.6377659 0.39284104 -0.067734115 1.1713568 2.3686523 -0.40019885
1.5256821 -0.6870999 -1.3277242 0.17110457 0.8871785 0.028241878 -0.7632938 0.76962155
0.8206164 -0.97048664 -0.2220175 0.993578 -1.7421356 -0.4871972 0.23473294 -0.23802204
1.4296061 -0.37333834 0.052269425 1.244381 0.07733612 -0.07115057 -0.15181528 0.5221512
1.9354448 0.6538913 1.0066336 2.0857599 0.56148565 -1.1288425 -0.4619432 0.44055358
-0.41905323 -1.5893047 0.10313355 0.14358805 -0.49263844 1.2521226 -0.27631623 0.8732693
-0.47354954 -1.9726979 -0.7969128 -0.39172 -0.35317343 -1.029651 0.053388588 -0.761441
2.9056017 -0.5502515 0.77743804 -0.023515282 0.45908993 -1.3036703 1.6046437 -0.25126833
0.6322677 0.076639466 0.19589175 1.0032498 1.4002365 -1.261229 0.52892214 -0.17639153
0.053600848 -0.32102105 0.55014145 -0.1739324 1.598693 -0.7897704 -0.35184443 0.23736364
-0.6451184 -0.37489346 0.43530804 -0.47590423 -0.79226196 2.003482 -0.34819642 2.0118928
1.1929379 -0.19629876 1.7815201 0.57662326 2.0801172 0.8593969 -0.30825704 -0.25802013
0.48112684 -0.413752 -0.50198305 -0.5998342 0.87774175 -1.2246892 0.10527588 -1.0427347
-1.2529464 -0.50058717 -1.0657189 0.6421673 0.69552773 -0.11963781 0.42697176 0.3752618
1.4285915 -0.32110617 -0.11535522 -0.44066232 0.30003548 -0.6553455 -2.506222 -0.2442279
0.8640875 -0.44915944 2.1391325 1.4675469 0.2279771 -0.77726406 -0.82966226 -0.81775314
1.7533348 -0.9457119 2.2397938 -0.28939107 0.35743323 -1.7727046 1.0305536 -0.14318316
-1.5045037 1.3936287 0.08842303 -0.7743646 -0.13086863 -0.5699252 -0.27593556 -0.06856077
-0.69764346 -0.44271395 -0.3939633 0.071505524 -0.09697966 -1.5859492 0.39037368 0.7205916
0.90076137 1.1100101 0.535741 -1.2142953 -1.5473999 0.43504924 0.3748884 1.6286821
0.6722982 -0.13458069 1.2422087 0.21776208 -0.42681205 -1.7551821 0.5618416 0.46050456

item_type_embedding.weight f4 [5, 8]
00000000: d060 9d3f 50df 40bf 17a7 0740 7f31 5a3f
00000010: 2af3 8f3e 8b3f 9e3f 5255 19bf 4859 6f3e
00000020: 8a26 403f 74d7 19bf 0f84 b13f 4406 0c3f
00000030: 5c2d 4fbf 4fd6 9cbf 5b0b 473f c3cb b53f
00000040: 89f4 2c3d 7a5c 1cbf 8a6c 6fbe 1fbf 82bf
00000050: c50e 11bf ccaa 323e 24b8 99be 3f7a cfbf
00000060: a313 223f d434 b03e 703e a53f 3fa0 b83f
00000070: f45c 6740 14ba 833f 27ba d3bd d990 6abf
00000080: 7f29 09c0 13ff 9f3f dc02 c0bf 7bee 843f
00000090: 398b 513f 753a 1dbe 7923 913e 712f e3bf
1.229517 -0.7534075 2.1195734 0.85231775 0.28115207 1.2363142 -0.59895813 0.23373902
0.75058806 -0.6009438 1.3868426 0.5469706 -0.8092859 -1.2252902 0.777517 1.4202808
0.042225394 -0.6107861 -0.23381248 -1.0214576 -0.5666316 0.17447966 -0.300233 -1.6209182
0.63311213 0.34415305 1.290968 1.4423903 3.6150484 1.0291162 -0.1033824 -0.9162727
-2.1431577 1.2499717 -1.5000873 1.0385278 0.8185306 -0.15354331 0.28347376 -1.7748853

item_temperature_embedding.weight f4 [7, 8]
00000000: aa0f 613c 7c1f 6abf 599f 2e3e 3386 e3bf
00000010: 57c9 cebe b782 5abf 5b99 f83e 41de 01c0
00000020: 401c 803f e412 4c3f d492 cebd 921c 543f
00000030: d601 89bf d03e b23f 1500 b9bf 13c5 c4bf
00000040: ad74 78be d90a 9d3f 07c5 d93f d9a2 ccbe
00000050: a991 e9be e9cd 723f 8c56 d2bf 9ffc 48bf
00000060: c5f0 9cbe 82ca 3abe fa67 d3bc cd01 0dbd
00000070: 5e6a 98bf 6a52 6e3f 9f32 65bf dcb9 7c3f
00000080: 517b 4abe dcb4 75bf 7e85 783f 2204 3dbe
00000090: 5ce2 99be eff6 0b40 ca5e e63e 13a0 003d
000000a0: 2378 a73f 821c 80bf 6241 d4bd edb1 2b3e
000000b0: 8199 cf3b f807 353e b4a7 9e3f 4acb 9d3f
000000c0: 1dad 18bf 811d 0ebe eeea 08c0 3419 c93e
000000d0: 8c0a 5cbf 41e2 c33f 3112 5b3e 92c5 7fbf
0.013736645 -0.9145429 0.17052974 -1.7775329 -0.40387985 -0.85355705 0.485545 -2.0291903
1.0008621 0.79716325 -0.10086599 0.82856095 -1.0703685 1.3925419 -1.445315 -1.5372642
-0.24263258 1.2268935 1.7013253 -0.39967993 -0.45618942 0.94845444 -1.6432662 -0.7851047
-0.30652443 -0.18241313 -0.025806416 -0.034425545 -1.1907461 0.93094504 -0.89530367 0.987211
-0.19773604 -0.95979095 0.9707869 -0.18458608 -0.3005551 2.1869466 0.44994193 0.03140266
1.3083538 -1.00087 -0.10364033 0.16767092 0.0063354378 0.17678821 1.2394929 1.2327664
-0.5963915 -0.13878442 -2.139339 0.3927704 -0.85953593 1.5303422 0.21393658 -0.99910843

item_humidity_embedding.weight f4 [6, 8]
00000000: 4849 a8be bc64 153e 88e6 3abf 2f47 8b3e
00000010: a13a d0bf 60f2 363e 9cc8 04c0 48ab 2c3f
00000020: 777f 0ebf 62e8 37bf a496 443b c4b3 a8bf
00000030: 2359 bc3e 95bf 783f d013 bcbe c7d0 243e
00000040: 5878 a9be 21fc 22be 38d7 aa3f 8245 993f
00000050: 0d21 ee3e 5e5b 6d3c 05b9 c23f 6b80 08bf
00000060: 5b2b c93f 003f 223f f5b0 3fc0 5347 603e
00000070: fdb3 82bf 6881 ffbd 2f74 fd3d 3dc8 2ebd
00000080: fbc9 ecbf 8175 063f 2aec 20bf dd8f 34bf
00000090: 8be6 903f 63fb acbf 4ea7 10bf 18ec 92be
000000a0: a9e5 a23e dcda d43e d10c 86bf a103 abbd
000000b0: 4e20 37bf 68fe 733f 2b84 243f 27c7 883f
-0.3286841 0.14589208 -0.7300801 0.27202746 -1.6267892 0.17865896 -2.0747442 0.67448854
-0.55663246 -0.71838963 0.0029997015 -1.317986 0.36786756 0.9716733 -0.36733866 0.16095267
-0.33099627 -0.15916492 1.334693 1.1974337 0.4650959 0.014487116 1.5212713 -0.5332095
1.5716356 0.6337738 -2.9951756 0.21902208 -1.0211178 -0.12475854 0.12375676 -0.04267143
-1.849914 0.52523047 -0.6286036 -0.7053202 1.1320356 -1.3514217 -0.56505287 -0.2869575
0.31815842 0.41573226 -1.0472661 -0.083503015 -0.7153367 0.9531007 0.6426417 1.0685776

item_windSpeed_embedding.weight f4 [5, 8]
00000000: 55ca 8a3f 7d25 c43e ebe6 2ebf dc6e 733f
00000010: 5d8b 813f 8067 123e 1796 dfbe 954a 1f3f
00000020: a4d1 423f f873 abbe e94a 16be 38a4 9fbf
00000030: 286d 00bf 66e1 583f a735 023f 9d6f 42bf
00000040: 850b 04bf 0b79 81bf bce8 e13f 1ea3 963f
00000050: 6232 82bf f39f ebbf 08a9 893d fcd7 c03f
00000060: a215 cbbf 38ea 8ebf d22e ba3f e76e b73e
00000070: b7f6 023f d1a0 fc3f ebef 533e 7caf 76bf
00000080: cfd9 7cbf bdb2 0340 672a 343f d8c4 c8be
00000090: 243e 833e 14e9 fa3f 7f0f cf3f c5e1 98bf
1.0842997 0.3830985 -0.683211 0.95091033 1.0120655 0.14297295 -0.43669197 0.6222318
0.76101136 -0.33486915 -0.14677013 -1.247199 -0.5016656 0.8471893 0.50863117 -0.7595156
-0.5158008 -1.0115064 1.764915 1.176853 -1.0171626 -1.8408188 0.06721693 1.5065913
-1.5865977 -1.1165228 1.4545538 0.358268 0.51157707 1.9736577 0.2069699 -0.9636152
-0.9876985 2.0577843 0.703772 -0.3921268 0.25633347 1.960238 1.6176604 -1.1943899

GCN_Layers.0.W1.weight f4 [64, 64]
00000000: d788 463f c66a dfbd a76d 9bbc 18ab 44be
00000010: 0ebc aa3e 08b1 bc3e 55c1 7ebd efdd 183e
00000020: 4ecc cf3d 7b92 353d 2c5d 43bf 1023 a03d
00000030: e22a 24be ae84 3cbe 5af8 7b3e 648f 2fbd
00000040: a04c 09be e985 b3be b9a3 1ebc 552a 3bbe
00000050: 982c cd3d c7b3 48be 4f71 51bf 372c 04be
00000060: eb13 2cbf f00b 693e 3dec 403c a17d 2cbf
00000070: 307b f83d c8c0 293f 5b92 f3bd dc43 7dbe
00000080: 0f22 10bf 1e5c b93e 4c22 0cbf 2fce 69bf
00000090: e0ec cc3e 7d87 ee3e d22d 0ebf 7672 343f
000000a0: 2a4a b53e 725c b9be 6430 b93e 6c38 ee3e
000000b0: e093 08be 809b 0cbf 5635 eabe 66c7 f2be
000000c0: 8786 b83e 127c 05bf 05c2 663f c282 f63e
000000d0: 5857 06bf 9c73 e03e 5dad f4be 9331 073f
000000e0: 5fe7 aabe 4283 c6be 27a6 9dbe c601 e63e
000000f0: 34ec 07bf f62f a13e 8b56 d63e 8604 ddbe
00000100: 8845 4e3f ec0f 82be 4d80 253e 3cc6 0bbf
00000110: 41f7 523e 7104 8c3f 6618 88bc 9356 7d3e
00000120: 554f 7d3d 608f c3bd 4919 a3bf 1e53 db3e
00000130: 52f7 9fbe cfe8 9ebe e3cf a93e fab4 0b3c
00000140: d1e3 bfbd 2157 08bf 07d9 da3c 4802 9cbe
00000150: d180 1b3e 459a e5be e0fa 32bf 7503 b6be
00000160: 669f 8fbf 3c40 093f 47e9 813d b251 5bbf
00000170: 9bb4 dd3e 0692 823f 1706 18be a169 2abe
00000180: 3f9b dbbe 1ab4 143f 5a36 e7be e6d6 84bf
00000190: 2b8c e13e 2774 143f aa0a 11bf a9df fc3e
000001a0: b2a4 ed3e c47b bbbe 2d72 0c3f 97a5 d63e
000001b0: 1ef7 95be 6439 00bf 5a06 f0be 4c93 e3be
000001c0: cb90 e03e 0380 d5be a2a2 333f fc86 b93e
000001d0: ac6a e7be ac95 c03e 7ee4 08bf 2c9c 073f
000001e0: bc89 c2be 8080 f4be 068f 91bf b859 e73e
000001f0: 0176 bfbe 001a 9a3e c421 013f 11f5 02bf
00000200: d3a8 793f 90c9 32be a0e2 473e 9292 0dbf
00000210: d3a1 7e3e aab6 833f 23ce 7dbe 9a69 803e
00000220: ad86 cabc efce 77be 37d7 6bbf 1be4 9ebd
00000230: b38a 82be df6b 9fbe b07f b63e 666d 253e
00000240: b14d fdbd 9771 25bf dbec f73d 35bc 82be
00000250: 9f25 803e c4bc e9bd d9da 2bbf 5b88 9bbe
00000260: 5a6e 3bbf 2d80 193f d867 4c3e ba7a b4be
00000270: d8e5 083f e2f2 4f3f 5177 2d3d 4bf7 84be
00000280: 8980 bdbe 7183 fc3e 4629 12bf c1f0 4ebf
00000290: 3862 d83e 234a 113f 7d37 f7be 24b1 cf3e
000002a0: b7d9 c63e d9f4 d5be 1f46 f63e 0797 163f
000002b0: f069 b3be 7f81 54bf 4c89 acbe 7207 06bf
000002c0: 8fbc ef3e e2a6 c2be 607b 0b3f 9a1a db3e
000002d0: 1072 eabe c851 c53e b48a bebe b629 043f
000002e0: 4739 03bf f66e f1be 0046 79bf 956e fa3e
000002f0: 05c6 c0be d45f a13e 4a63 053f 79e7 c0be
00000300: 5e86 9b3f 0c61 3ebe 1b2b d53d 099c 6cbf
00000310: 919d c53e 0f3c 7c3f 3c73 f9bd e76f 603e
00000320: 1ab9 603c e521 623c 766d d1be 995f fc3d
00000330: 5370 46be d72d cbbe 80e1 9c3e 227b 80be
00000340: 2703 1dbe 076c a8be f4ee af3d 0d70 37be
00000350: af9d 443e 1411 28be fbe6 22bf 8888 96be
00000360: 851e 8dbf 6ad1 193f 3099 053e b8cc 44bf
00000370: ad34 863e 1e0a 313f c129 8abd 2df5 1abe
00000380: 0d53 cdbe 4a0b 0d3f 8847 03bf 8ab3 83bf
00000390: 78ba f73e 7d2e 0d3f 4787 b1be c0ea eb3e
000003a0: 4a00 f13e 2bad 05bf 17eb ca3e b9b4 c63e
000003b0: ecb2 c9be 7e37 0bbf 5edb e2be e403 17bf
000003c0: 2b2b e13e 07ec f6be 2ccf 5f3f 2acf bd3e
000003d0: fc3d 0ebf 8be5 d93e 3601 d5be 5898 ea3e
000003e0: 26f8 13bf 0258 eebe 489e 00bf 9c06 bb3e
000003f0: bc75 c1be 7139 0d3f 80fa fc3e bfba eebe
0.7755255 -0.10909037 -0.018973185 -0.19205892 0.333466 0.36853814 -0.062196095 0.14928411
0.1014639 0.044329148 -0.76314044 0.07819188 -0.16031983 -0.18409988 0.24606457 -0.042861357
-0.13408136 -0.35063103 -0.009682589 -0.18277867 0.10018271 -0.1959983 -0.8181352 -0.12907492
-0.6721789 0.2275846 0.011775074 -0.67379194 0.12132871 0.66309786 -0.118931495 -0.24732918
-0.5630197 0.36203092 -0.5473983 -0.91330236 0.4002447 0.46587744 -0.55538666 0.70487154
0.35408145 -0.36203343 0.36169732 0.4652742 -0.1333766 -0.54924774 -0.45743817 -0.47417754
0.36040136 -0.5214244 0.901398 0.48146635 -0.52477026 0.43838203 -0.47788516 0.5281002
-0.33379647 -0.38772017 -0.30790827 0.44923228 -0.5309479 0.31481904 0.41862902 -0.43167514
0.80574846 -0.25402772 0.16162224 -0.54599357 0.20602132 1.0938855 -0.016613197 0.24740057
0.061843235 -0.09548831 -1.2742091 0.4283685 -0.31243378 -0.31036994 0.33166417 0.008527035
-0.093696244 -0.5325795 0.026714815 -0.3047049 0.15185858 -0.4484426 -0.69914055 -0.35549513
-1.122052 0.5361364 0.06343322 -0.8567153 0.43301854 1.0200813 -0.14846073 -0.16641857
-0.4289188 0.58087313 -0.45158654 -1.0378082 0.44052252 0.57989734 -0.566569 0.4938939
0.46414715 -0.36617863 0.5486172 0.4192321 -0.29290098 -0.5008757 -0.46879846 -0.44448316
0.43860468 -0.41699228 0.7017003 0.36235797 -0.45198572 0.3761419 -0.5347365 0.52972674
-0.37995708 -0.47754288 -1.1371772 0.45185637 -0.37394717 0.3009796 0.5044215 -0.5115519
0.9752323 -0.17459702 0.19520044 -0.55301774 0.24866419 1.029012 -0.24785666 0.25080568
-0.024722422 -0.24200033 -0.92125267 -0.077583514 -0.25496444 -0.31136987 0.35644293 0.16155013
-0.12368334 -0.6462645 0.121057235 -0.25534216 0.25028703 -0.11412957 -0.6713081 -0.30377468
-0.7321526 0.59961206 0.19961488 -0.35249883 0.53475714 0.81229985 0.042350117 -0.2596992
-0.37012127 0.49319032 -0.5709423 -0.8083611 0.42262435 0.5675375 -0.48284522 0.40564835
0.38837978 -0.41788366 0.48100373 0.588242 -0.3504176 -0.83010095 -0.336985 -0.5235511
0.46823546 -0.38017946 0.5448513 0.42793733 -0.45790148 0.38538957 -0.37215197 0.51626146
-0.51259273 -0.4715497 -0.97372437 0.48912492 -0.37651077 0.31518424 0.5210463 -0.376766
1.2150381 -0.18591708 0.10408612 -0.9242559 0.38596776 0.9852914 -0.12180182 0.21917687
0.013716007 0.013802026 -0.40903825 0.12322921 -0.19378786 -0.3968341 0.30640793 -0.25093943
-0.15333234 -0.32894918 0.085904986 -0.17913838 0.19200777 -0.16412765 -0.636337 -0.2940104
-1.1024939 0.60085166 0.13046718 -0.76874876 0.26212063 0.6915606 -0.06746245 -0.1513259
-0.40102425 0.5509535 -0.51281023 -1.0289166 0.48384452 0.5514906 -0.3467352 0.46077538
0.47070533 -0.5221736 0.39632484 0.38809755 -0.3939432 -0.5438155 -0.4430799 -0.5899031
0.43978247 -0.4822695 0.87425494 0.37072116 -0.5556333 0.4255794 -0.41602486 0.45819354
-0.5780052 -0.4655152 -0.5024152 0.3652848 -0.37785137 0.55165774 0.49409866 -0.4662685

GCN_Layers.0.W1.bias f4 [64]
00000000: 4c22 efbe c221 02bf 642c f5be ef3e 08bf
00000010: a18e 58bf c1cc 10bf b61e f6be fba5 c2be
00000020: 358a cebe 43ca 18bf ff29 48bf 8df3 ebbe
00000030: 9ff3 5abf 3f64 dcbe 9757 bdbe d782 0cbf
00000040: f0f0 4ebf ff99 1dbf e96a babe 6997 d4be
00000050: 5563 0bbf cf28 15bf fd07 07bf ad72 0abf
00000060: 82e7 09bf e4b5 d7be 94ce 02bf 9bce 80bf
00000070: 00d6 f7be 220b e0be 87cd 81bf b110 d5be
00000080: cd07 c8be f0a6 02bf d0bc 36bf 305b 33bf
00000090: 2e2d 72bf 38f1 1cbf f7a0 56bf 2401 f5be
000000a0: a065 55bf 5203 ddbe 8fe8 16bf a5e2 00bf
000000b0: 0b91 63bf d89d 37bf 0439 09bf f7d7 0cbf
000000c0: af06 34bf dd0b 25bf ca68 0ebf e306 f4be
000000d0: 6fb2 f6be 17fd 30bf 2b7c 49bf 48da e3be
000000e0: f334 17bf 431c 3bbf 451c 1fbf 4ee3 3fbf
000000f0: 850c 39bf 70bd 08bf 432c efbe 55f3 11bf
-0.46705854 -0.5083276 -0.4788543 -0.5322103 -0.84592634 -0.5656243 -0.48070306 -0.38017258
-0.4033982 -0.59683627 -0.7818908 -0.46084252 -0.85527986 -0.43045232 -0.36980888 -0.54887146
-0.8083639 -0.61563104 -0.3640969 -0.41521767 -0.54448444 -0.58265394 -0.52746564 -0.5408123
-0.5386888 -0.4213096 -0.51096463 -1.0063051 -0.48405457 -0.43758494 -1.0140847 -0.41614297
-0.39068452 -0.51035976 -0.71381855 -0.70061016 -0.9460019 -0.6130557 -0.8383936 -0.47852433
-0.8335819 -0.43166596 -0.58948606 -0.5034583 -0.88893193 -0.71725225 -0.53602624 -0.55017036
-0.703227 -0.64471227 -0.55628645 -0.47661504 -0.4818301 -0.69136184 -0.7870509 -0.44502473
-0.5906517 -0.7309 -0.6215251 -0.74956214 -0.7228473 -0.5341406 -0.46713457 -0.5701192

GCN_Layers.0.W2.weight f4 [64, 64]
00000000: ba77 6fbd 0934 5cbf 4099 2fbd 7649 81be
00000010: c6a3 93bd e0a3 85bd d8de 273e ee8e 17be
00000020: 7e96 3cbf 604e 59bf 5d7f ac3e bf32 16bf
00000030: 15aa 91be 8cb2 b9be e96a 9ebe 69af d0bd
00000040: 7077 1cbf 468f 73bf 80cf 60bf a561 38bd
00000050: 160b 14bf fc21 60bf 79ca c63c 8729 3cbf
00000060: 6be2 5fbe 6388 1cbf 6fe5 d1be a75a 4c3c
00000070: 9498 43be 3393 e5be 4898 fbbe 320b eabe
00000080: 488a b6be dc00 0abf be5b 2ebf 266e 963e
00000090: bfea e4be 7ca5 133f 854f 0fbf 236f 0f3f
000000a0: a186 f4be 9230 27bf 6627 fbbe a2b3 f7be
000000b0: 6d80 8d3e 5721 5c3e 67ea bebe a78a 173f
000000c0: 573f 21bf 13ce 623e f621 c33e f752 193f
000000d0: 8018 be3e 8616 0e3f 1f82 edbe bf54 17bf
000000e0: 3f6b 2b3f 5fd3 c13e 4b18 343e bef9 33bf
000000f0: c17b 8abe 1f0b f83e 2c1c c43e 98bb 263f
00000100: 045a 493e aeb8 37bf aa3e c03e 538b b43d
00000110: 0eb7 263e 6bcc 043f ea7e e73d 2fc1 973e
00000120: 95cb 6abf d53a 02bf ce3b c53e 60c3 84bf
00000130: 0f62 4fbe 899a f4be 4fb4 26bf 1f4c 2e3e
00000140: bf87 44bf 8f72 9cbf 82bc 94bf 4876 cabe
00000150: a595 15bf 258b bcbf df02 03bf 6fb8 53bf
00000160: 5987 413e 1c61 80bf 893a cdbe f1cc ff3e
00000170: f7c1 a8be ed50 5f3f b4a4 41bf 5d9a 7abf
00000180: 9391 e2be b216 19bf 516a 4ebf d94d a63e
00000190: 317c f3be f3f6 003f 2f11 0fbf a8cc fe3e
000001a0: fd65 14bf b2e8 c6be e86e 11bf c64f d4be
000001b0: b4dc 023f b57a 753e 0ee5 c7be 862f 543f
000001c0: aca7 28bf 4949 343f ddcc 9d3e 0851 423f
000001d0: 58d8 353f 5df1 413f 7951 bcbd 469c 94be
000001e0: b0e3 193f 1817 5f3f c156 073f bfbe e8be
000001f0: bedc 99be 2ba6 d73e 846e 863e 6e8c 0a3f
00000200: 045e be3e b98e f5be 4e18 f63e 9503 8c3e
00000210: 28e2 b23e a018 163f 9162 103e 3107 253f
00000220: 8b9a febe 2169 4dbf 1037 923e 9a7e c9be
00000230: 6ad8 babd 2537 27bf 0e3d f1be e069 b53e
00000240: 0b65 6dbf fa24 8ebf b54d 4dbf 6088 0abe
00000250: 9cc6 01bf e20a 9cbf e8a6 9b3e 5c22 0bbf
00000260: 5b03 213f 1049 2abf b63f 14bf 38d0 d23f
00000270: 8232 7dbe ea85 7b3e f135 59bf 3d3d 5abf
00000280: 74f1 c3be 96c6 05bf c447 28bf f2e2 bd3e
00000290: 76da eebe e33e 093f 9df3 03bf 86f8 ba3e
000002a0: bf19 25bf cd6a bbbe a757 f0be ac54 e1be
000002b0: 097d 9a3e e5e6 003f 0585 b7be a662 183f
000002c0: 7a3e 06bf bd88 603e 9dc8 3c3f f0b3 483f
000002d0: 4b99 343f 1b94 e23e 44f1 76be ce90 afbe
000002e0: 3dbd 2e3f 0df6 0c3f 623b 0d3f 7fb1 17bf
000002f0: a232 e3be 7df6 3d3f a71c a93e 55e7 be3e
00000300: d6eb a53e 6713 80bf 610a 663e 2e6c 833e
00000310: fbd8 76be 7aa2 083f 2369 bf3e e674 8e3e
00000320: afef 0cbf cd25 6cbf 3925 873e f8fb 55bf
00000330: 28d1 663e cc11 efbe c4bb f6be e4da 093e
00000340: 66a8 87bf 8be6 7dbf e87a 65bf 7e58 58be
00000350: 647e b4be 8b9f 88bf beb4 adbe 87b9 60bf
00000360: 5c3a a53e 5420 58bf 3c7f 2cbf 442f 923f
00000370: 14a7 9fbe f7a9 913d cc4a 21bf 9cd7 5ebf
00000380: 4018 06bf 9162 0fbf 6577 36bf 4882 0d3f
00000390: 6d6d f3be b19f d23e 67eb bdbe 0706 cf3e
000003a0: 8b65 3abf 5fb8 d4be 9c54 bfbe a5f4 d6be
000003b0: f38b bf3e ab62 d43e 3509 89be 0cc8 043f
000003c0: 22f7 f1be 7412 f53d de8d 3c3f 3423 053f
000003d0: 8ba8 363f 65a2 f63e 9f94 b0be 3fc9 68be
000003e0: 1ea5 bb3e 5cb6 0d3f a28e f83e c807 b7be
000003f0: f7e3 81be 2eeb fd3e 2bd0 583b 7575 a33e
-0.05846379 -0.860169 -0.04287076 -0.2525136 -0.07208972 -0.06525397 0.16393602 -0.14800617
-0.7366713 -0.84885216 0.3369092 -0.5867118 -0.28450075 -0.36269033 -0.3094094 -0.10189707
-0.6111975 -0.9514049 -0.8781662 -0.045014996 -0.57829416 -0.87551856 0.024266468 -0.73500866
-0.21863715 -0.6114561 -0.40995356 0.012472785 -0.19101173 -0.44838867 -0.4913962 -0.45711666
-0.35652375 -0.5390756 -0.6810874 0.29380912 -0.44710347 0.57674384 -0.5598071 0.56028956
-0.47758964 -0.6530849 -0.49053496 -0.48379236 0.27637044 0.21497093 -0.3728821 0.5919594
-0.62987274 0.22148924 0.38111848 0.5989222 0.37128067 0.5550312 -0.46388337 -0.5911369
0.6696052 0.37856576 0.17587392 -0.7030295 -0.27047542 0.48445985 0.38302743 0.65129995
0.19663244 -0.71766174 0.3754781 0.088156365 0.16280767 0.5187442 0.11303504 0.29639575
-0.9171689 -0.5087102 0.3852219 -1.0372124 -0.2025225 -0.4777415 -0.6511888 0.17021225
-0.7676963 -1.222246 -1.1620028 -0.39543366 -0.58431464 -1.4729964 -0.51176256 -0.827033
0.18899287 -1.0029635 -0.4008372 0.49961045 -0.32960483 0.8723286 -0.7564194 -0.9789179
-0.4425169 -0.59800255 -0.80630976 0.32481268 -0.47555688 0.50376815 -0.55885595 0.49765515
-0.5796812 -0.38849407 -0.56809855 -0.41467112 0.51118016 0.2397259 -0.39041942 0.82885015
-0.65880847 0.70424324 0.3082036 0.75904894 0.7103324 0.75758916 -0.09195227 -0.29025477
0.6011305 0.87144613 0.5286675 -0.45458028 -0.30051225 0.42118964 0.26256192 0.5412053
0.37181103 -0.4796045 0.48065418 0.27346483 0.3493817 0.58631325 0.141001 0.644641
-0.49727282 -0.8023854 0.28557634 -0.39354402 -0.09123309 -0.6531852 -0.47116894 0.3543234
-0.92732304 -1.1105034 -0.80196697 -0.13528585 -0.5069368 -1.2190821 0.30400777 -0.54349303
0.62895745 -0.66517735 -0.57909715 1.6469793 -0.24726298 0.24562803 -0.84847933 -0.8524969
-0.38270152 -0.52256143 -0.65734506 0.37087208 -0.46651047 0.5361158 -0.515436 0.36517733
-0.6449241 -0.3660492 -0.46941873 -0.44009912 0.3017352 0.5035232 -0.35843673 0.59525526
-0.5243908 0.21927162 0.7374361 0.7839956 0.70546407 0.4425362 -0.24115473 -0.34290165
0.68257505 0.55062944 0.55168736 -0.5925521 -0.44374567 0.74204236 0.33029673 0.37285867
0.3240649 -1.0005921 0.22464897 0.25668472 -0.24106209 0.5337292 0.373849 0.2782356
-0.5505323 -0.9224518 0.26395586 -0.835876 0.22540724 -0.46693265 -0.4819013 0.13462406
-1.0598266 -0.99179906 -0.89640665 -0.21127507 -0.35252678 -1.0673689 -0.33926958 -0.8778309
0.32271087 -0.8442433 -0.67381644 1.1420674 -0.31182158 0.07112496 -0.63004756 -0.87047744
-0.5238075 -0.56009775 -0.7127593 0.5527692 -0.47544423 0.4113746 -0.3709366 0.40434286
-0.7281119 -0.41546914 -0.3736924 -0.41983524 0.3741146 0.41481528 -0.26764837 0.5186775
-0.4725886 0.1196641 0.7365397 0.5200684 0.71350926 0.48170772 -0.3448839 -0.2273302
0.36649412 0.55356383 0.4854632 -0.35748124 -0.25369236 0.4959349 0.0033083062 0.3192555

GCN_Layers.0.W2.bias f4 [64]
00000000: 9b70 13bf 23a5 0bbf 6e4a 18bf 2fec d7be
00000010: 8bf0 65bf a4b0 febe 0477 1bbf 21eb 04bf
00000020: 836b 06bf 9228 fcbe c7b4 46bf 0ce5 17bf
00000030: 2bd7 2abf cf51 f5be f53b 00bf c815 02bf
00000040: c1fa 5dbf 367b 4dbf 3070 08bf 1d87 febe
00000050: a9fe c2be 6cbe 1fbf 1a9d ccbe f447 dabe
00000060: 5233 c1be b485 0dbf 305b d3be a691 7fbf
00000070: 5a88 08bf 87d9 f2be 14f3 73bf 86ff fbbe
00000080: c4b8 02bf aa65 fabe a881 40bf 664a 14bf
00000090: e8f2 7abf a5df 00bf 1043 18bf a1b8 03bf
000000a0: b417 6cbf f0a4 f8be e758 0dbf dece c9be
000000b0: 5ca8 62bf 9871 19bf 464b 01bf 0c73 04bf
000000c0: bce8 65bf 80b9 53bf e630 c5be 1b49 06bf
000000d0: 0620 febe fc1f 4ebf e0f4 3bbf 31db dabe
000000e0: c556 11bf e0d4 06bf 0900 ebbe 6a9b 32bf
000000f0: 5d06 6bbf 19dd d5be 0611 fabe 38b8 11bf
-0.575937 -0.54548854 -0.5948857 -0.4217238 -0.89820164 -0.4974414 -0.6072848 -0.5192128
-0.525078 -0.49249703 -0.77619594 -0.5933387 -0.6673457 -0.47913978 -0.5009149 -0.50814486
-0.86710745 -0.8026613 -0.53296185 -0.49712458 -0.38084915 -0.62399936 -0.3996361 -0.4263302
-0.37734467 -0.5528214 -0.41280508 -0.99831617 -0.53333056 -0.47431585 -0.9529278 -0.49218386
-0.5106318 -0.4890569 -0.7519784 -0.57926023 -0.98026896 -0.50341254 -0.5947733 -0.51453596
-0.9222367 -0.48563337 -0.5521378 -0.3941564 -0.88538146 -0.59938955 -0.50505483 -0.5173805
-0.8980825 -0.82704926 -0.3851387 -0.524553 -0.49633807 -0.80517554 -0.73420525 -0.42745355
-0.56773025 -0.5266857 -0.45898464 -0.69768393 -0.91806585 -0.41770247 -0.48841113 -0.5692172

GCN_Layers.1.W1.weight f4 [64, 64]
00000000: 7193 b2be 6b76 12bf 8f7e d8be ae5c dabe
00000010: f83a 793d fd20 bbbe 4dd0 f1be d0d3 adbe
00000020: 7195 0bbf 6310 fabe 6831 723e 6119 eebe
00000030: c6ac c6be f22c 0ebf e471 aebe f272 01bf
00000040: b7de ca3e 1e1b 90be e606 02bf 01c9 ebbe
00000050: b522 e7be 2b3f 09bf 88f0 f9be 44f6 07bf
00000060: c8c6 0ebf 09a5 aabe 317c f2be f6a8 0a3d
00000070: 3172 05bf b51d d9be 5456 323e ed67 adbe
00000080: 2331 9abe 22f1 04bf 5955 bb3d 8211 0cbf
00000090: 8a83 cc3e b061 c1be d1b2 b83e 1f03 f5be
000000a0: 832b 383e 72d8 09bf 2f7f b5be 8d32 d1be
000000b0: ef9e d8be 3fc3 a4bc 9992 e6be ded5 0ebf
000000c0: c3ce 5f3e 8971 5dbe 4dc1 f2be 382c e4be
000000d0: 34bc afbe ebb7 0c3f c8cc f8bd e1f8 f5be
000000e0: 3d9b a8be c937 34bd cc0f 07bf 3133 9d3c
000000f0: e86b f4bd 31f4 d9be 702a cbbe d6d7 05bf
00000100: 2866 f0be a2e4 aabe 8f64 02bf b4d1 e8be
00000110: 2789 423e 274d 1dbf 1d2b 00bf 8e28 2ebf
00000120: 50b1 07bf 0dfe a6be a13a 94be 1ee2 4abf
00000130: 4bd1 f0be bb2e 21bf a6b1 b7be a6fb fcbe
00000140: 2687 a33f 095f 13bf af90 36bf fb06 15bf
00000150: 4c52 a8be 45c6 4ebf a5f2 12bf 9a82 9dbe
00000160: 7a55 ffbe 4b22 02bf 27f8 5bbf 6c29 d83e
00000170: 30f7 b1be f714 10bf 564f a8bd 354d 0bbf
00000180: 9292 adbe 966f f1be 1039 f9be 5803 18bf
00000190: 98b3 4d3f 60f7 16bf 91d7 513f 36e0 e4be
000001a0: 3672 da3e 1f96 bdbe cbfd 24bf fd86 28bf
000001b0: a546 f8be 3068 98be 79c9 febe bdef 08bf
000001c0: be38 ddbd ef8e d13e a92b 45bf d882 ebbe
000001d0: 362c 10bf 8e6e ae3f 4f26 fa3e 2483 9bbe
000001e0: b5dc 0bbf a7f0 273e 6402 3cbf 1492 9fbe
000001f0: d386 ac3e 4039 12bf dcb7 b9be f024 26bf
00000200: 029a bbbe 87ef cdbe 4ce5 f4be 49ca eebe
00000210: a275 01bd 45a3 adbe 4910 c6be 5444 d5be
00000220: 754a b0be efb2 ebbe b44f 483e 43ba b9be
00000230: 0891 abbe 49b4 cdbe fbc7 01bf 7639 e3be
00000240: fe17 8c3e 3471 d13e f20e b8be 771c ddbe
00000250: f24d fdbe 67e7 07bf b088 eebe bce4 11bf
00000260: 1b36 a9be df20 f4be 5d20 e6be 6f99 183e
00000270: 6be7 bfbe 3af1 f5be 3580 0e3f 21c1 febe
00000280: 48d2 273c a300 b7be a8de 243d 75d3 f7be
00000290: 9b8d e43e 4db7 0fbf a54b 7e3c d7b4 c6be
000002a0: 82d6 913e 5836 e2be f942 f9be 6016 bcbe
000002b0: 6acd dabe 82ad aebd 0fa3 e2be 5e99 cfbe
000002c0: 5c77 c1bd 4fee e0be ded4 0bbf 8f3f 02bf
000002d0: be97 b5be dfb5 023f bd56 ddbe c838 e5be
000002e0: 92b2 eebe 1d40 9d3e 99df edbe fec8 2c3e
000002f0: 6de6 39be 26c9 ccbe b159 aabe c256 04bf
00000300: f8bb 57bf 997c 5fbf 20f9 47bf 821a 74bf
00000310: 69b3 9e3b 900f 66bf 66d4 2bbf 2501 66bf
00000320: 5d4b 53bf 22e9 33bf 97c8 31be 2dcd 84bf
00000330: b92f 37bf 99c6 72bf 3c25 84bf 7292 40bf
00000340: 2c88 533f bdc7 32be a913 8bbf 08ad 63bf
00000350: d88f 28bf fd89 82bf 83a0 75bf 49e7 60bf
00000360: 711e 5abf 7f73 59bf 659f 4ebf 150b 3f3d
00000370: e482 7bbf 005a 42bf b2c8 213f 5288 50bf
00000380: ae7d 6abe 8ce7 5ebf 92ee 50be e1ca 4fbf
00000390: aa3e 6d3f b5c8 31bf 3eff ba3e 5407 27bf
000003a0: 2fdc 223e ad44 61bf 0ef5 51bf ff8c 86bf
000003b0: 6a21 0ebf 083c 51be 5700 4cbf ad2d 4ebf
000003c0: 4dc7 12be 81a0 5ebe 4676 7cbf 68be 81bf
000003d0: fcad 49bf d693 3c3f 3977 33be 53e8 51bf
000003e0: 538b 54bf ce1d 493f 309c 3cbf 9456 abbe
000003f0: b054 c9bd 199d 70bf 45e1 69bf cde9 62bf
-0.34878114 -0.5721194 -0.42284057 -0.42648834 0.060847253 -0.36548606 -0.47229233 -0.33950663
-0.54524904 -0.48840627 0.2365166 -0.46503738 -0.3880369 -0.5553733 -0.34071267 -0.5056602
0.39623043 -0.2814569 -0.50791776 -0.4605179 -0.45143667 -0.5361201 -0.48816323 -0.53110147
-0.55772066 -0.33329037 -0.47360376 0.03385254 -0.5212737 -0.42405477 0.17415744 -0.33868352
-0.30115613 -0.5193044 0.09147138 -0.54714215 0.39944106 -0.37769842 0.36073926 -0.47853944
0.17985348 -0.53845894 -0.35448596 -0.4085888 -0.42308757 -0.020112632 -0.4503372 -0.55795085
0.21856217 -0.21625341 -0.47413102 -0.44564986 -0.34323275 0.54968137 -0.12148434 -0.48041442
-0.32930937 -0.043998513 -0.5275848 0.019189449 -0.11934644 -0.42569116 -0.39680815 -0.52282465
-0.4695294 -0.33377558 -0.5093469 -0.4547249 0.18997632 -0.6144585 -0.50065786 -0.6803063
-0.5300493 -0.326157 -0.2895098 -0.7925128 -0.47034678 -0.6296193 -0.35877723 -0.49410743
1.2775619 -0.5756689 -0.7131452 -0.58213776 -0.32875288 -0.80771285 -0.57401496 -0.30763704
-0.498699 -0.50833577 -0.85925525 0.42219102 -0.34758902 -0.5628199 -0.08218257 -0.54414684
-0.33900887 -0.47155446 -0.48676348 -0.593801 0.80352163 -0.58971214 0.81969553 -0.4470231
0.4266526 -0.37028596 -0.6444976 -0.65830976 -0.48491398 -0.2976699 -0.49763086 -0.5349081
-0.10801838 0.40929362 -0.77019745 -0.45998263 -0.5631746 1.3627489 0.48857352 -0.3037349
-0.5463365 0.16400395 -0.7344115 -0.31166136 0.33696613 -0.57118607 -0.36273086 -0.6490011
-0.36640936 -0.40221807 -0.4783119 -0.46638706 -0.031606324 -0.33913627 -0.386843 -0.41653693
-0.34431806 -0.46034953 0.19561654 -0.3627492 -0.33509088 -0.4017661 -0.5069577 -0.44379777
0.27362055 0.4090668 -0.35948902 -0.4318578 -0.4947353 -0.53087467 -0.4658866 -0.56989646
-0.33049092 -0.4768133 -0.44946566 0.1490228 -0.37481245 -0.48035604 0.5566438 -0.4975672
0.010243006 -0.35742673 0.040251404 -0.48403516 0.44639286 -0.5613907 0.015520965 -0.38809845
0.2848397 -0.44182086 -0.4868391 -0.3673582 -0.42734843 -0.08529188 -0.4426503 -0.40546697
-0.09446594 -0.43931815 -0.54621685 -0.5087823 -0.35467333 0.51058763 -0.4323024 -0.44769883
-0.46620613 0.30712977 -0.46459654 0.16873547 -0.18154307 -0.39997214 -0.33271554 -0.5169488
-0.8427119 -0.87299496 -0.7811451 -0.9535295 0.0048431647 -0.89867496 -0.6712097 -0.89845496
-0.8253687 -0.7027761 -0.17361675 -1.0375115 -0.71557194 -0.94834286 -1.0323863 -0.7522346
0.82629657 -0.17459007 -1.0865375 -0.889359 -0.6584449 -1.0198361 -0.95948046 -0.87852913
-0.852027 -0.8494186 -0.80711967 0.046641428 -0.982466 -0.7591858 0.6319686 -0.8145801
-0.22899505 -0.8707206 -0.20403507 -0.81168944 0.9267374 -0.6944688 0.3652286 -0.65245557
0.15904306 -0.87995416 -0.8201455 -1.0511779 -0.55519736 -0.20433056 -0.7968802 -0.80538446
-0.1433384 -0.21740915 -0.9861797 -1.0136232 -0.78781104 0.7366308 -0.17525949 -0.81995124
-0.8302509 0.78561103 -0.73675823 -0.3346449 -0.09830606 -0.9398971 -0.9135936 -0.88638

GCN_Layers.1.W1.bias f4 [64]
00000000: f474 f6be 2860 7cbf 1fc9 14bf 9dc6 65bf
00000010: 1fdc f4be 104d 60bf dd82 fbbe 0547 0cbf
00000020: 4cb6 f8be 18a7 f8be 3f1c cbbe 232b 03bf
00000030: 3d38 0ebf 529e 0ebf 6317 e3be 0d4e f73d
00000040: f476 123d 6cfc 00bf 3fdb 7fbf 7067 483c
00000050: 4a39 71bf 9db3 80bf edc1 c83e 83a2 0dbf
00000060: ee0d 54bf adc2 07bf 0d74 18bf f8a2 75bf
00000070: 9159 05bf c31d 0dbf cd97 1fbf bec4 e3be
00000080: 1c24 81bf d833 e9be dce5 2ebf 91aa 28bf
00000090: 55a0 13bf cedb 57bf 26f0 dfbe 5f98 2cbf
000000a0: 90da c3be 729f 54bf a152 5cbe 7da2 c7be
000000b0: e52c 2abf 8d98 f6be 0ea6 d6be f2fd f83e
000000c0: 922e 65bf 3539 e3bc 32e4 9ebd 1ac1 78bf
000000d0: 7d48 7b3d 1d8b 1ebf 16de eabe de9a 20bf
000000e0: 0f66 5fbf 1fac d8be 0793 68bf 52d1 babe
000000f0: d98e 7ebf 2b04 80bf 3eb9 043f d0cc 0cbf
-0.48136103 -0.9858422 -0.58119386 -0.89756185 -0.4782419 -0.8761759 -0.49123278 -0.5479587
-0.4857658 -0.48564982 -0.39669988 -0.51237696 -0.5555456 -0.5571033 -0.4435378 0.12075434
0.035757974 -0.50385165 -0.9994392 0.012231693 -0.9422804 -1.0054814 0.39210454 -0.553261
-0.82833755 -0.53031427 -0.5955208 -0.95951796 -0.5208979 -0.5512354 -0.62341005 -0.4448604
-1.0089145 -0.45547366 -0.6831949 -0.65885264 -0.5766652 -0.8431977 -0.43737906 -0.6742
-0.38252687 -0.83055794 -0.21515895 -0.38991156 -0.66474754 -0.48163262 -0.41923565 0.48631245
-0.89524186 -0.02773724 -0.077583686 -0.9716965 0.061348427 -0.6193102 -0.45872563 -0.6273631
-0.87265104 -0.42318818 -0.90849346 -0.36487824 -0.9943672 -1.0001272 0.5184516 -0.5500002
