lab4-student/code/model/bestModelParms-11-13-11-30.pth (torch, 498345 bytes, 20 tensors)

user_id_embedding.weight f4 [900, 32]
000000 3f f4 e6 3f ab 58 fc be 47 d3 83 bf ca 5b ce 3c
       1.8043288 -0.49286398 -1.0298852 0.025190253
000010 37 c5 d6 be b2 e4 a7 3e 5f 2e c7 bf a9 70 69 bf
       -0.41947338 0.32791668 -1.5561026 -0.9118753
000020 17 fe f2 be 69 d3 e3 3e dc 94 1c 3f 97 b0 a7 3e
       -0.4745948 0.4449723 0.6116464 0.32751915
000030 f6 53 a6 3e 5c 64 4d 3f a8 0f 97 bf 92 41 8e bf
       0.32485932 0.8023126 -1.1801653 -1.111376
000040 a5 8e f8 bf 22 12 14 3f 2b a4 b6 3d 61 31 76 bf
       -1.9418532 0.5784017 0.08918031 -0.96169096
000050 57 00 aa be 80 c6 9a 3e 0d 41 41 bf f8 00 c0 bf
       -0.33203384 0.30229568 -0.75489885 -1.5000296
000060 32 55 4a be 38 ba 55 bf 2d 8d 86 bf 48 93 67 be
       -0.19759062 -0.8348727 -1.0511833 -0.22614777
000070 e2 d1 ad 3e 21 43 d5 be 1a 61 f7 3e e4 e4 13 3e
       0.3394919 -0.41652778 0.4831627 0.14442784
000080 6f d7 da 3d 42 a4 9d 3f ea bf af be 06 ad 83 3f
       0.10685622 1.2315753 -0.34326106 1.0287178
000090 c3 a3 d8 3e 78 75 99 bf 6d ab 94 be 80 b7 2f bf
       0.4231244 -1.1988974 -0.29037037 -0.68639374
0000a0 59 64 11 3d b0 b3 90 be d3 14 87 3f ac 37 0f 3b
       0.03549609 -0.2826209 1.055323 0.0021853251
0000b0 ed b5 25 be f1 1c 25 bf 61 2d a1 3e 96 cf 51 3f
       -0.1618268 -0.64497286 0.31479934 0.81957376
0000c0 7a 05 82 bf 81 fe 12 3d d6 a5 65 bf af fb a9 3e
       -1.0157921 0.035887245 -0.8970617 0.33199832
0000d0 d7 f6 8a bf 1e 42 0f 3f 26 5b 07 3f e6 b8 f2 3f
       -1.085658 0.5596026 0.52873456 1.8962677
0000e0 d8 3b 16 c0 80 e8 c6 3f b0 ee a4 bf 26 e0 13 be
       -2.3474026 1.5539703 -1.2885342 -0.14440975
0000f0 95 5c 14 3e cf 00 f8 3f e3 77 7e 3f c0 16 b7 bb
       0.14488442 1.9375247 0.9940168 -0.005587429
000100 ae 31 f2 bd bd 15 57 bf cf 7f 36 bf b5 4f c9 3d
       -0.11825882 -0.84017545 -0.7128877 0.09829656
000110 18 b6 06 be e8 93 8d 3f 21 af dd bd cf c9 ad be
       -0.13155401 1.1060762 -0.10824419 -0.3394303
000120 6e 93 bd 3f a5 3e 0f bf 58 0d d5 be 34 b2 ef 3d
       1.4810617 -0.5595496 -0.41611743 0.117039114
000130 c8 5c de bf c8 bf 05 bf d7 ac 9d bd ce c9 58 bf
       -1.7372065 -0.5224576 -0.07698982 -0.8468293
000140 97 46 65 3f d9 2b 0b bf ae e9 d0 bf a2 7c 68 3f
       0.89560837 -0.5436378 -1.6321313 0.90815175
000150 b9 fe c0 3d 86 77 3b bf 57 39 8f bf db e8 2a 3f
       0.094235845 -0.73229253 -1.1189374 0.6676156
000160 79 d0 50 bd fd 68 a2 3f 55 c4 1f bf ce d2 01 bf
       -0.050980065 1.268829 -0.62408954 -0.5071229
000170 45 8d 0b be 18 31 fb ba 15 03 dc 3e 93 59 a4 bf
       -0.13628109 -0.0019164411 0.429711 -1.2839836
000180 24 50 c2 3f 88 aa 7a 3f 77 20 17 3f 16 c4 0f bd
       1.5180707 0.9791646 0.5903391 -0.03509911
000190 cf 11 ba 3f af 4a 35 bf cb 4d 37 3f e9 30 e1 be
       1.4536685 -0.70817083 0.7160308 -0.43982628
0001a0 5b fe ae bf 2e 78 82 bf 39 08 94 3f bf e4 78 3f
       -1.3671373 -1.0192926 1.1565009 0.9722404
0001b0 89 b3 8e 3f 5e d7 e4 3e 48 0f 0f bf 9a 1f 17 3f
       1.114854 0.44695562 -0.5588269 0.59032595
0001c0 8a 8b ae be e9 1b 5f 3c a0 78 1e ba b2 c9 8b 3f
       -0.34090835 0.013617494 -0.0006045196 1.0920928
0001d0 32 e5 e1 3d a2 b5 d2 be c9 7c b5 3e ed a9 34 bf
       0.11030044 -0.411542 0.35446766 -0.70571786
0001e0 d5 9a 4b bf 96 ed 42 bd dc 5d 95 3d 18 6a c6 3f
       -0.7953313 -0.04758986 0.07293293 1.5501127
0001f0 33 8e 24 3d 8f 6e a7 bd 44 36 0d 3f bd 9e 8f be
       0.040174674 -0.08175384 0.5516093 -0.28050795
000200 0a 45 74 be 7d a2 69 3e 8d 28 44 bf fd 02 68 bf
       -0.23854461 0.2281589 -0.76624376 -0.9062956
000210 8e c4 64 3d e6 bd cc 3f d4 e1 be 3f 51 11 28 3f
       0.05585151 1.5995452 1.4912667 0.6565142
000220 ef c3 54 bd 63 3d 9a bf 74 04 c2 be 6b 97 82 bf
       -0.05194467 -1.2049984 -0.37894022 -1.0202459
000230 f2 37 b4 bc d1 39 87 3f e7 62 80 3f 98 65 33 3f
       -0.021999333 1.0564519 1.0030183 0.70076895
000240 9f a2 7f bd f0 f6 2d 3f 34 d5 d6 be c8 99 d0 be
       -0.062410947 0.6795492 -0.41959536 -0.40742326
000250 7c ba c8 be 8d ce 07 be ea 21 6c 3e 44 86 49 3d
       -0.39204776 -0.13262387 0.23059812 0.04920031
000260 8b 8b 24 bf a9 e2 73 3f 28 3d 81 bf b6 1d 9a 3f
       -0.64275426 0.9526773 -1.0096788 1.2040317
000270 69 6f ad be fe 4a 4c 3f 28 3f b8 3f 83 b3 4e 3f
       -0.33874062 0.7980193 1.4394274 0.80742663
000280 87 b4 c5 be 96 75 ff 3e 78 04 ee bf f8 6a bf bf
       -0.38614294 0.49894398 -1.8595114 -1.4954519
000290 e8 7d 8a bf 5e f5 da 3e 0c 7d f4 3f 42 6a 70 3f
       -1.0819674 0.42765325 1.9100661 0.93912137
0002a0 88 31 f3 be 65 ff a5 bf 11 f5 93 bf d0 f9 64 be
       -0.47498727 -1.2968565 -1.1559163 -0.22360921
0002b0 4d d6 f0 bf 47 ac 00 40 5f d5 8d bf 52 3d 45 be
       -1.88154 2.010515 -1.1080741 -0.19261673
0002c0 05 0f 54 3e 75 4c 4d be fd ca d7 3f 84 d6 4b bf
       0.20708854 -0.20048697 1.6858822 -0.796242
0002d0 96 f7 16 be 79 c3 5c 3f 45 f3 54 be c2 de fd 3c
       -0.14742884 0.8623577 -0.20795925 0.030990008
0002e0 da dc be bf 95 69 84 3e 37 2b ed bf c0 0c f4 bd
       -1.4911149 0.25861803 -1.8528813 -0.11916494
0002f0 b2 98 8a 3e da 65 11 bc 56 d0 95 3f 76 54 3e 3f
       0.27069622 -0.008874381 1.1704204 0.7434763
000300 9f a0 48 3f 5a 55 a1 bf f9 0c a2 3e ba a9 84 3f
       0.7837009 -1.2604172 0.31650522 1.0364296
000310 2c a0 80 3f d2 4b d1 bf c6 19 d5 bf ca 25 69 3f
       1.004888 -1.6351264 -1.664849 0.91073287
000320 be e8 3a bf 0a ca 87 be 63 60 8d 3f 42 ac 2b 3d
       -0.73011386 -0.2652133 1.104504 0.041912325
000330 f5 60 5f 3f 7b d3 85 3f 6d 3d 0f c0 b8 96 ac be
       0.8725732 1.0455164 -2.2381241 -0.3370874
000340 0e c7 83 3e 50 8b 44 c0 0d 36 45 bf ba 1c 96 bf
       0.25737804 -3.071003 -0.770356 -1.1727517
000350 7a 1c 9a be 93 82 c1 3c ba eb 85 bf ca c3 15 3e
       -0.3009985 0.023621833 -1.0462563 0.14625469
000360 3f 84 67 bd ff 12 61 3f 77 07 0b be 44 bd 9a bf
       -0.056522604 0.8791961 -0.13577066 -1.2089009
000370 e6 7a d9 bf 4e 4d 35 3e 7b da 1f 40 05 6e 55 bb
       -1.6990631 0.1770527 2.49771 -0.0032566797
000380 55 2b 66 3f 6b e3 b0 bd 44 15 97 3d e9 08 1c 3f
       0.8990987 -0.086371265 0.07377103 0.60951096
000390 43 e1 17 40 2c f4 37 bf 32 b9 14 3f e2 ec 4d be
       2.373124 -0.7185695 0.58095086 -0.20109895
0003a0 b0 4c 18 3e a1 7b 96 3f 64 22 f7 bf 11 dc 28 bf
       0.14873004 1.1756479 -1.930737 -0.65960795
0003b0 87 17 d0 bd ec 78 3b 3f 35 6a a6 be b1 e1 b7 3f
       -0.101607375 0.7323139 -0.32502905 1.436575
0003c0 59 63 40 bf e6 df 62 bf cd 78 ae bf eb 6b ac be
       -0.7515159 -0.8862289 -1.3630615 -0.33676085
0003d0 4a 0a ae 3f b8 fb 4c bf db d7 8f 3f 3f 14 61 be
       1.359689 -0.8007159 1.1237749 -0.2198038
0003e0 2b 91 a1 be 49 96 9f 3d 21 92 a0 bd 9b 07 f1 bd
       -0.31556067 0.077923365 -0.07840372 -0.11769029
0003f0 c1 92 04 3f 2b cc 14 be 2a bc 3f 3f 33 56 df bf
       0.5178643 -0.14531009 0.7489649 -1.7448181

user_age_embedding.weight f4 [5, 4]
000000 b8 5d 21 3f bd af 15 3f 49 53 e9 bf b0 cb ab 3f
       0.6303363 0.5847128 -1.8228542 1.3421535
000010 f2 f2 27 3f 10 14 ee bf 18 ec 1b bf c1 3e 00 3f
       0.6560508 -1.8599873 -0.60907125 0.50095755
000020 b7 09 bc 3e f3 98 fb be 70 60 19 3e 70 c9 1e bf
       0.36726162 -0.49140128 0.14978194 -0.6202612
000030 73 77 bd 3f 94 eb 22 3f 09 ed 82 3f db ca ea 3e
       1.4802078 0.63640714 1.0228587 0.4585789
000040 11 7d d3 bd 50 c5 01 3f 8c ec a5 3f 18 bb d1 bf
       -0.10326589 0.506917 1.2962813 -1.6385221

user_gender_embedding.weight f4 [2, 2]
000000 c8 5f 65 3d 77 e9 9d 3e 9e 8f d5 bf 6a 54 d7 3e
       0.055999547 0.30842182 -1.6684453 0.4205659

user_occupation_embedding.weight f4 [21, 8]
000000 bc 10 4f 3e ce 8b 9b 3f a5 68 83 bf 83 70 55 3e
       0.20221227 1.215204 -1.026631 0.20843701
000010 ae 5e 5e 3f 96 f1 fe 3e 1d 2a 04 40 86 b5 98 3f
       0.8686322 0.4979369 2.0650704 1.1930397
000020 60 c2 5b bd fa 76 cd bf c9 00 6b 3f 89 a0 14 bf
       -0.053652167 -1.6051934 0.91798073 -0.5805746
000030 6f de b8 bf 23 90 23 3f 47 b3 00 bf 88 d7 0a bf
       -1.4442881 0.6389181 -0.50273556 -0.54235125
000040 50 b1 8b 3f 52 97 6b bf 43 0b b3 3f 76 17 c8 3e
       1.0913486 -0.9202777 1.3987812 0.390804
000050 53 df 84 3f 81 41 86 bf 9e c1 fa be a3 35 42 3f
       1.0380653 -1.048874 -0.48975843 0.75863093
000060 88 da 1d 40 a7 cc 04 3e 77 4f ff bf 70 b5 0f 40
       2.466463 0.12968694 -1.9946126 2.245449
000070 ad 4e 54 3e 5b 52 f2 bd 1c aa 6c bf 82 79 6c bf
       0.20733137 -0.11832114 -0.92447066 -0.92372906
000080 cd 5b 32 3f f6 20 a4 bf fc 18 67 bf 22 b0 f2 3e
       0.69671327 -1.2822559 -0.902725 0.47400004
000090 6f ab 2a 3f 69 8a a1 bf 2e 7e 1d 3f c6 ba a5 bf
       0.66667837 -1.2620364 0.6152066 -1.2947624
0000a0 8a ba bb bf ca e7 e1 be cb 4f 8a 3d 71 12 3e be
       -1.4666302 -0.44122154 0.067535006 -0.18561722
0000b0 1a 9d 9e be 4e 18 b6 bf fd 82 36 3f bb 1e c7 be
       -0.30979234 -1.4226167 0.7129362 -0.38890633
0000c0 b5 2d e4 3e 0a 61 23 c0 89 95 39 3f b5 3d 0e 3f
       0.44566122 -2.5527978 0.724938 0.5556291
0000d0 27 1b 53 bf 08 37 6c 3f b3 ab b7 3d 9c 0c 53 3f
       -0.82463306 0.9227147 0.08968296 0.82441115
0000e0 01 e4 3d 3e 2e 71 41 3f 07 9f 5c bf 6d 73 8f 3f
       0.18544008 0.75563323 -0.86180156 1.12071
0000f0 8e dc b6 be 09 4b 82 3e 39 74 46 3f e8 69 43 3f
       -0.35715145 0.25447872 0.7752109 0.76333475
000100 b4 47 e8 bd 48 be 85 bf 44 63 30 3f c2 fa ed 3d
       -0.11341801 -1.0448694 0.6890147 0.11620094
000110 ff 1b fd be 04 fd a6 bf b3 6e 8a 3f ee 4a d4 be
       -0.49435422 -1.3045964 1.0815033 -0.41463417
000120 cd 78 8b 3f 97 76 e3 be 95 93 7f 3e 73 56 5e bf
       1.089624 -0.44426414 0.24958642 -0.8685066
000130 9d 3f 1c bf 22 b2 d6 be d9 ff ab 3f ae 41 46 3f
       -0.61034566 -0.4193278 1.3437454 0.7744397
000140 07 52 f6 bc c2 26 44 bf a4 5e cc 3e 15 ed 19 bf
       -0.03006841 -0.7662164 0.39915955 -0.60127383
000150 13 6f 60 3f c3 4f 2d bf 98 97 87 bf d4 bd 6a bf
       0.87669486 -0.6769983 -1.0593138 -0.91695905
000160 44 e2 1e bf 5e 4f 75 bd 02 b2 50 3f f3 58 17 be
       -0.62064004 -0.059890144 0.8152162 -0.14780025
000170 fe 05 c4 3f 8b 1d 67 bd 1b fe 55 bf 64 f6 07 3f
       1.5314329 -0.05642466 -0.8359086 0.5311034
000180 2f d7 ff 3f 2a 96 e2 3f 17 26 97 3f b0 b0 9b bf
       1.9987544 1.7702076 1.1808499 -1.2163296
000190 82 e1 68 bf 42 76 b7 bd 10 4b e7 ba 1c 2f 79 bf
       -0.909691 -0.08958103 -0.0017646272 -0.9733751
0001a0 f2 e7 aa 3e 86 a0 91 bf 99 41 4f 3f 8c de 60 be
       0.33380085 -1.1377113 0.8095947 -0.21959895
0001b0 5a 67 2f 3f 4e 58 ac 3f d5 ae 3c 3e ce 10 35 3f
       0.68517077 1.3464448 0.18426068 0.70728767
0001c0 63 2b 90 3e 39 75 a9 3f 2e 5d 44 3f 14 89 62 be
       0.281581 1.3238899 0.7670468 -0.22122604
0001d0 6b e1 03 bf 54 ac 8b bf ce 6c 06 3e 9e b8 9c be
       -0.51515836 -1.0911965 0.13127443 -0.30609602
0001e0 e1 14 71 3f 0a 68 94 3f 32 5c 74 be b9 77 0c bf
       0.94172484 1.159425 -0.23863295 -0.5487018
0001f0 85 16 46 be 1a 21 04 40 47 55 53 3f c1 66 6b be
       -0.19344528 2.0645204 0.82552 -0.22988416
000200 12 ab 57 3e 30 d4 2a bd f5 1a 6e bf a2 dd 12 bf
       0.21061352 -0.041706264 -0.93009883 -0.57369435
000210 2e 11 45 bf 04 18 4c 3c 32 48 87 bc 84 b4 24 3f
       -0.7697934 0.012456898 -0.016513918 0.64337945
000220 b8 5c 97 3f 86 31 b4 3e 4e 23 f7 bf 9d 2b 2b bf
       1.182517 0.35194033 -1.9307649 -0.66863424
000230 39 46 c7 3f 20 47 5b bf 90 bf cf 3f 5c 70 30 3e
       1.5568305 -0.85655403 1.6230335 0.17230362
000240 80 16 64 3d 53 18 45 be d1 17 bd 3f fe f6 da bd
       0.05568552 -0.1924756 1.4772893 -0.10691641
000250 42 1e 17 3e d3 12 be bf 78 91 e5 be 47 a7 03 bf
       0.14757636 -1.4849495 -0.44837546 -0.5142712
000260 dd b1 a8 3f 9a 6c 84 3f e8 98 34 c0 1b 56 89 bf
       1.317928 1.0345643 -2.8218327 -1.0729402
000270 a8 28 1e bf dc 2d 76 bf 54 95 80 3f 7c b3 f3 3e
       -0.61780787 -0.96163726 1.0045571 0.47597873
000280 f8 87 85 be 57 75 bb bf 5f 59 25 3f a4 ed 66 bf
       -0.26080298 -1.4645184 0.64589494 -0.9020636
000290 95 46 48 bf 55 2d 44 bf e3 52 b8 be 14 13 63 3f
       -0.782327 -0.7663167 -0.36000738 0.88700986

user_location_embedding.weight f4 [760, 18]
000000 39 6e c3 3e cc 03 b7 be 1a 25 0f bf 1c 4a 79 bf
       0.3817003 -0.35745084 -0.5591599 -0.97378707
000010 48 37 8c 3f fc 57 87 3f 9e 6d 25 3f fd c0 96 3f
       1.095437 1.0573726 0.6462039 1.1777645
000020 d6 67 6c bf 7d 1c 6b 3b 45 d5 2d bf 4d af 39 3f
       -0.9234594 0.0035875135 -0.6790355 0.7253311
000030 e2 a0 20 bf c0 13 83 bf 0c 2a e5 3e 62 21 55 bd
       -0.6274549 -1.0240402 0.44758642 -0.05203379
000040 03 ca cb 3f b4 8b cb be 41 2f 58 bb d0 3e 05 bf
       1.5921024 -0.39755023 -0.003298715 -0.5204897
000050 bb 3d ce bd b1 17 02 3f 6b 30 9d bd a7 12 eb 3d
       -0.10070368 0.508174 -0.076752506 0.11478167
000060 de 3d 15 3e df 76 10 3f c8 8e 2f 3e c6 c3 95 bf
       0.14574382 0.5643138 0.1714431 -1.170037
000070 4e ba 95 3f 7f bc 79 3f 0b f0 60 3f 1f 24 8b bf
       1.1697481 0.9755325 0.87866277 -1.0870398
000080 80 4e 45 3f a7 4c 87 bd 5e 7f a6 3c 5b 18 9d 3e
       0.77072906 -0.06606417 0.020324405 0.30682644
000090 7e f6 43 be d5 bb 6e 3f f3 4f 4a bf 95 d0 49 bf
       -0.19136998 0.9325536 -0.7902824 -0.78833896
0000a0 58 93 95 bf d0 78 2f bf 82 df ee bd 34 f5 5c 3f
       -1.1685591 -0.6854372 -0.116637245 0.8631165
0000b0 5e c6 52 be b7 f2 d5 3f 2d 40 10 be 60 e1 c9 3f
       -0.20583484 1.6714696 -0.14086981 1.5771904
0000c0 f4 1d 6e 3f 83 60 3b bd 52 1e 08 3e 95 50 5e 40
       0.93014455 -0.045746338 0.13292816 3.4736683
0000d0 28 81 0d bf f7 c1 18 3f 5d b7 54 bf 86 0f f0 3e
       -0.552752 0.59670967 -0.8309229 0.46886843
0000e0 b3 aa aa 3d 69 61 af be f6 36 e6 bf 9e 57 ce bf
       0.083333395 -0.34254006 -1.7985523 -1.6120489
0000f0 d0 8c e9 3f b2 7f 47 3f 32 86 43 bf a4 cf ac 3f
       1.8246098 0.7792922 -0.7637664 1.3500867
000100 4d d9 52 3f 38 8c e7 3f 6d b2 a3 bf 9c 73 53 3f
       0.82362825 1.8089666 -1.2788826 0.8259828
000110 53 ff 81 bf 90 8a 2c 3e 10 0c 8e 3e ef 4f de bd
       -1.0156044 0.16849732 0.27743578 -0.1085509
000120 17 ee f5 be 70 16 b7 be 63 cd 1e bf e4 e7 4a 3d
       -0.4803321 -0.35759306 -0.62032145 0.049537554
000130 ac 80 86 bf 05 4f 58 3f 71 68 4d bf 97 dd da bf
       -1.0508018 0.84495574 -0.8023749 -1.7098874
000140 28 e7 61 be f9 af 50 3e 28 26 c8 bf c0 8a ba 3f
       -0.22060835 0.20379628 -1.5636644 1.4573593
000150 40 9a 9f bf a6 43 06 c0 4e 3e 81 bf 2c cc 31 3f
       -1.2468948 -2.097879 -1.0097139 0.69452167
000160 34 d4 44 3e 6f 50 0d 3f a5 c0 3d 3e 21 34 73 3f
       0.19221574 0.55200857 0.1853052 0.9500142
000170 ed ab 0e bf 62 c2 42 bf 91 33 c2 3c 78 eb 2a bf
       -0.5573109 -0.76077855 0.02370623 -0.66765547
000180 2b ae 07 3c 9d ec 56 bf b1 24 a4 3f 5a 3d 92 3e
       0.008281271 -0.83954793 1.2823697 0.28562433
000190 54 1d e3 bd e6 fd ba 3f f1 71 90 bd 4e bd 19 3f
       -0.11089578 1.4608734 -0.070529826 0.6005448
0001a0 a0 8c 04 bf b0 f1 5e be d0 d0 25 3f 36 84 6f 3f
       -0.51777077 -0.21771884 0.6477175 0.9356111
0001b0 dc 68 b1 bf 93 16 8d bf cf d8 bb bf 0c b7 8c bc
       -1.3860126 -1.1022514 -1.467554 -0.017177127
0001c0 01 37 1d 40 62 35 3e bf ae 3b cf bc 48 4a 71 3f
       2.4564822 -0.74300206 -0.025297012 0.9425397
0001d0 c0 1c 1a bf 53 ca 91 3e 06 d3 aa bf 8e 43 09 be
       -0.6020012 0.28474674 -1.3345649 -0.13404676
0001e0 20 c8 1d bf 94 00 31 bf 5d 7c de 3e 18 08 69 be
       -0.6163349 -0.6914151 0.43454257 -0.22756994
0001f0 d2 e0 be bd 3a b3 38 be 19 12 23 40 0b 9e fb 3e
       -0.09320225 -0.1803712 2.5479796 0.49144015
000200 17 30 36 c0 4c 03 0d be c9 85 a8 bc 02 31 1e bf
       -2.8466852 -0.13770789 -0.020571606 -0.6179353
000210 25 5c 34 3e 4e 17 29 3e 88 80 1b 40 a3 32 9c 3c
       0.17613275 0.16512796 2.42972 0.019067114
000220 8a 32 8f 3d a4 3f fe be c3 ec d9 bf bb 8b 4d 3e
       0.069920614 -0.4965793 -1.7025379 0.20072834
000230 89 e3 46 3f dc c7 55 3d 09 04 e1 be f2 3d f1 bf
       0.7769094 0.052192554 -0.4394839 -1.8847029
000240 21 d0 93 be a9 1d 71 bf aa 47 18 bf c9 cf a1 bf
       -0.28869727 -0.9418588 -0.5948435 -1.2641536
000250 54 80 43 bf ae f7 ba 3f 8f c4 2f bf d9 dd b6 be
       -0.7636769 1.4606836 -0.686593 -0.3571613
000260 49 dd 25 3d 0f f4 c7 3e 98 8f 80 3f cb 64 9a 3f
       0.040494237 0.3905339 1.0043821 1.206201
000270 6f 85 20 bf 3b 1c b9 be 89 88 0f 3d 33 24 16 bf
       -0.62703604 -0.3615435 0.03504232 -0.58648986
000280 5f 5f a3 3d 89 50 0f 3e 4f 73 22 bf 7b 9d 30 3e
       0.07977175 0.13995565 -0.63457197 0.17247574
000290 1a 67 ef bc 4c 11 3e be 63 60 8d 3f 48 14 15 3f
       -0.029223967 -0.18561286 1.104504 0.5823407
0002a0 c1 ba a8 bf 86 30 7a 3d b9 3b 88 3f 0e cd 06 40
       -1.3181993 0.06108143 1.0643226 2.1062655
0002b0 12 24 52 3d e6 2b a3 3e b5 0f 92 3e 00 59 13 bf
       0.05130393 0.3186943 0.2852761 -0.5755768
0002c0 f5 fc 2b bd bd c1 c3 3c de f1 a6 bf 35 88 ca 3d
       -0.041989285 0.023896093 -1.3042562 0.09889261
0002d0 c1 35 8f 3d c6 9f 96 3f 51 2b a4 bf 71 2f 8a 3f
       0.069926746 1.1767509 -1.2825719 1.0795728
0002e0 67 4d c9 3f da 0e 59 3f 64 5c ba be fc 78 09 40
       1.5726746 0.84788287 -0.36398613 2.1480093
0002f0 02 ea b9 bf ca 62 c0 3f 66 37 9e 3f 35 5d 0d be
       -1.4524539 1.5030148 1.2360656 -0.13805087
000300 4b af c4 be 33 ee 0e 3e ed e5 61 bf bd fa 8f 3f
       -0.38414988 0.13958053 -0.88241464 1.1248394
000310 76 2e 36 be 0a 9a 13 c0 82 ff a5 be 9e 1f be bf
       -0.17791161 -2.3062768 -0.324215 -1.4853399
000320 b2 fe 4b 3f f1 83 49 3f e8 35 2c bf 72 9f 24 3f
       0.7968551 0.7871695 -0.67269754 0.64305794
000330 21 6c f5 be 7b 30 0b 3f 2c 1d 74 3f 99 3d 27 bf
       -0.47934058 0.5437085 0.9535701 -0.65328366
000340 35 0a ab be f2 1d 9b bf e9 1b ab 3f e9 2f 14 bf
       -0.33406225 -1.2118514 1.3367893 -0.57885605
000350 7c 44 b5 3f b6 f0 d9 3f ce d7 81 bf b0 64 d9 3f
       1.4161525 1.7026584 -1.0143983 1.6983852
000360 e3 4e 0d bf a3 71 dd bf 62 66 81 bf b9 00 3e 3f
       -0.55198497 -1.7300304 -1.010937 0.7421985
000370 fc 4d 1e 40 f4 af 3b 40 af 6e 97 bf 65 bb 67 3f
       2.4735098 2.9326143 -1.1830653 0.90520316
000380 b4 f7 38 bf 27 73 2d be 2b 9c d1 3d 79 06 0d bf
       -0.72252965 -0.16938458 0.10234865 -0.55088
000390 a3 2c 47 bf 64 c3 2a be fc e4 3d bf 1e 61 a1 bf
       -0.77802485 -0.16676098 -0.7417753 -1.2607763
0003a0 29 e2 81 bd 2b 47 6b bf 46 b3 5a 3e 99 7d 8c bf
       -0.06341965 -0.9190547 0.2135745 -1.0975829
0003b0 1d fb 1e 3f 6d 4f ab 3e 08 65 8f be 52 93 37 be
       0.6210192 0.33459035 -0.28006768 -0.17927292
0003c0 c3 1f bb 3e 4c 86 22 3f 19 b6 83 3f 6b 9d 4a 40
       0.3654767 0.6348617 1.0289947 3.165858
0003d0 85 09 cd bf cf 8a eb bf f6 23 27 bf 0d 7b 0a 3d
       -1.601853 -1.8401736 -0.6528925 0.033808757
0003e0 87 06 10 bf 03 b9 4c bf 96 b2 94 3f 05 9c 00 bf
       -0.5625996 -0.79969805 1.1617 -0.50238067
0003f0 68 5c a8 bf cd ac 01 40 f8 96 a3 be 3e 86 0b bf
       -1.31532 2.026172 -0.31951118 -0.5450171

item_id_embedding.weight f4 [1600, 32]
000000 18 8a 17 3f e2 14 54 be 87 0f bc 3e 35 bd 10 bf
       0.5919509 -0.20711091 0.36730596 -0.56538707
000010 ce 54 9a 3f b1 24 0a c0 13 e0 85 3f 4d c6 6f 3d
       1.205713 -2.1584895 1.0459007 0.058538724
000020 58 5c 26 3e 3e 10 7f 3f ad 18 2f 3e 0a 75 07 3f
       0.16246164 0.9963416 0.17099257 0.5291296
000030 d2 6a 1d 3f a1 64 37 bd a7 95 68 bf 9a 5d 92 3e
       0.6149112 -0.0447737 -0.9085335 0.28587037
000040 f0 2e a4 3e 2f d0 8f 3f cb 4d 8b bf 35 01 b5 3f
       0.3206706 1.1235408 -1.0883116 1.4140993
000050 ff 60 b7 be 2f 55 d3 3f 30 7b 6c bf 63 2b a5 3f
       -0.3581619 1.6510371 -0.9237547 1.2903866
000060 64 7f 6e be c2 24 0c 3f 6a 2a 50 be d2 88 0b 3f
       -0.23290783 0.5474359 -0.2032868 0.54505646
000070 04 ee 3b bf 7a c5 e0 be d8 ec 3a 3f d6 61 0b 3f
       -0.7341006 -0.43900663 0.73017645 0.5444616
000080 ad 28 a5 bc 25 e5 a1 bf 56 29 95 be 19 8c 49 3f
       -0.020160997 -1.2648054 -0.291331 0.787294
000090 5c a4 f3 3e c5 f0 33 be d6 6e 2e bf 67 37 58 3f
       0.47586334 -0.17572315 -0.6813787 0.8445954
0000a0 31 80 8b be 69 d1 4b 3f c8 5d c9 bf cd 66 d1 3c
       -0.2724624 0.7961641 -1.5731745 0.025561715
0000b0 af 9d 48 bc 24 fa 0f 3e 42 0e 0a bf 74 b1 c0 be
       -0.012244626 0.14060265 -0.53928006 -0.37635386
0000c0 31 6e 4a be e0 4d a0 bd b0 36 62 bf 81 a5 0f bf
       -0.19768597 -0.078273535 -0.88364697 -0.56111914
0000d0 20 be 7f 3f af 32 9e bd 66 f4 b6 bf e3 41 8c 3f
       0.9989948 -0.07724511 -1.4293334 1.0957607
0000e0 9b 85 b9 bd 83 c9 69 3f 29 4a b1 3f 40 9e 63 3d
       -0.09058686 0.9132311 1.3850757 0.05557084
0000f0 67 60 44 3f bd da 35 3f 10 2c a9 bc 5d d6 a7 bd
       0.767096 0.71036893 -0.020650893 -0.081951834
000100 eb 2c d8 be 0a 82 19 bf 5b 00 ad be 15 8c e3 3e
       -0.4222177 -0.5996405 -0.33789334 0.44442812
000110 93 b4 46 3f 74 09 38 3e fd b6 81 bd 7e a3 0f bf
       0.77619284 0.17972356 -0.0633373 -0.56108844
000120 0c 2d a8 3f 54 ea 94 bf ca b7 e5 be 2c 28 10 3f
       1.3138747 -1.1634011 -0.44866782 0.563113
000130 be a9 1c bf 74 bb 0a be 71 ed 67 bd 39 8a 71 3c
       -0.61196506 -0.1354807 -0.056622926 0.0147424275
000140 74 7a 49 be 89 20 01 bf 5c ce 82 bf a7 c0 49 bf
       -0.19675618 -0.5044027 -1.0219226 -0.7880959
000150 a0 80 4c 3f 89 88 8c bf 9b 19 b6 3f 9b 06 00 bc
       0.79883766 -1.0979167 1.4226564 -0.007814075
000160 0e 8d d4 be 1d b9 d7 3f 73 4f c5 3e b9 5d e4 bd
       -0.41513866 1.6853367 0.38537177 -0.11150689
000170 0a 18 18 bf 7d 73 eb 3f 51 c3 f2 3f 45 41 84 bd
       -0.5941168 1.8394619 1.8965856 -0.06457762
000180 64 24 09 40 f4 cc 96 be c1 22 ec bf 38 fd bb be
       2.142846 -0.29453242 -1.8448106 -0.36716628
000190 09 56 ff 3e b2 30 1a 3f 88 72 e3 be 86 fb b5 3e
       0.49870327 0.60230553 -0.44423318 0.3554346
0001a0 79 2c a9 3f 36 10 3a bf 2c 60 4a bf f7 21 b8 3f
       1.3216697 -0.72680986 -0.79052997 1.4385365
0001b0 db ea a5 bf 6a aa a8 bd 60 bb 7c bd 51 83 b5 be
       -1.2962297 -0.08235629 -0.061702132 -0.3545175
0001c0 6b d2 71 3f d7 b5 14 3e bc 6f cc be b1 b6 e3 3f
       0.944617 0.14522491 -0.39928997 1.7790128
0001d0 95 dc ee be f9 7f c9 be 7e 5d 50 bf f2 60 7e 3f
       -0.46652666 -0.39355448 -0.8139266 0.99366677
0001e0 16 76 b0 3f b3 18 51 3e 50 be 4e 3f ef 37 c7 3f
       1.3786037 0.20419578 0.80759144 1.5563945
0001f0 da 23 7b bc f4 5f ab be b8 7f 7d bf cf 3a 62 3f
       -0.015328372 -0.33471644 -0.9902301 0.88370985
000200 05 68 9d 3d 54 8a 99 bf be 26 e2 be 60 eb bd be
       0.07685856 -1.1995339 -0.44170183 -0.3709364
000210 9b 24 81 bf 7c 0c e7 3f 01 b1 62 3e a3 5c d5 3e
       -1.0089296 1.8050685 0.22137834 0.4167224
000220 b2 d6 b1 bd c6 c0 d3 bf 96 02 a9 bf 50 dc ed bd
       -0.08683528 -1.6543205 -1.3203914 -0.11614287
000230 5f dd 49 3e 43 a7 1c bf f0 6d e1 be a2 25 d8 3e
       0.19713353 -0.6119272 -0.44029188 0.42216212
000240 09 98 1c 40 da 0c 47 3c 1d 2b e2 3e b7 69 02 3f
       2.4467795 0.01214906 0.44173518 0.5094256
000250 ec 29 cb bd d2 f3 e5 bf a9 ff 88 3f 5d f7 6c 3e
       -0.09920105 -1.7965033 1.0703021 0.23141237
000260 23 9c 63 3c 75 71 e5 be 3d 62 58 be e5 6d 04 3f
       0.013892206 -0.44813123 -0.21131225 0.51730186
000270 7f 7e 6c 3f e7 53 2b bf 2a de 4d bd d5 7d a1 3e
       0.9238052 -0.669249 -0.0502607 0.31541315
000280 11 48 61 3f cf ad 0c 3e 29 2f 39 3e f3 d7 8f bf
       0.8800059 0.13738178 0.18084396 -1.1237777
000290 5b fe af 3f 55 57 d9 bd 56 aa 2f 3d 57 3d 25 bc
       1.3749498 -0.106123604 0.042887054 -0.010085425
0002a0 d1 af 11 bd a7 7d 7b 3e 98 b1 74 bd 94 0a 6a 3b
       -0.035568062 0.24559651 -0.05973968 0.0035711871
0002b0 4e fc eb be 08 d5 11 40 fe bf e6 be 6f 61 96 3f
       -0.4609093 2.2786274 -0.45068353 1.1748484
0002c0 39 08 3a 3f a2 86 8c 3e e3 2b c5 3f 4a 72 6d 3f
       0.72668797 0.27446467 1.5404018 0.92752516
0002d0 b6 54 da 3f c1 78 80 3f a8 bb 9c bf c6 c5 cc be
       1.7057102 1.0036851 -1.2244768 -0.3999464
0002e0 96 77 04 bf 57 c5 47 bf 0d 72 64 bf af 1d a8 bf
       -0.51744974 -0.7803549 -0.8923653 -1.3134059
0002f0 07 68 1d 3f c7 16 40 3e 0a db a5 be 51 53 39 bf
       0.6148686 0.18758689 -0.32393676 -0.72392756
000300 6b 71 4b bf 17 7a 80 3d 6c e7 cb bf 28 13 1e 3c
       -0.7946994 0.06273287 -1.5929999 0.009648122
000310 5e 32 89 3e f4 7d 0d 3f 0b 2b 5d 3f eb 53 35 be
       0.2679624 0.55270314 0.86393803 -0.17707793
000320 25 9b fe 3f 2b 8b 08 3e 39 9f 0a bf 7a 75 9e 3e
       1.9891096 0.13334338 -0.54149204 0.30949003
000330 06 91 55 3f ac 04 18 be ea e1 45 c0 10 2b 3e bf
       0.83424413 -0.14845532 -3.0919137 -0.7428446
000340 b5 12 b4 3e 0d 72 fe 3d 3c 65 dc 3f 8a 5e fd 3f
       0.35170522 0.12424097 1.7218394 1.9794476
000350 22 6c b8 be c2 95 cb bf 1c 65 c2 bf 40 ef 73 be
       -0.3602 -1.5905077 -1.5187106 -0.23821735
000360 cc dc 84 3f e2 5a bd bf b8 fd fd 3f a4 0e 88 bf
       1.0379882 -1.479336 1.9843054 -1.0629468
000370 a7 f9 45 bc 1f 07 70 bf f5 a1 03 3f 9e 5c 1a 3e
       -0.012083448 -0.93760866 0.51419 0.15074393
000380 85 42 8d bf ae a4 f3 3f ed e9 00 bf 16 34 d3 bf
       -1.1035925 1.9034631 -0.5035694 -1.650027
000390 67 6d 1b bf b8 5f 49 bd 4a e0 0a 3e ae 21 0b bf
       -0.6071381 -0.04916355 0.13562122 -0.54348266
0003a0 be f9 28 bd 61 4a 55 be 67 ea 73 bf 43 f5 30 3f
       -0.041253798 -0.20829155 -0.95279545 0.6912424
0003b0 7b 12 d7 3e 6d 3d 78 bf 1f 06 2d be 53 06 ff 3e
       0.42006287 -0.9696873 -0.16896866 0.49809512
0003c0 b5 80 c7 3e ad 4a d4 3f c6 19 7e bc 00 aa 46 bf
       0.38965383 1.6585289 -0.015509075 -0.7760315
0003d0 1e 0d 07 c0 82 58 9f bd 9b 64 b1 be 83 9b 0a 40
       -2.1101756 -0.077805534 -0.34647068 2.1657417
0003e0 df bc 1c be 4f 8a 1d bf 34 1c 61 3f f4 57 d3 be
       -0.15306424 -0.6153917 0.8793366 -0.4127804
0003f0 24 4b 78 bf 74 7a 39 bf f5 90 8c 3d 58 4e 67 3f
       -0.96989655 -0.72452474 0.06863586 0.9035392

item_type_embedding.weight f4 [5, 8]
000000 82 f0 d2 3f 84 3a 95 bf 3f e2 21 40 b8 f8 04 3e
       1.6479647 -1.1658483 2.529434 0.12985504
000010 d5 09 17 be 99 43 67 3f a2 ec 30 be f0 5f e5 3c
       -0.14749844 0.9033752 -0.17277768 0.027999848
000020 94 2c 97 3f 59 d4 83 bf b9 87 e8 3f aa d3 34 be
       1.1810479 -1.0299178 1.8166419 -0.17658868
000030 31 be 9e bf f7 94 cb bf 2e e3 b1 3f a0 15 9a 3f
       -1.2401792 -1.5904835 1.3897455 1.203785
000040 04 71 ea 3e 9b 17 81 bf 00 7f 27 3e 77 e8 dd bf
       0.4578935 -1.0085329 0.1635704 -1.7336568
000050 16 9e 78 bf c1 57 e3 bd 48 a4 92 3e 10 70 eb bf
       -0.9711622 -0.11100722 0.28640962 -1.8393574
000060 6b 2d 87 3f d6 94 8b be 11 d8 d6 3f 23 cc 21 3f
       1.0560735 -0.2726199 1.6784688 0.6320211
000070 f0 ef 48 40 b2 d3 41 3f 0b 70 fe 3e 39 42 90 bf
       3.1396446 0.75713646 0.49694857 -1.127021
000080 43 f1 e0 bf bc 52 62 3f 37 bc 9c bf 4c 49 2d 3d
       -1.7573627 0.8840749 -1.2244939 0.04230623
000090 e6 f6 ee 3e 38 a3 c1 bd 69 c0 3d 3f b5 01 b9 bf
       0.46672744 -0.0945496 0.7412172 -1.4453646

item_temperature_embedding.weight f4 [7, 8]
000000 19 31 f9 be 57 49 17 bf d7 4f ac be c9 a8 10 c0
       -0.4867027 -0.5909628 -0.33654663 -2.2603018
000010 1d 90 c7 bd a0 06 e2 bf 73 d4 7d 3f dc 28 cb bf
       -0.09744284 -1.7658272 0.99152297 -1.5871844
000020 db 70 c9 3e 88 4b 8f 3f 6f fd fa be e8 e5 ca 3e
       0.39343914 1.1194925 -0.4902148 0.3962853
000030 64 90 2d bf 71 c4 cd 3e 65 77 7f bf 3f 14 91 bf
       -0.6779845 0.40188935 -0.99791557 -1.1334304
000040 27 97 54 bf cb c3 c7 3f fe 60 a5 3f 42 d6 4a bf
       -0.8304314 1.5606626 1.2920225 -0.7923318
000050 58 03 8c bd 5f 11 1e bd 6b c8 98 bf 73 44 cb be
       -0.06836575 -0.038590785 -1.1936163 -0.3970066
000060 a4 dc 68 bf 47 35 41 3e 2b e1 de be b4 ac f0 be
       -0.9096167 0.1886798 -0.43531165 -0.47006762
000070 0c a5 45 bf a3 5a 11 3d 71 05 dd be f5 97 b1 3f
       -0.77204967 0.03548683 -0.43168214 1.3874499
000080 ff 06 4c bf 16 ce 15 bf 11 4c 0b 3f 94 99 1f bf
       -0.79698175 -0.5851759 0.54412943 -0.62343717
000090 b9 4c a1 3d de aa a5 3f 36 e9 5f 3f 92 25 d9 3e
       0.07875962 1.294277 0.87465227 0.42411476
0000a0 50 75 2d 3f 2f d7 24 bf cf c4 01 bf d1 e8 89 be
       0.6775713 -0.64390844 -0.5069093 -0.26935437
0000b0 5a f7 be 3e dc d1 4f bf 32 48 d3 3f 9e f2 ce 3f
       0.3729809 -0.81179595 1.6506407 1.6167791
0000c0 2a 2e 97 bf d2 6e 38 3e e9 e0 20 c0 ce db 73 bb
       -1.1810963 0.18011025 -2.5137274 -0.0037209871
0000d0 01 5e 01 bf a6 32 0b 3f 06 3e 1e 3f f1 82 1b bf
       -0.50534064 0.5437416 0.6181339 -0.60746676

item_humidity_embedding.weight f4 [6, 8]
000000 ca 3b 3b bf 01 e2 09 3f 08 ce 37 3e 83 eb ca bd
       -0.73138106 0.5386048 0.17949688 -0.099082015
000010 d1 03 a1 bf a6 dc a1 be dc 5e d1 bf dd 16 8f 3e
       -1.257929 -0.31613654 -1.6357074 0.2794713
000020 0d ce 7c bf e5 04 91 be 48 97 1a 3f 2b 0e d9 bf
       -0.9875191 -0.28324047 0.60387087 -1.6957449
000030 a7 2f 6b 3f 9a 78 d2 3e b8 b8 7d 3e 0c 4b 7f be
       0.91869587 0.41107637 0.24777496 -0.24930972
000040 b9 b0 40 bf 86 64 8b 3e 02 a8 08 40 ee 55 42 3f
       -0.7526966 0.2722513 2.1352544 0.7591237
000050 41 16 51 3f 2e 7e 0a bf bb e6 05 40 01 c9 6d bf
       0.8167458 -0.54098785 2.0922077 -0.9288483
000060 68 18 8f 3f 56 00 87 3f da 08 0a c0 73 f9 32 be
       1.1179323 1.0546978 -2.1567903 -0.1747797
000070 4e 3c 27 bf df c7 29 bf 44 c6 37 3f cb f4 e9 be
       -0.6532639 -0.66320604 0.71786904 -0.45694575
000080 9f 0d 12 c0 9a c5 76 3f 23 98 03 3e c8 ce 8d bf
       -2.2820814 0.96395266 0.12851004 -1.107873
000090 4e a7 da 3f 5d 62 f3 bf e7 ac e4 bd 03 88 34 bf
       1.7082307 -1.9014393 -0.11165791 -0.7052004
0000a0 6b bc dd bd de 66 54 3f 92 85 b0 be dc 7c eb be
       -0.108269535 0.8296946 -0.34476906 -0.45993698
0000b0 eb e0 c1 be 4f d7 c9 3e 8e e0 9a 3f 92 16 27 3f
       -0.3786691 0.3942208 1.2099779 0.65268815

item_windSpeed_embedding.weight f4 [5, 8]
000000 0f 81 d4 3f 95 43 44 3f be 1f a6 bf f6 56 02 3f
       1.6601886 0.7666562 -1.2978437 0.5091394
000010 6e 13 cf 3f fa bb 65 be bf 1c 81 bf 3e 81 84 3f
       1.6177804 -0.22434989 -1.0086898 1.0351942
000020 fe e6 aa 3f 99 af 4f 3d 35 93 45 bf 0c c2 d1 bf
       1.3351743 0.050704572 -0.77177745 -1.6387343
000030 2c af fc 3d ed 82 02 3f e2 81 ac bd 5d fb b4 be
       0.12338099 0.50981027 -0.08423211 -0.35348025
000040 2a c6 d1 3d d7 62 1e bf 3f f7 8f 3f 74 93 3d 3f
       0.10242875 -0.6186957 1.1247329 0.7405312
000050 c3 ce c7 be df 9d 09 c0 c3 8a 09 bf 6b a2 f4 3f
       -0.39024934 -2.1502607 -0.5372736 1.9112066
000060 73 e7 9d bf 58 e4 4f bf 41 b2 7b 3f 5e 83 97 3b
       -1.2336258 -0.812078 0.9831887 0.0046238145
000070 20 93 86 3f 98 73 e3 3f aa a1 8f be 87 94 1c bf
       1.0513649 1.7769651 -0.28053027 -0.61164135
000080 e7 9e e6 be 5c a9 14 40 1a 2f 89 3d 19 b1 3c bf
       -0.45043108 2.3228369 0.06698437 -0.7370773
000090 1a 54 52 3f a0 02 e2 3f 46 63 a2 3f f0 d4 58 bf
       0.8215958 1.7657051 1.2686546 -0.84699917

GCN_Layers.0.W1.weight f4 [64, 64]
000000 14 c9 d4 bd 47 69 bb bc 7e c4 ae bd df 3f 0b be
       -0.10389915 -0.022877349 -0.08533572 -0.13598584
000010 a2 b1 e9 3d 1c ed 51 3d 3a f1 9a 3c 90 6c 23 bd
       0.11410834 0.051251516 0.018913854 -0.039898455
000020 39 65 0e bc 50 09 0e 3e 27 ab 10 3d 7e 37 d1 3d
       -0.008691126 0.1387074 0.035319474 0.102156624
000030 af c0 94 3c 56 47 8a 3d 91 b0 db bd 81 09 df bc
       0.018158285 0.067518875 -0.10727037 -0.027226212
000040 a1 a6 a2 bd 81 66 51 bc 8c 69 25 bd 84 59 e7 3c
       -0.07941938 -0.0127807865 -0.04038386 0.028240927
000050 ad 7b 5f bd ac b3 61 3c 29 47 ae bd 77 7b be 3d
       -0.054561306 0.013775747 -0.085096665 0.09300893
000060 54 b3 bb 3d c4 15 4e bd 05 c4 56 bd f6 4b 9b bd
       0.091650635 -0.050313726 -0.052433033 -0.07582848
000070 20 3b ee bd 21 01 a6 bd 5a a3 f0 bd b1 e3 84 bd
       -0.11632371 -0.08105684 -0.11749907 -0.06488741
000080 08 d0 a0 bd 9a 8b f9 bd 31 8d 65 bd b7 a7 75 3d
       -0.07852179 -0.1218483 -0.056042854 0.0599744
000090 aa 17 99 bd e6 ac e9 bc d7 24 b9 bd 64 66 e6 3d
       -0.07475217 -0.028524827 -0.0904023 0.11249998
0000a0 66 85 4b bd 8e 78 80 3d ac b8 c1 bd c3 bc 3b bc
       -0.049687766 0.06272994 -0.094590515 -0.0114585785
0000b0 c4 25 fb 3d bb 65 be 3d 2a d4 b1 bc 4e 37 53 bc
       0.122630626 0.09296747 -0.021707613 -0.012891604
0000c0 53 78 d8 bd e0 5b 80 bd ef b3 8b 3d fb f2 b8 3c
       -0.10569825 -0.06267524 0.06821429 0.0225768
0000d0 75 89 fe bd 48 1d 51 3c a4 c3 04 bd f1 49 b9 3d
       -0.124285616 0.012763329 -0.03241314 0.09047306
0000e0 1b 7e ec 3d 6d e3 06 bb c4 cb 33 bd 3a 76 4e 3c
       0.1154749 -0.0020582334 -0.043895498 0.01260143
0000f0 0b fb a2 bd 36 5f 97 bd 1a f2 ea 3c ce f9 a5 3c
       -0.07958039 -0.07391207 0.028679896 0.020260718
000100 6d f4 4b 3d 8d 0e cc bd 8b ed 82 3d 40 b2 01 be
       0.04979365 -0.09963713 0.06392964 -0.12665653
000110 2f 1a 77 bd fe 1d c9 3c 36 1d c9 3d af f8 d9 ba
       -0.060327705 0.024550434 0.09820025 -0.00166299
000120 e4 0d a9 3d 71 cb 8f 3d 2b 8c 41 3d 25 1d 0f bd
       0.082546026 0.07021225 0.047252815 -0.034939904
000130 e1 b5 e4 bd eb 4e 93 bc 1d 9c 9d bc 2a 93 80 bd
       -0.11167503 -0.017981967 -0.01923948 -0.06278069
000140 68 4b 8b bd 5e 14 40 bd 67 5f ab 3c 0b b9 bd bd
       -0.06801492 -0.046894424 0.020919515 -0.0926381
000150 23 e1 30 bd 8c d0 6a 3d 1d 12 9c 3d bd 0d ab bd
       -0.043183457 0.057327792 0.07620642 -0.0835223
000160 35 56 3b 3d 8e ca 93 3d 92 b4 dd bd 40 e2 09 3d
       0.04573651 0.072163686 -0.10825457 0.033663034
000170 23 25 01 3e 25 72 91 3d 08 94 ba bc 9a 43 00 be
       0.12611823 0.071018495 -0.022775665 -0.12525788
000180 b1 bb 6b 3d 86 13 c1 3d 71 0c 1c 3d f5 02 87 bb
       0.057552043 0.09427552 0.038097803 -0.0041202256
000190 94 16 17 bd 55 af 69 bd cc 04 da bd 79 7b 82 bc
       -0.036886767 -0.057051975 -0.10645446 -0.015928017
0001a0 ae fa 2b 3d 81 16 9e 3d 97 10 83 3d 44 6b 86 bd
       0.041987114 0.07719136 0.06399649 -0.06563428
0001b0 72 84 90 bb 27 9f f1 3d eb 4b 3f bc d7 af f4 3c
       -0.00441032 0.11797934 -0.011675815 0.029869003
0001c0 d1 12 fe bc e1 43 72 3d a4 88 89 bd c6 76 e5 bd
       -0.031014832 0.059146766 -0.06715515 -0.11204295
0001d0 91 d6 52 bc ed 51 a5 bd 30 4a 7f bd fd bd ad 3d
       -0.012868539 -0.08072267 -0.06232661 0.08483503
0001e0 e1 d3 b7 3d bd 05 f5 bc f1 5d 8d 3d 50 5d 2c bb
       0.089759596 -0.029909963 0.069026835 -0.0026300736
0001f0 d8 8c ba 3d 39 38 e6 bd 87 e6 b5 3d cb 42 3d bd
       0.09108895 -0.11241192 0.0888186 -0.046206277
000200 13 32 69 3c 7f 1f ff 3d d7 ce 17 bc 7d 7e 83 bc
       0.01423313 0.12457179 -0.009265623 -0.016051525
000210 e0 14 d8 bd 83 aa e9 bc fc 06 06 be 77 15 01 be
       -0.105508566 -0.02852369 -0.13088602 -0.12605844
000220 80 12 c2 3d bd 4b 73 bd 5d 03 00 3d 85 d2 21 3d
       0.09476185 -0.0593984 0.031253207 0.039507408
000230 5d 2e c3 3d 35 9a b7 3d ed ad c6 bc 6d 37 cf bc
       0.095303275 0.089649595 -0.024252856 -0.025294984
000240 58 da 83 3c 1b 95 cd bd 88 58 ae bc 9d 0c 18 bc
       0.016095325 -0.10038205 -0.02128245 -0.009280351
000250 59 25 3d bd ea 5c 98 3c 0a 50 8c 3b 7d b8 51 bd
       -0.046178196 0.018598992 0.0042820023 -0.051201332
000260 d5 6f 33 3d c6 3b 50 3d 72 0c 27 3d 23 12 0e be
       0.043807823 0.050838254 0.040783353 -0.13874106
000270 93 9f d4 3d 08 43 8a 3d dd 0f 0d bd 17 ee ea 3d
       0.10381999 0.067510664 -0.034438957 0.11471193
000280 25 eb d4 3d 0d 97 9d 3c 8d 25 c9 bd e2 c2 53 3d
       0.10396413 0.019237066 -0.09821615 0.051699527
000290 df b5 46 bd d8 cf 7c bd 79 34 0b bd 3b fc f4 bd
       -0.04851329 -0.061721653 -0.03398559 -0.11962172
0002a0 af c2 fe bc 12 04 cb 3c a6 99 da 3c d6 d4 ed 3d
       -0.031098692 0.024782214 0.026684593 0.11612861
0002b0 93 02 10 ba 91 d8 f8 bd 9a d3 ef 3d e8 dd 6a bd
       -0.00054935477 -0.12150682 0.11710282 -0.057340533
0002c0 22 58 44 3b 61 1c b0 3d fe 09 a9 bd 8d ec 0a bd
       0.0029959758 0.08599163 -0.08253859 -0.033917
0002d0 be 81 9a bc 93 f8 8c bd b0 c8 b4 3d be de 87 3d
       -0.018860694 -0.06883349 0.088273406 0.066342816
0002e0 7f 79 7c bd cf 90 a5 ba 85 df 86 bc c0 e2 1d 3d
       -0.061639305 -0.0012631657 -0.016464004 0.038546324
0002f0 47 db b7 3d 76 cc b6 bd 57 35 ed 3d 32 65 9d 3d
       0.08977371 -0.089257166 0.115824394 0.07685317
000300 91 d8 1c 3d aa 0d 51 bc 9e 97 8e ba 45 b8 ce bc
       0.03829247 -0.012759605 -0.0010878926 -0.025234351
000310 d9 6e a3 3d 03 c7 de bd ea 47 30 3c d0 ef 79 bd
       0.07980127 -0.10877802 0.010759333 -0.06101972
000320 b0 6f 4c bd a0 b9 56 bd 69 03 e9 bd 3b 6a 05 bd
       -0.0499112 -0.05242312 -0.113776036 -0.032572012
000330 f7 80 f9 3d 49 16 ea bd 9f 38 83 bd 82 2f bb 3d
       0.12182801 -0.11430032 -0.06407284 0.09139921
000340 e6 85 6c bd fc 7a 0b 3d a4 7e af 3d e3 e8 2e 3d
       -0.057744883 0.034052834 0.08569077 0.042702567
000350 ea d7 8c bd a1 c6 78 3d 1c 1a ab 3d bb 9d 61 bd
       -0.0687712 0.060736302 0.08354589 -0.055082064
000360 81 c8 57 bc 08 0f ef 3d 33 a7 50 3d c2 ce c0 3d
       -0.013170362 0.11672789 0.050940704 0.09414436
000370 1f 65 31 bc 30 39 4b bd b9 6c f2 bd ea 8c 86 3d
       -0.010827332 -0.049615085 -0.118371435 0.06569846
000380 f4 5b ae 3d 72 17 87 3d 65 31 c0 bc af 66 45 bd
       0.085136324 0.06596269 -0.023461053 -0.04819363
000390 fe f5 bb 3b 1d fc c7 3d 4b 5e fb 3d 61 2f 46 bd
       0.0057361117 0.09764884 0.12273844 -0.048385028
0003a0 6e 8b 18 3d c0 f8 8e bd 0c 07 4f bd 68 2b c9 bd
       0.037242346 -0.06981039 -0.05054383 -0.09822732
0003b0 8b 8a c5 bd 89 1b 3e 3d 2c 34 22 3c 7d 76 fc bd
       -0.096455656 0.04641298 0.009900134 -0.12327287
0003c0 f2 d0 0b bd 95 57 3b bc 6c 61 f3 3c 4b 52 c6 bd
       -0.034134813 -0.011434455 0.02970954 -0.09683665
0003d0 49 ca f9 bd 44 5d 39 bc 3a 43 78 3d c3 22 4e 3c
       -0.12196786 -0.01131374 0.060610987 0.01258153
0003e0 b8 0d f7 bd fa fa 46 bc 4b 5a 30 bd 86 ab ba bd
       -0.120631635 -0.012144798 -0.04305486 -0.09114747
0003f0 42 a2 c6 3d 2f 13 b9 3c 86 b3 a3 3d f1 ce 69 bc
       0.09698917 0.022592155 0.07993226 -0.01427053

GCN_Layers.0.W1.bias f4 [64]
000000 73 82 13 3d cd cf ee 38 3b d1 8a 3c d7 b6 bb bc
       0.036013078 0.0001138743 0.016945472 -0.022914333
000010 82 ef c0 3c bb 7d 42 bd fd d0 5b 3c d8 1d f1 3d
       0.023551706 -0.047483187 0.013416526 0.1177327
000020 9c 26 d5 3d 5e 26 e2 bd 6d 63 09 be 27 c7 fc 3c
       0.10407755 -0.11042474 -0.13416834 0.030856682
000030 bd 77 c7 bd 2f 0a 95 3d 3f b7 ff 3d 7f b8 e2 bc
       -0.09739635 0.07277333 0.12486123 -0.027675865
000040 d9 29 a9 3c d0 0d cf 3d 12 7b fb 3d bc d4 8d 3d
       0.020649837 0.101100564 0.12279333 0.069253415
000050 07 c9 36 bd b7 10 9a bd 6f 33 a5 bc 81 4f e0 bc
       -0.04462531 -0.07522719 -0.020166127 -0.02738166
000060 a6 6a 32 bd b7 12 a3 3d ed 5e 56 bc 43 9a d6 bd
       -0.04355874 0.07962554 -0.0130841555 -0.10478642
000070 57 4b 10 3d 0e 9f 8e 3d 1a 6c 4e bd 1e b2 d6 3d
       0.0352281 0.06963931 -0.050396062 0.10483192
000080 df d5 e9 3c 27 11 9f bc 9f 02 38 3b 4a 5e b8 bd
       0.028544364 -0.019417359 0.0028077734 -0.09002359
000090 7e 25 4d bd 3c fb 61 bd 18 b6 0b be 32 35 35 3d
       -0.050084583 -0.055171236 -0.13643682 0.044240184
0000a0 5b 32 37 bc d6 55 80 3d 4f 33 d5 bd 2e 81 30 bc
       -0.011181439 0.06266372 -0.10410177 -0.010772986
0000b0 c0 f4 32 3d bd 8a dd bd 2d c1 18 bd 73 a1 3d bd
       0.043690443 -0.10817478 -0.0372936 -0.046296548
0000c0 df ed e9 3d 94 8e c4 3d 49 86 84 bd a1 fa 0f 3d
       0.114223234 0.09597507 -0.06470925 0.035151128
0000d0 dc 92 a4 3c 0b a2 48 3d b3 96 47 3c 94 e5 36 3d
       0.02008956 0.04898266 0.012181926 0.044652537
0000e0 ec 6c c6 bd 24 7a a2 bd 25 60 bc bd b9 4f ee bd
       -0.09688744 -0.07933453 -0.091980256 -0.116363
0000f0 ee 27 80 3d ef d2 dd bc 62 83 8d 3c ff 29 91 bd
       0.06257616 -0.02707812 0.017274562 -0.07088088

GCN_Layers.0.W2.weight f4 [64, 64]
000000 a1 44 86 bd 3a f6 c6 3d 0c c0 e1 3d 22 e8 91 bc
       -0.06556059 0.09714933 0.11022958 -0.017810885
000010 2b 50 bd 3d bc 60 30 bd c1 14 3e 3d c2 6e c0 bd
       0.092438065 -0.043061003 0.04640651 -0.093961254
000020 2b 86 11 3d 94 8e a6 bd d6 23 5f 3d 06 31 68 bd
       0.035528343 -0.08132663 0.054477535 -0.056687377
000030 2a 10 f0 3c 42 00 a5 3d 23 ef ab bd 4e 0b d2 bc
       0.029304583 0.0805669 -0.08395221 -0.025640156
000040 72 b8 11 bc a3 02 a3 bd 06 78 d7 bd 93 ff d9 3d
       -0.008894073 -0.07959487 -0.105209395 0.1064445
000050 91 c4 ea 3d 99 4e 95 3d a4 0b ff 3c 71 fe 09 be
       0.11463273 0.07290382 0.03113348 -0.13475968
000060 13 8f cf bd 82 a9 ba 3c 44 ad ed bd 18 91 5d 3d
       -0.10134711 0.022785906 -0.116053134 0.05409345
000070 33 ca 90 3d 6e 53 28 bd 27 28 db 3d 8a fb 8f bd
       0.070698164 -0.04109519 0.10701018 -0.07030399
000080 dc 3a f1 3d d7 c9 7f bd 57 85 ee 3d 5c 6e fc 3c
       0.11778805 -0.06244835 0.11646526 0.030814342
000090 60 38 89 3c 60 6c e2 3d 3c c0 83 3a 8b de 88 3d
       0.016750515 0.11055827 0.0010051797 0.06683072
0000a0 19 9e 4f bc f1 e6 5c bb 44 7f 9f bd 77 e8 41 bc
       -0.012671971 -0.0033706988 -0.07787946 -0.011835209
0000b0 74 3e 7c bd e5 cf e9 3a 6d 0a d2 bc 9a bb 11 3d
       -0.061582997 0.0017838447 -0.025639737 0.0355793
0000c0 ed 57 50 bc 57 04 c2 bd 0d 2f f0 3d b3 19 96 bc
       -0.012716276 -0.09473484 0.11727724 -0.018322801
0000d0 34 e7 94 bd 34 3f 00 bd 2e 58 69 3d e5 20 e6 3d
       -0.07270661 -0.031310275 0.05696886 0.11236743
0000e0 5b 4b 4a 3d 1c 11 c2 bd 3e 85 fd 3c 22 fd 51 bd
       0.04938827 -0.094759196 0.030947324 -0.051266797
0000f0 c9 76 10 3e 38 ce 26 3d d4 18 00 3e 0a 29 86 3d
       0.14107813 0.04072401 0.12509471 0.06550796
000100 cb 7b f5 bc 88 c7 74 3d 36 38 0b 3e ba a7 07 bb
       -0.029966256 0.0597606 0.13595662 -0.0020699338
000110 2e 0e 24 bb fb 93 1b bc 81 83 8c bd 77 65 97 bd
       -0.0025032866 -0.0094957305 -0.0686102 -0.073924
000120 87 eb e8 bd 3e 80 64 bd d6 da e0 39 dd 69 4e 3d
       -0.11373048 -0.055786364 0.00042887655 0.050393928
000130 fc 50 7e 3d 75 3e cf 3c 46 1f eb 3c ac 0d af 3d
       0.06208895 0.025298337 0.028701436 0.085475296
000140 54 b6 97 bd 77 3b 1c 3d b3 9b 36 bd c6 ce 6b 3d
       -0.07407823 0.038142648 -0.04458208 0.05757024
000150 c0 55 62 3d 04 62 84 bd 5d f3 a4 3c a9 15 7c bd
       0.05525756 -0.064640075 0.020135576 -0.061544094
000160 35 41 0d 3d 98 7c c3 bd c2 10 c4 bc ae ad 83 bd
       0.034486014 -0.09545249 -0.023933772 -0.06429611
000170 ee c5 cc 3d 5c 27 e7 bc 52 77 13 bc 3b e9 99 3d
       0.099986896 -0.02821701 -0.009000616 0.07515188
000180 a2 ec 08 3d 1a 19 f9 bd 36 e2 02 be 9b 20 97 3c
       0.033428796 -0.12162991 -0.12781605 0.018448165
000190 34 1c 3b bc 75 83 11 3d 92 ed b2 bc b7 96 7b 3d
       -0.011420298 0.035525758 -0.021841798 0.06142303
0001a0 3d a5 55 3d 4b 55 a3 3d cb a2 a1 3d 38 a5 6b 3d
       0.052159537 0.07975253 0.078923784 0.05753061
0001b0 28 94 dd 3d c0 de e5 bd 7e 25 9e 3b d3 5e 96 3d
       0.10819274 -0.11224127 0.0048262468 0.07342305
0001c0 74 db 11 bd 3b d9 2b bd 25 00 7a bd 5d 32 29 bd
       -0.035609677 -0.041955214 -0.061035294 -0.041307796
0001d0 75 2d 4b 3d ad 2f a6 3d 49 8a 1c 3d bc 45 d9 bb
       0.049603898 0.08114562 0.038217817 -0.0066306274
0001e0 a2 f1 d8 bc d3 ac fe 3d 8e f0 48 bd a4 0b 33 3c
       -0.026482407 0.12435307 -0.049057536 0.010928068
0001f0 98 ef 07 bb 99 95 b9 bd 97 58 f7 bc 7a ba ab 3c
       -0.0020742174 -0.090617366 -0.03019361 0.020962942
000200 ad 15 9e 3d ba 9b ff 3d 7b e7 67 3d c2 af ec bd
       0.07718978 0.12480874 0.05661724 -0.11556961
000210 51 75 90 3c 3d 8f 93 bc 8c 0c 9a bd 70 03 bd 3a
       0.017634066 -0.018012637 -0.075219244 0.001442058
000220 24 9d b4 3d 60 e9 5d bc af 18 dd bd d0 eb 9a bd
       0.08819035 -0.0135444105 -0.10795724 -0.07564509
000230 f3 a3 1c bd f8 6d 2a 3b 25 65 a7 3d d0 07 35 bc
       -0.03824229 0.0026005488 0.08173589 -0.011049226
000240 24 2d ae 3d af e2 7b bc f2 75 15 3d 05 85 ae 3d
       0.08504704 -0.01537387 0.036489435 0.08521465
000250 15 97 48 3d 4f 77 c6 bd e2 a0 29 bd 61 e4 a3 3d
       0.048972208 -0.09690725 -0.041413195 0.08002544
000260 dc 6d 56 bc c7 cc 88 bd 09 23 ba 3d 8f 32 56 3d
       -0.013087716 -0.06679683 0.09088714 0.05229431
000270 3d b0 36 3d 1d 74 58 bd 9e 0a 49 bd 3f c0 2a bd
       0.044601668 -0.05284511 -0.04908239 -0.041687246
000280 24 c7 a9 3d 09 db 6f bd a6 c7 00 bd 6b ee 9e bd
       0.08289936 -0.058558498 -0.0314404 -0.07760318
000290 a4 26 f3 bb 9e 0a 8b 3d 18 c4 0f 3d 91 6d ac bd
       -0.007420378 0.067891344 0.03509912 -0.08419336
0002a0 7f ee 05 3c 00 ae 4f 3c 2b f4 51 bd 0b 43 9c 3c
       0.008174538 0.012675762 -0.051258247 0.019074937
0002b0 97 58 cb bd 81 b6 aa bc a3 ef 11 3d c4 e5 fd 3b
       -0.099290065 -0.020838978 0.035628926 0.0077483375
0002c0 38 78 7c bd 2d fe 2c bd f5 89 86 3d 62 8b 12 3d
       -0.061638087 -0.04223459 0.06569282 0.035777457
0002d0 4d 15 6a 3d 14 34 a0 bc 01 01 a3 3d c1 75 30 3c
       0.05714922 -0.019556083 0.07959176 0.010770262
0002e0 52 e3 27 3d 8c 04 0a bd f9 07 fd 3d 9f 0a 15 3d
       0.040988274 -0.033695742 0.12355036 0.036387082
0002f0 dc ab a1 bd d6 a6 9b 3d e6 02 a8 3d f5 1d 66 bd
       -0.07894108 0.07600181 0.08203678 -0.056180913
000300 71 e1 b5 bc 2d 68 72 bc f1 65 b7 3d f8 7d 7c 3d
       -0.022202225 -0.014795345 0.08954991 0.06164357
000310 24 36 7d bd 58 d3 f2 3d c6 71 af 3d 7f 61 10 bd
       -0.06181921 0.11856717 0.085666224 -0.03524923
000320 3f 95 79 bc 3c 20 b4 bd d3 dd 03 be e4 8d a1 3d
       -0.015233337 -0.08795211 -0.12877588 0.078883916
000330 82 73 38 bd f8 91 8c 3d fa 1f b9 3d ee 6b f4 3d
       -0.04503203 0.06863779 0.09039302 0.119346485
000340 ca fe c4 3b 30 71 71 bd 5f 29 1e bd 24 97 cc bd
       0.0060118185 -0.058945835 -0.038613673 -0.09989765
000350 2d 2f d9 3d 82 b2 19 3d 1a 75 90 bc dd a7 02 be
       0.10604701 0.037523754 -0.017633963 -0.12759347
000360 db cc b7 3d aa 84 56 bd d6 e7 5d 3c a0 9e 5b bd
       0.0897462 -0.052372612 0.0135440435 -0.053618073
000370 90 00 e6 bd 68 f5 cf 3b 29 b1 f0 3c 7d 18 12 be
       -0.11230576 0.0063463934 0.029381352 -0.14267154
000380 b9 5f 47 bd d7 3c b0 bd 2e 14 91 3c 96 e6 a6 bb
       -0.048675273 -0.08605354 0.017709818 -0.005093406
000390 0a b0 8a bc 09 3c 76 bd e5 82 9c 3c c1 16 14 bd
       -0.016929645 -0.060115848 0.019105384 -0.036154512
0003a0 41 7b aa bd 9c 67 3d 3d d8 84 38 3d ba 15 5b 3d
       -0.0832429 0.046241388 0.045048565 0.053487517
0003b0 31 d3 11 bd 9c fd 60 bb fc a9 f9 3d 72 dd c7 bd
       -0.0356018 -0.003433085 0.12190625 -0.09759034
0003c0 dd 23 9a bc d2 9e d8 3c d5 e6 be bd 69 0b e9 bd
       -0.01881593 0.026442919 -0.093213715 -0.113791294
0003d0 ab 44 31 3d 28 92 8a bc 00 8d 77 bd 06 56 17 3d
       0.043278378 -0.016915396 -0.060437202 0.036947273
0003e0 cf 49 ac bd 0e de 64 bd b9 12 86 bd cc 2c 6f 3d
       -0.08412515 -0.05587583 -0.0654654 0.05839233
0003f0 1e 10 a0 bb 20 b4 c7 3d c6 46 ef bd c4 14 00 be
       -0.004884734 0.09751153 -0.11683421 -0.12507921

GCN_Layers.0.W2.bias f4 [64]
000000 79 dd 94 bd 95 92 17 bd f5 7d ca bd 40 22 b3 3d
       -0.07268805 -0.037005026 -0.09887306 0.08746767
000010 6e a5 e9 bc db ba a8 3c ee 78 e7 bd 32 97 ad bc
       -0.028521266 0.020596912 -0.113023624 -0.02119026
000020 12 98 8d bc 0f 78 cb bb 61 ba 03 be de 3e cf bd
       -0.017284427 -0.0062093805 -0.12864067 -0.10119413
000030 b5 8f b8 3d 86 a8 c6 3c 53 55 c8 bb ea 0f 55 3c
       0.09011785 0.02425028 -0.006113687 0.0130042825
000040 e6 2b 1b bd 92 4b af bd fc 92 3b bd d2 d9 4d bc
       -0.03788366 -0.08559336 -0.045794472 -0.012564139
000050 8f 0c f3 3d 94 83 ee bd d0 17 dc 3d 74 b8 b1 3d
       0.1186763 -0.1164619 0.107467294 0.0867776
000060 4a c4 f0 3d fc 3e 53 bd 58 d0 ad 3d 38 3c c6 bd
       0.11756189 -0.05157374 0.08487004 -0.096794546
000070 f4 15 64 bc ff 3f 07 3d 19 a6 29 3c d8 58 ee 3c
       -0.01392125 0.033020016 0.010354542 0.029095098
000080 20 0e b9 bd 3d 51 f5 3a 89 e8 0e bd d3 ef f7 3c
       -0.09035897 0.0018716227 -0.03488973 0.030265724
000090 3a b9 ac bd 3e 4a 5c 3d e7 ee d8 3d 51 86 08 3c
       -0.08433767 0.05378174 0.10592442 0.008332805
0000a0 67 75 cc bd 1a 97 0f 3c d4 cd 88 bd 36 7f c9 3d
       -0.0998333 0.008764053 -0.066798836 0.09838717
0000b0 5a 75 41 3d ba 75 19 3c 65 58 d0 bb 06 89 5e bc
       0.047231056 0.009366447 -0.0063581937 -0.013582474
0000c0 06 c5 a3 bd d5 03 ae bd cc 97 d9 3d 66 34 4d bc
       -0.079965636 -0.08496825 0.10624656 -0.0125247
0000d0 52 7d b7 3b 1c 60 83 bd da e6 84 3d cb d1 7e 3d
       0.005599656 -0.06414816 0.06489344 0.062211793
0000e0 38 a4 97 bd cf 0e ff 3d 5a 80 8f 3d 4d a8 84 bd
       -0.07404369 0.124539964 0.07006903 -0.06477413
0000f0 ad 3c 07 be 11 74 b6 3d 7b 96 81 bb f6 52 8f bd
       -0.1320674 0.08908857 -0.0039547062 -0.069982454
